models/4inst/checkpoint/DGVTTC.pth (torch, 877414 bytes, 14 tensors)

lstm.weight_ih_l0 f4 [512, 5]
-0.07645923 0.050502155 0.10340699 0.1005503 -0.10097061 -0.103721276 -0.075158134 -0.001040748
0.016488198 0.01423612 -0.086880706 -0.017497439 0.0366211 -0.061503936 0.039290693 -0.02986073
0.10736808 0.06331361 -0.009644058 0.06343502 0.097659275 -0.048417524 -0.08874702 -0.07606938
-0.093172915 -0.08293255 -0.05521733 0.0024556164 0.03738737 0.005766176 -0.0030477133 -0.059131313
0.09383745 -0.07371956 -0.06734383 -0.062621646 -0.0051763235 -0.06082493 0.047430698 -0.06317124
-0.025119679 0.04192036 0.12476998 -0.03906562 0.085768335 -0.09562838 0.038706947 0.023074998
0.07653845 -0.0063741617 0.080705464 -0.02942317 0.06493388 0.0060434476 0.033534694 -0.07467254
0.11723055 -0.03629857 0.03357894 -0.04912206 0.09688177 0.030639604 0.04892618 0.047248114
-0.07188554 -0.021983696 0.050626602 0.09248134 0.02873178 -0.04725356 -0.016582519 0.05035226
-0.023248034 0.011386043 0.066358745 -0.00286864 -0.01089735 -0.029673079 -0.0788216 0.08995866
0.08978824 0.039614838 -0.07167731 0.105605036 -0.079288155 0.059993677 0.10791662 -0.01741601
-0.024577681 -0.057530563 0.04081278 -0.0148794195 -0.036192298 -0.05834536 0.08300079 0.02152838
0.022397894 0.06312174 0.089726545 -0.02061497 0.03041734 -0.102008626 0.021609997 -0.042671785
0.0028788447 0.046898022 -0.06332856 0.094234824 -0.053436637 0.055374816 0.027637668 -0.080122456
0.069112964 0.1131233 0.05490816 -0.062335696 -0.08564567 -0.09492511 -0.019128684 0.032193314
0.061212163 -0.090297975 -0.041753586 0.039202202 -0.030026386 0.06317116 -0.04966518 -0.004362113
0.0038194975 -0.07043631 -0.07093932 -0.09682105 0.00092707336 -0.10429165 -0.023212127 0.02201181
0.078214 -0.07683865 -0.047268234 -0.05589791 0.039909072 -0.08719785 -0.04148807 0.06062366
-0.03535879 -0.042278163 0.10996766 -0.07353932 -0.057824273 0.112220295 0.03426745 0.017245298
0.047060546 -0.024405923 0.092105545 -0.08065588 0.07877117 -0.053977475 -0.07368515 -0.043196213
-0.034666434 -0.056271285 0.09612599 -0.0010835503 0.033254776 0.022233125 0.049800392 0.05040566
0.08740444 -0.040234875 0.063077 -0.01610054 -0.05127767 0.04954842 0.084436424 0.08282651
-0.081754476 -0.006710041 0.090452686 -0.060724568 -0.04490132 0.056063388 0.11383122 -0.035676956
-0.09017714 0.023450298 -0.031852536 -0.029270431 0.05738213 0.007949162 -0.014647261 -0.0013110959
0.027602933 0.0410645 0.115344964 -0.07112256 0.08131894 0.04476029 -0.03462817 -0.07641005
0.010393869 0.06087414 0.023546746 0.08130884 0.012377782 -0.016194087 0.072490305 0.08426706
-0.05791803 -0.05669684 -0.019947434 0.02897105 0.07236392 -0.042778626 0.028360374 -0.042361103
0.008129955 0.05781402 -0.042317253 -0.025274297 0.051743995 -0.011315429 -0.047646478 -0.06936501
0.1030221 0.09357601 -0.033890013 0.11304999 0.06647724 -0.0173405 -0.01257302 0.009306181
-0.034373663 -0.049029436 0.031543005 -0.07229767 0.0425438 0.06295924 0.08895377 -0.058321346
0.008555921 0.08135212 0.032377433 0.0033018528 -0.050234396 0.059982955 0.09439987 -0.08839791
-0.072572306 -0.089757934 0.02148607 -0.063146636 0.062795505 0.044140328 -0.051262923 -0.095151216
00000000: a896 9cbd 59db 4e3d 0bc7 d33d 51ed cd3d
00000010: aec9 cebd d26b d4bd 82ec 99bd b569 88ba
00000020: 4212 873c 9d3e 693c 83ee b1bd ca56 8fbc
00000030: 0200 163d 8deb 7bbd 47ef 203d 7d9e f4bc
00000040: cce3 db3d 91aa 813d 1c02 1ebc 38ea 813d
00000050: 9601 c83d 7451 46bd ffc0 b5bd 43ca 9bbd
00000060: 71d1 bebd 8ad8 a9bd 912b 62bd 68ee 203b
00000070: 8023 193d 31f2 bc3b 25bc 47bb ad33 72bd
00000080: d92d c03d 48fa 96bd 90eb 89bd c73f 80bd
00000090: 269e a9bb 9023 79bd b146 423d ec5f 81bd
000000a0: c9c7 cdbc afb4 2b3d 6787 ff3d 4603 20bd
000000b0: 4fa7 af3d d0d8 c3bd 2d8b 1e3d c707 bd3c
000000c0: 31c0 9c3d 58de d0bb e848 a53d dc08 f1bc
000000d0: 0efc 843d 1d08 c63b ad5b 093d ebed 98bd
000000e0: 9216 f03d cfad 14bd 128a 093d 3734 49bd
000000f0: f369 c63d e8ff fa3c d166 483d 3d87 413d
00000100: ba38 93bd 2717 b4bc d75d 4f3d db66 bd3d
00000110: e95e eb3c f38c 41bd 10d8 87bc 2c3e 4e3d
00000120: a972 bebc 878c 3a3c 18e7 873d cbff 3bbb
00000130: cc8a 32bc f514 f3bc 386d a1bd 3f3c b83d
00000140: e6e2 b73d 2b43 223d 8ecb 92bd 7447 d83d
00000150: d461 a2bd eebb 753d 6403 dd3d 05ac 8ebc
00000160: 2257 c9bc 2ba5 6bbd 4d2b 273d cfc8 73bc
00000170: 603e 14bd 8bfb 6ebd 51fc a93d 495c b03c
00000180: ca7b b73c f945 813d 8dc2 b73d bae0 a8bc
00000190: c92d f93c e6e9 d0bd 7307 b13c 9cc8 2ebd
000001a0: 00ab 3c3b 2418 403d 67b2 81bd 30fe c03d
000001b0: 60e0 5abd b4d0 623d 6468 e23c 3e17 a4bd
000001c0: 198b 8d3d 30ad e73d 61e7 603d b753 7fbd
000001d0: ff66 afbd 1968 c2bd c2b3 9cbc 23dd 033d
000001e0: 9bb9 7a3d 25ee b8bd cf05 2bbd 7d92 203d
000001f0: e5f9 f5bc e25f 813d b76d 4bbd 0ef0 8ebb
00000200: 8950 7a3b e940 90bd a248 91bd 1d4a c6bd
00000210: d706 733a dc96 d5bd 5c27 bebc 1d52 b43c
00000220: a92e a03d 955d 9dbd 569c 41bd 35f5 64bd
00000230: b277 233d c994 b2bd 65ef 29bd 8450 783d
00000240: 61d4 10bd de2b 2dbd b936 e13d c89b 96bd
00000250: 25d9 6cbd c1d3 e53d 075c 0c3d 0346 8d3c
00000260: 8fc2 403d eeee c7bc d5a1 bc3d e92e a5bd
00000270: c752 a13d 7c17 5dbd 3de8 96bd 83ee 30bd
00000280: 64fe 0dbd b87c 66bd b4dd c43d ea05 8eba
00000290: 2936 083d 3e22 b63c 7ffb 4b3d 2a76 4e3d
000002a0: 1901 b33d 53cd 24bd 842e 813d 48e5 83bc
000002b0: 8908 52bd 49f3 4a3d 01ed ac3d f2a0 a93d
000002c0: e46e a7bd e7df dbbb 423f b93d 53ba 78bd
000002d0: 72ea 37bd b9a2 653d 5820 e93d 0022 12bd
000002e0: cbae b8bd d71a c03c ce77 02bd 8bc8 efbc
000002f0: 8609 6b3d 343d 023c 11fb 6fbc 14d9 abba
00000300: 8c1f e23c 4033 283d fb39 ec3d b4a8 91bd
00000310: 8b8a a63d 9156 373d 45d6 0dbd df7c 9cbd
00000320: 0c4b 2a3c 2a57 793d 1be5 c03c 4085 a63d
00000330: 2ecc 4a3c 76a9 84bc cc75 943d 3594 ac3d
00000340: 753b 6dbd f23a 68bd cd68 a3bc b254 ed3c
00000350: 8933 943d a438 2fbd 0454 e83c d682 2dbd
00000360: 8133 053c 65ce 6c3d db54 2dbd 0b0c cfbc
00000370: 83f1 533d 5964 39bc f428 43bd 3e0f 8ebd
00000380: 40fd d23d c7a4 bf3d 41d0 0abd c186 e73d
00000390: 3825 883d aa0d 8ebc 11ff 4dbc f478 183c
000003a0: 66cb 0cbd 17d3 48bd 3d33 013d cd10 94bd
000003b0: 6842 2e3d c6f0 803d 652d b63d 5de2 6ebd
000003c0: 222e 0c3c f19b a63d 339e 043d e663 583b
000003d0: 95c2 4dbd b0b0 753d b854 c13d f709 b5bd
000003e0: caa0 94bd 02d3 b7bd 8e03 b03c 0653 81bd
000003f0: ee9a 803d 7dcc 343d 12f9 51bd a4de c2bd

lstm.weight_hh_l0 f4 [512, 128]
-0.059573047 0.013970223 -0.0337719 0.06945553 0.060225107 0.057805523 -0.0106759835 0.030747423
-0.056834336 0.000615731 0.00058643206 0.030916285 -0.024712706 -0.0943266 0.08435032 -0.06019736
-0.051613696 -0.01861923 -0.093001254 0.060207233 0.085522816 -0.023605807 0.09353013 0.012777598
-0.020331232 -0.002414946 0.09040533 0.003734397 -0.001383969 0.06612703 0.07097063 -0.055365257
-0.022830222 -0.036667466 0.08459646 0.050903216 0.07620102 0.06241638 0.08443479 0.02533637
-0.05958122 -0.08852657 0.031038875 -0.07830749 0.09122128 0.09653548 0.053708594 0.016029296
0.02168668 0.0020524308 0.008950975 0.06851925 -0.055398475 -0.037655447 0.042206325 0.041148055
0.087015815 0.07678035 0.011691485 0.0490758 0.058458026 0.066930965 -0.01088669 -0.00683929
-0.054310426 0.085102364 -0.00049250026 0.024026085 -0.045500025 -0.04551995 0.0004669727 -0.030052299
-0.0637448 -0.044261374 0.03947575 -0.028239714 0.050094116 0.068909414 -0.048873127 0.028131332
-0.027534911 -0.08686804 0.095279984 -0.044658992 -0.049977798 -0.05627315 0.030403933 -0.0567313
-0.021867234 0.04954827 0.06267841 0.017811377 0.057303958 0.037378404 -0.02901709 0.05021638
-0.05869327 0.05639365 -0.024364037 0.07902818 -0.013637972 0.012535131 0.054291748 -0.0928689
-0.05672391 -0.057055105 0.08614381 -0.086836316 0.042532835 0.05075758 -0.0010307691 0.06725308
0.07410387 0.027656497 -0.08318003 -0.085211836 0.015450548 0.025533378 0.008848477 0.041361745
0.05700478 0.0012739489 0.078287154 -0.030428963 0.024018291 0.030378755 -0.08800552 0.06165194
0.014578866 -0.08302308 -0.010606892 -0.0070393896 0.09259703 -0.070133224 -0.034463402 0.07792704
-0.049445078 -0.06091082 -0.040060837 -0.046681646 0.041152935 0.0041710404 -0.020617643 0.023647446
0.00023870618 -0.047002256 -0.058175072 0.07745628 -0.042675264 -0.030575352 -0.07330011 0.027984167
0.05802215 -0.059335608 0.085347965 0.00815172 0.004106744 -0.06895929 0.04471872 -0.052403606
0.089251176 0.025587924 -0.01842279 -0.057229925 0.09503744 0.038198743 -0.085831724 0.07771947
0.0009782353 0.057005316 -0.0069107395 0.020067923 0.0009614126 -0.048542995 0.01646316 0.0031308497
-0.057486072 -0.002169275 -0.06409483 0.095867395 -0.07812215 -0.064783536 0.01956386 -0.09139192
0.028071556 -0.062050145 0.0015573257 -0.075172566 0.03710439 -0.008179985 -0.008831266 -0.0025618747
0.07066904 -0.074368395 -0.08755403 -0.03136452 0.017807722 0.01873242 0.09048063 -0.038080964
0.089526415 -0.020980028 0.04599271 0.0051612095 -0.05636806 -0.010250575 -0.092326075 0.01773813
-0.016157115 0.0856067 -0.013779766 0.06303502 0.059088975 0.014309547 -0.056900844 -0.029224707
0.04971761 0.06074856 -0.08180966 -0.08407976 -0.030491639 -0.09501847 0.048662752 -0.008944046
0.07731557 -0.012958481 0.021829773 -0.020363145 0.034681205 -0.043868247 -0.062489904 0.086137295
0.034717374 0.015099294 -0.007887367 -0.09418181 -0.05026637 0.039616864 -0.08264554 0.09014356
-0.070134506 0.089527264 -0.08776304 -0.018772062 0.0146673005 -0.010860065 -0.01384433 -0.090807416
0.05320824 0.036281556 -0.043840196 -0.050867066 -0.047068294 -0.023979248 -0.07250777 -0.073062286
00000000: de02 74bd 5de3 643c 6754 0abd b33e 8e3d
00000010: 9aae 763d 7cc5 6c3d 52ea 2ebc 05e2 fb3c
00000020: 1fcb 68bd 0269 213a caba 193a 2644 fd3c
00000030: 4d72 cabc 4e2e c1bd dcbf ac3d 8291 76bd
00000040: e268 53bd 5b87 98bc 7177 bebd dc9b 763d
00000050: 9626 af3d f760 c1bc ba8c bf3d 2159 513c
00000060: af8d a6bc 1244 1ebb 6e26 b93d c9bc 743b
00000070: 4b66 b5ba 9c6d 873d 0d59 913d aec6 62bd
00000080: 7206 bbbc a030 16bd e940 ad3d e47f 503d
00000090: 480f 9c3d 51a8 7f3d 26ec ac3d 388e cf3c
000000a0: 700b 74bd 6b4d b5bd 3d45 fe3c ad5f a0bd
000000b0: 39d2 ba3d 65b4 c53d 8bfd 5b3d df4f 833c
000000c0: 44a8 b13c 1382 063b 1ca7 123c d253 8c3d
000000d0: 83e9 62bd 993c 1abd 8ae0 2c3d dd8a 283d
000000e0: 5935 b23d 043f 9d3d a48d 3f3c b503 493d
000000f0: af71 6f3d 1a13 893d 165e 32bc 1f1c e0bb
00000100: 9c74 5ebd 264a ae3d 221b 01ba 5ad2 c43c
00000110: 3c5e 3abd 2173 3abd 04d4 f439 3d30 f6bc
00000120: a28c 82bd 6a4b 35bd 53b1 213d f956 e7bc
00000130: 7d2f 4d3d 6120 8d3d 302f 48bd ae73 e63c
00000140: e590 e1bc dfe7 b1bd 2722 c33d 59ec 36bd
00000150: 85b5 4cbd ad7e 66bd ab11 f93c 145f 68bd
00000160: ea22 b3bc 20f3 4a3d 8a5d 803d 2ae9 913c
00000170: 8eb7 6a3d 191a 193d 40b5 edbc b1af 4d3d
00000180: 5b68 70bd 07fd 663d 1797 c7bc 87d9 a13d
00000190: cd71 5fbc 2660 4d3c 0661 5e3d 0d32 bebd
000001a0: 5557 68bd 9db2 69bd 2a6c b03d 3dd7 b1bd
000001b0: e936 2e3d 2ee7 4f3d df1a 87ba fcbb 893d
000001c0: c5c3 973d e18f e23c 4b5a aabd 8b83 aebd
000001d0: 4c24 7d3c 602b d13c 34f9 103c ef6a 293d
000001e0: d87d 693d a2fa a63a 0455 a03d 2946 f9bc
000001f0: 02c2 c43c dedc f83c 3d3c b4bd bf86 7c3d
00000200: 32dc 6e3c 0108 aabd 88c8 2dbc aeaa e6bb
00000210: 83a3 bd3d 02a2 8fbd 7f29 0dbd 3698 9f3d
00000220: ec86 4abd a07d 79bd d516 24bd 4135 3fbd
00000230: fb8f 283d 39ad 883b 55e6 a8bc 4ab8 c13c
00000240: 344d 7a39 7085 40bd fc48 6ebd 66a1 9e3d
00000250: 42cc 2ebd 2979 fabc 5e1e 96bd 0d3f e53c
00000260: a2a8 6d3d e509 73bd eaca ae3d cb8e 053c
00000270: de91 863b 873a 8dbd fa2a 373d 2aa5 56bd
00000280: 52c9 b63d c49d d13c 64eb 96bc ed69 6abd
00000290: fda2 c23d 4976 1c3d 8bc8 afbd 632b 9f3d
000002a0: 2138 803a 687e 693d 7c73 e2bb 7c65 a43c
000002b0: 4f07 7c3a 05d5 46bd c0dd 863c f12e 4d3b
000002c0: 8476 6bbd 652a 0ebb 2644 83bd 2056 c43d
000002d0: 81fe 9fbd 3bad 84bd 6344 a03c b02b bbbd
000002e0: 52f6 e53c 4b28 7ebd 2e1f cc3a 13f4 99bd
000002f0: c6fa 173d 5805 06bc 04b1 10bc 20e5 27bb
00000300: eeba 903d 754e 98bd 874f b3bd 1578 00bd
00000310: 80e1 913c bb74 993c e94d b93d c9fa 1bbd
00000320: a059 b73d 4fde abbc da62 3c3d 5d1f a93b
00000330: 32e2 66bd 07f2 27bc 7415 bdbd 8e4f 913c
00000340: ed5b 84bc 9152 af3d 87c4 61bc 8118 813d
00000350: 4807 723d 9772 6a3c dc10 69bd a768 efbc
00000360: b1a4 4b3d 7bd3 783d d38b a7bd 0232 acbd
00000370: 9ac9 f9bc 0b99 c2bd 9852 473d 0c8a 12bc
00000380: a057 9e3d cf4f 54bc 5ad4 b23c 9cd0 a6bc
00000390: e10d 0e3d 31af 33bd 6af5 7fbd c068 b03d
000003a0: ce33 0e3d 0763 773c 043a 01bc 65e2 c0bd
000003b0: 1ce4 4dbd 4b45 223d 1142 a9bd 309d b83d
000003c0: aea2 8fbd 125a b73d 1cbd b3bd dec7 99bc
000003d0: 1e4f 703c 6aee 31bc 54d3 62bc 3df9 b9bd
000003e0: e2f0 593d f89b 143d c791 33bd fc59 50bd
000003f0: afca 40bd 2170 c4bc f47e 94bd aea1 95bd

lstm.bias_ih_l0 f4 [512]
0.005586912 -0.0031229423 0.008318787 0.013454918 0.006475232 0.0038696341 0.0016931013 -0.0013986732
0.016917266 0.003367138 0.01800649 0.008153507 0.014673798 0.00311543 0.0051603336 0.0026040839
0.010870085 0.013122415 0.016713377 0.012726307 -0.00049511873 -0.0013704208 0.013103846 0.00883614
-0.0031011617 0.006063462 0.003425393 0.009434189 0.015332508 0.013672089 0.012433171 0.0127852205
0.013047102 0.018557401 0.015135457 0.006177716 0.016940933 0.0053106355 0.012338907 0.011168194
0.012100652 0.004520578 0.01488274 0.016132489 0.0061414065 0.025927525 0.012964627 0.00057520054
-0.0013300222 0.007028273 0.008071845 0.009870723 -0.0023726113 -0.0032913606 0.006172362 -0.0014510462
0.006531084 0.015122963 0.012421967 0.007380517 0.0041669677 0.008957674 0.0073352773 0.008142103
0.015697952 0.016948303 0.007352278 0.012503194 -0.0050004846 0.0066208015 0.008529504 0.007863113
0.008640831 0.005475085 0.016344711 0.01699658 0.006552452 0.008713447 0.00060166203 -0.00053132745
0.01666669 0.0075030485 0.0026461426 0.014349046 0.012912275 0.016912803 0.014110853 0.010976742
0.0039891666 0.0035692079 0.007369622 0.0050070877 -3.2650834e-05 0.007361074 0.0071902266 0.0068323924
0.01374625 0.0034305505 0.021361306 0.025876002 -0.0040370845 0.004688293 0.008442636 0.0126288375
-0.0029921855 0.01685254 0.010517247 0.011376981 0.011240232 0.008927186 0.012996141 0.013084287
0.0058909557 0.0016295996 -0.0060987044 0.014138337 0.00070764055 0.009716837 0.0104215685 0.0013432029
0.011352437 0.010117996 0.006714337 0.010446717 0.00951336 0.016060527 0.008779976 0.005990064
0.0018178382 -0.0038850948 0.002963463 0.002694663 -0.0014787659 0.002600573 0.0041474323 -0.0031636697
0.0012940015 -0.0006038764 -0.0155146215 -0.0075193555 -0.0044023134 -0.008167099 0.0062767603 -0.0021713462
0.002753968 -0.00040594095 0.0064546093 0.002396643 0.0006888133 -0.0060831127 0.0073665446 0.0020229842
-0.007540679 -0.0043159793 0.0011164945 -0.0045169727 0.0073729833 -0.0056919893 0.0013816037 0.00359935
0.0029546933 0.004580766 0.0030588512 -0.0029294242 0.0071175136 -0.0051745716 0.00066163286 0.008726058
-0.005219248 0.0009036373 -0.0034013186 0.002420904 -0.000666345 -0.016500792 0.0036258192 0.0003645402
-0.0009276911 0.00024795672 0.00029547897 -0.010981333 -0.012214077 -0.005653246 -0.010137557 -0.0013280794
0.0027813578 0.007298862 0.0017413726 0.002734145 0.0017200665 -0.0049287765 0.003835941 0.0012570712
0.011256659 -0.006040752 0.002924712 0.0036255233 -0.0025405423 -0.0077446075 3.480967e-05 0.0033033048
-0.001430659 0.0014912848 0.007335035 -0.015089935 -0.002179013 -0.0108311325 0.0009432303 -0.001642689
-0.0019695556 -0.017077317 0.00011407114 0.0020430663 -0.01483254 -0.00073199347 -0.0028347059 0.0019780183
0.003004369 0.00014185236 0.0031592336 0.00030712716 0.00086817576 0.0018785736 -0.007942437 0.0023809352
-0.004495038 -0.0063679726 -0.016196387 -0.022274788 -0.0033175459 -0.001912881 -0.013326669 0.005242736
-0.004371789 0.0033426005 -0.014597723 -0.0020891586 0.0012917318 0.0006141071 0.0007598569 0.00048375916
-0.0017762281 -0.001242389 -0.015071279 0.0064307204 -0.0018815785 -0.007118949 -0.003076719 -0.0022137514
0.0029293033 0.0071168942 -0.007538811 -0.00574553 -0.0051254113 0.009520829 0.0035185283 5.9220853e-05
00000000: 6a12 b73b 47aa 4cbb 864b 083c 0472 5c3c
00000010: 2f2e d43b b099 7d3b 0deb dd3a af53 b7ba
00000020: 1496 8a3c 34ab 5c3b 5982 933c 4996 053c
00000030: 5f6a 703c 3e2c 4c3b 0418 a93b 47a9 2a3b
00000040: 7118 323c 66ff 563c 7eea 883c 0082 503c
00000050: dbca 01ba b19f b3ba 84b1 563c 75c5 103c
00000060: dc3c 4bbb 01b0 c63b 8f7c 603b db91 1a3c
00000070: 3335 7b3c e600 603c 80b4 4b3c 1a79 513c
00000080: 83c3 553c b105 983c b5fa 773c 706e ca3b
00000090: b6c7 8a3c d704 ae3b 2129 4a3c cdfa 363c
000000a0: d041 463c 5b21 943b bcd6 733c 4828 843c
000000b0: da3d c93b f665 d43c 9669 543c 0ec9 163a
000000c0: 2454 aeba 6d4d e63b c63f 043c d0b8 213c
000000d0: d07d 1bbb deb3 57bb 8641 ca3b 0831 beba
000000e0: b402 d63b 4ec6 773c 8285 4b3c 44d8 f13b
000000f0: 0f8b 883b 35c3 123c c45c f03b 7566 053c
00000100: fe98 803c 2bd7 8a3c 61eb f03b 32da 4c3c
00000110: 1bdb a3bb 4ff3 d83b 55bf 0b3c 49d4 003c
00000120: 4692 0d3c 5868 b33b 58e5 853c 693c 8b3c
00000130: f4b5 d63b d8c2 0e3c dbb8 1d3a c848 0bba
00000140: 9588 883c 22dc f53b e86a 2d3b 4318 6b3c
00000150: 028e 533c b88c 8a3c 3531 673c cbd7 333c
00000160: 8eb7 823b 5fe9 693b df7c f13b 7f12 a43b
00000170: 91f2 08b8 2a35 f13b fe9b eb3b 43e2 df3b
00000180: f437 613c 16d3 603b e8fd ae3c e9f9 d33c
00000190: 8549 84bb 41a0 993b fb52 0a3c 2fe9 4e3c
000001a0: 8b18 44bb 570e 8a3c 8850 2c3c 8466 3a3c
000001b0: f328 383c 5543 123c c4ed 543c 7a5f 563c
000001c0: eb08 c13b 4a98 d53a a4d7 c7bb 7ca4 673c
000001d0: f480 393a 5e33 1f3c 3abf 2a3c 690e b03a
000001e0: 92ff 393c f3c5 253c f103 dc3b b528 2b3c
000001f0: eddd 1b3c 5e91 833c e3d9 0f3c 4c48 c43b
00000200: 8744 ee3a 139d 7ebb a936 423b f198 303b
00000210: 26d3 c1ba 606e 2a3b 2fe7 873b 9255 4fbb
00000220: 7c9b a93a 764d 1eba 0a31 7ebc ed64 f6bb
00000230: 4841 90bb 4ccf 05bc 48ad cd3b 254d 0ebb
00000240: ea7b 343b 79d4 d4b9 3081 d33b ff10 1d3b
00000250: 7a91 343a d954 c7bb 0e63 f13b 0b94 043b
00000260: cd17 f7bb 0f6d 8dbb 5757 923a 1d03 94bb
00000270: 1199 f13b de83 babb ed16 b53a 13e3 6b3b
00000280: 87a3 413b 401a 963b 0277 483b 95fb 3fbb
00000290: 083a e93b 748f a9bb 6e71 2d3a bdf7 0e3c
000002a0: 3a06 abbb 13e2 6c3a a8e8 5ebb 08a8 1e3b
000002b0: a8ad 2eba ab2c 87bc 279f 6d3b c21f bf39
000002c0: 4c30 73ba 3000 8239 84ea 9a39 0deb 33bc
000002d0: 8d1d 48bc dd3e b9bb ff17 26bc f312 aeba
000002e0: 7147 363b 4b2b ef3b c53e e43a 572f 333b
000002f0: db73 e13a 9381 a1bb 6964 7b3b 4fc4 a43a
00000300: da6d 383c 80f1 c5bb 86ac 3f3b 309a 6d3b
00000310: 3a7f 26bb 7ac6 fdbb 9900 1238 427c 583b
00000320: f384 bbba 3777 c33a bc5a f03b c63b 77bc
00000330: c6cd 0ebb 1075 31bc 1d43 773a 7f4f d7ba
00000340: a913 01bb bbe5 8bbc 7a39 ef38 f7e4 053b
00000350: 2f04 73bc 40e3 3fba 79c6 39bb a4a1 013b
00000360: f3e4 443b 34be 1439 250b 4f3b e905 a139
00000370: 4a96 633a 783a f63a ff20 02bc 7709 1c3b
00000380: 1d4b 93bb 6daa d0bb 49ae 84bc 9e79 b6bc
00000390: 2f6b 59bb a3b9 faba 1a58 5abc 42cb ab3b
000003a0: 3941 8fbb 880f 5b3b 4a2b 6fbc 44ea 08bb
000003b0: 544f a93a 08fc 203a 2231 473a 0ea1 fd39
000003c0: 53d0 e8ba a8d7 a2ba 87ed 76bc cbb8 d23b
000003d0: 4c9f f6ba 1346 e9bb c7a2 49bb 9614 11bb
000003e0: 8ef9 3f3b d634 e93b 2108 f7bb 0045 bcbb
000003f0: 11f3 a7bb 40fd 1b3c 1c97 663b e863 7838

lstm.bias_hh_l0 f4 [512]
0.005586912 -0.0031229423 0.008318787 0.013454918 0.006475232 0.0038696341 0.0016931013 -0.0013986732
0.016917266 0.003367138 0.01800649 0.008153507 0.014673798 0.00311543 0.0051603336 0.0026040839
0.010870085 0.013122415 0.016713377 0.012726307 -0.00049511873 -0.0013704208 0.013103846 0.00883614
-0.0031011617 0.006063462 0.003425393 0.009434189 0.015332508 0.013672089 0.012433171 0.0127852205
0.013047102 0.018557401 0.015135457 0.006177716 0.016940933 0.0053106355 0.012338907 0.011168194
0.012100652 0.004520578 0.01488274 0.016132489 0.0061414065 0.025927525 0.012964627 0.00057520054
-0.0013300222 0.007028273 0.008071845 0.009870723 -0.0023726113 -0.0032913606 0.006172362 -0.0014510462
0.006531084 0.015122963 0.012421967 0.007380517 0.0041669677 0.008957674 0.0073352773 0.008142103
0.015697952 0.016948303 0.007352278 0.012503194 -0.0050004846 0.0066208015 0.008529504 0.007863113
0.008640831 0.005475085 0.016344711 0.01699658 0.006552452 0.008713447 0.00060166203 -0.00053132745
0.01666669 0.0075030485 0.0026461426 0.014349046 0.012912275 0.016912803 0.014110853 0.010976742
0.0039891666 0.0035692079 0.007369622 0.0050070877 -3.2650834e-05 0.007361074 0.0071902266 0.0068323924
0.01374625 0.0034305505 0.021361306 0.025876002 -0.0040370845 0.004688293 0.008442636 0.0126288375
-0.0029921855 0.01685254 0.010517247 0.011376981 0.011240232 0.008927186 0.012996141 0.013084287
0.0058909557 0.0016295996 -0.0060987044 0.014138337 0.00070764055 0.009716837 0.0104215685 0.0013432029
0.011352437 0.010117996 0.006714337 0.010446717 0.00951336 0.016060527 0.008779976 0.005990064
0.0018178382 -0.0038850948 0.002963463 0.002694663 -0.0014787659 0.002600573 0.0041474323 -0.0031636697
0.0012940015 -0.0006038764 -0.0155146215 -0.0075193555 -0.0044023134 -0.008167099 0.0062767603 -0.0021713462
0.002753968 -0.00040594095 0.0064546093 0.002396643 0.0006888133 -0.0060831127 0.0073665446 0.0020229842
-0.007540679 -0.0043159793 0.0011164945 -0.0045169727 0.0073729833 -0.0056919893 0.0013816037 0.00359935
0.0029546933 0.004580766 0.0030588512 -0.0029294242 0.0071175136 -0.0051745716 0.00066163286 0.008726058
-0.005219248 0.0009036373 -0.0034013186 0.002420904 -0.000666345 -0.016500792 0.0036258192 0.0003645402
-0.0009276911 0.00024795672 0.00029547897 -0.010981333 -0.012214077 -0.005653246 -0.010137557 -0.0013280794
0.0027813578 0.007298862 0.0017413726 0.002734145 0.0017200665 -0.0049287765 0.003835941 0.0012570712
0.011256659 -0.006040752 0.002924712 0.0036255233 -0.0025405423 -0.0077446075 3.480967e-05 0.0033033048
-0.001430659 0.0014912848 0.007335035 -0.015089935 -0.002179013 -0.0108311325 0.0009432303 -0.001642689
-0.0019695556 -0.017077317 0.00011407114 0.0020430663 -0.01483254 -0.00073199347 -0.0028347059 0.0019780183
0.003004369 0.00014185236 0.0031592336 0.00030712716 0.00086817576 0.0018785736 -0.007942437 0.0023809352
-0.004495038 -0.0063679726 -0.016196387 -0.022274788 -0.0033175459 -0.001912881 -0.013326669 0.005242736
-0.004371789 0.0033426005 -0.014597723 -0.0020891586 0.0012917318 0.0006141071 0.0007598569 0.00048375916
-0.0017762281 -0.001242389 -0.015071279 0.0064307204 -0.0018815785 -0.007118949 -0.003076719 -0.0022137514
0.0029293033 0.0071168942 -0.007538811 -0.00574553 -0.0051254113 0.009520829 0.0035185283 5.9220853e-05
00000000: 6a12 b73b 47aa 4cbb 864b 083c 0472 5c3c
00000010: 2f2e d43b b099 7d3b 0deb dd3a af53 b7ba
00000020: 1496 8a3c 34ab 5c3b 5982 933c 4996 053c
00000030: 5f6a 703c 3e2c 4c3b 0418 a93b 47a9 2a3b
00000040: 7118 323c 66ff 563c 7eea 883c 0082 503c
00000050: dbca 01ba b19f b3ba 84b1 563c 75c5 103c
00000060: dc3c 4bbb 01b0 c63b 8f7c 603b db91 1a3c
00000070: 3335 7b3c e600 603c 80b4 4b3c 1a79 513c
00000080: 83c3 553c b105 983c b5fa 773c 706e ca3b
00000090: b6c7 8a3c d704 ae3b 2129 4a3c cdfa 363c
000000a0: d041 463c 5b21 943b bcd6 733c 4828 843c
000000b0: da3d c93b f665 d43c 9669 543c 0ec9 163a
000000c0: 2454 aeba 6d4d e63b c63f 043c d0b8 213c
000000d0: d07d 1bbb deb3 57bb 8641 ca3b 0831 beba
000000e0: b402 d63b 4ec6 773c 8285 4b3c 44d8 f13b
000000f0: 0f8b 883b 35c3 123c c45c f03b 7566 053c
00000100: fe98 803c 2bd7 8a3c 61eb f03b 32da 4c3c
00000110: 1bdb a3bb 4ff3 d83b 55bf 0b3c 49d4 003c
00000120: 4692 0d3c 5868 b33b 58e5 853c 693c 8b3c
00000130: f4b5 d63b d8c2 0e3c dbb8 1d3a c848 0bba
00000140: 9588 883c 22dc f53b e86a 2d3b 4318 6b3c
00000150: 028e 533c b88c 8a3c 3531 673c cbd7 333c
00000160: 8eb7 823b 5fe9 693b df7c f13b 7f12 a43b
00000170: 91f2 08b8 2a35 f13b fe9b eb3b 43e2 df3b
00000180: f437 613c 16d3 603b e8fd ae3c e9f9 d33c
00000190: 8549 84bb 41a0 993b fb52 0a3c 2fe9 4e3c
000001a0: 8b18 44bb 570e 8a3c 8850 2c3c 8466 3a3c
000001b0: f328 383c 5543 123c c4ed 543c 7a5f 563c
000001c0: eb08 c13b 4a98 d53a a4d7 c7bb 7ca4 673c
000001d0: f480 393a 5e33 1f3c 3abf 2a3c 690e b03a
000001e0: 92ff 393c f3c5 253c f103 dc3b b528 2b3c
000001f0: eddd 1b3c 5e91 833c e3d9 0f3c 4c48 c43b
00000200: 8744 ee3a 139d 7ebb a936 423b f198 303b
00000210: 26d3 c1ba 606e 2a3b 2fe7 873b 9255 4fbb
00000220: 7c9b a93a 764d 1eba 0a31 7ebc ed64 f6bb
00000230: 4841 90bb 4ccf 05bc 48ad cd3b 254d 0ebb
00000240: ea7b 343b 79d4 d4b9 3081 d33b ff10 1d3b
00000250: 7a91 343a d954 c7bb 0e63 f13b 0b94 043b
00000260: cd17 f7bb 0f6d 8dbb 5757 923a 1d03 94bb
00000270: 1199 f13b de83 babb ed16 b53a 13e3 6b3b
00000280: 87a3 413b 401a 963b 0277 483b 95fb 3fbb
00000290: 083a e93b 748f a9bb 6e71 2d3a bdf7 0e3c
000002a0: 3a06 abbb 13e2 6c3a a8e8 5ebb 08a8 1e3b
000002b0: a8ad 2eba ab2c 87bc 279f 6d3b c21f bf39
000002c0: 4c30 73ba 3000 8239 84ea 9a39 0deb 33bc
000002d0: 8d1d 48bc dd3e b9bb ff17 26bc f312 aeba
000002e0: 7147 363b 4b2b ef3b c53e e43a 572f 333b
000002f0: db73 e13a 9381 a1bb 6964 7b3b 4fc4 a43a
00000300: da6d 383c 80f1 c5bb 86ac 3f3b 309a 6d3b
00000310: 3a7f 26bb 7ac6 fdbb 9900 1238 427c 583b
00000320: f384 bbba 3777 c33a bc5a f03b c63b 77bc
00000330: c6cd 0ebb 1075 31bc 1d43 773a 7f4f d7ba
00000340: a913 01bb bbe5 8bbc 7a39 ef38 f7e4 053b
00000350: 2f04 73bc 40e3 3fba 79c6 39bb a4a1 013b
00000360: f3e4 443b 34be 1439 250b 4f3b e905 a139
00000370: 4a96 633a 783a f63a ff20 02bc 7709 1c3b
00000380: 1d4b 93bb 6daa d0bb 49ae 84bc 9e79 b6bc
00000390: 2f6b 59bb a3b9 faba 1a58 5abc 42cb ab3b
000003a0: 3941 8fbb 880f 5b3b 4a2b 6fbc 44ea 08bb
000003b0: 544f a93a 08fc 203a 2231 473a 0ea1 fd39
000003c0: 53d0 e8ba a8d7 a2ba 87ed 76bc cbb8 d23b
000003d0: 4c9f f6ba 1346 e9bb c7a2 49bb 9614 11bb
000003e0: 8ef9 3f3b d634 e93b 2108 f7bb 0045 bcbb
000003f0: 11f3 a7bb 40fd 1b3c 1c97 663b e863 7838

lstm.weight_ih_l1 f4 [512, 128]
-0.07936043 0.09143655 0.004048117 -0.045822605 -0.037713043 -0.007520764 0.03863966 -0.0066045914
0.06838649 0.06846693 -0.047240175 -0.086005874 0.07441903 -0.028758394 -0.039484408 0.004340679
0.07767137 -0.053893976 0.07041789 0.06332186 0.07857016 0.06455347 -0.09574705 -0.09992664
0.044459756 0.02739377 -0.008273826 -0.045988783 0.016608195 -0.03955446 -0.02927896 -0.024803706
0.056679923 0.06730843 0.08569965 -0.05398209 -0.044746373 -0.048814796 -0.07798387 0.07132128
-0.06427417 -0.017908286 0.032502152 -0.09123768 -0.09550982 -0.07387407 -0.023139916 0.018188199
-0.019024197 -0.024906436 -0.006097055 0.063908555 -0.08181091 0.0149983205 -0.010777993 -0.078966595
-0.07247218 0.026207078 -0.0897768 -0.013850303 -0.014444992 0.08513177 0.07539229 -0.038881395
0.056102477 0.0754007 0.021241864 0.011159451 -0.04871927 0.035043966 -0.048982773 0.06814779
0.08034283 -0.027746994 0.07481887 -0.030070407 0.08415765 0.03052831 0.08354827 -0.09317115
-0.088488474 0.0826902 -0.07431031 0.091905266 -0.04631555 0.032470077 -0.040239554 -0.017996417
-0.035737436 -0.07052443 0.022778759 0.035539445 0.08825074 -0.047095917 -0.05408545 -0.081649974
-0.07528757 -0.07973363 0.051062487 0.063457504 0.03853753 -0.03698703 0.062380124 0.0840401
-0.042930484 0.009569074 0.06693904 -0.031636905 0.012073773 0.06608723 -0.0735801 -0.0324962
0.09147976 -0.04274665 -0.039517228 -0.043951157 -0.025151754 0.062698856 -0.017541658 0.033833735
-0.07945455 0.04630711 -0.023896357 -0.04651547 0.09419348 0.081962004 0.034749117 0.08609449
0.04339884 -0.07286655 -0.05559765 -0.0063288235 -0.060161088 0.009108665 -0.039249074 0.007780634
-0.06332706 0.08817506 -0.024189351 0.041016895 0.048115946 0.035656694 -0.08598279 0.016172064
0.058663074 -0.029354474 0.025454521 -0.020705108 -0.091748215 -0.004628133 0.044893425 0.009476869
-0.026571404 -0.067315616 -0.07827156 -0.09183427 -0.04341626 0.047756054 0.028549569 -0.059732724
-0.031724263 -0.07185982 -0.025944117 -0.010433687 -0.014618876 -0.043539837 -0.06340407 0.0619743
-0.07620863 0.021738982 0.05146913 -0.0010340856 -0.010765698 -0.030331643 0.0704805 0.008615682
-0.05399399 0.01700101 0.05840064 -0.06218042 -0.004038883 0.034700163 0.053587552 0.046028882
-0.04956417 0.042877685 -0.063235365 0.05455044 -0.087507814 0.06207513 -0.09134631 -0.05408884
-0.08405093 -0.027022213 -0.011436771 -0.040919185 -0.0010036846 -0.06449292 -0.011144376 0.042022645
-0.0076915002 -0.026672097 -0.07825343 0.02344874 0.08033778 0.033704955 -0.045256484 -0.027884897
-0.064674556 0.056736965 -0.097890235 0.017463109 0.05979357 0.092864096 0.04184782 0.0756998
0.010505986 0.042056285 -0.08528838 0.08382981 0.043367248 -0.06373823 0.023703467 0.07450468
-0.013600379 -0.052436765 0.04637863 -0.01259487 -0.07607388 0.051419005 0.05998138 0.029916234
-0.043988205 -0.019333266 -0.07463423 0.047000855 0.08872449 0.02333928 -0.004115184 0.08472068
-0.061184596 0.08432152 0.0873341 -0.055874262 -0.032538768 -0.09071809 0.040446624 0.047346324
0.009107669 0.023687232 0.03778943 0.013336736 -0.0065701636 0.029288972 0.03958327 0.059579138
00000000: b987 a2bd 1643 bb3d 11a6 843b 7cb0 3bbd
00000010: fe78 1abd be70 f6bb 9f44 1e3d 546b d8bb
00000020: 370e 8c3d 6438 8c3d ea7e 41bd d923 b0bd
00000030: 0169 983d b996 ebbc 67ba 21bd 413c 8e3b
00000040: 2b12 9f3d eebf 5cbd 4137 903d e4ae 813d
00000050: 64e9 a03d 9c34 843d 0817 c4bd 57a6 ccbd
00000060: 6f1b 363d e668 e03c f18e 07bc bc5e 3cbd
00000070: e90d 883c dc03 22bd 6eda efbc 2431 cbbc
00000080: 3529 683d 01d9 893d 4c83 af3d 531c 5dbd
00000090: f947 37bd 06f2 47bd 02b6 9fbd e410 923d
000000a0: 2da2 83bd 66b4 92bc fa20 053d d2da babd
000000b0: a79a c3bd 4a4b 97bd ec8f bdbc 6bff 943c
000000c0: a2d8 9bbc 9508 ccbc cec9 c7bb 7de2 823d
000000d0: 7a8c a7bd 84bb 753c 2e96 30bc 3db9 a1bd
000000e0: 4b6c 94bd 3ab0 d63c e6dc b7bd 62ec 62bc
000000f0: b0aa 6cbc 9159 ae3d 4667 9a3d 1942 1fbd
00000100: b6cb 653d af6b 9a3d 6b03 ae3c 21d6 363c
00000110: db8d 47bd 438a 0f3d 29a2 48bd 1291 8b3d
00000120: c88a a43d aa4d e3bc a33a 993d 3756 f6bc
00000130: d95a ac3d 8216 fa3c 5b1b ab3d 84d0 bebd
00000140: 7239 b5bd 7b59 a93d 0130 98bd d438 bc3d
00000150: 60b5 3dbd 58ff 043d 3bd2 24bd 396d 93bc
00000160: 6b61 12bd 1d6f 90bd 859a ba3c cf91 113d
00000170: cebc b43d a6e7 40bd b488 5dbd 1a38 a7bd
00000180: 5f30 9abd 634b a3bd e626 513d 02f6 813d
00000190: 87d9 1d3d b67f 17bd 4d82 7f3d 371d ac3d
000001a0: e0d7 2fbd 9bc7 1c3c 5617 893d b395 01bd
000001b0: 13d1 453c be58 873d 2ab1 96bd bc1a 05bd
000001c0: be59 bb3d 1c17 2fbd d1dc 21bd 2106 34bd
000001d0: 0d0b cebc 4268 803d 86b3 8fbc 3e95 0a3d
000001e0: 11b9 a2bd 86ac 3d3d 4bc2 c3bc 0187 3ebd
000001f0: 83e8 c03d b2db a73d 1755 0e3d 4f52 b03d
00000200: fbc2 313d 0f3b 95bd 5dba 63bd 0562 cfbb
00000210: 796b 76bd 833c 153c a3c3 20bd b0f4 fe3b
00000220: 9eb1 81bd 2095 b43d bf28 c6bc 5501 283d
00000230: 3a15 453d c10c 123d bf17 b0bd 477b 843c
00000240: b148 703d cb78 f0bc 0086 d03c c29d a9bc
00000250: 7de6 bbbd 98a7 97bb 2be2 373d df44 1b3c
00000260: 46ac d9bc c5dc 89bd d74c a0bd 9b13 bcbd
00000270: 40d5 31bd da9b 433d c9e0 e93c 4daa 74bd
00000280: 4df1 01bd 3e2b 93bd c288 d4bc 0ef2 2abc
00000290: 0384 6fbc d456 32bd fed9 81bd c3d8 7d3d
000002a0: 4513 9cbd f315 b23c 4bd1 523d 288a 87ba
000002b0: 9c62 30bc 117a f8bc 1558 903d ca28 0d3c
000002c0: cd28 5dbd b445 8b3c 8235 6f3d e5b0 7ebd
000002d0: 9b58 84bb c221 0e3d 9f7e 5b3d c888 3c3d
000002e0: cd03 4bbd 83a0 2f3d 8b81 81bd 4870 5f3d
000002f0: 4c37 b3bd 7e42 7e3d c613 bbbd 428c 5dbd
00000300: e522 acbd b05d ddbc 4b61 3bbc e09a 27bd
00000310: 118e 83ba dd14 84bd e796 36bc f01f 2c3d
00000320: fb08 fcbb 717f dabc 5643 a0bd 9217 c03c
00000330: 2288 a43d 350e 0a3d dd5e 39bd de6e e4bc
00000340: 1874 84bd 0565 683d ad7a c8bd cb0e 8f3c
00000350: 1aea 743d 882f be3d 9f68 2b3d 7f08 9b3d
00000360: 4d21 2c3c 3643 2c3d adab aebd f7ae ab3d
00000370: dba1 313d 3089 82bd c62d c23c e995 983d
00000380: 20d4 5ebc efc7 56bd 85f7 3d3d b75a 4ebc
00000390: 9fcc 9bbd bc9c 523d 09af 753d e412 f53c
000003a0: fa2c 34bd cc60 9ebc d5d9 98bd f883 403d
000003b0: 2fb5 b53d 0532 bf3c aad8 86bb 0982 ad3d
000003c0: b39c 7abd c3b0 ac3d 38dc b23d 69dc 64bd
000003d0: 5f47 05bd 68ca b9bd 5cab 253d 38ee 413d
000003e0: 5538 153c ba0b c23c 17c9 1a3d 5382 5a3c
000003f0: 874a d7bb 6def ef3c 1122 223d 4109 743d

lstm.weight_hh_l1 f4 [512, 128]
0.030111836 0.05205911 -0.053052966 0.055255983 0.034169953 0.009993584 0.082542464 -0.028863318
-0.024901228 0.0028169707 0.08797397 0.05156731 0.07503966 -0.01225098 -0.08129802 0.07075037
-0.040055268 -0.015408667 0.05254321 -0.056066684 0.058940623 0.016006302 0.05694675 0.10092638
-0.019139238 0.011352293 0.08419369 -0.09616136 -0.08164563 -0.019121988 0.026440436 0.041519083
-0.04477363 0.08559009 0.04643263 0.02577988 0.006985553 -0.010690936 -0.06925427 0.095461875
0.078777015 -0.036539916 0.028194979 0.07692807 0.05683562 -0.013203245 -0.07764369 -0.0035905188
0.048578244 -0.032547984 -0.07577992 0.058546335 0.09397285 -0.006729634 -0.070354395 0.094734676
0.09965059 0.07440564 0.01412655 -0.08929945 0.008829417 0.08152847 -0.016340805 -0.053053543
0.061487176 -0.08979893 0.08648382 0.09122381 0.038535886 0.05136321 -0.018024355 -0.06794306
0.026946194 0.020876609 0.061143037 -0.09030242 -0.012437354 0.034165215 0.06055285 -0.073475085
0.043548666 0.04075214 0.054705095 0.0038280627 0.004445448 0.012886963 -0.07133116 0.008969443
-0.020017708 0.026647797 0.03308712 0.021821955 -0.028246634 0.07619945 0.071560025 0.07670575
0.08442321 -0.076178804 0.0689017 0.07563458 -0.053234577 -0.06527606 0.08796333 -0.042035922
-0.035594977 0.040228143 -0.054449834 0.06472278 -0.056135412 0.04031829 0.067632206 0.100291446
0.020505574 0.082622394 0.056637466 0.0036910423 0.058436 -0.0019357583 -0.030708114 0.069885954
0.012604229 -0.050284304 0.019280711 0.094978504 -0.034475353 -0.0034161352 -0.059943795 0.058360726
-0.06252767 -0.0654202 0.020057125 0.040222075 0.070443325 -0.06125198 0.0354959 -0.026818441
-0.06410954 -0.03228573 -0.023165507 -0.08015561 -0.07953968 0.03870799 -0.083046466 -0.004404282
0.067183085 -0.02711074 0.06329153 0.061218332 0.0827674 0.01432823 -0.07706457 -0.035679027
-0.09350509 -0.022500867 0.03958619 0.0046371804 0.0016215112 0.06662154 -0.06272973 0.058142185
0.046972923 0.012416994 0.008483362 0.0361124 0.015027484 -0.02542048 -0.023604775 -0.06132361
-0.054620788 0.067985624 -0.03294163 0.057722017 0.08550221 0.018897956 -0.03237097 -0.05715982
-0.087549 0.021404607 0.055723827 -0.024900958 -0.008334043 -0.010792585 -0.07658301 -0.023440605
-0.0073931767 0.057670347 0.003079618 0.07756453 0.04281782 0.0866339 -0.007756296 -0.077604644
0.08637059 -0.085618064 -0.0955114 0.036438745 -0.065462306 0.07941151 -0.011746318 0.053957067
0.014543917 0.06606423 0.06380469 0.085609645 -0.07792064 -0.09197053 -0.051379304 0.037764028
-0.069348246 -0.05719992 0.020046392 -0.043486975 0.03962434 -0.07243789 -0.01905878 0.09411585
0.04556445 -0.071648575 0.06027467 -0.01926014 -0.017518234 -0.07884311 0.026729155 0.030102113
-0.020701908 -0.06090614 -0.021490281 -0.0078754295 0.047051437 -0.024147918 0.040291894 -0.07156485
-0.008256502 0.031864494 0.050749574 0.010589696 -0.0733501 -0.0331 -0.040584102 -0.09065623
0.014842027 -0.09036672 -0.00317287 -0.0784392 0.036027905 -0.0594255 0.017462926 0.0775642
0.059947126 0.03314309 0.08852401 -0.029468497 0.045741 -0.08835413 0.08850354 0.021283863
00000000: 19ad f63c ef3b 553d 114e 59bd 1954 623d
00000010: cbf5 0b3d 21bc 233c 060c a93d c472 ecbc
00000020: a9fd cbbc ed9c 383b b22b b43d 3e38 533d
00000030: 65ae 993d 56b8 48bc 947f a6bd 92e5 903d
00000040: fe10 24bd a274 7cbc 8d37 573d 2ea6 65bd
00000050: b96b 713d a61f 833c ff40 693d 7db2 ce3d
00000060: e4c9 9cbc f8fe 393c be6d ac3d 3ff0 c4bd
00000070: d335 a7bd b7a5 9cbc 9d99 d83c ea0f 2a3d
00000080: 8e64 37bd db49 af3d 2430 3e3d 5430 d33c
00000090: 11e7 e43b 0929 2fbc 2fd5 8dbd 8481 c33d
000000a0: d855 a13d e1aa 15bd 28f9 e63c 778c 9d3d
000000b0: 78cc 683d 6c52 58bc a803 9fbd e94e 6bbb
000000c0: fbf9 463d 0951 05bd 8132 9bbd 48ce 6f3d
000000d0: d674 c03d 4384 dcbb f715 90bd 4104 c23d
000000e0: 9c15 cc3d fc61 983d 0c73 673c a1e2 b6bd
000000f0: 42a9 103c 66f8 a63d 27dd 85bc ac4e 59bd
00000100: fad9 7b3d 80e8 b7bd 6e1e b13d 8dd3 ba3d
00000110: ced7 1d3d 3b62 523d d0a7 93bc bb25 8bbd
00000120: 44be dc3c 6c05 ab3c 1f71 7a3d 7af0 b8bd
00000130: 0bc6 4bbc d3f0 0b3d 4406 783d 1b7a 96bd
00000140: 1660 323d b7eb 263d 7312 603d 3ce0 7a3b
00000150: 1fab 913b d723 533c 1216 92bd 92f4 123c
00000160: 2dfc a3bc 7b4c da3c 5c86 073d f5c3 b23c
00000170: 7c65 e7bc 750e 9c3d 108e 923d e717 9d3d
00000180: 13e6 ac3d a203 9cbd 561c 8d3d 4de6 9a3d
00000190: 800c 5abd 74af 85bd 1e26 b43d dc2d 2cbd
000001a0: 0acc 11bd 44c6 243d ca06 5fbd 608d 843d
000001b0: 3fee 65bd cb24 253d c182 8a3d 9a65 cd3d
000001c0: 4efb a73c ee35 a93d b0fc 673d 6ae5 713b
000001d0: 965a 6f3d 45b9 fdba 958f fbbc 5e20 8f3d
000001e0: f881 4e3c eaf6 4dbd 95f2 9d3c 1784 c23d
000001f0: 0736 0dbd 3de1 5fbb a087 75bd a80b 6f3d
00000200: 820e 80bd 07fb 85bd d74e a43c e7bf 243d
00000210: 9744 903d 5be3 7abd 2664 113d 59b2 dbbc
00000220: dd4b 83bd 0b3e 04bd 97c5 bdbc a028 a4bd
00000230: b3e5 a2bd 458c 1e3d 4414 aabd cc51 90bb
00000240: 4997 893d 5817 debc fd9e 813d 13c0 7a3d
00000250: f481 a93d f4c0 6a3c 07d4 9dbd 2c24 12bd
00000260: 997f bfbd bd53 b8bc 2125 223d 7df3 973b
00000270: e388 d43a e070 883d 7278 80bd 8026 6e3d
00000280: ae66 403d a670 4b3c cdfd 0a3c 99ea 133d
00000290: d635 763c 9c3e d0bc cd5e c1bc 772e 7bbd
000002a0: 0cba 5fbd 0c3c 8b3d cded 06bd ec6d 6c3d
000002b0: c81b af3d e3cf 9a3c 6c97 04bd 6a20 6abd
000002c0: e44c b3bd b758 af3c ab3e 643d 18fd cbbc
000002d0: 838b 08bc 62d3 30bc 8ed7 9cbd 8306 c0bc
000002e0: 7642 f2bb be37 6c3d 6bd3 493b 27da 9e3d
000002f0: bd61 2f3d 1d6d b13d 8728 febb 2fef 9ebd
00000300: 10e3 b03d 8658 afbd 7b9b c3bd cb40 153d
00000310: 1a11 86bd 80a2 a23d a173 40bc 1602 5d3d
00000320: 9c49 6e3c af4c 873d 09ac 823d 1c54 af3d
00000330: db94 9fbd 0c5b bcbd 1b73 52bd 74ae 1a3d
00000340: 7406 8ebd 774a 6abd 5538 a43c 661f 32bd
00000350: 224d 223d 515a 94bd 2921 9cbc d0bf c03d
00000360: caa1 3a3d 7dbc 92bd 93e2 763d 71c7 9dbc
00000370: 6682 8fbc 7f78 a1bd 1af7 da3c b598 f63c
00000380: 0c97 a9bc b778 79bd 630c b0bc f207 01bc
00000390: 02b9 403d dbd1 c5bc 1d09 253d 9890 92bd
000003a0: 4846 07bc 5884 023d c9de 4f3d 6780 2d3c
000003b0: 9438 96bd de93 07bd 843b 26bd f9a9 b9bd
000003c0: f92b 733c 3012 b9bd edef 4fbb bba4 a0bd
000003d0: ff91 133d 2768 73bd 690e 8f3c fbd9 9e3d
000003e0: 1e8b 753d 0cc1 073d 134c b53d eb67 f1bc
000003f0: ea5a 3b3d 03f3 b4bd 5841 b53d 7f5b ae3c

lstm.bias_ih_l1 f4 [512]
0.0013651819 0.008270704 0.005737174 0.009579937 -0.0030694818 -0.0026871972 0.011544797 0.015214513
0.008770924 0.0034900652 0.0009651952 0.02121453 0.0015885092 0.0029645578 0.010640552 0.010704694
6.3886386e-05 0.018419422 0.013838424 0.023729954 0.008038883 0.0030775596 0.0076642297 0.009092109
-0.0012216266 0.010468522 0.0044829575 0.0012669065 -0.0020969682 0.0045475555 0.0037116162 0.008075456
0.011167479 0.00012499584 0.010772894 0.002938586 -0.002369112 0.0068214065 0.018265089 -0.005874476
-0.0048796763 0.003704621 0.011901503 0.0036195195 0.008515908 0.011722098 0.009131221 0.00839557
0.007256802 0.012858194 0.0060992087 0.0115286065 0.00984755 0.011173532 0.016047824 0.0005755376
0.0072753164 0.006291889 0.0074022133 0.02151161 0.0025203035 0.00716132 -0.003432878 0.0061596893
0.010887204 0.007736586 0.0073233657 0.0109274015 0.0027028932 0.013080522 0.0037290046 0.010675565
-0.00468997 0.005003739 0.012602492 -0.001310485 0.0148507375 0.0052825226 -0.0003280789 0.008700052
0.009288849 0.013593751 -0.00578076 -0.00044693873 -0.0024252262 0.010477609 0.006253871 0.005081126
-0.0019302156 0.010695835 -0.0018701295 0.01679232 0.007474572 0.0017758402 0.0041917902 0.009106031
0.008506366 0.01639166 -0.0031503637 0.0019650937 0.0056944597 0.00565173 0.004894072 0.014842454
0.0071536093 -0.0018020828 0.009731539 0.009152707 0.0098091755 -0.003840243 0.0083530545 0.015631087
0.008603752 0.002570157 0.0058299275 0.009395502 0.0028248418 0.010852744 0.0034805927 -0.0023769885
0.010258507 0.0038705294 0.001015225 0.003623432 0.009734939 0.0033389577 0.007273817 0.006701361
-0.0036792948 0.0005473933 0.0008693282 -0.0046463716 -0.009058027 -0.0034322955 -0.0055954936 0.013570912
0.0013715598 -0.0005487341 -0.0007714949 0.0017097966 -0.0021613808 -0.006327717 0.0046118125 0.0011545046
-0.0054308083 -0.02174451 -0.0014269946 -0.010375367 0.0028650549 -0.004067693 0.0014180263 -0.013805094
0.0051769675 0.003531401 0.0007370907 -0.0033425544 -0.004696592 -0.0017522172 0.00018178963 0.0009896639
-0.0021514457 -0.002035627 0.0031614355 6.177415e-06 -0.002948256 -0.0036300542 0.008738571 -0.0044174436
-0.008727024 -0.000978076 0.0019235531 0.0026153834 0.008657091 -0.005654251 0.0018635967 -0.0057240436
-0.011274747 0.007544585 -0.001619414 0.0017178977 -0.0032540215 -0.0126701305 0.006202753 -0.0011729267
0.0023446537 0.001923193 0.004051735 -0.023154542 -0.0024571796 0.004172804 -0.0053401575 0.001376331
0.0062016766 0.00274307 -0.0053360118 -0.0106387 0.0045215013 0.007913455 0.00017489905 -0.0120661
-0.003905564 -0.0024680912 -0.018572109 -0.009942893 0.0048711007 -0.001981053 -0.00061218 -0.011067262
0.0006172185 0.008120662 -0.008111366 -0.0011485019 -0.0017218515 -0.0030024112 -0.0025632435 -0.0018692907
-0.0043675955 7.102764e-05 -0.0006303749 -0.0074303197 -0.0023077482 -0.0029174064 0.0012816341 0.007577219
-0.0085968785 -0.01877228 -0.0074762157 -0.00027977352 0.0016364066 -0.0028200522 -0.0034984474 -0.0016407601
0.006091245 -0.0026204872 -0.013230301 0.0063086064 -0.019639125 -0.005800566 0.0059576784 -0.017237013
0.0002071295 -0.002530391 0.005524079 -0.005628724 -0.0013455995 -0.007046015 0.0006542308 -0.004134143
-0.0011322021 0.0022677802 -0.000958403 0.0013122476 -0.0059458334 -0.00418113 0.0060354406 -0.0005254921
00000000: e7ef b23a d981 073c e7fe bb3b 2bf5 1c3c
00000010: 5c29 49bb b01b 30bb 6326 3d3c 4b46 793c
00000020: ecb3 0f3c 94b9 643b 2705 7d3a 18ca ad3c
00000030: 8635 d03a 0749 423b b655 2e3c be62 2f3c
00000040: befa 8538 54e4 963c 8fba 623c 5265 c23c
00000050: 85b5 033c e2b0 493b 3824 fb3b 12f7 143c
00000060: fd1e a0ba 2a84 2b3c c6e5 923b 540e a63a
00000070: 4a6d 09bb a903 953b 963e 733b eb4e 043c
00000080: cdf7 363c 5111 0339 cb80 303c 4b95 403b
00000090: 1b43 1bbb 1b86 df3b aba0 953c ad7e c0bb
000000a0: b1e5 9fbb 3ac9 723b 86fe 423c 7635 6d3b
000000b0: 4f86 0b3c 0b0e 403c 1e9b 153c 938d 093c
000000c0: 78ca ed3b 2dab 523c dfdb c73b 7be2 3c3c
000000d0: 9e57 213c 3111 373c ba76 833c addf 163a
000000e0: c765 ee3b 312c ce3b 448e f23b 1e39 b03c
000000f0: ad2b 253b 82a9 ea3b 23fa 60bb 38d7 c93b
00000100: 3e60 323c 3083 fd3b d8f8 ef3b d808 333c
00000110: 0623 313b b04f 563c 5162 743b 91e8 2e3c
00000120: 52ae 99bb 68f6 a33b af7a 4e3c 94c4 abba
00000130: 8250 733c 0319 ad3b 0102 acb9 aa8a 0e3c
00000140: 4230 183c 53b8 5e3c 886c bdbb 1a53 eab9
00000150: 8bf0 1ebb 47aa 2b3c 46ed cc3b 937f a63b
00000160: 4aff fcba 953d 2f3c 221f f5ba 0c90 893c
00000170: 41ed f43b 4fc3 e83a 495b 893b 7631 153c
00000180: 495e 0b3c cd47 863c 5576 4ebb cdc8 003b
00000190: 9798 ba3b 2632 b93b 745e a03b c42d 733c
000001a0: d368 ea3b dd33 ecba 0871 1f3c 3cf5 153c
000001b0: aab6 203c 96ac 7bbb 40db 083c c40c 803c
000001c0: c0f6 0c3c 1470 283b fa08 bf3b 97ef 193c
000001d0: fb20 393b b5cf 313c a81a 643b 40c7 1bbb
000001e0: 4c13 283c b5a8 7d3b 4c11 853a 1a77 6d3b
000001f0: 4b7f 1f3c 6ad2 5a3b 3359 ee3b 1797 db3b
00000200: 5320 71bb f17e 0f3a a1e3 633a 9740 98bb
00000210: 1e68 14bc 5df0 60bb 675a b7bb 8858 5e3c
00000220: e9c5 b33a ecd8 0fba 253e 4aba 411b e03a
00000230: f4a5 0dbb bd58 cfbb b01e 973b bf52 973a
00000240: ecf4 b1bb 8b21 b2bc fe09 bbba 71fd 29bc
00000250: a5c3 3b3b 484a 85bb 11dd b93a c32e 62bc
00000260: 8da3 a93b 146f 673b 5239 413a c20e 5bbb
00000270: dfe5 99bb a7aa e5ba c89e 3e39 9cb7 813a
00000280: 45ff 0cbb 2768 05bb 1630 4f3b 9747 cf36
00000290: 8737 41bb 34e6 6dbb 392c 0f3c 34c0 90bb
000002a0: cbfb 0ebc c932 80ba bb1f fc3a da66 2b3b
000002b0: 79d6 0d3c 4c47 b9bb ee43 f43a c290 bbbb
000002c0: b7b9 38bc 9138 f73b 8442 d4ba 152b e13a
000002d0: 6c41 55bb 6196 4fbc 7740 cb3b e4bc 99ba
000002e0: c3a8 193b a613 fc3a 6bc4 843b 98ae bdbc
000002f0: a208 21bb 04bc 883b 7dfc aebb 0166 b43a
00000300: 6f37 cb3b 14c5 333b b6d9 aebb f14d 2ebc
00000310: 1a29 943b 70a7 013c 1b65 3739 e4b0 45bc
00000320: 7ef4 7fbb b3bf 21bb 8924 98bc 84e7 22bc
00000330: c19d 9f3b 8ed4 01bb b47a 20ba 7653 35bc
00000340: d5cc 213a 860c 053c 89e5 04bc 5489 96ba
00000350: c0af e1ba 1ac4 44bb 17fc 27bb fd02 f5ba
00000360: 0c1e 8fbb adf4 9438 be3f 25ba 0a7a f3bb
00000370: 973d 17bb f531 3fbb 81fc a73a 524a f83b
00000380: ecd9 0cbc 53c8 99bc 0bfb f4bb 91ae 92b9
00000390: b27c d63a a0d0 38bb 3546 65bb c60e d7ba
000003a0: 1199 c73b 7bbc 2bbb e8c3 58bc 6db8 ce3b
000003b0: 3be2 a0bc ad12 bebb a138 c33b a334 8dbc
000003c0: e730 5939 ebd4 25bb 5503 b53b 2971 b8bb
000003d0: d45e b0ba 42e2 e6bb b080 2b3a b477 87bb
000003e0: 6666 94ba 0a9f 143b 563d 7bba b9ff ab3a
000003f0: 44d5 c2bb dc01 89bb f2c4 c53b 2ec1 09ba
