models/2inst/checkpoint/AMDGTC.pth (torch, 875321 bytes, 12 tensors)

lstm.weight_ih_l0 f4 [512, 5]
00000000: 547e b6bc 7d41 e13d d9ac 05bd ad45 f53c
00000010: 2938 84bd 0ebd 2d3d 32c6 51bd b966 f13c
00000020: c63f 29bd aaf4 90bd e73c 78bd 2aaf 553c
00000030: bb50 2d3c 43f7 93bd 06a0 ed3c 4177 ad3d
00000040: 365d 98bd a49d 88bc 09b4 dabd d69f a13c
00000050: 909b 283d 3f97 353d 0a6d 5b3c 36d8 ba3c
00000060: 7d88 363d 9eaf b13d d3f1 da3d b471 c8bd
00000070: 1042 9abd 4220 aa3d cf43 4e3d 26d3 8c3d
00000080: 68d3 963d ec1f a5bc 646e 91bd ee21 38bd
00000090: 3148 b43a 8e2d c2bc 7c1d 90bc 1be9 dd3b
000000a0: e4d9 b5bd 8444 803c 6445 a5bc 1af2 a4bc
000000b0: 3cf2 e13c 40e8 ac3d a55b bebd 79b7 9bbd
000000c0: 16e7 c6ba 2277 a4bc 144a cb3d 2f7d 903c
000000d0: bf68 913d a1ab bcbc adb7 dcbc 5ce6 b9bd
000000e0: 2beb 813d 460e b83d 40a2 613d 5663 a53d
000000f0: 6fe9 8b3d 1d93 5d3c 7034 aabd 77e0 413d
00000100: 90e6 a63d 0290 bcbd a3a8 cf3d 908c c8bd
00000110: 91c7 8f3c 9715 3ebd 46d3 0d3c 3553 cabd
00000120: 4770 b23d 8d72 10bd a202 54bb f464 743d
00000130: 01a1 85bd 86ce 37bd 0068 a0bd 2a15 b1bd
00000140: 9a68 a3bd 771e 1fbc 5106 ce3c 9b7a 69bd
00000150: ca95 9bbd 7ab5 5e3d 0e56 383d e6c3 573d
00000160: 89fc 9e3d e3c8 92bc 4ff0 b1bd 41c2 99bd
00000170: 3c5a 713c 6d3e 0c3c 346b b73d 9e03 bbbd
00000180: 3210 da3c e8c5 513c aa3b cf3d 449a b9bd
00000190: 235b ab3d 31ff e03d 79d2 85bd 7b46 2aba
000001a0: 0655 fdbc e75f 1cbd a0b3 06bd bfb4 cfbd
000001b0: 637f acbd e2ff 80bd d382 9fbd 13a3 f33d
000001c0: 4074 4a3c 4338 b03d 5a30 8c3d 3223 a43d
000001d0: 06a8 3b3d b379 cebd ce67 29bd 01b4 383d
000001e0: 6219 543c 1b4a eb3b f32c 5b3b 3678 f73c
000001f0: b97a a6bd 8c27 dcbb 3137 18bd 20b8 b2bd
00000200: 3257 133b 4b67 7d3d f78a 383d 6271 fc3b
00000210: 1f23 dd3b d782 aa3d bf0a e0bd 0ec2 cc3d
00000220: 78a4 dcbc afa0 a73d cba5 3fbd 2196 a4bd
00000230: 9159 60bd b254 05bc cec8 6bbd 729d ca3d
00000240: 4c23 9abb 93e1 b4bd 4d12 9c3d 2e51 0ebd
00000250: 845d 0d3d ae1b 8d3d 220e 44bd b8d5 92bd
00000260: c293 76bd e461 73bd 9373 c8bc 18f3 9dbd
00000270: 4bb5 a63d 0d21 333d 493d 31bd 09a2 63bd
00000280: bbff ad3d 9787 bbbc bf00 173d 00c3 153d
00000290: 2461 2fbd af4d 4ebd ba3e 223d adf0 a93d
000002a0: d7d2 85bd 4187 ae3d 2df8 a63c 9b8f 6c3d
000002b0: 1ce3 693d d9e3 d8bd d0ad 26bd cecb 013e
000002c0: 6baa 043d 3ab7 85bd 6e0d 87bd e7f9 e93d
000002d0: 1141 4dbd 5181 a93d 1cfc 9d3c 01dc 583d
000002e0: c38b 82bd ac5f 22bd 7e07 c7bd 076a 1e3d
000002f0: 3cdf 64bd e19a 843c 6405 51bd f0ca e23d
00000300: 5f9b f7bc afd4 7c3d e25b 843d ea13 973d
00000310: b52b c03c 91bd 8e3d acb4 4bbb 4b4f b13d
00000320: 91d8 29bd c184 ba3d 64c2 90bd 383a b7bc
00000330: 09a7 ee3c 518e e6bb 5df8 8abc ce9e a2bb
00000340: bbeb b5bc d4b8 ba3d 4397 4c3d d409 df3d
00000350: d0ed a43d 749d 59bc 1984 d3bd aac9 a83c
00000360: cdc1 a6bd fa15 433d 48c3 563d 463d 57bc
00000370: 4cca cc3c 878f 89bc 3046 cd3d 736a d43c
00000380: 6818 5ebd a93e babd d505 dd3d 942b 91bd
00000390: d676 04bd 4fb1 b9bc 262d 7ebd af5d de3c
000003a0: cd16 9d3b 445e c5bd b02c c43a 0fa3 b2bd
000003b0: adc1 7ebc c697 60bd d76a 8b39 2434 f6bc
000003c0: 573f f73d f5c7 7dbd 2e31 5bbd d3bc 473d
000003d0: c2cb cc3d ceae cc3d 38b5 a1bd 9b8b 29bd
000003e0: 488a ae3d 7712 adbd 90dd 94bd 24a4 83bd
000003f0: 1feb 89bd e45a be3d a1e5 2c3d 9be5 ac3d
-0.022277035 0.10998819 -0.032635543 0.02994045 -0.06456024 0.042416625 -0.051214404 0.029467927
-0.041320585 -0.07077916 -0.060604956 0.013042251 0.01057833 -0.07224896 0.02900697 0.084700115
-0.074396536 -0.016676731 -0.1067887 0.019729536 0.04116398 0.044333693 0.013392696 0.022808176
0.04456376 0.086760744 0.106906556 -0.09787312 -0.07532132 0.08306934 0.050357636 0.06876211
0.07364541 -0.020156823 -0.071011335 -0.044954233 0.0013754425 -0.023703363 -0.017592184 0.006772173
-0.0887945 0.01565767 -0.02017469 -0.020134974 0.027581327 0.08442736 -0.092948236 -0.07603354
-0.001517507 -0.020076338 0.09926239 0.017637817 0.07100057 -0.023031058 -0.026943052 -0.09077141
0.06343683 0.089870974 0.055086374 0.080755875 0.06831633 0.013523844 -0.08310783 0.047333207
0.08149445 -0.09207155 0.10139587 -0.09792435 0.017551215 -0.04640731 0.008656329 -0.09879152
0.087128215 -0.035265494 -0.0032350202 0.05966659 -0.0652485 -0.04487469 -0.078323364 -0.08646615
-0.079789355 -0.009711853 0.025149496 -0.05700169 -0.07596929 0.05437229 0.045003943 0.052677058
0.07763011 -0.017918056 -0.08688413 -0.07507754 0.014730986 0.008559805 0.08955994 -0.09131549
0.02661905 0.012803532 0.10118802 -0.09062627 0.08366992 0.10986174 -0.06534285 -0.0006495488
-0.030924331 -0.038177397 -0.032886147 -0.101418965 -0.084227346 -0.06298806 -0.077886246 0.11896338
0.012356818 0.08604481 0.0684516 0.080145255 0.045814537 -0.10081806 -0.04135876 0.04509354
0.012945505 0.007180465 0.003344354 0.030208688 -0.08128876 -0.0067185815 -0.03716201 -0.08726525
0.0022482392 0.061866086 0.045054402 0.007703946 0.0067485715 0.08325737 -0.1093955 0.099979505
-0.026933894 0.08184945 -0.046788972 -0.08036447 -0.054772917 -0.008137869 -0.05756455 0.098933116
-0.0047039147 -0.08832087 0.07620678 -0.034745388 0.03451301 0.06890045 -0.04786504 -0.0716967
-0.060199507 -0.059419528 -0.024469173 -0.07712382 0.08140048 0.04373269 -0.043271337 -0.05557445
0.08496042 -0.022891803 0.036865946 0.03656292 -0.04281725 -0.050367054 0.039610602 0.082978584
-0.06534355 0.085218914 0.020382011 0.05775414 0.057101354 -0.105903335 -0.040693104 0.12675402
0.032389086 -0.06529088 -0.065943584 0.11424618 -0.05011088 0.08276618 0.019285254 0.052944187
-0.06374314 -0.03964202 -0.09718226 0.038675334 -0.055876955 0.016187133 -0.05103053 0.110738635
-0.030225454 0.06172627 0.06462838 0.07376845 0.023458341 0.06969751 -0.003108303 0.08657702
-0.0414663 0.09107352 -0.07068327 -0.022366628 0.029132383 -0.0070360084 -0.016964132 -0.0049627787
-0.022207132 0.091172844 0.049948942 0.108905464 0.08053172 -0.013282169 -0.1032793 0.020603973
-0.08142433 0.04762838 0.05243233 -0.013137167 0.024998806 -0.016792072 0.10023153 0.025929665
-0.054222494 -0.09093983 0.10792128 -0.0708839 -0.032339893 -0.022667555 -0.062054776 0.027144281
0.004793978 -0.0963712 0.0014966931 -0.08722507 -0.015549106 -0.054832242 0.00026591748 -0.03005416
0.12072628 -0.061958272 -0.0535137 0.04876406 0.09999801 0.09994279 -0.07895893 -0.041392904
0.08522469 -0.084507875 -0.07268822 -0.06427792 -0.06734299 0.0929468 0.04221118 0.08442231

lstm.weight_hh_l0 f4 [512, 128]
00000000: b5d3 c03d 73af 883d c1f8 67bd 8afd 1bbd
00000010: 07f8 963d 15cf 02bd fbbb 8fbd 4cc2 6f3d
00000020: 4dc4 3c3d 8623 6f3d 5d8a 1abd 85db cc3d
00000030: 1bd9 c8bd d5fe b8bd 780a 343d 9718 22bd
00000040: 93ee 7fbd 46e6 723d 51a2 71bd 5f3f 2eba
00000050: ca7f 9ebd 6432 83bc fcfb 633d 118d 20bc
00000060: 66d1 03bd dd42 bcbd dd7f 10bc 0aaf 373d
00000070: 2fa7 a9bd 5ba2 b33d b06a 823d c6d5 adbc
00000080: 53b0 9ebc 415e 9f3d c4ab e33b 2432 a3bd
00000090: cfc3 8d3d 1bc9 37bd e31d 16bd e7f4 233d
000000a0: 490c e6bc cff8 a2bd 2a8d 98bd f11c de3b
000000b0: 553c 9dbd c2c2 b6bc 8db5 963c 2404 833d
000000c0: 5c4a 283d 2302 01bb 2af9 eb3c b1dd c9bc
000000d0: 4815 173d 2a76 71bd 4608 c3bd f40f d1bd
000000e0: 8c72 ea3a 5449 ba3c 590e 15bd 0c74 a03d
000000f0: ca72 08bc 9625 c5bd 110a afbc 4363 423d
00000100: cef5 243d a932 c7bd 9a33 a63d 7f3e 1c3c
00000110: 7c0a 7abd a134 15bd 34db b1bd fc89 77bd
00000120: 4574 6c3b b7bf 44bc 631e 8b3c 1f6b 84bc
00000130: 8a33 37bd 2dee eb3c 62a0 913d d244 08bd
00000140: b31e 6ebd 0420 443c 0704 993d 1df0 b73d
00000150: fa80 a4bb ffb5 37bd 5b01 b9bd 7e52 5f3d
00000160: eee6 273d 8f0b c3bc 9679 cabd 96e1 533d
00000170: 43af 4fbc 1230 c1bd 27ef c23d ff60 b03d
00000180: dc22 9d3d fccb c4bd 0c9b 103d 36d7 80bd
00000190: 632a a53d 0bfb 2e3d 4c15 94bb 334e 8b3d
000001a0: 400c 9cbd 71ba 80bc 2fa5 62bc afb4 b1bd
000001b0: 0a6e 073d e139 863d 2d83 533d 975b 9a3d
000001c0: f930 613d 1877 453d 390d b3bd 044d 6e3d
000001d0: 4cdd 64bd 6508 ee3a 1d47 7bbd ece6 ab3d
000001e0: 0961 debb e349 a6bd 2c38 b3bd bfae 91bd
000001f0: 3fcc cdbd 2d3b c93d 18c7 f93c 88d7 273d
00000200: f033 8ebc c0e0 9cbd 1747 2dbc 583f 8a3c
00000210: e955 4abb 0bdc 1c3d 904d 87bd 673f 63bd
00000220: cd8f a8bc 8609 fcbc 3f53 8ebd b8ef 8d3d
00000230: ae99 c73d 895a 793c 324c 95bc b03b 9f3d
00000240: 3406 ae3d ad56 90bd 8ecf a23c 417f 053d
00000250: 8527 5e3d 2647 3cbd ec6d 5eb8 f718 d23c
00000260: 7b6b 83bc 227e ba3d 1237 a63d 0122 543d
00000270: db87 e3bc ccf6 0d3d f768 26bc 2c33 71bd
00000280: 88ac 95bd 7dc2 0d3c 0971 5e3d 8b04 823c
00000290: 62ee 563c 67e1 10bd 0dde 693d 9b3c 7cbd
000002a0: 4bb8 cd3d 509e 9b3d 6db9 1c3d 5037 ee3b
000002b0: 87b0 1fbd d58a 2dbd 4981 91bd d828 a23d
000002c0: f70e 5c3d f035 f1bb daae 173d 9a58 8a3d
000002d0: c636 1dbd f196 853c 4fab 8ebd 3c43 233d
000002e0: fbb1 513d 6f3b c1bc b69e c13c 6f63 8b3d
000002f0: 31a4 963d 93ea 9b3c 7366 87bd 7933 fe3a
00000300: 04f6 fd3c 4d17 0a3d 3a32 7e3c eb0b bfbd
00000310: 765c 8abd 98b2 c83d 3180 543d 85fd eabc
00000320: 1792 0bbd 2bcc a7bb 2bf3 36bd 27f5 47bd
00000330: ccbd 293d 89f7 55bd ee81 a6bd abee ffbb
00000340: e4f5 de3c 5e82 abbd 0a83 b2bd 32de 2abd
00000350: 26da a43d 6c08 96bd 1be4 8b3d 5c58 a3bd
00000360: 2b56 ad3d cb6f 143d 31ca b5bd 0da5 873b
00000370: 89cf 8e3d 7799 b93c 4611 383d a990 b03d
00000380: 8e2c 56bd ebb3 6dbc 7d50 bdbb e1d4 31ba
00000390: bd9b a73d f230 ac3d 90f9 1cbd 7fab c83d
000003a0: 0b76 e93c be79 96bd 8799 41bc 08ac 71bd
000003b0: a0cd 79bd 9bb1 ba3d 01ec c8bd 6d4f 19bd
000003c0: fc9a ad3d f773 4b3d 7c99 c73d 2136 573d
000003d0: c57d a6bd 4270 da3b 2f50 92bd 1f05 aebd
000003e0: 1b2c 21bd 6a72 703d 3a35 1fbd 59e1 663b
000003f0: 166d 80bd 8117 afbd ca30 3b3b 3be1 e6bc
0.0941538 0.06674089 -0.056633715 -0.03808359 0.07371526 -0.03193577 -0.07018276 0.058534905
0.046085645 0.058383487 -0.03772961 0.100028075 -0.098070346 -0.0903298 0.043955296 -0.039574232
-0.06248338 0.059301637 -0.058992688 -0.0006647016 -0.077392176 -0.016015239 0.055660233 -0.009799258
-0.03218212 -0.09192441 -0.0088195475 0.044844665 -0.08283841 0.08771201 0.06368005 -0.0212201
-0.019371187 0.077816494 0.0069479663 -0.07968548 0.06922113 -0.044869523 -0.036649596 0.04002848
-0.02808203 -0.07957613 -0.074488 0.0067783524 -0.07677523 -0.022309665 0.018397117 0.06397274
0.04108654 -0.0019685111 0.028805334 -0.024641844 0.03688553 -0.05895058 -0.095230624 -0.10208121
0.0017886921 0.022740044 -0.036390636 0.07834634 -0.008328149 -0.096263096 -0.021367105 0.047457945
0.04027348 -0.097264595 0.08115311 0.009536385 -0.061045155 -0.036427144 -0.08684388 -0.060434327
0.0036080044 -0.012008599 0.016982263 -0.01616436 -0.044726886 0.028800095 0.07110669 -0.033268757
-0.058134746 0.011970524 0.07471471 0.08981345 -0.005020258 -0.0448513 -0.09033462 0.05452203
0.040991716 -0.023809223 -0.09886472 0.051728807 -0.012676063 -0.09432997 0.09518271 0.086122505
0.076726645 -0.096092194 0.035304114 -0.06291048 0.08064725 0.042719882 -0.0045191403 0.06802025
-0.07619524 -0.015713902 -0.013833328 -0.08677041 0.033063926 0.06554008 0.05163877 0.075370006
0.054978345 0.04820928 -0.087427564 0.058178917 -0.055875108 0.0018160461 -0.061347116 0.08393654
-0.00678647 -0.081195615 -0.08750948 -0.07113408 -0.100487225 0.0982574 0.030490443 0.04097703
-0.01735875 -0.07660055 -0.010576031 0.016875908 -0.003087396 0.038295787 -0.06606591 -0.055480387
-0.020576382 -0.03076626 -0.06949472 0.06930488 0.09746109 0.015219339 -0.01822481 0.07775056
0.08497277 -0.07047782 0.01987436 0.032592062 0.054236908 -0.04596629 -5.3031297e-05 0.02564667
-0.016042462 0.09106089 0.081159726 0.05179024 -0.027774742 0.034659192 -0.0101568615 -0.058886692
-0.07308298 0.008652327 0.054307017 0.015871307 0.013118358 -0.03537121 0.05709653 -0.061581235
0.10044917 0.07598555 0.038262773 0.0072697774 -0.03898671 -0.04236873 -0.07104737 0.079179466
0.05372521 -0.007361166 0.037031986 0.06755181 -0.038382314 0.016307326 -0.06966268 0.03985904
0.051195126 -0.02358791 0.02363525 0.06806075 0.07355536 0.019032752 -0.066113375 0.0019394002
0.031001098 0.033713628 0.015514905 -0.09328445 -0.06755917 0.09799689 0.051880065 -0.02868534
-0.03407487 -0.0051207743 -0.044665497 -0.04881778 0.04144077 -0.05223802 -0.08130251 -0.007810434
0.02721686 -0.08374475 -0.087164 -0.04171581 0.08049421 -0.07325825 0.06830617 -0.079758376
0.08463701 0.036239427 -0.088764556 0.0041395486 0.06973178 0.022656186 0.04493835 0.08621342
-0.052288584 -0.014508228 -0.005777417 -0.00067837356 0.081840016 0.08407773 -0.03832394 0.09798335
0.02849867 -0.07347439 -0.011816389 -0.059001952 -0.060987115 0.09115907 -0.09810639 -0.037429262
0.084768265 0.04967114 0.09746072 0.052541856 -0.081294574 0.006666214 -0.071442 -0.084970705
-0.039348703 0.058702864 -0.03886912 0.0035229533 -0.062708065 -0.08549405 0.0028563016 -0.02818357

lstm.bias_ih_l0 f4 [512]
00000000: d462 553c 4ec4 e03b 923f 4b3c a3ad fa39
00000010: 7702 973c 93ad 7c3c 5602 b13b 8565 033c
00000020: 5553 333c 6b5f 693b 970e 963b 4e2b 8d3c
00000030: 6aee f7bb a3bb 493c 437e 1a3b 11f5 813b
00000040: 7119 883c 8f95 853c 5fe1 b63b db55 703b
00000050: fa93 0e3c a4a7 313b 216a 4a3c 4801 2f3c
00000060: 4b8d 86ba cb09 c53b 88a9 11bb 2b83 9a3c
00000070: 1aef 473c e809 203b 8105 0c3c 309f 333c
00000080: 2ae2 2e3b f45a 143c c7c7 443c 6b07 613c
00000090: 0700 c6bb 348a ec3b df44 243c f27d ea3b
000000a0: 0acb 763c 2b95 163c dc2e 043c 3c50 7ebb
000000b0: 647b 483a 868c 4f3c f10a f63b c4b9 d93b
000000c0: 74c3 9c3c c6c9 663b 77f2 353c 9d6a c438
000000d0: b0d4 5d3c a7d7 573a 97cd 493c ec9a 1e3c
000000e0: ae5d 5b3c 7933 913b c45d 293c 82e7 4e3c
000000f0: adf6 523b ed5f a73b 4b2d 553c eba1 8d3c
00000100: 5275 803b 3cc3 193c d549 893b 81e9 383c
00000110: 1e06 163c 44af 1a3c 6bff 8e3c a32e 71ba
00000120: 803e a43b 75be 7e3c fae2 253c dee0 1e3c
00000130: b045 b939 8085 763c c2ce 813a ddf4 483c
00000140: a3c6 743c f111 f93b 2da4 893c 2dfe 69ba
00000150: cafd da3b 2859 063c 4d95 fd3b 762c 8b3b
00000160: 63a1 3d3b f037 893b 3240 8b3c b846 843b
00000170: b225 163c 1dd2 9b3a 571d e839 f7e3 243c
00000180: 63c8 1b3b d03d 133b 568d 963b 2a05 6d3c
00000190: 0b21 6e3c 7e15 c13b e90f 1e3c 32a2 8d3c
000001a0: fdea 443c a6e3 533b 2a78 aa3b 0392 613b
000001b0: c580 5f3c 1467 533c 68f8 753b 1848 5f3c
000001c0: d628 0f3c 466b 133c fca9 3f3c ac3e 5e3c
000001d0: 0462 4b3b 55cb 403c 7d95 0d3c 652b 093c
000001e0: 1db4 8a3c 7ec6 0f3c 50b3 333c faf8 243c
000001f0: 1997 883c 103e 4c3c 5664 463c 9b84 5d3c
00000200: f230 44bb 7a0b 4b3b 190b 143b 5ee1 9dba
00000210: 122d ed3b 61dc b43b a418 173a cf6c f83b
00000220: bd4e ca3b 4dee 0ebb ce68 ab3a 4026 453c
00000230: fb69 4e3b cd86 e23b 572a f13a b9bc 9cb9
00000240: ff04 5c3c 411c 223c 6990 1aba 33a7 4a3c
00000250: 3868 4a3b 7db9 58b9 d176 943b 36f1 e63b
00000260: 5781 2aba b373 ef3a 78e6 a7bb 2ac6 953c
00000270: bb2c c63b 0f85 feb9 505d c73b f666 9f3b
00000280: 1a62 d33a f085 923b ce91 1dbc 02e3 cb3b
00000290: cf1f b93a b27a c63b 8bed 8e3b 0808 7c3b
000002a0: 6685 923b a8ef a73a 188e 753b 863e 20bb
000002b0: ee07 f9bb 1ba3 463c c43f 353b 3420 3d3b
000002c0: 0354 443c 35b9 713a d942 763a 1156 8cba
000002d0: 63a5 893c b8bd 9b3b ce29 1f3b db42 993b
000002e0: 52a2 0b3c bac9 bf3a 7f6a 7e3b 100f c03b
000002f0: 257d 57ba 797b 3f3c 7183 37bc 1b5c 933c
00000300: 5a70 fd3a 18d9 a13b b97c 38bb adf9 d93b
00000310: 3c06 ecbb c3e5 923a 4dac a83b 39db 92ba
00000320: 4bac 353b cebe 333c be3e 7d3b b503 dd3b
00000330: 148b 0539 91c6 523c b345 cd3b 837f 1e3c
00000340: b19c b03b 8ca0 ef3b ff7e 1e3c a9fd 31bb
00000350: cc17 ba3b 5437 2d3b e209 1e3b 0dd5 a83b
00000360: f8f7 d23a 8332 c83b b537 563c f666 a7ba
00000370: 47a2 b33b e0b7 50ba 85ca b1ba 4df4 283c
00000380: f65a 95ba da39 ceba 80d2 1d3b 2245 ea3b
00000390: 7f20 293c c506 ba3a 100b 593c 7828 32ba
000003a0: fa71 173c 7399 013b aa3c 873a 3d60 8fbb
000003b0: 2e7c 16b9 1a37 313b 8e88 4739 765a 7d39
000003c0: 86da 4139 0529 2b3b a726 833a 390b ca3b
000003d0: 17f0 e53a ed1b 7a3c 113f e73b 934a cc3a
000003e0: a4e9 423c 50db 683b 3892 7d3b f1c0 0b3c
000003f0: 650e 6e3c 6e1e ab3a f17e 4e3c ffe7 093c
0.013024051 0.006859339 0.012405293 0.00047813085 0.018433793 0.015422243 0.00540189 0.00801981
0.010945161 0.0035609852 0.004579376 0.017232563 -0.007566263 0.0123128025 0.0023573793 0.003965982
0.016613694 0.016306667 0.0055810655 0.0036672268 0.008702273 0.0027107978 0.012354405 0.010681458
-0.0010265497 0.0060131303 -0.0022226293 0.018861374 0.012203002 0.0024419967 0.008546234 0.010963246
0.0026685097 0.009054888 0.012010521 0.013734679 -0.0060424837 0.0072186235 0.010026186 0.007156127
0.015063057 0.009190838 0.008067813 -0.0038805148 0.0007647781 0.012667781 0.0075086285 0.0066444594
0.019136168 0.0035215481 0.011105171 9.3658666e-05 0.013539478 0.0008233734 0.012317083 0.009680491
0.013389034 0.004431185 0.010337297 0.012628438 0.0032190487 0.005107871 0.013011287 0.017289123
0.0039202357 0.009384926 0.0041897097 0.01128614 0.009156732 0.009441201 0.017455777 -0.000920037
0.0050123334 0.015548338 0.010124916 0.009697167 0.0003533787 0.015046477 0.0009903538 0.012265411
0.014939937 0.0076010157 0.016801918 -0.000892612 0.006683086 0.008199967 0.0077387453 0.0042472435
0.0028935305 0.0041875765 0.016998384 0.0040367506 0.009164261 0.001188818 0.00044272348 0.010064117
0.0023770563 0.0022467263 0.0045944853 0.014466563 0.014534245 0.0058924546 0.009647348 0.017289255
0.012018916 0.0032331734 0.005202313 0.0034419305 0.013641541 0.012902994 0.0037532095 0.013628028
0.008737763 0.008997744 0.011698242 0.013564747 0.0031033764 0.011767228 0.008641598 0.0083721625
0.016931588 0.008775352 0.010968044 0.010069126 0.016673611 0.012465969 0.012108883 0.013520385
-0.00299364 0.0030982182 0.0022589623 -0.0012045314 0.007238039 0.0055194353 0.00057638646 0.0075813304
0.006173937 -0.0021809519 0.0013077499 0.012033045 0.0031496275 0.006913042 0.0018399459 -0.00029895248
0.013428926 0.009894432 -0.00058961526 0.012368965 0.0030884873 -0.00020668465 0.0045307656 0.0070477976
-0.00065042585 0.0018268734 -0.0051239096 0.018282969 0.0060478128 -0.00048545792 0.0060841218 0.004864569
0.0016127259 0.004471533 -0.009617282 0.00622213 0.001412386 0.006057107 0.0043618134 0.0038456935
0.0044714687 0.0012812512 0.0037468728 -0.002445133 -0.0075998222 0.012123848 0.0027656415 0.0028858306
0.011982921 0.00092210184 0.00093941164 -0.0010706802 0.016802495 0.004752841 0.0024286392 0.0046771592
0.008522587 0.0014632263 0.00388208 0.0058611706 -0.0008220247 0.011687153 -0.011200772 0.017988255
0.0019335852 0.0049392097 -0.0028150512 0.006652078 -0.0072028916 0.001120739 0.005147493 -0.001120425
0.0027721103 0.010970784 0.0038642134 0.0067448267 0.00012735679 0.012864725 0.0062644123 0.009673956
0.005389773 0.00731284 0.009673833 -0.002715925 0.0056791063 0.0026430683 0.0024114777 0.0051523508
0.0016095629 0.006109537 0.013074805 -0.0012771774 0.0054819915 -0.000796197 -0.0013564384 0.010312152
-0.0011394906 -0.0015733794 0.0024081767 0.0071493546 0.010322689 0.0014192691 0.013247266 -0.00067961914
0.009243483 0.00197753 0.0010317762 -0.004375486 -0.00014351375 0.00270409 0.0001902899 0.0002416166
0.0001848732 0.002611698 0.0010006026 0.0061658886 0.0017542866 0.015265447 0.0070570786 0.001558619
0.011896525 0.003553111 0.003869189 0.008529888 0.014529799 0.0013055333 0.012603507 0.008417129

lstm.bias_hh_l0 f4 [512]
00000000: d462 553c 4ec4 e03b 923f 4b3c a3ad fa39
00000010: 7702 973c 93ad 7c3c 5602 b13b 8565 033c
00000020: 5553 333c 6b5f 693b 970e 963b 4e2b 8d3c
00000030: 6aee f7bb a3bb 493c 437e 1a3b 11f5 813b
00000040: 7119 883c 8f95 853c 5fe1 b63b db55 703b
00000050: fa93 0e3c a4a7 313b 216a 4a3c 4801 2f3c
00000060: 4b8d 86ba cb09 c53b 88a9 11bb 2b83 9a3c
00000070: 1aef 473c e809 203b 8105 0c3c 309f 333c
00000080: 2ae2 2e3b f45a 143c c7c7 443c 6b07 613c
00000090: 0700 c6bb 348a ec3b df44 243c f27d ea3b
000000a0: 0acb 763c 2b95 163c dc2e 043c 3c50 7ebb
000000b0: 647b 483a 868c 4f3c f10a f63b c4b9 d93b
000000c0: 74c3 9c3c c6c9 663b 77f2 353c 9d6a c438
000000d0: b0d4 5d3c a7d7 573a 97cd 493c ec9a 1e3c
000000e0: ae5d 5b3c 7933 913b c45d 293c 82e7 4e3c
000000f0: adf6 523b ed5f a73b 4b2d 553c eba1 8d3c
00000100: 5275 803b 3cc3 193c d549 893b 81e9 383c
00000110: 1e06 163c 44af 1a3c 6bff 8e3c a32e 71ba
00000120: 803e a43b 75be 7e3c fae2 253c dee0 1e3c
00000130: b045 b939 8085 763c c2ce 813a ddf4 483c
00000140: a3c6 743c f111 f93b 2da4 893c 2dfe 69ba
00000150: cafd da3b 2859 063c 4d95 fd3b 762c 8b3b
00000160: 63a1 3d3b f037 893b 3240 8b3c b846 843b
00000170: b225 163c 1dd2 9b3a 571d e839 f7e3 243c
00000180: 63c8 1b3b d03d 133b 568d 963b 2a05 6d3c
00000190: 0b21 6e3c 7e15 c13b e90f 1e3c 32a2 8d3c
000001a0: fdea 443c a6e3 533b 2a78 aa3b 0392 613b
000001b0: c580 5f3c 1467 533c 68f8 753b 1848 5f3c
000001c0: d628 0f3c 466b 133c fca9 3f3c ac3e 5e3c
000001d0: 0462 4b3b 55cb 403c 7d95 0d3c 652b 093c
000001e0: 1db4 8a3c 7ec6 0f3c 50b3 333c faf8 243c
000001f0: 1997 883c 103e 4c3c 5664 463c 9b84 5d3c
00000200: f230 44bb 7a0b 4b3b 190b 143b 5ee1 9dba
00000210: 122d ed3b 61dc b43b a418 173a cf6c f83b
00000220: bd4e ca3b 4dee 0ebb ce68 ab3a 4026 453c
00000230: fb69 4e3b cd86 e23b 572a f13a b9bc 9cb9
00000240: ff04 5c3c 411c 223c 6990 1aba 33a7 4a3c
00000250: 3868 4a3b 7db9 58b9 d176 943b 36f1 e63b
00000260: 5781 2aba b373 ef3a 78e6 a7bb 2ac6 953c
00000270: bb2c c63b 0f85 feb9 505d c73b f666 9f3b
00000280: 1a62 d33a f085 923b ce91 1dbc 02e3 cb3b
00000290: cf1f b93a b27a c63b 8bed 8e3b 0808 7c3b
000002a0: 6685 923b a8ef a73a 188e 753b 863e 20bb
000002b0: ee07 f9bb 1ba3 463c c43f 353b 3420 3d3b
000002c0: 0354 443c 35b9 713a d942 763a 1156 8cba
000002d0: 63a5 893c b8bd 9b3b ce29 1f3b db42 993b
000002e0: 52a2 0b3c bac9 bf3a 7f6a 7e3b 100f c03b
000002f0: 257d 57ba 797b 3f3c 7183 37bc 1b5c 933c
00000300: 5a70 fd3a 18d9 a13b b97c 38bb adf9 d93b
00000310: 3c06 ecbb c3e5 923a 4dac a83b 39db 92ba
00000320: 4bac 353b cebe 333c be3e 7d3b b503 dd3b
00000330: 148b 0539 91c6 523c b345 cd3b 837f 1e3c
00000340: b19c b03b 8ca0 ef3b ff7e 1e3c a9fd 31bb
00000350: cc17 ba3b 5437 2d3b e209 1e3b 0dd5 a83b
00000360: f8f7 d23a 8332 c83b b537 563c f666 a7ba
00000370: 47a2 b33b e0b7 50ba 85ca b1ba 4df4 283c
00000380: f65a 95ba da39 ceba 80d2 1d3b 2245 ea3b
00000390: 7f20 293c c506 ba3a 100b 593c 7828 32ba
000003a0: fa71 173c 7399 013b aa3c 873a 3d60 8fbb
000003b0: 2e7c 16b9 1a37 313b 8e88 4739 765a 7d39
000003c0: 86da 4139 0529 2b3b a726 833a 390b ca3b
000003d0: 17f0 e53a ed1b 7a3c 113f e73b 934a cc3a
000003e0: a4e9 423c 50db 683b 3892 7d3b f1c0 0b3c
000003f0: 650e 6e3c 6e1e ab3a f17e 4e3c ffe7 093c
0.013024051 0.006859339 0.012405293 0.00047813085 0.018433793 0.015422243 0.00540189 0.00801981
0.010945161 0.0035609852 0.004579376 0.017232563 -0.007566263 0.0123128025 0.0023573793 0.003965982
0.016613694 0.016306667 0.0055810655 0.0036672268 0.008702273 0.0027107978 0.012354405 0.010681458
-0.0010265497 0.0060131303 -0.0022226293 0.018861374 0.012203002 0.0024419967 0.008546234 0.010963246
0.0026685097 0.009054888 0.012010521 0.013734679 -0.0060424837 0.0072186235 0.010026186 0.007156127
0.015063057 0.009190838 0.008067813 -0.0038805148 0.0007647781 0.012667781 0.0075086285 0.0066444594
0.019136168 0.0035215481 0.011105171 9.3658666e-05 0.013539478 0.0008233734 0.012317083 0.009680491
0.013389034 0.004431185 0.010337297 0.012628438 0.0032190487 0.005107871 0.013011287 0.017289123
0.0039202357 0.009384926 0.0041897097 0.01128614 0.009156732 0.009441201 0.017455777 -0.000920037
0.0050123334 0.015548338 0.010124916 0.009697167 0.0003533787 0.015046477 0.0009903538 0.012265411
0.014939937 0.0076010157 0.016801918 -0.000892612 0.006683086 0.008199967 0.0077387453 0.0042472435
0.0028935305 0.0041875765 0.016998384 0.0040367506 0.009164261 0.001188818 0.00044272348 0.010064117
0.0023770563 0.0022467263 0.0045944853 0.014466563 0.014534245 0.0058924546 0.009647348 0.017289255
0.012018916 0.0032331734 0.005202313 0.0034419305 0.013641541 0.012902994 0.0037532095 0.013628028
0.008737763 0.008997744 0.011698242 0.013564747 0.0031033764 0.011767228 0.008641598 0.0083721625
0.016931588 0.008775352 0.010968044 0.010069126 0.016673611 0.012465969 0.012108883 0.013520385
-0.00299364 0.0030982182 0.0022589623 -0.0012045314 0.007238039 0.0055194353 0.00057638646 0.0075813304
0.006173937 -0.0021809519 0.0013077499 0.012033045 0.0031496275 0.006913042 0.0018399459 -0.00029895248
0.013428926 0.009894432 -0.00058961526 0.012368965 0.0030884873 -0.00020668465 0.0045307656 0.0070477976
-0.00065042585 0.0018268734 -0.0051239096 0.018282969 0.0060478128 -0.00048545792 0.0060841218 0.004864569
0.0016127259 0.004471533 -0.009617282 0.00622213 0.001412386 0.006057107 0.0043618134 0.0038456935
0.0044714687 0.0012812512 0.0037468728 -0.002445133 -0.0075998222 0.012123848 0.0027656415 0.0028858306
0.011982921 0.00092210184 0.00093941164 -0.0010706802 0.016802495 0.004752841 0.0024286392 0.0046771592
0.008522587 0.0014632263 0.00388208 0.0058611706 -0.0008220247 0.011687153 -0.011200772 0.017988255
0.0019335852 0.0049392097 -0.0028150512 0.006652078 -0.0072028916 0.001120739 0.005147493 -0.001120425
0.0027721103 0.010970784 0.0038642134 0.0067448267 0.00012735679 0.012864725 0.0062644123 0.009673956
0.005389773 0.00731284 0.009673833 -0.002715925 0.0056791063 0.0026430683 0.0024114777 0.0051523508
0.0016095629 0.006109537 0.013074805 -0.0012771774 0.0054819915 -0.000796197 -0.0013564384 0.010312152
-0.0011394906 -0.0015733794 0.0024081767 0.0071493546 0.010322689 0.0014192691 0.013247266 -0.00067961914
0.009243483 0.00197753 0.0010317762 -0.004375486 -0.00014351375 0.00270409 0.0001902899 0.0002416166
0.0001848732 0.002611698 0.0010006026 0.0061658886 0.0017542866 0.015265447 0.0070570786 0.001558619
0.011896525 0.003553111 0.003869189 0.008529888 0.014529799 0.0013055333 0.012603507 0.008417129

lstm.weight_ih_l1 f4 [512, 128]
00000000: 25a1 b1bd 5629 e43c af02 493d 0026 0cbd
00000010: 864b b1bb 1972 403d a87f c03c 72aa 04bd
00000020: caed e43c 67d2 0b3b bfde 763c b42a a93d
00000030: 51e1 0abd d89c a03d e250 98bd f7a5 bcbc
00000040: 7592 463d b39f 4b3d bb4c 84bd 19a4 403d
00000050: 560c 543d e9cd 27bd 9d97 7d3d 4f28 1b3d
00000060: 05ca cd3b 481f c23b ca2f a53c 08ea 8d3d
00000070: ce9c 30bc 1a08 9dbd 91bc 2e3d e764 273d
00000080: 7fb5 fa3c 5e19 a6bd 9b53 a5bd 71b7 82bd
00000090: 3f4a 97bd 8ddb 803d fc5a bdbd 0339 663c
000000a0: c428 91bd 3d70 b03c e4e8 97bc 646f 6ebd
000000b0: 612d ac3d 1651 9d3d df8e 2b3d a5a1 403b
000000c0: 2fb1 cd3d 37f5 1cbd eeca 2bbd 9765 8a3d
000000d0: bb59 cfbc bd6e c13d d17b 863d bdcd 89bd
000000e0: a022 32bd 0d10 863d a83d a33d 6a55 b63c
000000f0: 0f87 1abd 1daf 133c d3f8 0e3d bd3b 77bd
00000100: 0748 673d ce2b f3b9 99c4 3b3d 2a59 8abd
00000110: c6d5 31bd ebd8 2ebd e43a e0bc 196d b13b
00000120: 3110 993d 2204 623d f0f0 60bd 601b 6abd
00000130: ea49 8dbd 2ea8 0d3d fa42 9abd cb20 2c3b
00000140: dfab b13d 5259 7a3a 1dda 2abd baf8 9e3b
00000150: 1585 43bd 59b4 8f3d c653 a2bd 3811 69b9
00000160: ebc0 24bc a767 b8bc a492 403d da8e 00bd
00000170: 7476 a2bc 6683 c73d 5176 c4bc 799f 90bd
00000180: c30e 703b 720d 8f3d 0ad4 9b3d 0a42 e1bc
00000190: 1bdb 3e3c 7237 3e3d 2d5c c9bc bf5f 103d
000001a0: 3304 033d c59a 183d f32e 1e3b af26 9e3c
000001b0: 40f0 0e3d a754 a9bb 7208 8f3d 6e54 95bd
000001c0: 5346 acbd ab6b 0e3d a11d d2bc 019a 943d
000001d0: 92e5 9f3d 13c4 823d 1c89 3a3c 4e27 15bc
000001e0: 62bc 623d a91e 35bd 8181 d83c 0748 bf3d
000001f0: 1d77 1a3b 2dae ae3d 2d0d bf3c 4020 873d
00000200: 8aee a9bd 4549 9bbd 3ca1 60bc 8eae 353d
00000210: 9dab 3cbd b832 9f3c 83ef b53d e785 75bd
00000220: 0476 ef3c d7e1 8b3c a4fe 4f3d 8be5 c3bd
00000230: fccf 81bb 1b66 793d 9077 f93c 7a79 b1bc
00000240: 64d8 20bc 790a 4d3c 22dd 213d 9867 133d
00000250: b58d 513c 1e85 783c 5a58 22bd fdc9 eb3c
00000260: 8a7d 093d 1e91 813d 8b59 6fbc 9519 c9bd
00000270: b055 ad3c 1f3d fe3c e876 b13d a1bc 9cbd
00000280: 1f84 953d d3b3 03bd 697b bcbd 1fb8 ae3c
00000290: b1d8 c43d 36b9 c4bd c12c 8fbd f30b b33d
000002a0: 752f 99bd c14d 3cbd 9016 a4bc cf4f 2c3d
000002b0: 4a2e 24bd 428e a43c 69be bbbd f22b 46bc
000002c0: 0c14 393c 93fb 3ebd 56cc 21bd 56c1 a53c
000002d0: c250 b23d 08df 26bc 38d1 523d d957 5bbc
000002e0: 095d 41bd bfb1 97bc 3ba8 f8bb 20b0 8bbd
000002f0: a954 fcbb cbd2 2cbd 444f b13c 8b6f 64bd
00000300: 4d53 b63d d430 393d 97a3 1cbd 5cdc 933d
00000310: f849 e3bc cdab a3bd 37f0 a3bc a311 843d
00000320: 85a1 b43d f4fa 52bd 0f58 05bd 2fda 7cbc
00000330: 6636 a23d 43da 703d d5ab 8ebd 8d43 943d
00000340: a1e3 a43d 21a0 2c3c 2de9 a3bd b63f 5cbd
00000350: cd02 8a3c b586 a8bb e6bf ac3d 63bf 9dbc
00000360: ff9f 733d accd 3c3d e287 033d 3e43 043d
00000370: cf92 c8bc 522a 983c a2e1 533d 0874 c9bb
00000380: 7622 193d 8b74 ce3c 4b40 b83d 3f4d f93c
00000390: e7a6 8e3d 63d3 c03c 4040 82bd 18ac 913d
000003a0: 692f 91ba 73f6 f33c 480a e03c a81b b0bc
000003b0: 09a9 70bd ce23 403d 7c08 16bd 6117 4f3c
000003c0: 8afc f03c 579b 90bb bc85 8b3c becb 9ebc
000003d0: f235 8b3d 5137 a1bd 716a 5b3d a0d9 ddba
000003e0: 28b8 5ebd aa82 8e3d 9cb4 6dbc 1bfe 773d
000003f0: 1e5f 62bd 904e 7e3b db48 213d f759 053d
-0.08673314 0.027851742 0.049074825 -0.034215927 -0.0054106144 0.046983812 0.023498371 -0.03238911
0.027945418 0.0021335126 0.015067755 0.08260098 -0.033906285 0.078424156 -0.07437302 -0.023028357
0.048479516 0.049712848 -0.06459948 0.047031496 0.051769577 -0.040967856 0.061912168 0.03788024
0.006280186 0.005924139 0.02016439 0.069294035 -0.010779573 -0.07667561 0.0426603 0.040867712
0.030604122 -0.08110307 -0.08072587 -0.06382645 -0.07387208 0.06291876 -0.092458695 0.014051679
-0.070878536 0.021537894 -0.018543668 -0.0582117 0.08407093 0.076814815 0.0418843 0.0029393223
0.10043561 -0.038319793 -0.041941576 0.06757658 -0.025311342 0.0944495 0.06566585 -0.067286946
-0.043490052 0.0654603 0.07970744 0.022257525 -0.03772646 0.009013918 0.034905266 -0.060359705
0.056465175 -0.0004638121 0.045841787 -0.06755288 -0.04341676 -0.042687338 -0.027371831 0.005414617
0.074737914 0.055179723 -0.054917276 -0.057155013 -0.068988636 0.034584217 -0.07532306 0.0026264663
0.0867536 0.0009550053 -0.041711915 0.004851428 -0.04773434 0.070168205 -0.07926135 -0.00022227026
-0.010055761 -0.022510363 0.047014847 -0.031386234 -0.019831873 0.09741859 -0.023982199 -0.07061667
0.0036629892 0.06984986 0.076088026 -0.02749731 0.0116489185 0.046439596 -0.024580086 0.03524756
0.031986427 0.037256975 0.002413687 0.019305555 0.03489709 -0.005167562 0.06984033 -0.07291494
-0.08411851 0.03477065 -0.025648894 0.072559364 0.07807459 0.063850544 0.0113852285 -0.009103609
0.055355437 -0.044218693 0.02642894 0.0933991 0.0023569532 0.08529315 0.023321712 0.06597948
-0.08297451 -0.075823344 -0.013710316 0.04435592 -0.0460621 0.019433364 0.08883574 -0.059942152
0.029231079 0.017075462 0.050779954 -0.09565266 -0.0039615612 0.06088839 0.03045252 -0.02166437
-0.009817217 0.012514704 0.03951753 0.035987467 0.012790133 0.015168456 -0.03963504 0.028782839
0.03356699 0.06326507 -0.014608751 -0.098193325 0.021159023 0.031035004 0.08665258 -0.076531656
0.07300591 -0.032153916 -0.09203226 0.02132803 0.09611643 -0.09605639 -0.06990958 0.087425135
-0.07479755 -0.04597259 -0.02003029 0.0420683 -0.040083207 0.020087365 -0.09167177 -0.012095438
0.011296283 -0.04662664 -0.03950151 0.020233791 0.087068096 -0.010185011 0.051469058 -0.013387644
-0.047207866 -0.018517373 -0.007588414 -0.068207026 -0.007700522 -0.042193215 0.021644242 -0.05577044
0.08902607 0.04521258 -0.03824195 0.072197646 -0.027745232 -0.07991753 -0.020012004 0.064486764
0.0881987 -0.05150886 -0.032554682 -0.015432878 0.07920532 0.0588019 -0.06966368 0.07239447
0.08051229 0.010536225 -0.08003459 -0.053771697 0.016847039 -0.0051430115 0.08435039 -0.0192563
0.059478756 0.04609458 0.03211201 0.03229069 -0.024484066 0.018574867 0.051728852 -0.006147865
0.03738638 0.025202056 0.08996638 0.030432342 0.06965428 0.023538297 -0.06359911 0.071129024
-0.0011076751 0.029780602 0.027348652 -0.021497563 -0.058754954 0.046909146 -0.036629185 0.012639851
0.029417295 -0.004413049 0.017031543 -0.019384261 0.067973986 -0.07871879 0.053568307 -0.0016925819
-0.054374844 0.06958516 -0.014508393 0.06054507 -0.055266492 0.003880415 0.03937612 0.0325565

lstm.weight_hh_l1 f4 [512, 128]
00000000: 97ee 493b 56bc a43d d243 563d 8105 5e3d
00000010: c2bc 69bd 5d96 4abc eb15 09bd 35dd 53bd
00000020: e825 783d d0ed 9cbd 4520 123c bc64 e8bc
00000030: b239 a43d 5013 aa3d 9fb7 953c 210b 92bd
00000040: 59a2 d7bc fe98 b4bd 81c1 cbbc 69ae b93b
00000050: 4376 0ebd 31e2 6dbc 01d1 09bd 98af 14bd
00000060: d07a 613d 3cf8 e2bd e3f8 2b3d 67a2 68bd
00000070: 7944 b43c 3c7f 6f3d 0f61 06bc 5024 6fbd
00000080: 3448 243d 9761 813d 72ab 463d ac82 82bd
00000090: 26b2 22bc 788e e0bc 088f cdbd 566a 4cbd
000000a0: bfda acbd a30f 68bd 04b6 79bd 7568 4bbd
000000b0: 69b6 843d 9f29 2cbd 89c0 a4bd f6b5 2bbd
000000c0: 9b3d 18bd 02bf cfbc 2d31 013d 96f3 903c
000000d0: a8e0 513d df52 bd3d 5f82 10bd 7a1f 623d
000000e0: 89a0 b9bb 8914 983d 9834 11bc 88e4 6abd
000000f0: f04e eabc 5b1c b53d 14e3 043c ddf1 b23d
00000100: f4e9 f2bc a593 b93d 131d 863c 2b0d 593d
00000110: 1981 9ebd 31e5 9fbd 4fba f23c 137f 813d
00000120: bf28 d03a 1044 30bb 219e 2cbd 59c3 933d
00000130: b1d2 4d3d 159e c93b 0bae 3c3d 6d1d 9dbd
00000140: 0758 48bd c41b 92bd 0f14 bfbc bbd9 9f3d
00000150: 09e4 2ebd ae45 123c 6432 473d aacd 8f3d
00000160: a7f3 86bc 193f 82bd f69e c73c d951 a9bd
00000170: 016a 7f3d 146e 953d 88f9 41bd 282d 8dbd
00000180: a746 7ebd 0dcd ad3d cff3 b73d 8118 24bd
00000190: e481 813d 98a3 22bd 54fe d6bc fcf2 4ebd
000001a0: 7233 aebd 80c4 583d d3d2 303d 717b dc3d
000001b0: 8320 953d 642e db3d 7162 fb3c d881 52bd
000001c0: c0a7 90bd f351 8e3d 1530 9abc 373e c5bd
000001d0: 7350 723c 6d9a 7dbd c400 0cbc 03b0 babb
000001e0: 6844 cdbc e5fe b8bc 8a7c c43d e337 babd
000001f0: d64c f13c b2f3 d83d 846e a33d 8214 d9bd
00000200: 3d20 86bd a9cb 1cbc d8c0 e8bc 6fe1 90bc
00000210: 2c19 bebc 0008 94bd 60f6 f3bc a1dc 033d
00000220: e049 523d 11c2 a63d d403 c03d e9a7 2abd
00000230: 9b12 553d 143a c2bc 1831 b03b ffbf ab3d
00000240: 7876 0b3d 2539 a13d 4972 6d3d 8c76 5fbc
00000250: d4d7 973d e59d acbb 06da 583d a803 69bd
00000260: e88a 473c 0ced 85bd 0767 60bc 7b26 ba3d
00000270: 06c6 9c3d 67f6 6d3d 17d1 adbd 382c a3bd
00000280: 2857 aebd 0377 60bd 56b6 f33c 4d9a a43c
00000290: 8f8b ab3d 9859 4f3d 8ed1 c0bd 76d9 97bd
000002a0: e48a a73d 070f 3dbd ee1a 1bbd 5d8b dabc
000002b0: 55a8 863d dcb0 873d 4a3c 32bd bc5b 8dbc
000002c0: 91f0 083d 6e0b c83c 7e73 813d 9f83 693d
000002d0: 882c 973b 00c4 b8bc b1ea 08bc 5588 7dbd
000002e0: 9a4f df3b 2d0e 1f3d ff62 4b3d 1f28 a93d
000002f0: 76a7 a63d 626d 3c3d 8671 893d 5335 11bd
00000300: b271 2dbc 21b8 253d d304 833d dd90 38bd
00000310: 28a6 a33d 56dc 4c3d a54f 113d 4356 43bd
00000320: ecef b93d aab7 0abd e69c 17bd 51b1 9bbd
00000330: 7e63 babd 5f1f c3bc 6538 a33b 4a6d b33d
00000340: 2227 6bbd cb25 debc a5f8 253d abb1 a3bd
00000350: b944 5e3d ad42 c23c b38b 403d a34c 793d
00000360: 4b5e 47bc 57a0 9abb c46b a3b9 16b5 acbc
00000370: 951c 133d 536c 493d cdf6 933b a42d 8abd
00000380: 965b b13d 1920 103d 2e81 5ebd 1cee fd3c
00000390: 8b7c 8c3d 383b 693d 773b 84bb 8e76 273d
000003a0: cb47 8f3c 31cf 43bc 66d9 1a3d de7a 873a
000003b0: c0fa cbbd ab6f 6ebd 82b7 4dbd 7c9c 8a3d
000003c0: c71d b13d dcf3 17bd 3e05 9bbd 9180 bdbd
000003d0: 11bf abbc 0ff9 313d f128 83bd 231c 173d
000003e0: fdcb 093d 2f36 b83c a872 61bc e6a9 a6bd
000003f0: dbbf a53d 2e8b 273d ef40 9bbd 31e9 00bd
0.0030812377 0.08043735 0.052310772 0.054204468 -0.05706478 -0.012364951 -0.03346817 -0.05172463
0.060583025 -0.07662547 0.0089188265 -0.028368346 0.08018817 0.08304465 0.018276034 -0.07131029
-0.02632253 -0.088182434 -0.024872543 0.0056665433 -0.034780752 -0.01451926 -0.033646587 -0.03630027
0.055048764 -0.11082503 0.041985404 -0.056795504 0.022005307 0.05847095 -0.0082018515 -0.05838424
0.04010792 0.06317442 0.048503347 -0.0637258 -0.009930169 -0.027411684 -0.10037047 -0.049906097
-0.0844016 -0.056655537 -0.0609646 -0.049660165 0.064801045 -0.04203188 -0.08044536 -0.04192158
-0.037168127 -0.025359634 0.03154104 0.017694276 0.05123964 0.09244322 -0.03528058 0.0552058
-0.0056648892 0.07425792 -0.008862637 -0.05734685 -0.028602093 0.08843299 0.00811078 0.08737538
-0.029652573 0.09061364 0.016371286 0.052991074 -0.07739467 -0.07807387 0.029629854 0.063230656
0.0015881284 -0.0026896037 -0.04214299 0.07214994 0.05024976 0.006152878 0.046064418 -0.07671628
-0.048912074 -0.07134202 -0.023324994 0.07805201 -0.04269794 0.008927746 0.04863204 0.07021649
-0.016473604 -0.06359691 0.02436779 -0.08267564 0.062356953 0.07296386 -0.047357112 -0.068933785
-0.062079098 0.08486376 0.0898205 -0.04006243 0.06323603 -0.039706796 -0.02624432 -0.050524697
-0.08505906 0.052921772 0.043169808 0.10765732 0.07281592 0.10702208 0.030686589 -0.05139336
-0.07063246 0.06949224 -0.018821755 -0.09631007 0.014789688 -0.06191485 -0.008545104 -0.0056972518
-0.025057033 -0.02258248 0.095940664 -0.09092691 0.029455584 0.10593356 0.079800636 -0.10599615
-0.06549118 -0.009570041 -0.028412268 -0.01768562 -0.023205362 -0.072280884 -0.029780567 0.03219283
0.051339984 0.08142484 0.0937573 -0.041664038 0.052019697 -0.023709334 0.005376946 0.0838623
0.034048527 0.078722276 0.05797032 -0.013639104 0.07414213 -0.005267846 0.0529423 -0.056888252
0.012179114 -0.06539354 -0.013696439 0.09089371 0.076549575 0.058096316 -0.08487146 -0.079674184
-0.085127175 -0.054801 0.02975003 0.020093108 0.08376228 0.050622553 -0.094149694 -0.07414524
0.08180788 -0.04615691 -0.03786748 -0.026677782 0.065750755 0.0662553 -0.043514527 -0.017255656
0.033432547 0.024419513 0.063208565 0.05701029 0.004613463 -0.022554398 -0.008356736 -0.061897594
0.006814909 0.03883188 0.049654957 0.082596056 0.081374094 0.046002753 0.06711106 -0.035451245
-0.010586189 0.040458802 0.063974045 -0.045060027 0.07990676 0.050014816 0.035476346 -0.047689687
0.090789646 -0.033866562 -0.037014864 -0.0760218 -0.09101008 -0.02381867 0.004981088 0.087610796
-0.057410367 -0.02711763 0.04052033 -0.07992872 0.054264758 0.023713434 0.047008228 0.060864102
-0.012168477 -0.004718821 -0.00031170074 -0.021082442 0.03591593 0.04917557 0.004515505 -0.067469865
0.08660047 0.03518686 -0.054322414 0.030997328 0.06859692 0.05694124 -0.004035409 0.040884547
0.017490288 -0.011951254 0.037804984 0.00103363 -0.09959936 -0.058211964 -0.050223835 0.06768128
0.08648258 -0.037097797 -0.07569359 -0.09253038 -0.020965131 0.04345041 -0.06404293 0.036892068
0.033641804 0.022486774 -0.013760246 -0.08137874 0.08093234 0.040904216 -0.075807445 -0.03147239

lstm.bias_ih_l1 f4 [512]
00000000: c540 093c 71e6 1c3c d777 af3b ade8 923b
00000010: e3ac 243c 1d20 773b 6df7 ec3b 67f6 103c
00000020: 8fcf 473c 43d3 523c 9b38 333c 0663 393b
00000030: c36f b63b bb63 173b d4a7 503b 2be4 063c
00000040: dc6e 433c 4c70 bd3b 96ce 293c e0c0 623c
00000050: e3ae 603b 323c cc3b 292a e2ba 9fe2 503c
00000060: f44f 4f3b c702 663c ea21 1b3c 8ce9 273c
00000070: b2a9 8c3c 764b 8a3c 3f05 1d3c 0e1b f03b
00000080: 538c 4e3c 1af8 1b3c 826d b33b a2e8 8bb9
00000090: 1dc5 e73b 5fdd c53b e827 4a3c a89f 8d3c
000000a0: 5883 e43b 4957 f73b 9129 e73b bd1e d03a
000000b0: 9542 533c b315 f43b 6306 c33a 878c 093c
000000c0: 41cd 9c3b e690 5e3c 7744 183b c350 203c
000000d0: 3f3d c63b 559a 0d3c c739 883b 56e0 a93b
000000e0: e9a3 213c 139f 4f3c 8e7b a73b bf87 e23b
000000f0: c3fb 153c 8cda 273b 1a78 213c e5ae a23b
00000100: 88dd e33b a2a8 443c 1c95 483c 1e5f 513c
00000110: 149b b43b 03b4 dfb9 c2ee 2b3c 4d96 043c
00000120: 2d4e 603a b5f0 253c c486 2c3c 25f8 42bb
00000130: fae2 643c 2de2 183c 122a 703b 886c dcba
00000140: cf47 0c3c 9245 4c3b 7482 ab3b fb66 0f3c
00000150: cb8c 253c c028 ff3b 1011 493b 980b 143c
00000160: 74c5 da3b 0f34 6b3b 8290 913b 0bc9 073c
00000170: d7ab c03a 14e6 a03a 4dbb a93b 7aab c2bb
00000180: 15f8 313c a543 043b 9a64 ce3b 824b 033c
00000190: 1fe1 c73b f8e4 513c c497 fa3b 7e23 5639
000001a0: aea0 463c bfed 9b3b 6d75 503c 564d 053c
000001b0: d68c 363b 0caf 7f3c 911e 76b9 826e 3d3c
000001c0: e971 7d3b ea6c 073b 4dde ae3b a009 a83b
000001d0: 833a 56bb 2602 5e3c 6613 b53b 0bcc bd3b
000001e0: 6c84 f73b e942 9e3b be34 b33b d385 16ba
000001f0: 9a7c 043b 3fce 513c 7296 1d3c 2379 453a
00000200: 6d56 073c d76b ca3b 47f9 4dbb 35bb bbbb
00000210: 20ae 043c 6870 193b 55b6 1a3b 579c 2f3b
00000220: 71f2 d839 d320 473b 89de fc3b f352 71ba
00000230: 0589 6a3b 8484 233b d4d4 cbba 8954 0ebb
00000240: abe0 8c3b d510 c2b9 faa0 3abb 7b44 583b
00000250: 09d3 113b 6dd8 233b b846 04bb b73e 3ebb
00000260: e1c9 a53a e4e4 833a 0a77 5e3b 0264 333b
00000270: 5922 e8ba dd5f 9139 44b5 103b 69d5 c83b
00000280: 3fa5 6dbb 156c 523b eb28 003c 578e 6cba
00000290: d21a fdbb f598 4d3b b879 853b 2d63 843b
000002a0: c410 a63b 84bc f8b8 3ac7 933b 518f 15bb
000002b0: dd2f bc3b f8f5 003c 12b5 a6ba e08b d83a
000002c0: 194e 013a d7a5 adbb 0f62 90bb d0bb 253b
000002d0: c8d1 8b3b 2598 e73a 3c3a 053b bd91 0e3a
000002e0: e775 4c39 6b52 8b3a 87c0 253b 7aa4 4fba
000002f0: b376 ad3b 12ae a8ba 322a 4bbb d687 d63a
00000300: 9f0e 253b 83be 1c3c 1d64 14bc 75e6 eb3b
00000310: 8a50 7cbb 423c 0cba a83b 213c 7873 c53b
00000320: d8a1 b0ba 60af 993b 79d5 f9b8 a5d4 2dbb
00000330: 4657 a6ba 6066 093c 6e12 c23a 1f8c c5ba
00000340: 56dc 89ba bc92 e3ba d214 493b 42d6 05b9
00000350: 497d 84ba 234f 203a 7170 7bba 3972 0fb9
00000360: 88bc 963b 8e4b 9a3a e4ea fe3a c36f 27bb
00000370: 6128 313a 29ff cb3a 8fd2 caba 2106 d8bb
00000380: 9926 e73b d882 6eba 1946 383b e479 6e3b
00000390: f798 993b c330 3d3c 5f99 71ba 836f aaba
000003a0: 8f37 f63b 15b2 413b 14b2 cbbb 64c1 943b
000003b0: 06e9 a63a 3f19 193c 764f 8cb9 af44 f23b
000003c0: b1f2 063a ed48 a4ba e8ca 123b 6684 0f3a
000003d0: e887 1cbc 60e8 393c 7e31 2e3b 9e1d 5c3b
000003e0: c08f 233b 0d8b aa3a ec06 e3bb 9d5e 9dba
000003f0: 1ca2 d6ba bf78 0d3c 91d7 033c b3b9 acb7
0.008377259 0.009576426 0.005354862 0.0044833035 0.010050985 0.003770835 0.007231644 0.008847809
0.012195482 0.0128677515 0.010938789 0.0028287782 0.0055675223 0.0023100215 0.0031838315 0.00823311
0.011928286 0.005781209 0.010364195 0.01383993 0.0034283928 0.006232762 -0.0017254996 0.012749343
0.003163335 0.014038748 0.009468535 0.010248553 0.01717076 0.016881686 0.00958377 0.007327444
0.012606698 0.009519601 0.005475701 -0.0002668547 0.0070730583 0.0060383524 0.012338616 0.017288044
0.006973665 0.007548247 0.0070545156 0.0015878301 0.012894292 0.007448876 0.0014879223 0.008395321
0.0047852104 0.013584351 0.0023234168 0.00978488 0.0060497816 0.008642753 0.004157278 0.0051842136
0.009865739 0.012672204 0.0051111644 0.006913155 0.009154263 0.0025612442 0.009855295 0.0049646967
0.006953899 0.012003096 0.012242582 0.012779025 0.005511651 -0.00042667994 0.010493936 0.008092475
0.0008556571 0.01012819 0.0105301775 -0.0029749956 0.013970131 0.009331268 0.003664617 -0.0016817013
0.008562042 0.0031169397 0.005234057 0.00875258 0.010104368 0.00778684 0.0030680336 0.009035967
0.0066763703 0.0035889184 0.0044422755 0.0082876785 0.001469965 0.00122756 0.0051797987 -0.0059408518
0.01086237 0.002018192 0.0062986137 0.008013608 0.0060998346 0.012810938 0.0076474864 0.00020421852
0.01212327 0.004758566 0.012723309 0.008136114 0.002785494 0.015605699 -0.00023471775 0.011561992
0.0038672632 0.0020664283 0.005336559 0.0051281005 -0.0032688684 0.013550317 0.005525994 0.005792146
0.0075536277 0.0048297537 0.005468934 -0.0005741987 0.002021587 0.012805521 0.0096183885 0.00075330044
0.008260352 0.0061774063 -0.0031429098 -0.005729104 0.008098155 0.0023412947 0.0023607214 0.0026796067
0.00041379363 0.0030384555 0.007716958 -0.0009205781 0.0035787236 0.0024950812 -0.0015551099 -0.0021717867
0.0042992434 -0.00037015104 -0.0028477297 0.0032999802 0.002225103 0.0025000826 -0.0020183753 -0.002902908
0.0012648666 0.0010062722 0.0033945465 0.0027372842 -0.0017710432 0.0002772798 0.00220807 0.006128956
-0.0036261824 0.003210788 0.007822256 -0.0009023896 -0.0077241445 0.0031371687 0.004073348 0.004040143
0.0050679166 -0.00011860675 0.0045098336 -0.002282102 0.0057430104 0.0078711435 -0.0012718758 0.0016521178
0.0004932597 -0.0052993107 -0.0044062207 0.0025288947 0.0042669512 0.0017669244 0.00203289 0.0005438587
0.00019498878 0.0010629421 0.0025291757 -0.0007920932 0.005293691 -0.001286926 -0.0031000492 0.0016367387
0.0025185717 0.009566906 -0.009057072 0.0071991035 -0.0038500153 -0.0005349555 0.009840883 0.006025728
-0.0013475968 0.004690096 -0.000119130076 -0.002652445 -0.0012690804 0.0083862245 0.0014806518 -0.0015071667
-0.0010517936 -0.0017362456 0.0030682576 -0.00012763686 -0.0010108139 0.0006115308 -0.0009591645 -0.00013680094
0.0046001114 0.0011771785 0.0019448665 -0.0025548793 0.0006758031 0.0015563715 -0.0015474128 -0.0065925275
0.0070541617 -0.0009098477 0.0028117953 0.003638857 0.0046874243 0.01154727 -0.00092162745 -0.0013003204
0.0075139473 0.0029555608 -0.006216297 0.0045396555 0.0012734241 0.009344398 -0.00026762084 0.0073934416
0.0005147858 -0.0012533941 0.0022398774 0.0005474746 -0.009553887 0.011346906 0.0026579793 0.003358699
0.0024957508 0.0013011411 -0.0069283154 -0.0012006346 -0.0016375217 0.008634745 0.0080470005 -2.059047e-05
