models/2inst/checkpoint/AMDGTCX.pth (torch, 875332 bytes, 12 tensors)

lstm.weight_ih_l0 f4 [512, 5]
000000 7e 12 bd bc f2 08 e2 3d d2 61 00 bd 24 26 f8 3c
       -0.023080107 0.110368624 -0.03134329 0.030291624
000010 19 53 83 bd 1b ce 2c 3d 78 29 53 bd 07 eb f1 3c
       -0.06412334 0.042188745 -0.05155322 0.029531015
000020 4e 64 29 bd c3 13 91 bd 93 48 74 bd d2 1f 56 3c
       -0.041355424 -0.070838474 -0.059639525 0.01306911
000030 5b 9e 3d 3c 00 53 94 bd b8 05 ec 3c ec 35 ac 3d
       0.011573399 -0.072423935 0.02881132 0.08408722
000040 5f 78 96 bd ec 1c 8b bc 79 f5 d9 bd f3 94 a4 3c
       -0.07347178 -0.016981564 -0.10642523 0.020090556
000050 20 cc 2a 3d e2 7e 39 3d c5 02 56 3c c2 51 bb 3c
       0.041698575 0.04528702 0.013062184 0.022866134
000060 84 ae 36 3d 1d de b1 3d 62 2c db 3d 0d e2 c8 bd
       0.044600025 0.08684943 0.10701825 -0.09808741
000070 8e 75 9a bd 00 e4 a9 3d 01 e1 4e 3d ff 09 8c 3d
       -0.07541953 0.08295441 0.05050755 0.06837844
000080 a5 f2 95 3d da a5 a4 bc 89 43 91 bd 82 5a 2f bd
       0.073216714 -0.020098615 -0.070929594 -0.042810924
000090 09 60 3e 3b 4f bc c5 bc a3 9b 85 bc 33 c5 03 3c
       0.002904894 -0.024137644 -0.016309565 0.008042621
0000a0 fe c5 b3 bd 4c 81 7c 3c 21 c9 a3 bc 62 f1 a6 bc
       -0.087779984 0.015411686 -0.019993367 -0.020378772
0000b0 f9 d9 df 3c 3c be ad 3d 56 97 bd bd 22 b0 9c bd
       0.027325617 0.0848355 -0.09257381 -0.07650782
0000c0 18 d1 96 ba 39 09 a1 bc 02 e8 c9 3d 63 0c 8a 3c
       -0.0011506407 -0.019657718 0.09858705 0.01685161
0000d0 88 4c 92 3d b2 4d bd bc 02 ad dd bc e1 d1 bb bd
       0.071435034 -0.023108337 -0.027060036 -0.091708906
0000e0 df 9e 81 3d b6 31 b8 3d 4e 9f 5f 3d 5b 66 a4 3d
       0.063291304 0.089938566 0.054595284 0.08027335
0000f0 0e 90 8d 3d 96 a2 57 3c d2 f0 a9 bd 49 71 41 3d
       0.06912242 0.013161322 -0.08297886 0.047227178
000100 41 b0 a6 3d 14 f0 bc bd 9d af ce 3d 73 51 c8 bd
       0.081390865 -0.09225479 0.10092089 -0.0978116
000110 fd 16 8b 3c aa c4 40 bd b3 b5 e7 3b f9 89 c7 bd
       0.016978735 -0.047062553 0.007071221 -0.09743113
000120 86 08 b6 3d 75 30 12 bd dc 3c 6e bb 40 66 70 3d
       0.088883445 -0.035690743 -0.0036352193 0.058691263
000130 e8 0d 86 bd b6 c7 3a bd 95 4d 9f bd da 09 b0 bd
       -0.06545621 -0.045600615 -0.077784695 -0.08595629
000140 79 28 a3 bd 38 f4 1e bc fb 0a cd 3c 38 63 69 bd
       -0.07966704 -0.009701781 0.02502965 -0.056979388
000150 b7 9b 9b bd 19 fd 5b 3d 73 f3 37 3d 68 4a 5a 3d
       -0.075980596 0.05370817 0.044909906 0.053293616
000160 ec 81 9e 3d e4 f1 94 bc a1 f9 b1 bd 39 7f 9a bd
       0.077396244 -0.018181749 -0.08690191 -0.07543797
000170 2f 9a 6c 3c 6c 3e 0e 3c b5 ad b7 3d 7d fe bc bd
       0.014441057 0.008681875 0.08968679 -0.09228227
000180 d1 2e d8 3c a1 f0 58 3c 57 7f cf 3d 1d 6d b9 bd
       0.026389511 0.013240964 0.1013171 -0.09054015
000190 ad 23 ac 3d 04 08 e0 3d 7b 9a 86 bd c9 67 36 ba
       0.08405242 0.10939029 -0.065724336 -0.0006958214
0001a0 1c a3 fd bc 1c bd 1c bd ff b2 06 bd 9a 8b d0 bd
       -0.030961566 -0.038266286 -0.032885548 -0.10182877
0001b0 1f f7 ab bd 5e 7d 80 bd bf 1e 9e bd 99 e6 f4 3d
       -0.08396744 -0.06273912 -0.07720708 0.119580455
0001c0 38 e8 4d 3c a6 a7 af 3d 9f 9e 8b 3d 67 cb a6 3d
       0.012567572 0.08576898 0.06817364 0.08144265
0001d0 3f f4 3e 3d ec 78 d0 bd 89 1f 29 bd 95 f6 38 3d
       0.04661965 -0.10179314 -0.04128984 0.045157034
0001e0 1a 89 5c 3c 15 1a fb 3b d7 ea 1e 3b e3 49 fc 3c
       0.013460422 0.0076630213 0.0024248862 0.03079695
0001f0 39 32 a5 bd 0b 44 cd bb 6f 7f 19 bd 11 f9 b1 bd
       -0.0806622 -0.006264215 -0.037475046 -0.08690084
000200 d5 25 10 3b 26 fa 7c 3d f0 72 3a 3d b3 1e 03 3c
       0.0021995206 0.061761998 0.04551977 0.008002925
000210 32 66 e7 3b 99 f0 aa 3d 4d 97 df bd 9c 22 cb 3d
       0.007061743 0.083466716 -0.1091753 0.099187106
000220 97 28 cc bc fd c8 a3 3d a5 64 41 bd 66 6d a5 bd
       -0.024921698 0.0799732 -0.047215123 -0.08077507
000230 fd a6 60 bd 29 f0 09 bc e4 20 69 bd 2f b3 c9 3d
       -0.054846752 -0.008419075 -0.056916133 0.0984863
000240 38 dd aa bb 11 67 b4 bd 9d d6 9b 3d 2c 4a 0d bd
       -0.0052143596 -0.08808721 0.076092936 -0.034494564
000250 6f da 0c 3d 31 d7 8c 3d de ea 47 bd 83 9b 90 bd
       0.034388002 0.06876982 -0.04880797 -0.070609115
000260 a0 19 76 bd 18 61 72 bd ac 8f c6 bc 4e af 9e bd
       -0.06008303 -0.059174627 -0.02423843 -0.077482805
000270 a0 99 a6 3d f5 2a 31 3d 9d 8d 30 bd d7 de 62 bd
       0.081347704 0.043253858 -0.043103803 -0.055388298
000280 33 c7 ad 3d 8e 4b bd bc f1 49 16 3d df 40 15 3d
       0.0848526 -0.023107316 0.03669161 0.03643882
000290 ac d4 2f bd cb 93 4c bd 98 4b 24 3d 19 18 a9 3d
       -0.04292743 -0.049945634 0.040111154 0.082565494
0002a0 c4 c3 85 bd 2a 9e ae 3d b0 e9 a8 3c 31 62 71 3d
       -0.0653148 0.08526261 0.020619243 0.058931533
0002b0 8b 02 73 3d 6c 43 d8 bd 4b 36 25 bd 26 2a 03 3e
       0.059328597 -0.10559735 -0.04033498 0.12809047
0002c0 34 72 07 3d 11 01 84 bd 19 87 86 bd 41 84 ea 3d
       0.033067897 -0.06445516 -0.065687366 0.11451007
0002d0 d7 80 4f bd b2 da a9 3d d4 4d a1 3c 35 19 59 3d
       -0.05065998 0.08293666 0.019690432 0.053002555
0002e0 e5 6b 82 bd 12 f6 22 bd 1a e1 c7 bd 3f f9 1c 3d
       -0.063682355 -0.039785452 -0.097597316 0.038323637
0002f0 7d 73 64 bd b0 78 85 3c 04 6b 52 bd 69 d5 e1 3d
       -0.0557742 0.0162929 -0.05137159 0.11027033
000300 6f 7a f8 bc fc 2e 7d 3d 7c 85 84 3d 57 40 98 3d
       -0.030331818 0.061812386 0.064707726 0.07434147
000310 46 3e c0 3c 04 73 8e 3d 7f 14 4e bb fc 43 b1 3d
       0.023467194 0.06955531 -0.0031445322 0.08655545
000320 b4 8e 29 bd 8a 91 ba 3d d2 ff 91 bd fb 07 b4 bc
       -0.041395858 0.091097906 -0.07128872 -0.021976462
000330 c5 60 f1 3c c9 1c bb bb 5c 24 89 bc 5f 14 9d bb
       0.029465089 -0.0057102186 -0.01674097 -0.004793688
000340 2a 4f b5 bc 17 d5 ba 3d b9 ed 4f 3d 96 37 de 3d
       -0.022132475 0.09122675 0.05076382 0.10850446
000350 75 fb a3 3d 8e 1f 56 bc 13 1d d3 bd df df aa 3c
       0.08006946 -0.013069047 -0.1030828 0.020858703
000360 a7 8c a6 bd b5 c2 42 3d de f0 56 3d 2f 72 56 bc
       -0.08132296 0.04754897 0.052475803 -0.013088747
000370 60 5c cd 3c 01 c2 8b bc 79 84 cc 3d 4e 5e d5 3c
       0.025068462 -0.017060282 0.09986205 0.026045945
000380 6c 87 5d bd 1f 94 ba bd 6f fc dc 3d 49 29 91 bd
       -0.054084226 -0.09110283 0.107903354 -0.07087953
000390 45 20 04 bd ab 41 b9 bc d5 06 7f bd 02 20 dc 3c
       -0.032257337 -0.02261432 -0.062262375 0.026870731
0003a0 34 bc 91 3b 56 58 c5 bd 19 a7 c7 3a 10 22 b2 bd
       0.0044474844 -0.09635989 0.0015232294 -0.08697903
0003b0 d3 16 6b bc 86 9f 5f bd 0c 82 89 39 a1 dc f5 bc
       -0.014348703 -0.054595493 0.0002622757 -0.03001243
0003c0 a0 f4 f5 3d 16 e6 76 bd b5 b5 5e bd 36 5b 47 3d
       0.12009549 -0.06027802 -0.054372508 0.04867097
0003d0 ef 85 cc 3d 02 39 ce 3d 82 4f a2 bd 84 78 2b bd
       0.09986483 0.10069467 -0.07925321 -0.04186298
0003e0 08 60 af 3d 28 42 ac bd 7f aa 94 bd 21 07 83 bd
       0.085632384 -0.08411056 -0.07259082 -0.06397844
0003f0 df ec 8a bd 29 fd bf 3d 05 3c 30 3d 58 e3 ab 3d
       -0.06783461 0.09374458 0.04302599 0.08392972

lstm.weight_hh_l0 f4 [512, 128]
000000 e5 5d bf 3d de d6 87 3d a0 63 66 bd 6d c7 1b bd
       0.09344081 0.066327795 -0.056247354 -0.038031984
000010 d0 9a 97 3d 9c 08 04 bd 6d 96 90 bd f0 a4 6f 3d
       0.07402575 -0.032234773 -0.070599414 0.058506906
000020 b7 ea 3c 3d 9f c7 6d 3d ef cd 17 bd 3b 2b cd 3d
       0.04612228 0.0580517 -0.037061628 0.10018011
000030 f2 90 c9 bd cb 91 b8 bd cf 20 31 3d a5 51 25 bd
       -0.09842099 -0.09012183 0.04324418 -0.040361065
000040 93 8a 80 bd b1 c7 72 3d c1 f3 70 bd b0 e3 8e ba
       -0.06276431 0.05927247 -0.05882621 -0.0010901596
000050 63 ea 9e bd 4d cc 81 bc 9e c9 64 3d 7b 39 27 bc
       -0.077595495 -0.015844489 0.05585634 -0.0102065755
000060 00 6b 04 bd 95 d7 bb bd 47 2f 18 bc 12 93 37 3d
       -0.032328606 -0.091719784 -0.009288616 0.04481799
000070 66 0e aa bd bb 12 b4 3d b5 51 82 3d 04 ae b2 bc
       -0.083035275 0.08792635 0.06363241 -0.021811493
000080 56 be 9e bc 3f 7f 9f 3d d9 73 d2 3b 2d 40 a4 bd
       -0.019377869 0.07787942 0.0064225015 -0.08020053
000090 3a f0 8e 3d ec 65 39 bd 5b f5 16 bd 62 db 23 3d
       0.06979413 -0.045263216 -0.036855083 0.04000414
0000a0 26 83 e1 bc b6 b0 a2 bd 55 b7 96 bd 28 24 dc 3b
       -0.027528357 -0.07943861 -0.073591866 0.0067181773
0000b0 ee be 9b bd 55 6f b9 bc 90 7c 93 3c f1 c8 80 3d
       -0.07604776 -0.022636095 0.018003732 0.062883265
0000c0 dc e5 29 3d bb d0 14 bb 23 a6 ed 3c 32 43 d1 bc
       0.041478977 -0.002270742 0.029009884 -0.025544737
0000d0 80 97 17 3d d0 c0 71 bd 23 77 c2 bd b4 80 cf bd
       0.037009716 -0.05902177 -0.0949538 -0.1013197
0000e0 25 db 84 3a 83 3e bf 3c eb 84 13 bd 1c c6 9e 3d
       0.0010136111 0.023345238 -0.036015432 0.0775263
0000f0 a1 f3 0f bc cf 9d c6 bd ed 89 b3 bc f7 ea 40 3d
       -0.008786113 -0.09698068 -0.021916354 0.04709908
000100 80 a6 25 3d 4e 65 c7 bd 07 e4 a6 3d 85 33 1d 3c
       0.04044199 -0.09736119 0.081489615 0.009594803
000110 49 7d 7d bd aa a0 13 bd 5e 2d b1 bd a6 e8 77 bd
       -0.06188706 -0.036041893 -0.08651231 -0.060524605
000120 9a 89 66 3b d2 3e 36 bc bc e8 8b 3c 9a 27 7d bc
       0.0035177232 -0.011123376 0.01707875 -0.015451336
000130 84 77 35 bd 75 a9 ec 3c 7e c8 91 3d 52 97 04 bd
       -0.044303432 0.028889397 0.07118319 -0.032370873
000140 1d 99 6d bd 6a ad 55 3c 59 8b 99 3d d1 13 b8 3d
       -0.05800735 0.013041833 0.074972816 0.08988155
000150 29 3f ab bb dd b7 39 bd 8e fb ba bd 96 fa 5f 3d
       -0.005226035 -0.04534136 -0.091300115 0.054682337
000160 70 5d 28 3d 8c 6e c5 bc 1f 1b ca bd 52 ec 54 3d
       0.041104734 -0.024100564 -0.09868454 0.051983185
000170 37 c1 53 bc e5 47 c0 bd 86 3a c4 3d 99 59 b0 3d
       -0.012924484 -0.09388713 0.09581475 0.086108394
000180 48 7a 9e 3d a0 8c c5 bd ec d4 11 3d 78 d5 7f bd
       0.07738167 -0.09645963 0.03560345 -0.06245944
000190 a1 98 a5 3d 3b 86 31 3d 65 8c 89 bb bf 3a 8c 3d
       0.08085752 0.043340903 -0.0041976445 0.068471424
0001a0 77 08 9c bd 42 85 81 bc be 3e 6c bc 60 a4 b0 bd
       -0.07618802 -0.015810613 -0.014419256 -0.08625102
0001b0 7d 50 0c 3d 07 4e 87 3d 02 48 51 3d 3b d1 98 3d
       0.034256447 0.066066794 0.051094063 0.074617825
0001c0 e9 55 64 3d aa 88 46 3d 52 ec b2 bd 6e 06 6f 3d
       0.055745993 0.048470177 -0.08736481 0.05835574
0001d0 44 13 63 bd 26 22 aa 3a 17 ff 7a bd 13 50 ab 3d
       -0.055438295 0.0012980148 -0.06127843 0.08364882
0001e0 39 68 ef bb 71 94 a5 bd b5 15 b3 bd e8 17 92 bd
       -0.0073061255 -0.080849536 -0.08744375 -0.07133466
0001f0 37 01 cc bd c1 35 c8 3d 5b b3 00 3d f4 4a 27 3d
       -0.09961169 0.09775878 0.031421047 0.040842965
000200 4d f2 8f bc db f1 9c bd b2 3f 2d bc fe ed 8a 3c
       -0.017571593 -0.07663318 -0.010574268 0.016959187
000210 65 fb 4b bb 24 0b 1d 3d 78 24 87 bd 4a 43 63 bd
       -0.0031125185 0.038340703 -0.06598753 -0.055484094
000220 89 9c a8 bc 9e 3c fb bc 38 78 8e bd 30 22 8e 3d
       -0.020582454 -0.030668553 -0.06956524 0.069401145
000230 4c 83 c7 3d b6 bf 78 3c 94 81 9c bc e2 cd 9f 3d
       0.0974184 0.015182426 -0.019104756 0.07802941
000240 31 0f ae 3d 3a 4a 90 bd 62 7b a2 3c d7 4c 06 3d
       0.08498991 -0.070454076 0.019834224 0.032788124
000250 07 45 5e 3d e5 9e 3c bd 10 b4 01 b9 9c ba d2 3c
       0.05426505 -0.04604997 -0.00012369477 0.025723748
000260 63 bc 83 bc 5f 5e ba 3d da ef a5 3d ef dd 55 3d
       -0.01608104 0.09100031 0.08102389 0.052213605
000270 69 05 e2 bc 30 01 0e 3d a7 ad 25 bc 05 d0 70 bd
       -0.02759047 0.0346691 -0.010112203 -0.058792133
000280 3f c5 95 bd 98 be 0e 3c c9 d7 5e 3d d7 35 82 3c
       -0.07313012 0.008712433 0.054405008 0.015894813
000290 6e 1a 54 3c d5 94 10 bd be 1e 6a 3d bd 75 7c bd
       0.012945754 -0.035298187 0.057158224 -0.06163572
0002a0 8c 95 cd 3d fa 87 9b 3d d3 64 1c 3d ad b9 ed 3b
       0.100382894 0.07594295 0.03818209 0.0072548003
0002b0 7c 27 20 bd 5f 4e 2d bd 76 6d 91 bd a3 31 a2 3d
       -0.039100155 -0.04231107 -0.07100956 0.07919624
0002c0 e7 3d 5c 3d 58 e2 f0 bb d0 8a 17 3d 53 9b 8a 3d
       0.053769972 -0.007351201 0.036997616 0.06767907
0002d0 71 62 1d bd 34 42 85 3c 4b da 8e bd 4a b5 22 3d
       -0.03842396 0.01626692 -0.0697523 0.039723672
0002e0 b5 1e 52 3d 65 5b c2 bc 7d 75 c1 3c e4 35 8b 3d
       0.051298816 -0.023725221 0.023615593 0.06797388
0002f0 98 d9 96 3d 45 f4 9c 3c 13 4d 87 bd a8 12 04 3b
       0.073657215 0.019159446 -0.066064976 0.0020152722
000300 ea 49 fe 3c 5b 2d 0a 3d 34 54 7d 3c 5a 13 bf bd
       0.031041104 0.03373466 0.01546197 -0.09329863
000310 32 d9 89 bd 0a 89 c8 3d 66 a2 53 3d 21 d6 ea bc
       -0.0673088 0.09791763 0.051668547 -0.028666558
000320 1a 57 0b bd 7d c0 b3 bb 50 1f 37 bd 7e 12 49 bd
       -0.034018613 -0.005485593 -0.044707596 -0.0490899
000330 a8 41 29 3d 08 81 54 bd f7 91 a6 bd d4 e9 02 bc
       0.04132238 -0.051880866 -0.08133309 -0.007990319
000340 13 ef de 3c 7b 53 ac bd 48 66 b2 bd ec 2b 2b bd
       0.027213609 -0.0841436 -0.08710915 -0.041789934
000350 14 ae a4 3d 23 36 96 bd 92 54 8c 3d cf 59 a3 bd
       0.08041015 -0.073345445 0.06852068 -0.07976114
000360 83 67 ad 3d e1 3f 14 3d 53 bc b5 bd 67 a2 85 3b
       0.08467009 0.036193732 -0.088738106 0.0040781978
000370 bb f4 8e 3d 7d 0d b9 3c a3 6d 37 3d ec 8b b0 3d
       0.069802724 0.02258944 0.044782292 0.08620438
000380 30 8c 56 bd 1d af 64 bc 57 50 be bb aa 9c 29 ba
       -0.052379787 -0.013957766 -0.005807917 -0.0006470183
000390 38 f2 a7 3d f3 ba ab 3d 14 a3 1f bd 8c 8a c8 3d
       0.082004964 0.08385267 -0.038973883 0.09792051
0003a0 8d 42 e8 3c 03 8c 96 bd 81 57 3f bc 10 b6 71 bd
       0.028352046 -0.07350924 -0.011678577 -0.05901152
0003b0 e5 55 7a bd 22 7d ba 3d c6 b4 c8 bd 65 e0 18 bd
       -0.06111707 0.091058984 -0.09800105 -0.037323374
0003c0 89 63 ad 3d 15 58 4b 3d f8 6f c7 3d 17 2e 57 3d
       0.084662504 0.04964455 0.09738153 0.05253419
0003d0 1b b1 a6 bd bd 3d dd 3b d8 47 92 bd c5 e8 ad bd
       -0.08139249 0.0067517445 -0.07142609 -0.08491663
0003e0 67 0b 20 bd 8e 6a 70 3d 14 57 1f bd 21 0f 69 3b
       -0.039073374 0.05869537 -0.038901404 0.0035561996
0003f0 16 6c 80 bd 08 f2 ae bd 4c 0f 1b 3b 68 42 e6 bc
       -0.06270616 -0.085422575 0.002366024 -0.028107837

lstm.bias_ih_l0 f4 [512]
000000 f1 61 5c 3c 1b da d6 3b 23 56 4b 3c 2c b1 a8 3a
       0.013451085 0.006556762 0.012410673 0.0012870184
000010 ff e5 9d 3c a7 6e 7d 3c b3 2c a6 3b ce 0a 1b 3c
       0.01927471 0.015468276 0.0050712465 0.009463025
000020 63 f3 2e 3c 9c 70 81 3b aa 70 7e 3b 33 27 8b 3c
       0.010678145 0.0039501917 0.0038824477 0.016986465
000030 d2 4e 00 bc 8a b6 3f 3c 8f e3 62 3b a0 39 77 3b
       -0.007831292 0.011701236 0.0034620499 0.0037723556
000040 8f f1 86 3c 15 8f 83 3c 57 14 ab 3b f2 f5 63 3b
       0.016472606 0.016059438 0.0052209306 0.0034784046
000050 c2 ba 06 3c 95 e2 33 3b 42 62 52 3c ef 25 3b 3c
       0.0082232375 0.0027448286 0.012840809 0.011422618
000060 9e 22 01 ba 54 36 b9 3b cd 67 f7 ba 0a 04 ab 3c
       -0.0004926118 0.0056522284 -0.001887554 0.02087595
000070 de cf 41 3c bf fb 16 3b 28 0d 1c 3c 02 d9 32 3c
       0.011829345 0.0023038236 0.009524621 0.0109159965
000080 d8 c2 21 3b c6 96 1b 3c 6c 23 57 3c 43 d4 6b 3c
       0.0024682786 0.009496396 0.013131004 0.014393869
000090 cb b5 bf bb d9 8c df 3b 3e ce 1c 3c 8d 7c ea 3b
       -0.005850529 0.0068222103 0.009570656 0.007155961
0000a0 7d 87 75 3c 9c 98 19 3c 1c 50 fa 3b fb 44 78 bb
       0.014985916 0.009374764 0.0076389443 -0.0037882912
0000b0 7b 6a 0b 3a 01 b6 4e 3c 7c b3 ec 3b 10 a1 fe 3b
       0.0005318296 0.012616635 0.0072235446 0.007770665
0000c0 c6 63 a9 3c 8a fb 54 3b 8e 2b 3b 3c d7 fa 3c 39
       0.020677458 0.0032498562 0.011423958 0.00018022522
0000d0 7b e0 85 3c 66 d1 72 3a 61 a1 3e 3c 44 21 0d 3c
       0.016342392 0.000926277 0.011635155 0.008613888
0000e0 92 68 56 3c 13 56 80 3b 8e 23 20 3c 6a 8a 44 3c
       0.013086455 0.003916511 0.009774102 0.011995891
0000f0 81 cb 55 3b 33 a8 b0 3b 19 2f 5d 3c 4d c2 96 3c
       0.0032622518 0.0053911447 0.0134999985 0.018403197
000100 8e fd 85 3b 77 ed 1c 3c e9 57 8c 3b ab 85 36 3c
       0.004089064 0.0095781 0.0042829406 0.011140267
000110 6e 4f 15 3c 96 53 14 3c b3 f0 8f 3c 1c 9a 8b ba
       0.009113176 0.009053132 0.017570829 -0.0010650787
000120 77 fd a0 3b a0 b7 79 3c 63 df 2c 3c c4 23 19 3c
       0.004913028 0.0152415335 0.010551306 0.009346906
000130 27 4d 9f 39 2c 3c 87 3c a2 90 fe 3a 87 89 41 3c
       0.00030384326 0.016508184 0.0019421766 0.011812574
000140 cb 6a 7a 3c ab 4a ff 3b 1f 6d 8e 3c a4 a1 56 ba
       0.0152842505 0.0077908835 0.017386017 -0.00081875385
000150 9e f4 c4 3b 35 ac 02 3c 18 09 f7 3b 7d f0 8a 3b
       0.006010606 0.007975628 0.007538926 0.004240094
000160 dd 12 32 3b fd 94 a8 3b 43 53 8c 3c 7f 9e 5d 3b
       0.0027171888 0.005144714 0.017129546 0.0033816395
000170 e8 f0 0d 3c a2 5f 8c 3a d8 10 6a 39 ff 35 25 3c
       0.008663394 0.0010709653 0.00022322254 0.010083674
000180 e6 10 48 3b a3 49 b7 3a c2 31 9e 3b 2f 83 6e 3c
       0.003052765 0.0013983737 0.004827709 0.014557644
000190 d4 b7 6f 3c 68 75 03 3c e4 f1 32 3c 39 61 8b 3c
       0.01463123 0.008023597 0.010921929 0.017014133
0001a0 8e dd 37 3c 15 31 58 3b fd 42 a7 3b f2 5a 4f 3b
       0.011222256 0.003298824 0.005104421 0.00316399
0001b0 ab 20 53 3c 28 e3 4c 3c c1 d2 70 3b 94 4c 5f 3c
       0.012886207 0.01250533 0.0036746713 0.0136290975
0001c0 0d 79 14 3c 09 51 10 3c e9 3f 3e 3c fb fb 5e 3c
       0.009062064 0.008808383 0.011611917 0.0136098815
0001d0 7a 9d 49 3b d9 f2 3e 3c 80 64 09 3c a4 5a fc 3b
       0.003076403 0.011654579 0.0083857775 0.007701235
0001e0 27 73 98 3c 6c 22 0e 3c 00 63 3b 3c bf 9e 1b 3c
       0.018609596 0.008675199 0.011437178 0.009498297
0001f0 52 bd 92 3c b6 f1 47 3c 27 83 43 3c 2b cc 5b 3c
       0.01791254 0.0122036245 0.011933125 0.013415377
000200 3a 68 5c bb 30 f0 4a 3b 3b 93 ee 3a df 75 49 b9
       -0.003363146 0.0030965917 0.0018201837 -0.00019212764
000210 1d 6d e7 3b e0 5d b0 3b 2a 09 3f 3a c0 29 1b 3c
       0.007062568 0.0053822845 0.00072874373 0.009470403
000220 f3 2e c5 3b 35 11 e3 ba 75 41 5d 3a cf d6 3c 3c
       0.0060175597 -0.0017323854 0.0008440235 0.011525824
000230 a9 1c 34 3b 67 21 d4 3b 2f 92 46 3b 1b ae 24 38
       0.0027482903 0.0064737084 0.0030299535 3.9262795e-05
000240 13 7f 55 3c 98 cb 0f 3c 03 a9 0d ba 94 9a 4e 3c
       0.013030785 0.008776568 -0.0005403908 0.0126100965
000250 a3 a8 46 3b a6 12 81 b5 3a 4c 91 3b a0 6d 03 3c
       0.0030312918 -9.616676e-07 0.0044341357 0.008021742
000260 7d 00 80 b7 75 80 ca 3a 3f f4 aa bb 82 e9 9f 3c
       -1.5259016e-05 0.001544966 -0.0052171047 0.019520525
000270 bd 74 b9 3b 59 1a 0d ba 8a 88 d2 3b 57 be a5 3b
       0.0056596682 -0.0005382649 0.006424968 0.0050580907
000280 e0 9a d0 3a 8c f6 a4 3b 9e a6 27 bc 1d 79 d8 3b
       0.0015915297 0.0050342735 -0.010232596 0.0066062347
000290 f2 a8 8c 3a 4b f8 c0 3b 5d d5 89 3b f3 15 7d 3b
       0.0010731502 0.005888974 0.004206343 0.003861782
0002a0 20 cb 8c 3b 8c 48 b7 3a d8 b5 6b 3b 9d 3b 22 bb
       0.0042966753 0.0013983413 0.0035966542 -0.002475477
0002b0 34 f1 f7 bb ab cc 47 3c 1c 6f 3d 3b fc b3 73 3b
       -0.0075665955 0.012194793 0.0028905338 0.0037186136
0002c0 96 54 50 3c 34 33 88 3a 10 cb cd 3a 2f 64 8e ba
       0.012715479 0.0010391236 0.0015700776 -0.0010863597
0002d0 8d 80 a2 3c bc 8b 9b 3b 0f b5 24 3b 76 87 7b 3b
       0.019836688 0.0047468822 0.0025132333 0.0038380302
0002e0 7f be 0e 3c 84 39 a7 3a ce 86 60 3b 96 1f a7 3b
       0.00871241 0.001275823 0.0034260037 0.005100201
0002f0 d7 3a f7 b9 e5 99 47 3c 99 28 45 bc 0c 9c 9f 3c
       -0.0004715535 0.012182687 -0.012033605 0.019483589
000300 b1 1b 26 3b d7 57 9d 3b 00 58 27 bb 48 97 d3 3b
       0.0025346095 0.004801731 -0.002553463 0.006457243
000310 54 92 ec bb 70 7a c4 3a 16 43 a1 3b 6b 79 9f ba
       -0.007219592 0.0014990102 0.0049213273 -0.0012166923
000320 e1 79 35 3b 50 86 2a 3c 55 f3 5c 3b bc 85 ce 3b
       0.0027691054 0.010407999 0.0033714373 0.0063025635
000330 f3 1c 23 38 05 64 6f 3c b7 e0 e2 3b 8c 1e 1b 3c
       3.888919e-05 0.014611249 0.0069237608 0.009467732
000340 02 8a af 3b 6b 26 fe 3b b5 51 17 3c 2a 4b 30 bb
       0.005357028 0.0077560446 0.009235789 -0.002690027
000350 5b e4 a8 3b 6f db 0a 3b 39 c7 26 3b 5f 40 a9 3b
       0.005154175 0.0021187922 0.0025448336 0.0051651443
000360 13 a9 c3 3a 6c 4f db 3b 50 4b 5c 3c 35 a1 b8 ba
       0.0014927707 0.0066928174 0.01344569 -0.0014086129
000370 52 84 af 3b ff a6 16 ba 54 34 c9 ba e6 16 30 3c
       0.00535635 -0.000574693 -0.0015350678 0.010747647
000380 f1 0a 62 ba 9d 3f d7 ba 84 7f 2d 3b 4c 08 eb 3b
       -0.0008622846 -0.0016422156 0.002647371 0.00717262
000390 cf a0 29 3c c5 4b 48 3b ae dc 73 3c 27 6a 24 ba
       0.010353281 0.003056274 0.014884157 -0.00062719214
0003a0 0e 4f 0c 3c f2 17 10 3b b2 6b 9a 3a d8 9a 93 bb
       0.00856377 0.0021986929 0.0011781363 -0.004504543
0003b0 ff 18 92 ba 08 ed 34 3b bb 93 fe 39 2a 4f 6c 39
       -0.0011146365 0.0027607102 0.00048556723 0.00022536205
0003c0 ce c5 02 3a 51 85 33 3b b3 49 95 3a 30 87 cd 3b
       0.00049885816 0.0027392695 0.0011389762 0.006272219
0003d0 c7 ff 05 3b 19 0e 81 3c a2 9f ca 3b c1 6a b7 3a
       0.0020446645 0.015753793 0.0061835805 0.0013993607
0003e0 05 6c 51 3c 73 8d 65 3b c1 13 54 3b ef ca 04 3c
       0.0127821015 0.0035026937 0.0032360407 0.008105024
0003f0 2a 73 7f 3c ca 92 ab 3a c8 cd 49 3c 36 0d 04 3c
       0.015591422 0.0013090011 0.0123171285 0.00805979

lstm.bias_hh_l0 f4 [512]
000000 f1 61 5c 3c 1b da d6 3b 23 56 4b 3c 2c b1 a8 3a
       0.013451085 0.006556762 0.012410673 0.0012870184
000010 ff e5 9d 3c a7 6e 7d 3c b3 2c a6 3b ce 0a 1b 3c
       0.01927471 0.015468276 0.0050712465 0.009463025
000020 63 f3 2e 3c 9c 70 81 3b aa 70 7e 3b 33 27 8b 3c
       0.010678145 0.0039501917 0.0038824477 0.016986465
000030 d2 4e 00 bc 8a b6 3f 3c 8f e3 62 3b a0 39 77 3b
       -0.007831292 0.011701236 0.0034620499 0.0037723556
000040 8f f1 86 3c 15 8f 83 3c 57 14 ab 3b f2 f5 63 3b
       0.016472606 0.016059438 0.0052209306 0.0034784046
000050 c2 ba 06 3c 95 e2 33 3b 42 62 52 3c ef 25 3b 3c
       0.0082232375 0.0027448286 0.012840809 0.011422618
000060 9e 22 01 ba 54 36 b9 3b cd 67 f7 ba 0a 04 ab 3c
       -0.0004926118 0.0056522284 -0.001887554 0.02087595
000070 de cf 41 3c bf fb 16 3b 28 0d 1c 3c 02 d9 32 3c
       0.011829345 0.0023038236 0.009524621 0.0109159965
000080 d8 c2 21 3b c6 96 1b 3c 6c 23 57 3c 43 d4 6b 3c
       0.0024682786 0.009496396 0.013131004 0.014393869
000090 cb b5 bf bb d9 8c df 3b 3e ce 1c 3c 8d 7c ea 3b
       -0.005850529 0.0068222103 0.009570656 0.007155961
0000a0 7d 87 75 3c 9c 98 19 3c 1c 50 fa 3b fb 44 78 bb
       0.014985916 0.009374764 0.0076389443 -0.0037882912
0000b0 7b 6a 0b 3a 01 b6 4e 3c 7c b3 ec 3b 10 a1 fe 3b
       0.0005318296 0.012616635 0.0072235446 0.007770665
0000c0 c6 63 a9 3c 8a fb 54 3b 8e 2b 3b 3c d7 fa 3c 39
       0.020677458 0.0032498562 0.011423958 0.00018022522
0000d0 7b e0 85 3c 66 d1 72 3a 61 a1 3e 3c 44 21 0d 3c
       0.016342392 0.000926277 0.011635155 0.008613888
0000e0 92 68 56 3c 13 56 80 3b 8e 23 20 3c 6a 8a 44 3c
       0.013086455 0.003916511 0.009774102 0.011995891
0000f0 81 cb 55 3b 33 a8 b0 3b 19 2f 5d 3c 4d c2 96 3c
       0.0032622518 0.0053911447 0.0134999985 0.018403197
000100 8e fd 85 3b 77 ed 1c 3c e9 57 8c 3b ab 85 36 3c
       0.004089064 0.0095781 0.0042829406 0.011140267
000110 6e 4f 15 3c 96 53 14 3c b3 f0 8f 3c 1c 9a 8b ba
       0.009113176 0.009053132 0.017570829 -0.0010650787
000120 77 fd a0 3b a0 b7 79 3c 63 df 2c 3c c4 23 19 3c
       0.004913028 0.0152415335 0.010551306 0.009346906
000130 27 4d 9f 39 2c 3c 87 3c a2 90 fe 3a 87 89 41 3c
       0.00030384326 0.016508184 0.0019421766 0.011812574
000140 cb 6a 7a 3c ab 4a ff 3b 1f 6d 8e 3c a4 a1 56 ba
       0.0152842505 0.0077908835 0.017386017 -0.00081875385
000150 9e f4 c4 3b 35 ac 02 3c 18 09 f7 3b 7d f0 8a 3b
       0.006010606 0.007975628 0.007538926 0.004240094
000160 dd 12 32 3b fd 94 a8 3b 43 53 8c 3c 7f 9e 5d 3b
       0.0027171888 0.005144714 0.017129546 0.0033816395
000170 e8 f0 0d 3c a2 5f 8c 3a d8 10 6a 39 ff 35 25 3c
       0.008663394 0.0010709653 0.00022322254 0.010083674
000180 e6 10 48 3b a3 49 b7 3a c2 31 9e 3b 2f 83 6e 3c
       0.003052765 0.0013983737 0.004827709 0.014557644
000190 d4 b7 6f 3c 68 75 03 3c e4 f1 32 3c 39 61 8b 3c
       0.01463123 0.008023597 0.010921929 0.017014133
0001a0 8e dd 37 3c 15 31 58 3b fd 42 a7 3b f2 5a 4f 3b
       0.011222256 0.003298824 0.005104421 0.00316399
0001b0 ab 20 53 3c 28 e3 4c 3c c1 d2 70 3b 94 4c 5f 3c
       0.012886207 0.01250533 0.0036746713 0.0136290975
0001c0 0d 79 14 3c 09 51 10 3c e9 3f 3e 3c fb fb 5e 3c
       0.009062064 0.008808383 0.011611917 0.0136098815
0001d0 7a 9d 49 3b d9 f2 3e 3c 80 64 09 3c a4 5a fc 3b
       0.003076403 0.011654579 0.0083857775 0.007701235
0001e0 27 73 98 3c 6c 22 0e 3c 00 63 3b 3c bf 9e 1b 3c
       0.018609596 0.008675199 0.011437178 0.009498297
0001f0 52 bd 92 3c b6 f1 47 3c 27 83 43 3c 2b cc 5b 3c
       0.01791254 0.0122036245 0.011933125 0.013415377
000200 3a 68 5c bb 30 f0 4a 3b 3b 93 ee 3a df 75 49 b9
       -0.003363146 0.0030965917 0.0018201837 -0.00019212764
000210 1d 6d e7 3b e0 5d b0 3b 2a 09 3f 3a c0 29 1b 3c
       0.007062568 0.0053822845 0.00072874373 0.009470403
000220 f3 2e c5 3b 35 11 e3 ba 75 41 5d 3a cf d6 3c 3c
       0.0060175597 -0.0017323854 0.0008440235 0.011525824
000230 a9 1c 34 3b 67 21 d4 3b 2f 92 46 3b 1b ae 24 38
       0.0027482903 0.0064737084 0.0030299535 3.9262795e-05
000240 13 7f 55 3c 98 cb 0f 3c 03 a9 0d ba 94 9a 4e 3c
       0.013030785 0.008776568 -0.0005403908 0.0126100965
000250 a3 a8 46 3b a6 12 81 b5 3a 4c 91 3b a0 6d 03 3c
       0.0030312918 -9.616676e-07 0.0044341357 0.008021742
000260 7d 00 80 b7 75 80 ca 3a 3f f4 aa bb 82 e9 9f 3c
       -1.5259016e-05 0.001544966 -0.0052171047 0.019520525
000270 bd 74 b9 3b 59 1a 0d ba 8a 88 d2 3b 57 be a5 3b
       0.0056596682 -0.0005382649 0.006424968 0.0050580907
000280 e0 9a d0 3a 8c f6 a4 3b 9e a6 27 bc 1d 79 d8 3b
       0.0015915297 0.0050342735 -0.010232596 0.0066062347
000290 f2 a8 8c 3a 4b f8 c0 3b 5d d5 89 3b f3 15 7d 3b
       0.0010731502 0.005888974 0.004206343 0.003861782
0002a0 20 cb 8c 3b 8c 48 b7 3a d8 b5 6b 3b 9d 3b 22 bb
       0.0042966753 0.0013983413 0.0035966542 -0.002475477
0002b0 34 f1 f7 bb ab cc 47 3c 1c 6f 3d 3b fc b3 73 3b
       -0.0075665955 0.012194793 0.0028905338 0.0037186136
0002c0 96 54 50 3c 34 33 88 3a 10 cb cd 3a 2f 64 8e ba
       0.012715479 0.0010391236 0.0015700776 -0.0010863597
0002d0 8d 80 a2 3c bc 8b 9b 3b 0f b5 24 3b 76 87 7b 3b
       0.019836688 0.0047468822 0.0025132333 0.0038380302
0002e0 7f be 0e 3c 84 39 a7 3a ce 86 60 3b 96 1f a7 3b
       0.00871241 0.001275823 0.0034260037 0.005100201
0002f0 d7 3a f7 b9 e5 99 47 3c 99 28 45 bc 0c 9c 9f 3c
       -0.0004715535 0.012182687 -0.012033605 0.019483589
000300 b1 1b 26 3b d7 57 9d 3b 00 58 27 bb 48 97 d3 3b
       0.0025346095 0.004801731 -0.002553463 0.006457243
000310 54 92 ec bb 70 7a c4 3a 16 43 a1 3b 6b 79 9f ba
       -0.007219592 0.0014990102 0.0049213273 -0.0012166923
000320 e1 79 35 3b 50 86 2a 3c 55 f3 5c 3b bc 85 ce 3b
       0.0027691054 0.010407999 0.0033714373 0.0063025635
000330 f3 1c 23 38 05 64 6f 3c b7 e0 e2 3b 8c 1e 1b 3c
       3.888919e-05 0.014611249 0.0069237608 0.009467732
000340 02 8a af 3b 6b 26 fe 3b b5 51 17 3c 2a 4b 30 bb
       0.005357028 0.0077560446 0.009235789 -0.002690027
000350 5b e4 a8 3b 6f db 0a 3b 39 c7 26 3b 5f 40 a9 3b
       0.005154175 0.0021187922 0.0025448336 0.0051651443
000360 13 a9 c3 3a 6c 4f db 3b 50 4b 5c 3c 35 a1 b8 ba
       0.0014927707 0.0066928174 0.01344569 -0.0014086129
000370 52 84 af 3b ff a6 16 ba 54 34 c9 ba e6 16 30 3c
       0.00535635 -0.000574693 -0.0015350678 0.010747647
000380 f1 0a 62 ba 9d 3f d7 ba 84 7f 2d 3b 4c 08 eb 3b
       -0.0008622846 -0.0016422156 0.002647371 0.00717262
000390 cf a0 29 3c c5 4b 48 3b ae dc 73 3c 27 6a 24 ba
       0.010353281 0.003056274 0.014884157 -0.00062719214
0003a0 0e 4f 0c 3c f2 17 10 3b b2 6b 9a 3a d8 9a 93 bb
       0.00856377 0.0021986929 0.0011781363 -0.004504543
0003b0 ff 18 92 ba 08 ed 34 3b bb 93 fe 39 2a 4f 6c 39
       -0.0011146365 0.0027607102 0.00048556723 0.00022536205
0003c0 ce c5 02 3a 51 85 33 3b b3 49 95 3a 30 87 cd 3b
       0.00049885816 0.0027392695 0.0011389762 0.006272219
0003d0 c7 ff 05 3b 19 0e 81 3c a2 9f ca 3b c1 6a b7 3a
       0.0020446645 0.015753793 0.0061835805 0.0013993607
0003e0 05 6c 51 3c 73 8d 65 3b c1 13 54 3b ef ca 04 3c
       0.0127821015 0.0035026937 0.0032360407 0.008105024
0003f0 2a 73 7f 3c ca 92 ab 3a c8 cd 49 3c 36 0d 04 3c
       0.015591422 0.0013090011 0.0123171285 0.00805979

lstm.weight_ih_l1 f4 [512, 128]
000000 ab 54 b0 bd a5 76 ef 3c 9a f0 4a 3d 2f 13 11 bd
       -0.08609899 0.029231379 0.04954586 -0.035418686
000010 ae ba 8e bb fd 3a 3d 3d 5d 7f b9 3c 0e 27 03 bd
       -0.00435575 0.046198834 0.02264374 -0.032019667
000020 5a 94 db 3c 6e 17 33 3b 1c c0 55 3c 1e f5 a3 3d
       0.026804138 0.0027327198 0.013046291 0.08005737
000030 8b 4d 04 bd c0 bb a2 3d e9 57 98 bd 31 7b be bc
       -0.032300513 0.07945967 -0.074386425 -0.023252102
000040 12 76 42 3d 37 23 47 3d db 73 82 bd 12 4e 3a 3d
       0.047475882 0.048617568 -0.06369754 0.04548461
000050 b3 14 50 3d dd 7a 24 bd 16 73 77 3d 68 a4 18 3d
       0.05080099 -0.040156234 0.06041249 0.037266165
000060 72 9f f8 3b 41 c0 11 3b 89 69 9c 3c eb 2b 8c 3d
       0.0075873667 0.0022239836 0.019093292 0.06844314
000070 9b 06 54 bc c4 55 a0 bd 5f 41 34 3d 23 36 25 3d
       -0.012941028 -0.078288585 0.044007655 0.040334832
000080 0f 56 03 3d 76 1f aa bd cc 51 a7 bd 20 ef 83 bd
       0.032064494 -0.08306782 -0.081698984 -0.06442094
000090 08 27 96 bd 14 d8 7e 3d d4 58 bf bd 46 49 7e 3c
       -0.07331663 0.062217787 -0.093431145 0.015520399
0000a0 59 72 90 bd 5e 18 b8 3c ab a8 94 bc 79 c1 69 bd
       -0.0705306 0.022472557 -0.018146833 -0.057069276
0000b0 d9 ee ac 3d 10 13 9b 3d ec 18 29 3d 9d d8 13 3b
       0.08443994 0.07571995 0.041283533 0.0022559531
0000c0 28 67 c9 3d b9 37 1d bd ec c2 26 bd b3 f4 89 3d
       0.098341286 -0.03838322 -0.040713236 0.06736126
0000d0 8f 11 dc bc 9f 3f c3 3d a7 36 88 3d d5 26 89 bd
       -0.026863841 0.09533619 0.06651049 -0.0669686
0000e0 e8 0b 34 bd cf 57 87 3d 8a c7 9f 3d 2e 70 cd 3c
       -0.043956667 0.06608545 0.07801731 0.025077906
0000f0 04 ea 1e bd 1a 25 24 3c 10 f1 0c 3d 55 5d 7b bd
       -0.038797393 0.010018611 0.034409583 -0.061368305
000100 c1 5e 63 3d 45 cb 85 3a f6 c1 3f 3d 2f df 8c bd
       0.055510286 0.0010207674 0.046815835 -0.068785064
000110 5f ad 34 bd 8b 86 2a bd c4 2c da bc e6 8f 96 3b
       -0.044110652 -0.041632216 -0.026632674 0.0045947907
000120 5f 8b 96 3d 57 9b 61 3d b3 32 68 bd 6d 5e 6a bd
       0.07350802 0.055079784 -0.056688976 -0.057218958
000130 92 e7 8a bd ba 3e 09 3d f1 91 97 bd 71 2a 3f 3b
       -0.0678245 0.033507086 -0.07400883 0.0029169584
000140 a2 cc b3 3d 77 cc a3 3a 43 dd 32 bd d8 4d cf 3b
       0.08779265 0.0012496848 -0.043668043 0.0063264184
000150 c0 bf 3f bd 60 5a 8f 3d 91 23 a3 bd be f8 96 ba
       -0.046813726 0.069996595 -0.07965768 -0.0011518223
000160 ce ca 3a bc ae 74 ae bc b3 76 43 3d 17 11 f9 bc
       -0.0114008915 -0.021295872 0.047720622 -0.030403657
000170 97 2f a8 bc 41 07 c9 3d 78 47 b8 bc 17 e1 8e bd
       -0.020530505 0.09815837 -0.022495016 -0.06976526
000180 60 ea 3b 3b a5 6b 8c 3d c1 e2 97 3d de 6f ef bc
       0.0028673634 0.06856469 0.07416297 -0.029228147
000190 5e e7 4c 3c ec 1d 42 3d 6d 53 bc bc bb bd 13 3d
       0.012506334 0.047391817 -0.022989 0.036069613
0001a0 05 e2 0a 3d bc ef 1c 3d 26 43 aa 3a 4c a5 a0 3c
       0.033906955 0.038314566 0.0012989982 0.01961007
0001b0 78 5a 08 3d 79 72 af bb 3a 50 8e 3d 8f de 95 bd
       0.033289403 -0.0053542224 0.06948896 -0.0731784
0001c0 c7 6a ab bd 92 e3 11 3d 0b c9 c6 bc 75 09 92 3d
       -0.083699755 0.03561742 -0.024265787 0.0713071
0001d0 fc 5c a1 3d 72 55 84 3d b1 cc 21 3c 8f a5 25 bc
       0.078790635 0.0646161 0.009875462 -0.010110273
0001e0 db 81 5f 3d 96 ee 32 bd 4d c2 e3 3c 71 0b c2 3d
       0.0545672 -0.043684565 0.02780261 0.094748385
0001f0 63 86 66 3b 63 df ab 3d 90 1d bd 3c 90 a7 84 3d
       0.0035175316 0.08392217 0.023085386 0.064772725
000200 5c b0 a7 bd f6 4a 9b bd 2d dd 66 bc 2f d6 33 3d
       -0.08187935 -0.07582657 -0.014090818 0.043905433
000210 ad 00 3e bd f5 10 a3 3c 56 26 b7 3d bf 27 77 bd
       -0.046387363 0.019905547 0.08942859 -0.06034064
000220 ec 8b f1 3c 2e d1 8b 3c c8 1e 50 3d 61 b3 c4 bd
       0.029485665 0.017067518 0.050810605 -0.09604526
000230 87 ac 6f bb bd 1f 78 3d 57 e4 05 3d 27 17 aa bc
       -0.003657134 0.060577143 0.032688465 -0.020762993
000240 ac 1b 1d bc 4a 08 50 3c 8e db 1f 3d d4 2b 12 3d
       -0.009589117 0.012697289 0.039027743 0.03568633
000250 be 77 56 3c 8d 76 71 3c 79 41 22 bd 7a 92 f0 3c
       0.013090072 0.014737737 -0.03961322 0.02936672
000260 4f 8c 0a 3d 23 72 81 3d 93 6e 75 bc 71 9a c9 bd
       0.033825215 0.06320598 -0.014979976 -0.098439105
000270 bf 6c aa 3c 1c f8 fc 3c 48 48 b1 3d 00 9e 9b bd
       0.020803807 0.030880027 0.08656365 -0.075984955
000280 46 4a 95 3d fd e0 03 bd fb db bc bd 76 6f b2 3c
       0.07289557 -0.032196987 -0.092216454 0.021781664
000290 57 a9 c3 3d 12 ae c3 bd 9e 71 8e bd e3 b7 b2 3d
       0.095537834 -0.09554686 -0.069552645 0.0872648
0002a0 76 73 9a bd 1f ce 3d bd 9f 5d a6 bc 7d 38 2d 3d
       -0.07541554 -0.04633915 -0.020308314 0.0422902
0002b0 e3 17 27 bd b0 fd a6 3c be 96 ba bd 84 36 4a bc
       -0.040794265 0.02038464 -0.09110783 -0.012342099
0002c0 f0 c9 36 3c 7d d4 3c bd 0e 6b 23 bd b0 7a aa 3c
       0.011156544 -0.046101082 -0.039897017 0.020810455
0002d0 2c 5c b2 3d 75 f5 2b bc cf bd 50 3d c9 e1 66 bc
       0.08708987 -0.010495533 0.050962266 -0.014091917
0002e0 49 1f 40 bd 49 d7 9b bc 2f dc ed bb c2 f8 8b bd
       -0.046904836 -0.019023554 -0.007258914 -0.06834556
0002f0 3d 0e f0 bb 58 be 2b bd 43 22 b6 3c f7 0d 63 bd
       -0.007325916 -0.041929573 0.022233134 -0.05543324
000300 30 24 b7 3d 1a 9d 39 3d a6 58 1e bd 49 33 94 3d
       0.08942449 0.04531584 -0.03865876 0.07236344
000310 fa cb dc bc 6e 91 a4 bd 41 10 a4 bc c2 6b 84 3d
       -0.026952732 -0.08035551 -0.020027282 0.06465866
000320 07 0c b5 3d 56 fc 56 bd af 45 05 bd a5 18 83 bc
       0.08840185 -0.05248674 -0.03253716 -0.016002962
000330 56 18 a1 3d 31 44 70 3d 4b 2d 8f bd e4 ce 93 3d
       0.0786597 0.058658782 -0.06991061 0.07217196
000340 18 21 a4 3d bd 09 2d 3c bd ac a4 bd 97 bf 5b bd
       0.08014125 0.010561404 -0.0804076 -0.05364951
000350 56 c1 89 3c 39 98 9c bb 0b 78 ad 3d 91 31 a3 bc
       0.016815823 -0.0047788885 0.08470162 -0.019921096
000360 80 f0 73 3d df a1 3d 3d ee 38 02 3d 5d 41 03 3d
       0.05955553 0.04629695 0.031792574 0.032044757
000370 57 12 c5 bc 57 fb 93 3c ee 13 53 3d 71 bc d3 bb
       -0.024056597 0.018064184 0.05153268 -0.006461673
000380 58 c7 1a 3d 3b a3 c5 3c ff 83 b8 3d 5f 3e f9 3c
       0.037787765 0.024125686 0.09009551 0.030425249
000390 27 31 8f 3d 91 b6 c9 3c 03 1b 81 bd fa c0 90 3d
       0.06991797 0.024623187 -0.0630398 0.07068057
0003a0 1e d9 7f ba 13 40 f3 3c a1 7f e5 3c 3e 43 b4 bc
       -0.0009759831 0.029693639 0.02801496 -0.02200472
0003b0 da 9d 76 bd fd 76 3c 3d 58 14 14 bd f2 14 58 3c
       -0.060209133 0.046011914 -0.036152214 0.0131885875
0003c0 7a f1 ed 3c c1 10 a0 bb 03 a9 89 3c 97 9a 9d bc
       0.029045809 -0.0048848097 0.016804224 -0.019238753
0003d0 78 06 8a 3d e2 aa a1 bd 64 ec 5a 3d 10 90 ac ba
       0.06739515 -0.078939214 0.053448096 -0.0013165493
0003e0 ad ac 5d bd 3e c6 8d 3d 5d 77 67 bc 61 5b 78 3d
       -0.054119755 0.06922577 -0.0141275795 0.06063402
0003f0 99 dc 62 bd 3b 6f 8e 3b 04 ad 1a 3d f1 3b 06 3d
       -0.05538616 0.004346756 0.037762657 0.03277201

lstm.weight_hh_l1 f4 [512, 128]
000000 12 97 f7 3a 71 7e a8 3d 97 9d 53 3d 3a 3f 5e 3d
       0.0018889627 0.08227242 0.05166396 0.054259516
000010 95 43 61 bd 9f 15 5d bc cb ad 05 bd 81 a8 56 bd
       -0.054996092 -0.013493924 -0.032636445 -0.05240679
000020 2f fa 72 3d 0a f4 9d bd a8 a8 29 3c 6d 5f d9 bc
       0.059320625 -0.077125624 0.010355152 -0.02653476
000030 d6 3a a1 3d c1 2b ae 3d 33 b6 9e 3c d1 51 93 bd
       0.0787255 0.08504439 0.019373989 -0.071933396
000040 87 72 c5 bc 67 6d b2 bd bb 9b e7 bc bf 5a e9 3b
       -0.024102462 -0.08712273 -0.0282725 0.0071214135
000050 cb 1d 0f bd f7 e2 71 bc 3c 79 0a bd 5c 3d 0f bd
       -0.034940522 -0.014763585 -0.033807024 -0.034970626
000060 f8 42 67 3d a4 95 e2 bd 23 49 35 3d e7 14 66 bd
       0.05646035 -0.11063698 0.0442592 -0.056172278
000070 6a 4d a5 3c f8 41 66 3d 31 ff e1 bb 3f d9 78 bd
       0.020178515 0.056215256 -0.0068968763 -0.060754057
000080 3c 51 1e 3d 77 8c 82 3d 18 79 3f 3d ee 76 83 bd
       0.03865169 0.06374448 0.046746343 -0.064191684
000090 a0 04 2a bc 13 c6 e2 bc f9 a6 ca bd 17 15 4f bd
       -0.010377079 -0.02768234 -0.09895129 -0.050557222
0000a0 42 af aa bd d0 f0 64 bd e2 56 71 bd 5f c2 40 bd
       -0.08334209 -0.05589372 -0.05892075 -0.047060367
0000b0 31 16 8a 3d 4d a8 2c bd 14 82 a1 bd 5f 04 21 bd
       0.06742514 -0.04215269 -0.078861386 -0.03931081
0000c0 46 d1 15 bd d0 a4 d8 bc 68 0b 05 3d a0 6d 93 3c
       -0.03657653 -0.026445776 0.03248158 0.01799661
0000d0 20 e7 55 3d e0 cf be 3d 44 9d 18 bd 51 aa 64 3d
       0.05222237 0.09316993 -0.037259355 0.05582649
0000e0 97 39 93 bb 98 cf 9a 3d 6b 45 f9 bb 39 07 66 bd
       -0.004492949 0.075591266 -0.007607152 -0.05615923
0000f0 a6 21 e6 bc 4f 20 b3 3d 49 49 0d 3c c1 ed b0 3d
       -0.028092217 0.08746397 0.00862343 0.08639098
000100 4e f6 f9 bc 7d c8 b8 3d 7a c2 91 3c d7 ba 5c 3d
       -0.030512955 0.09022615 0.017792929 0.05388912
000110 87 a6 9d bd 7b b7 a1 bd 7d e1 ee 3c b7 4f 81 3d
       -0.07697778 -0.07896324 0.029160256 0.063140325
000120 bd 3a 20 3a 0e d7 9d bb 86 ff 25 bd 48 61 94 3d
       0.00061122683 -0.0048168963 -0.04052689 0.072451174
000130 d0 b4 4d 3d 1e 14 92 3b ba a8 46 3d ef ac 9b bd
       0.050221264 0.0044579646 0.048500754 -0.07601344
000140 27 c4 50 bd 63 00 90 bd a7 fa c5 bc fe 21 9f 3d
       -0.050968315 -0.07031324 -0.024167372 0.07770155
000150 2b 12 2c bd 66 f6 1e 3c 83 4d 4b 3d f0 57 8b 3d
       -0.042009514 0.009702301 0.049634468 0.06803882
000160 5f e2 6e bc 86 9a 84 bd f4 17 cb 3c 69 bd a2 bd
       -0.014580338 -0.064747855 0.024791695 -0.07946283
000170 af 78 82 3d 04 9a 98 3d f1 5e 45 bd 50 da 8a bd
       0.06370675 0.07451251 -0.048186246 -0.06779921
000180 8a 3a 77 bd 78 7f b2 3d 35 ba b8 3d d5 5d 22 bd
       -0.06035856 0.08715719 0.09019891 -0.039640266
000190 2a c6 79 3d fb 35 20 bd a3 c9 d9 bc 43 e9 47 bd
       0.06098 -0.03911398 -0.026585406 -0.04880644
0001a0 d3 79 ae bd de d1 62 3d b4 4e 26 3d 46 f0 dd 3d
       -0.0851933 0.055375926 0.0406024 0.10836844
0001b0 66 2c 95 3d ad 63 de 3d 3f 74 00 3d 7c 23 52 bd
       0.07283859 0.108588554 0.03136086 -0.05130337
0001c0 48 1b 92 bd 60 ab 92 3d 56 4a a4 bc 44 49 c7 bd
       -0.0713411 0.071615934 -0.020054977 -0.09730771
0001d0 6a 10 63 3c 63 8e 7f bd e8 ff f4 bb 62 c1 03 bc
       0.013858894 -0.06239165 -0.0074767955 -0.0080417115
0001e0 50 f0 be bc 6d 8b c5 bc 7c 3c c0 3d 6b 54 b9 bd
       -0.02330795 -0.024114335 0.093865365 -0.090493046
0001f0 44 ae f8 3c 60 f1 d9 3d f2 ff a4 3d b7 99 d6 bd
       0.030356534 0.10641742 0.0805663 -0.104785375
000200 52 74 86 bd 9d 5d 20 bc 14 d7 e2 bc 94 c2 8b bc
       -0.06565155 -0.009787944 -0.027690448 -0.017060556
000210 0d 78 bf bc d6 94 93 bd ff 8e f7 bc f6 53 fb 3c
       -0.023372674 -0.072061226 -0.030219553 0.030679684
000220 51 58 54 3d ba a0 a7 3d 73 90 bf 3d 47 f1 27 bd
       0.051842038 0.08184953 0.093537234 -0.041001584
000230 d2 4c 55 3d 8f 82 c1 bc 31 28 a6 3b f3 d9 ac 3d
       0.052075215 -0.023621826 0.005070709 0.08440008
000240 e9 95 0c 3d b0 a2 a0 3d 9d 62 6c 3d c8 d0 43 bc
       0.034322653 0.0784353 0.057711232 -0.011951633
000250 b1 ee 98 3d c0 09 97 bb d1 14 59 3d f3 85 6a bd
       0.07467402 -0.0046093166 0.052998368 -0.05725665
000260 0c 33 45 3c 3a 8a 87 bd 69 05 53 bc 0c 09 b9 3d
       0.012036096 -0.066181615 -0.012879708 0.09034929
000270 11 9d 9a 3d 4d 5b 6b 3d e6 1a ae bd 68 a4 a3 bd
       0.07549489 0.057460118 -0.08501224 -0.079903424
000280 dd c4 ad bd c8 02 63 bd a9 88 f4 3c 97 cf a9 3c
       -0.08484814 -0.055422574 0.02985032 0.02072887
000290 b9 5d ac 3d d1 50 4b 3d e3 93 bc bd 95 f1 96 bd
       0.08416314 0.04963762 -0.09207895 -0.07370297
0002a0 a6 e3 a6 3d 89 94 3e bd 4f c7 1b bd 06 7a d7 bc
       0.08148889 -0.046528373 -0.038031872 -0.026303302
0002b0 20 46 87 3d ff 26 89 3d 99 ec 2d bd 7a 79 8a bc
       0.06605172 0.06696891 -0.042461965 -0.016903628
0002c0 45 1c 08 3d ea 3b b4 3c a7 be 80 3d a4 9b 6b 3d
       0.033230085 0.022001226 0.06286364 0.057521477
0002d0 44 ce 8b 3b a7 86 bb bc 21 a4 09 bc f0 1d 7f bd
       0.004266532 -0.022891356 -0.008400948 -0.06228441
0002e0 0e 97 cf 3b 1f 1c 1e 3d 85 d0 4a 3d 3d 0f a8 3d
       0.006335146 0.038601037 0.049515266 0.082060315
0002f0 c7 bb a6 3d 66 f3 3d 3d 79 52 8a 3d 11 5b 0f bd
       0.081412844 0.0463747 0.06754012 -0.034998957
000300 c7 d6 25 bc c7 9b 26 3d fd 4d 83 3d 08 23 3a bd
       -0.010122008 0.040675905 0.064113595 -0.045443565
000310 fd 5b a2 3d 65 b6 4d 3d 43 f7 10 3d 23 35 46 bd
       0.079277016 0.050222773 0.035392057 -0.04839052
000320 23 c5 ba 3d 83 e6 0a bd b7 c4 18 bd 35 45 9c bd
       0.09119632 -0.03391124 -0.037296977 -0.07630388
000330 11 e5 b8 bd f6 b1 c0 bc 70 26 a3 3b 55 0e b4 3d
       -0.09028066 -0.023522358 0.0049789473 0.08791796
000340 05 a4 6c bd 01 7c e0 bc 29 96 27 3d 92 c3 a5 bd
       -0.05777361 -0.02740288 0.04091469 -0.08093943
000350 29 67 5c 3d 5c d5 be 3c c7 6b 3d 3d 84 86 76 3d
       0.05380932 0.023295097 0.046245363 0.060186878
000360 a9 21 47 bc 14 09 92 bb 36 d6 53 ba fe ff a3 bc
       -0.012154021 -0.0044566486 -0.0008080931 -0.020019528
000370 d1 f0 11 3d 14 41 4b 3d d8 56 a3 3b 51 29 89 bd
       0.03563005 0.04962261 0.004984718 -0.066973336
000380 5b 7d b0 3d 59 09 13 3d f1 a8 58 bd 9d 04 f7 3c
       0.0861766 0.035897586 -0.05289549 0.030153567
000390 e3 dd 8c 3d 5f 35 67 3d bb 3e 72 bb b3 05 28 3d
       0.06878259 0.056447383 -0.003696366 0.04102106
0003a0 55 68 94 3c 1a ed 38 bc 22 ef 13 3d ce 0d a1 3a
       0.018116156 -0.011286998 0.036116727 0.0012287439
0003b0 c9 29 cb bd 90 b4 6f bd f2 d0 4f bd 8f 24 8a 3d
       -0.09920079 -0.058521807 -0.050736375 0.06745254
0003c0 10 e3 b1 3d 24 08 18 bd 31 79 9a bd 5a d0 bc bd
       0.08685887 -0.03711714 -0.07542647 -0.092194274
0003d0 b7 9c a3 bc 03 0a 2f 3d 01 d1 83 bd cd 5a 15 3d
       -0.019972188 0.042734157 -0.06436349 0.036463547
0003e0 95 ac 09 3d 07 75 b9 3c 04 5a 6b bc ce 78 a4 bd
       0.033611853 0.02263881 -0.014364723 -0.08030854
0003f0 39 12 a5 3d 5f 2c 25 3d cf 6f 9b bd 39 6d 01 bd
       0.08060116 0.04032552 -0.07589685 -0.031598303

lstm.bias_ih_l1 f4 [512]
000000 c2 9b 0e 3c 7a 01 12 3c d3 63 ab 3b 83 b6 82 3b
       0.008704128 0.008911485 0.005230406 0.0039890422
000010 86 b8 14 3c 30 c7 6b 3b 0e ee f8 3b 88 70 02 3c
       0.009077197 0.003597688 0.0075967377 0.0079614
000020 e4 f0 3b 3c b3 c2 48 3c 36 4c 31 3c b1 45 54 3b
       0.011471007 0.012253451 0.010821393 0.0032390172
000030 4f db b2 3b 89 bc eb 3a b1 8d 54 3b 02 74 06 3c
       0.0054582725 0.0017985265 0.0032433087 0.008206369
000040 c5 76 4d 3c ec 3b b8 3b f2 b6 31 3c e7 0a 5d 3c
       0.012540524 0.0056223776 0.01084684 0.013491369
000050 ff b7 48 3b c2 87 c2 3b 16 0a c8 ba 0e 19 55 3c
       0.0030627248 0.0059365937 -0.0015261795 0.013006462
000060 3b c0 33 3b 94 a2 68 3c 81 79 12 3c 44 73 22 3c
       0.002742781 0.014198918 0.008940102 0.009915177
000070 76 97 93 3c c8 4b 92 3c 4c 9b 14 3c b6 28 11 3c
       0.018016558 0.017858401 0.009070229 0.008859804
000080 d3 7f 53 3c f1 23 17 3c f4 00 a7 3b 1f ac 78 35
       0.012908894 0.009224878 0.005096549 9.263767e-07
000090 b6 1b ea 3b 6f a9 b8 3b 5f 42 3a 3c fd 2a 8f 3c
       0.0071444167 0.0056354324 0.011368363 0.017476553
0000a0 57 e5 d9 3b b9 da e8 3b 19 17 d4 3b bf 7e 98 39
       0.006649654 0.007106152 0.00647248 0.00029086132
0000b0 e1 bd 5a 3c 99 bb e7 3b 73 1d b2 3a 09 56 04 3c
       0.013350935 0.007071924 0.0013589099 0.008077153
0000c0 a2 94 97 3b ff c9 5c 3c de 1e 25 3b 04 27 1b 3c
       0.0046258727 0.013475894 0.00251954 0.009469751
0000d0 9a 67 ba 3b c3 56 05 3c 78 4e a9 3b 2a 44 a0 3b
       0.00568862 0.008138361 0.005166825 0.0048909383
0000e0 01 8e 27 3c a0 33 4a 3c 02 41 9e 3b b6 1b e0 3b
       0.010226727 0.01234141 0.004829527 0.006839241
0000f0 fb 14 1c 3c f4 2e 30 3b c5 96 21 3c 32 09 93 3b
       0.0095264865 0.0026883455 0.009862606 0.00448718
000100 73 db d5 3b 15 23 4e 3c 8d e5 3b 3c f8 45 64 3c
       0.0065264045 0.012581606 0.011468303 0.0139326975
000110 b1 77 c6 3b 43 a5 d1 b9 33 6c 35 3c 1a a2 f7 3b
       0.006056749 -0.00039986716 0.01107316 0.007557166
000120 ee 02 55 3a 3c 07 19 3c 9d 79 34 3c 77 c8 20 bb
       0.0008125742 0.009340104 0.011015323 -0.002453355
000130 0f c2 5c 3c da b2 14 3c d4 b5 6b 3b eb 17 c8 ba
       0.013474002 0.009075845 0.0035966532 -0.0015265917
000140 0e 47 0c 3c 68 bf 25 3b fa 16 9b 3b dd 8e 04 3c
       0.008561863 0.002529109 0.0047329636 0.008090702
000150 75 0a 1b 3c 29 65 f0 3b 31 07 4c 3b 8f d0 1a 3c
       0.009462942 0.007336278 0.0031132216 0.009449138
000160 74 6e d1 3b 12 1c 63 3b 79 13 7d 3b 84 a4 06 3c
       0.006391341 0.0034654182 0.0038616343 0.0082179345
000170 95 33 bb 3a cb aa 5f 3a a9 46 a7 3b 03 1b be bb
       0.001428234 0.0008532225 0.005104859 -0.00580156
000180 a8 ef 37 3c c4 c1 d7 3a d2 96 e5 3b 69 7f 0a 3c
       0.011226572 0.0016460945 0.0070065046 0.0084532285
000190 7f 04 c6 3b 05 1c 52 3c c7 22 fe 3b 60 47 a6 39
       0.0060430164 0.012824063 0.0077556106 0.00031715166
0001a0 ea 4e 4d 3c f6 3b d2 3b 2f 55 5f 3c 72 d4 14 3c
       0.012531022 0.0064158393 0.013631149 0.009083854
0001b0 8f 44 31 3b ac 1d 85 3c 63 f9 5c b9 a4 b6 50 3c
       0.002704892 0.0162495 -0.00021073739 0.012738857
0001c0 fb 78 71 3b 3e a0 cb 3a 55 d6 9d 3b a7 52 9e 3b
       0.0036845792 0.0015535427 0.00481681 0.0048316303
0001d0 02 6d 01 bb 5b ee 71 3c d2 05 b1 3b 2f 37 ac 3b
       -0.0019748812 0.014766301 0.005402305 0.005255602
0001e0 f2 00 fd 3b d0 76 91 3b b9 d7 af 3b c7 b9 d7 b9
       0.00772106 0.0044392124 0.0053662923 -0.0004114641
0001f0 08 05 08 3b 23 e7 56 3c 6e b0 17 3c b4 fd 6e 3a
       0.0020754952 0.013116631 0.009258373 0.0009116784
000200 6b b5 10 3c a3 af b8 3b d2 30 3a bb db 68 b9 bb
       0.008832316 0.005636172 -0.0028410447 -0.0056582517
000210 dd b8 ef 3b ff 04 18 3b 61 f5 16 3b 84 b6 24 3b
       0.0073157386 0.0023196337 0.002303444 0.0025133202
000220 cb 15 ba b9 99 13 4c 3b 10 4c ef 3b 5f 10 41 ba
       -0.00035492922 0.003113961 0.0073027685 -0.0007364805
000230 56 f7 66 3b cd dd f2 3a 1e b1 de ba 7f 6a 06 bb
       0.0035242639 0.0018529237 -0.0016990041 -0.0020510254
000240 68 e0 94 3b da d7 5b b9 e0 da 4a bb 5b 6c 0f 3b
       0.004543353 -0.00020965879 -0.0030953214 0.0021884653
000250 f9 1e fc 3a d4 20 25 3b 8e a8 01 bb 0c 83 81 bb
       0.0019235305 0.002519657 -0.0019784304 -0.0039523896
000260 7d 87 93 3a ef 72 90 3a fa a6 3a 3b 98 f0 2b 3b
       0.0011255589 0.0011020581 0.0028480873 0.0026235934
000270 3f df 24 bb f8 de ae b9 0f 7f f7 3a e1 10 f5 3b
       -0.002515748 -0.0003335399 0.0018882471 0.0074788188
000280 6c 72 67 bb d6 99 5c 3b 5c 7d ef 3b 47 02 1a ba
       -0.0035316003 0.003366103 0.007308645 -0.0005874973
000290 4e 5e 0d bc b4 4e 39 3b 0a 1a 83 3b db 79 8b 3b
       -0.008628441 0.002827567 0.004000907 0.0042564697
0002a0 94 d2 9e 3b a9 c9 e0 38 11 0f 87 3b 90 d2 62 bb
       0.00484688 0.000107187145 0.004121669 -0.0034610368
0002b0 67 75 c6 3b 20 9a f0 3b 8b da 08 bb f8 f9 b1 3a
       0.006056476 0.007342592 -0.0020882215 0.0013578525
0002c0 ee 63 14 3a f6 ac a9 bb 5c 79 92 bb 2b 68 d2 3a
       0.00056606426 -0.0051780893 -0.0044700336 0.0016052773
0002d0 77 4c 84 3b 55 73 b9 3a fd 05 61 3b 28 21 2f 3a
       0.0040374356 0.0014148752 0.0034335845 0.0006680661
0002e0 da 7b 9e 3a 23 1d 71 3a 8e 52 1a 3b af 32 b0 b9
       0.0012091354 0.0009197762 0.0023547742 -0.00033607098
0002f0 87 a8 b6 3b 28 7b 90 ba 53 5b 4b bb 67 7b d0 3a
       0.0055742892 -0.0011023032 -0.0031029775 0.0015905917
000300 be 98 30 3b f2 30 1e 3c fc b3 13 bc 60 46 00 3c
       0.002694651 0.009655224 -0.00901508 0.007829279
000310 be 77 7b bb 7c 03 02 ba 59 6f 27 3c 3b 41 ae 3b
       -0.0038370932 -0.00049596257 0.010219418 0.0053178347
000320 8a 7c ac ba 15 e3 7f 3b d2 a5 61 3a c2 04 16 bb
       -0.0013159674 0.0039045264 0.0008607778 -0.002289102
000330 64 be 9b ba 8e 83 06 3c 05 5d c3 3a a6 f4 bc ba
       -0.0011882302 0.008210076 0.0014905041 -0.0014416173
000340 e0 b4 be ba f3 0f fe ba 6f 43 38 3b 12 28 11 39
       -0.0014549755 -0.0019383415 0.0028116365 0.00013843205
000350 9d dd 83 ba 45 9d 45 3a 52 3d eb b9 78 a9 98 b9
       -0.0010060553 0.00075383886 -0.0004486838 -0.00029117963
000360 23 d1 94 3b 92 cb b2 3a 91 c7 c9 3a 6d 9c 24 bb
       0.0045415326 0.0013640991 0.0015394558 -0.002511765
000370 cc 13 57 3a d5 c8 99 3a 91 5e a0 ba b6 0c d5 bb
       0.0008204549 0.0011732826 -0.0012235214 -0.0065017594
000380 4a 80 ef 3b 1b f4 80 ba a4 38 55 3b 62 14 88 3b
       0.0073089944 -0.0009838374 0.003253498 0.0041528204
000390 4e e5 95 3b 70 62 3c 3c a8 1d 55 ba 0f f2 aa ba
       0.0045744544 0.011498079 -0.00081297243 -0.001304211
0003a0 6c 85 f2 3b 1c fe 97 3b 53 b8 d7 bb 7f 44 9a 3b
       0.007401159 0.0046384465 -0.0065832525 0.0047078724
0003b0 ff 1c 8f 3a e5 51 27 3c b2 41 88 b9 b5 e8 04 3c
       0.0010918676 0.010212396 -0.00025988888 0.008112122
0003c0 df 2e fa 39 05 9c 8d ba eb c1 fe 3a e1 3d ab 39
       0.00047718638 -0.0010803944 0.0019436454 0.00032661765
0003d0 2f e5 13 bc 9b f4 49 3c fb 1a 38 3b b1 33 4b 3b
       -0.00902681 0.012326385 0.0028092253 0.0031006152
0003e0 58 db 16 3b 26 95 8c 3a dd 2f f9 bb ed c2 7a ba
       0.0023018923 0.0010725602 -0.0076045827 -0.00095657894
0003f0 9f d4 cc ba 93 bd 12 3c 93 4b 01 3c f1 1b 7c b6
       -0.0015627331 0.008956331 0.007891553 -3.756719e-06
