models/2inst/checkpoint/BDGTCX.pth (torch, 875321 bytes, 12 tensors)

lstm.weight_ih_l0 f4 [512, 5]
00000000: 64a6 b4bc a8cd b73d 08ff 39bd 364a f33c
00000010: 6953 85bd 31a3 213d b13c 0cbd 977e 2f3d
00000020: f2ba 31bd 881a 96bd 50fb acbd 911c 983b
00000030: 7913 24bb c208 a8bd df33 973c 45ed a63d
00000040: 146c 89bd e71c acbc f078 dfbd 284b 8e3c
00000050: 2521 163d 4d7e 233d 2ee1 bcba 36f5 873c
00000060: cb01 193d 306b a63d 7d96 d83d 8ed8 cdbd
00000070: b4a4 9cbd faaa a63d ab7d 6e3d 7815 a03d
00000080: ee5a 923d 33c4 afbc bdcc 93bd 3935 43bd
00000090: 4148 b3bb 24dd e4bc f0fb 2dbc a4ee 613c
000000a0: da0a cebd a4e3 8f3c 1c62 98bc d6d1 9cbc
000000b0: 48f1 e63c e3e6 d13d 3b34 adbd 5c45 a5bd
000000c0: 5b1e 1f3c d7d2 16bc 9bd6 b03d bc61 a33c
000000d0: 5bdc ad3d 1c7d 7abc 5592 9ebc 9214 babd
000000e0: 688a 693d c0f8 dd3d 6589 393d cce1 8f3d
000000f0: f627 a33d 5076 fc3c cec1 8abd f285 5c3d
00000100: 6799 b33d 30e6 f1bd be55 c43d 35e8 cabd
00000110: e7d2 293c a939 5ebd dcad d43c 5eba d0bd
00000120: f68b 863d 9d66 16bd 4cc8 9cbb 1478 913d
00000130: 3c46 6fbd cabb 72bd 9991 9abd cadf aabd
00000140: fc53 acbd d3a1 acbc c081 fa3c d274 68bd
00000150: d853 9bbd 9dd7 8b3d 1acc f83c 7155 633d
00000160: 6dc6 983d 9bd3 aebc 93eb b6bd e695 8ebd
00000170: 05b0 e43b b5da 253c 1ac7 ba3d 1ed9 b8bd
00000180: fcb5 183d c2ef 6c3c a0b9 ce3d 76a3 babd
00000190: 5b92 a13d 1290 da3d 0449 94bd 93fe bebb
000001a0: b89d 12bd 891e 45bd baa2 ddbc e411 c9bd
000001b0: 459b aabd a616 7fbd e145 70bd 186a f23d
000001c0: f6d4 a53c c121 a43d d81d 803d e26b 5f3d
000001d0: 6858 1b3d 1891 d9bd db87 4bbd 065f 123d
000001e0: 90bb e03c 1e6b b53b 0a04 56bb ce69 c43c
000001f0: 1853 b3bd 1be8 94bb 08b3 2dbd 9cd5 a1bd
00000200: 6c29 0a3b 47e3 7a3d b70d 2d3d f541 543c
00000210: ccda 95bb dc62 b23d e7e2 d8bd dd5f ef3d
00000220: 631f 25bd 2836 bb3d 1fa9 54bd a7f7 b1bd
00000230: 36b3 8ebd 9259 66bc 1779 1cbd 3359 cd3d
00000240: c949 96bb 5df8 a2bd e249 a43d 87cb 1bbd
00000250: 685f f23c e46c 823d 5291 03bd a615 88bd
00000260: 3015 83bd 2943 6cbd 61cf bbbc 0dd8 a8bd
00000270: 0142 a43d 1eb9 403d 8eae 3dbd c3ae 70bd
00000280: 1aff 9e3d 2152 83bc 45bf 133d 751a 173d
00000290: 8462 2ebd cf1d 2fbd 64c9 333d a3d1 b13d
000002a0: b6a6 9abd 6dbe 993d a885 ce3c 5e26 713d
000002b0: 7680 223d e21b debd 2f59 32bd b7d4 c43d
000002c0: ebf5 173d 729b 59bd 2d89 76bd d0b9 f43d
000002d0: e2d0 5abd 55d5 cf3d ada1 063d 33e7 683d
000002e0: ecdd 74bd d11c 46bd 7c13 c8bd eba8 1c3d
000002f0: 1698 62bd b70e 883c 693f 43bd bd7c eb3d
00000300: 7238 dbbc 62eb 833d a98d 893d d6cc 953d
00000310: 7209 083d d58e 813d 8a2f bfbb 19a7 ab3d
00000320: ef5d 3abd 99e6 a83d 88c2 a5bd 79e8 d2bc
00000330: 8d19 cf3c a937 b0bc b9cf 83bc 2317 703b
00000340: 0211 a6bc 7e35 be3d 61b9 3f3d e95b e83d
00000350: dc9b 963d 3e3a 18bc df67 cbbd 5824 143d
00000360: 7ae8 95bd dc6d 353d fb10 5b3d 1b03 45bc
00000370: a6e4 983c aa2d 5fbb 807e bd3d 0f30 e33c
00000380: f697 56bd f0ad aabd fe50 d03d 859c 8bbd
00000390: 2862 01bd daad b7bc a94c 83bd fc27 053d
000003a0: a239 d0ba f829 c8bd eee7 8f38 2cf3 c1bd
000003b0: 428e 48bc 9c68 5cbd 6a2f 473b b4a3 e3bc
000003c0: 9bf1 e93d f450 94bd c63d 24bd 7748 333d
000003d0: 1ed4 c13d 761f c63d 9e03 9bbd 5e33 5fbd
000003e0: d384 ac3d dbe2 aebd 0d15 bfbd 25f9 9cbd
000003f0: 2e64 93bd f557 c03d 47c0 2f3d d528 ab3d
-0.022051997 0.08974773 -0.045409232 0.029698472 -0.0651005 0.039462272 -0.034237567 0.042845335
-0.043391176 -0.07329279 -0.084463716 0.0046420773 -0.002503602 -0.082047954 0.018457351 0.08150724
-0.067100674 -0.021009875 -0.10911739 0.017369822 0.036652703 0.03991537 -0.001441037 0.016596418
0.037355226 0.08125913 0.10575578 -0.1005107 -0.07648602 0.0813808 0.058225315 0.07816595
0.0714625 -0.02145586 -0.07216785 -0.04765818 -0.00547126 -0.02793748 -0.010619149 0.0137898065
-0.100606635 0.017564602 -0.01860147 -0.019143026 0.028191224 0.10249116 -0.08457228 -0.0806987
0.009711827 -0.009205542 0.08634683 0.019944064 0.08489295 -0.015288617 -0.019356886 -0.09085955
0.05701676 0.10838461 0.045297045 0.07025489 0.07966606 0.030818135 -0.067752466 0.053838678
0.087694936 -0.11811483 0.095866665 -0.09907571 0.010365224 -0.054254208 0.025961809 -0.10191797
0.06569664 -0.036718953 -0.0047846194 0.07102981 -0.05841659 -0.05926112 -0.07547302 -0.083434656
-0.08414456 -0.021073258 0.030579448 -0.056752034 -0.07584351 0.06828234 0.03037076 0.055501405
0.07459722 -0.021341136 -0.08931651 -0.069621846 0.006978991 0.010122945 0.09120007 -0.09025787
0.03728293 0.01446146 0.10093999 -0.09113209 0.07889243 0.106720105 -0.07240489 -0.0058286875
-0.035794944 -0.048124824 -0.027055133 -0.098178655 -0.083303966 -0.06227746 -0.05866039 0.11836642
0.02024315 0.080142505 0.06255692 0.054546244 0.037926108 -0.106233776 -0.04969011 0.035735153
0.027433187 0.005536451 -0.0032656216 0.023976233 -0.08756083 -0.0045442707 -0.042407066 -0.07902071
0.0021081818 0.061251905 0.042249408 0.0129551785 -0.0045732018 0.08710262 -0.10590153 0.11688206
-0.040313136 0.09141189 -0.0519191 -0.08689814 -0.069677755 -0.014059441 -0.038201418 0.10026779
-0.0045864326 -0.07957528 0.080219045 -0.038035896 0.029586509 0.063684255 -0.03212101 -0.06644754
-0.064005256 -0.057681236 -0.022926034 -0.082443334 0.08020402 0.04705154 -0.046309046 -0.058760416
0.077635005 -0.016030373 0.03607108 0.036890466 -0.04257442 -0.042753037 0.043893233 0.08682563
-0.07551329 0.07507024 0.025210217 0.05887448 0.03967329 -0.10845162 -0.043542083 0.09610885
0.03709976 -0.05312676 -0.060189415 0.119495034 -0.053421862 0.10148112 0.03286903 0.056861114
-0.059781954 -0.048367325 -0.09769341 0.03824703 -0.05532082 0.01660858 -0.047667895 0.11498401
-0.026760314 0.0644138 0.06716473 0.0731446 0.033212133 0.06326071 -0.0058345245 0.08381481
-0.04549974 0.08247108 -0.080937445 -0.025745617 0.025280738 -0.021510916 -0.01609026 0.0036634884
-0.020271782 0.092875466 0.04680765 0.113456555 0.073539466 -0.00929123 -0.09931921 0.036167473
-0.07319732 0.044294223 0.05348299 -0.012024666 0.018663716 -0.0034054318 0.092526436 0.027732877
-0.052391015 -0.08333957 0.10171698 -0.06816963 -0.03158775 -0.022421766 -0.06411106 0.032508835
-0.0015886317 -0.0977363 6.8619716e-05 -0.094702095 -0.012240948 -0.0538107 0.0030393251 -0.02778802
0.11423036 -0.07242003 -0.040097974 0.04377028 0.09464286 0.096739694 -0.07569049 -0.054492347
0.08423772 -0.08539363 -0.09330187 -0.07664708 -0.07196842 0.093917765 0.04290798 0.083573975

lstm.weight_hh_l0 f4 [512, 128]
00000000: f11a b43d c0fd 993d 6576 58bd d21f 23bd
00000010: da92 9b3d f7f6 0dbd 0d1e 94bd d9aa 7f3d
00000020: 0d87 363d af39 9f3d a019 5dbd 33fc c63d
00000030: 4c64 c8bd bfbd b1bd d8f5 773d e5c5 16bd
00000040: b50c 86bd 730a 3b3d 04be 5fbd 116e 03bb
00000050: b807 a5bd 5df2 64bc 5ae3 4d3d 302a 56bc
00000060: c0ef e1bc cf3d d2bd 82c6 303a 666b 653d
00000070: 039e ccbd 6396 ad3d c3a9 8d3d 2739 b6bc
00000080: f998 93bc 012b 933d 369c 823c d717 a8bd
00000090: eef1 873d 55bd 3bbd e94a 1ebd 8d41 2f3d
000000a0: 3fac d4bc 84bd 9dbd d9d4 91bd df51 163c
000000b0: 9b59 9cbd 9aff c3bc 90fa 683c c261 793d
000000c0: a9ad 043d 3860 fbbb 91fe 083d 3e44 acbc
000000d0: 6373 043d 50a7 6fbd 4612 c3bd 60eb cdbd
000000e0: e29c a3ba ec3a af3c 0e12 58bd 8630 c43d
000000f0: 007a 85bc 72b6 b7bd b9a0 bebc b501 3b3d
00000100: 190d 083d a7a9 bfbd 1a19 aa3d 8b14 c63b
00000110: 8e6c 77bd 19fe 11bd df80 b9bd cf0e 83bd
00000120: f52a fb3a 43c4 9dbc afb2 643c 8d02 e1bc
00000130: 277b 2fbd dd64 be3c 8c44 963d 98e7 0abd
00000140: eadc 5dbd 5bea fa3b 9b54 983d 14ad b93d
00000150: 38eb 5abb 9cab 66bd 8d3b b8bd c760 533d
00000160: 5ffe 193d 273c 74bc e71b c5bd f2fe 5f3d
00000170: fe4a 6bbc 8558 bdbd 3002 ce3d 7a65 b73d
00000180: b9b3 a33d ce75 cabd c7fb d13c 6950 89bd
00000190: 5018 ac3d cb96 3e3d 7839 3fbb 9273 933d
000001a0: 4049 94bd 6587 30bc 7274 89bc befe a8bd
000001b0: 6e1e 7f3c fba6 8c3d 21ba 513d 4002 983d
000001c0: 22c7 683d 1c87 523d 8cbf aebd cff3 603d
000001d0: c725 62bd 635c 343c fe0e 84bd 5c0d a63d
000001e0: bac3 c9bc 3766 9bbd f7e0 adbd 476c 89bd
000001f0: c396 d1bd 1ae7 c63d 3e37 fc3c da0e 263d
00000200: 2238 2a3c 6a4d d1bd f4d2 7dbc b48f 2c3d
00000210: 8bbf 06bc 515a 0f3d 803b 9cbd a62f 43bd
00000220: cd1b 92bc a115 5cbd ac51 2abd f1d1 ad3d
00000230: 0a2f c63d ca66 143c 6a5d d2bc 5a3c 8d3d
00000240: fb29 963d e327 2bbd dbd0 223c 39e5 0f3d
00000250: 3f60 453d 5729 39bd 07bf 4a3c 4305 873c
00000260: b5bd 33bd 37f5 a73d b41e 603d a7c1 083d
00000270: f4cb 06bc 877d 463d 456d bdbc 6837 8ebd
00000280: 6af9 c3bd 7301 be3c 5616 283d 5f4b 043c
00000290: 1083 ba3c 2393 36bd 2751 5e3d cc37 82bd
000002a0: 6145 dd3d 97b3 9d3d f742 383d 7322 02bb
000002b0: 6f72 04bd 089b 2bbd de27 93bd c609 513d
000002c0: 0abb a33d 381c 0d3c 34e2 103c 7b5c 2b3d
000002d0: 8316 30bd 6aa8 193c a754 69bd 943a 3a3d
000002e0: 39a3 1e3d 6fa5 2fbc 8c19 2c3d 8dab 473d
000002f0: e092 cc3d 7a2d 1fbc 3f73 8cbd 2ee9 ddbb
00000300: d801 6f3d 05ac 003d c886 a53c a357 a5bd
00000310: 3b24 a6bd 9f44 e03d 383f 733d 9f51 d7bc
00000320: 384f 8cbc 393c 283c c9bb 11bd efa9 14bd
00000330: 29eb 343d 5e58 f1bc 63f8 a0bd 3730 863b
00000340: 390a 953c 9c78 9cbd 8819 c5bd ce15 29bd
00000350: 0763 ac3d adb6 58bd 2207 633d 2d65 5ebd
00000360: a6be cb3d cbd0 8b3c 4f68 c5bd 7ea7 56bb
00000370: 9bdc 803d 6478 d43c b5f4 3c3d 1334 9b3d
00000380: a667 c6bc cab6 f6bb 461e ea3b 6328 a93c
00000390: a604 c23d 5f42 ae3d e3e2 32bd d607 9a3d
000003a0: d835 823c df70 9ebd cd67 e8bc 3c80 55bd
000003b0: 9ba3 03bd 2176 ad3d 60ab d7bd 4ab4 38bd
000003c0: cc9c c23d f731 533d 9709 c13d dc85 843d
000003d0: 72f7 89bd e6ed 80bc e8bd 7bbd 41cf a4bd
000003e0: 2ba2 36bc bd52 413d 0ff1 4dbd 0671 a2bc
000003f0: 769a 35bd 1c61 c6bd 8379 ef3c 609b 26bd
0.08794201 0.07519102 -0.052847285 -0.039825268 0.07596369 -0.034659352 -0.07232294 0.062418792
0.04456239 0.07774674 -0.053979516 0.09716072 -0.09784755 -0.08678769 0.06053719 -0.03680982
-0.065453924 0.045664262 -0.054624572 -0.0020054618 -0.08058113 -0.0139737995 0.050265647 -0.013071582
-0.027580142 -0.10265695 0.0006743447 0.056010626 -0.09991076 0.084759496 0.06917145 -0.02224405
-0.018017279 0.07185937 0.015943628 -0.08207672 0.06637941 -0.045834858 -0.03864566 0.042787123
-0.02596104 -0.07702163 -0.071206756 0.009174793 -0.076342784 -0.023925591 0.014219895 0.060884245
0.032392178 -0.0076713823 0.0334459 -0.021028634 0.032336604 -0.05850917 -0.0952497 -0.1005466
-0.0012482668 0.0213904 -0.052751593 0.095795676 -0.016293526 -0.089703456 -0.023269998 0.045655925
0.033215616 -0.093585305 0.08305569 0.0060449294 -0.06040626 -0.035642717 -0.09057783 -0.06399309
0.0019162582 -0.019258624 0.013958617 -0.027467037 -0.042842057 0.023241455 0.07337293 -0.03391227
-0.05416576 0.007657332 0.07438012 0.09066215 -0.0033404361 -0.056316003 -0.089957334 0.051605966
0.037596103 -0.01490692 -0.096244626 0.054686494 -0.014361141 -0.092453994 0.10059011 0.08954902
0.07993264 -0.09885751 0.025632752 -0.0670479 0.08403075 0.046530526 -0.002917854 0.07199778
-0.07240534 -0.010774468 -0.016779158 -0.08251713 0.01557122 0.068677865 0.051202897 0.07422304
0.056830533 0.05139838 -0.085326284 0.054920014 -0.05521181 0.011008355 -0.06448172 0.08108017
-0.024629463 -0.07587855 -0.08490174 -0.067101054 -0.10233834 0.09712048 0.03078806 0.040541507
0.01038936 -0.10219844 -0.01549219 0.042129233 -0.008224378 0.03499824 -0.07628536 -0.047652863
-0.017835522 -0.053731564 -0.041581795 0.08487309 0.09676941 0.00905771 -0.025679309 0.06896277
0.07332226 -0.041786086 0.00993749 0.035130713 0.04818749 -0.04520544 0.012374646 0.016482001
-0.04388209 0.08201068 0.05471678 0.033387806 -0.008227337 0.048459556 -0.023123393 -0.06944162
-0.09569056 0.02319405 0.041036926 0.0080746105 0.022767574 -0.044573914 0.05427661 -0.06358299
0.108042486 0.0770027 0.044985738 -0.001985696 -0.032335695 -0.041895896 -0.071853384 0.05103471
0.07994659 0.008612685 0.0088429935 0.041836243 -0.04299022 0.009378532 -0.056965496 0.04546602
0.03872988 -0.010720595 0.04201655 0.048747588 0.09988952 -0.009715432 -0.06857919 -0.006772182
0.058351368 0.03141405 0.02020587 -0.08073356 -0.08112379 0.109505884 0.059386462 -0.026284037
-0.017127618 0.010268264 -0.035579477 -0.036294874 0.04416958 -0.029461082 -0.07859876 0.004095103
0.018193351 -0.07640192 -0.0962401 -0.04128056 0.084173255 -0.05290859 0.055426724 -0.054295707
0.09948473 0.017067334 -0.09639036 -0.0032753642 0.06292077 0.025936313 0.04613181 0.07578292
-0.024219345 -0.0075291144 0.007144722 0.02064914 0.09473543 0.08508753 -0.043673407 0.07521026
0.015894815 -0.07736372 -0.028369809 -0.052124247 -0.03213845 0.08469797 -0.10530734 -0.045093812
0.09502563 0.051561322 0.09425657 0.06470844 -0.067366496 -0.015738439 -0.061460406 -0.08047343
-0.011147062 0.047198046 -0.05027872 -0.019829284 -0.04433676 -0.09686491 0.029232746 -0.04067552

lstm.bias_ih_l0 f4 [512]
00000000: 4f64 ecbb 2439 c93c 965d 893b 2858 0a3c
00000010: ed50 7d3c 4b19 723c 0606 783c 65ac 103a
00000020: 7d22 5a3c 3201 573c 7390 d63b f4bb 2d3c
00000030: 883a 033c c7ae 0b3c eabc 273b e65e 343c
00000040: b084 a63b c06d 533b f3b7 323c 352e 7c3c
00000050: 9288 b23b 575b 163c ce1d 353c aea5 eb3a
00000060: b0fe f2ba fb2a 713a 7ae1 313b 8d95 bf3b
00000070: 7887 a93b 035c c73b bfaf 6d3c e12f 2d3c
00000080: 91cf fc3b 5a79 523c 79ca 503c 0981 943c
00000090: 9c57 3f3c 462d e63b 1d75 793c f51d 8c3c
000000a0: e9e0 cf3b 6481 123c 02a3 573c a3a4 8f3b
000000b0: b713 6e3c 9583 083c 641b 5e3c 9ab8 123c
000000c0: b1b6 163c d34e e43b 621b 24ba 4010 a938
000000d0: 6227 663b 0d99 553c 3f62 033c a6ec 213c
000000e0: 40a5 bc3b 0544 1e3b 6865 043b 3f77 d13a
000000f0: 6008 5f3c 68c6 cc3b 4749 823c e79c 9f3b
00000100: 1990 c13a f6f5 523c 042a b93b 4318 143c
00000110: e4fe e63b a319 603c 7483 363c 3676 743c
00000120: d55b 743c 5062 1e3c e138 6c3c 411a be3b
00000130: 53e1 863c db30 583c cf29 fc3b 40f0 ea3b
00000140: 061b 903c ef87 063c 7769 0f3c 1643 563c
00000150: 52f6 0c3c 4a17 403c 63e8 9c3c 5376 dd3b
00000160: 0f24 023b acac 523c 055d 6d3a e581 273c
00000170: 44ad 363c e14c 283c cc9c a63c 6cdd 2a3c
00000180: 0f67 813c 0855 be3b f21f fe3a 4e33 583b
00000190: 8b95 c93b 5b5d ce3b 00b0 c13b 9b5a b53b
000001a0: acce 703c c05b 2d3c 3498 983c 41d1 403c
000001b0: c38a 783b 6641 313c 4031 803b b6ab b33b
000001c0: 7163 0d3c 59a1 133c 92e3 243c 59d5 643c
000001d0: 9c66 743b 574f f33b 84d8 d9ba 47e8 7c3c
000001e0: e7c2 ef3a 6d42 1e3c 28ef 363c 6a60 293c
000001f0: 95f4 113c 4ea4 993c ff58 923c dc02 933b
00000200: 03db 11bc 8435 c93c 5d93 ca3a de6c 183c
00000210: f25b 1d3c 0652 283c 61c2 453c 4ab3 c53a
00000220: 1623 123c 8ed0 613c 2e99 a53a 0706 0a3c
00000230: 9776 513c 96dc c63a 8d38 c23b 0cd5 373c
00000240: 8906 2f3b af68 643b 2a7a 003c 4e12 803c
00000250: 6a2c abba 8436 543b 9988 0f3c 0379 4d3b
00000260: d452 38bb 8d60 bdb9 5a51 813b 8369 993b
00000270: 7ae5 a43b c7f6 363b 94f2 533c 09f1 af3a
00000280: 6507 2c3c 0f56 353c 82ae a43b 4d7a 443c
00000290: e9c8 b73b f317 4b3b a573 063c 6700 3a3c
000002a0: 2304 983a caf7 0f3a ff79 3b3c 59ab 413b
000002b0: f20b 0b3c 6387 953b dac2 3c3c 732b f73b
000002c0: d348 1d3c db84 c63a 9708 47b9 1d68 dc3a
000002d0: 6d8f a63a 2062 553c fab2 dc3b 140c b13b
000002e0: 484d 953b dcb5 833b 71c9 b139 1641 aa39
000002f0: bf77 253c 16ba c43b 250a 4b3c 5e65 08ba
00000300: e467 ab38 2c62 c93b bb13 ff39 63ed a73b
00000310: c0dd 893a 2959 fd3b ccd3 413c e435 ab3b
00000320: cc3d 8b3c ef79 873b 2812 3e3c bbc1 b43b
00000330: f1e6 5d3c 6790 1e3c 0c6f ae3a 5c01 803b
00000340: 3c65 3e3c ba86 b33b 8835 0b3c e96a 9f3b
00000350: 3418 9b3b 278d 643c e302 133c 8972 b03b
00000360: 893e 9a39 d257 f5b7 0eac d7b9 702e bd3b
00000370: a8fc 143c 7843 603b ad81 b13c 787d 083c
00000380: 1a2c 893c 9558 923b c61f db3a 771a f13a
00000390: ddf5 743b 1527 283c 03bf c03b faa4 be39
000003a0: fbf1 603c 1dd9 243c 026f 903c 0f46 e93b
000003b0: d525 303b d7ab 3b3c e85f 32b9 514d 65bb
000003c0: 2d51 093b 866e ff3b 5298 913b 48ea 483c
000003d0: f6c7 023a 2d3d c83b a918 84ba 827d f23b
000003e0: 408b 643a 9a17 ef3b 2ee8 773b e045 2e3c
000003f0: 36a7 043c bbda 2b3c b111 093c 11ff 02ba
-0.007214106 0.02456338 0.0041920645 0.00844387 0.015461189 0.014776538 0.015138155 0.0005518853
0.013313887 0.013122844 0.0065479814 0.010603894 0.00800956 0.008525557 0.002559478 0.011008954
0.0050817356 0.003226146 0.010908115 0.015391876 0.0054484094 0.009177051 0.011054469 0.0017978454
-0.0018539038 0.0009199825 0.002714245 0.0058466853 0.00517362 0.0060839667 0.014507233 0.010570497
0.0077151735 0.012846315 0.012743586 0.018127935 0.011678603 0.00702444 0.015225676 0.017104128
0.00634395 0.008941982 0.013161423 0.00438364 0.014531068 0.008332153 0.013556335 0.008955145
0.00919883 0.0069674044 -0.0006260184 8.061575e-05 0.0035118689 0.013036978 0.008019029 0.009883082
0.005757004 0.002414943 0.0020202044 0.0015980973 0.013612837 0.006249238 0.015904082 0.004870999
0.0014767676 0.0128760245 0.0056507606 0.009038988 0.0070494283 0.013677987 0.011139739 0.014920762
0.014914473 0.009666994 0.014417858 0.0058014696 0.016464865 0.013195242 0.0076954137 0.0071697533
0.01759101 0.00821112 0.008753172 0.013077518 0.008603649 0.011724303 0.01915378 0.00675849
0.0019857918 0.012858551 0.00090546935 0.01022384 0.011149708 0.010272236 0.020338438 0.010428768
0.015796212 0.0058084764 0.0019388183 0.0032989564 0.00615186 0.00629775 0.0059108734 0.0055344827
0.014697712 0.010580957 0.018627264 0.01176864 0.0037924505 0.010818815 0.003912121 0.005483116
0.008629666 0.009010636 0.010064023 0.013966882 0.0037292605 0.0074252295 -0.0016620313 0.015436239
0.0018292338 0.009659392 0.011165418 0.010337928 0.008908411 0.018755104 0.017864702 0.004486425
-0.008902314 0.024561651 0.0015455295 0.0093033 0.009604441 0.010273462 0.012070269 0.001508334
0.008919498 0.0137826335 0.0012634152 0.008424289 0.012784622 0.0015171941 0.0059271515 0.011220228
0.0026706776 0.0034852435 0.007841626 0.015633728 -0.0013059501 0.0032381127 0.008760595 0.0031352646
-0.0028125541 -0.00036120825 0.0039464654 0.0046817674 0.0050322386 0.0027918087 0.012936253 0.0013423275
0.01049981 0.011067881 0.0050256858 0.011992049 0.005608667 0.0030989617 0.008206283 0.011352635
0.0011597913 0.00054919405 0.01144266 0.0029551594 0.008486735 0.0045632585 0.011521066 0.0075430213
0.009599882 0.0015145795 -0.00018981319 0.0016815696 0.0012707539 0.013023883 0.006735203 0.005403051
0.004556332 0.004019482 0.00033910156 0.0003247342 0.0100993505 0.0060036285 0.012392555 -0.0005203093
8.1732665e-05 0.006145736 0.0004865209 0.0051247342 0.0010518357 0.007731576 0.0118302815 0.00522493
0.01699724 0.0041344087 0.0116010085 0.0055162585 0.01354383 0.009677983 0.0013308241 0.003906412
0.011620816 0.005478707 0.00849665 0.0048650396 0.00473311 0.013949669 0.008972856 0.0053847474
0.0002941976 -2.924717e-05 -0.00041136186 0.005773358 0.009093441 0.0034219902 0.02166828 0.008330695
0.016744662 0.004466126 0.0016717843 0.0018394728 0.0037377991 0.010263224 0.0058821454 0.0003636254
0.013729568 0.010061529 0.017631058 0.0071189473 0.0026878018 0.011454544 -0.0001701113 -0.003498871
0.0020952926 0.007795158 0.004443207 0.012262888 0.0004988903 0.0061108083 -0.001007815 0.0074002156
0.00087182596 0.0072965147 0.00378276 0.010636777 0.008096507 0.010489161 0.008366034 -0.00049971143

lstm.bias_hh_l0 f4 [512]
00000000: 4f64 ecbb 2439 c93c 965d 893b 2858 0a3c
00000010: ed50 7d3c 4b19 723c 0606 783c 65ac 103a
00000020: 7d22 5a3c 3201 573c 7390 d63b f4bb 2d3c
00000030: 883a 033c c7ae 0b3c eabc 273b e65e 343c
00000040: b084 a63b c06d 533b f3b7 323c 352e 7c3c
00000050: 9288 b23b 575b 163c ce1d 353c aea5 eb3a
00000060: b0fe f2ba fb2a 713a 7ae1 313b 8d95 bf3b
00000070: 7887 a93b 035c c73b bfaf 6d3c e12f 2d3c
00000080: 91cf fc3b 5a79 523c 79ca 503c 0981 943c
00000090: 9c57 3f3c 462d e63b 1d75 793c f51d 8c3c
000000a0: e9e0 cf3b 6481 123c 02a3 573c a3a4 8f3b
000000b0: b713 6e3c 9583 083c 641b 5e3c 9ab8 123c
000000c0: b1b6 163c d34e e43b 621b 24ba 4010 a938
000000d0: 6227 663b 0d99 553c 3f62 033c a6ec 213c
000000e0: 40a5 bc3b 0544 1e3b 6865 043b 3f77 d13a
000000f0: 6008 5f3c 68c6 cc3b 4749 823c e79c 9f3b
00000100: 1990 c13a f6f5 523c 042a b93b 4318 143c
00000110: e4fe e63b a319 603c 7483 363c 3676 743c
00000120: d55b 743c 5062 1e3c e138 6c3c 411a be3b
00000130: 53e1 863c db30 583c cf29 fc3b 40f0 ea3b
00000140: 061b 903c ef87 063c 7769 0f3c 1643 563c
00000150: 52f6 0c3c 4a17 403c 63e8 9c3c 5376 dd3b
00000160: 0f24 023b acac 523c 055d 6d3a e581 273c
00000170: 44ad 363c e14c 283c cc9c a63c 6cdd 2a3c
00000180: 0f67 813c 0855 be3b f21f fe3a 4e33 583b
00000190: 8b95 c93b 5b5d ce3b 00b0 c13b 9b5a b53b
000001a0: acce 703c c05b 2d3c 3498 983c 41d1 403c
000001b0: c38a 783b 6641 313c 4031 803b b6ab b33b
000001c0: 7163 0d3c 59a1 133c 92e3 243c 59d5 643c
000001d0: 9c66 743b 574f f33b 84d8 d9ba 47e8 7c3c
000001e0: e7c2 ef3a 6d42 1e3c 28ef 363c 6a60 293c
000001f0: 95f4 113c 4ea4 993c ff58 923c dc02 933b
00000200: 03db 11bc 8435 c93c 5d93 ca3a de6c 183c
00000210: f25b 1d3c 0652 283c 61c2 453c 4ab3 c53a
00000220: 1623 123c 8ed0 613c 2e99 a53a 0706 0a3c
00000230: 9776 513c 96dc c63a 8d38 c23b 0cd5 373c
00000240: 8906 2f3b af68 643b 2a7a 003c 4e12 803c
00000250: 6a2c abba 8436 543b 9988 0f3c 0379 4d3b
00000260: d452 38bb 8d60 bdb9 5a51 813b 8369 993b
00000270: 7ae5 a43b c7f6 363b 94f2 533c 09f1 af3a
00000280: 6507 2c3c 0f56 353c 82ae a43b 4d7a 443c
00000290: e9c8 b73b f317 4b3b a573 063c 6700 3a3c
000002a0: 2304 983a caf7 0f3a ff79 3b3c 59ab 413b
000002b0: f20b 0b3c 6387 953b dac2 3c3c 732b f73b
000002c0: d348 1d3c db84 c63a 9708 47b9 1d68 dc3a
000002d0: 6d8f a63a 2062 553c fab2 dc3b 140c b13b
000002e0: 484d 953b dcb5 833b 71c9 b139 1641 aa39
000002f0: bf77 253c 16ba c43b 250a 4b3c 5e65 08ba
00000300: e467 ab38 2c62 c93b bb13 ff39 63ed a73b
00000310: c0dd 893a 2959 fd3b ccd3 413c e435 ab3b
00000320: cc3d 8b3c ef79 873b 2812 3e3c bbc1 b43b
00000330: f1e6 5d3c 6790 1e3c 0c6f ae3a 5c01 803b
00000340: 3c65 3e3c ba86 b33b 8835 0b3c e96a 9f3b
00000350: 3418 9b3b 278d 643c e302 133c 8972 b03b
00000360: 893e 9a39 d257 f5b7 0eac d7b9 702e bd3b
00000370: a8fc 143c 7843 603b ad81 b13c 787d 083c
00000380: 1a2c 893c 9558 923b c61f db3a 771a f13a
00000390: ddf5 743b 1527 283c 03bf c03b faa4 be39
000003a0: fbf1 603c 1dd9 243c 026f 903c 0f46 e93b
000003b0: d525 303b d7ab 3b3c e85f 32b9 514d 65bb
000003c0: 2d51 093b 866e ff3b 5298 913b 48ea 483c
000003d0: f6c7 023a 2d3d c83b a918 84ba 827d f23b
000003e0: 408b 643a 9a17 ef3b 2ee8 773b e045 2e3c
000003f0: 36a7 043c bbda 2b3c b111 093c 11ff 02ba
-0.007214106 0.02456338 0.0041920645 0.00844387 0.015461189 0.014776538 0.015138155 0.0005518853
0.013313887 0.013122844 0.0065479814 0.010603894 0.00800956 0.008525557 0.002559478 0.011008954
0.0050817356 0.003226146 0.010908115 0.015391876 0.0054484094 0.009177051 0.011054469 0.0017978454
-0.0018539038 0.0009199825 0.002714245 0.0058466853 0.00517362 0.0060839667 0.014507233 0.010570497
0.0077151735 0.012846315 0.012743586 0.018127935 0.011678603 0.00702444 0.015225676 0.017104128
0.00634395 0.008941982 0.013161423 0.00438364 0.014531068 0.008332153 0.013556335 0.008955145
0.00919883 0.0069674044 -0.0006260184 8.061575e-05 0.0035118689 0.013036978 0.008019029 0.009883082
0.005757004 0.002414943 0.0020202044 0.0015980973 0.013612837 0.006249238 0.015904082 0.004870999
0.0014767676 0.0128760245 0.0056507606 0.009038988 0.0070494283 0.013677987 0.011139739 0.014920762
0.014914473 0.009666994 0.014417858 0.0058014696 0.016464865 0.013195242 0.0076954137 0.0071697533
0.01759101 0.00821112 0.008753172 0.013077518 0.008603649 0.011724303 0.01915378 0.00675849
0.0019857918 0.012858551 0.00090546935 0.01022384 0.011149708 0.010272236 0.020338438 0.010428768
0.015796212 0.0058084764 0.0019388183 0.0032989564 0.00615186 0.00629775 0.0059108734 0.0055344827
0.014697712 0.010580957 0.018627264 0.01176864 0.0037924505 0.010818815 0.003912121 0.005483116
0.008629666 0.009010636 0.010064023 0.013966882 0.0037292605 0.0074252295 -0.0016620313 0.015436239
0.0018292338 0.009659392 0.011165418 0.010337928 0.008908411 0.018755104 0.017864702 0.004486425
-0.008902314 0.024561651 0.0015455295 0.0093033 0.009604441 0.010273462 0.012070269 0.001508334
0.008919498 0.0137826335 0.0012634152 0.008424289 0.012784622 0.0015171941 0.0059271515 0.011220228
0.0026706776 0.0034852435 0.007841626 0.015633728 -0.0013059501 0.0032381127 0.008760595 0.0031352646
-0.0028125541 -0.00036120825 0.0039464654 0.0046817674 0.0050322386 0.0027918087 0.012936253 0.0013423275
0.01049981 0.011067881 0.0050256858 0.011992049 0.005608667 0.0030989617 0.008206283 0.011352635
0.0011597913 0.00054919405 0.01144266 0.0029551594 0.008486735 0.0045632585 0.011521066 0.0075430213
0.009599882 0.0015145795 -0.00018981319 0.0016815696 0.0012707539 0.013023883 0.006735203 0.005403051
0.004556332 0.004019482 0.00033910156 0.0003247342 0.0100993505 0.0060036285 0.012392555 -0.0005203093
8.1732665e-05 0.006145736 0.0004865209 0.0051247342 0.0010518357 0.007731576 0.0118302815 0.00522493
0.01699724 0.0041344087 0.0116010085 0.0055162585 0.01354383 0.009677983 0.0013308241 0.003906412
0.011620816 0.005478707 0.00849665 0.0048650396 0.00473311 0.013949669 0.008972856 0.0053847474
0.0002941976 -2.924717e-05 -0.00041136186 0.005773358 0.009093441 0.0034219902 0.02166828 0.008330695
0.016744662 0.004466126 0.0016717843 0.0018394728 0.0037377991 0.010263224 0.0058821454 0.0003636254
0.013729568 0.010061529 0.017631058 0.0071189473 0.0026878018 0.011454544 -0.0001701113 -0.003498871
0.0020952926 0.007795158 0.004443207 0.012262888 0.0004988903 0.0061108083 -0.001007815 0.0074002156
0.00087182596 0.0072965147 0.00378276 0.010636777 0.008096507 0.010489161 0.008366034 -0.00049971143

lstm.weight_ih_l1 f4 [512, 128]
00000000: 6e78 b0bd 646b f83c 916d 223d e6cb 0abd
00000010: f777 2bbc 516a 4b3d 74e7 d43c aaba 25bd
00000020: a910 033d f06b 4ebc 82b9 0f3d 33d8 a63d
00000030: ab66 e5bc e8c3 973d 79a3 c5bd c6c8 9fbc
00000040: 9852 5b3d 50c3 9b3d eed0 91bd 656d 2e3d
00000050: 6d31 483d da99 33bd 53ee 8c3d 0310 283d
00000060: 3261 113b 0a54 953b 14e1 843c fa83 873d
00000070: fb93 a63b 9db6 99bd 160e 0f3d 0530 303d
00000080: 7df8 e93c 2330 9fbd 6910 aabd 47c1 75bd
00000090: 821e 97bd 9773 7d3d f029 babd e9f3 3f3c
000000a0: 4ca3 99bd 9298 9e3c caa5 d4bc 6a2b 78bd
000000b0: 32f0 a93d 2b26 a63d 896b 4c3d 85c7 293a
000000c0: 6cea df3d b1ce dbbc b286 52bd cd45 683d
000000d0: ff85 b8bc a89b c23d 1c3e 8d3d 3eab 92bd
000000e0: 4e12 21bd b989 8f3d 8f10 c73d 41a2 353c
000000f0: e233 d5bc 7b54 bdbb 4d1e 163d bc94 6abd
00000100: d639 803d 3802 ffba 108a 313d b658 82bd
00000110: e8f1 50bd c486 2ebd d687 08bb 1eea d83b
00000120: 7220 933d 76a7 703d 78d8 48bd fcff 5bbd
00000130: adc0 92bd 4f72 d63c faaa 9ebd 6436 72ba
00000140: 57fd a23d 8908 aebb 3a92 50bd ea0d d83b
00000150: 39bd 25bd 4e52 bb3d deea 9bbd 2bb6 51b9
00000160: e551 dcbb bf4a aebc 12e4 1e3d 56fa f9bc
00000170: d8e2 a4bc 6544 c23d 51d8 08bd 97b2 a5bd
00000180: a9da fc3b fe07 ab3d 5275 bf3d 2ecc a7bc
00000190: 7b22 983b 58ef 6d3c f082 00bd 4b4d 013d
000001a0: 0ca6 df3c cce1 463d fd7a 50bb 2d39 653c
000001b0: 5e97 253d dd95 db3a d43d 983d b274 8cbd
000001c0: ecfa b4bd cc6d f93c aed5 dcbc f936 a23d
000001d0: bb94 a63d 47e3 393d 1f3f cd3b 50e4 ffbb
000001e0: 9bc9 923d a756 64bd 6447 023d b452 aa3d
000001f0: a25e bb39 66e2 ad3d 2957 4f3c b099 7e3d
00000200: be2f 91bd bc5d 92bd bade babc a75d 3a3d
00000210: 262c 55bd d0e7 c93c 1e64 c13d 107c 87bd
00000220: ef07 0d3d 3594 a43b f16c 803d 9901 bbbd
00000230: 61c0 11bb 23c8 603d c3d2 ee3c 0646 28bc
00000240: 86ee 0bbc 163b f53c f14b 003d 24d6 2e3d
00000250: cd42 723c e3c4 1f3c a15e 02bd 4133 093d
00000260: 407f f73c 7690 833d e2eb 16bc e253 c9bd
00000270: 5fe1 c93c cd24 0b3d cb23 9f3d 3132 93bd
00000280: d781 8d3d f565 b7bc 6ced a1bd f027 dc3c
00000290: 4b2e bb3d 5969 bfbd 295e 86bd a901 aa3d
000002a0: a0fa a3bd 2d58 4ebd 7a4f e8bc 2967 233d
000002b0: cd81 3ebd a7db d13c 67e6 abbd 9b88 22bc
000002c0: ddd9 b73c 5c77 15bd 9b41 51bd 5ced 783c
000002d0: 09ef b63d d4c1 28bc 683d 4f3d 96b9 a2bc
000002e0: fcdc 2dbd 2c5b 99bc 909a 523b efd5 9fbd
000002f0: 625c 7c3b e80b 56bd 6266 e83c b3d6 57bd
00000300: 15ce c33d f952 2c3d 964d 2fbd 32a1 9e3d
00000310: 93e2 b1bc ec4e aabd ae48 46bc d5fe 8d3d
00000320: c2d4 b63d fd28 53bd 2870 c8bc ff8a 74bc
00000330: 0e8b 913d ec58 743d 9833 97bd 66e2 8b3d
00000340: 64e5 943d 8a27 893c b306 a9bd 4b1e 62bd
00000350: 4983 8f3c 1d1d 503c fccb b73d f18f 92bc
00000360: 4072 843d 284a 4a3d b569 d23c 5b81 d83c
00000370: 6741 b2bc 5be6 533c 0c99 253d 6a93 69bc
00000380: c426 ea3c 23dc d83c 656b cc3d 9c7e 173d
00000390: d37c 793d e66a 653a be01 94bd c09a 7c3d
000003a0: ff84 01bc 070a 103d 52e6 eb3c 7386 f3bc
000003b0: 7e3d 4fbd 38b7 503d 0874 00bd 5f76 973c
000003c0: ebaa ca3c ef32 2ebc 6c7b 483c 6e47 59bc
000003d0: 1dc2 8a3d 3fe8 babd bdff 683d 70b5 5f3b
000003e0: 9423 19bd 09d0 6e3d 1ceb 83bc 1d72 543d
000003f0: ac5a 65bd ef13 1f3c 19f3 d53c f4fa 023d
-0.0861672 0.030324645 0.039655272 -0.03388586 -0.010465614 0.049661938 0.025989272 -0.04046122
0.03199831 -0.0125989765 0.035089023 0.081467055 -0.028003057 0.07410413 -0.096503206 -0.019504916
0.053545564 0.07605612 -0.07119928 0.042584796 0.04887526 -0.043847896 0.06881394 0.041030895
0.0022183177 0.0045571374 0.016220607 0.066169694 0.0050835586 -0.07505534 0.034925543 0.043014545
0.028560871 -0.07772853 -0.08303911 -0.059998777 -0.07378866 0.061877813 -0.0909003 0.011715868
-0.075018495 0.01935986 -0.02595796 -0.060588278 0.08297767 0.08112749 0.04990724 0.0006476569
0.10933384 -0.026831957 -0.051397987 0.056707192 -0.022524832 0.09502345 0.06896612 -0.07161568
-0.039324097 0.070086904 0.09719955 0.011086048 -0.026025716 -0.005777893 0.03664999 -0.05727075
0.06261031 -0.0019455617 0.043344557 -0.063645765 -0.05101195 -0.04260899 -0.0020832918 0.006619706
0.07183923 0.058753453 -0.049034566 -0.053710923 -0.07165656 0.026177553 -0.07747455 -0.0009239672
0.07958477 -0.005311076 -0.050920703 0.0065934556 -0.04046366 0.09146558 -0.07613157 -0.00019999656
-0.00672363 -0.021275876 0.038791724 -0.030514877 -0.020127699 0.094857015 -0.03340942 -0.08090704
0.007716496 0.08351134 0.09348549 -0.020483103 0.0046427823 0.014522396 -0.03137487 0.031567853
0.027300857 0.04855518 -0.0031811588 0.013990683 0.040427558 0.0016753037 0.07433668 -0.06858195
-0.08836922 0.030447863 -0.02695736 0.079206415 0.08133837 0.045382764 0.006263628 -0.0078091994
0.071673594 -0.0557467 0.031806365 0.083165556 0.00035737926 0.08490448 0.012655058 0.062158287
-0.07089184 -0.07146785 -0.022811282 0.04549947 -0.052044056 0.02464667 0.09442924 -0.0661546
0.034431394 0.0050225505 0.06270779 -0.09131164 -0.002223991 0.054878365 0.029153233 -0.010270601
-0.008540755 0.029935401 0.031322423 0.04268469 0.014786434 0.009751531 -0.031828526 0.033496145
0.030212045 0.06424038 -0.009211512 -0.098304525 0.024643598 0.033970643 0.07770499 -0.071873076
0.069095306 -0.022387484 -0.07906613 0.026874512 0.09139689 -0.09346265 -0.065609284 0.08301098
-0.08006787 -0.05037706 -0.02835821 0.039893303 -0.046510506 0.025617434 -0.08393555 -0.009920265
0.022442752 -0.036490783 -0.051087957 0.01519331 0.08932311 -0.0103001185 0.05059567 -0.019863885
-0.042447075 -0.018720232 0.0032135583 -0.078044765 0.0038507213 -0.05225745 0.028369132 -0.052694988
0.095607914 0.042071316 -0.0427986 0.07745589 -0.021714484 -0.083158344 -0.012102289 0.06933371
0.08927299 -0.05155276 -0.024467543 -0.014925717 0.07106601 0.059655115 -0.073828876 0.068302915
0.07270315 0.016742487 -0.08253231 -0.05520467 0.017518656 0.012702254 0.08974454 -0.017890902
0.06467104 0.049387127 0.02568517 0.026428869 -0.021759702 0.012933339 0.04042916 -0.014256338
0.028582938 0.026472157 0.099814214 0.03698598 0.060910057 0.0008751586 -0.07226895 0.06167102
-0.007905244 0.035165813 0.028796349 -0.029727196 -0.050595753 0.05095598 -0.031360656 0.01848906
0.024739703 -0.010632261 0.012236457 -0.013261659 0.067753054 -0.09126329 0.056884516 0.0034135245
-0.037387446 0.058303867 -0.01610332 0.05186664 -0.055994675 0.009709342 0.026116895 0.03197761

lstm.weight_hh_l1 f4 [512, 128]
00000000: abef e63b 58f8 893d b0b9 8b3d 32c7 893d
00000010: 2447 71bd 5d7c 64bb 2b26 48bd 9275 9abd
00000020: 5c5b 893d a3e9 8abd 9ab1 8d3c 2e62 10bd
00000030: d8a2 b53d 075e 843d 9cae 713c 3b3d 7ebd
00000040: 87eb cabc 827e aebd bbf6 b6bc 2894 843c
00000050: 3024 cebc 780e 08bc 82c3 c9bc 390e 40bd
00000060: 2fad 313d 27b8 dcbd 482f 373d d82d 57bd
00000070: 60bc 7f3c 6d89 813d 2549 0fbc ac0f 8cbd
00000080: eb6a 153d f5fc 833d ea0f 513d 861d 66bd
00000090: e67c fe3a e8da eebc 458d e1bd d4c2 41bd
000000a0: 195a bcbd 77b3 35bd bc59 8abd 4508 4fbd
000000b0: 6518 883d 6d2e 11bd 683d babd 2084 52bd
000000c0: f04d 34bd 58e6 92bc 49f0 1b3d 3d51 9a3c
000000d0: 2931 283d 8666 ba3d 255a ffbc 8302 4f3d
000000e0: 8841 bdbc 6d23 a13d 8f57 a2bc 70c5 4dbd
000000f0: df62 2abd 4a63 d63d c671 883c fffc a13d
00000100: 24cc d1bc d4fb 9a3d d2b5 ae3c d085 563d
00000110: ea41 8bbd a801 99bd 3c96 0c3d 5a8a 693d
00000120: 9379 113c 1b88 0cbc 6c79 72bd 2077 813d
00000130: 89e4 783d 5b2f a43c 4fe1 3d3d 81a8 84bd
00000140: 6df9 82bd b01e 98bd 08c9 a4bc 094e af3d
00000150: 3486 80bd d88d 343b e846 283d 08a0 953d
00000160: d414 e8bc abce 84bd a156 913c fe4b b0bd
00000170: 420d 463d 94ff 903d 2b2d 16bd b9f1 87bd
00000180: d32b 63bd 7250 a13d c362 b43d 226c 52bd
00000190: ce64 733d 18c5 41bd f04f b1bc 8481 47bd
000001a0: 9b43 9fbd e6bc 233d 6629 603d 8818 cb3d
000001b0: 8bbe ae3d e066 b73d 7eef 013d 8da5 74bd
000001c0: c611 7dbd 08c4 903d 8134 93bb 5ad6 b7bd
000001d0: f9cf 933b 1b35 4ebd dfec 98bc d0fc eebb
000001e0: f08d d5bc 9a60 36bc b4cf c33d 5f77 b7bd
000001f0: 3379 e03c b151 c43d c59c 863d e3a4 bcbd
00000200: 0cf6 83bd 6bde 86bc bab8 52bc 5846 1abc
00000210: 7aa3 c9bc 38cb 87bd 8c29 1dbd acdd 263c
00000220: 0b47 673d dc17 b23d b591 c93d aa44 24bd
00000230: c8b4 713d 5dcf 1fbd 84bb 593c 44f4 b43d
00000240: 442f 1b3d 0933 a63d 114d 503d 4536 93bc
00000250: fdbd a33d 2d52 a0b9 e6df 5a3d e5c3 87bd
00000260: bff2 cd3b 2592 87bd 5017 4dbc 2177 b83d
00000270: d72a 7b3d d780 293d b40f b3bd 9ea7 b3bd
00000280: 7260 a7bd b9ab 71bd a9c8 053d 2de2 e33c
00000290: 8cff c03d 3d06 463d cbf1 c7bd ea2c 8cbd
000002a0: 2175 9b3d 22d0 26bd 5624 2fbd fd17 e3bc
000002b0: 4e94 913d 6afe 923d 10af 5ebd 8601 d1bc
000002c0: 3bf0 d53c c34f 873c abbd 8d3d 9887 543d
000002d0: 98d3 a6ba 2a69 cebc 4913 8bbb 0630 77bd
000002e0: 1ad6 3ebb 2dce 023d 6efd 2c3d 4521 b03d
000002f0: 8877 9b3d f35b 683d 8b81 ad3d e03d 35bd
00000300: 5b16 efbb 109f ff3c 9dc0 a43d a608 2cbd
00000310: d832 ad3d 21f3 613d ff77 ef3c 732d 4ebd
00000320: b4cd ca3d b5e9 23bd b40a 4bbd 7502 a7bd
00000330: b43c a2bd 0076 7dbc 1452 8b3b 3f0e c03d
00000340: b4d9 9abd 5433 02bd 27b5 2f3d 6366 9dbd
00000350: 3bf7 213d 1abf 8f3c 1e25 243d 862c 643d
00000360: 9ed0 81bc eedc 9fbb 7212 aebb 5555 98bc
00000370: aacd 003d 93b1 503d e39c 2d3c 2e32 61bd
00000380: f06b b43d cd3c 143d e5c9 4dbd b630 b83c
00000390: b25b 893d 554a 583d b0ae e43a a552 273d
000003a0: e9b7 ca3c b6d8 7cbc d2d8 0e3d 983d 0b3b
000003b0: 8b17 bdbd b2ee 88bd 99c1 5cbd 49e1 813d
000003c0: 6e68 bf3d 7bda 23bd 776c 87bd b738 b4bd
000003d0: 2b59 14bd 2046 413d 585e 91bd dba5 153d
000003e0: ccf5 f03c 743d e93c 22bb cdbc c3a6 99bd
000003f0: 6598 9c3d fa61 0e3d febd b3bd 6d1d a8bc
0.0070476136 0.06736821 0.068225265 0.067274466 -0.058905736 -0.0034864165 -0.048864525 -0.07541956
0.067068785 -0.06782844 0.017296601 -0.03524988 0.088689506 0.06463247 0.014751103 -0.062070113
-0.024770511 -0.08520223 -0.022334447 0.016183928 -0.02516374 -0.008304231 -0.024629358 -0.046888564
0.04337805 -0.10777312 0.044722825 -0.052533954 0.015608877 0.0632504 -0.008745466 -0.06838927
0.036478918 0.06444732 0.051040567 -0.0561805 0.0019415885 -0.029157117 -0.11013273 -0.047304943
-0.09196872 -0.044360604 -0.06755397 -0.050544996 0.06645278 -0.035444666 -0.090937436 -0.051395535
-0.04401964 -0.017932102 0.03807095 0.018837566 0.041062508 0.09101586 -0.031170914 0.050539505
-0.023102537 0.07868085 -0.019817142 -0.05023712 -0.041598197 0.10468157 0.016655814 0.07909583
-0.025610037 0.07567564 0.021326933 0.052373707 -0.067996815 -0.07471019 0.034322962 0.057016708
0.008879083 -0.008577372 -0.05919783 0.063215494 0.060764823 0.020042112 0.04635745 -0.06477452
-0.063952304 -0.07427728 -0.02011539 0.08559806 -0.06275597 0.0027550366 0.041083246 0.07305914
-0.028330244 -0.06484731 0.017741503 -0.08608244 0.048352487 0.07079998 -0.03666417 -0.06637902
-0.055461716 0.07876672 0.088079 -0.051372655 0.059422307 -0.047307104 -0.021644562 -0.0487075
-0.077765666 0.03997507 0.05472698 0.09916788 0.08532437 0.08955169 0.03172254 -0.059728194
-0.06178453 0.0706864 -0.004492343 -0.08976431 0.0045108763 -0.050343614 -0.018667636 -0.007293321
-0.026068658 -0.01113143 0.095611006 -0.08958315 0.027401542 0.09585894 0.0657287 -0.09211137
-0.06443414 -0.016463479 -0.012861425 -0.009416185 -0.024614085 -0.06630558 -0.0383697 0.010184687
0.056464236 0.08695957 0.098422445 -0.040104546 0.059010297 -0.039016116 0.013289336 0.088356525
0.037886873 0.08115203 0.050854746 -0.017970214 0.07995222 -0.00030578804 0.053436182 -0.06629161
0.006285041 -0.06619672 -0.012517765 0.09007097 0.061320152 0.041382637 -0.087432295 -0.08772205
-0.08172692 -0.059001658 0.032662068 0.02781781 0.09423742 0.048345793 -0.09762915 -0.06844504
0.075907 -0.040725835 -0.042759262 -0.0277214 0.07108365 0.07177432 -0.05436617 -0.025513422
0.026115527 0.016517526 0.06920942 0.051887125 -0.0012727855 -0.02519663 -0.0042442423 -0.060348533
-0.0029119314 0.031934906 0.042233877 0.08600096 0.07591158 0.056728315 0.08471974 -0.04424846
-0.007296366 0.031203777 0.080445506 -0.042000435 0.08456963 0.055163506 0.029232023 -0.050336313
0.09902516 -0.040017802 -0.049570754 -0.081547655 -0.079217345 -0.015470028 0.004251728 0.09377717
-0.07561055 -0.03178723 0.04289737 -0.07685544 0.039542418 0.017547179 0.04007446 0.055706523
-0.015846547 -0.004878632 -0.0053122574 -0.018595377 0.031446137 0.050950598 0.010596487 -0.054979496
0.0880965 0.036190797 -0.05024137 0.022484165 0.067069426 0.052805264 0.001744708 0.0408503
0.024745898 -0.015432527 0.034874745 0.002124643 -0.09233006 -0.066861525 -0.053895567 0.06341798
0.0934609 -0.04000328 -0.06612485 -0.0879988 -0.03621785 0.047186017 -0.07098073 0.036535125
0.02941408 0.028471686 -0.025113646 -0.075025104 0.076462545 0.034761406 -0.087764725 -0.020521844

lstm.bias_ih_l1 f4 [512]
00000000: 9ba3 843c 0ef7 283c 59ed 9d3b dd39 6d3b
00000010: 62df aa3c 2637 d03b 84aa 4d3c b57c 9f3c
00000020: cb05 f63b b1c1 70bb a1f2 7d3c e10a 2e3c
00000030: 21b9 973c 181a da3b d35e f43b bce2 2ab9
00000040: 2fef 1e3c 122e 353c c6c8 6c3c 0200 bc3b
00000050: eb7c 7a3b 90f6 bd3b ff4f 813c 3e03 8f3b
00000060: bf3f 78ba 2a46 af3b cdcf b23b a993 6c3c
00000070: 57e1 ce3b 3e47 683c b0bf 043b 3625 023c
00000080: fe7a 90b9 cd72 5b3c 5b26 113c bfcf b23b
00000090: 0634 6b3a 2f2d c83b 8427 0a3c e80c de3b
000000a0: 9889 903b e626 343c 4ac9 a7b9 7140 533c
000000b0: f52a 3e3c 22d7 ab3c a33d 7f3c f618 093c
000000c0: 7f88 6fba 336f f63b 9aaf 7a3b 9aa7 173a
000000d0: 7b45 1a3c e571 ef3b 9f77 063c d325 7b3c
000000e0: 1ec6 303c 4b9d 913b 45b0 793c 83d9 e039
000000f0: fad6 1c3c f659 833c 36a6 b7ba f05a c83b
00000100: 575b 313b f881 013c c00c 443c 260e 993b
00000110: 073d bc3b e8b5 103b 58a2 9b3b c019 803b
00000120: b05c b43b 7ab9 c33b 98ff 293c 751b 3b3c
00000130: 415f 073c 670e 513c bd9d 1dbb 477d 873a
00000140: dbda 5f3c 0118 153c 916b 743b a07c ee3b
00000150: 8682 0f3c 68a0 813c f4e6 123b 4009 af3b
00000160: 2300 6f3c 4874 38bb 214c fe3b 9c2f 3b3b
00000170: 957b fb3b 46ed 963b 2041 d43b ad7c 4b3c
00000180: 3ee8 3a3c 1c3d 003c 6160 993c 97d4 da3b
00000190: 3f2b 1c3b e4c5 af3b c904 803b bb36 033c
000001a0: 9a88 743c 3d94 253c 764d 073b ae28 d63b
000001b0: 8050 fa3b 1acf 5a3c 3f4f 233c 073b 203c
000001c0: 346b 003b 7a88 023c 9487 a3b9 8bb9 243c
000001d0: fde1 bc3b a478 993a ab39 333c 4290 843c
000001e0: ad3e 213c 65cf 433b 7e24 143c 4e9e 043b
000001f0: c77a 2c3c 4304 fd3b abba ec3b 07de 013c
00000200: 6db7 533c e6e3 b03b 8a1a a839 b7ec c8ba
00000210: 37ae 603c a3af a03b 9902 363a c6ce 823c
00000220: 5bc2 ce3b dbd6 88bb 2a60 653c c5bd 8b3b
00000230: 37ad 803c 8d28 b43b 6af1 693b 6f61 6ebb
00000240: 8003 de3b 0895 d53b ac3d 3c3c 7ab0 6f3b
00000250: e197 b33a 8d33 f13a b47b cd3b 1ac3 ad3a
00000260: 9c66 28bb 8b31 b93b 236c 6ebb d172 513c
00000270: 531d a53b 88bc 5f3c ae37 353b 55cb b8ba
00000280: a77c d0ba 2dc2 233c 65e2 e53b c007 133b
00000290: bcae d6b9 ed81 ad3b ce85 cb3b 066c e53b
000002a0: 8e90 d0b7 e6c6 203c 9420 0bbb e75f 093b
000002b0: 8a6d 133c a70f 903c ca10 313c de11 553b
000002c0: d776 30bb ba5a c93b 390f 6f3b 3467 9ebb
000002d0: 64f9 4e3b 8336 5b3b 226d c93b 961d 833b
000002e0: 362b 193c a271 a83a a17a 553c c215 29ba
000002f0: 47c5 653b 0267 8a3c 7f7a 1ebb db34 ac3b
00000300: 0b48 ee3a 4239 5f3b 9ea0 e83b 2cb9 b43b
00000310: c6df 223b ddb1 743a 035e 10b9 50c4 fcba
00000320: d645 8b3b da5f b63b c04f 1a3c 4212 243b
00000330: ab9c da3b 1925 6b3c 70f6 c7bb 64e0 b9bb
00000340: da4d 2b3c 6b41 123b a5d6 e53a 35c9 f63b
00000350: bfd8 f53b d5bd 5e3c 6d01 73b9 263a 3fba
00000360: 8f83 303c d36d 33bb 1264 733a 3403 dcba
00000370: 5209 fb39 d0a6 49bb 34d7 903b 7e08 2e3b
00000380: 8ab1 103c 2aed 803a f3ea 913c 5013 5a3a
00000390: 12b5 883a 477c f63a fd08 c93a 8d2e c1bb
000003a0: 3e1e cc3b 2ec8 ba3b b894 de3a 9afe fe3a
000003b0: 2d2d de3a ca37 ca3b 59da e73b 819c 7c3b
000003c0: 55e8 9cba c69f 89ba 1128 c9bb b518 b63b
000003d0: 778e 163a 5fc7 36ba 6b61 f43b 8801 743c
000003e0: 3534 643b 0b1f 80ba 9b7e 853a 3fc6 693a
000003f0: 47d2 1b3b 01c3 f33a 1a2e e53b 7821 823b
0.016191294 0.010312809 0.004819554 0.003619782 0.02085847 0.0063542305 0.012552861 0.019468645
0.007508015 -0.0036736543 0.015499742 0.010622711 0.018520894 0.0066559426 0.007457593 -0.00016296929
0.0097005805 0.011058347 0.014452165 0.0057373056 0.003822143 0.005797215 0.015785215 0.0043644
-0.0009469948 0.0053489404 0.0054569007 0.014439502 0.0063134837 0.014177142 0.0020255856 0.007943442
-0.00027557457 0.01339407 0.008859242 0.005456894 0.00089722907 0.006108902 0.008432273 0.006776441
0.0044109337 0.010995602 -0.00032002694 0.012893782 0.011606921 0.020976607 0.01557866 0.008367768
-0.0009137466 0.00752058 0.003825164 0.00057851675 0.0094159795 0.0073072785 0.008207231 0.015328842
0.010789422 0.0044437996 0.01523978 0.00042886668 0.009572739 0.016034108 -0.0014011327 0.006114356
0.00270625 0.007904522 0.01196593 0.004670876 0.0057445797 0.002208108 0.0047495775 0.0039093196
0.0055042133 0.0059730383 0.01037588 0.0114201205 0.008262456 0.012759781 -0.0024050318 0.0010337018
0.013663019 0.009099961 0.003729556 0.00727804 0.008759147 0.015823558 0.002241549 0.005341679
0.014587435 -0.002814548 0.00776054 0.0028562313 0.0076746442 0.004605922 0.00647749 0.012419862
0.01140791 0.00782707 0.018722715 0.0066781747 0.0023829488 0.0053641666 0.0039068204 0.008008654
0.0149251465 0.010106144 0.0020645536 0.006535611 0.007638991 0.013355041 0.009967624 0.009779698
0.0019595148 0.007967109 -0.00031190796 0.0100540025 0.0057642446 0.0011708927 0.010939042 0.016182069
0.009841603 0.0029878255 0.009041904 0.0020235959 0.010527319 0.0077214553 0.007224401 0.007926471
0.01292215 0.0053982614 0.0003206323 -0.0015329336 0.013713411 0.00490375 0.0006943136 0.015967738
0.00630979 -0.0041760034 0.013999978 0.0042645657 0.015707595 0.005497998 0.0035696873 -0.0036373993
0.0067753196 0.00651801 0.011489313 0.0036573694 0.001370188 0.0018402204 0.00627085 0.0013256997
-0.0025695926 0.005651658 -0.0036380372 0.012783722 0.005038896 0.013655789 0.0027651596 -0.0014098684
-0.001590629 0.009995026 0.0070155137 0.002243504 -0.00040947448 0.0052950294 0.006211019 0.007001403
-2.4862846e-05 0.009813046 -0.0021229135 0.0020961703 0.008998284 0.017585589 0.0108072255 0.003251187
-0.0026926303 0.0061448487 0.003647758 -0.00483408 0.0031581754 0.003344924 0.006147043 0.0040013297
0.009348681 0.0012851248 0.013029725 -0.00064500805 0.0035060213 0.016894821 -0.00241819 0.0052553243
0.001817943 0.0034061228 0.007099225 0.0055152383 0.0024852618 0.0009334365 -0.00013767932 -0.001928458
0.0042502685 0.0055656256 0.009418428 0.0025035297 0.0066715083 0.0143521065 -0.0061023757 -0.0056725014
0.010455573 0.0022316824 0.0017535283 0.00753131 0.007502645 0.013595064 -0.00023174817 -0.00072947366
0.0107735535 -0.0027378693 0.0009284626 -0.0016785623 0.00047881395 -0.0030769594 0.0044201855 0.0026555355
0.008831391 0.0009836305 0.017812228 0.0008318918 0.001042994 0.0018805348 0.0015337762 -0.005895442
0.006229191 0.005700133 0.0016981578 0.0019454539 0.0016950719 0.0061712014 0.0070755896 0.0038545432
-0.0011971096 -0.0010499887 -0.0061388095 0.0055571445 0.0005743275 -0.00069724576 0.007457902 0.014892943
0.0034821157 -0.0009774877 0.0010184826 0.00089177856 0.0023776458 0.0018597544 0.006994021 0.003971275
