models/2inst/checkpoint/BDGTC.pth (torch, 875310 bytes, 12 tensors)

lstm.weight_ih_l0 f4 [512, 5]
000000 75 ee b1 bc be b4 b7 3d fc c4 39 bd ee e9 f2 3c
       -0.02172015 0.08970021 -0.045353875 0.029652562
000010 d4 63 85 bd 88 f3 1f 3d 46 b0 0b bd b0 a4 2f 3d
       -0.06513181 0.03905061 -0.034103654 0.042881668
000020 5b b6 34 bd 3f b9 97 bd 50 2d ac bd f5 c6 95 3b
       -0.04411922 -0.0740838 -0.0840708 0.0045708367
000030 5f 47 35 bb a2 25 a7 bd 09 d0 9a 3c 8e db a6 3d
       -0.0027660949 -0.08161475 0.018898027 0.081473455
000040 6e 62 89 bd 6d 45 ad bc 2e 47 e0 bd ed fe 8a 3c
       -0.06708227 -0.021151269 -0.109510764 0.016967261
000050 c8 42 19 3d 67 bc 24 3d 2d df fb ba a7 16 8c 3c
       0.037417203 0.040218737 -0.0019216292 0.017100645
000060 70 00 1b 3d d2 94 a6 3d cd 1f d9 3d 9b ba cd bd
       0.037842214 0.08133854 0.10601769 -0.10045358
000070 5a c3 9c bd 47 8b a6 3d 0d b3 6d 3d 0d 0c a0 3d
       -0.07654448 0.08132034 0.058032084 0.078147985
000080 d0 94 92 3d b4 99 af bc 46 c7 93 bd a4 2f 43 bd
       0.0715729 -0.021435596 -0.07215743 -0.047652856
000090 94 e6 ab bb 5d 1b e1 bc d0 c5 2d bc 98 9d 61 3c
       -0.005245993 -0.027478868 -0.010606244 0.013770483
0000a0 40 21 ce bd ba 23 8f 3c 6d ec 98 bc 08 eb 9b bc
       -0.10064936 0.01747309 -0.018667424 -0.01903297
0000b0 48 dd e7 3c 61 7c d1 3d d0 75 ad bd 91 1f a5 bd
       0.028303757 0.102288015 -0.084697366 -0.080626614
0000c0 2c 35 19 3c e8 62 1d bc e1 9d b0 3d 45 b1 a3 3c
       0.009351056 -0.009606101 0.08623863 0.01998199
0000d0 79 53 ae 3d dd 1b 7a bc c1 5b 9e bc 72 a1 ba bd
       0.08512015 -0.015265432 -0.019330861 -0.091128245
0000e0 23 af 69 3d fe 17 dd 3d b7 1e 39 3d a4 b7 8f 3d
       0.05705179 0.10795592 0.045195308 0.070174485
0000f0 25 96 a1 3d 7a 26 f9 3c b9 a0 8a bd f9 47 5d 3d
       0.07889966 0.030413855 -0.06768937 0.054023717
000100 6e f9 b3 3d cc d8 ef bd 1e 5d c4 3d 31 72 ca bd
       0.08787809 -0.117112726 0.09588073 -0.098850615
000110 fa f8 38 3c 9c 66 5a bd ba 8f d1 3c 2b f1 d0 bd
       0.011289829 -0.053320512 0.02558123 -0.10202249
000120 1e 82 85 3d c5 93 19 bd 42 29 b5 bb fa b7 91 3d
       0.065189585 -0.03749444 -0.0055286 0.07115169
000130 29 76 6f bd d2 0d 73 bd 2f 1f 9a bd 44 6f aa bd
       -0.058462296 -0.059339352 -0.07525479 -0.083220035
000140 ff 57 ac bd ab 0d ac bc 4c 65 fb 3c 03 5b 68 bd
       -0.084152214 -0.021002611 0.03068795 -0.05672742
000150 d5 48 9b bd d2 f6 8b 3d 67 51 f8 3c 8e 39 63 3d
       -0.07582251 0.068341866 0.030312253 0.05547481
000160 f6 12 99 3d e4 63 ad bc 3c f2 b6 bd b7 5a 8e bd
       0.0747432 -0.021165796 -0.08932921 -0.06950896
000170 4e a5 e9 3b 9f 12 28 3c 25 17 bb 3d f7 35 b8 bd
       0.0071303016 0.010258346 0.09135274 -0.08994668
000180 b0 2d 1a 3d d2 46 68 3c 27 a3 ce 3d 8a b8 ba bd
       0.037641227 0.014177041 0.100897126 -0.09117229
000190 a6 44 a1 3d b9 d4 d9 3d a6 e6 93 bd c9 ed b6 bb
       0.07874422 0.10636277 -0.07221727 -0.0055825454
0001a0 a3 ae 11 bd 1c a2 44 bd 4d 12 dd bc d5 16 c9 bd
       -0.035566937 -0.048006162 -0.026986266 -0.09818808
0001b0 6f d9 aa bd 8d 90 7f bd 1e 1d 70 bd 73 80 f2 3d
       -0.083422534 -0.062393714 -0.05862152 0.11840906
0001c0 b1 38 a5 3c c5 ef a3 3d 26 d6 7f 3d a9 df 5e 3d
       0.020168634 0.08004717 0.062460087 0.054412518
0001d0 28 64 1c 3d d5 45 d9 bd 74 36 4b bd da a3 12 3d
       0.038181454 -0.106090225 -0.049612477 0.035800792
0001e0 28 bf e1 3c 6f 65 c3 3b 3c a9 45 bb 7c 5f c5 3c
       0.02755697 0.0059630196 -0.0030160686 0.024093382
0001f0 ba 1c b3 bd d4 b2 9c bb bb 50 2e bd 22 ba a1 bd
       -0.087457135 -0.00478206 -0.04255746 -0.0789683
000200 b0 e1 0a 3b 7d f2 7a 3d 69 20 2c 3d 18 94 54 3c
       0.002119165 0.06126641 0.042023096 0.012974761
000210 3e b9 91 bb 51 49 b2 3d 1e 00 d9 bd 25 f7 ef 3d
       -0.0044471314 0.0870539 -0.105957255 0.11717061
000220 48 0a 24 bd 76 5b bc 3d bb 64 54 bd cf eb b1 bd
       -0.040048867 0.09197132 -0.051853877 -0.08687555
000230 06 f3 8e bd e6 b2 67 bc 4b 4e 1a bd 2e 93 cd 3d
       -0.06979947 -0.014141774 -0.037672322 0.10037838
000240 0c 99 93 bb e7 06 a2 bd 3f 79 a4 3d a1 4f 1d bd
       -0.0045043286 -0.07911473 0.08030938 -0.03840602
000250 96 8b f0 3c 6b 0c 82 3d 41 62 03 bd 24 ee 87 bd
       0.029363435 0.06350025 -0.032076124 -0.066372186
000260 5d 09 83 bd 96 92 6b bd 67 59 ba bc b2 ea a8 bd
       -0.0639827 -0.057512842 -0.022747708 -0.082478896
000270 95 2b a4 3d 36 84 41 3d be 5c 3d bd 97 5a 70 bd
       0.08016125 0.047245227 -0.046231024 -0.058680143
000280 25 1c 9d 3d 0b 18 84 bc 53 ed 13 3d c4 47 15 3d
       0.07671384 -0.016124746 0.036115002 0.036445394
000290 72 37 30 bd 78 f5 2e bd ef 4c 34 3d 9a 93 b1 3d
       -0.043021627 -0.042714566 0.044018682 0.08670731
0002a0 72 59 9b bd 39 0c 99 3d a7 7e cf 3c 01 b8 72 3d
       -0.0758542 0.074730344 0.025328947 0.05925751
0002b0 8d 21 24 3d 5b e2 dd bd c8 f0 31 bd 9b 04 c5 3d
       0.04007106 -0.108341895 -0.043442518 0.09620019
0002c0 70 a4 19 3d 53 fe 57 bd ad b8 75 bd ed 1e f5 3d
       0.037510335 -0.052732777 -0.059990574 0.11968789
0002d0 74 58 59 bd 81 b0 cf 3d 5b 48 07 3d c9 b8 69 3d
       -0.05306287 0.10141087 0.033027988 0.05706099
0002e0 3e 04 74 bd 88 dd 45 bd 68 0d c8 bd e4 cd 1c 3d
       -0.05957436 -0.04830697 -0.09768182 0.03828229
0002f0 86 78 62 bd e6 54 88 3c a5 eb 42 bd 68 67 eb 3d
       -0.05529072 0.016642045 -0.04758801 0.114943326
000300 78 f1 d8 bc 31 57 84 3d 7d f7 89 3d 65 25 95 3d
       -0.026482329 0.06461943 0.06736658 0.07282523
000310 67 65 09 3d 2c 5d 81 3d b7 41 c9 bb 81 00 ab 3d
       0.03354397 0.06316599 -0.006141867 0.083497055
000320 77 41 3b bd 89 7e a9 3d 7f 80 a5 bd 73 f1 d2 bc
       -0.04571673 0.08276088 -0.08081149 -0.025749898
000330 98 ec ce 3c 05 47 b2 bc 55 83 7b bc f2 02 66 3b
       0.025259301 -0.02176238 -0.015351136 0.003509697
000340 86 a8 a8 bc 8e 94 bd 3d 28 34 40 3d 5f 9b e8 3d
       -0.02058817 0.0925685 0.04692474 0.1135776
000350 68 a3 96 3d 5e 54 18 bc 2d 71 cb bd c1 43 14 3d
       0.07355386 -0.009297458 -0.09933696 0.036197428
000360 1f f8 95 bd e1 47 35 3d 30 64 5b 3d 23 9e 43 bc
       -0.07322716 0.044258002 0.053562343 -0.011939558
000370 91 c7 99 3c a3 f8 48 bb cf 80 bd 3d 6d 9f e1 3c
       0.018771918 -0.0030665777 0.09253084 0.02754184
000380 3e 4d 57 bd 75 cc aa bd 6e e0 d0 3d 84 9a 8b bd
       -0.0525639 -0.08339778 0.101990566 -0.06816581
000390 fd ff 01 bd 8b e0 b8 bc 22 5d 83 bd 42 09 07 3d
       -0.03173827 -0.022568008 -0.06414248 0.032967813
0003a0 84 73 dd ba 13 6b c8 bd 95 3b 82 b8 ee 51 c3 bd
       -0.0016895388 -0.09786048 -6.209981e-05 -0.09537111
0003b0 20 41 57 bc c1 59 5b bd 6a e3 46 3b 7e 0e e4 bc
       -0.013138086 -0.053552393 0.0030347952 -0.027838942
0003c0 09 a3 e9 3d c3 47 94 bd 4d 9d 23 bd b2 32 35 3d
       0.114080496 -0.0724025 -0.039944936 0.0442378
0003d0 50 d1 c2 3d 72 31 c6 3d 8a 5d 9a bd b3 ac 5e bd
       0.095125794 0.096774 -0.075373724 -0.054363918
0003e0 d0 70 ac 3d d9 f8 ae bd 9a 93 be bd ed b3 9d bd
       0.08419955 -0.08543558 -0.093054965 -0.07700334
0003f0 b2 d1 93 bd 5c a4 bf 3d 19 5e 2e 3d 2d 66 ab 3d
       -0.072177306 0.09357521 0.042570207 0.08369098

lstm.weight_hh_l0 f4 [512, 128]
000000 a2 02 b4 3d bb 4f 9b 3d b6 58 58 bd 90 46 24 bd
       0.08789565 0.07583567 -0.052818976 -0.040106356
000010 17 7f 9b 3d 2e e0 0d bd 09 e0 93 bd 7f 97 7e 3d
       0.075926 -0.034637623 -0.07220466 0.062156197
000020 45 ce 36 3d 5d a7 9e 3d a3 e2 5d bd 6d 14 c7 3d
       0.044630308 0.07746766 -0.054171216 0.09720693
000030 d8 22 c8 bd c5 b2 b1 bd 8a fd 76 3d 86 e2 15 bd
       -0.09772271 -0.08676676 0.060300387 -0.036592983
000040 1a 3e 86 bd 1e 0a 3b 3d bb d2 5f bd 20 0b f7 ba
       -0.06554814 0.045663945 -0.054644328 -0.001884792
000050 e9 31 a5 bd 4e e4 64 bc d2 25 4e 3d 64 4a 55 bc
       -0.0806616 -0.013970448 0.050329037 -0.013018224
000060 5f 67 e0 bc 85 c1 d1 bd 7b 71 27 3a 6a 26 66 3d
       -0.027393041 -0.10241989 0.00063874543 0.05618898
000070 70 72 cc bd cc 59 ad 3d 51 9b 8d 3d 61 18 b6 bc
       -0.09982765 0.08464393 0.0691439 -0.022228422
000080 8c 2c 90 bc 75 3c 93 3d 75 32 83 3c d9 17 a8 bd
       -0.017599367 0.07189266 0.01601527 -0.082076736
000090 a9 e0 87 3d ad a0 3b bd 75 41 1e bd de 17 2f 3d
       0.066346474 -0.04580753 -0.038636643 0.04274737
0000a0 83 0e d5 bc 37 99 9d bd e5 20 92 bd 4a ff 15 3c
       -0.026007896 -0.07695239 -0.071351804 0.009155104
0000b0 be 4a 9c bd 63 97 c4 bc 78 c6 6a 3c c5 92 7c 3d
       -0.076314434 -0.023997968 0.014329545 0.061663408
0000c0 93 80 04 3d 20 1d ff bb 47 2b 0a 3d fe 6d ad bc
       0.03234918 -0.0077854544 0.03373268 -0.021170612
0000d0 fd de 03 3d 79 8e 6e bd 90 c9 c2 bd bc 0b ce bd
       0.03219508 -0.05824134 -0.09511101 -0.10060832
0000e0 24 c9 84 ba ae 01 af 3c 3b 31 57 bd df 07 c4 3d
       -0.0010130745 0.021363106 -0.052537184 0.09571814
0000f0 42 e5 85 bc cc 2c b7 bd 70 7f be bc 51 26 3b 3d
       -0.01634467 -0.08944091 -0.023254126 0.04569084
000100 d7 28 08 3d 6b b1 bf bd d9 0f aa 3d 66 e6 c6 3b
       0.033242073 -0.09360012 0.08303804 0.006069946
000110 0e a5 76 bd 21 3c 12 bd 89 21 b9 bd d6 26 83 bd
       -0.060216002 -0.035701875 -0.090395994 -0.06403892
000120 73 b8 d5 3a d6 73 9d bc 1d 40 67 3c 67 0d e0 bc
       0.001630558 -0.019220274 0.014114407 -0.02735014
000130 51 cb 2f bd eb 1e bc 3c aa 4e 96 3d 7c 06 0b bd
       -0.042918507 0.022963962 0.07339223 -0.03394173
000140 8b db 5d bd 90 04 00 3c dd 20 98 3d 21 d1 b9 3d
       -0.05416445 0.007813588 0.07428143 0.09073091
000150 3b 83 4e bb 90 d1 65 bd 74 e9 b7 bd 80 20 53 3d
       -0.0031511325 -0.056108057 -0.089800745 0.051544666
000160 a1 41 1a 3d db 83 74 bc 03 eb c4 bd 39 0f 60 3d
       0.037660245 -0.014924015 -0.096151374 0.054702017
000170 3a 99 6a bc 3c 57 bd bd 91 b7 cd 3d 7b 56 b7 3d
       -0.014318759 -0.09245154 0.10044778 0.08952042
000180 c9 8b a2 3d 7a 17 ca bd cd c1 d2 3c 5d b0 88 bd
       0.07936818 -0.09867759 0.025727177 -0.066742636
000190 a4 f3 ab 3d ac 83 3d 3d 94 ca 48 bb 39 d6 93 3d
       0.0839608 0.04626815 -0.0030638324 0.07218594
0001a0 c4 8a 94 bd 50 41 2a bc 2c 8b 86 bc 39 5a a9 bd
       -0.0725303 -0.010391548 -0.016423784 -0.08269162
0001b0 41 73 73 3c 59 1c 8e 3d e9 6d 51 3d cb ed 97 3d
       0.014859022 0.06939001 0.05113021 0.07418402
0001c0 6c 8b 68 3d 24 48 52 3d 28 a6 ae bd bc 47 61 3d
       0.056773588 0.05133833 -0.085277855 0.05500005
0001d0 1f 17 62 bd 3a cf 2f 3c d5 06 84 bd 97 e2 a5 3d
       -0.05519783 0.010730559 -0.064466156 0.08099859
0001e0 95 c9 c6 bc c9 82 9b bd 4e a1 ad bd fd b3 89 bd
       -0.024266044 -0.07593305 -0.08478032 -0.06723783
0001f0 76 ad d1 bd 39 15 c7 3d 97 04 f8 3c 75 de 25 3d
       -0.10238163 0.09720845 0.030275626 0.040495355
000200 74 71 21 3c c6 a4 d2 bd 5f c6 87 bc bb 3a 2f 3d
       0.0098537095 -0.10285334 -0.016574083 0.04278062
000210 5b 3c 14 bc 2d 2b 10 3d c7 64 9d bd 98 9d 42 bd
       -0.009047593 0.035197426 -0.076852374 -0.047513574
000220 e0 4a 8b bc de b7 5b bd 8b 19 29 bd 9d c6 b0 3d
       -0.017003477 -0.053642146 -0.041284125 0.086316325
000230 b6 db c3 3d af 8a fe 3b cc df d6 bc c7 b1 8b 3d
       0.09563391 0.007767997 -0.026229762 0.06821018
000240 f9 eb 95 3d 4c 11 27 bd 65 58 0c 3c d1 3d 13 3d
       0.07320399 -0.04078798 0.008565997 0.035947625
000250 1d 7e 45 3d d9 20 3b bd 7f 90 5e 3c 07 3b 82 3c
       0.048215974 -0.045685623 0.013584255 0.015897287
000260 1e de 33 bd c7 ea a4 3d 8c 15 62 3d bc 86 09 3d
       -0.043913 0.08052593 0.05519633 0.03357576
000270 b8 59 00 bc 06 be 4c 3d 6a cc c8 bc 97 06 8f bd
       -0.007833891 0.049985908 -0.024511535 -0.06983679
000280 cb ee c7 bd 27 3c c5 3c 66 9d 25 3d 56 1b 01 3c
       -0.09762343 0.024076534 0.04043331 0.007880053
000290 79 2f bf 3c 82 05 38 bd 68 37 5f 3d e7 81 83 bd
       0.023338066 -0.044927128 0.0544962 -0.06421261
0002a0 90 e6 dd 3d 4c e6 9c 3d 83 f7 39 3d 24 62 5e bb
       0.10834992 0.07661113 0.04540206 -0.0033933008
0002b0 02 44 02 bd 00 bf 28 bd 4e fb 92 bd 89 9f 4e 3d
       -0.03180314 -0.041197777 -0.07176839 0.050445113
0002c0 0f 7e a5 3d 34 02 29 3c 17 dd 09 3c 12 53 2e 3d
       0.080806844 0.010315467 0.008414528 0.04255969
0002d0 00 b4 2e bd d3 88 09 3c b7 f7 68 bd 45 3d 3b 3d
       -0.04265213 0.008394438 -0.056876864 0.045712728
0002e0 e2 d6 1c 3d 07 ac 29 bc 0d b8 2c 3d ab ce 42 3d
       0.038290866 -0.010355956 0.042167712 0.047560375
0002f0 db 50 cc 3d 94 f9 30 bc 10 24 8c bd ce e0 e1 bb
       0.099763595 -0.010801692 -0.06842816 -0.006893254
000300 ee 0c 6f 3d a8 f4 f9 3c b8 49 a5 3c dd da a1 bd
       0.05836194 0.030512169 0.020176753 -0.07903073
000310 37 2c a7 bd d9 9e e1 3d 1b ad 73 3d 07 ff d0 bc
       -0.0816273 0.11016626 0.059491258 -0.025512232
000320 b3 0e 87 bc de ce 2b 3c c5 0e 0d bd fb 2f 16 bd
       -0.016486501 0.010486333 -0.034437913 -0.03666685
000330 2c 9e 34 3d 83 f2 e8 bc 08 7f a1 bd ee 29 8d 3b
       0.044096157 -0.028435951 -0.078855574 0.004307977
000340 0d 20 8a 3c a8 97 9a bd 51 a7 c5 bd a2 a1 2c bd
       0.016860986 -0.075484574 -0.09651054 -0.042146333
000350 b4 89 ab 3d 33 fa 58 bd 0c 57 61 3d 0b 93 58 bd
       0.08375874 -0.052972984 0.055014655 -0.052874606
000360 c2 e8 ce 3d 59 e4 88 3c 9f c6 c7 bd 69 c5 90 bb
       0.10102989 0.016710447 -0.09754681 -0.0044180644
000370 05 67 80 3d 5f 7c d3 3c 21 be 3b 3d 21 55 98 3d
       0.062696494 0.02581614 0.045835618 0.07438112
000380 c9 a2 c4 bc 6c 14 f3 bb 8f 5b fc 3b b8 d1 b5 3c
       -0.024003403 -0.007418206 0.0077013443 0.022194728
000390 4e 53 c2 3d c3 65 ad 3d 81 ca 32 bd 8e a4 97 3d
       0.09488545 0.08466675 -0.043650154 0.07404433
0003a0 b5 2e 74 3c 38 fc 9c bd 0a fe ee bc 12 08 54 bd
       0.014903714 -0.076652944 -0.02917387 -0.05176551
0003b0 02 fe 00 bd 35 21 af 3d c7 f9 d7 bd 55 04 3a bd
       -0.03149224 0.085512556 -0.10545688 -0.045414288
0003c0 9d 40 c3 3d e0 b4 51 3d 38 fa be 3d f4 35 87 3d
       0.095338084 0.051197886 0.09325069 0.066020876
0003d0 ab 35 89 bd d0 77 8a bc 92 72 75 bd 31 7c a2 bd
       -0.066996895 -0.016902834 -0.059923716 -0.07933844
0003e0 38 20 3c bc c7 54 3b 3d bc cc 54 bd 9e 9d af bc
       -0.011482291 0.045735147 -0.051953062 -0.021437462
0003f0 85 00 35 bd 03 fe c7 bd 0b d0 fd 3c ed 87 28 bd
       -0.04418995 -0.09765246 0.030982992 -0.041145254

lstm.bias_ih_l0 f4 [512]
000000 1c d8 e9 bb ef aa c9 3c f9 1e 87 3b 08 7c 0d 3c
       -0.007136358 0.02461764 0.0041235653 0.008635528
000010 d2 f1 80 3c 3e 87 76 3c d3 b9 77 3c 35 a6 40 3a
       0.015740309 0.015046893 0.015119988 0.00073489855
000020 0a be 58 3c a2 f6 55 3c f0 28 d7 3b 83 2e 2f 3c
       0.013228903 0.01305929 0.0065661594 0.010692242
000030 dc c3 fa 3b 80 85 0a 3c f8 1e 30 3b f0 8b 33 3c
       0.007652743 0.00845468 0.0026873928 0.010958657
000040 42 88 a7 3b 87 12 53 3b 03 26 35 3c 68 9a 81 3c
       0.0051126787 0.0032207088 0.011056426 0.015820697
000050 8f 57 a8 3b 8b 7c 17 3c 38 92 36 3c 46 50 03 3b
       0.005137391 0.009246002 0.01114326 0.002003686
000060 3b 34 bd ba 76 d8 48 3a 18 a6 32 3b 01 9d c7 3b
       -0.0014435122 0.000766165 0.0027259644 0.0060917144
000070 75 9c a8 3b d0 06 c9 3b a3 45 6f 3c 19 e6 2c 3c
       0.0051456043 0.0061348453 0.014604005 0.010552906
000080 62 6c fb 3b 50 b1 55 3c fd 01 57 3c 06 d4 97 3c
       0.0076728323 0.013042763 0.013123033 0.018533718
000090 be 3c 3e 3c ce c1 e5 3b b1 d2 78 3c aa ee 8e 3c
       0.011611162 0.0070116287 0.0151869515 0.017447788
0000a0 d3 cc d8 3b 0f 27 1e 3c 0f 07 5a 3c e9 c7 8e 3b
       0.006616214 0.009652867 0.013307347 0.0043573272
0000b0 3d 5b 73 3c 74 0d 0d 3c 9a 46 66 3c b9 88 02 3c
       0.014853296 0.0086091645 0.014054919 0.0079671675
0000c0 c8 3f 17 3c c5 84 f0 3b ff 36 4f ba eb ce a2 38
       0.009231515 0.007340046 -0.00079046184 7.7633034e-05
0000d0 fd 8e 66 3b d2 15 55 3c 63 be 02 3c 9b f7 21 3c
       0.0035180443 0.013005691 0.007979962 0.009885694
0000e0 27 7e c9 3b 12 92 24 3b 88 3f 00 3b a6 81 d2 3a
       0.0061490717 0.0025111479 0.0019569118 0.0016060367
0000f0 c3 f3 60 3c 4b b6 d4 3b b1 e0 86 3c b6 08 94 3b
       0.013729992 0.0064914576 0.016464563 0.00451764
000100 b3 1a fe 3a 5c c2 53 3c d7 f8 be 3b d1 7e 15 3c
       0.0019386619 0.012924757 0.005828004 0.009124474
000110 2c 4a e3 3b 82 85 62 3c b1 e2 37 3c 45 57 74 3c
       0.006936332 0.013825776 0.011223481 0.014913385
000120 d1 c2 76 3c 93 d6 1e 3c fc 34 6b 3c 76 56 c6 3b
       0.015061096 0.009694713 0.014355894 0.0060527874
000130 1a 22 88 3c 2f 57 59 3c 3a f7 08 3c 60 15 ec 3b
       0.016617823 0.013265415 0.008359725 0.0072046965
000140 e8 08 90 3c f9 6b 02 3c 31 a2 0c 3c 6c 00 59 3c
       0.017582372 0.007960313 0.008583591 0.0132447295
000150 da e0 0b 3c e8 c3 45 3c d7 31 9f 3c 2e 7e df 3b
       0.0085374955 0.0120706335 0.019432945 0.0068204617
000160 14 bd 10 3b 2a 69 4c 3c 39 2e b6 3a f8 39 31 3c
       0.0022085356 0.012476245 0.0013899273 0.0108170435
000170 13 01 39 3c d6 f8 2a 3c 34 46 a8 3c da 6a 2d 3c
       0.01129176 0.010435304 0.020541288 0.010584557
000180 a5 51 84 3c 21 09 c5 3b 20 ea 0c 3b 96 73 6b 3b
       0.016152212 0.006013051 0.0021501854 0.003592705
000190 f1 39 d0 3b 89 3e d5 3b 57 3a c5 3b 6c 41 bd 3b
       0.0063545634 0.006507699 0.0060189175 0.005775621
0001a0 c2 db 72 3c a9 59 30 3c e3 82 98 3c 38 fd 43 3c
       0.014822902 0.010763564 0.0186171 0.0119622275
0001b0 ce 38 22 3b 3b 51 32 3c a5 80 79 3b a3 8d c5 3b
       0.0024753097 0.010883625 0.0038071063 0.0060288473
0001c0 6d 29 0a 3c d2 0f 10 3c 30 1b 28 3c 88 6c 65 3c
       0.008432728 0.008792834 0.010260388 0.014002927
0001d0 bc 64 7a 3b 5b 00 f3 3b d9 d6 d6 ba df 40 81 3c
       0.0038207015 0.007415814 -0.0016390934 0.015778003
0001e0 3e 0c ed 3a 6c b3 1f 3c 6c 05 3a 3c 33 e5 24 3c
       0.0018085313 0.009747367 0.011353832 0.010064411
0001f0 95 db 13 3c a3 4c 99 3c 03 cd 94 3c 5d 1e 95 3b
       0.00902452 0.018713301 0.018164163 0.0045507387
000200 09 9f 12 bc 43 81 c8 3c 8f ed dd 3a e1 51 1c 3c
       -0.00894905 0.0244757 0.001693176 0.009541006
000210 b2 37 2c 3c 90 6f 2c 3c 04 57 43 3c db 2a ca 3a
       0.010511326 0.010524645 0.011922602 0.0015424149
000220 1a 2a 13 3c da 41 60 3c b7 a1 a0 3a a4 20 0b 3c
       0.008982206 0.013687575 0.0012255226 0.008491669
000230 7b ea 4b 3c d1 d0 d4 3a db 51 c3 3b 1b 26 37 3c
       0.012446041 0.0016236549 0.0059606857 0.011178519
000240 55 4e 27 3b 5c 9a 61 3b 25 73 01 3c 39 7c 83 3c
       0.0025528867 0.003442428 0.007900988 0.016050445
000250 cc 8b c7 ba c5 5b 4c 3b 6a f0 10 3c e2 3b 47 3b
       -0.0015224158 0.0031182629 0.008846382 0.0030400683
000260 72 82 25 bb 05 ea ed b9 3d d4 82 3b 73 64 99 3b
       -0.0025254753 -0.0004537852 0.003992586 0.004681164
000270 f8 bd a2 3b 51 9b 3c 3b 59 f6 54 3c a7 e8 97 3a
       0.0049664937 0.00287791 0.012998187 0.0011589722
000280 78 2b 29 3c f2 09 38 3c 61 43 a5 3b b9 1a 46 3c
       0.010325305 0.01123284 0.0050434326 0.012091332
000290 94 8b b3 3b 46 3f 43 3b be cd 06 3c 9a 4b 3a 3c
       0.0054792855 0.0029792353 0.008227764 0.011370564
0002a0 c2 08 a3 3a 34 f5 5d 3a fe dd 3c 3c eb 36 43 3b
       0.0012438523 0.0008467019 0.011527536 0.0029787372
0002b0 31 0d 13 3c f8 55 9a 3b 5d 4f 45 3c d3 94 cc 3b
       0.008975313 0.0047099553 0.012042847 0.006243327
0002c0 6f 76 1d 3c e2 dc db 3a 41 95 e3 b9 a1 ae db 3a
       0.009610756 0.0016774202 -0.00043408017 0.0016760417
0002d0 2c 20 9a 3a c1 ab 54 3c 43 66 da 3b 34 6a af 3b
       0.0011758856 0.012980402 0.0066650226 0.0053532366
0002e0 61 65 a5 3b 1c 93 8b 3b 26 05 a8 38 31 4b cf 39
       0.0050474857 0.00425948 8.011823e-05 0.0003953814
0002f0 ed b4 26 3c 79 ed ca 3b 3f 58 57 3c 3b 50 7c ba
       0.010174972 0.0061928597 0.013143598 -0.00096249924
000300 ba b5 6c 3a c2 46 c7 3b 12 36 06 3a 51 82 ab 3b
       0.0009029765 0.006081433 0.00051197514 0.005234041
000310 34 d1 4a 3a d2 dc fd 3b ff 17 43 3c a9 d7 af 3b
       0.0007736862 0.007747271 0.011907577 0.005366285
000320 93 5b 8b 3c cb 0f 84 3b 83 00 3f 3c 0a 59 ba 3b
       0.01701144 0.004030203 0.011657837 0.005686884
000330 22 0b 61 3c f0 73 1e 3c 1b 99 d1 3a db 42 7a 3b
       0.013735564 0.009671196 0.0015991064 0.0038186822
000340 1d c2 40 3c 92 5d ac 3b 92 82 06 3c 1d 58 9e 3b
       0.01176503 0.005260178 0.008209841 0.0048322813
000350 1f 46 9b 3b 48 33 69 3c 3a da 0d 3c d9 e9 b1 3b
       0.0047385837 0.014233418 0.008657986 0.005429488
000360 d7 9c e8 39 f2 77 29 39 4f 48 76 b9 fd 3f cd 3b
       0.00044367343 0.00016161779 -0.00023487325 0.0062637315
000370 04 5f 15 3c 13 11 61 3b ca 50 b4 3c 85 ba 0c 3c
       0.009116892 0.0034342452 0.02201118 0.008589392
000380 5d 20 8c 3c f6 e2 94 3b 73 4e 00 3b 01 ea 01 3b
       0.017105276 0.0045436574 0.001957801 0.0019823315
000390 2a c7 67 3b 0c fa 29 3c 0c 82 c2 3b 23 ef 96 39
       0.0035366514 0.010374557 0.005935913 0.000287884
0003a0 95 d6 62 3c 1c 72 27 3c 00 96 90 3c 1f a6 eb 3b
       0.013845106 0.010220077 0.01764965 0.007191434
0003b0 c3 47 87 3a a6 d1 3b 3c 9e ec 8e b9 5c e0 54 bb
       0.0010321069 0.011463558 -0.00027260644 -0.0032482361
0003c0 72 e5 d7 3a f6 25 f8 3b 7d 5f 95 3b 6a 88 48 3c
       0.0016471578 0.0075728847 0.004558502 0.012239555
0003d0 b9 b4 ce 39 84 9c c8 3b de 77 8d ba 67 3e fb 3b
       0.0003942603 0.0061221737 -0.001079317 0.007667351
0003e0 14 20 2d 3a f3 cf f4 3b 5d a4 81 3b 31 e8 2d 3c
       0.0006604206 0.0074710785 0.003956361 0.010614441
0003f0 9e 13 05 3c cd 2a 31 3c f6 07 12 3c 68 05 fd b9
       0.008122353 0.010813427 0.008913031 -0.00048259948

lstm.bias_hh_l0 f4 [512]
000000 1c d8 e9 bb ef aa c9 3c f9 1e 87 3b 08 7c 0d 3c
       -0.007136358 0.02461764 0.0041235653 0.008635528
000010 d2 f1 80 3c 3e 87 76 3c d3 b9 77 3c 35 a6 40 3a
       0.015740309 0.015046893 0.015119988 0.00073489855
000020 0a be 58 3c a2 f6 55 3c f0 28 d7 3b 83 2e 2f 3c
       0.013228903 0.01305929 0.0065661594 0.010692242
000030 dc c3 fa 3b 80 85 0a 3c f8 1e 30 3b f0 8b 33 3c
       0.007652743 0.00845468 0.0026873928 0.010958657
000040 42 88 a7 3b 87 12 53 3b 03 26 35 3c 68 9a 81 3c
       0.0051126787 0.0032207088 0.011056426 0.015820697
000050 8f 57 a8 3b 8b 7c 17 3c 38 92 36 3c 46 50 03 3b
       0.005137391 0.009246002 0.01114326 0.002003686
000060 3b 34 bd ba 76 d8 48 3a 18 a6 32 3b 01 9d c7 3b
       -0.0014435122 0.000766165 0.0027259644 0.0060917144
000070 75 9c a8 3b d0 06 c9 3b a3 45 6f 3c 19 e6 2c 3c
       0.0051456043 0.0061348453 0.014604005 0.010552906
000080 62 6c fb 3b 50 b1 55 3c fd 01 57 3c 06 d4 97 3c
       0.0076728323 0.013042763 0.013123033 0.018533718
000090 be 3c 3e 3c ce c1 e5 3b b1 d2 78 3c aa ee 8e 3c
       0.011611162 0.0070116287 0.0151869515 0.017447788
0000a0 d3 cc d8 3b 0f 27 1e 3c 0f 07 5a 3c e9 c7 8e 3b
       0.006616214 0.009652867 0.013307347 0.0043573272
0000b0 3d 5b 73 3c 74 0d 0d 3c 9a 46 66 3c b9 88 02 3c
       0.014853296 0.0086091645 0.014054919 0.0079671675
0000c0 c8 3f 17 3c c5 84 f0 3b ff 36 4f ba eb ce a2 38
       0.009231515 0.007340046 -0.00079046184 7.7633034e-05
0000d0 fd 8e 66 3b d2 15 55 3c 63 be 02 3c 9b f7 21 3c
       0.0035180443 0.013005691 0.007979962 0.009885694
0000e0 27 7e c9 3b 12 92 24 3b 88 3f 00 3b a6 81 d2 3a
       0.0061490717 0.0025111479 0.0019569118 0.0016060367
0000f0 c3 f3 60 3c 4b b6 d4 3b b1 e0 86 3c b6 08 94 3b
       0.013729992 0.0064914576 0.016464563 0.00451764
000100 b3 1a fe 3a 5c c2 53 3c d7 f8 be 3b d1 7e 15 3c
       0.0019386619 0.012924757 0.005828004 0.009124474
000110 2c 4a e3 3b 82 85 62 3c b1 e2 37 3c 45 57 74 3c
       0.006936332 0.013825776 0.011223481 0.014913385
000120 d1 c2 76 3c 93 d6 1e 3c fc 34 6b 3c 76 56 c6 3b
       0.015061096 0.009694713 0.014355894 0.0060527874
000130 1a 22 88 3c 2f 57 59 3c 3a f7 08 3c 60 15 ec 3b
       0.016617823 0.013265415 0.008359725 0.0072046965
000140 e8 08 90 3c f9 6b 02 3c 31 a2 0c 3c 6c 00 59 3c
       0.017582372 0.007960313 0.008583591 0.0132447295
000150 da e0 0b 3c e8 c3 45 3c d7 31 9f 3c 2e 7e df 3b
       0.0085374955 0.0120706335 0.019432945 0.0068204617
000160 14 bd 10 3b 2a 69 4c 3c 39 2e b6 3a f8 39 31 3c
       0.0022085356 0.012476245 0.0013899273 0.0108170435
000170 13 01 39 3c d6 f8 2a 3c 34 46 a8 3c da 6a 2d 3c
       0.01129176 0.010435304 0.020541288 0.010584557
000180 a5 51 84 3c 21 09 c5 3b 20 ea 0c 3b 96 73 6b 3b
       0.016152212 0.006013051 0.0021501854 0.003592705
000190 f1 39 d0 3b 89 3e d5 3b 57 3a c5 3b 6c 41 bd 3b
       0.0063545634 0.006507699 0.0060189175 0.005775621
0001a0 c2 db 72 3c a9 59 30 3c e3 82 98 3c 38 fd 43 3c
       0.014822902 0.010763564 0.0186171 0.0119622275
0001b0 ce 38 22 3b 3b 51 32 3c a5 80 79 3b a3 8d c5 3b
       0.0024753097 0.010883625 0.0038071063 0.0060288473
0001c0 6d 29 0a 3c d2 0f 10 3c 30 1b 28 3c 88 6c 65 3c
       0.008432728 0.008792834 0.010260388 0.014002927
0001d0 bc 64 7a 3b 5b 00 f3 3b d9 d6 d6 ba df 40 81 3c
       0.0038207015 0.007415814 -0.0016390934 0.015778003
0001e0 3e 0c ed 3a 6c b3 1f 3c 6c 05 3a 3c 33 e5 24 3c
       0.0018085313 0.009747367 0.011353832 0.010064411
0001f0 95 db 13 3c a3 4c 99 3c 03 cd 94 3c 5d 1e 95 3b
       0.00902452 0.018713301 0.018164163 0.0045507387
000200 09 9f 12 bc 43 81 c8 3c 8f ed dd 3a e1 51 1c 3c
       -0.00894905 0.0244757 0.001693176 0.009541006
000210 b2 37 2c 3c 90 6f 2c 3c 04 57 43 3c db 2a ca 3a
       0.010511326 0.010524645 0.011922602 0.0015424149
000220 1a 2a 13 3c da 41 60 3c b7 a1 a0 3a a4 20 0b 3c
       0.008982206 0.013687575 0.0012255226 0.008491669
000230 7b ea 4b 3c d1 d0 d4 3a db 51 c3 3b 1b 26 37 3c
       0.012446041 0.0016236549 0.0059606857 0.011178519
000240 55 4e 27 3b 5c 9a 61 3b 25 73 01 3c 39 7c 83 3c
       0.0025528867 0.003442428 0.007900988 0.016050445
000250 cc 8b c7 ba c5 5b 4c 3b 6a f0 10 3c e2 3b 47 3b
       -0.0015224158 0.0031182629 0.008846382 0.0030400683
000260 72 82 25 bb 05 ea ed b9 3d d4 82 3b 73 64 99 3b
       -0.0025254753 -0.0004537852 0.003992586 0.004681164
000270 f8 bd a2 3b 51 9b 3c 3b 59 f6 54 3c a7 e8 97 3a
       0.0049664937 0.00287791 0.012998187 0.0011589722
000280 78 2b 29 3c f2 09 38 3c 61 43 a5 3b b9 1a 46 3c
       0.010325305 0.01123284 0.0050434326 0.012091332
000290 94 8b b3 3b 46 3f 43 3b be cd 06 3c 9a 4b 3a 3c
       0.0054792855 0.0029792353 0.008227764 0.011370564
0002a0 c2 08 a3 3a 34 f5 5d 3a fe dd 3c 3c eb 36 43 3b
       0.0012438523 0.0008467019 0.011527536 0.0029787372
0002b0 31 0d 13 3c f8 55 9a 3b 5d 4f 45 3c d3 94 cc 3b
       0.008975313 0.0047099553 0.012042847 0.006243327
0002c0 6f 76 1d 3c e2 dc db 3a 41 95 e3 b9 a1 ae db 3a
       0.009610756 0.0016774202 -0.00043408017 0.0016760417
0002d0 2c 20 9a 3a c1 ab 54 3c 43 66 da 3b 34 6a af 3b
       0.0011758856 0.012980402 0.0066650226 0.0053532366
0002e0 61 65 a5 3b 1c 93 8b 3b 26 05 a8 38 31 4b cf 39
       0.0050474857 0.00425948 8.011823e-05 0.0003953814
0002f0 ed b4 26 3c 79 ed ca 3b 3f 58 57 3c 3b 50 7c ba
       0.010174972 0.0061928597 0.013143598 -0.00096249924
000300 ba b5 6c 3a c2 46 c7 3b 12 36 06 3a 51 82 ab 3b
       0.0009029765 0.006081433 0.00051197514 0.005234041
000310 34 d1 4a 3a d2 dc fd 3b ff 17 43 3c a9 d7 af 3b
       0.0007736862 0.007747271 0.011907577 0.005366285
000320 93 5b 8b 3c cb 0f 84 3b 83 00 3f 3c 0a 59 ba 3b
       0.01701144 0.004030203 0.011657837 0.005686884
000330 22 0b 61 3c f0 73 1e 3c 1b 99 d1 3a db 42 7a 3b
       0.013735564 0.009671196 0.0015991064 0.0038186822
000340 1d c2 40 3c 92 5d ac 3b 92 82 06 3c 1d 58 9e 3b
       0.01176503 0.005260178 0.008209841 0.0048322813
000350 1f 46 9b 3b 48 33 69 3c 3a da 0d 3c d9 e9 b1 3b
       0.0047385837 0.014233418 0.008657986 0.005429488
000360 d7 9c e8 39 f2 77 29 39 4f 48 76 b9 fd 3f cd 3b
       0.00044367343 0.00016161779 -0.00023487325 0.0062637315
000370 04 5f 15 3c 13 11 61 3b ca 50 b4 3c 85 ba 0c 3c
       0.009116892 0.0034342452 0.02201118 0.008589392
000380 5d 20 8c 3c f6 e2 94 3b 73 4e 00 3b 01 ea 01 3b
       0.017105276 0.0045436574 0.001957801 0.0019823315
000390 2a c7 67 3b 0c fa 29 3c 0c 82 c2 3b 23 ef 96 39
       0.0035366514 0.010374557 0.005935913 0.000287884
0003a0 95 d6 62 3c 1c 72 27 3c 00 96 90 3c 1f a6 eb 3b
       0.013845106 0.010220077 0.01764965 0.007191434
0003b0 c3 47 87 3a a6 d1 3b 3c 9e ec 8e b9 5c e0 54 bb
       0.0010321069 0.011463558 -0.00027260644 -0.0032482361
0003c0 72 e5 d7 3a f6 25 f8 3b 7d 5f 95 3b 6a 88 48 3c
       0.0016471578 0.0075728847 0.004558502 0.012239555
0003d0 b9 b4 ce 39 84 9c c8 3b de 77 8d ba 67 3e fb 3b
       0.0003942603 0.0061221737 -0.001079317 0.007667351
0003e0 14 20 2d 3a f3 cf f4 3b 5d a4 81 3b 31 e8 2d 3c
       0.0006604206 0.0074710785 0.003956361 0.010614441
0003f0 9e 13 05 3c cd 2a 31 3c f6 07 12 3c 68 05 fd b9
       0.008122353 0.010813427 0.008913031 -0.00048259948

lstm.weight_ih_l1 f4 [512, 128]
000000 93 d8 af bd 31 8e fc 3c 69 66 20 3d b8 7f 09 bd
       -0.0858623 0.03082952 0.039160166 -0.033569068
000010 95 95 32 bc 45 18 4d 3d 32 4a d7 3c 72 8e 27 bd
       -0.010899921 0.050071973 0.026280496 -0.04090733
000020 cd 9a 04 3d e3 7c 50 bc 3a f5 11 3d cb ef a7 3d
       0.032374192 -0.012725088 0.035634257 0.08200034
000030 28 2b e9 bc 6d a3 96 3d 0b 57 c7 bd 76 4a 9d bc
       -0.028462961 0.0735539 -0.09733399 -0.019200545
000040 87 0b 5c 3d e4 54 9d 3d 6e d6 92 bd 1f 80 30 3d
       0.05372193 0.07682207 -0.071698055 0.043090936
000050 cc a2 49 3d 4e 29 35 bd 4f ed 8d 3d 73 39 29 3d
       0.04922752 -0.044228844 0.06930029 0.041314553
000060 64 ad e4 3a 26 0d 8d 3b 60 88 80 3c 28 44 86 3d
       0.0017446694 0.004304546 0.015690029 0.065559685
000070 40 93 95 3b a5 eb 98 bd f9 ce 0c 3d 6f 44 31 3d
       0.0045646727 -0.074668206 0.034377072 0.043278154
000080 07 5a e5 3c e9 ff 9d bd cb d6 a9 bd f3 32 74 bd
       0.02799703 -0.077148266 -0.08292922 -0.0596189
000090 6b aa 97 bd 10 d0 7e 3d d8 52 b9 bd cd 9d 39 3c
       -0.074055515 0.062210143 -0.09049004 0.011329127
0000a0 74 6a 9a bd db 87 9b 3c 3b 1f d8 bc 2b 16 7a bd
       -0.075398356 0.01898568 -0.02638208 -0.061056297
0000b0 7d 62 a9 3d a7 fe a6 3d ee 3e 4e 3d 03 e8 59 b9
       0.08270738 0.0815404 0.050352983 -0.00020781164
0000c0 7f 47 e1 3d f5 5e d7 bc 2a 50 54 bd 4e 1c 66 3d
       0.10999965 -0.026290396 -0.051834263 0.056179337
0000d0 8e 4c b5 bc 21 7b c1 3d 9d 2b 8d 3d 6a 73 93 bd
       -0.02213123 0.09447313 0.06893084 -0.07199748
0000e0 ab e0 1f bd 50 57 8f 3d 16 c8 c6 3d 5a 9d 29 3c
       -0.03903262 0.069990754 0.09706132 0.010352457
0000f0 af 6e d2 bc a1 d6 d7 bb e0 f4 17 3d bf 9e 68 bd
       -0.025687544 -0.006586865 0.037098765 -0.056792017
000100 69 e6 80 3d 12 7f 1d bb d2 f2 2f 3d 03 3c 81 bd
       0.06293947 -0.0024032039 0.04295618 -0.063102745
000110 ab 0a 51 bd a3 96 2f bd 63 e7 ef ba fa 3c e7 3b
       -0.051035564 -0.042868268 -0.0018303212 0.0070568295
000120 fa 94 93 3d 9c f8 70 3d c6 f1 46 bd 02 e4 5a bd
       0.072061494 0.058830842 -0.048570417 -0.0534401
000130 d3 92 93 bd ab 3e db 3c 70 66 9f bd c1 83 90 ba
       -0.07205739 0.02676328 -0.0778321 -0.0011025594
000140 d9 f8 a1 3d 99 38 a1 bb a7 4c 4f bd 11 d0 cc 3b
       0.07908792 -0.004920077 -0.05061021 0.0062503894
000150 e7 08 27 bd b2 9f bc 3d 3c 54 9b bd c6 89 ec 39
       -0.040779974 0.09210147 -0.07584426 0.00045116077
000160 f9 6f c9 bb 30 34 b2 bc f4 7c 1d 3d ea eb fd bc
       -0.0061473814 -0.0217534 0.038449243 -0.030996282
000170 06 aa a1 bc 2c 83 c1 3d 1d 26 0b bd fa c4 a6 bd
       -0.019734394 0.09448847 -0.033971895 -0.08143039
000180 6f 90 ff 3b d0 a6 aa 3d 62 80 c0 3d 06 46 a3 bc
       0.0077992002 0.08332598 0.09399487 -0.01993085
000190 e7 80 8a 3b ab 9b 6b 3c 2e ec 00 bd c1 ef fd 3c
       0.004226792 0.014380376 -0.03147524 0.030998113
0001a0 fb 41 db 3c c8 ac 48 3d fe d4 47 bb e6 74 5e 3c
       0.02676486 0.048992902 -0.0030491943 0.013577675
0001b0 35 63 28 3d 50 9f 10 3b 1f 0b 99 3d 1c d6 8b bd
       0.041110236 0.0022067614 0.07472824 -0.068279475
0001c0 96 94 b5 bd 1c ea f5 3c c3 cd df bc 82 16 a3 3d
       -0.08866231 0.030018859 -0.027319795 0.079632774
0001d0 19 70 a6 3d 95 fc 36 3d bc 71 e2 3b 2a 94 f0 bb
       0.0812685 0.044674475 0.006910531 -0.0073418813
0001e0 23 97 93 3d 9a f0 66 bd e5 51 00 3d b9 c5 a8 3d
       0.072065614 -0.0563818 0.0313281 0.082408376
0001f0 2f 1c 1f 3a 70 9a ae 3d bb f7 53 3c d3 07 7f 3d
       0.00060695683 0.0852555 0.0129374815 0.06226332
000200 39 34 91 bd cb 9e 91 bd e0 f1 bd bc 76 c7 3a 3d
       -0.07090039 -0.071103655 -0.023186624 0.045600377
000210 25 61 56 bd 96 9b cc 3c 09 ef c1 3d 65 51 88 bd
       -0.052338738 0.024976533 0.094694205 -0.0665615
000220 9e 26 0e 3d 31 6a a2 3b a6 b7 80 3d 06 4e ba bd
       0.034704797 0.0049565067 0.06285028 -0.09096913
000230 d7 a9 27 bb 73 20 5f 3d ab 21 ea 3c 53 b8 23 bc
       -0.002558341 0.054474305 0.028580507 -0.009992677
000240 ab 6d 08 bc 7a e1 f7 3c 3c 1b fe 3c 31 59 30 3d
       -0.008326928 0.030258883 0.031018846 0.04305381
000250 0b 7a 77 3c 1f db 1a 3c 1c 03 01 bd d3 52 0a 3d
       0.015104781 0.009451657 -0.031497106 0.033770394
000260 46 26 f6 3c cf 4e 83 3d 34 09 1b bc c5 e5 c9 bd
       0.030047547 0.06411516 -0.009462643 -0.09858278
000270 13 23 c7 3c e8 25 0c 3d a0 64 9e 3d 1d a8 92 bd
       0.024308717 0.034215838 0.077340364 -0.07160971
000280 48 c7 8c 3d 0e 37 b4 bc f0 91 a1 bd 2c fc de 3c
       0.068739474 -0.021998908 -0.078891635 0.027219854
000290 aa aa ba 3d d5 ca be bd 8b bc 85 bd 9c 7f a9 3d
       0.09114583 -0.09316031 -0.06530102 0.08276293
0002a0 97 b8 a4 bd e8 8a 4f bd 92 29 ec bc 20 0e 22 3d
       -0.0804302 -0.05066958 -0.028828416 0.039564252
0002b0 35 a4 3f bd a9 5b d4 3c 3b 1c ab bd c3 3e 2a bc
       -0.04678746 0.025922613 -0.08354994 -0.01039094
0002c0 aa a0 b9 3c 03 10 14 bd 6c 54 51 bd 51 f5 71 3c
       0.022659618 -0.036148082 -0.0511059 0.014767961
0002d0 00 9b b7 3d b0 13 31 bc 06 0f 4f 3d 7d 8a a5 bc
       0.08965111 -0.0108079165 0.050551437 -0.020207638
0002e0 74 fa 2b bd ef 8f 9a bc b8 d5 46 3b b9 4b a0 bd
       -0.041986898 -0.018867461 0.0030339789 -0.07826943
0002f0 3b c4 80 3b b4 f0 57 bd a5 83 eb 3c 4f 3e 56 bd
       0.0039296425 -0.052719787 0.028749296 -0.052305516
000300 e4 de c3 3d c8 ea 2a 3d 0c 99 30 bd 38 6b 9f 3d
       0.095639974 0.04172781 -0.043114707 0.07784122
000310 16 33 b2 bc a6 c4 aa bd b0 57 44 bc 10 c9 8e 3d
       -0.021752875 -0.08338289 -0.011983797 0.069719434
000320 19 e5 b6 3d 0e 32 53 bd 54 7c c5 bc a5 d1 71 bc
       0.08930416 -0.051561408 -0.024107136 -0.014759456
000330 72 eb 90 3d eb 62 75 3d 60 c8 97 bd 9c 4c 8b 3d
       0.07076158 0.05990879 -0.074112654 0.068017215
000340 37 38 94 3d 50 2c 8c 3c 5f 72 a8 bd 16 04 63 bd
       0.07237285 0.017110974 -0.082249396 -0.05542382
000350 ad 30 8d 3c d5 df 57 3c ec 91 b8 3d c3 34 8f bc
       0.017235124 0.013175924 0.090122074 -0.017481213
000360 8f 2f 85 3d eb 22 49 3d 0c 63 d0 3c ca 8d d5 3c
       0.06503212 0.049105566 0.025437854 0.026068587
000370 72 44 af bc ee 30 4f 3c 92 0b 25 3d a9 f0 6f bc
       -0.021394942 0.012645943 0.040294237 -0.01464478
000380 58 d5 e9 3c 13 77 d7 3c e6 fa cc 3d c6 a2 18 3d
       0.028544113 0.026301896 0.100087926 0.037264608
000390 7c be 77 3d ae 93 46 3a d4 f3 93 bd a4 67 7b 3d
       0.060484394 0.00075751066 -0.07224241 0.061378136
0003a0 19 5f 07 bc d6 99 11 3d 59 14 ed 3c 43 fe f6 bc
       -0.008262419 0.0355471 0.028940367 -0.030150538
0003b0 3c 0e 4d bd 09 45 52 3d 5b 20 fe bc 52 04 9a 3c
       -0.050062403 0.05133537 -0.031021288 0.018800888
0003c0 64 9f c7 3c a3 73 33 bc d5 a3 44 3c 94 92 54 bc
       0.024367996 -0.010952863 0.012001951 -0.0129744
0003d0 6c 82 8a 3d 65 d6 bb bd 3b f9 6a 3d 44 55 76 3b
       0.06763157 -0.09171752 0.05736659 0.0037587443
0003e0 01 cc 18 bd 1b bf 6c 3d 7f ad 86 bc 22 15 52 3d
       -0.03730393 0.05779944 -0.016440151 0.051289685
0003f0 ed 52 65 bd 42 ef 23 3c f1 ab d9 3c 26 d3 02 3d
       -0.055987287 0.010005774 0.026571246 0.031939648

lstm.weight_hh_l1 f4 [512, 128]
000000 81 65 f7 3b 51 0a 89 3d eb 95 8d 3d 87 35 8a 3d
       0.007549942 0.06691421 0.0691336 0.06748491
000010 2c 35 73 bd 7e 04 3f bb f6 10 49 bd 14 12 9b bd
       -0.05937688 -0.0029146965 -0.04908844 -0.075718075
000020 b4 cf 88 3d c1 3f 89 bd ae f9 96 3c 03 ba 12 bd
       0.06680241 -0.06701613 0.018429603 -0.035821926
000030 ae b0 b6 3d 56 98 83 3d c9 8f 78 3c 06 51 7f bd
       0.08920418 0.0642554 0.015171 -0.06233313
000040 8b 23 cf bc 00 04 ad bd f7 d7 b2 bc 0b b6 81 3c
       -0.025285503 -0.084480286 -0.021831496 0.015833875
000050 38 b6 c8 bc 89 5e 02 bc 23 a9 cd bc 3e b6 3f bd
       -0.024500951 -0.007957109 -0.025105065 -0.04680466
000060 b6 1f 31 3d 2c 4b dd bd 33 c0 38 3d 92 3e 55 bd
       0.043243133 -0.108053535 0.04510517 -0.052061625
000070 df 98 78 3c e4 f9 7f 3d b4 73 16 bc da 40 8d bd
       0.015173166 0.062494174 -0.009182859 -0.06897135
000080 0e 66 16 3d 8b 3f 84 3d 89 67 53 3d bb d5 63 bd
       0.03671842 0.06457432 0.05161241 -0.05562375
000090 b3 3d 10 3b 24 3a e7 bc 31 40 e3 bd 8b 13 45 bd
       0.0022009432 -0.028225966 -0.11096228 -0.04811434
0000a0 06 5c bd bd d2 75 33 bd 2f 3a 8b bd cc 7e 4d bd
       -0.09246068 -0.043813534 -0.06798207 -0.05016975
0000b0 e0 e6 88 3d 82 29 0f bd 4b 4b bb bd ff 73 52 bd
       0.06684661 -0.034951694 -0.0914522 -0.051380154
0000c0 df 82 37 bd 68 49 8e bc 44 54 1c 3d 48 75 98 3c
       -0.044802543 -0.017368987 0.0381663 0.018610612
0000d0 7b 5d 26 3d 04 c3 b9 3d 34 53 fb bc e2 db 4b 3d
       0.040616494 0.090703994 -0.030679323 0.049770243
0000e0 1c a5 bf bc 8b b7 9f 3d d4 b0 a7 bc fa e2 4c bd
       -0.02339416 0.0779868 -0.02047006 -0.05002115
0000f0 ad ce 2b bd 8b 81 d6 3d 62 f5 84 3c 71 6a a2 3d
       -0.04194515 0.10473927 0.016230289 0.07930458
000100 4a c0 d0 bc 19 3a 9a 3d b0 0e aa 3c ca 44 55 3d
       -0.025482316 0.075306125 0.020758957 0.052067555
000110 fd 01 89 bd 4b ea 97 bd be 58 0c 3d 53 fe 67 3d
       -0.06689832 -0.07417735 0.03426432 0.056639027
000120 04 d9 19 3c 78 54 0f bc 52 69 73 bd 23 c2 80 3d
       0.009390119 -0.008748166 -0.059426613 0.06287029
000130 8a 62 7a 3d c5 4a a3 3c 7b 38 3e 3d ef 5d 84 bd
       0.06112913 0.019933114 0.046440583 -0.06463229
000140 2b 6a 84 bd b7 e7 98 bd f0 c8 a2 bc aa 17 b1 3d
       -0.064655624 -0.07466071 -0.019871205 0.08647092
000150 64 a4 82 bd c8 e4 17 3b c2 03 29 3d dd e3 95 3d
       -0.06379011 0.0023177136 0.04126335 0.07318852
000160 f9 3e eb bc 4a c1 83 bd 88 6c 8e 3c d5 2b b1 bd
       -0.028716551 -0.06433351 0.017385736 -0.086509384
000170 01 78 44 3d e5 ad 90 3d 80 98 12 bd 0d 3a 87 bd
       0.047966007 0.07064418 -0.035789967 -0.06602869
000180 06 25 65 bd e9 a6 a0 3d dc 35 b3 3d ff ab 53 bd
       -0.05594351 0.078443356 0.08750507 -0.0516777
000190 50 d1 72 3d 59 10 44 bd 3b 99 ac bc 0f b0 48 bd
       0.059281647 -0.047867153 -0.02106916 -0.048996028
0001a0 d8 3a 9e bd 03 91 22 3d 10 a7 5f 3d 6e 07 cb 3d
       -0.07726067 0.039689075 0.054602683 0.099135265
0001b0 ce be af 3d bb 57 b8 3d 8f 25 00 3d 7e f6 72 bd
       0.08581315 0.09001108 0.03128582 -0.059317105
0001c0 7c ac 7b bd ef 38 90 3d 34 f8 7d bb 19 21 b7 bd
       -0.06144379 0.07042109 -0.0038752677 -0.0894186
0001d0 03 cd a1 3b 75 c9 51 bd 05 28 9e bc a6 99 e7 bb
       0.0049377694 -0.051217515 -0.019306192 -0.007067877
0001e0 14 84 d5 bc 3f b9 2e bc f8 13 c3 3d d6 dc b6 bd
       -0.026063956 -0.010664283 0.09525293 -0.0892884
0001f0 8d 0f dd 3c 59 a8 c3 3d 57 9a 84 3d 36 b1 bb bd
       0.026984954 0.09553594 0.064747505 -0.0916466
000200 3d fe 82 bd 99 21 8a bc 3b 73 4d bc f1 8d 17 bc
       -0.06396148 -0.016861724 -0.01253968 -0.00925015
000210 f1 bd cc bc 18 f3 86 bd ca 03 1e bd 38 37 1f 3c
       -0.024992915 -0.06589335 -0.038577832 0.009717755
000220 8a 9f 66 3d e2 1b b3 3d 0e bb ca 3d 2a ed 25 bd
       0.056304492 0.087455526 0.09898959 -0.04050938
000230 f2 90 73 3d b1 4a 21 bd df 2e 60 3c 5c a3 b4 3d
       0.059464402 -0.039377872 0.01368305 0.08820221
000240 d5 1f 1a 3d ef 3c a7 3d ce 00 52 3d 52 79 95 bc
       0.037628014 0.08165919 0.0512703 -0.018246327
000250 7a dc a4 3d 87 1d b3 b6 1b 3e 59 3d f9 06 87 bd
       0.08049865 -5.338053e-06 0.053037744 -0.06593127
000260 e7 b0 cb 3b 0b e1 87 bd 79 a4 44 bc 1a c9 b8 3d
       0.0062161568 -0.066347204 -0.012002104 0.09022732
000270 58 97 79 3d 40 af 26 3d 64 ff b3 bd 25 a3 b4 bd
       0.06093535 0.040694475 -0.08788946 -0.0882018
000280 d9 c8 a6 bd b3 61 71 bd 88 bd 07 3d 55 5d e7 3c
       -0.081437774 -0.058931064 0.033139735 0.028242746
000290 6f 75 c1 3d 34 51 48 3d a8 d6 c8 bd fc f4 8c bd
       0.09446227 0.048905566 -0.098065674 -0.068826646
0002a0 63 b5 9a 3d 92 0e 26 bd 14 3f 30 bd 73 56 e0 bc
       0.07554128 -0.04054124 -0.043028906 -0.027384972
0002b0 ec 53 92 3d d6 fa 93 3d b6 b9 60 bd 2f 4c d0 bc
       0.07144913 0.072255775 -0.054864608 -0.025426952
0002c0 2c 77 d1 3c 50 c8 89 3c 62 fb 8d 3d 98 1f 54 3d
       0.02556952 0.01681915 0.06932713 0.051787943
0002d0 ad 9e d3 ba 86 02 d1 bc da 56 79 bb 0f a6 7a bd
       -0.0016145312 -0.025513899 -0.0038046152 -0.061193522
0002e0 b6 fd 3e bb fb 94 00 3d 06 ac 2a 3d 40 d0 b0 3d
       -0.0029142923 0.03139208 0.04166796 0.086334705
0002f0 a5 bc 9a 3d ac 70 68 3d af d6 ac 3d 46 79 34 bd
       0.07555512 0.056748077 0.08439385 -0.044060968
000300 bc ec ed bb 72 a6 fc 3c d1 bf a3 3d 83 7b 2c bd
       -0.007260887 0.030841086 0.079955705 -0.042109977
000310 96 60 ae 3d 33 ee 63 3d 52 f6 ee 3c 01 87 4f bd
       0.08514516 0.055647086 0.029170189 -0.05066586
000320 0a bf cb 3d e9 2f 24 bd 84 f4 4a bd 87 a4 a7 bd
       0.09948547 -0.040084753 -0.049549595 -0.08185678
000330 ee b6 a1 bd 4e 58 7e bc 58 13 8d 3b 73 38 c0 3d
       -0.07896219 -0.015523983 0.0043052845 0.09385767
000340 20 bc 9b bd eb b8 03 bd c6 bb 30 3d 54 6d 9c bd
       -0.07604241 -0.032158773 0.043147825 -0.0763804
000350 82 1e 20 3d 22 e0 8b 3c ea 01 25 3d 3b d9 64 3d
       0.039091595 0.017074648 0.04028503 0.05587123
000360 53 d9 84 bc 02 51 91 bb f4 08 b7 bb 36 d0 9a bc
       -0.01621691 -0.0044347057 -0.005585784 -0.01889811
000370 8f 3e 00 3d a8 d0 50 3d 7b f8 37 3c ea c7 5f bd
       0.03130966 0.05098024 0.011228676 -0.054634012
000380 89 b1 b3 3d e6 e4 12 3d 5f b2 4f bd 4b 93 b5 3c
       0.087740965 0.035862826 -0.050707217 0.022164961
000390 bc 23 89 3d d1 6a 56 3d 72 ab 11 3b e9 30 26 3d
       0.06696269 0.05234796 0.0022227434 0.040573988
0003a0 00 20 ce 3c 60 b3 80 bc 0a 77 0e 3d 8a e6 06 3b
       0.025161743 -0.015710533 0.034781493 0.002058419
0003b0 f6 3d bc bd 7b 6b 88 bd 50 4a 5e bd c3 83 82 3d
       -0.091915056 -0.06661125 -0.05427009 0.06372788
0003c0 df 02 c0 3d 41 6a 25 bd 91 ff 86 bd b0 83 b3 bd
       0.093755476 -0.040384535 -0.06591714 -0.08765352
0003d0 e3 25 13 bd 80 7f 3f 3d be 50 92 bd c6 58 16 3d
       -0.035924803 0.046752453 -0.071443066 0.036705755
0003e0 9c 7f f0 3c ea de eb 3c f6 49 d0 bc 4c 15 99 bd
       0.029357724 0.028792817 -0.025425892 -0.07474765
0003f0 2e ee 9b 3d f8 de 0c 3d 2a 0c b5 bd ba 47 a5 bc
       0.076137885 0.034392327 -0.08840211 -0.020175803

lstm.bias_ih_l1 f4 [512]
000000 8e d9 87 3c d8 91 2c 3c a5 a7 ab 3b 55 a0 74 3b
       0.01658323 0.010532819 0.0052384906 0.003732701
000010 bb 25 9f 3c cf 54 d1 3b cf 3a 54 3c 96 5f a3 3c
       0.019427171 0.006388284 0.012953474 0.01994304
000020 56 ae 01 3c a2 8f 71 bb d6 90 7e 3c 43 92 30 3c
       0.0079151 -0.0036859293 0.015537461 0.010777059
000030 72 0b 92 3c 01 52 d5 3b 2d 74 f9 3b 51 ce e7 38
       0.017827723 0.00651002 0.007612726 0.00011053368
000040 60 64 1f 3c 1e 7a 33 3c a2 d4 6d 3c 63 55 c1 3b
       0.009728521 0.010954408 0.014516028 0.0059000715
000050 69 13 80 3b 7c 3a b2 3b f1 a2 81 3c e8 24 8c 3b
       0.003908564 0.005439101 0.015824767 0.0042768605
000060 9f 08 73 ba 5b 97 b1 3b 51 24 bd 3b 38 7e 61 3c
       -0.0009270999 0.0054196543 0.0057721515 0.013763003
000070 dc c9 d5 3b d0 34 6b 3c b2 ee 26 3b 40 5e 04 3c
       0.0065243077 0.014355853 0.0025471863 0.008079112
000080 fe 1b bc b9 25 e2 57 3c e2 3a 0d 3c 55 0c b6 3b
       -0.0003587901 0.013176476 0.008619996 0.0055556693
000090 f8 a1 75 3a 67 33 cd 3b 43 de 08 3c 6f 46 d6 3b
       0.00093701435 0.006262231 0.008353773 0.006539158
0000a0 20 8d 8c 3b 49 3f 2e 3c 64 64 97 b9 f8 fc 54 3c
       0.0042892843 0.010635206 -0.0002887576 0.012999766
0000b0 6a 17 50 3c c1 1e b2 3c 8c 6c 81 3c 3f af 07 3c
       0.012700895 0.02174318 0.01579883 0.008281528
0000c0 f0 52 d7 b9 c4 6b f2 3b c7 2c 86 3b 31 65 80 3a
       -0.0004106979 0.0073981006 0.0040946933 0.0009795782
0000d0 b9 12 23 3c 41 ae f5 3b 67 4a fb 3b 26 c4 80 3c
       0.009953194 0.0074975793 0.0076687816 0.01571853
0000e0 b0 2d 31 3c 44 30 77 3b 59 47 7f 3c 25 ba a4 39
       0.010814115 0.0037717978 0.015580975 0.00031419206
0000f0 61 25 1c 3c 1d 13 84 3c c4 8c 8b ba 62 1d ca 3b
       0.009530396 0.016122395 -0.001064681 0.0061680535
000100 ef 2a 13 3b 99 f0 fe 3b 58 fc 3e 3c e7 dc a2 3b
       0.002245601 0.0077801463 0.011656843 0.0049701813
000110 2f 55 b3 3b b3 7f 0b 3b b1 13 9d 3b 78 5b 86 3b
       0.005472801 0.0021285831 0.004793607 0.0041002594
000120 4c 89 b1 3b d8 d4 ae 3b 8a f4 24 3c 8c 14 43 3c
       0.0054179784 0.0053354315 0.010068068 0.011906754
000130 a9 b7 ec 3b 19 5f 4b 3c 8d ed 28 bb 9b 1d 92 3a
       0.0072240424 0.01241281 -0.0025776357 0.0011147739
000140 5b 6d 59 3c b1 55 19 3c 05 4a 66 3b d3 a6 ec 3b
       0.013270701 0.009358809 0.0035139334 0.0072220354
000150 c3 05 0e 3c 17 d2 82 3c 70 65 20 3b b1 9f ac 3b
       0.008668366 0.01596932 0.0024474524 0.00526806
000160 88 5b 73 3c d8 42 2d bb b1 9c 01 3c 90 ba 2c 3b
       0.014853366 -0.0026437547 0.007910893 0.0026356317
000170 f2 88 f6 3b 5c d0 ab 3b b0 33 ec 3b 86 d9 4f 3c
       0.0075236494 0.005243344 0.00720831 0.012686139
000180 4b b9 39 3c 16 42 02 3c 9e f0 9e 3c 22 89 e8 3b
       0.011335681 0.007950326 0.019401845 0.0070964256
000190 3d ab 0a 3b b6 bb b5 3b b3 50 66 3b ee 9b 01 3c
       0.0021159195 0.0055460585 0.0035143315 0.007910712
0001a0 c9 06 6e 3c 25 95 25 3c 5f fd 04 3b 11 42 d2 3b
       0.014527985 0.01010636 0.0020292623 0.006416567
0001b0 73 20 f1 3b 55 45 55 3c 66 35 28 3c 68 ea 22 3c
       0.0073586046 0.013017018 0.010266637 0.009943582
0001c0 e8 4f f5 3a be 14 08 3c fe f1 7f 38 9a 8e 21 3c
       0.001871583 0.008305727 6.102211e-05 0.009860659
0001d0 1c f1 bb 3b f7 e4 60 3a 4b b5 31 3c e1 b6 85 3c
       0.0057355296 0.00085790403 0.010846446 0.016322555
0001e0 a5 6b 21 3c 10 bf 4e 3b 82 cf 15 3c 10 80 f2 3a
       0.009852325 0.0031546988 0.009143712 0.00185013
0001f0 eb 81 28 3c 08 74 05 3c 8c 6b c6 3b 43 2a 05 3c
       0.010284881 0.00814534 0.006055301 0.008127752
000200 ad c2 57 3c a0 25 b2 3b d9 04 93 3a 99 e6 d2 ba
       0.013168973 0.005436614 0.0011216655 -0.0016090452
000210 67 b4 47 3c a4 7c a0 3b 16 c4 5d 3a 6e 28 87 3c
       0.012189007 0.004897671 0.00084597 0.01649877
000220 6c 6c d7 3b eb 25 8a bb ab a3 65 3c 87 5c 8d 3b
       0.006574204 -0.004215946 0.014016072 0.0043140086
000230 69 0d 7a 3c 99 9b ad 3b 58 2a 70 3b 02 38 60 bb
       0.015261986 0.0052980897 0.0036646333 -0.003421307
000240 09 da e1 3b 29 0d d8 3b 86 b4 3c 3c 55 36 68 3b
       0.006892447 0.0065933657 0.0115176495 0.0035432775
000250 5c d1 bc 3a 7f 05 d0 3a 89 f0 d2 3b 59 1f 64 3a
       0.0014405656 0.0015870779 0.0064373654 0.0008702181
000260 06 04 2f bb 35 31 ba 3b f9 0e 61 bb 4b 6a 44 3c
       -0.002670528 0.0056821355 -0.00343412 0.011988233
000270 a2 45 9e 3b d3 f9 59 3c 68 d7 46 3b 60 8d b3 ba
       0.004830078 0.013304192 0.0030340794 -0.0013698749
000280 3a 75 00 bb db 88 20 3c 4c d7 dd 3b 6c 50 0f 3b
       -0.0019601122 0.009798254 0.00677005 0.0021868004
000290 d7 3f 08 ba 61 ac b5 3b 1d 88 cc 3b 3a 6f e2 3b
       -0.0005197501 0.005544231 0.006241812 0.006910232
0002a0 aa ec 14 b9 08 4b 1b 3c 43 7a 1a bb 45 2a 02 3b
       -0.00014202544 0.009478338 -0.0023571409 0.001986162
0002b0 46 fa 21 3c 5b 7e 96 3c 8f 3a 33 3c 17 af 31 3b
       0.00988633 0.018370798 0.010939254 0.0027112418
0002c0 82 af 1d bb 1e fd c7 3b ab 25 81 3b d8 38 94 bb
       -0.002406091 0.006103172 0.003941258 -0.004523378
0002d0 f9 bc 5e 3b 89 31 63 3b aa 75 c0 3b 20 d2 73 3b
       0.0033987148 0.0034666976 0.0058734016 0.0037204102
0002e0 aa 95 18 3c 4c 98 b4 3a 97 d0 59 3c 9f d0 33 ba
       0.009313026 0.0013778298 0.013294361 -0.0006859395
0002f0 b3 f1 6a 3b 46 3e 8a 3c 1d 50 0e bb 6e 1a ab 3b
       0.003584963 0.016875397 -0.0021715232 0.0052216565
000300 41 b6 b1 3a ff b9 49 3b 57 f3 e2 3b 72 60 ba 3b
       0.0013558344 0.0030781028 0.006925981 0.0056877667
000310 81 6c 14 3b 24 6d 6a 3a ff e8 55 b9 98 91 e8 ba
       0.0022647681 0.0008942655 -0.00020400061 -0.0017743586
000320 a4 45 8b 3b c5 45 9c 3b 9d 87 12 3c 29 9a 2f 3b
       0.004250245 0.0047690594 0.008943466 0.0026794767
000330 f2 27 bd 3b fa ef 65 3c 40 f0 ca bb ec bf bb bb
       0.005772584 0.014034266 -0.006193191 -0.005729666
000340 89 fc 26 3c af b2 15 3b 2a 54 cf 3a 8a a9 f4 3b
       0.010192045 0.00228421 0.001581793 0.0074664997
000350 29 91 f3 3b 95 be 60 3c 01 33 10 b8 8d 9d 59 ba
       0.007433076 0.013717313 -3.4379776e-05 -0.000830137
000360 17 aa 33 3c 9c 80 32 bb 2c 32 79 3a 9d d7 e6 ba
       0.010965846 -0.0027237302 0.00095060724 -0.0017611865
000370 a6 34 82 39 14 81 38 bb 0e 17 a7 3b 40 0a 3d 3b
       0.00024834758 -0.0028153108 0.005099184 0.002884522
000380 ea 0c 0c 3c 22 47 3e 3a 66 3c 97 3c ad dc 95 3a
       0.008548001 0.00072585244 0.018461417 0.0011433564
000390 87 9b 45 3a 8f c3 d2 3a f7 23 50 3a 11 99 c1 bb
       0.0007538129 0.001608001 0.00079399295 -0.0059081395
0003a0 88 96 ba 3b 48 c1 b9 3b 95 d4 e3 3a f3 48 b7 3a
       0.0056942143 0.005668793 0.001738208 0.0013983533
0003b0 b1 67 bd 3a f7 49 b4 3b 89 b4 e9 3b df c7 83 3b
       0.0014450458 0.0055019814 0.007132117 0.004021629
0003c0 bf 80 bf ba 5c 0f 18 ba ea 1c c4 bb 37 bb ad 3b
       -0.0014610513 -0.00058006286 -0.005984892 0.0053018588
0003d0 ac 64 26 3a 30 26 53 ba 45 d3 f2 3b 3b 6a 78 3c
       0.0006347399 -0.00080547016 0.007410439 0.015162046
0003e0 60 32 5b 3b ef 02 6a ba 1c 00 94 3a 7c 7a 30 3a
       0.0033446774 -0.0008926829 0.0011291537 0.0006732119
0003f0 a5 4e 16 3b e4 54 0c 3b 37 4e bb 3b e5 44 83 3b
       0.002293506 0.0021412903 0.005716111 0.0040060156
