models/2inst/checkpoint/DGTC.pth (torch, 875299 bytes, 12 tensors)

lstm.weight_ih_l0 f4 [512, 5]
000000 f2 46 a3 bb 29 bf c4 3d db 97 74 bd 98 8d 03 3d
       -0.0049828226 0.096067734 -0.059715133 0.032117456
000010 02 7e 80 bd db d6 13 3d 39 76 4e bd cf 50 29 3d
       -0.06274034 0.036093574 -0.050405715 0.04133683
000020 54 2f 0e bd 25 62 83 bd 9a c7 9c bd 22 24 ff bb
       -0.034713104 -0.06415204 -0.076552585 -0.00778629
000030 ea 10 b6 ba 05 b1 ad bd 0e 1d 85 3c 95 46 a7 3d
       -0.0013890539 -0.084810294 0.016249206 0.08167759
000040 5a 84 62 bd 6e bb 96 3c ca 0f b3 bd 29 6d 1e 3d
       -0.055302 0.01839992 -0.08743246 0.038678322
000050 bb 6d 59 3d 91 0e 3a 3d 86 fb bf 3c fd e1 23 3d
       0.053083163 0.045424048 0.023435365 0.04001044
000060 7d e1 78 3d 6a 5c c1 3d d8 b1 dc 3d f9 c0 bc bd
       0.060761917 0.09441455 0.107761085 -0.09216494
000070 7a 12 75 bd f1 01 c9 3d 38 7b 88 3d 66 0e 9f 3d
       -0.059832074 0.098148234 0.06664127 0.07766418
000080 41 79 a7 3d 5c 0f 9d bb 3c 94 63 bd 70 03 28 bd
       0.08177424 -0.0047930907 -0.05556129 -0.041018903
000090 da 7f 47 3c ad 81 b1 bc 0d 12 21 3c e2 95 0a 3d
       0.012176478 -0.02166828 0.009830964 0.033834346
0000a0 1b 1d b5 bd 0a b1 8c 3c 7c 36 8c bc 1e 7b 4a bc
       -0.08843442 0.017174263 -0.017115824 -0.012358455
0000b0 81 79 10 3d 3b d2 c7 3d 62 4c af bd ca 8d 82 bd
       0.035272125 0.09756895 -0.08559491 -0.063747
0000c0 03 49 ad 3c 48 77 1e 3b dc d2 b6 3d 80 d9 d2 3c
       0.021152979 0.0024179984 0.08926937 0.025738478
0000d0 11 16 bc 3d 38 7b 81 bb a5 fb 04 bc 94 f7 aa bd
       0.09183896 -0.0039514564 -0.008116637 -0.08348003
0000e0 a2 53 52 3d 1e 84 f2 3d d3 17 32 3d 11 c0 8d 3d
       0.05134929 0.118416056 0.04347975 0.069213994
0000f0 5b 6e 92 3d cf 38 3c 3d 48 0b 5a bd 20 5c 8b 3d
       0.07149955 0.045952614 -0.053233415 0.06804681
000100 cc f9 d0 3d 88 34 bb bd 87 24 cf 3d b0 8f c7 bd
       0.10203895 -0.09140879 0.10114389 -0.09744203
000110 a0 38 f3 3c c2 f3 0c bd 47 a7 56 bb 51 35 ce bd
       0.029690087 -0.034412153 -0.0032753514 -0.10068763
000120 28 0b d7 3d 51 8f a0 bc 33 03 51 3c bb a6 8c 3d
       0.10500175 -0.019599589 0.01275711 0.06867739
000130 ff 14 82 bd da cf 5c bd 4c b3 8b bd 97 51 9c bd
       -0.06351661 -0.05390916 -0.068213075 -0.076327495
000140 67 4a b7 bd b2 08 c5 bc ac 8f fd 3c c8 6c 62 bd
       -0.08949738 -0.024051998 0.030952297 -0.055279523
000150 e9 bc 98 bd 3e b5 93 3d 7d 5c 29 3d c8 1b a2 3d
       -0.07457907 0.072123036 0.04134797 0.07915455
000160 f4 15 ba 3d ae eb a6 bb 08 da 8e bd b7 9a 71 bd
       0.090862185 -0.005094013 -0.0697518 -0.05898544
000170 3b 69 df 3c 47 4d fa 3c de aa e4 3d c1 94 ba bd
       0.027271857 0.030554427 0.11165403 -0.09110404
000180 85 f3 2d 3d cc 53 27 3d 3e 36 fb 3d cf ab 8e bd
       0.042468566 0.0408514 0.12266205 -0.06966364
000190 a0 91 a9 3d 95 59 f3 3d 5c 1a 53 bd 5c c1 9c 3c
       0.08279729 0.11882321 -0.05153881 0.01913517
0001a0 c6 1a 36 bc ef bd 17 bd 87 1b ee bc a2 08 bb bd
       -0.011114782 -0.03704637 -0.02906586 -0.09132506
0001b0 6d c8 a3 bd ef ce 71 bd a2 cf 46 bd de 5d e7 3d
       -0.079972126 -0.059035238 -0.048537858 0.112972006
0001c0 b8 a1 b8 3c 22 c4 a4 3d 46 45 80 3d c4 ed 91 3d
       0.022538051 0.08045222 0.06263213 0.07125428
0001d0 79 33 fd 3c cd 87 d3 bd b4 26 4e bd 52 4d 0f 3d
       0.030908333 -0.10328636 -0.05032988 0.034985848
0001e0 32 95 51 3c 5f 79 c7 3b 89 e4 b6 bb e2 f8 fe 3c
       0.012791919 0.0060874666 -0.0055814427 0.031124536
0001f0 bb 2d a4 bd ed b2 e5 bb 2e 0a 2c bd 71 c2 91 bd
       -0.08016535 -0.007009855 -0.042001896 -0.07117165
000200 33 3c b9 3b af fb 84 3d bd 28 42 3d 18 6e 3e 3c
       0.0056529283 0.06493317 0.047402132 0.011622928
000210 9f 9d 86 3b 6d cc b7 3d 87 aa d2 bd cd 9b fa 3d
       0.0041081454 0.08974538 -0.10286432 0.12236748
000220 15 da 18 bd 9a 96 df 3d 76 ca 16 bd 5c 27 93 bd
       -0.037317354 0.10917397 -0.036814176 -0.071852416
000230 e4 b8 ae bd ed cf de bb ff 5c f5 bc 56 ed e8 3d
       -0.08531359 -0.006799689 -0.02995157 0.11373393
000240 53 12 1c 3c af c2 9f bd 88 95 a2 3d 98 cb bb bc
       0.009525853 -0.07800805 0.07938677 -0.02292423
000250 e0 06 0e 3d 9b 58 8d 3d 0b a6 bb bc 60 e1 7a bd
       0.034674525 0.06901666 -0.022906324 -0.06125009
000260 f1 b5 42 bd 34 25 23 bd 7b 46 a5 bb e4 e6 9e bd
       -0.047536794 -0.0398304 -0.0050438023 -0.07758883
000270 ab 68 a8 3d 8b a1 64 3d 43 fd 02 bd ec a3 36 bd
       0.08223089 0.055818122 -0.03197981 -0.04458992
000280 c8 c3 bb 3d 64 81 8f bc 7c a3 aa 3c eb 06 3a 3d
       0.09168202 -0.017517753 0.020829909 0.045416754
000290 1a d8 08 bd 5f cd 07 bd 69 ea 42 3d 78 a4 d8 3d
       -0.033409216 -0.03315484 0.047586832 0.10578245
0002a0 3a 76 8a bd a5 8a a9 3d de 46 d6 3c bf af 52 3d
       -0.06760831 0.082783975 0.026156839 0.051437136
0002b0 24 d8 19 3d 7c b8 c5 bd 39 2f 02 bd 2e 38 f9 3d
       0.037559643 -0.09654328 -0.031783316 0.121689186
0002c0 b8 49 22 3d 70 0d 43 bd de 4b 4c bd 4f 16 05 3e
       0.039621085 -0.047620237 -0.04987704 0.12996791
0002d0 d4 09 26 bd 0e bd d5 3d 76 25 2a 3d 97 18 93 3d
       -0.040536717 0.1043645 0.04153963 0.071824245
0002e0 ac 5f 37 bd 0c df 24 bd 7f 62 bc bd 07 e6 40 3d
       -0.044768974 -0.040251777 -0.09198474 0.04709437
0002f0 8b a5 28 bd e7 66 fa 3c 37 02 38 bd b8 5d f1 3d
       -0.0411735 0.030566646 -0.044923987 0.117854536
000300 2f e0 8b bc 62 6d a2 3d 01 c6 a7 3d 5e 5d a6 3d
       -0.017074673 0.07931019 0.08192063 0.08123277
000310 bc ae b1 3c b5 eb 8c 3d 4c c7 2f 3b 7f 59 be 3d
       0.021689765 0.06880895 0.002682167 0.09294414
000320 f8 4e 1b bd 6f 4b bd 3d fd 89 73 bd b8 0d 5a bb
       -0.037917107 0.092429034 -0.059457768 -0.0033272337
000330 f6 de 41 3d 44 d4 65 bc bc 0f 26 bc c1 4d b4 3b
       0.047331773 -0.014027659 -0.010135587 0.005502433
000340 88 1d 90 bb 09 a2 de 3d 65 72 47 3d 11 33 e5 3d
       -0.0043980516 0.108707495 0.04869308 0.11191381
000350 11 31 98 3d 84 58 24 ba 23 63 ba bd e2 47 1d 3d
       0.07431234 -0.00062692934 -0.0910094 0.03839863
000360 cf 65 91 bd fa a0 63 3d 94 02 74 3d d8 b1 b8 bb
       -0.070994966 0.05557344 0.05957277 -0.005636435
000370 fb 73 ee 3c fd 9d e8 bb f0 4d cb 3d 5f 29 2e 3d
       0.029108038 -0.007098912 0.09926975 0.042519923
000380 a5 ed 19 bd 91 b9 93 bd d3 70 e1 3d 12 a1 66 bd
       -0.03758015 -0.07213128 0.11007848 -0.056305952
000390 f4 14 75 bc 6c 77 b9 bb db 34 57 bd 33 ab 06 3d
       -0.014958609 -0.005659988 -0.05254064 0.032878112
0003a0 74 c0 62 3c aa c6 a7 bd eb 4c 84 3c 50 37 a4 bd
       0.01383983 -0.08192189 0.016149959 -0.080183625
0003b0 fc 4d 90 bb e7 58 83 bd a3 17 a2 3c 4c 8b 31 bc
       -0.0044038277 -0.06413441 0.019786661 -0.010836434
0003c0 f3 58 f8 3d 87 39 62 bd ab 25 d9 bb 16 83 8c 3d
       0.12126341 -0.055230644 -0.006626805 0.0686094
0003d0 53 ae f4 3d 95 d5 c7 3d d4 44 92 bd e8 4d 25 bd
       0.11947312 0.097575344 -0.07142034 -0.0403575
0003e0 9c f7 c6 3d 2c 1d 95 bd b6 e1 c9 bd b3 21 88 bd
       0.097151965 -0.07280955 -0.09857504 -0.066470526
0003f0 67 6a 80 bd 02 c9 cf 3d b3 fc 4d 3d a2 bb 8a 3d
       -0.06270295 0.10145761 0.05028982 0.06774069

lstm.weight_hh_l0 f4 [512, 128]
000000 e3 94 c3 3d a3 75 81 3d 4c 6f 48 bd d0 a8 2f bd
       0.09549882 0.063212655 -0.048934266 -0.0428856
000010 53 32 a6 3d b3 25 28 bd a6 3a a0 bd 34 bd 96 3d
       0.08115067 -0.041051578 -0.07823686 0.073603064
000020 5e a4 19 3d 4d d5 88 3d fd 08 25 bd bb 25 c4 3d
       0.03751027 0.06681309 -0.040291775 0.09577509
000030 a0 f7 ba bd 1d 85 a6 bd ec ed 69 3d 51 06 25 bd
       -0.09129262 -0.08130858 0.057111666 -0.040289227
000040 77 53 98 bd f3 b6 3c 3d 3d c5 4d bd cd 68 b2 bb
       -0.07437795 0.04607291 -0.05023693 -0.005444622
000050 76 78 b4 bd 4e 8a ff bb 82 41 43 3d 14 74 8d bc
       -0.088120386 -0.0077984696 0.047669895 -0.017267264
000060 d7 d5 da bc e2 b2 c7 bd 7e d5 ae bb b6 5a 22 3d
       -0.026713295 -0.09750916 -0.005335509 0.03963729
000070 72 05 cc bd 0f fa a4 3d 72 55 95 3d 36 af eb bc
       -0.09961976 0.080555074 0.07291688 -0.02877007
000080 ae 42 1d bc 16 09 93 3d 35 98 5a 3c de 94 b5 bd
       -0.009598417 0.071794674 0.013341953 -0.08866285
000090 a2 ce 94 3d b6 16 5d bd 59 98 38 bd 7b ce 4a 3d
       0.072659746 -0.053976737 -0.045067165 0.04951332
0000a0 f8 12 93 bc b9 16 90 bd 01 dd 85 bd ea ff 7b 3c
       -0.017953381 -0.07035584 -0.06536294 0.015380839
0000b0 04 b4 92 bd 42 c9 f6 bc 05 b4 1b 3c 14 ec 8b 3d
       -0.071632415 -0.030125264 0.009503369 0.06832138
0000c0 d5 5f 1f 3d 0b 97 37 bc cb dc 09 3d 45 8e a5 bc
       0.038909752 -0.011205445 0.03365783 -0.020209441
0000d0 19 1f be 3c 7f bf 30 bd 6a 44 b2 bd d0 b0 c0 bd
       0.023208188 -0.043151375 -0.08704455 -0.09408724
0000e0 98 74 22 bc 57 83 06 3d 20 17 1f bd 77 ea bb 3d
       -0.009915493 0.0328401 -0.038840413 0.0917558
0000f0 5c 3a 36 bc 43 55 aa bd 22 6f e9 bc 58 e2 19 3d
       -0.011122312 -0.08317044 -0.028495375 0.037569374
000100 27 c6 09 3d 39 e4 b2 bd c7 8e b5 3d bd fd 11 39
       0.03363624 -0.08734936 0.08865123 0.00013922802
000110 75 fb 7d bd ac b2 eb bc b2 7b a4 bd 2e c7 90 bd
       -0.062007386 -0.02877172 -0.080314055 -0.070692405
000120 93 5b 8e bb 74 b6 dd bb b9 09 e3 3b 60 76 79 bc
       -0.0043444126 -0.006766135 0.0069286493 -0.015225977
000130 00 2f 1f bd 58 c0 a3 3c 63 1b a0 3d 79 a9 bf bc
       -0.038863182 0.019989178 0.078177236 -0.02339624
000140 58 d5 4d bd 4e 52 ab bb 55 15 84 3d a8 57 bd 3d
       -0.05025229 -0.0052283173 0.06449381 0.09245235
000150 d8 11 d7 3b 87 0b 64 bd 73 8a ca bd 1c a7 42 3d
       0.0065634064 -0.055675056 -0.09889688 0.04752265
000160 70 15 e9 3c 93 90 a5 bc 4c fa b9 bd ff 4a 7a 3d
       0.028452605 -0.02021054 -0.090809435 0.061106678
000170 24 d0 c4 bc c2 d6 b1 bd 2b ce b0 3d c2 06 c8 3d
       -0.02402503 -0.0868354 0.086330734 0.09766914
000180 a9 05 a5 3d 04 55 b1 bd af ba c0 3c 62 6e a3 bd
       0.0805772 -0.086587936 0.023526518 -0.07980038
000190 71 ee cb 3d e7 88 10 3d bf f6 93 bc c4 c6 96 3d
       0.099575885 0.03528681 -0.018061994 0.0736213
0001a0 2a 55 8d bd 3c 5b 91 bc 3b 04 ba bc ed 0b 9f bd
       -0.069010094 -0.0177437 -0.022707095 -0.077659465
0001b0 c9 f5 20 3c 4b 42 8e 3d 1f d1 2b 3d 4b 8e 89 3d
       0.009824225 0.06946238 0.04194748 0.06716593
0001c0 a0 f2 83 3d 15 42 6b 3d 0c aa a5 bd aa 78 48 3d
       0.064427614 0.057436068 -0.080890745 0.0489432
0001d0 ad 23 3c bd ba 52 93 3c 00 5f 90 bd 5b c7 9a 3d
       -0.04593246 0.017983783 -0.0704937 0.07557555
0001e0 fd a8 16 bb a3 b4 92 bd 9f b5 a2 bd f9 a2 6d bd
       -0.0022988908 -0.0716336 -0.07944798 -0.05801675
0001f0 7e b3 b7 bd 67 05 b9 3d 4f 7c 71 3a f1 19 03 3d
       -0.08969782 0.090342335 0.0009211944 0.03200716
000200 d7 89 77 bc 81 f8 ad bd 18 08 18 bc 76 c9 ee 3b
       -0.015108547 -0.08494664 -0.009279273 0.0072871996
000210 f7 6f 51 3b 54 64 0f 3d c3 5d 8b bd ee 7c 54 bd
       0.0031957605 0.03500779 -0.06804993 -0.051876955
000220 81 90 c8 bc 7f 43 3a bd 58 9e 62 bd 02 fe 84 3d
       -0.024482967 -0.045474526 -0.05532679 0.06493761
000230 33 0d d8 3d d1 4f 98 3c 94 0d d4 bb 1f db 9c 3d
       0.105493926 0.018592747 -0.006471345 0.076589815
000240 d6 ed a7 3d 35 58 b4 bd 35 48 c5 3c 72 87 ce 3c
       0.081996605 -0.08805887 0.024082283 0.02521107
000250 01 ac 51 3d e1 bf 2f bd 23 46 39 bb 81 16 bf 3c
       0.051189426 -0.0429076 -0.0028270565 0.02332616
000260 61 54 1d bc 01 70 d3 3d 62 67 c0 3d f9 c7 83 3d
       -0.009602637 0.103240974 0.09394719 0.06434626
000270 40 07 0f bd c9 f3 f4 3c 55 48 b5 bb 5c 77 7f bd
       -0.034919024 0.029901402 -0.0055323043 -0.06236969
000280 8f ff 89 bd 4f 99 7d 3b be 2c 58 3d 54 e1 56 3c
       -0.06738197 0.0038696115 0.052777044 0.013115246
000290 9f 93 85 3c b9 ea 1c bd e3 f1 56 3d 2d 5d 6f bd
       0.016305743 -0.038309786 0.052476775 -0.05843847
0002a0 d8 ec d2 3d df 3a a3 3d 3e 30 1b 3d de b8 3d 3c
       0.102990806 0.07970213 0.037887804 0.01157972
0002b0 44 ff 13 bd 1d d1 42 bd 75 67 98 bd 73 44 c4 3d
       -0.036132112 -0.047562707 -0.07441608 0.09583368
0002c0 50 c6 3d 3d 3a 22 34 bc 24 72 2a 3d 96 44 ab 3d
       0.046331704 -0.010994488 0.04161276 0.08362691
0002d0 b4 94 28 bd b8 db 97 3c b2 fa 81 bd 84 03 2f 3d
       -0.04115744 0.018537387 -0.063466445 0.042727962
0002e0 a7 59 54 3d 34 7e a7 bc 8a 25 f0 3c c2 76 69 3d
       0.05184331 -0.02044592 0.029314775 0.056998022
0002f0 09 9d 85 3d 6e 1a d0 3c 53 b4 8d bd 53 dc 5f bb
       0.06524093 0.025403228 -0.0691916 -0.0034158423
000300 20 e3 c5 3c df 86 1a 3d a8 2d 94 3c cc 7d ca bd
       0.024156153 0.03772628 0.018088177 -0.09887275
000310 12 e4 99 bd d6 b9 cd 3d 80 29 78 3d 55 12 02 bd
       -0.07514204 0.10045211 0.060586452 -0.031755764
000320 eb 44 25 bd 80 ad c8 bb 81 7c 41 bd 90 de 66 bd
       -0.04034893 -0.0061241984 -0.047237877 -0.056364596
000330 78 7e 37 3d 64 83 78 bd 82 68 a1 bd 8c bc 0c bc
       0.044798344 -0.06067218 -0.078812614 -0.008589875
000340 f7 f0 03 3d 08 8a 9b bd a2 d7 bc bd 34 c7 18 bd
       0.032212224 -0.07594687 -0.09220816 -0.03729935
000350 5a 5e a9 3d f2 c6 9f bd be 8e 8c 3d 84 f3 af bd
       0.08269949 -0.07801618 0.068631634 -0.08591369
000360 9a a0 a7 3d 48 aa 4a 3d ca 83 b1 bd 8e 5e 05 3c
       0.08184929 0.0494788 -0.08667715 0.008140219
000370 3d c3 89 3d 14 6e d8 3c e0 37 29 3d 9e e2 ba 3d
       0.06726692 0.026419677 0.041313052 0.09125255
000380 5a b9 5b bd cf 2a 7c bc b8 dd 83 bb 97 63 71 bb
       -0.053643562 -0.015391066 -0.0040242337 -0.0036833042
000390 c4 95 9e 3d 41 91 92 3d 20 bd 09 bd 17 be d3 3d
       0.07743409 0.07156611 -0.03362763 0.10338991
0003a0 b2 a5 0e 3d 62 61 ab bd 38 51 6d bc 7d df 6a bd
       0.034825988 -0.08368184 -0.014484696 -0.05734204
0003b0 aa 2b 86 bd 46 a9 aa 3d 74 09 ce bd 89 92 21 bd
       -0.06551297 0.083330676 -0.10060397 -0.039446387
0003c0 08 c0 ad 3d 64 fd 5b 3d bf 12 d0 3d a6 b7 4b 3d
       0.08483893 0.05370845 0.101598255 0.049735688
0003d0 34 fa 9e bd 0e 64 0d 3c 41 ff 97 bd 26 83 b7 bd
       -0.07762566 0.008629812 -0.07421733 -0.089605615
0003e0 8d 3a 41 bd 28 75 7b 3d 17 56 0b bd 7c 99 21 3c
       -0.04717498 0.061391026 -0.03401765 0.009863254
0003f0 11 17 83 bd 42 7f b7 bd 3a e5 82 3b 5c 0c 03 bd
       -0.06400884 -0.089598194 0.003994611 -0.03199421

lstm.bias_ih_l0 f4 [512]
000000 58 db 9c b9 25 76 f7 3b c2 39 0c bc 1f cd a0 3c
       -0.00029918063 0.0075519257 -0.008558692 0.01962906
000010 3d 69 a7 3c ec 46 86 3c c3 36 77 3c 28 bc 9f 3c
       0.020435924 0.01639124 0.01508874 0.0194989
000020 13 ca 51 3c 28 46 37 3c 05 a4 54 3c f7 97 9b 3b
       0.012804526 0.01118616 0.012978558 0.00474834
000030 c3 ac b6 3c 6e 60 4a 3c 72 e1 4b 39 d2 b5 ee 3b
       0.022299176 0.012352092 0.00019443574 0.0072848583
000040 06 8d 52 3b df c4 5a 3c a1 b7 b8 3c 30 80 a9 3c
       0.0032127514 0.013352602 0.022548499 0.020691007
000050 1f c3 94 3c 13 ec ef 3b a5 bd d2 3b eb 63 97 bb
       0.018159447 0.0073218434 0.006431299 -0.0046200654
000060 73 29 02 bb 17 da ca 39 13 17 b1 3a 09 73 04 3c
       -0.0019861131 0.00038690932 0.0013510905 0.008084067
000070 83 ac 69 3c d1 57 b4 3b aa 6d a3 3c eb e6 55 3c
       0.014262321 0.0055036326 0.019949753 0.013055543
000080 f6 19 f9 3b 42 dc 7e 3c 36 b4 d1 3b b1 c2 a8 3c
       0.0076019717 0.015555443 0.0063996566 0.020600649
000090 da 71 77 3c 8a 8a 54 3c 42 d5 95 3c d7 8f a6 3b
       0.015102828 0.012972483 0.018290166 0.005083065
0000a0 50 e8 88 3c c5 2f 7e 3c 03 e5 46 3c 00 23 cd 3b
       0.016712338 0.015514319 0.012139562 0.006260276
0000b0 15 ad 36 3c c9 3f 85 3c 38 49 5d 3c 68 6c 8c 3c
       0.011149664 0.016265767 0.013506226 0.017141536
0000c0 3f f4 d2 3c 20 df 49 3c 6f dd 1f 3c 5a be 52 3c
       0.025751231 0.012321264 0.009757384 0.012862766
0000d0 b9 49 15 3c 23 b2 3a 3c b2 52 44 3c 4e 15 7c 3c
       0.009111815 0.01139501 0.011982607 0.015385939
0000e0 04 6f 2a 3c 89 73 69 3c c5 af df 3b 10 6a ce 3a
       0.010402445 0.014248737 0.0068263733 0.0015748162
0000f0 e3 fc b4 3c 12 a2 0b 3c 7e 4d 66 3c c8 e9 05 3c
       0.022093242 0.008522527 0.0140565615 0.008173414
000100 93 f8 51 3c a1 81 8b 3c 10 67 f7 3b 6a 9b 83 3c
       0.012815612 0.017029585 0.007550128 0.016065318
000110 21 9a 2f 3c 70 92 5f 3c a3 5c 8f 3c 59 cf 41 3c
       0.0107179 0.013645753 0.017500227 0.011829221
000120 ed 2a 50 3b 6e d0 f7 3b ca f5 33 3c 6c 11 1a 3c
       0.0031763867 0.0075626886 0.010983894 0.009403568
000130 a5 02 69 3c 24 7e c0 3c df 6f 76 3a f4 47 2a 3c
       0.014221822 0.023497649 0.00094008254 0.0103931315
000140 ff 77 8b 3c 5a 11 11 3c 29 a3 ba 3c 19 d4 39 3c
       0.017024992 0.008854235 0.022782879 0.011342072
000150 1b d2 06 3c a0 8c 8e 3c 47 fa a1 3c 9c 66 c4 3c
       0.008228804 0.01740104 0.019772662 0.02397471
000160 d8 ee 1e 3c 06 66 b4 3c 4c a2 dc bb 49 d9 6e 3c
       0.0097004995 0.022021305 -0.0067332145 0.014578172
000170 86 f5 44 3c 18 a2 5f 3c f1 b7 4e 38 04 5b ba 3c
       0.012021428 0.013649486 4.9285536e-05 0.022748478
000180 de e0 d8 3b fd 43 ab 3b 2a 9a f1 3b f8 8a 0c 3c
       0.006618603 0.0052266107 0.007373114 0.008578055
000190 38 06 ed 3b a2 85 88 3a b9 f7 49 3c 06 8e aa 3c
       0.0072334073 0.0010415802 0.012327128 0.020819675
0001a0 3e 3e bf 3c b6 c3 f6 39 8c 06 85 3c b4 73 4b 3c
       0.02334511 0.00047066592 0.016238473 0.0124177225
0001b0 b8 b2 77 bb 2a 88 95 3b be 81 fc 3b 66 76 4a 3c
       -0.0037795734 0.004563351 0.007705896 0.01235733
0001c0 88 41 6c 3c c0 6c 4b 3c e5 63 9d 3c 2a 80 f1 3a
       0.014419921 0.012416065 0.019212672 0.0018425037
0001d0 10 57 32 3c c7 01 fc 3b 67 88 be 3a 37 03 83 3c
       0.010885015 0.0076906416 0.0014536501 0.015992744
0001e0 41 c0 c3 b6 02 dd c1 3c 41 7c 35 3c 3f a0 af 3c
       -5.833834e-06 0.023664955 0.011076988 0.021438716
0001f0 a8 17 c5 3b 5e 25 9d 3c d4 bc af 3c 10 e3 f9 3b
       0.006014783 0.019182857 0.021452345 0.007625945
000200 5a 18 a0 3a 7a 4e d3 ba 9b 33 18 bc 04 84 7c bc
       0.0012214289 -0.001612141 -0.009289647 -0.015412334
000210 ed 2b 64 bc 1d bb 04 3b f6 02 39 3b 42 8b 0a 3c
       -0.013926488 0.002025313 0.0028230525 0.008456053
000220 b3 88 d6 ba 0e de 84 bb c4 f9 d5 bb 9c cc 7f bc
       -0.0016367644 -0.0040547913 -0.0065300185 -0.0156127475
000230 37 73 aa bc c7 1e ad bb 30 60 bc bc b0 fd e0 3a
       -0.020806892 -0.00528321 -0.022995085 0.0017165449
000240 e1 19 7a 3a f2 1e d5 bb 3f 23 f6 3b a2 8e 60 ba
       0.00095405994 -0.006503933 0.007511526 -0.0008566176
000250 1e 9e c7 b8 95 5a a1 ba b5 4d c5 38 16 8c ca ba
       -9.518511e-05 -0.0012310321 9.408166e-05 -0.0015453126
000260 bf 0e ba bb 26 ae 8e bb f5 af 32 bb 18 cb 92 ba
       -0.0056780274 -0.004354256 -0.0027265523 -0.0011199443
000270 2e 52 3f 3b 15 c9 2d bc 19 41 c9 3b 70 9f 5a bb
       0.002919327 -0.010607024 0.0061417934 -0.0033359192
000280 6c 8e 0b 3b 61 4d 28 3b d4 4a ed ba 35 dd c1 3b
       0.0021294607 0.0025680887 -0.0018103966 0.0059162625
000290 cb c9 0b bb 9e 36 c0 3a 82 6d ed b9 e7 52 8a 38
       -0.0021329995 0.0014664715 -0.00045285752 6.5957945e-05
0002a0 6d f0 25 3b 7e 47 0f bb 45 b8 0c 3c cb 99 7f ba
       0.0025320307 -0.002186268 0.008588855 -0.0009750395
0002b0 87 2b d2 bb 2e 1b 1f bb 1b ef 6a bb 92 35 35 bb
       -0.0064138803 -0.0024277675 -0.0035848084 -0.0027650339
0002c0 1f 7e 76 bb f1 c8 8c 39 eb 85 5f bb 1a f4 f4 bb
       -0.0037611795 0.00026852594 -0.003410692 -0.0074753882
0002d0 9a 46 50 3a 32 46 41 3b 23 44 b7 bb ea 26 84 3a
       0.0007945091 0.0029491303 -0.0055928393 0.0010082398
0002e0 b2 0e 13 3c 20 a7 a4 3b ff 45 ff 3a fa 5b 93 bb
       0.008975672 0.0050248057 0.0019475817 -0.0044970484
0002f0 10 1b 87 bc 83 e7 4a bb 44 99 94 bb 2e bf 7c bb
       -0.016492397 -0.0030960746 -0.0045348722 -0.00385661
000300 30 98 67 bc fc 84 c4 3a 81 30 31 bb 72 34 7e bb
       -0.014135405 0.0014993246 -0.0027036967 -0.0038788584
000310 cf 1c 8d bc e0 34 8a 3b e4 0e fd b9 ac da 56 bb
       -0.017225651 0.004217729 -0.00048267015 -0.0032784147
000320 53 0d 05 bc 88 d5 f6 3a ad 39 19 ba 7f a7 de 3a
       -0.0081208525 0.0018831948 -0.0005845081 0.0016987174
000330 9e 85 1a bb 16 73 28 3a ad 20 ba bb 21 d4 63 3b
       -0.0023578177 0.00064258405 -0.005680165 0.003476389
000340 9f f1 48 bc d5 f9 73 bb c5 5b e5 bb 99 59 a0 bb
       -0.012264638 -0.003722777 -0.006999465 -0.0048934934
000350 81 e3 68 3a 44 61 37 3c cb 94 db 3b 68 fb 50 bc
       0.00088839984 0.0111926235 0.006701087 -0.012755252
000360 bd 07 41 3b f7 d9 99 bc f4 bb c0 bb d0 ea ee 3a
       0.0029454075 -0.018780692 -0.0058817808 0.0018227939
000370 5a bd 0e 3c 32 23 d0 ba 4a 35 ea bb 0d 6a 0f bb
       0.008712137 -0.001587963 -0.007147466 -0.002188328
000380 2d a9 58 3b 88 cd e2 3a 3f 43 fa bb 75 f7 ad 3b
       0.003305982 0.0017303685 -0.007637411 0.00530904
000390 2b 58 85 bb 0b 3c a3 3b 84 29 d9 3a ef 0a 77 bc
       -0.0040693483 0.004981523 0.0016568159 -0.01507829
0003a0 86 db 92 bb 38 ef 85 bb 4c 1a 82 3b 6f 3a 92 3b
       -0.0044817356 -0.004087355 0.00397042 0.0044625322
0003b0 9a 7f 7c bb 31 10 48 bc ff 07 2b 3a 6e b7 fe 39
       -0.0038528205 -0.012210892 0.0006524324 0.0004858332
0003c0 95 52 d6 3b e2 11 b9 3b f2 49 49 bc 05 f7 83 bb
       0.0065406063 0.0056478838 -0.012285696 -0.0040272498
0003d0 23 aa a8 ba 75 c7 22 bb 5b 48 04 bb a3 23 b4 ba
       -0.0012868088 -0.0024838124 -0.0020184729 -0.0013743531
0003e0 0c 76 9f ba 9b 6d cc 3b 38 0e 84 bb b1 19 65 bb
       -0.0012165918 0.006238652 -0.0040300153 -0.003495794
0003f0 6f d0 58 3b ae c9 e4 bb 75 6a 66 bb 9a c2 e8 3a
       0.003308322 -0.00698205 -0.0035158668 0.0017758191

lstm.bias_hh_l0 f4 [512]
000000 58 db 9c b9 25 76 f7 3b c2 39 0c bc 1f cd a0 3c
       -0.00029918063 0.0075519257 -0.008558692 0.01962906
000010 3d 69 a7 3c ec 46 86 3c c3 36 77 3c 28 bc 9f 3c
       0.020435924 0.01639124 0.01508874 0.0194989
000020 13 ca 51 3c 28 46 37 3c 05 a4 54 3c f7 97 9b 3b
       0.012804526 0.01118616 0.012978558 0.00474834
000030 c3 ac b6 3c 6e 60 4a 3c 72 e1 4b 39 d2 b5 ee 3b
       0.022299176 0.012352092 0.00019443574 0.0072848583
000040 06 8d 52 3b df c4 5a 3c a1 b7 b8 3c 30 80 a9 3c
       0.0032127514 0.013352602 0.022548499 0.020691007
000050 1f c3 94 3c 13 ec ef 3b a5 bd d2 3b eb 63 97 bb
       0.018159447 0.0073218434 0.006431299 -0.0046200654
000060 73 29 02 bb 17 da ca 39 13 17 b1 3a 09 73 04 3c
       -0.0019861131 0.00038690932 0.0013510905 0.008084067
000070 83 ac 69 3c d1 57 b4 3b aa 6d a3 3c eb e6 55 3c
       0.014262321 0.0055036326 0.019949753 0.013055543
000080 f6 19 f9 3b 42 dc 7e 3c 36 b4 d1 3b b1 c2 a8 3c
       0.0076019717 0.015555443 0.0063996566 0.020600649
000090 da 71 77 3c 8a 8a 54 3c 42 d5 95 3c d7 8f a6 3b
       0.015102828 0.012972483 0.018290166 0.005083065
0000a0 50 e8 88 3c c5 2f 7e 3c 03 e5 46 3c 00 23 cd 3b
       0.016712338 0.015514319 0.012139562 0.006260276
0000b0 15 ad 36 3c c9 3f 85 3c 38 49 5d 3c 68 6c 8c 3c
       0.011149664 0.016265767 0.013506226 0.017141536
0000c0 3f f4 d2 3c 20 df 49 3c 6f dd 1f 3c 5a be 52 3c
       0.025751231 0.012321264 0.009757384 0.012862766
0000d0 b9 49 15 3c 23 b2 3a 3c b2 52 44 3c 4e 15 7c 3c
       0.009111815 0.01139501 0.011982607 0.015385939
0000e0 04 6f 2a 3c 89 73 69 3c c5 af df 3b 10 6a ce 3a
       0.010402445 0.014248737 0.0068263733 0.0015748162
0000f0 e3 fc b4 3c 12 a2 0b 3c 7e 4d 66 3c c8 e9 05 3c
       0.022093242 0.008522527 0.0140565615 0.008173414
000100 93 f8 51 3c a1 81 8b 3c 10 67 f7 3b 6a 9b 83 3c
       0.012815612 0.017029585 0.007550128 0.016065318
000110 21 9a 2f 3c 70 92 5f 3c a3 5c 8f 3c 59 cf 41 3c
       0.0107179 0.013645753 0.017500227 0.011829221
000120 ed 2a 50 3b 6e d0 f7 3b ca f5 33 3c 6c 11 1a 3c
       0.0031763867 0.0075626886 0.010983894 0.009403568
000130 a5 02 69 3c 24 7e c0 3c df 6f 76 3a f4 47 2a 3c
       0.014221822 0.023497649 0.00094008254 0.0103931315
000140 ff 77 8b 3c 5a 11 11 3c 29 a3 ba 3c 19 d4 39 3c
       0.017024992 0.008854235 0.022782879 0.011342072
000150 1b d2 06 3c a0 8c 8e 3c 47 fa a1 3c 9c 66 c4 3c
       0.008228804 0.01740104 0.019772662 0.02397471
000160 d8 ee 1e 3c 06 66 b4 3c 4c a2 dc bb 49 d9 6e 3c
       0.0097004995 0.022021305 -0.0067332145 0.014578172
000170 86 f5 44 3c 18 a2 5f 3c f1 b7 4e 38 04 5b ba 3c
       0.012021428 0.013649486 4.9285536e-05 0.022748478
000180 de e0 d8 3b fd 43 ab 3b 2a 9a f1 3b f8 8a 0c 3c
       0.006618603 0.0052266107 0.007373114 0.008578055
000190 38 06 ed 3b a2 85 88 3a b9 f7 49 3c 06 8e aa 3c
       0.0072334073 0.0010415802 0.012327128 0.020819675
0001a0 3e 3e bf 3c b6 c3 f6 39 8c 06 85 3c b4 73 4b 3c
       0.02334511 0.00047066592 0.016238473 0.0124177225
0001b0 b8 b2 77 bb 2a 88 95 3b be 81 fc 3b 66 76 4a 3c
       -0.0037795734 0.004563351 0.007705896 0.01235733
0001c0 88 41 6c 3c c0 6c 4b 3c e5 63 9d 3c 2a 80 f1 3a
       0.014419921 0.012416065 0.019212672 0.0018425037
0001d0 10 57 32 3c c7 01 fc 3b 67 88 be 3a 37 03 83 3c
       0.010885015 0.0076906416 0.0014536501 0.015992744
0001e0 41 c0 c3 b6 02 dd c1 3c 41 7c 35 3c 3f a0 af 3c
       -5.833834e-06 0.023664955 0.011076988 0.021438716
0001f0 a8 17 c5 3b 5e 25 9d 3c d4 bc af 3c 10 e3 f9 3b
       0.006014783 0.019182857 0.021452345 0.007625945
000200 5a 18 a0 3a 7a 4e d3 ba 9b 33 18 bc 04 84 7c bc
       0.0012214289 -0.001612141 -0.009289647 -0.015412334
000210 ed 2b 64 bc 1d bb 04 3b f6 02 39 3b 42 8b 0a 3c
       -0.013926488 0.002025313 0.0028230525 0.008456053
000220 b3 88 d6 ba 0e de 84 bb c4 f9 d5 bb 9c cc 7f bc
       -0.0016367644 -0.0040547913 -0.0065300185 -0.0156127475
000230 37 73 aa bc c7 1e ad bb 30 60 bc bc b0 fd e0 3a
       -0.020806892 -0.00528321 -0.022995085 0.0017165449
000240 e1 19 7a 3a f2 1e d5 bb 3f 23 f6 3b a2 8e 60 ba
       0.00095405994 -0.006503933 0.007511526 -0.0008566176
000250 1e 9e c7 b8 95 5a a1 ba b5 4d c5 38 16 8c ca ba
       -9.518511e-05 -0.0012310321 9.408166e-05 -0.0015453126
000260 bf 0e ba bb 26 ae 8e bb f5 af 32 bb 18 cb 92 ba
       -0.0056780274 -0.004354256 -0.0027265523 -0.0011199443
000270 2e 52 3f 3b 15 c9 2d bc 19 41 c9 3b 70 9f 5a bb
       0.002919327 -0.010607024 0.0061417934 -0.0033359192
000280 6c 8e 0b 3b 61 4d 28 3b d4 4a ed ba 35 dd c1 3b
       0.0021294607 0.0025680887 -0.0018103966 0.0059162625
000290 cb c9 0b bb 9e 36 c0 3a 82 6d ed b9 e7 52 8a 38
       -0.0021329995 0.0014664715 -0.00045285752 6.5957945e-05
0002a0 6d f0 25 3b 7e 47 0f bb 45 b8 0c 3c cb 99 7f ba
       0.0025320307 -0.002186268 0.008588855 -0.0009750395
0002b0 87 2b d2 bb 2e 1b 1f bb 1b ef 6a bb 92 35 35 bb
       -0.0064138803 -0.0024277675 -0.0035848084 -0.0027650339
0002c0 1f 7e 76 bb f1 c8 8c 39 eb 85 5f bb 1a f4 f4 bb
       -0.0037611795 0.00026852594 -0.003410692 -0.0074753882
0002d0 9a 46 50 3a 32 46 41 3b 23 44 b7 bb ea 26 84 3a
       0.0007945091 0.0029491303 -0.0055928393 0.0010082398
0002e0 b2 0e 13 3c 20 a7 a4 3b ff 45 ff 3a fa 5b 93 bb
       0.008975672 0.0050248057 0.0019475817 -0.0044970484
0002f0 10 1b 87 bc 83 e7 4a bb 44 99 94 bb 2e bf 7c bb
       -0.016492397 -0.0030960746 -0.0045348722 -0.00385661
000300 30 98 67 bc fc 84 c4 3a 81 30 31 bb 72 34 7e bb
       -0.014135405 0.0014993246 -0.0027036967 -0.0038788584
000310 cf 1c 8d bc e0 34 8a 3b e4 0e fd b9 ac da 56 bb
       -0.017225651 0.004217729 -0.00048267015 -0.0032784147
000320 53 0d 05 bc 88 d5 f6 3a ad 39 19 ba 7f a7 de 3a
       -0.0081208525 0.0018831948 -0.0005845081 0.0016987174
000330 9e 85 1a bb 16 73 28 3a ad 20 ba bb 21 d4 63 3b
       -0.0023578177 0.00064258405 -0.005680165 0.003476389
000340 9f f1 48 bc d5 f9 73 bb c5 5b e5 bb 99 59 a0 bb
       -0.012264638 -0.003722777 -0.006999465 -0.0048934934
000350 81 e3 68 3a 44 61 37 3c cb 94 db 3b 68 fb 50 bc
       0.00088839984 0.0111926235 0.006701087 -0.012755252
000360 bd 07 41 3b f7 d9 99 bc f4 bb c0 bb d0 ea ee 3a
       0.0029454075 -0.018780692 -0.0058817808 0.0018227939
000370 5a bd 0e 3c 32 23 d0 ba 4a 35 ea bb 0d 6a 0f bb
       0.008712137 -0.001587963 -0.007147466 -0.002188328
000380 2d a9 58 3b 88 cd e2 3a 3f 43 fa bb 75 f7 ad 3b
       0.003305982 0.0017303685 -0.007637411 0.00530904
000390 2b 58 85 bb 0b 3c a3 3b 84 29 d9 3a ef 0a 77 bc
       -0.0040693483 0.004981523 0.0016568159 -0.01507829
0003a0 86 db 92 bb 38 ef 85 bb 4c 1a 82 3b 6f 3a 92 3b
       -0.0044817356 -0.004087355 0.00397042 0.0044625322
0003b0 9a 7f 7c bb 31 10 48 bc ff 07 2b 3a 6e b7 fe 39
       -0.0038528205 -0.012210892 0.0006524324 0.0004858332
0003c0 95 52 d6 3b e2 11 b9 3b f2 49 49 bc 05 f7 83 bb
       0.0065406063 0.0056478838 -0.012285696 -0.0040272498
0003d0 23 aa a8 ba 75 c7 22 bb 5b 48 04 bb a3 23 b4 ba
       -0.0012868088 -0.0024838124 -0.0020184729 -0.0013743531
0003e0 0c 76 9f ba 9b 6d cc 3b 38 0e 84 bb b1 19 65 bb
       -0.0012165918 0.006238652 -0.0040300153 -0.003495794
0003f0 6f d0 58 3b ae c9 e4 bb 75 6a 66 bb 9a c2 e8 3a
       0.003308322 -0.00698205 -0.0035158668 0.0017758191

lstm.weight_ih_l1 f4 [512, 128]
000000 37 6a b9 bd 90 4b e1 3c ff 36 3d 3d be 87 59 bd
       -0.09053462 0.027501851 0.046195026 -0.05310797
000010 00 52 48 3b 36 d4 27 3d 40 6a 9f 3c 91 e1 02 bd
       0.0030566454 0.040973864 0.019459844 -0.0319534
000020 cb 79 ab 3c 9e 4b 27 bc d7 4a c8 3c af eb 90 3d
       0.020932099 -0.0102109 0.024449749 0.07076203
000030 65 62 94 bc ac 0c aa 3d 14 4e b3 bd e7 e9 d1 bc
       -0.018113324 0.08303198 -0.087551266 -0.025624229
000040 31 40 54 3d 9d 88 55 3d ca 2e 6f bd 3a 42 f3 3c
       0.05181903 0.052132238 -0.05839423 0.029694665
000050 79 20 30 3d b2 d3 0b bd 0d b5 73 3d bd f9 17 3d
       0.04299972 -0.034137435 0.059498835 0.037103403
000060 2f 5f 5b 3c 61 11 63 3c ff dc 03 3d 1f d7 aa 3d
       0.013389393 0.013859124 0.03219318 0.08341812
000070 09 3f bf bc 5d d5 b4 bd a9 b6 43 3d a4 49 1b 3d
       -0.023345487 -0.08829758 0.04778162 0.037912026
000080 2c 8e 2a 3d 42 07 b4 bd e5 b0 a6 bd d5 7a 85 bd
       0.041639492 -0.08790447 -0.08139209 -0.06517569
000090 44 8a 8b bd f8 ab 62 3d 75 b2 ce bd b4 ab d4 3c
       -0.068134815 0.055339783 -0.10092632 0.02596078
0000a0 3c 15 8b bd 0c e3 f0 3c b0 ec bb bc f4 12 44 bd
       -0.067911595 0.02940514 -0.02294001 -0.047869638
0000b0 95 7e b4 3d 0a 18 91 3d 7a e3 22 3d 53 4d a4 3c
       0.08813206 0.07084663 0.03976772 0.020056402
0000c0 b9 e5 b1 3d 58 54 1c bd 1b 34 09 bd 42 8a 96 3d
       0.08686394 -0.038166374 -0.033496957 0.07350589
0000d0 ec bb e5 bc bc 86 d4 3d b3 cb 9a 3d ff c8 83 bd
       -0.02804371 0.10377261 0.07558384 -0.06434821
0000e0 aa 76 2e bd 27 d1 97 3d f8 8a d3 3d c7 09 af 3c
       -0.042593636 0.074129395 0.103292406 0.021366967
0000f0 2d 2f 4b bd 3a c1 25 3c b0 69 f2 3c 1c 90 83 bd
       -0.049605537 0.01011687 0.029591411 -0.06423971
000100 33 56 40 3d 10 f5 01 3c 1a 3f 50 3d 72 26 9e bd
       0.046957206 0.007931963 0.05084143 -0.077221766
000110 e2 d7 5c bd da a0 0d bd 96 83 22 bb 2a 80 98 ba
       -0.05391682 -0.034577228 -0.002479767 -0.0011634876
000120 8e e4 80 3d 61 51 62 3d a0 e1 6f bd 72 66 7e bd
       0.06293593 0.05525339 -0.058564782 -0.06210942
000130 0d 34 81 bd b8 82 00 3c 9e e5 8e bd 2a 3e dd ba
       -0.06308756 0.007843666 -0.0697739 -0.0016879488
000140 b4 d4 bb 3d d1 e8 63 bc bc dd 6f bd a1 79 60 3c
       0.09171429 -0.013910488 -0.05856107 0.013700874
000150 ef 80 07 bd f8 bc 91 3d 5f bb 9b bd 98 65 9a bc
       -0.033081945 0.07116121 -0.076040976 -0.018847272
000160 02 7c c6 bc 4d 7e 14 bc 86 c4 48 3d db 67 98 bc
       -0.024229053 -0.009063316 0.049015544 -0.01860421
000170 dd 25 e9 bc e5 95 d4 3d e6 c6 d1 bc 53 30 87 bd
       -0.028460437 0.103801526 -0.025607537 -0.06601014
000180 18 9a 3b 37 d2 08 b9 3d 8c 4f ad 3d 6a 35 2c bd
       1.1181946e-05 0.090348855 0.08462438 -0.042043127
000190 6a 96 30 3b 24 7f 3a 3c 59 df 13 bd 52 20 38 3d
       0.0026945123 0.011382852 -0.036101673 0.044952698
0001a0 ea 25 29 3d ed e6 0b 3d cc ee b7 bb eb a8 9c 3c
       0.041295923 0.034155775 -0.0056131836 0.019123515
0001b0 a4 ec a5 3c 93 e4 8f bb b4 be 8c 3d 8e d2 95 bd
       0.02025444 -0.004391262 0.06872311 -0.07315551
0001c0 4f 4c b1 bd 4c 81 28 3d 7b 33 78 bc af d1 88 3d
       -0.08657133 0.041138932 -0.015148993 0.06680619
0001d0 94 95 ae 3d 88 e0 7a 3d 23 cd 36 bb 73 82 9f bc
       0.085246235 0.061249286 -0.0027893267 -0.019471383
0001e0 2a a8 61 3d b3 9b 3a bd b2 ec 2f 3d 81 85 d3 3d
       0.055092014 -0.045558643 0.04295034 0.10328198
0001f0 c8 ad 64 bb 89 e1 9e 3d 3c 20 92 38 fb 8b 5e 3d
       -0.003489362 0.07757861 6.9678266e-05 0.054332715
000200 6e c6 96 bd 22 52 82 bd 31 30 c0 bc d1 45 0c 3d
       -0.07362066 -0.06363322 -0.02346048 0.03424627
000210 fe b6 44 bd 97 1b d7 3c 65 c1 c8 3d 9d b0 8b bd
       -0.048026077 0.026258273 0.09802512 -0.06820796
000220 8e c0 12 3d 41 05 46 ba 9a f0 6f 3d 73 20 bd bd
       0.035828166 -0.00075538835 0.058579065 -0.09234705
000230 bc b9 39 3b f9 f2 54 3d 5c 5e d3 3c e8 bd 0e bc
       0.0028339466 0.05198953 0.02580183 -0.008712269
000240 35 22 b7 bb 0b 2c 71 3c 55 34 07 3d 9b 67 24 3d
       -0.0055887946 0.014719973 0.033008892 0.04013787
000250 fd da 8a 3c f6 1c 0e 3c 1b 1c 02 bd ac 0e 10 3d
       0.016950125 0.008673897 -0.031765085 0.035170242
000260 46 40 05 3d 24 96 8f 3d e4 26 a2 bb 0a 3a a1 bd
       0.032532 0.07011059 -0.004948484 -0.07872398
000270 ac 05 a9 3c a8 f1 06 3d 66 3d a2 3d ae 11 8f bd
       0.020632587 0.032945305 0.07921867 -0.06985794
000280 a9 46 90 3d 58 39 c9 bc ab c9 9c bd eb 74 eb 3c
       0.07044727 -0.024563476 -0.076556526 0.028742274
000290 8c 1a b9 3d 6a 9f b9 bd 82 dc 85 bd be 6a a3 3d
       0.090382665 -0.09063609 -0.06536199 0.07979344
0002a0 8a b3 aa bd 88 83 52 bd b7 7f f2 bc e3 af 20 3d
       -0.083350256 -0.05139497 -0.029601915 0.03923024
0002b0 ba c6 42 bd bb d0 d3 3c 3f 89 ab bd c0 8a 7b bb
       -0.0475528 0.025856366 -0.08375787 -0.0038382262
0002c0 74 1a 44 3c 90 23 1f bd 8c 2a 43 bd b0 e3 fe 3b
       0.011969198 -0.038852274 -0.047647998 0.0077786073
0002d0 69 05 c0 3d 1a f4 b3 bc f4 f0 50 3d d5 07 aa bc
       0.09376032 -0.021966983 0.05101104 -0.020755688
0002e0 d0 ea 2c bd 7c 93 c1 bc 59 18 5f ba cd d4 9c bd
       -0.042216122 -0.023629896 -0.0008510403 -0.07657776
0002f0 b8 f6 81 bc d0 1e 44 bd 25 43 ee 3c 5a ad 59 bd
       -0.015864715 -0.047880948 0.029084751 -0.053143837
000300 69 1c b2 3d a3 95 25 3d c0 49 34 bd 78 83 9c 3d
       0.08696825 0.040425908 -0.044015646 0.07642263
000310 f1 84 f0 bc 79 d9 b1 bd 9e a4 2a bc 3f 7b 90 3d
       -0.029360266 -0.08684058 -0.010415224 0.07054757
000320 9f f0 b4 3d f4 d1 70 bd 27 12 b7 bc 81 21 c1 bc
       0.08834957 -0.058793977 -0.022347523 -0.023575546
000330 98 1c 91 3d 52 72 65 3d 17 6f 9a bd 9c 2b 83 3d
       0.07085532 0.056017227 -0.0754072 0.06404802
000340 8a 2b 97 3d 4a 64 be 3c 0d b9 a2 bd f1 76 5b bd
       0.07381351 0.02324118 -0.07945452 -0.05358023
000350 2e eb 6b 3c c7 83 d0 3a 94 eb c1 3d a7 c1 ad bc
       0.014399333 0.0015908413 0.09468761 -0.021210505
000360 37 10 8a 3d e7 13 83 3d 24 d3 c1 3c 36 64 f3 3c
       0.06741374 0.064002804 0.02366025 0.02971087
000370 e0 cb 9b bc 67 22 51 3c 24 88 88 3d 1d 64 4d bc
       -0.019018114 0.01276455 0.06666592 -0.012536076
000380 b5 46 85 3c ca f4 af 3c 0a 0b d1 3d b1 e1 20 3d
       0.016269067 0.02147903 0.10207184 0.039277736
000390 38 4b 60 3d 5a a2 80 3b 1c 27 8b bd 57 a4 88 3d
       0.054759234 0.003925604 -0.06794569 0.0667197
0003a0 66 5b db bb ef 70 15 3d d9 16 1a 3d 49 d4 fe bc
       -0.006694245 0.036484655 0.037619445 -0.031107085
0003b0 90 97 81 bd c0 ba 58 3d e9 c3 ed bc b4 ad a2 3c
       -0.063277364 0.052912474 -0.029024081 0.019858219
0003c0 e3 6f b5 3c c8 a1 30 bc bd 8c 43 3c 8d 3f 35 bc
       0.022148078 -0.010780759 0.01193541 -0.011062515
0003d0 c0 d6 81 3d a3 4e bd bd b5 f8 72 3d 7f 24 b3 3a
       0.063397884 -0.092435144 0.059319217 0.0013667493
0003e0 91 c5 4e bd 99 59 7d 3d 15 23 6e bc d1 a0 71 3d
       -0.050481383 0.061853025 -0.014534731 0.058991257
0003f0 ae d9 87 bd 34 39 48 3c 5a 4f 11 3d 33 5c 11 3d
       -0.06633316 0.01222067 0.035476066 0.03548832

lstm.weight_hh_l1 f4 [512, 128]
000000 2f 6f cd bb f1 bd 9d 3d 81 95 69 3d a7 9a 7f 3d
       -0.0062693576 0.07702244 0.057027344 0.062403347
000010 63 8f 4f bd e8 93 a2 bc d4 45 4b bd 14 ea 8a bd
       -0.050673854 -0.019845918 -0.04962714 -0.06782928
000020 37 c6 99 3d 17 da 9a bd 1f 1e 81 39 a7 16 cc bc
       0.075085096 -0.075611286 0.0002462724 -0.024913145
000030 8c 4d 8f 3d 34 e2 b1 3d 7d d9 b1 3b 5a 0e ac bd
       0.06997213 0.08685723 0.005427538 -0.08401175
000040 25 b6 d6 bc 78 5e b8 bd e1 cd 11 bd 98 b4 ce 3c
       -0.0262099 -0.090023935 -0.035596732 0.025232598
000050 d1 9f 28 bd 23 43 64 bc 3c c5 a4 bc 5b be 35 bd
       -0.041168038 -0.013932022 -0.02011358 -0.04437099
000060 b4 5b 37 3d d4 92 dc bd 43 63 44 3d b7 60 5b bd
       0.04476519 -0.10770193 0.047946226 -0.05355903
000070 e1 23 89 3b 72 d5 a3 3d fb 6b 1c 3b 9d d0 8c bd
       0.0041851853 0.07999696 0.0023868072 -0.06875727
000080 8d 27 bf 3c 8e 6c 7f 3d 3f 61 1a 3d 93 7b 89 bd
       0.023334289 0.062359385 0.037690397 -0.06713023
000090 d3 59 44 bc d1 a9 d6 bc fc 5d d9 bd ca 41 da bc
       -0.011984306 -0.026204022 -0.10613629 -0.026642699
0000a0 f8 34 ae bd 4b d1 3e bd c8 36 71 bd c0 e7 61 bd
       -0.08506197 -0.046586316 -0.058890134 -0.055152655
0000b0 98 c6 63 3d 8b c2 3b bd a5 16 ab bd 4c 6c 00 bd
       0.055609316 -0.045839828 -0.083539285 -0.03135328
0000c0 00 0a dc bc 0c e9 7d bc aa e4 24 3d 27 ef bb 3c
       -0.026860237 -0.015497457 0.040257134 0.022941185
0000d0 77 f0 67 3d 24 0b cc 3d 4a aa 1a bd 69 e3 74 3d
       0.05662581 0.099630624 -0.037760057 0.059787188
0000e0 79 97 a9 3a 94 04 9f 3d e3 0a f6 bb fd 21 25 bd
       0.0012938819 0.07764545 -0.007508622 -0.040315617
0000f0 08 30 0a bd a1 83 dd 3d 05 a3 02 3d 26 c3 a7 3d
       -0.033737212 0.10816122 0.03189375 0.081915185
000100 40 be 0d bd b1 04 a9 3d 11 06 14 3d 5d 63 69 3d
       -0.034605265 0.08252848 0.036138598 0.056979526
000110 6d 2e bb bd e9 d2 9a bd 03 d0 0b 3d 3a 41 72 3d
       -0.091397144 -0.07559759 0.034133922 0.059144236
000120 f9 35 2d bc 94 cd 69 bc 46 d1 6f bd ef 54 8a 3d
       -0.01057195 -0.014270205 -0.058549188 0.06754481
000130 b2 ed 71 3d 92 89 a4 3b a1 76 4c 3d 55 98 6a bd
       0.059064575 0.0050212825 0.04991782 -0.05727418
000140 62 3e 53 bd 2e 03 86 bd 70 78 d2 bc 37 cd ab 3d
       -0.051573165 -0.06543575 -0.025692195 0.08388751
000150 b4 0e 59 bd 6c 31 3f 3c d1 1b 19 3d 23 05 89 3d
       -0.052992538 0.011669498 0.037380043 0.06690433
000160 01 ff 9c bc 0b eb 9c bd e8 58 cc 3c 33 aa a1 bd
       -0.019164564 -0.076620184 0.024944738 -0.07893791
000170 22 57 4f 3d 4d ba b9 3d 52 ca 66 bd 2d 30 92 bd
       0.050620206 0.09068737 -0.05634529 -0.07138095
000180 2c 40 1f bd a6 d3 ad 3d 9b 95 ce 3d fd a6 52 bd
       -0.03887956 0.08487634 0.10087129 -0.051428784
000190 c6 26 82 3d 5f f1 35 bd 99 7b 0c bd 09 d3 77 bd
       0.06355052 -0.044419643 -0.03429756 -0.060503993
0001a0 52 4e b3 bd d7 2c 46 3d af f2 24 3d 08 8d b6 3d
       -0.08755173 0.048382606 0.040270504 0.08913618
0001b0 01 f7 9d 3d 97 c8 ad 3d 5f c6 30 3d 0c e4 7f bd
       0.07713128 0.08485525 0.04315793 -0.06247334
0001c0 a7 88 9e bd 37 79 9d 3d 1d b5 aa bc 1c 87 cd bd
       -0.07740908 0.076891355 -0.020838315 -0.10035536
0001d0 74 0b 2a 36 ff d8 71 bd 45 ca 07 bc de a5 34 bc
       2.533864e-06 -0.059044834 -0.008287971 -0.011025874
0001e0 72 3d 8c bc d3 db a8 bc f2 37 cc 3d 62 b0 c6 bd
       -0.017119143 -0.020612633 0.09971608 -0.09701611
0001f0 15 57 fd 3c 81 bf d6 3d 8d f9 a2 3d e0 fb d1 bd
       0.030925313 0.10485745 0.07957754 -0.102531195
000200 ae 0d 77 bd 48 ba 99 bc 62 94 00 bd f4 45 d4 bb
       -0.06031578 -0.018765584 -0.03139151 -0.0064780656
000210 ff b6 f4 bc a6 6a 82 bd fc fc 2b bd 54 5b be 3a
       -0.029872416 -0.06367998 -0.04198931 0.0014523068
000220 f2 57 42 3d bd 0b b0 3d 87 12 b9 3d 3b 2f 39 bd
       0.047447152 0.08595989 0.09036737 -0.045211058
000230 01 2a 73 3d 47 91 0e bd 2f 6f 89 3c 2b 06 af 3d
       0.05936623 -0.034806516 0.01677665 0.08546098
000240 9c 78 0a 3d 41 53 a8 3d 34 32 54 3d 44 c7 bf bc
       0.03380643 0.082190044 0.05180569 -0.023410447
000250 dd fd a8 3d 99 b8 da 3b ea d7 48 3d 82 55 55 bd
       0.082515456 0.006674838 0.049034037 -0.0520835
000260 1b 27 19 ba a1 6b 60 bd ad d3 07 3c 04 3d a0 3d
       -0.0005842314 -0.054790143 0.0082902135 0.07824138
000270 1c 25 8e 3d 8f 7c 12 3d 93 78 bc bd 32 41 c0 bd
       0.06940672 0.03576332 -0.09202685 -0.09387435
000280 a4 e7 a6 bd 1f 4d 94 bd 60 79 11 3d 6b e6 f3 3c
       -0.08149651 -0.07241272 0.035516143 0.029772958
000290 c3 33 b7 3d ec 8a 0a 3d db 1f a0 bd b3 fb 67 bd
       0.0894542 0.033823892 -0.07818576 -0.056636523
0002a0 79 d3 93 3d 64 7b 6e bd b4 26 07 bd aa 59 b5 bc
       0.072180696 -0.058223143 -0.032995895 -0.022137482
0002b0 22 d7 98 3d 69 41 9e 3d aa b3 78 bd 0c dc bb bc
       0.07462908 0.0772732 -0.060718216 -0.022932075
0002c0 6d 1b c2 3c f6 2f 46 3c 8f ed 70 3d 2c a4 70 3d
       0.023694718 0.012096396 0.058820304 0.058750317
0002d0 25 ae 97 bb d6 0b ff bc 4f d9 bb bb e9 5b 60 bd
       -0.004628914 -0.031133574 -0.0057326923 -0.054775152
0002e0 e5 84 82 3b ba 1d a6 3c 53 7f 1f 3d 82 29 96 3d
       0.0039831274 0.020277847 0.038939785 0.07332136
0002f0 70 89 91 3d 89 2d 3e 3d c7 8a a6 3d 96 0b c8 bc
       0.07106292 0.046430144 0.081319384 -0.024419587
000300 91 7f 26 bb 57 d0 b8 3c eb d9 94 3d de 84 ad bc
       -0.0025405625 0.022560282 0.07268127 -0.02118152
000310 08 2d 9e 3d b8 17 38 3d d5 64 10 3d b8 1e 6f bd
       0.07723433 0.044944495 0.03525241 -0.058378905
000320 75 f5 ce 3d 34 fc f3 bc 58 9d 47 bd 2a ad ad bd
       0.10105411 -0.029783346 -0.04873404 -0.08480294
000330 11 da 95 bd 0a 12 a4 bc 49 83 44 3a 43 3b ba 3d
       -0.073169835 -0.020028133 0.00074963697 0.090933345
000340 d8 fa 9e bd bd 13 17 bd b0 dd 47 3d a5 2c bc bd
       -0.077626884 -0.03688406 0.048795402 -0.09188203
000350 a7 8c 14 3d f4 28 63 3c 2a 6d 3c 3d 02 2f 76 3d
       0.03626695 0.013864744 0.046002544 0.060103424
000360 d0 da 98 bc 7e 2d 24 3b 62 87 26 bc db e1 ca bc
       -0.018659025 0.002505153 -0.010164114 -0.0247659
000370 37 e8 21 3d 57 b2 40 3d dd 98 46 3c d4 bb 4c bd
       0.039528098 0.047045078 0.012121406 -0.049983814
000380 3d 46 ba 3d 28 40 02 3d 5f 2f 29 bd 23 3d 87 3c
       0.09095428 0.031799465 -0.041304942 0.016508644
000390 f1 0a 9f 3d d2 50 42 3d 94 da f1 3b e2 7d 25 3d
       0.07765759 0.047440358 0.007380793 0.040403254
0003a0 f0 9f fb 3c ea be 91 bc b6 f9 1b 3d 85 8e bd bb
       0.030715913 -0.01779123 0.03807994 -0.005784812
0003b0 69 dc b3 bd be 23 5c bd 23 42 6d bd 7c 8f 83 3d
       -0.08782274 -0.053745024 -0.0579244 0.06423852
0003c0 90 35 b5 3d 99 fa 34 bd 56 5c 93 bd d0 4a ae bd
       0.08848107 -0.0441843 -0.07195346 -0.08510363
0003d0 6f c4 f3 bc 08 2f 5c 3d 88 98 93 bd 3b a7 15 3d
       -0.029756753 0.05375579 -0.072068274 0.036536437
0003e0 d8 c1 d7 3c 8c 7f ee 3c b6 b2 05 bd 17 e0 8f bd
       0.02633755 0.029113553 -0.032641135 -0.070251636
0003f0 4d 58 8f 3d 03 52 ed 3c ca 9b c7 bd 4e ef 92 bc
       0.06999264 0.02896977 -0.09746511 -0.017936375

lstm.bias_ih_l1 f4 [512]
000000 2e fd 4c 3c 2a af 00 3c c4 f1 6f 3c 3f 1a ca 3b
       0.012511535 0.007854262 0.014645044 0.0061676796
000010 45 11 48 3c 2e 7a 89 3c 83 aa 35 3c 25 03 74 3c
       0.012211149 0.016781893 0.011088016 0.014893328
000020 b8 e8 11 3c 92 f8 ce bb 53 ab 03 3c 07 00 64 3c
       0.008905582 -0.006316253 0.008036452 0.013916022
000030 fe a0 57 3c 7c fe 47 3c 5b eb bd 3b 6c 08 33 3a
       0.013160942 0.01220667 0.005795879 0.0006829563
000040 3d 9c c3 3c 35 dc f5 3a a4 46 04 3c 03 51 13 3c
       0.023878211 0.0018757643 0.008073483 0.008991483
000050 ef be 02 3c c0 62 4e 3c 51 df 8e 3c d8 ff a4 ba
       0.007980092 0.012596786 0.01744047 -0.0012588454
000060 b7 bc 75 3c d9 54 e7 3b 41 5d 0a 3c ec 7d 6b 3c
       0.014998606 0.007059675 0.008445085 0.014373284
000070 d8 9a 54 3c e5 fd 98 3c 29 e4 20 3a 33 22 2b 3c
       0.012976371 0.018675754 0.0006137514 0.010445165
000080 c6 6a 5c bb 2c 8c 2b 3c ff 01 29 3c 18 af 17 3b
       -0.0033632978 0.010470431 0.010315417 0.0023145135
000090 97 dc 1e 3c 09 8a 65 3c c2 d2 43 3c 29 20 d7 3b
       0.009696147 0.014009961 0.011952104 0.006565113
0000a0 30 7d 3c 3c 11 52 89 3c a3 27 3b 39 bb c5 81 3c
       0.011504456 0.016762765 0.00017848476 0.015841356
0000b0 c7 ab c7 3b c8 c6 83 3c a7 9a b5 3c d9 f5 90 3b
       0.0060934755 0.016085997 0.02216847 0.0044238386
0000c0 81 67 f4 36 e4 60 81 3c 72 a5 b4 3b 97 fc ce b9
       7.283816e-06 0.015793271 0.0055128867 -0.00039479576
0000d0 b2 6d 65 3c d0 9b d0 3b 74 4b 63 3b 04 62 29 3c
       0.014003204 0.0063662305 0.0034682425 0.01033831
0000e0 fb 9d c8 3b 9d b1 bd 3c 21 56 9a 3b 2d bc ee 3b
       0.0061223484 0.023155982 0.0047099744 0.007285616
0000f0 f1 07 2d 3c 1f 1e 90 3c 6d 6a 3a bb 90 9c 6c 3c
       0.010560975 0.017592488 -0.0028444782 0.014441624
000100 29 69 d4 3b eb b6 63 3b 2a 20 75 3c a3 3e b1 3b
       0.0064822626 0.0034746479 0.014961282 0.005409078
000110 0a 14 ab 3b 19 33 b5 ba 02 8b 07 3c c9 0a 23 3c
       0.0052208947 -0.0013824432 0.008272888 0.009951302
000120 3f 68 86 3b dc 80 01 3c ba d1 69 3c 88 b8 f7 3b
       0.0041017826 0.007904258 0.014271194 0.0075598396
000130 d7 b9 24 3c 2f 83 26 3c 29 a0 6c bb dc df 2c 3b
       0.010054073 0.010163113 -0.0036106205 0.0026378548
000140 33 d8 1a 3c 54 f4 1a 3c 06 31 05 3c 43 4e 2c 3c
       0.00945096 0.009457666 0.008129364 0.010516706
000150 6c dd 98 3c 25 4b 0b 3c 8d e0 01 3b 22 4c 96 3b
       0.01866027 0.008501803 0.001981768 0.0045867125
000160 d2 78 1a 3c 33 50 d6 3a 8b e7 22 3c 7d f3 4c 3c
       0.00942822 0.0016350806 0.009942899 0.012509224
000170 5a 04 5f 3c cf 15 29 3c 4e 0c 00 3c 97 a3 21 3c
       0.013611877 0.010320141 0.007815434 0.009865663
000180 8b ce ff 3b 2a 5b ac 3b da 3e c7 3c 37 5d 96 3c
       0.0078066043 0.005259891 0.024321962 0.018354995
000190 75 53 78 3b 40 a9 b7 37 43 b5 cd 3b 07 a4 8b 3c
       0.003789154 2.1894113e-05 0.0062777116 0.017045988
0001a0 77 05 2f 3c 79 31 ae 3b e9 f0 33 3c fe 53 eb 3b
       0.010682455 0.005315956 0.01098273 0.0071816435
0001b0 31 23 17 3c cf 10 f7 3b ad 35 1f 3c 34 6e da 3b
       0.009224699 0.0075398455 0.009717387 0.0066659693
0001c0 78 41 00 ba c1 b5 e1 3b 7b 38 83 b9 3f 57 00 3b
       -0.0004892568 0.006888122 -0.00025028348 0.0019583253
0001d0 ee 5c 0f 3c aa 06 64 3c 87 2d a9 3b 8a f6 c8 bb
       0.0087501835 0.013917604 0.005162898 -0.0061329054
0001e0 f9 e8 84 3c 9c 96 13 3c f5 53 65 3c f4 36 ad 3b
       0.016224371 0.009008076 0.013997068 0.005286092
0001f0 b5 63 84 3c 9f bd 4e 3c 9f fd 4b 3c 38 5c e2 3b
       0.016160825 0.012618451 0.012450605 0.006907966
000200 83 3b 2e 3c a9 64 d8 ba 15 50 03 bc 55 a1 75 bb
       0.010634306 -0.0016509491 -0.0080146985 -0.0037480195
000210 32 ab c3 ba 8a 2d 45 3c 38 2d ba bb 89 e4 dc bb
       -0.001492834 0.012034783 -0.00568166 -0.0067411107
000220 e6 8c 8a 3b a0 db b3 bb 50 1d 1c 3a 08 ca eb 39
       0.004228222 -0.005488828 0.00059552956 0.00044973218
000230 b7 fe 3b 3c 0f 8c 87 39 b2 47 1a 3a 08 77 3f bb
       0.011474303 0.00025853558 0.0005885317 -0.0029215235
000240 a2 bd 77 bc be 93 26 bc 7f 3b 30 ba 38 7b 8b 3b
       -0.015120896 -0.01016706 -0.0006722733 0.004256632
000250 a7 91 ce 3b 1c fb 8d 3a 0a fd 1c bc 16 fe 26 bb
       0.006303984 0.0010832283 -0.009581814 -0.0025481037
000260 e1 c0 87 bc 6d e6 33 3b 0b 4e bf bb 42 fe af 3b
       -0.016571464 0.0027450577 -0.005838161 0.005370886
000270 a7 0e ad 3b 8d ff 5d 3c fb 31 d0 b8 54 96 f6 bb
       0.0052812877 0.013549698 -9.9275225e-05 -0.0075252447
000280 86 5a 0f bc f8 34 11 3b 0c d3 10 3b 4b 0f 53 bb
       -0.00874961 0.0022156816 0.002209845 -0.003220516
000290 5c 75 06 bc 8f 37 ff 3b bd c1 62 3b cc 7e ce bb
       -0.008206692 0.0077886055 0.003460034 -0.0063017365
0002a0 93 97 25 bb 02 be ae 3a 58 57 34 bc 8b 79 d5 bb
       -0.0025267347 0.0013331773 -0.0110071525 -0.006514733
0002b0 5e fd d4 3b 0b 48 8b 3b 50 d9 a6 bc ff b6 bf bb
       0.0064999303 0.0042505316 -0.020367295 -0.0058506723
0002c0 60 35 b7 39 28 93 93 bb 49 8b 07 bb a1 ff 45 bb
       0.00034944247 -0.0045036264 -0.0020682386 -0.003021218
0002d0 04 c0 ea 3b 58 25 02 3b c1 94 27 bc c2 8e 23 bb
       0.0071640033 0.0019858684 -0.010228337 -0.0024956916
0002e0 c8 5d 0a bc 66 e5 a7 bc 4d 9d 29 bb 69 6b 10 3a
       -0.008445211 -0.020495128 -0.0025881112 0.00055091694
0002f0 b4 0d 9f ba a7 5b 94 3b 50 43 63 bb 8e c0 d0 ba
       -0.0012134821 0.0045275274 -0.0034677573 -0.0015926526
000300 df b5 53 3b c2 82 c3 3a 83 38 a8 ba 9d c2 a2 39
       0.0032304449 0.0014916288 -0.0012834225 0.00031044046
000310 d5 16 8d bb b9 48 a5 bb ef 31 1d bb 13 73 6d bb
       -0.0043057003 -0.0050440696 -0.0023986062 -0.003623192
000320 5f 62 85 3b 77 23 64 3b bc dd 84 bc 8e fa 68 bb
       0.0040705646 0.0034811178 -0.016219012 -0.0035549733
000330 32 21 ba bb cc 71 17 3c ac 74 9c bb f5 e0 4f bb
       -0.0056802267 0.00924344 -0.0047746506 -0.0031719778
000340 55 94 92 3b 3b 34 24 ba 88 03 d2 3a 92 ae cb 3b
       0.004473249 -0.00062638865 0.0016022781 0.0062158788
000350 64 e6 67 bc 25 2b 59 3b c8 e3 bd ba c5 dc e8 b9
       -0.0141540505 0.0033137288 -0.001448744 -0.00044414974
000360 2f 40 6d ba 35 a1 86 b9 c8 07 df ba a4 49 6e bb
       -0.00090503966 -0.0002567858 -0.0017015869 -0.0036359811
000370 ea 40 81 bb c9 3d e5 3b 4b 49 f2 ba 3a cc bc ba
       -0.003944506 0.0069958908 -0.0018484978 -0.0014404126
000380 90 bd 71 3b 4a ec b3 bb 0c 50 a2 bc b9 9a b2 bc
       0.003688667 -0.0054908143 -0.01981356 -0.021802293
000390 eb ba 5b 3a 16 01 0b 3b 1c d8 e1 3a b9 0c 28 bc
       0.000838204 0.0021210364 0.0017230543 -0.01025694
0003a0 06 9c f0 3a e7 bf be ba 56 e7 31 3c a3 62 10 bc
       0.0018357045 -0.0014553041 0.010858377 -0.008812579
0003b0 d0 1c f6 3a 6b a8 3f bb 5b 02 f9 3b be 54 35 bb
       0.0018776897 -0.0029244672 0.0075991577 -0.0027668918
0003c0 75 91 d0 bb bc bc 82 bb e8 c8 2a bc 83 d9 76 3a
       -0.006364996 -0.003989784 -0.010423876 0.0009416567
0003d0 49 3f e6 bb 0c c7 a6 3b 3e b5 61 3a 50 38 e2 bb
       -0.007026587 0.005089646 0.0008610076 -0.0069036856
0003e0 9c 7f 0d 3a 1b 10 1d 3c bb 36 48 bb 46 75 10 3a
       0.00053977384 0.009586359 -0.00305502 0.0005510639
0003f0 da 6d 7d bb 74 96 19 3c 91 57 57 3c 4d 6b 64 3b
       -0.0038670213 0.00937425 0.013143436 0.0034853995
