models/european/GARCHLSTMKAGGLEDG.pth (torch, 878432 bytes, 12 tensors)

lstm.weight_ih_l0 f4 [512, 5]
-0.017304434 0.10418881 -0.036415134 0.030828038 -0.06478018 0.037645657 -0.05212669 0.04200069
-0.047041487 -0.07679866 -0.087356694 0.00509055 0.0105172 -0.0826436 0.016791636 0.0867005
-0.05980188 -0.0011958936 -0.09040029 0.035833716 0.047533363 0.039192874 0.013392847 0.03168293
0.052501403 0.09097345 0.102694355 -0.0947463 -0.0712755 0.086662404 0.061656196 0.0777252
0.078399174 -0.0043019177 -0.055631258 -0.042607695 0.006536701 -0.01250227 -0.016951047 0.006921474
-0.09246642 0.014595189 -0.016162064 -0.016898695 0.030849157 0.09881132 -0.07973707 -0.06801886
0.021529378 0.0023169094 0.10567384 0.026016282 0.083993174 -0.018643992 -0.023443492 -0.08911057
0.056945268 0.113243416 0.03784779 0.06400225 0.06767691 0.029251294 -0.06445372 0.038420334
0.0730891 -0.105055004 0.100926585 -0.08842566 0.025846466 -0.03982468 0.009673989 -0.0909385
0.09658462 -0.034938436 -0.0033678834 0.06677451 -0.068368554 -0.054637432 -0.08217494 -0.08969694
-0.07640213 -0.014527106 0.038578678 -0.058018688 -0.07663628 0.067259185 0.0380512 0.07262203
0.07481678 -0.022574425 -0.10775835 -0.074264355 0.014912615 0.012495639 0.09219092 -0.09378571
0.034414474 0.031091323 0.09700356 -0.09498801 0.0877277 0.11352177 -0.05821488 0.005524014
-0.024875844 -0.052670956 -0.029821321 -0.09399394 -0.08380071 -0.06360193 -0.058676716 0.117970206
0.034067906 0.079065636 0.061384 0.06202276 0.043472335 -0.09101296 -0.05427088 0.03095047
0.009844074 0.0075126784 0.005207819 0.025482 -0.08645739 0.007967127 -0.030831777 -0.070771374
0.007573845 0.06697746 0.04637983 0.02243031 0.01260744 0.089381725 -0.1048187 0.105944976
-0.041971974 0.103931986 -0.05758201 -0.09264597 -0.059305333 -0.006013375 -0.033543397 0.09854861
-0.0054166047 -0.071230315 0.08474971 -0.021405017 0.0329614 0.0670487 -0.03524849 -0.07152732
-0.051620547 -0.05588497 -0.020600868 -0.07771286 0.08028431 0.05245955 -0.043756384 -0.056295045
0.08659992 -0.013727967 0.0478609 0.033571288 -0.045720566 -0.047060553 0.04119549 0.1054091
-0.0782205 0.07222806 0.021321049 0.053381607 0.041011162 -0.110087186 -0.04615425 0.116652116
0.030608956 -0.05872974 -0.06383992 0.115463935 -0.042493977 0.094960175 0.024317436 0.066102944
-0.050658505 -0.032413803 -0.09577352 0.04382913 -0.05004593 0.022523757 -0.04707594 0.10938452
-0.024974529 0.07101206 0.07394424 0.070213184 0.027255021 0.07586279 0.0036377257 0.09337916
-0.052703287 0.08611743 -0.070754305 -0.015721034 0.0337422 -0.015519519 -0.013298589 0.0028332784
-0.026635094 0.085236974 0.05111953 0.111690305 0.08532806 -0.00688425 -0.096861176 0.046617113
-0.069382206 0.05151861 0.05785479 -0.007231824 0.017855152 -0.012962072 0.094422 0.026818272
-0.053360797 -0.0717492 0.102616854 -0.06443417 -0.027149297 -0.017556634 -0.058405843 0.031568833
0.010130519 -0.09078039 0.0068903114 -0.08832766 -0.01051486 -0.047142237 0.008500555 -0.023334855
0.10820021 -0.0764491 -0.03102853 0.031198202 0.08235012 0.08404371 -0.08102304 -0.040318914
0.084458135 -0.085620835 -0.09501088 -0.078097664 -0.07679985 0.09131321 0.0395804 0.078712285
00000000: 07c2 8dbc f160 d53d 0928 15bd 158b fc3c
00000010: 79ab 84bd 5532 1a3d cc82 55bd ea08 2c3d
00000020: 93ae 40bd 9e48 9dbd 11e8 b2bd a1ce a63b
00000030: 5650 2c3c 0c41 a9bd 9d8e 893c 0890 b13d
00000040: d1f2 74bd 88bf 9cba ca23 b9bd 60c6 123d
00000050: 58b2 423d b588 203d ac6d 5b3c f6c5 013d
00000060: b60b 573d 4a50 ba3d 6b51 d23d 590a c2bd
00000070: e4f8 91bd 0f7c b13d 358b 7c3d 642e 9f3d
00000080: bf8f a03d 1af7 8cbb 9add 63bd 6885 2ebd
00000090: d331 d63b 52d6 4cbc ecdc 8abc 88cd e23b
000000a0: 095f bdbd a920 6f3c 4e66 84bc 226f 8abc
000000b0: 5fb7 fc3c 975d ca3d 304d a3bd 794d 8bbd
000000c0: 615e b03c 4ad7 173b 876b d83d 1920 d53c
000000d0: 9d04 ac3d 49bb 98bc 910c c0bc 9a7f b6bd
000000e0: 713f 693d 2aec e73d 4906 1b3d 9d13 833d
000000f0: 319a 8a3d 69a0 ef3c 5000 84bd a45e 1d3d
00000100: bdaf 953d 1427 d7bd 99b2 ce3d 8318 b5bd
00000110: f8bb d33c 341f 23bd a77f 1e3c f73d babd
00000120: 28ce c53d 9b1b 0fbd b5b7 5cbb 13c1 883d
00000130: d004 8cbd 80cb 5fbd 564b a8bd 07b3 b7bd
00000140: b878 9cbd 1903 6ebc ad04 1e3d 01a5 6dbd
00000150: 7bf3 9cbd 2fbf 893d 93db 1b3d dcba 943d
00000160: 8a39 993d 00ee b8bc 69b0 dcbd e917 98bd
00000170: 0a54 743c 82ba 4c3c 98ce bc3d b912 c0bd
00000180: 31f6 0c3d 3bb3 fe3c cda9 c63d 1389 c2bd
00000190: 95aa b33d 1a7e e83d ba72 6ebd ca02 b53b
000001a0: 6dc8 cbbc 80bd 57bd d84b f4bc e57f c0bd
000001b0: b59f abbd bb41 82bd ff56 70bd 5d9a f13d
000001c0: ca8a 0b3d 2aed a13d ca6d 7b3d 940b 7e3d
000001d0: 0c10 323d 0165 babd 244b 5ebd d78b fd3c
000001e0: 0a49 213c ea2c f63b 5aa6 aa3b a1bf d03c
000001f0: 9210 b1bd 8d88 023c ec92 fcbc 95f0 90bd
00000200: 042e f83b 7b2b 893d c7f8 3d3d c5bf b73c
00000210: 708f 4e3c c40d b73d 30ab d6bd aef9 d83d
00000220: ceea 2bbd 4bda d43d 1ddb 6bbd 2cbd bdbd
00000230: 26ea 72bd d80b c5bb cd64 09bd dbd3 c93d
00000240: c67d b1bb 33e1 91bd 4291 ad3d 9359 afbc
00000250: 8802 073d d450 893d b860 10bd ea7c 92bd
00000260: 1170 53bd a3e7 64bd 27c3 a8bc ec27 9fbd
00000270: 1a6c a43d d3df 563d e539 33bd a295 66bd
00000280: 4d5b b13d 44eb 60bc cb09 443d 0c82 093d
00000290: 7d45 3bbd 91c2 40bd 9abc 283d bae0 d73d
000002a0: 1232 a0bd 4eec 933d 7ba9 ae3c aca6 5a3d
000002b0: 52fb 273d 6475 e1bd 3d0c 3dbd 4ee7 ee3d
000002c0: a2bf fa3c 998e 70bd 81be 82bd 5b78 ec3d
000002d0: 2a0e 2ebd 7b7a c23d 5c35 c73c fb60 873d
000002e0: 4b7f 4fbd 56c4 04bd e824 c4bd 2c86 333d
000002f0: f6fc 4cbd be83 b83c b3d2 40bd fe04 e03d
00000300: 6297 ccbc c56e 913d 1470 973d eecb 8f3d
00000310: ec45 df3c f35d 9b3d e966 6e3b 933d bf3d
00000320: 67df 57bd 565e b03d a2e7 90bd 66c9 80bc
00000330: 4335 0a3d 9545 7ebc 53e2 59bc 86ae 393b
00000340: d731 dabc b990 ae3d b662 513d e3bd e43d
00000350: 7ac0 ae3d 4695 e1bb 275f c6bd 96f1 3e3d
00000360: 4218 8ebd 2e05 533d 25f9 6c3d f0f8 ecbb
00000370: f844 923c df5e 54bc 5260 c13d feb1 db3c
00000380: da90 5abd 3ff1 92bd c928 d23d 10f6 83bd
00000390: 3468 debc eed2 8fbc f73a 6fbd 524e 013d
000003a0: 7afa 253c 12eb b9bd 1fc8 e13b 22e5 b4bd
000003b0: 8546 2cbc 3818 41bd e945 0b3c bd28 bfbc
000003c0: 1298 dd3d 5991 9cbd 8b2f febc 5f93 ff3c
000003d0: 2ea7 a83d 1c1f ac3d 68ef a5bd 7225 25bd
000003e0: 63f8 ac3d fa59 afbd 1095 c2bd abf1 9fbd
000003f0: 3d49 9dbd 6c02 bb3d 0f1f 223d e833 a13d

lstm.weight_hh_l0 f4 [512, 128]
0.082402416 0.06617324 -0.044972826 -0.036743138 0.0814164 -0.040682916 -0.08089252 0.059091717
0.03549313 0.0723612 -0.044629354 0.092755966 -0.08906676 -0.080224454 0.044902105 -0.04137759
-0.07203896 0.057301152 -0.050094236 0.0049463967 -0.0885917 -0.007947644 0.044005886 -0.021026576
-0.023985572 -0.09939755 -0.011123263 0.039834637 -0.09332749 0.076966904 0.07332634 -0.031027637
-0.011386151 0.075584374 0.004442989 -0.090522565 0.075806156 -0.05178791 -0.044712603 0.049002435
-0.020175185 -0.070046864 -0.06522777 0.013447356 -0.06793255 -0.031463273 0.010753457 0.05780185
0.03973638 -0.009287719 0.039873697 -0.036960594 0.028439077 -0.04946135 -0.08687203 -0.09725939
-0.01077254 0.031221341 -0.037612367 0.08688576 -0.01705126 -0.09284877 -0.0296563 0.040646292
0.032593288 -0.08741854 0.09249504 0.0029509552 -0.07013883 -0.025280416 -0.07491863 -0.06837202
-0.0043310802 -0.0029585473 0.0070858374 -0.011315263 -0.037573155 0.02970744 0.08161873 -0.024212034
-0.048565865 -0.0026387912 0.065932594 0.0983909 0.004828017 -0.049114928 -0.099967524 0.05332246
0.031953603 -0.019042166 -0.08954592 0.05861275 -0.021807048 -0.08727688 0.10147281 0.09470708
0.07855611 -0.09259707 0.016561138 -0.06616983 0.09910019 0.033571504 -0.010442554 0.079230905
-0.07463336 -0.010139548 -0.026644483 -0.07536949 0.020172264 0.07473957 0.04176124 0.06331187
0.06725968 0.056017946 -0.07596369 0.049623724 -0.04537337 0.007674983 -0.069974214 0.07573928
-0.0044639017 -0.06924421 -0.07780307 -0.06925228 -0.08666412 0.086194366 0.0250269 0.032318298
-0.024313122 -0.09210974 -0.010854892 0.030690797 -0.003168728 0.036838446 -0.06567082 -0.0694885
-0.020211292 -0.0424574 -0.05843207 0.07939239 0.099294074 0.015835674 -0.012620823 0.08819496
0.08232889 -0.058500398 0.017037818 0.043971445 0.052848272 -0.04669627 0.01066764 0.025588216
-0.012382455 0.09809161 0.07805134 0.050348394 -0.02346427 0.042703755 -0.019701283 -0.06058359
-0.072062366 0.020033075 0.051143087 0.015328014 0.012679567 -0.03430825 0.057410207 -0.06082409
0.09955512 0.07719348 0.03713298 0.0053315833 -0.037581135 -0.043237027 -0.061815795 0.075486176
0.06347942 -0.006871242 0.032849144 0.06438183 -0.035461124 0.01928325 -0.066577494 0.027789537
0.04975348 -0.021555249 0.032505605 0.056035254 0.07908307 0.007658415 -0.06555363 0.0071987784
0.032513138 0.034049284 0.017519891 -0.08279944 -0.06891134 0.10043748 0.052394763 -0.025161156
-0.036771294 -0.006037906 -0.033939976 -0.052045956 0.030599978 -0.043323524 -0.08195567 -0.010009695
0.024458477 -0.0812208 -0.08793211 -0.03749823 0.08137203 -0.06375224 0.070457 -0.0663992
0.082789764 0.026562622 -0.088476695 0.0054439586 0.06856537 0.021374853 0.033436276 0.07725075
-0.04489046 -0.014884876 -0.011784917 0.0109346695 0.08470494 0.07281167 -0.030861804 0.09932359
0.016727647 -0.07058224 -0.015081959 -0.057520986 -0.04998153 0.09442738 -0.10045492 -0.03879043
0.08549146 0.048836414 0.096812166 0.054460935 -0.07887447 -0.0033912738 -0.061726626 -0.08209017
-0.03203218 0.05501363 -0.036005817 -0.010113445 -0.05966988 -0.0886753 0.017716436 -0.030760387
00000000: 99c2 a83d d685 873d 6d35 38bd f97f 16bd
00000010: a4bd a63d 21a3 26bd faaa a5bd 280a 723d
00000020: 3f61 113d 1c32 943d 45cd 36bd d7f6 bd3d
00000030: a268 b6bd b84c a4bd 45eb 373d 8c7b 29bd
00000040: 2a89 93bd 9db4 6a3d 9d2f 4dbd 6215 a23b
00000050: 916f b5bd d636 02bc 843f 343d ed3f acbc
00000060: 647d c4bc f190 cbbd 593e 36bc a529 233d
00000070: 7c22 bfbd d3a0 9d3d 1f2c 963d ac2d febc
00000080: fb8c 3abc fbcb 9a3d 7e96 913b e563 b9bd
00000090: 4240 9b3d 8f1f 54bd 9024 37bd c7b6 483d
000000a0: 6e46 a5bc bb74 8fbd 2396 85bd 4d52 5c3c
000000b0: 3920 8bbd a2df 00bd 452f 303c a2c1 6c3d
000000c0: 9dc2 223d 842b 18bc 9a52 233d fe63 17bd
000000d0: 11f9 e83c fc97 4abd f6e9 b1bd ee2f c7bd
000000e0: 4f7f 30bc e6c3 ff3c 6d0f 1abd 29f1 b13d
000000f0: 16af 8bbc 7f27 bebd c5f1 f2bc ba7c 263d
00000100: 8a80 053d 7e08 b3bd 0a6e bd3d d064 413b
00000110: f2a4 8fbd e018 cfbc f06e 99bd a106 8cbd
00000120: bceb 8dbb 30e4 41bb 5030 e83b a763 39bc
00000130: 4fe6 19bd 045d f33c b927 a73d 5158 c6bc
00000140: 00ed 46bd 92ef 2cbb ab07 873d 2b81 c93d
00000150: 5834 9e3b bc2c 49bd c6bb ccbd a768 5a3d
00000160: c8e1 023d 51fe 9bbc da63 b7bd ec13 703d
00000170: b2a4 b2bc 39be b2bd fad0 cf3d c9f5 c13d
00000180: 07e2 a03d 88a3 bdbd 39ab 873c 0c84 87bd
00000190: 0af5 ca3d 4682 093d 3f17 2bbc d043 a23d
000001a0: 60d9 98bd 5920 26bc 8845 dabc 525b 9abd
000001b0: 4e40 a53c 0f11 993d d60d 2b3d a7a9 813d
000001c0: 71bf 893d 1373 653d da92 9bbd 3f42 4b3d
000001d0: 6dd9 39bd 6c7e fb3b a44e 8fbd 321d 9b3d
000001e0: ec45 92bb e9cf 8dbd 3757 9fbd 24d4 8dbd
000001f0: f57c b1bd ac86 b03d 3705 cd3c 3160 043d
00000200: 502c c7bc 08a4 bcbd b8d8 31bc 446b fb3c
00000210: 6faa 4fbb e9e3 163d 6c7e 86bd fd4f 8ebd
00000220: 2792 a5bc d0e7 2dbd 7756 6fbd 7a98 a23d
00000230: b15a cb3d d1b9 813c 92c7 4ebc 8f9f b43d
00000240: 0d9c a83d 1d9e 6fbd e592 8b3c 671b 343d
00000250: 6e77 583d 9744 3fbd 53c7 2e3c 619e d13c
00000260: c8df 4abc 41e4 c83d 62d9 9f3d 1e3a 4e3d
00000270: 2438 c0bc 22ea 2e3d 9664 a1bc 8026 78bd
00000280: 6f95 93bd 671c a43c 6a7b 513d 5a22 7b3c
00000290: f5bd 4f3c cf86 0cbd f726 6b3d ae22 79bd
000002a0: 8ee3 cb3d 9e17 9e3d c018 183d 90b4 ae3b
000002b0: adee 19bd 4f19 31bd 8f32 7dbd 7f98 9a3d
000002c0: 8001 823d 2828 e1bb d38c 063d 9fda 833d
000002d0: af3f 11bd e8f7 9d3c c859 88bd e2a6 e33c
000002e0: 4eca 4b3d a294 b0bc 9924 053d 3985 653d
000002f0: 4ef6 a13d 71f3 fa3b fb40 86bd bbe3 eb3b
00000300: 7f2c 053d 4377 0b3d e085 8f3c c192 a9bd
00000310: 6321 8dbd 2ab2 cd3d e49b 563d c51e cebc
00000320: 7f9d 16bd a0d9 c5bb a504 0bbd 242e 55bd
00000330: ceac fa3c 0274 31bd 60d8 a7bd b4ff 23bc
00000340: 255d c83c 1757 a6bd c015 b4bd be97 19bd
00000350: 61a6 a63d 8990 82bd c24b 903d 4efc 87bd
00000360: ae8d a93d db99 d93c 4533 b5bd 3c63 b23b
00000370: 006c 8c3d 511a af3c 7af4 083d a435 9e3d
00000380: 0fdf 37bd b2df 73bc 8615 41bc 5427 333c
00000390: c979 ad3d 491e 953d e5d1 fcbc 2b6a cb3d
000003a0: 6b08 893c 6c8d 90bd 521a 77bc 209b 6bbd
000003b0: 6fb9 4cbd 2463 c13d 4fbb cdbd b7e2 1ebd
000003c0: 2616 af3d b108 483d 7545 c63d 6e12 5f3d
000003d0: f088 a1bd 2240 5ebb 0fd5 7cbd e41e a8bd
000003e0: 2d34 03bd f955 613d d67a 13bd ddb2 25bc
000003f0: 6768 74bd 659b b5bd 0f22 913c 35fd fbbc

lstm.bias_ih_l0 f4 [512]
0.011210488 0.0075534983 0.0064433496 0.014619425 0.013781547 0.011560103 0.014396673 0.014825963
0.008785816 0.018070754 0.013347097 0.012385184 0.009389737 0.0129170595 0.013502618 0.0046424563
0.013016193 0.01242013 0.010132124 0.014392052 0.013182731 0.008700396 0.012916584 0.009986878
0.0025544283 0.012400571 0.01331965 0.006430219 0.01554653 0.011913262 0.011085526 0.012015124
0.0137593495 0.011247776 0.011095746 0.012276903 0.0047556595 0.008762613 0.008359725 0.01055603
0.011460239 0.01322204 0.0114052445 0.0071862596 0.0088015245 0.008327361 0.0130775925 0.012614405
0.007399531 0.0056068655 -0.0017193377 0.014592256 0.0098055545 0.014971536 0.014795383 0.011266724
0.014725639 0.012010251 0.0134062115 0.014625857 0.0128115695 0.0117126 0.0053472565 0.005826781
0.005199885 0.0065075387 0.009753365 0.0102189 0.003456215 0.007518482 0.013759406 0.011045944
0.013473004 0.009755991 0.009392185 0.014313352 0.005657377 0.012432091 0.003886485 0.0038928161
0.014405765 0.012981527 0.003486304 0.007506493 0.0138622075 0.006043263 0.004158394 0.013481685
0.010577191 0.012462298 0.011262901 0.011194167 0.0126635395 0.014910348 0.01328255 0.012388227
0.013499119 0.013812565 0.012353055 0.011036541 0.013976269 0.006509543 0.011526529 0.009803514
0.012184764 0.015279504 0.015715491 0.0031231837 0.012183951 0.013369032 0.0153212715 0.010191011
0.012052056 0.0066952347 0.011617895 0.009983323 0.014751412 0.0067381943 0.0048894333 0.01316
0.0011367056 0.0109133795 0.013999569 0.0130966 0.014182142 0.015218637 0.014221298 0.0077310684
0.012124053 0.0071023493 0.010033484 0.012464375 0.004800942 0.010730623 0.010263528 0.013509292
0.0027893651 0.019064302 0.010729211 0.011479621 0.008318514 0.011391107 0.014147277 0.008481828
0.011949889 0.012318198 0.0076103527 0.013754003 0.012546688 0.007180881 0.010557058 0.012873286
0.005036334 0.011281127 0.013541664 0.007028899 0.014510591 0.007501186 0.007874954 0.009447562
0.01424196 0.011047229 0.012457621 0.011406014 0.0020380672 0.006636901 0.00031657325 0.0065449155
0.012484903 0.012404586 0.009954663 0.0023789266 0.010916059 -0.0009112809 0.010005357 0.00869785
0.006766146 0.008227697 -0.0033897616 0.014597206 0.004974562 0.014991916 0.014553889 0.0068605766
0.015620668 0.012024247 0.013114403 0.014819874 0.0017427645 0.011162553 0.0067370147 -0.0018424443
0.0030025586 -0.0019853404 0.010879925 0.0042145126 0.008672676 0.0053427466 0.013994608 0.0042765248
0.012698237 0.00974727 0.002585991 0.015133334 0.0066172006 0.011257109 0.0047948384 0.002113558
0.004528364 0.011347628 0.00073289115 0.0057029943 0.013959165 0.007048127 0.0008760735 0.011530531
0.008103075 0.0060884077 0.009704741 0.0119003495 0.012224802 0.009922418 0.012898811 0.006096436
0.013202516 0.013573387 0.012993655 0.0111143105 0.01375301 0.0073333466 0.011223115 0.01166631
0.011133799 0.014879252 0.015358185 0.0055998443 0.0124692125 0.01333478 0.014276229 0.010894773
0.01177425 0.0023754437 0.0046239276 0.0063757957 0.014429153 0.005711506 0.0041637365 0.004585252
0.000781264 0.006710101 0.01385409 0.009616251 0.014169843 0.013260795 0.014974095 0.0059869294
00000000: 32ac 373c 5683 f73b bc22 d33b 5086 6f3c
00000010: ffcb 613c 9666 3d3c 06e0 6b3c 99e8 723c
00000020: 62f2 0f3c 1e09 943c c8ad 5a3c 3aeb 4a3c
00000030: 69d7 193c 13a2 533c 163a 5d3c bf1f 983b
00000040: df41 553c cd7d 4b3c 3501 263c a4cc 6b3c
00000050: 62fc 573c 1b8c 0e3c 14a0 533c 01a0 233c
00000060: 3268 273b c42b 4b3c a93a 5a3c 96b4 d23b
00000070: dfb6 7e3c d82f 433c 11a0 353c 15db 443c
00000080: e56e 613c 9848 383c efca 353c 1025 493c
00000090: 5dd5 9b3b 1091 0f3c 3af7 083c 33f3 2c3c
000000a0: bac3 3b3c 41a1 583c 10dd 3a3c b77a eb3b
000000b0: 4534 103c 7c6f 083c 6643 563c a6ac 4e3c
000000c0: c477 f23b ccb9 b73b 665b e1ba 5c14 6f3c
000000d0: 7aa7 203c 2c4b 753c 5668 723c 1198 383c
000000e0: ce43 713c a5c6 443c baa5 5b3c 4aa1 6f3c
000000f0: 9ee7 513c 34e6 3f3c 0a38 af3b 95ee be3b
00000100: cc63 aa3b 313d d53b 94cc 1f3c 2c6d 273c
00000110: aa81 623b 995d f63b 226f 613c 0cfa 343c
00000120: e0bd 5c3c 98d7 1f3c aee1 193c 8d82 6a3c
00000130: 8561 b93b f8af 4b3c 66b4 7e3b 9e1e 7f3b
00000140: 2806 6c3c 78b0 543c 7a7a 643b 07f9 f53b
00000150: 501e 633c 9006 c63b 2343 883b 49e2 5c3c
00000160: f44b 2d3c ab2e 4c3c 0888 383c bd67 373c
00000170: bc7a 4f3c 884a 743c 0d9f 593c fdf7 4a3c
00000180: 692b 5d3c 194e 623c 7864 4a3c 9cd2 343c
00000190: b9fc 643c 014e d53b c4d9 3c3c eb9e 203c
000001a0: 9ba2 473c e256 7a3c c6bd 803c 54ae 4c3b
000001b0: 329f 473c c909 5b3c 1206 7b3c 33f8 263c
000001c0: fd75 453c b363 db3b fc58 3e3c 1791 233c
000001d0: e8af 713c 12cc dc3b 8a37 a03b 0a9d 573c
000001e0: 83fd 943a 08ce 323c 735e 653c 1f93 563c
000001f0: 375c 683c 9757 793c 7200 693c e754 fd3b
00000200: f7a3 463c d3ba e83b 7b63 243c 6137 4c3c
00000210: 3851 9d3b 7fcf 2f3c 5b28 283c 1456 5d3c
00000220: c8cd 363b bd2c 9c3c 93c9 2f3c 0515 3c3c
00000230: 604a 083c c4a1 3a3c fbc9 673c 5df7 0a3c
00000240: 78c9 433c 44d2 493c 4460 f93b 7858 613c
00000250: a090 4d3c 994d eb3b 83f7 2c3c 7aea 523c
00000260: d507 a53b 7ad4 383c dbdd 5d3c ae52 e63b
00000270: d4bd 6d3c 82cc f53b f305 013c f2c9 1a3c
00000280: 1c57 693c 70ff 343c 0d1b 4c3c 4ae0 3a3c
00000290: 1891 053b 5c7a d93b bef9 a539 bb76 d63b
000002a0: 7b8d 4c3c 9b3c 4b3c e218 233c c4e7 1b3b
000002b0: 45d9 323c 07e3 6eba 82ed 233c 6d81 0e3c
000002c0: 8cb6 dd3b 76cd 063c c326 5ebb 1f29 6f3c
000002d0: a701 a33b a7a0 753c 6f73 6e3c b0ce e03b
000002e0: d5ed 7f3c 5901 453c cbdd 563c 0fcf 723c
000002f0: 796d e43a 24e3 363c 2dc2 dc3b 2c7e f1ba
00000300: 93c6 443b 7c1c 02bb b741 323c e519 8a3b
00000310: d717 0e3c 3512 af3b a449 653c 1722 8c3b
00000320: 440c 503c 03b3 1f3c bb79 293b cef1 773c
00000330: 1ad5 d83b bd6f 383c 051e 9d3b 9e83 0a3b
00000340: ac62 943b 67eb 393c 7e1f 403a 2fe0 ba3b
00000350: fbb4 643c f9f3 e63b 4ca8 653a 8dea 3c3c
00000360: c3c2 043c 4481 c73b a200 1f3c aff9 423c
00000370: 894a 483c a391 223c 8955 533c 9dc4 c73b
00000380: 5e4f 583c e962 5e3c 57e3 543c cc18 363c
00000390: 4e54 613c 924c f03b 28e1 373c 0d24 3f3c
000003a0: 8a6a 363c 1bc8 733c e6a0 7b3c e67e b73b
000003b0: ab4b 4c3c 1f7a 5a3c d8e6 693c fd7f 323c
000003c0: c9e8 403c 55ad 1b3b 5184 973b 0dec d03b
000003d0: 4168 6c3c 9627 bb3b f46f 883b e23f 963b
000003e0: bdcd 4c3a 68e0 db3b 44fc 623c 7b8d 1d3c
000003f0: a128 683c ce43 593c e855 753c 012e c43b

lstm.bias_hh_l0 f4 [512]
0.011210488 0.0075534983 0.0064433496 0.014619425 0.013781547 0.011560103 0.014396673 0.014825963
0.008785816 0.018070754 0.013347097 0.012385184 0.009389737 0.0129170595 0.013502618 0.0046424563
0.013016193 0.01242013 0.010132124 0.014392052 0.013182731 0.008700396 0.012916584 0.009986878
0.0025544283 0.012400571 0.01331965 0.006430219 0.01554653 0.011913262 0.011085526 0.012015124
0.0137593495 0.011247776 0.011095746 0.012276903 0.0047556595 0.008762613 0.008359725 0.01055603
0.011460239 0.01322204 0.0114052445 0.0071862596 0.0088015245 0.008327361 0.0130775925 0.012614405
0.007399531 0.0056068655 -0.0017193377 0.014592256 0.0098055545 0.014971536 0.014795383 0.011266724
0.014725639 0.012010251 0.0134062115 0.014625857 0.0128115695 0.0117126 0.0053472565 0.005826781
0.005199885 0.0065075387 0.009753365 0.0102189 0.003456215 0.007518482 0.013759406 0.011045944
0.013473004 0.009755991 0.009392185 0.014313352 0.005657377 0.012432091 0.003886485 0.0038928161
0.014405765 0.012981527 0.003486304 0.007506493 0.0138622075 0.006043263 0.004158394 0.013481685
0.010577191 0.012462298 0.011262901 0.011194167 0.0126635395 0.014910348 0.01328255 0.012388227
0.013499119 0.013812565 0.012353055 0.011036541 0.013976269 0.006509543 0.011526529 0.009803514
0.012184764 0.015279504 0.015715491 0.0031231837 0.012183951 0.013369032 0.0153212715 0.010191011
0.012052056 0.0066952347 0.011617895 0.009983323 0.014751412 0.0067381943 0.0048894333 0.01316
0.0011367056 0.0109133795 0.013999569 0.0130966 0.014182142 0.015218637 0.014221298 0.0077310684
0.012124053 0.0071023493 0.010033484 0.012464375 0.004800942 0.010730623 0.010263528 0.013509292
0.0027893651 0.019064302 0.010729211 0.011479621 0.008318514 0.011391107 0.014147277 0.008481828
0.011949889 0.012318198 0.0076103527 0.013754003 0.012546688 0.007180881 0.010557058 0.012873286
0.005036334 0.011281127 0.013541664 0.007028899 0.014510591 0.007501186 0.007874954 0.009447562
0.01424196 0.011047229 0.012457621 0.011406014 0.0020380672 0.006636901 0.00031657325 0.0065449155
0.012484903 0.012404586 0.009954663 0.0023789266 0.010916059 -0.0009112809 0.010005357 0.00869785
0.006766146 0.008227697 -0.0033897616 0.014597206 0.004974562 0.014991916 0.014553889 0.0068605766
0.015620668 0.012024247 0.013114403 0.014819874 0.0017427645 0.011162553 0.0067370147 -0.0018424443
0.0030025586 -0.0019853404 0.010879925 0.0042145126 0.008672676 0.0053427466 0.013994608 0.0042765248
0.012698237 0.00974727 0.002585991 0.015133334 0.0066172006 0.011257109 0.0047948384 0.002113558
0.004528364 0.011347628 0.00073289115 0.0057029943 0.013959165 0.007048127 0.0008760735 0.011530531
0.008103075 0.0060884077 0.009704741 0.0119003495 0.012224802 0.009922418 0.012898811 0.006096436
0.013202516 0.013573387 0.012993655 0.0111143105 0.01375301 0.0073333466 0.011223115 0.01166631
0.011133799 0.014879252 0.015358185 0.0055998443 0.0124692125 0.01333478 0.014276229 0.010894773
0.01177425 0.0023754437 0.0046239276 0.0063757957 0.014429153 0.005711506 0.0041637365 0.004585252
0.000781264 0.006710101 0.01385409 0.009616251 0.014169843 0.013260795 0.014974095 0.0059869294
00000000: 32ac 373c 5683 f73b bc22 d33b 5086 6f3c
00000010: ffcb 613c 9666 3d3c 06e0 6b3c 99e8 723c
00000020: 62f2 0f3c 1e09 943c c8ad 5a3c 3aeb 4a3c
00000030: 69d7 193c 13a2 533c 163a 5d3c bf1f 983b
00000040: df41 553c cd7d 4b3c 3501 263c a4cc 6b3c
00000050: 62fc 573c 1b8c 0e3c 14a0 533c 01a0 233c
00000060: 3268 273b c42b 4b3c a93a 5a3c 96b4 d23b
00000070: dfb6 7e3c d82f 433c 11a0 353c 15db 443c
00000080: e56e 613c 9848 383c efca 353c 1025 493c
00000090: 5dd5 9b3b 1091 0f3c 3af7 083c 33f3 2c3c
000000a0: bac3 3b3c 41a1 583c 10dd 3a3c b77a eb3b
000000b0: 4534 103c 7c6f 083c 6643 563c a6ac 4e3c
000000c0: c477 f23b ccb9 b73b 665b e1ba 5c14 6f3c
000000d0: 7aa7 203c 2c4b 753c 5668 723c 1198 383c
000000e0: ce43 713c a5c6 443c baa5 5b3c 4aa1 6f3c
000000f0: 9ee7 513c 34e6 3f3c 0a38 af3b 95ee be3b
00000100: cc63 aa3b 313d d53b 94cc 1f3c 2c6d 273c
00000110: aa81 623b 995d f63b 226f 613c 0cfa 343c
00000120: e0bd 5c3c 98d7 1f3c aee1 193c 8d82 6a3c
00000130: 8561 b93b f8af 4b3c 66b4 7e3b 9e1e 7f3b
00000140: 2806 6c3c 78b0 543c 7a7a 643b 07f9 f53b
00000150: 501e 633c 9006 c63b 2343 883b 49e2 5c3c
00000160: f44b 2d3c ab2e 4c3c 0888 383c bd67 373c
00000170: bc7a 4f3c 884a 743c 0d9f 593c fdf7 4a3c
00000180: 692b 5d3c 194e 623c 7864 4a3c 9cd2 343c
00000190: b9fc 643c 014e d53b c4d9 3c3c eb9e 203c
000001a0: 9ba2 473c e256 7a3c c6bd 803c 54ae 4c3b
000001b0: 329f 473c c909 5b3c 1206 7b3c 33f8 263c
000001c0: fd75 453c b363 db3b fc58 3e3c 1791 233c
000001d0: e8af 713c 12cc dc3b 8a37 a03b 0a9d 573c
000001e0: 83fd 943a 08ce 323c 735e 653c 1f93 563c
000001f0: 375c 683c 9757 793c 7200 693c e754 fd3b
00000200: f7a3 463c d3ba e83b 7b63 243c 6137 4c3c
00000210: 3851 9d3b 7fcf 2f3c 5b28 283c 1456 5d3c
00000220: c8cd 363b bd2c 9c3c 93c9 2f3c 0515 3c3c
00000230: 604a 083c c4a1 3a3c fbc9 673c 5df7 0a3c
00000240: 78c9 433c 44d2 493c 4460 f93b 7858 613c
00000250: a090 4d3c 994d eb3b 83f7 2c3c 7aea 523c
00000260: d507 a53b 7ad4 383c dbdd 5d3c ae52 e63b
00000270: d4bd 6d3c 82cc f53b f305 013c f2c9 1a3c
00000280: 1c57 693c 70ff 343c 0d1b 4c3c 4ae0 3a3c
00000290: 1891 053b 5c7a d93b bef9 a539 bb76 d63b
000002a0: 7b8d 4c3c 9b3c 4b3c e218 233c c4e7 1b3b
000002b0: 45d9 323c 07e3 6eba 82ed 233c 6d81 0e3c
000002c0: 8cb6 dd3b 76cd 063c c326 5ebb 1f29 6f3c
000002d0: a701 a33b a7a0 753c 6f73 6e3c b0ce e03b
000002e0: d5ed 7f3c 5901 453c cbdd 563c 0fcf 723c
000002f0: 796d e43a 24e3 363c 2dc2 dc3b 2c7e f1ba
00000300: 93c6 443b 7c1c 02bb b741 323c e519 8a3b
00000310: d717 0e3c 3512 af3b a449 653c 1722 8c3b
00000320: 440c 503c 03b3 1f3c bb79 293b cef1 773c
00000330: 1ad5 d83b bd6f 383c 051e 9d3b 9e83 0a3b
00000340: ac62 943b 67eb 393c 7e1f 403a 2fe0 ba3b
00000350: fbb4 643c f9f3 e63b 4ca8 653a 8dea 3c3c
00000360: c3c2 043c 4481 c73b a200 1f3c aff9 423c
00000370: 894a 483c a391 223c 8955 533c 9dc4 c73b
00000380: 5e4f 583c e962 5e3c 57e3 543c cc18 363c
00000390: 4e54 613c 924c f03b 28e1 373c 0d24 3f3c
000003a0: 8a6a 363c 1bc8 733c e6a0 7b3c e67e b73b
000003b0: ab4b 4c3c 1f7a 5a3c d8e6 693c fd7f 323c
000003c0: c9e8 403c 55ad 1b3b 5184 973b 0dec d03b
000003d0: 4168 6c3c 9627 bb3b f46f 883b e23f 963b
000003e0: bdcd 4c3a 68e0 db3b 44fc 623c 7b8d 1d3c
000003f0: a128 683c ce43 593c e855 753c 012e c43b

lstm.weight_ih_l1 f4 [512, 128]
-0.09548083 0.03835265 0.03733085 -0.044546027 -0.010305885 0.050998423 0.032712784 -0.04599279
0.031655107 -0.017029198 0.020698134 0.07604686 -0.026486872 0.0735137 -0.08311715 -0.015066142
0.057839874 0.059236307 -0.07017156 0.038885884 0.054169983 -0.045837022 0.06593664 0.0471635
0.009798384 0.0075597814 0.030677298 0.091016285 -0.010009339 -0.078919984 0.03833803 0.048900187
0.031891216 -0.080659665 -0.07557157 -0.054225855 -0.08083884 0.06783441 -0.089497104 0.012744021
-0.080287956 0.019061837 -0.034239575 -0.058755524 0.07980026 0.08262636 0.05274956 0.020824904
0.09627382 -0.029452162 -0.04371036 0.07822048 -0.017574856 0.09316867 0.06513854 -0.07707195
-0.02989472 0.0645569 0.09540494 0.016003633 -0.03547222 0.0013636665 0.040091306 -0.052557666
0.059559334 -0.0025046624 0.041009635 -0.06683289 -0.042587824 -0.047029845 -0.008324672 0.009955436
0.072828315 0.04552962 -0.0492355 -0.07127593 -0.07350862 0.01669606 -0.07921627 -0.012598027
0.08026455 -0.005081388 -0.047246512 0.007948002 -0.041897886 0.089446016 -0.06207443 -0.009499158
-0.010705431 -0.017985076 0.040210355 -0.02782922 -0.017243205 0.091137394 -0.026472528 -0.07934659
-0.013552014 0.08248439 0.08780817 -0.03182759 -0.0027623589 0.014153211 -0.023530846 0.035393223
0.032660294 0.039478812 0.0071095065 0.00875171 0.025608119 -0.004591682 0.07800693 -0.062684625
-0.096929796 0.028947618 -0.027435374 0.07714447 0.07226291 0.052338723 0.0055047986 -0.006474818
0.05243755 -0.058536313 0.035406798 0.09164197 -0.013091676 0.09040833 0.010915817 0.0674481
-0.08274408 -0.07474404 -0.021467747 0.04112613 -0.051271603 0.022457616 0.0969611 -0.07727212
0.03429111 -0.0029502953 0.062862344 -0.092187375 0.0016560315 0.05643678 0.032689568 -0.008202093
-0.011563658 0.025030907 0.03193346 0.047858715 0.013748076 0.01047957 -0.030816492 0.033217326
0.036282886 0.06933435 -0.010206904 -0.086726524 0.017617313 0.032930806 0.07672964 -0.072299436
0.07327031 -0.020488378 -0.08304166 0.026477836 0.0908816 -0.09216251 -0.06635843 0.08387405
-0.080737025 -0.04768319 -0.028492514 0.041566916 -0.043008864 0.024605054 -0.08047808 2.9596782e-05
0.024156492 -0.04083003 -0.049167205 0.023609374 0.09046522 -0.009304881 0.05254727 -0.02408352
-0.042098068 -0.01724748 0.009264854 -0.08121528 -0.0008959847 -0.056654263 0.02744403 -0.051852703
0.094124734 0.043103352 -0.03989541 0.07624072 -0.0222888 -0.08188933 -0.012645808 0.06995923
0.08733108 -0.053063292 -0.02282374 -0.019256184 0.06856738 0.062151656 -0.07302365 0.0666401
0.072864786 0.013933434 -0.08262027 -0.05095972 0.02031344 0.019200647 0.09421513 -0.021600468
0.060267106 0.049130533 0.028660573 0.032266747 -0.023788473 0.011568263 0.04487854 -0.015149172
0.020913191 0.029988134 0.09511177 0.03334762 0.063309155 -0.004571787 -0.07071286 0.06752609
-0.010870254 0.03163292 0.029004313 -0.028188 -0.054184463 0.049077876 -0.03352495 0.016665
0.02507204 -0.010799497 0.0124075785 -0.013791342 0.066776395 -0.09468608 0.05657073 0.0030752036
-0.040852707 0.059045985 -0.010281654 0.054936275 -0.056768216 0.009263179 0.03449709 0.03207318
00000000: 748b c3bd ab17 1d3d 3ce8 183d e575 36bd
00000010: 04da 28bc b9e3 503d d7fd 053d f062 3cbd
00000020: c9a8 013d d180 8bbc 228f a93c 75be 9b3d
00000030: fffa d8bc 5a8e 963d 5339 aabd fbd7 76bc
00000040: 81e9 6c3d c5a1 723d 1bb6 8fbd ce46 1f3d
00000050: 58e1 5d3d 9abf 3bbd ca09 873d 842e 413d
00000060: 6789 203c 0bb8 f73b f54e fb3c bf66 ba3d
00000070: 36fe 23bc cda0 a1bd 5708 1d3d 904b 483d
00000080: 5da0 023d e530 a5bd 44c5 9abd ee1b 5ebd
00000090: d58e a5bd c4ec 8a3d 424a b7bd 4ccc 503c
000000a0: 036e a4bd 9227 9c3c cc3e 0cbd a2a9 70bd
000000b0: 526e a33d 0238 a93d ec0f 583d fd98 aa3c
000000c0: 352b c53d a945 f1bc a209 33bd 0f32 a03d
000000d0: 25f9 8fbc 37cf be3d 5b67 853d e6d7 9dbd
000000e0: c6e5 f4bc 6836 843d aa63 c33d 0d1a 833c
000000f0: 524b 11bd 0ebd b23a c836 243d b546 57bd
00000100: 7df4 733d 4325 24bb b8f9 273d afdf 88bd
00000110: 9270 2ebd 5ea2 40bd 3464 08bc 201c 233c
00000120: 0327 953d 447d 3a3d 2aab 49bd 1df9 91bd
00000130: b08b 96bd 2dc6 883c 243c a2bd f467 4ebc
00000140: be61 a43d c681 a6bb 8f85 41bd 5638 023c
00000150: 1e9d 2bbd 792f b73d c241 7ebd 5ba2 1bbc
00000160: d565 2fbc 7055 93bc 9db3 243d 1bfa e3bc
00000170: 9f41 8dbc 3ea6 ba3d eadc d8bc 7780 a2bd
00000180: 4409 5ebc 93ed a83d c5d4 b33d a65d 02bd
00000190: b108 35bb dfe2 673c c3c3 c0bc 7cf8 103d
000001a0: cdc6 053d 89b4 213d ddf6 e83b 5563 0f3c
000001b0: 1ec8 d13c d275 96bb 19c2 9f3d cc60 80bd
000001c0: 2183 c6bd 8e23 ed3c 26c0 e0bc ebfd 9d3d
000001d0: 94fe 933d 2161 563d 9961 b43b b62a d4bb
000001e0: c2c8 563d c6c3 6fbd b806 113d c9ae bb3d
000001f0: 787e 56bc 0128 b93d 41d8 323c 3b22 8a3d
00000200: ba75 a9bd 6713 99bd 21dd afbc df73 283d
00000210: 2c02 52bd 09f9 b73c 8b93 c63d d840 9ebd
00000220: d674 0c3d be59 41bb f9bd 803d bccc bcbd
00000230: 320f d93a 412a 673d 7fe5 053d 1262 06bc
00000240: 7f75 3dbc 9e0d cd3c a9cc 023d 8007 443d
00000250: 9c3f 613c 81b2 2b3c de72 fcbc e40e 083d
00000260: 5d9d 143d 2bff 8d3d dc3a 27bc ad9d b1bd
00000270: 2f52 903c 74e2 063d 6e24 9d3d ba11 94bd
00000280: bf0e 963d 3ed7 a7bc bf11 aabd 0ce8 d83c
00000290: 2220 ba3d b3bf bcbd eee6 87bd 28c6 ab3d
000002a0: 7459 a5bd 734f 43bd 2269 e9bc 1242 2a3d
000002b0: 102a 30bd 8a90 c93c b1d1 a4bd 9b46 f837
000002c0: d6e3 c53c 643d 27bd 8d63 49bd 7268 c13c
000002d0: d445 b93d 8073 18bc ce3b 573d cd4a c5bc
000002e0: 066f 2cbd 964a 8dbc 9dcb 173c 3254 a6bd
000002f0: 84e0 6aba 4d0e 68bd 4dd2 e03c 8063 54bd
00000300: 78c4 c03d 248d 303d 5f69 23bd 1824 9c3d
00000310: 0097 b6bc 98b5 a7bd 5d30 4fbc c946 8f3d
00000320: a3da b23d e558 59bd daf8 babc 25bf 9dbc
00000330: 0e6d 8c3d bc92 7e3d 6c8d 95bd 9b7a 883d
00000340: 223a 953d 0f49 643c d134 a9bd 24bb 50bd
00000350: 5f68 a63c ad4a 9d3c ddf3 c03d 77f3 b0bc
00000360: a4da 763d 193d 493d 94c9 ea3c 232a 043d
00000370: 0be0 c2bc d088 3d3c 8fd2 373d 3c34 78bc
00000380: 2452 ab3c ada9 f53c f6c9 c23d 8497 083d
00000390: 3ba8 813d eece 95bb e7d1 90bd 1e4b 8a3d
000003a0: 2619 32bc 8591 013d 749a ed3c 85ea e6bc
000003b0: 87f0 5dbd e205 493d 7551 09bd 0a85 883c
000003c0: e163 cd3c 60f0 30bc 2849 4b3c 15f5 61bc
000003d0: 10c2 883d c7ea c1bd b6b6 673d 5b89 493b
000003e0: 2b55 27bd 34da 713d 6274 28bc dc04 613d
000003f0: ca85 68bd 97c4 173c d24c 0d3d 2b5f 033d

lstm.weight_hh_l1 f4 [512, 128]
0.009024914 0.06818629 0.05472943 0.06270014 -0.06345458 -0.0064707873 -0.048013777 -0.079542615
0.06411193 -0.06687888 0.0016150441 -0.035695013 0.08533019 0.06456708 0.015444617 -0.07176814
-0.016843151 -0.09069846 -0.018013733 0.016599506 -0.030700447 -0.0035246331 -0.020712664 -0.03799774
0.051502176 -0.09382875 0.058767095 -0.08141244 0.021413267 0.06524483 -0.0110782385 -0.07226768
0.03748061 0.039310258 0.04983069 -0.059510738 -0.0017232427 -0.038407907 -0.09088074 -0.034221128
-0.09036637 -0.05936277 -0.06500451 -0.051205296 0.07030855 -0.03217626 -0.080753535 -0.0424295
-0.039101157 -0.03423832 0.024707826 0.031320024 0.042522922 0.08458483 -0.035021827 0.053203274
-0.0062132645 0.0783634 -0.019104298 -0.05315711 -0.042591706 0.088525765 0.020449063 0.09340533
-0.022106588 0.06308205 0.026455367 0.06914254 -0.08222737 -0.079092234 0.028480018 0.051397286
0.0019568761 0.013238158 -0.04333482 0.06260192 0.059375715 0.023258038 0.04063851 -0.06720263
-0.06767992 -0.076980285 -0.014630252 0.07043618 -0.049073882 0.001940228 0.05387682 0.072696
-0.027701499 -0.06260687 0.017354589 -0.08612334 0.048766255 0.07375415 -0.039928008 -0.06423401
-0.055993695 0.076223984 0.087076545 -0.042757872 0.069773674 -0.051797315 -0.02049885 -0.04144427
-0.07429298 0.04257145 0.048837766 0.09643919 0.08982378 0.09865632 0.025105543 -0.06917301
-0.069979176 0.06970569 -0.013465938 -0.08575024 0.0064059515 -0.04524629 -0.01655749 -0.0089398455
-0.029080205 -0.014025214 0.0965686 -0.086473204 0.027674204 0.089674294 0.055141956 -0.088969156
-0.062803805 -0.02048798 -0.025611252 -0.01830502 -0.029778834 -0.068551175 -0.038052414 0.0061939796
0.057915296 0.08335973 0.09634184 -0.044574708 0.0594067 -0.039322928 0.01570336 0.079546444
0.033896383 0.07751527 0.05873158 -0.012058996 0.07038105 0.0034901015 0.05849464 -0.063239105
0.014885709 -0.05777563 0.00070573983 0.067814045 0.07201727 0.0465863 -0.08625553 -0.08956246
-0.08617801 -0.07736813 0.031085229 0.021853106 0.09300396 0.048805352 -0.093640596 -0.06777352
0.07919413 -0.0474641 -0.043683533 -0.032098603 0.070347615 0.07242699 -0.055444155 -0.02575828
0.032575227 0.017409 0.06565469 0.060836148 -0.002374763 -0.02685504 -0.005914916 -0.061139535
0.011638445 0.03276354 0.042825963 0.08845522 0.08049148 0.043674245 0.081983835 -0.027095862
-0.010908978 0.025583183 0.078934066 -0.02818625 0.07923162 0.05059925 0.018593526 -0.05061695
0.08893661 -0.02071908 -0.040240116 -0.08286446 -0.08423605 -0.005935973 -0.0034906832 0.087284766
-0.07276508 -0.032218125 0.04489183 -0.07985884 0.046982173 0.018388795 0.052486185 0.050221216
-0.018935487 -0.005253189 -0.0029054284 -0.022646826 0.020247906 0.049305905 0.005537868 -0.058289442
0.086853646 0.033313416 -0.05059474 0.026765626 0.07314621 0.05500403 -0.00021913246 0.04982818
0.023013908 -0.022325207 0.034542605 0.008091236 -0.08896335 -0.05605024 -0.062306765 0.062233716
0.08476434 -0.041798398 -0.0697557 -0.08596021 -0.034004457 0.043081477 -0.07496359 0.035234924
0.030159842 0.029242128 -0.019050382 -0.07486714 0.08173858 0.035103265 -0.09863945 -0.018495707
00000000: 3cdd 133c 41a5 8b3d f72b 603d ee68 803d
00000010: 7af4 81bd e608 d4bb 18aa 44bd 3de7 a2bd
00000020: 1e4d 833d cbf7 88bd e3af d33a ef34 12bd
00000030: 98c1 ae3d bf3b 843d 6b0b 7d3c 2dfb 92bd
00000040: a6fa 89bc 1dc0 b9bd 8991 93bc b0fb 873c
00000050: 817f fbbc 88fd 66bb 9bad a9bc 85a3 1bbd
00000060: f2f3 523d 4a29 c0bd c4b5 703d 91bb a6bd
00000070: e06a af3c 159f 853d 8081 35bc 1401 94bd
00000080: 4585 193d cb03 213d 441b 4c3d 88c1 73bd
00000090: 6ede e1ba 9c51 1dbd ae1f babd 742b 0cbd
000000a0: 0112 b9bd 6026 73bd 1621 85bd a5bc 51bd
000000b0: eefd 8f3d 41cb 03bd 1c62 a5bd 8eca 2dbd
000000c0: 8928 20bd 7b3d 0cbd 1168 ca3c 6d49 003d
000000d0: 842c 2e3d d03a ad3d 0c73 0fbd adeb 593d
000000e0: a498 cbbb fe7c a03d 9e80 9cbc 45bb 59bd
000000f0: a474 2ebd ff4c b53d cb84 a73c 4b4b bf3d
00000100: e018 b5bc 2931 813d edb8 d83c 9b9a 8d3d
00000110: d366 a8bd 1cfb a1bd ed4e e93c f685 523d
00000120: ef3e 003b dce4 583c da7f 31bd 6f35 803d
00000130: f333 733d a487 be3c 9174 263d 88a1 89bd
00000140: c59b 8abd d7a7 9dbd b9b3 6fbc d840 903d
00000150: b201 49bd 404f fe3a f1ad 5c3d a4e1 943d
00000160: 41ee e2bc 0838 80bd 362b 8e3c 6f61 b0bd
00000170: 20bf 473d 6a0c 973d 8d8b 23bd 1f8d 83bd
00000180: a559 65bd 521b 9c3d 3055 b23d e122 2fbd
00000190: 80e5 8e3d 6c29 54bd 34ed a7bc 78c1 29bd
000001a0: eb26 98bd 675f 2e3d 1c0a 483d e981 c53d
000001b0: 88f5 b73d 530c ca3d 24aa cd3c 94aa 8dbd
000001c0: 3e51 8fbd dbc1 8e3d 3da0 5cbc d29d afbd
000001d0: 04e9 d13b 2c54 39bd 93a3 87bc 6e78 12bc
000001e0: 9c39 eebc 03ca 65bc c2c5 c53d dd18 b1bd
000001f0: 03b5 e23c 28a7 b73d 88dc 613d 7635 b6bd
00000200: 489f 80bd 69d6 a7bc b0ce d1bc 69f4 95bc
00000210: bef2 f3bc 8f64 8cbd d9dc 1bbd def6 ca3b
00000220: 9738 6d3d 82b8 aa3d df4e c53d f893 36bd
00000230: 7154 733d 1411 21bd 55a4 803c 3fe9 a23d
00000240: efd6 0a3d 53c0 9e3d 8690 703d 1893 45bc
00000250: f123 903d 30ba 643b 1398 6f3d 8183 81bd
00000260: 30e3 733c 24a6 6cbd 6601 393a 17e2 8a3d
00000270: ca7d 933d 47d1 3e3d bda6 b0bd 866c b7bd
00000280: 197e b0bd 2f73 9ebd 73a6 fe3c 4905 b33c
00000290: dc78 be3d 1fe8 473d a4c6 bfbd d8cc 8abd
000002a0: 8830 a23d b769 42bd 81ed 32bd d379 03bd
000002b0: 6912 903d 9a54 943d 6919 63bd 0703 d3bc
000002c0: 9a6d 053d 529d 8e3c f775 863d 532f 793d
000002d0: e9a1 1bbb 1aff dbbc e9d1 c1bb 736d 7abd
000002e0: 2daf 3e3c 1033 063d 476a 2f3d 0328 b53d
000002f0: b8d8 a43d c4e3 323d 24e7 a73d 24f8 ddbc
00000300: 92bb 32bc d393 d13c 2fa8 a13d dae6 e6bc
00000310: 3044 a23d 2941 4f3d 7351 983c b853 4fbd
00000320: 6624 b63d 0fbb a9bc d2d2 24bd d8b4 a9bd
00000330: f383 acbd 8d82 c2bb f2c3 64bb 5bc2 b23d
00000340: dc05 95bd 27f7 03bd 7fe0 373d 088d a3bd
00000350: 6170 403d 19a4 963c c1fb 563d c3b4 4d3d
00000360: 981e 9bbc f122 acbb 0069 3ebb d685 b9bc
00000370: f0de a53c fdf4 493d 0177 b53b e9c0 6ebd
00000380: 53e0 b13d a673 083d 6e3c 4fbd 9643 db3c
00000390: aecd 953d e84b 613d ecc6 65b9 a218 4c3d
000003a0: aa87 bc3c 5ae3 b6bc 8c7c 0d3d 1b91 043c
000003b0: 6b32 b6bd f094 65bd 6135 7fbd c8e8 7e3d
000003c0: ed98 ad3d cc34 2bbd 14dc 8ebd e80b b0bd
000003d0: 4248 0bbd 3476 303d 8386 99bd 7f52 103d
000003e0: c611 f73c 308d ef3c 8c0f 9cbc f153 99bd
000003f0: 8e66 a73d 71c8 0f3d 7b03 cabd 4f84 97bc

lstm.bias_ih_l1 f4 [512]
0.002336121 0.007988823 0.009305251 0.008844718 0.012993095 0.008051272 0.0069762915 0.009991634
0.0074803717 0.008482309 0.0102894055 0.009270376 0.0057771644 0.003656544 0.011925237 0.011638772
0.011624958 0.012125613 0.009842405 0.008418378 0.0013699582 0.009629902 0.0005116054 -0.0020902692
0.005498734 0.0064073605 0.0042045787 0.008044066 0.0039861966 0.016303046 0.011428048 0.009809064
0.007453198 -0.0068563386 0.00911175 0.0011363782 0.0004280406 0.013232314 0.008852729 0.013959279
0.007893211 0.014705562 0.010438599 0.0025215507 0.006142242 0.0058678994 0.01154702 0.010945834
0.013170356 0.011146082 0.0106026875 0.013976399 0.009768198 0.009565588 0.011040402 0.014837633
0.012461106 0.012839924 0.0023706753 0.010614694 0.011142888 0.0073369434 0.0035291468 0.009319419
0.013702287 0.00026015943 0.011808015 -0.0025633466 0.010702818 -0.0024117245 0.00926317 0.0037858672
0.011044993 0.008293857 -0.0014746747 0.009848607 0.0074974224 0.013837245 0.0049671032 0.0015395946
0.005547842 0.0098815495 0.00569734 0.010200793 0.008803781 0.011267328 0.012384188 0.006690569
0.008052613 0.013574047 0.012197963 0.007255994 0.009753086 0.0071229297 0.014118125 0.0029779682
0.008439504 0.01297797 0.0023419831 0.005901812 0.011291576 0.01456156 0.014856965 0.0004899071
0.007691986 0.009651896 0.011856841 0.013690056 0.006971441 0.0100804875 0.008471189 0.0023999214
-0.00077650155 0.0021260835 0.01113617 0.008774965 0.010109834 0.013546828 0.009980261 0.007790561
0.016505562 0.010168086 0.009399832 0.00889965 0.0074815867 0.008764937 0.007836174 0.00955197
-0.0015222413 0.004419837 0.011033516 0.009342023 0.010529821 0.004679151 -0.00093301875 0.009897547
0.004779735 0.010329268 0.008272915 0.0061949664 0.0033873944 0.005091072 0.009630252 0.012472711
0.010385852 0.013907641 0.009770293 0.007594973 0.00078247936 -0.00080017745 -0.0038042779 -0.00082770543
0.0074671833 0.008801846 0.004654878 0.007111244 0.0046875407 0.013855521 0.011479565 -0.0014158536
0.009050818 -0.0063523725 0.002470712 0.0023025088 0.0027700863 0.010210708 0.009077991 0.01417219
0.0064518233 0.013667578 0.009097162 0.001398015 0.0034153312 0.003212523 0.009491155 0.012280797
0.013803785 0.0122941425 0.011098322 0.015264686 0.0013385571 0.006944605 0.00994532 0.01575423
0.0129822735 0.011609732 -0.002032726 0.010868482 0.009014824 0.008552144 0.0013196524 0.00808934
0.012891436 0.00090447825 0.010629583 0.0038544305 0.011525181 -0.0021792625 0.006083662 8.500958e-05
0.013957396 0.0063064336 -0.0024832478 0.008282741 0.0053834626 0.014825925 0.0054212096 0.0035858024
0.004137685 0.009491506 0.003157546 0.010838161 0.0031643035 0.011595928 0.012659603 0.0059500006
0.00043605457 0.012856993 0.009277457 0.0016326262 0.009405991 0.0010603293 0.014070022 0.0009167268
0.007237607 0.0013197338 0.0018156283 0.0054450566 0.0038109384 0.014454268 0.014879704 0.0011332002
0.0041321185 0.008183059 0.012449488 0.013994915 0.0034494947 0.007153006 0.006991943 0.002739444
0.00020499752 0.0028789816 0.0071904683 0.0059867413 0.002003907 0.012331381 0.0091237705 0.0070104296
0.015944188 0.0105581805 0.007302302 0.0056133103 0.0027154114 0.0070419805 0.007400605 0.009544546
00000000: 9b19 193b 8de3 023c 0d75 183c 70e9 103c
00000010: fee0 543c 7be9 033c 6099 e43b f3b3 233c
00000020: e81d f53b 62f9 0a3c e594 283c c6e2 173c
00000030: 5e4e bd3b a1a2 6f3b 1262 433c 8cb0 3e3c
00000040: 9c76 3e3c 82aa 463c 0a42 213c 3ded 093c
00000050: 2b90 b33a bdc6 1d3c 421d 063a e6fc 08bb
00000060: b92e b43b d6f4 d13b 90c6 893b 42cb 033c
00000070: a49e 823b f78d 853c b53c 3b3c 32b6 203c
00000080: f539 f43b 23ab e0bb 7349 153c 86f2 943a
00000090: a36a e039 59cc 583c 090b 113c 76b5 643c
000000a0: 8752 013c 99ef 703c a806 2b3c 9a40 253b
000000b0: dc44 c93b 8247 c03b b62f 3d3c 2856 333c
000000c0: 7ac8 573c 0e9e 363c e5b6 2d3c 44fd 643c
000000d0: cb0a 203c fcb8 1c3c cde2 343c 8b19 733c
000000e0: ab29 4c3c 8b5e 523c 555d 1b3b 41e9 2d3c
000000f0: a990 363c be6a f03b 4249 673b 7ab0 183c
00000100: 8f7f 603c 0266 8839 6876 413c d2fd 27bb
00000110: df5a 2f3c 060e 1ebb 8dc4 173c 501c 783b
00000120: 0ff6 343c f5e2 073c df49 c1ba 0d5c 213c
00000130: f0ac f53b 9db5 623c 15c3 a23b 39cc c93a
00000140: acca b53b 39e6 213c c0b0 ba3b 3a21 273c
00000150: bc3d 103c 999a 383c 0de7 4a3c 903c db3b
00000160: 1bef 033c ae65 5e3c f7d9 473c b0c3 ed3b
00000170: 68cb 1f3c 7767 e93b b54f 673c 042a 433b
00000180: d845 0a3c 8da1 543c f57b 193b fd63 c13b
00000190: 4d00 393c 9c93 6e3c a16a 733c 1c6d 003a
000001a0: 0e0d fc3b fc22 1e3c 3243 423c 424c 603c
000001b0: b070 e43b a128 253c beca 0a3c 0048 1d3b
000001c0: 238e 4bba c355 0b3b 7b74 363c dfc4 0f3c
000001d0: b8a3 253c 84f3 5d3c 4084 233c f647 ff3b
000001e0: ac36 873c 0b98 263c c101 1a3c d6cf 113c
000001f0: 1928 f53b cf9a 0f3c 4c63 003c de7f 1c3c
00000200: f185 c7ba 48d4 903b ecc5 343c 490f 193c
00000210: 4585 2c3c 9053 993b d495 74ba 5229 223c
00000220: 539f 9c3b 173c 293c 1f8b 073c 25ff ca3b
00000230: 0cff 5d3b 02d3 a63b 34c8 1d3c 575a 4c3c
00000240: 6c29 2a3c e0dc 633c 9413 203c 40df f83b
00000250: 4d1f 4d3a 00c3 51ba 3151 79bb 5ffa 58ba
00000260: 46af f43b 9e35 103c f287 983b 7005 e93b
00000270: f199 993b 4402 633c c914 3c3c 2a94 b9ba
00000280: e249 143c 9027 d0bb abeb 213b b0e5 163b
00000290: 568a 353b d04a 273c dbbb 143c 7932 683c
000002a0: d169 d33b faed 5f3c 430c 153c 993d b73a
000002b0: c0d3 5f3b 3189 523b ca80 1b3c 6535 493c
000002c0: 4529 623c 5f6d 493c bdd5 353c bc18 7a3c
000002d0: 8672 af3a 928f e33b b2f1 223c 040f 813c
000002e0: 9ab3 543c bf36 3e3c 7c37 05bb b811 323c
000002f0: eab2 133c 4b1e 0c3c 30f8 ac3a 2789 043c
00000300: 9a36 533c 821a 6d3a b427 2e3c 9d9a 7c3b
00000310: 1dd4 3c3c f5d1 0ebb 7559 c73b 2c47 b238
00000320: 90ad 643c 33a6 ce3b fcbd 22bb 55b4 073c
00000330: c267 b03b 70e8 723c 67a4 b13b c8ff 6a3b
00000340: 6b95 873b 4382 1b3c d5ee 4e3b 8b92 313c
00000350: 3460 4f3b d9fc 3d3c 396a 4f3c 39f8 c23b
00000360: 419e e439 23a6 523c 7a00 183c d8fd d53a
00000370: 961b 1a3c bffa 8a3a f385 663c 7f50 703a
00000380: 7329 ed3b ebfa ac3a 60fa ed3a 726c b23b
00000390: f0c0 793b 98d1 6c3c 01ca 733c e487 943a
000003a0: b966 873b 3d12 063c f0f8 4b3c ee4a 653c
000003b0: eb10 623b c363 ea3b ab1c e53b 3e88 333b
000003c0: 9af4 5639 4cad 3c3b 059e eb3b 6d2c c43b
000003d0: fb53 033b 9009 4a3c de7b 153c bfb7 e53b
000003e0: 639d 823c 38fc 2c3c 2648 ef3b dcef b73b
000003f0: 0bf5 313b 6ac0 e63b c680 f23b ba60 1c3c
