models/european/GARCHLSTMKAGGLED.pth (torch, 877250 bytes, 11 tensors)

lstm.weight_ih_l0 f4 [512, 5]
00000000: a66c 9fbd c881 143d d982 e1bc 1ca7 29bd
00000010: 6ee8 3dbd f780 fabc e486 afbd b7f4 6c3d
00000020: 4d1f 093d 35bf 35bd 127b 6d3b eada 76bb
00000030: 21a6 30bd 18a9 2bbd 0e5d 013e a24f f63d
00000040: 7e08 593d 708c fbbc 942d 523d da09 b0bd
00000050: b544 f33c a455 7dbd 5702 aabd d82d 393d
00000060: edf0 133b f988 ae3d ed41 be3d c946 873d
00000070: 6cff 8c3d bcc2 613d 001b c63d a306 423d
00000080: d76f c5bc 4e12 243d cd96 54bd 174c cdbb
00000090: 2242 c63d 4ab5 dcbd f745 bbbd fcba e63d
000000a0: 4324 4c3d 8ce1 9d3d 35bd c1bc 9b5b b43a
000000b0: 9a67 5d3d 9b37 0bbc df97 9b3a 87a4 0bbc
000000c0: a5a2 83bd 680e 8f3d 1159 6c3d 70b3 93bd
000000d0: c9f9 b13d 92d6 993d d015 613d 3f6c a23d
000000e0: 7c1b f43d d5f9 b7bd c1b9 debb e478 8b3d
000000f0: b067 04bd b26f 36bd 136e 18bd c471 07bd
00000100: 9e14 a73c 2b36 5ebd 9a96 86bc 87ab b0bd
00000110: ea3e a9bd 2f90 a33d 7e25 acbd fa8d 173c
00000120: 90b1 c43d 3443 62bd 1875 823d a63f 9d3b
00000130: a265 383d 00f6 e93d 4261 94bd 08a6 ea3b
00000140: c038 43bd c756 233d 8de9 67bd 8c8f 803d
00000150: a151 2f3d 58be c2bc ec72 8bbd e4ce 9bbd
00000160: 0ef3 0abc 7376 2b3c e564 80bb cccf 58bc
00000170: 8509 6ebd 7bde 13bd 919c b83d 022d 9ebd
00000180: 1fed c53d 3838 b93c 003e 3bbd 2b37 c5bd
00000190: deb2 11bd 1600 8b3d 8c26 9b3c b8e9 53bd
000001a0: 1ef7 3a3d 4cbd b5bd 6364 e0bc e96b cc3d
000001b0: ff63 a5bc 6c2b 873d 72b6 00bd 07cf 3cbd
000001c0: 60d2 a4bc 7ddb a1bd d937 d53d 42b6 4fbb
000001d0: f979 2c3d 42aa 613d 0c4f 853d 9eaa 323d
000001e0: 3cbd 26bd e04b 6d3d 4124 e93d 272c 24bc
000001f0: 66f2 12bc 6238 da3d c6c1 c93d 29fc 9a3d
00000200: 20a8 a7bc d01a 153c 7df6 d63d 5a0d 23bd
00000210: 6d08 243d 4c53 88bd d163 c93c d038 4bbd
00000220: 34df 303d c453 0bbd 3c26 b4bd b4e4 bbbd
00000230: 8e77 873c 2f47 dd3c 891f 67bd c538 ce3c
00000240: b138 983d 0597 8ebd aa6f 77bb d726 bfbd
00000250: 6880 a53c 6286 0f3d f5f1 253d 5c22 ab3c
00000260: d262 b83c aac8 583d 538a b53d 09bb c33d
00000270: 67d5 bebd 152a aabd 7cbe b93d d49a 823d
00000280: 5387 a43d b3dc a63d c9d1 f5ba 67ec a1bd
00000290: 4ad9 86bd 2bf3 0abb 25e7 95bc 2d68 48b9
000002a0: be27 183c 8f67 e7bd 9f44 ca3c 8333 13bc
000002b0: 5f96 50bc 7319 dc3c daa2 b33d 835c 9fbd
000002c0: 4cee 88bd 37bc 353c d27a 5938 0a41 dd3d
000002d0: f8e5 fd3c ec0a a93d 5d5b 41bc 2949 0dbd
000002e0: a174 dbbd 4e71 093d 491e d93d 4612 5f3d
000002f0: 4e82 8f3d 00ce 863d 32fd 933c c984 96bd
00000300: 2c52 423d 191b 8c3d ef26 efbd 20cc 9b3d
00000310: bf7d babd 1f48 183d 47a6 73bd 88de ba3a
00000320: cc39 acbd 3db6 d63d a7ea 03bc cdee c23c
00000330: 6dab af3d b2e7 96bd 9a04 6bbd db18 51bd
00000340: 4d09 c2bd 2e53 e0bd deb5 2bbd c4e4 223d
00000350: 01db 15bd 74a7 9ebd 8bb3 6b3d 5b40 473d
00000360: cb39 a23d be40 b23d a85e 15bb 5602 a8bd
00000370: 9afa 9dbd f8c4 653c 8d05 d93c 60d6 b53d
00000380: 5080 e0bd 29f7 133d 5b51 e93c dcd9 ea3d
00000390: 0d7f b3bd ed67 983d b66e f73d e93a 73bd
000003a0: ad6c dcbb 60a2 bcbc ce8a 02bd 2099 56bd
000003b0: 57a0 cebd c2d4 90bd 92ab 82bd 3098 94bd
000003c0: 01af fc3d 91a4 183d 4989 a93d bbb0 943d
000003d0: d874 9c3d da37 4d3d 621e adbd d6c5 04bd
000003e0: 261b 323d 00aa a03c 9031 8c3c 65df 373c
000003f0: 9403 273d ef79 a6bd 6abb d7bb 3db6 27bd
-0.07784395 0.03625658 -0.027528213 -0.041419134 -0.04636424 -0.030579073 -0.0857065 0.057850566
0.033477116 -0.044371802 0.0036236686 -0.0037667104 -0.043127183 -0.041909307 0.12633154 0.120269075
0.052986614 -0.030706614 0.051312998 -0.08595629 0.029695848 -0.06184925 -0.083012275 0.045209736
0.0022574023 0.08522219 0.09289918 0.06605298 0.06884655 0.055117354 0.096731186 0.04736961
-0.024101181 0.04005652 -0.051901627 -0.006265174 0.096805826 -0.10776766 -0.09144204 0.11266133
0.04983927 0.07709035 -0.023649791 0.0013760211 0.05405388 -0.008497144 0.0011870823 -0.008523113
-0.06427506 0.0698517 0.057702128 -0.07211959 0.08690221 0.07511629 0.054952443 0.079308026
0.11919305 -0.089831986 -0.006797046 0.068101674 -0.032325447 -0.044540115 -0.03721435 -0.03306748
0.020395573 -0.054250877 -0.016429234 -0.08626466 -0.08263953 0.07986485 -0.084055886 0.009250158
0.0960418 -0.05523987 0.0636999 0.0047988473 0.0450188 0.11423874 -0.07245113 0.0071609057
-0.047661543 0.03987768 -0.056619216 0.062773794 0.042802457 -0.023772404 -0.06809029 -0.07607821
-0.0084808 0.010465252 -0.0039182776 -0.013233136 -0.058114547 -0.036100846 0.09014238 -0.07723428
0.09664368 0.022609815 -0.045713425 -0.09629663 -0.03557097 0.06787126 0.018939279 -0.051736563
0.045645826 -0.08873996 -0.027391618 0.0998152 -0.020189283 0.06600079 -0.031423993 -0.046095874
-0.020119846 -0.07903192 0.10411043 -0.0031694327 0.04210851 0.05509401 0.065092176 0.043619744
-0.04070781 0.05793369 0.11383868 -0.010020292 -0.008968925 0.106552854 0.098514125 0.07567627
-0.02046591 0.009100631 0.10496233 -0.039807655 0.040047098 -0.066565126 0.024583729 -0.049614727
0.043181613 -0.034015432 -0.08796355 -0.09174481 0.0165365 0.027011482 -0.05642656 0.025173554
0.07432688 -0.069623984 -0.0037755766 -0.0933358 0.02020283 0.035040267 0.04051395 0.020890407
0.022508059 0.052925743 0.08864274 0.095571585 -0.09318047 -0.08308808 0.09069535 0.06377187
0.080336235 0.08147564 -0.0018754537 -0.07906418 -0.06584413 -0.0021202068 -0.018298695 -0.00019112295
0.009286819 -0.11299049 0.024690924 -0.008984449 -0.012731164 0.026867604 0.08771296 -0.07781317
-0.066860765 0.011092237 5.1851217e-05 0.10803421 0.030993447 0.08254036 -0.011801568 -0.0344936
-0.107156046 0.03355532 0.106014796 0.054460786 0.070072755 0.0658226 0.018065069 -0.073495455
0.047441646 0.06841106 -0.11677348 0.07607293 -0.091060154 0.037178155 -0.059484746 0.0014256993
-0.084094614 0.10483978 -0.008051551 0.02379551 0.08577619 -0.07368411 -0.057377435 -0.051049095
-0.0947443 -0.10953365 -0.04192149 0.03976895 -0.03658581 -0.07746783 0.057544272 0.04864536
0.079211794 0.08703755 -0.0022792015 -0.082035705 -0.07713814 0.014024012 0.026491905 0.088787794
-0.10961974 0.036124382 0.028481176 0.11467335 -0.087644674 0.07441697 0.12081663 -0.059382353
-0.0067268224 -0.023026645 -0.031870656 -0.052392125 -0.10089176 -0.0707183 -0.06380381 -0.0725559
0.12338067 0.037266318 0.08278138 0.07260271 0.07639474 0.050102092 -0.08453061 -0.032415234
0.043482922 0.019612312 0.017113477 0.011222695 0.040774897 -0.08128726 -0.006583621 -0.04094528

lstm.weight_hh_l0 f4 [512, 128]
00000000: 110a 953d d19f 97bd 82fd 2d3d 9365 7e3d
00000010: 8611 bfbc 59e8 033c 4006 363d b5bd ae3d
00000020: 3b09 9bbd a1eb bdbd 7ed7 383d 142f b63d
00000030: e9d9 fabc 430d 66bc a1f7 913c d6e8 083d
00000040: 354a b0bd a6a9 04bc 6ef2 0e3d c3a2 993d
00000050: 0830 43bb 9ab0 363c 195c 9ebd b0b6 813d
00000060: ab47 3bbd 9de5 63bd ba6e 82bd 2d84 7b3c
00000070: d54d 79bd 8a04 b9bb 9416 acbd e31d 39bd
00000080: 6e3b 40bd 449f c2bc ddc3 873d 99c0 2cbd
00000090: af39 22ba 4559 463d a204 97bc 37fb 833d
000000a0: e68d cebc 30d8 96bd 2273 d4bc 4788 9fbd
000000b0: d9bb 73bd e914 dd3c e584 90bc 0b2b a73c
000000c0: 9ba7 52bd cd34 8e3c 3027 ad3d 0bbe a5bd
000000d0: b213 c43d 0240 a7bd 07fc d6bc 1174 b43d
000000e0: a18b db3d 3b4e 953c fc23 473d f95b e4bc
000000f0: 41b6 28bd 6d3f 53bc 0dd6 ad3d f27a d63d
00000100: 4fde 88bd 01fa 4a3c 623b a0bc fac3 a53d
00000110: 0798 8f3d 70ca a2bc 06a1 973d 0663 a6bd
00000120: 640e 203d c4cf 4c3d 7255 40bd 3033 163d
00000130: 6470 f9bc 6a44 8cbc 0352 fcbc 54a0 85bd
00000140: 3789 26bd 84e7 233d 4abd 4b3d eb77 aa3d
00000150: 78c2 b33d cfe3 aa3d 0a9e c0bd c9a8 47bc
00000160: 0e77 5f3d e6b0 8fbc 82eb ab3d 48a9 b43d
00000170: 2824 ecbc 38e8 06bd 4732 a83c 9d19 323c
00000180: 59ae 0a3d 8ca9 b33d 0e24 063c ddb7 93bd
00000190: 1a72 9f3d 560b a73d 3430 b2bd 8256 21bd
000001a0: 5c31 a9bd 8d83 a2bd e89f 12bd e685 a0bd
000001b0: c2d3 efbc cd57 87bd 401e e4bb 1cad 04bc
000001c0: 1dfc 343b 2ecf e8bc 7ea6 e1bd c02d 2abd
000001d0: 1236 64bd 70cb 953d 835b f2bc 7f95 4f3d
000001e0: 4ff3 d53c 7ad5 11bd 855e a5bd bf17 91bd
000001f0: fc6a 94bd fcb1 803d e9dd c43d 286e 903d
00000200: d31b 463d 4f14 b73d ca3e a53d 05dc 0bbd
00000210: be24 76bc 0958 973d 1cf4 72bd 7e8a aabd
00000220: a76e aa3d a83c 593d bf3d 473d ea65 26bd
00000230: 8329 d73d a216 cdbd 7132 c2bd 3036 3b3d
00000240: 2408 d6bc 0199 acbd 7ebf 8b3d 6f8c fbbc
00000250: 14f9 66bc 81a1 a8bd e17a 96bb b279 903d
00000260: 7a72 34bb 1fbf 84bc 4b0f dcbd a682 9dbc
00000270: 449a 913d a3b2 92bd f8a0 b63d a1f6 973d
00000280: e67a 46bd 2f65 0abd 81b0 a13d 5d77 8c3a
00000290: 07c5 88bd bbc7 a03d 422d 17bd d7d8 7ebd
000002a0: d59d f13c 72e1 27bd 0a22 b4bd a67a 8ebd
000002b0: 171d 3cbc 5d81 79bd 58c0 c1bc 1de4 d03c
000002c0: 3244 9f3d b2c6 013c a1cf d7bc 8786 5e3d
000002d0: e05d 77bc 1921 413d 48db 9ebc fd80 8cbd
000002e0: 3484 ffbd ab63 a53b 25c4 d33c ad55 0cbd
000002f0: 6301 963d 833f 13bd b9ef cfbd 40c9 50bd
00000300: 7bc2 0c3d 6343 2c3d b999 b5bd 5c0a ca3d
00000310: faae a63c 58b5 93bd 1445 8dbc e068 80bd
00000320: e6fd 64bd d4b5 9ebc 7013 38bc 079e 003d
00000330: 1e7f f5bb 21a7 22bd 7e22 ef3c ae58 6f3d
00000340: 67a6 b3bc a4c4 80bd 7ad6 523b 26c4 aa3d
00000350: 71ac d83d 4807 2f3c c8b8 5bbd 3864 e2bd
00000360: 71e5 8f3d 4e06 293d e447 a2ba d7e7 e0bd
00000370: 4eaa 5e3d 4bf5 9c3a 27cf d4bd edf4 df3d
00000380: 7e0d b83d 7b38 7c3d 6385 abbd f74f 193d
00000390: 9bf0 3cbd 66fc a53d c636 273d 27b3 f53b
000003a0: 24f1 b83d 0fc8 b3bd 719a 4cbc a4cd f5bc
000003b0: d23f afbd c683 b83c 1644 ba3d f721 8d3d
000003c0: c48d 583d 89c7 943d 719a 983d 36f1 bfbd
000003d0: a4e4 893d fe98 6dbd bc7f a5bb 025b 6bbd
000003e0: 56b9 433d 4370 09bd 0b59 92bd b28c 84bd
000003f0: 7350 7dbd 8e81 abbd c33b d93d 2e77 673b
0.07277311 -0.074035294 0.042478092 0.062108587 -0.023323786 0.0080510015 0.044439554 0.085322775
-0.0757012 -0.09273458 0.045127384 0.08895698 -0.030621486 -0.014041248 0.017818274 0.033425175
-0.08607904 -0.008097088 0.034899168 0.075017475 -0.0029783268 0.0111505035 -0.0773241 0.06333673
-0.045722645 -0.0556389 -0.06368776 0.015351337 -0.060865242 -0.005646293 -0.08402744 -0.045194518
-0.046931677 -0.023757584 0.06629155 -0.042175863 -0.0006188405 0.048424978 -0.018434826 0.064444
-0.025214147 -0.07365453 -0.025933806 -0.07789665 -0.059505317 0.02698751 -0.017641494 0.020406267
-0.051429372 0.017359162 0.0845474 -0.080928884 0.09574069 -0.081665054 -0.026243223 0.088112004
0.107199915 0.01822578 0.0486183 -0.027875887 -0.041189436 -0.01289354 0.084880926 0.10472669
-0.06683027 0.012388707 -0.019559566 0.0809402 0.07011419 -0.01987192 0.0740376 -0.08124356
0.039076224 0.05000283 -0.046956487 0.03666991 -0.0304491 -0.017122466 -0.030800825 -0.06524721
-0.040658202 0.040015712 0.049741067 0.08323654 0.08777326 0.08344232 -0.094051436 -0.012186238
0.0545569 -0.017540406 0.08394529 0.0882135 -0.028825834 -0.032936305 0.020531787 0.0108703645
0.033857677 0.08772573 0.008187307 -0.072128035 0.07785435 0.08156459 -0.087006 -0.03938914
-0.08261368 -0.079352476 -0.03579703 -0.07838039 -0.029275779 -0.066085435 -0.006961614 -0.008097913
0.0027616092 -0.028419103 -0.11018084 -0.041547537 -0.055715628 0.07314193 -0.029584652 0.05067968
0.026116995 -0.035603978 -0.08074669 -0.07084607 -0.07246968 0.06283948 0.096126385 0.07052261
0.04836638 0.089394204 0.08068617 -0.034145374 -0.015023408 0.07389838 -0.059314832 -0.083271965
0.083218865 0.053036362 0.04864287 -0.040624537 0.105059646 -0.100140825 -0.09482277 0.045705974
-0.026126929 -0.08427621 0.068236336 -0.030706612 -0.014097471 -0.082339294 -0.004592285 0.070544615
-0.0027534054 -0.016204415 -0.107451044 -0.019227337 0.07109502 -0.071629785 0.08917421 0.074200876
-0.04845705 -0.033787902 0.078949936 0.0010716725 -0.06678205 0.078505956 -0.036908396 -0.062218513
0.029494205 -0.040986486 -0.08795555 -0.06956987 -0.011481545 -0.060914386 -0.023651287 0.025499398
0.07776679 0.007920908 -0.026344122 0.054327514 -0.015098065 0.047150705 -0.01939167 -0.0686054
-0.124763876 0.0050472817 0.025850365 -0.034261394 0.07324483 -0.03594924 -0.10153145 -0.050973177
0.03436516 0.042056452 -0.08867211 0.09865257 0.020347107 -0.07212323 -0.017244853 -0.06270003
-0.0559062 -0.019373812 -0.011235103 0.031400707 -0.00749196 -0.039710168 0.029191252 0.05843418
-0.021929933 -0.06287506 0.0032171295 0.083381936 0.105797656 0.010682888 -0.053643018 -0.110542715
0.07026184 0.04126578 -0.0012381044 -0.1098172 0.054361634 0.0011974958 -0.10391074 0.10935388
0.089869484 0.0615773 -0.08375051 0.037429776 -0.046127897 0.08104782 0.04082372 0.0074981633
0.09030369 -0.087783925 -0.012487994 -0.030005284 -0.08557095 0.022523772 0.090950176 0.06891244
0.052869573 0.07264621 0.07451332 -0.09372179 0.06733063 -0.058007233 -0.0050506275 -0.05745984
0.047784172 -0.033554327 -0.0714589 -0.06472148 -0.0618443 -0.0837432 0.10607102 0.003531884

lstm.bias_ih_l0 f4 [512]
00000000: beea 313c 8fdf 8e3c 64b6 9d3b 57f9 603c
00000010: c2ef 883c 4871 8e3c 2caf 8d3c 76b4 663c
00000020: 3891 6c3c ac44 613c 30cb 6a3c bc9a 623c
00000030: 09ca 5a3c 5ac1 e03b 814d 883c 4a53 7b3b
00000040: 5b9b 343c 4107 433c b998 373c a19e 023c
00000050: 8192 743c 0b8f 323c 403d 153c a836 343c
00000060: f6ce 273c 4e64 6a3c dbcf 1a3c ab8a 153c
00000070: a181 b23c 5979 3a3c c08d 813c 11d3 433c
00000080: bf72 693c 6cb9 103c 9f1d 803c e604 303c
00000090: e81e 213c fce5 ad3b 24aa 333b d4ce 613c
000000a0: 65ec a33c 0d5d d53b 0bd1 7b3c f360 8a3c
000000b0: 1fba 1b3c d61c 513c 1e3c 083c d4b3 8b3b
000000c0: 2723 3e3c a98d 233c 72fa 2d3c e7dc 3d3c
000000d0: 78f8 3f3c 6c63 323c a147 8f3c 562e 973c
000000e0: 3ed7 983c 1e2a ef3b 514c 813c 8709 833b
000000f0: 6ecc 153c 3c94 343c 95ad a83c bf33 943c
00000100: 07f3 243c bcb3 2f3c 6721 a53c 73de f63b
00000110: 3a08 5d3c 4694 983c 7a9b 8e3c 13b4 ffba
00000120: 474c 473c 1bbe 903c 0395 183c 844e 4e3c
00000130: da3a 723c 63da f13b 6618 863c ec4b 203c
00000140: 1efe b73a 2d91 143c 9b25 3bbb b7ee 603c
00000150: 4e5d 873c 3fbd 073c 3924 b53c 1c8b 633c
00000160: 2fb6 283c 2e1c c93b 5ac8 503c 1795 933c
00000170: d637 7e3c 4bb2 773c df08 393c 5848 143c
00000180: 63ef 533c 19de c23c 9d9a 4b3c eea6 853c
00000190: a692 8a3c bbd2 7c3c cb38 8e3c 4b92 333c
000001a0: ef24 4c3c a808 6c3c 87de 4d3c 6e6b 863b
000001b0: acc4 673b 11be 493c 025e 2e3c c031 873c
000001c0: 20c6 7e3c da02 6a3c d49e 173c 5d7d 523c
000001d0: b060 533c ff17 0b3c 3574 673c bab9 893c
000001e0: 7e11 7a3c 2fa7 403c 5035 453c d402 2c3c
000001f0: 2c9a 853a a952 303c 0adf bd3c 6df8 793c
00000200: 2606 4f3c 76d5 883b 3a48 e2ba eab1 423c
00000210: 5de5 7c3c a8c5 803c 2989 803c 02a8 fa3b
00000220: 310b 573c 50bc 773c a246 6a3c 73c9 6e3b
00000230: 1593 653c 5c33 a13a 1479 cf3b 4ee6 853b
00000240: 129a 203c cb3a 133b 1768 383c a027 d93b
00000250: d045 c13b 455a f4ba 29cd c1b9 d0bd 223c
00000260: 2a84 363c 6f84 2b3c 083e dc3b d0f5 273c
00000270: b8d2 6d3c 9fc0 333c 696b 113c 0b16 cc3a
00000280: 195a 543c d346 f03b adea c13a fa69 1c3c
00000290: bfaf 323c fccc d03b 3fcc 5b3b 4198 713c
000002a0: 533b e03b bd7f 463c aa3f 753c 451d 5e3b
000002b0: 1418 1a3b 7bf3 da3b 3989 69bb b2ec 9e3b
000002c0: fe09 e33b 75c7 2c3c 1df2 0b3b 4f87 403c
000002d0: 7bc2 593c 6e9e 303c 0ed9 723c fc3a 783c
000002e0: c264 863c 537c f638 edc2 19bc 5876 a83a
000002f0: baae 0d3c f6d8 293c df54 943c 9c3a 803c
00000300: 4b0f 77ba 6e71 403c 7ab8 503b b9e1 a23b
00000310: 3145 2d3c fa6f 6e3c b3a1 503c c4fb 4a3a
00000320: 6798 5a3c f005 de3a 70e3 6c3b 46ca 423c
00000330: e53a 4b3c cd40 a3bb a1fc 5f3c 58e5 cf3b
00000340: 70cb 14ba 535a f63b 13cf c9bb d599 773c
00000350: 169f 013c 7606 f63a a54a 343c aa06 b83b
00000360: fe07 813b 0d7d 023c 55a9 533c 3c7b 8b3c
00000370: 76d2 203c acc4 743c a69b 503c d510 483c
00000380: 78b7 063c 3592 013c 7ff1 113c ce63 6d3c
00000390: 7fe9 0a3c e557 3f3c dec9 013c 57d6 063c
000003a0: 0a14 4d3c 7607 763c bea2 283c 04fe 92bb
000003b0: 225d f5ba c316 583c db78 353c e5db 803c
000003c0: 32b2 763c 48db 4d3c 2e00 d33b bb33 233c
000003d0: 371e 523c 9077 5d3c 123c 6a3c d6ff e33b
000003e0: 1383 3f3c 0a2c 4d3c 3f6a c4bb 0f99 fe3b
000003f0: b365 6ebb bf6f 373c 601a 303c 0a63 5b3c
0.01085919 0.017440585 0.0048130024 0.013731322 0.016715888 0.017388001 0.017295443 0.014081111
0.01443892 0.013749283 0.01433067 0.013830837 0.013353833 0.006858987 0.01663852 0.0038349205
0.011023368 0.011903585 0.0112058455 0.00797239 0.014927507 0.010898362 0.009108841 0.010999359
0.010242214 0.014306141 0.009448971 0.009127299 0.021790328 0.011381471 0.015814662 0.011952178
0.014248549 0.0088332705 0.015639124 0.010743355 0.009834029 0.0053069573 0.0027414644 0.013782222
0.020010183 0.0065113367 0.015369664 0.016891932 0.009504824 0.012763223 0.008315114 0.0042633805
0.011605061 0.009982505 0.010618793 0.011588312 0.011716954 0.010887962 0.01749021 0.018454712
0.018657323 0.007298722 0.01578346 0.0039989385 0.009142978 0.01102167 0.020590583 0.01809108
0.010067708 0.010724004 0.020157529 0.007533842 0.013490731 0.01862539 0.017408121 -0.0019508622
0.012164182 0.017668774 0.009312871 0.012591962 0.014784539 0.00738077 0.016369056 0.009783726
0.0014037525 0.009067816 -0.002855635 0.013728789 0.016523983 0.008284866 0.022111999 0.013888147
0.010297342 0.0061373925 0.01274308 0.018015428 0.015516242 0.015118192 0.011293619 0.009050451
0.012935492 0.023787545 0.012426999 0.01631495 0.01691563 0.015431101 0.017361065 0.010960172
0.0124599775 0.014406361 0.012565262 0.004102162 0.0035365028 0.012313382 0.01064253 0.016503215
0.015550166 0.014282906 0.009254176 0.012847272 0.01290147 0.008489608 0.014126827 0.016812194
0.0152629595 0.01175861 0.0120366365 0.010498721 0.0010193042 0.010761895 0.023177642 0.015256983
0.012635743 0.004175837 -0.0017263957 0.011883238 0.015435544 0.01571925 0.015690403 0.0076494226
0.013125227 0.015120581 0.014299067 0.003643599 0.014012118 0.0012298631 0.0063315723 0.0040862923
0.009802358 0.0022465463 0.011255286 0.006627038 0.005898215 -0.0018642625 -0.00036964685 0.00993295
0.011139909 0.010468586 0.006721262 0.010251477 0.014515571 0.010971217 0.008875706 0.0015570534
0.012960934 0.0073326617 0.001479467 0.009546751 0.010906159 0.0063720923 0.0033538488 0.014745773
0.0068430095 0.012115416 0.014968792 0.0033891958 0.0023512887 0.006681857 -0.003563477 0.0048499936
0.0069286814 0.010545601 0.0021354028 0.01175101 0.013290997 0.01077996 0.014822258 0.015150782
0.016405467 0.00011753351 -0.009384853 0.0012852652 0.008647615 0.010366669 0.018106876 0.015652947
-0.0009424581 0.011745794 0.0031848238 0.004970756 0.010575579 0.0145530645 0.012733865 0.00077432045
0.013342 0.0016939025 0.0036146306 0.011889046 0.012404178 -0.00498209 0.013671071 0.0063444786
-0.00056760665 0.0075180917 -0.0061587184 0.01511236 0.007911464 0.0018770236 0.011004125 0.005616029
0.0039377203 0.007964385 0.01291879 0.017026536 0.009815803 0.014939468 0.012732422 0.012211044
0.008222453 0.007908394 0.008907675 0.014489127 0.008478521 0.0116786705 0.007921664 0.008229814
0.012516985 0.015016427 0.010292707 -0.0044858474 -0.0018719772 0.013189021 0.0110761775 0.015729854
0.0150571335 0.012564488 0.0064392304 0.009961064 0.012824587 0.013517275 0.014296548 0.0069579883
0.011688965 0.012522707 -0.005994111 0.007769711 -0.0036376535 0.011196076 0.010748476 0.013390312

lstm.bias_hh_l0 f4 [512]
00000000: beea 313c 8fdf 8e3c 64b6 9d3b 57f9 603c
00000010: c2ef 883c 4871 8e3c 2caf 8d3c 76b4 663c
00000020: 3891 6c3c ac44 613c 30cb 6a3c bc9a 623c
00000030: 09ca 5a3c 5ac1 e03b 814d 883c 4a53 7b3b
00000040: 5b9b 343c 4107 433c b998 373c a19e 023c
00000050: 8192 743c 0b8f 323c 403d 153c a836 343c
00000060: f6ce 273c 4e64 6a3c dbcf 1a3c ab8a 153c
00000070: a181 b23c 5979 3a3c c08d 813c 11d3 433c
00000080: bf72 693c 6cb9 103c 9f1d 803c e604 303c
00000090: e81e 213c fce5 ad3b 24aa 333b d4ce 613c
000000a0: 65ec a33c 0d5d d53b 0bd1 7b3c f360 8a3c
000000b0: 1fba 1b3c d61c 513c 1e3c 083c d4b3 8b3b
000000c0: 2723 3e3c a98d 233c 72fa 2d3c e7dc 3d3c
000000d0: 78f8 3f3c 6c63 323c a147 8f3c 562e 973c
000000e0: 3ed7 983c 1e2a ef3b 514c 813c 8709 833b
000000f0: 6ecc 153c 3c94 343c 95ad a83c bf33 943c
00000100: 07f3 243c bcb3 2f3c 6721 a53c 73de f63b
00000110: 3a08 5d3c 4694 983c 7a9b 8e3c 13b4 ffba
00000120: 474c 473c 1bbe 903c 0395 183c 844e 4e3c
00000130: da3a 723c 63da f13b 6618 863c ec4b 203c
00000140: 1efe b73a 2d91 143c 9b25 3bbb b7ee 603c
00000150: 4e5d 873c 3fbd 073c 3924 b53c 1c8b 633c
00000160: 2fb6 283c 2e1c c93b 5ac8 503c 1795 933c
00000170: d637 7e3c 4bb2 773c df08 393c 5848 143c
00000180: 63ef 533c 19de c23c 9d9a 4b3c eea6 853c
00000190: a692 8a3c bbd2 7c3c cb38 8e3c 4b92 333c
000001a0: ef24 4c3c a808 6c3c 87de 4d3c 6e6b 863b
000001b0: acc4 673b 11be 493c 025e 2e3c c031 873c
000001c0: 20c6 7e3c da02 6a3c d49e 173c 5d7d 523c
000001d0: b060 533c ff17 0b3c 3574 673c bab9 893c
000001e0: 7e11 7a3c 2fa7 403c 5035 453c d402 2c3c
000001f0: 2c9a 853a a952 303c 0adf bd3c 6df8 793c
00000200: 2606 4f3c 76d5 883b 3a48 e2ba eab1 423c
00000210: 5de5 7c3c a8c5 803c 2989 803c 02a8 fa3b
00000220: 310b 573c 50bc 773c a246 6a3c 73c9 6e3b
00000230: 1593 653c 5c33 a13a 1479 cf3b 4ee6 853b
00000240: 129a 203c cb3a 133b 1768 383c a027 d93b
00000250: d045 c13b 455a f4ba 29cd c1b9 d0bd 223c
00000260: 2a84 363c 6f84 2b3c 083e dc3b d0f5 273c
00000270: b8d2 6d3c 9fc0 333c 696b 113c 0b16 cc3a
00000280: 195a 543c d346 f03b adea c13a fa69 1c3c
00000290: bfaf 323c fccc d03b 3fcc 5b3b 4198 713c
000002a0: 533b e03b bd7f 463c aa3f 753c 451d 5e3b
000002b0: 1418 1a3b 7bf3 da3b 3989 69bb b2ec 9e3b
000002c0: fe09 e33b 75c7 2c3c 1df2 0b3b 4f87 403c
000002d0: 7bc2 593c 6e9e 303c 0ed9 723c fc3a 783c
000002e0: c264 863c 537c f638 edc2 19bc 5876 a83a
000002f0: baae 0d3c f6d8 293c df54 943c 9c3a 803c
00000300: 4b0f 77ba 6e71 403c 7ab8 503b b9e1 a23b
00000310: 3145 2d3c fa6f 6e3c b3a1 503c c4fb 4a3a
00000320: 6798 5a3c f005 de3a 70e3 6c3b 46ca 423c
00000330: e53a 4b3c cd40 a3bb a1fc 5f3c 58e5 cf3b
00000340: 70cb 14ba 535a f63b 13cf c9bb d599 773c
00000350: 169f 013c 7606 f63a a54a 343c aa06 b83b
00000360: fe07 813b 0d7d 023c 55a9 533c 3c7b 8b3c
00000370: 76d2 203c acc4 743c a69b 503c d510 483c
00000380: 78b7 063c 3592 013c 7ff1 113c ce63 6d3c
00000390: 7fe9 0a3c e557 3f3c dec9 013c 57d6 063c
000003a0: 0a14 4d3c 7607 763c bea2 283c 04fe 92bb
000003b0: 225d f5ba c316 583c db78 353c e5db 803c
000003c0: 32b2 763c 48db 4d3c 2e00 d33b bb33 233c
000003d0: 371e 523c 9077 5d3c 123c 6a3c d6ff e33b
000003e0: 1383 3f3c 0a2c 4d3c 3f6a c4bb 0f99 fe3b
000003f0: b365 6ebb bf6f 373c 601a 303c 0a63 5b3c
0.01085919 0.017440585 0.0048130024 0.013731322 0.016715888 0.017388001 0.017295443 0.014081111
0.01443892 0.013749283 0.01433067 0.013830837 0.013353833 0.006858987 0.01663852 0.0038349205
0.011023368 0.011903585 0.0112058455 0.00797239 0.014927507 0.010898362 0.009108841 0.010999359
0.010242214 0.014306141 0.009448971 0.009127299 0.021790328 0.011381471 0.015814662 0.011952178
0.014248549 0.0088332705 0.015639124 0.010743355 0.009834029 0.0053069573 0.0027414644 0.013782222
0.020010183 0.0065113367 0.015369664 0.016891932 0.009504824 0.012763223 0.008315114 0.0042633805
0.011605061 0.009982505 0.010618793 0.011588312 0.011716954 0.010887962 0.01749021 0.018454712
0.018657323 0.007298722 0.01578346 0.0039989385 0.009142978 0.01102167 0.020590583 0.01809108
0.010067708 0.010724004 0.020157529 0.007533842 0.013490731 0.01862539 0.017408121 -0.0019508622
0.012164182 0.017668774 0.009312871 0.012591962 0.014784539 0.00738077 0.016369056 0.009783726
0.0014037525 0.009067816 -0.002855635 0.013728789 0.016523983 0.008284866 0.022111999 0.013888147
0.010297342 0.0061373925 0.01274308 0.018015428 0.015516242 0.015118192 0.011293619 0.009050451
0.012935492 0.023787545 0.012426999 0.01631495 0.01691563 0.015431101 0.017361065 0.010960172
0.0124599775 0.014406361 0.012565262 0.004102162 0.0035365028 0.012313382 0.01064253 0.016503215
0.015550166 0.014282906 0.009254176 0.012847272 0.01290147 0.008489608 0.014126827 0.016812194
0.0152629595 0.01175861 0.0120366365 0.010498721 0.0010193042 0.010761895 0.023177642 0.015256983
0.012635743 0.004175837 -0.0017263957 0.011883238 0.015435544 0.01571925 0.015690403 0.0076494226
0.013125227 0.015120581 0.014299067 0.003643599 0.014012118 0.0012298631 0.0063315723 0.0040862923
0.009802358 0.0022465463 0.011255286 0.006627038 0.005898215 -0.0018642625 -0.00036964685 0.00993295
0.011139909 0.010468586 0.006721262 0.010251477 0.014515571 0.010971217 0.008875706 0.0015570534
0.012960934 0.0073326617 0.001479467 0.009546751 0.010906159 0.0063720923 0.0033538488 0.014745773
0.0068430095 0.012115416 0.014968792 0.0033891958 0.0023512887 0.006681857 -0.003563477 0.0048499936
0.0069286814 0.010545601 0.0021354028 0.01175101 0.013290997 0.01077996 0.014822258 0.015150782
0.016405467 0.00011753351 -0.009384853 0.0012852652 0.008647615 0.010366669 0.018106876 0.015652947
-0.0009424581 0.011745794 0.0031848238 0.004970756 0.010575579 0.0145530645 0.012733865 0.00077432045
0.013342 0.0016939025 0.0036146306 0.011889046 0.012404178 -0.00498209 0.013671071 0.0063444786
-0.00056760665 0.0075180917 -0.0061587184 0.01511236 0.007911464 0.0018770236 0.011004125 0.005616029
0.0039377203 0.007964385 0.01291879 0.017026536 0.009815803 0.014939468 0.012732422 0.012211044
0.008222453 0.007908394 0.008907675 0.014489127 0.008478521 0.0116786705 0.007921664 0.008229814
0.012516985 0.015016427 0.010292707 -0.0044858474 -0.0018719772 0.013189021 0.0110761775 0.015729854
0.0150571335 0.012564488 0.0064392304 0.009961064 0.012824587 0.013517275 0.014296548 0.0069579883
0.011688965 0.012522707 -0.005994111 0.007769711 -0.0036376535 0.011196076 0.010748476 0.013390312

lstm.weight_ih_l1 f4 [512, 128]
00000000: 0820 f7bb 8852 2dbc 8221 23bd eac1 48bd
00000010: 51f1 ee3c 79ec 343d a70a 28bd 71fe c0bd
00000020: 7985 843c 926d 5cbd d5b0 9dbd 9205 6c3c
00000030: b9fa 253d f1b1 dbbb fbd3 6bbd 8473 2dbc
00000040: a1dc a73d adaf 51bd e858 dd3c cbe5 bf3d
00000050: b971 8f3d c56a 34bd 10d2 45ba e287 23bd
00000060: f59c 8d3d f5e9 a4bc 5e8f 603d 1000 683d
00000070: af5b 01bd c206 b33d 4540 33bc ffd8 aabd
00000080: 97d4 893d 2ae7 42bc aaf0 adbd 9d25 963d
00000090: eef1 ba3d 5fd2 883c 106b bb3d 80a0 993d
000000a0: a57b e23b f52c 52bd ee65 89bd 8f69 063d
000000b0: 7ac2 78bc 27cc d83a d607 d63b f889 99bd
000000c0: ca90 203b 3b90 9a3c 082c b63c 0873 5ebc
000000d0: 8d40 1fbd a0fa 1fbc 0753 c43d 952b ae3d
000000e0: cb2d 183d 3c8c 1d3d a01a 9cbd 110e 22bd
000000f0: 0ba0 65bd 429d 113b 9bdb a6bd b188 1f3c
00000100: d1a8 d4bd 9dd1 013d 6151 853d 7c38 01bd
00000110: 083c b53d 5ff1 7b3d 39cc d13a 9171 383d
00000120: 495d 083b cbcc f2bc 598f 803d eedb d03c
00000130: 989e 933d e0b6 14bd 72a0 0f3b 6a3f 09bd
00000140: d1ad 943c e3c0 fabc e7c9 88bd 8fc8 0c3d
00000150: ac5e 79bd f00e fabb 0f1f 56bb 989b 7b3d
00000160: 8736 0ebd ae4c 49bd b790 bfbc 9131 99bd
00000170: b77e 27bd c96a 633d 7eb4 283c 7ab8 83bd
00000180: 1131 d23c 8bf0 2bbd a172 86bc 9b47 b53d
00000190: 61be d0bc 4328 26bd acd6 c53d a21f b73d
000001a0: d97e 68bd edac adbd bf95 9ebd 318f a53d
000001b0: 5fac 2c3d 6a06 e13d 791d 49bc 28a9 eebc
000001c0: ad0e 453d afc6 423d a066 123d 3043 b4bd
000001d0: 8699 3f3d 80fe 09bd 8dbe 28bc 2693 1b3d
000001e0: f7ff d2bd 3d12 ad3c 30cd 31bc af93 543c
000001f0: c2e1 c63d fe86 6b3d 3342 7dbc 0fe4 1e3d
00000200: 1a8c 943d 4d74 c1bd f912 133d bdbe 453d
00000210: 73cb a1bc d51b b6bc 15f6 083d af80 c93c
00000220: 784d 11bd 6684 273d 57ca 4ebc 1831 d53c
00000230: 2734 af3d 634e 1bbd 01ae 6a3d 9738 adbd
00000240: d72a 1bbc 10ba 4a3d d54d 8e3d fc82 4bbd
00000250: b7fb ef3c 9278 743d ab32 18bd f118 a93d
00000260: dcc1 5a3d ade0 8e3c 8376 93bc 563e 5c3c
00000270: 7f05 db3d b734 c03a d4e1 91bd 5228 2c3d
00000280: 5351 de3c 3b7b 6c3c 3b72 b5bd 2b9d acbd
00000290: b345 2ebd 3979 91bd bfe3 a83d a7df d3bd
000002a0: b2ab bfbb fc9c bebd 2654 1f3c 6f30 11bd
000002b0: c697 93bd 3134 ab3d 088f a13d fcaf 7d3d
000002c0: 8fb6 df3c 689b a73d ba0d 10bd c043 e2bc
000002d0: 5d87 b43d a9b9 9cbb 2231 d53d de0d b03d
000002e0: 11d0 babd 5028 bcbc 466b 833d 30e6 cb3d
000002f0: 7217 7b3b c5d5 65bd ea9a 1ebc e086 a93c
00000300: 7a17 72bd 1f3f 833d 3dd1 deb9 4013 4e3d
00000310: 2bcc 38bd e6e9 5fbd 3d8c d8bc 90c5 b3bb
00000320: 0619 8f3c 646f 903d 7f86 283d 045a 0cbd
00000330: c38c 75bd 8ffa a1bd 0c3b ba3c 3728 d1bd
00000340: 020a 36bc 537f 973d 8a35 5fba 2d84 0ebd
00000350: 3bd3 8b3c d80c 1bbd 9079 c73d d790 b0bd
00000360: 1a77 69bc 5032 94bb 15be 1dbc 5904 be3c
00000370: d562 0cbd 0682 abbb 315a a93d 1486 4ebc
00000380: 047d b2bd d8fe a8bc 22f3 d23d fcd4 bb3d
00000390: 4d9d f5bb ad4b 41bc b958 c93c 1f75 5cbb
000003a0: 6883 413d 00fe c33c ed96 1c3d 56c3 4dbb
000003b0: 6b7a 823b 237a 043d f724 f03a c62e c33d
000003c0: c57c 99bd c6e7 b1bd bf83 123d 5e47 11bd
000003d0: 9841 b63d 15e9 763d 42fc 273d 563c 953c
000003e0: 2ac2 8ebc bf4b 173d 702b 4dbd fc49 3c3d
000003f0: 84a2 b73d a251 7abb ffd4 c23d f482 fb3a
-0.00754166 -0.010578759 -0.039826877 -0.049013056 0.029167803 0.04417083 -0.041025784 -0.09423531
0.016176926 -0.053815432 -0.07699744 0.014405625 0.04052231 -0.006704562 -0.057575207 -0.010586623
0.081963785 -0.051192928 0.027019933 0.093700014 0.07004113 -0.044047136 -0.00075462554 -0.03992451
0.06914703 -0.02013109 0.054824226 0.056640685 -0.031581577 0.08741523 -0.010940616 -0.0834217
0.067300014 -0.011895934 -0.08493169 0.07331393 0.09128176 0.016701875 0.0915128 0.07501316
0.0069117122 -0.051312406 -0.06708895 0.032815512 -0.015183086 0.0016540334 0.006531696 -0.074970186
0.0024500364 0.018867603 0.022237793 -0.01357723 -0.03887992 -0.0097643435 0.09586149 0.08504406
0.037153047 0.038463816 -0.07622266 -0.039564196 -0.056060832 0.0022218977 -0.08147355 0.00973718
-0.10383762 0.031694043 0.065096624 -0.03154801 0.08849341 0.061509486 0.0016006298 0.04503018
0.0020807555 -0.029638669 0.062773414 0.025495496 0.07207984 -0.036307216 0.0021915701 -0.033507742
0.018149288 -0.030609554 -0.06679135 0.034370955 -0.0608813 -0.007631175 -0.003267232 0.061427683
-0.03471997 -0.049145393 -0.023384435 -0.07480157 -0.04089233 0.05552176 0.010296939 -0.064316705
0.025658162 -0.041977447 -0.016412081 0.08851548 -0.025481405 -0.04056574 0.09660086 0.0894158
-0.056761596 -0.084802486 -0.077434056 0.08083952 0.042156573 0.109875515 -0.012275093 -0.029133394
0.0481097 0.04755276 0.035742402 -0.088018775 0.04677727 -0.033689976 -0.010299337 0.03798213
-0.10302728 0.02112686 -0.010852143 0.012974664 0.09711029 0.057501785 -0.015457678 0.038791712
0.07253285 -0.09446011 0.035906766 0.048277605 -0.019750332 -0.022230068 0.033437807 0.024597494
-0.03547427 0.04089775 -0.012621484 0.026024386 0.08554869 -0.037916552 0.05729485 -0.08458059
-0.009470663 0.04949385 0.06948439 -0.049685463 0.029294832 0.059685297 -0.037157696 0.0825671
0.053407535 0.017441118 -0.018000847 0.013442596 0.10694408 0.0014664148 -0.071231514 0.04203064
0.027138388 0.014433677 -0.08859678 -0.08428415 -0.04254694 -0.071031995 0.08246564 -0.10345393
-0.005849325 -0.09307286 0.009724652 -0.03544658 -0.07206683 0.08359564 0.07888609 0.06193541
0.02730873 0.08183938 -0.03516934 -0.027620196 0.08814881 -0.0047828746 0.10409762 0.08596395
-0.09121717 -0.022968441 0.06416945 0.09956014 0.0038313535 -0.05611207 -0.009680489 0.020694196
-0.05910442 0.06408524 -0.00042499034 0.050311327 -0.045116585 -0.054666422 -0.026434058 -0.005486198
0.017467987 0.07052496 0.04114389 -0.034265533 -0.059948694 -0.079091184 0.022733234 -0.102127485
-0.0111107845 0.07397332 -0.0008514753 -0.03479402 0.017068496 -0.037854046 0.09739983 -0.08621376
-0.014249587 -0.0045225993 -0.009627839 0.023195432 -0.03427394 -0.005234006 0.08269156 -0.012605209
-0.08715251 -0.020629331 0.1030028 0.09171483 -0.0074955584 -0.011797828 0.02457844 -0.0033639146
0.04724446 0.023924828 0.03822987 -0.0031396947 0.0039818785 0.03234304 0.0018321563 0.09530406
-0.07494501 -0.086867854 0.035770174 -0.03546845 0.0889923 0.060280878 0.041012056 0.018217247
-0.017426569 0.03693747 -0.050090253 0.045968994 0.08966544 -0.003819563 0.09513282 0.0019188807

lstm.weight_hh_l1 f4 [512, 128]
00000000: 2a87 00bd 95f3 4e3d 4451 b7bc 9be4 d1bd
00000010: fba9 bbbd d9aa 523b f4fa 033c 53e7 64bd
00000020: d9de c3bc 3925 093d 3a07 ccbd 97a8 71bd
00000030: 9cde b13c 6b76 1bbd c0d2 f23c bbce acbd
00000040: e3ea 32bd 4ee6 8f3d 6f0e 5d3d 1da4 f038
00000050: 02a8 16bc 36b8 be39 cd66 5939 d7f2 343d
00000060: b5ba 61bd 4e34 8d3d 38f4 f43b 6010 2fbd
00000070: cddd ce3d 493c 053d 560b f6bb b77d 923d
00000080: a49c c93c d217 23bd 7351 c4bc f437 ce3c
00000090: afe0 c8bd 03ec 87bd 4640 debd af8c 35bb
000000a0: 9f49 ddbd 9fed 0ebc efbd c63d 9186 f33b
000000b0: f31d 05bd 098f b23a bbb7 35bd 13df e4bc
000000c0: 23c4 91bb 3834 cebd fd13 c23d 8d3d c53d
000000d0: 9f6a 6d3d 4da5 62bd f175 a4bd 342c 16bd
000000e0: b7ea 9d3d ee20 56bd 2648 693b a7f2 b23b
000000f0: ea16 473c c6d0 b7bb 7eb7 773d a3af 14bd
00000100: 0c15 8c3b 6a73 56bd f886 ffbc f5fe 22bc
00000110: aa72 d9bd 9e47 0bbd 7ed8 63bd fc0a 093d
00000120: 0a5b 8cbd 8568 f0bb b678 db3d 74b7 06bd
00000130: 82e9 c53d 71cb 163d b8e4 993d 8e91 39bd
00000140: e4a9 893b cc39 c03d a4aa 963d 7167 073c
00000150: 2f93 a33d 2be6 053c 337e 773d bf52 d7bd
00000160: 6f95 b33d d4aa 033d 2886 303d 5fe7 80bd
00000170: df7e bebd 1ece 9abc 6b0f 9a3d 7f43 963d
00000180: da75 b4bd efc7 1ebd 7ad4 b8bd 65a6 1d3d
00000190: 4cb6 fc3c f69a c13b 8aca c2bd 23f0 9ebb
000001a0: 3254 a4bd cdb3 acbd 0578 f8bc 4069 b2bd
000001b0: 1d4a 833d 5446 ae3d 42ee e53d 3ec4 37bd
000001c0: eddf 8e3b ebcf f6bc 3636 debc 754f e53d
000001d0: 2fd6 ad3c c585 b83d 7d60 9b3c 938e 333d
000001e0: 106e 843c 49d1 11bd d1c1 7b3c 3a61 8a3c
000001f0: d538 fa3c 058c 5b3d 09e4 66bd 0d79 c7bd
00000200: 7b47 3bbd 8660 7f3c 1eea 5a3d dd11 4c3d
00000210: ee4a 2f3d ee38 acbd 2433 003a 9b3e efbc
00000220: 52a4 9fbd 709b a93d 1f34 98bd 0b20 d3bb
00000230: 02b2 71bd d4c5 e03d 5700 613d b6c5 5a3a
00000240: 5b2d b8bd 7b3c b6ba b696 bfbd 825c 1cbb
00000250: af2e b53c 2605 cbbb 73a3 a5bb d3e8 dbbc
00000260: 1a32 82bd fc3c b93c aba2 92bd 946a 6b3d
00000270: 32bc 5cbd 016c 5ebb b7b9 703d dc63 28bc
00000280: 3e6b b5bd 38e1 543c 11fb 8f3d 0856 943d
00000290: 36ce 98bd 80e8 6bbc 2414 85bd 1f48 edbd
000002a0: ac07 5fbd d200 b3bd 83e0 36bd a005 adbd
000002b0: 0c1a dabc 8e0d a93d b6df ffbc 9644 c4bd
000002c0: 2add bfbc 95f4 83bd dc47 81bc 0be1 3e3d
000002d0: 1d3f 653b 6214 8a3c 567e 823d 836d 81bc
000002e0: 2b29 333d ddd7 5f3c 0105 b93d ad9c c6bc
000002f0: e814 28bd 6818 f6bc ff1d c23d 411a faba
00000300: b96b bf3d 0692 f0bc 7838 3a3d 7d6a f73b
00000310: 7bf6 2c3d cb00 79bd d46f 99bd cffc 8b3c
00000320: 7c9f 463d 5736 c93c a734 8a3c afec 79bd
00000330: 7131 6a3d bdfb 293d 5f9b 133d 6779 933d
00000340: 3b87 3dbd 2acb 41bd a866 cdbd b762 e1bc
00000350: edff af3d d983 24bd de00 a4bc 8d7c b23c
00000360: 3b1f c33d 4657 10bd e54d 14bd a190 933c
00000370: f392 aebd 1e21 2a3d 399c 533d 7112 75bd
00000380: 8d91 a9bd 7bf2 30bd d3ac 9b3d 640d ca3d
00000390: c1df cfbc 48c4 a53d 70c4 9dbd a8d5 8f3b
000003a0: e38b 80bd 9435 abbd 6706 883d d031 223d
000003b0: 3d57 913d b1ef ce3d 1075 ec3d 8b89 f53b
000003c0: 1e59 48bd f67d 42bd ac2f 3d3d 1869 983b
000003d0: 0071 7cbd 4660 fa3c a873 adbc c5ce 12bd
000003e0: bf5b 933c a84d 3ebd 6d75 f83b 2e47 f33d
000003f0: dd7b b7bd 3407 203d 1bac 873d 1063 3f3d
-0.031378902 0.050525267 -0.022377618 -0.10248681 -0.091632806 0.003214529 0.008055437 -0.05588467
-0.023909973 0.033482764 -0.09962316 -0.05899867 0.021712594 -0.03795473 0.029641509 -0.08437868
-0.043681037 0.07026349 0.053968843 0.0001147466 -0.00919533 0.00036376872 0.00020733029 0.044176903
-0.0551097 0.06894742 0.007475402 -0.042740226 0.10100899 0.032528196 -0.0075086756 0.071528845
0.024610825 -0.03981764 -0.02396462 0.025173165 -0.0980848 -0.066368125 -0.10852103 -0.0027702262
-0.10805058 -0.0087236455 0.09704196 0.007431813 -0.032499265 0.001362295 -0.044364672 -0.027938401
-0.00444843 -0.10068554 0.09476469 0.096308805 0.05796301 -0.055333424 -0.08030308 -0.03666325
0.07710784 -0.052277498 0.0035595982 0.0054610553 0.012151459 -0.0056096045 0.060477726 -0.036300313
0.00427497 -0.05235616 -0.031192288 -0.009948482 -0.106175736 -0.034003846 -0.055626385 0.03345774
-0.06853302 -0.0073366784 0.10716383 -0.0328898 0.09663679 0.03681511 0.07514328 -0.045304827
0.0042011607 0.09386024 0.07356766 0.008264408 0.079870574 0.008172552 0.060423087 -0.105138294
0.087687366 0.032145336 0.04309669 -0.062941305 -0.093015425 -0.018897112 0.07522472 0.073370926
-0.08811541 -0.03876489 -0.09024902 0.038488764 0.030848645 0.0059083654 -0.095112875 -0.004850404
-0.080238715 -0.08432732 -0.030330667 -0.08711481 0.0641062 0.08509508 0.11227085 -0.044864886
0.00436019 -0.03012844 -0.02712546 0.11196796 0.021220295 0.090098895 0.018966908 0.04383714
0.016165763 -0.03559998 0.015366034 0.016892064 0.030544678 0.05360033 -0.056369815 -0.097398855
-0.045722466 0.015586978 0.053445928 0.049821723 0.042796068 -0.08409296 0.0004890433 -0.029204657
-0.077950135 0.082816005 -0.07431816 -0.006443029 -0.059007652 0.10975233 0.054931965 0.0008345501
-0.08993026 -0.0013903523 -0.09354918 -0.002385885 0.022116987 -0.006195682 -0.005054885 -0.026844418
-0.06357212 0.022612087 -0.07159933 0.057474688 -0.053890415 -0.0033938887 0.05877086 -0.010277715
-0.088583454 0.012993149 0.07030309 0.07242972 -0.074612066 -0.014398694 -0.06497982 -0.11586022
-0.054450676 -0.08740391 -0.044647705 -0.084483385 -0.026623748 0.082545385 -0.031234603 -0.09583394
-0.023420889 -0.06443135 -0.015781336 0.046601336 0.0034980245 0.016855422 0.06371753 -0.01579929
0.043740433 0.013662306 0.090341575 -0.02424463 -0.041035563 -0.030040935 0.094783776 -0.0019081311
0.09346718 -0.029366504 0.04546401 0.007550536 0.04222725 -0.06079177 -0.07492033 0.017088322
0.04849194 0.024562044 0.01687081 -0.061016735 0.057176057 0.041499842 0.036036845 0.0720089
-0.046271544 -0.047312893 -0.10029346 -0.027512891 0.08593736 -0.040164802 -0.020019945 0.021787906
0.09527441 -0.03523948 -0.0362071 0.0180133 -0.08524122 0.04153549 0.051662657 -0.05983204
-0.08279715 -0.043199997 0.07601323 0.09865835 -0.025375249 0.08094078 -0.07703483 0.0043894835
-0.06276681 -0.083598286 0.06641846 0.039598286 0.070967175 0.10104311 0.115457654 0.007493203
-0.048913114 -0.047483407 0.04618804 0.0046512 -0.061631203 0.030563485 -0.021173313 -0.035841722
0.017988084 -0.046460778 0.0075823576 0.11878811 -0.08959172 0.03906937 0.066246234 0.046725333

lstm.bias_ih_l1 f4 [512]
00000000: d75a 863c 268e 633c 841f 233c 8bfd 393b
00000010: f639 413c b594 593c 5270 b33b 57d0 663c
00000020: 38e4 1a3c b161 273c 1c46 dd3b 73ab 2b3c
00000030: ca6b 503c 97fe 3b3c e13f 7a3c 022c 3a3c
00000040: 31db 033c 220d 863c 87f7 f23b ce20 513c
00000050: 29c6 013c e7fb 353c abe1 373c 7c81 563c
00000060: 6a16 113c 6182 3e3c dbab 3e3c 3f04 e53a
00000070: 321a 333c 9cec 613c b0bd ab3b 8917 3b3c
00000080: 682c 743c 3ab0 453c 6d28 513c c6d7 293c
00000090: 5fed 513c cb50 f93b 3aed 433c d6f2 4d3c
000000a0: 0061 183c d05e 2b3c ae1e d03b 0560 d53b
000000b0: 554c 3f3c 9a4f b939 57b4 3b3c ecc3 223c
000000c0: b613 943b f014 4f3c 9508 6b3c 538f f73b
000000d0: 47b3 3f3c 736c 8d3c fe36 513c 315d 6a3c
000000e0: 7db8 163c 96cf 1b3c 7e03 113b c307 873c
000000f0: fc09 6e3c f35e f53b f1a1 343c 304e 563c
00000100: cd1a e03b 1819 043c c697 523c 2d69 9d3b
00000110: 8a90 773c 8d23 453c 9501 ce3b 7df4 693c
00000120: 0391 593c da67 243c 7051 573c 56b0 c6b9
00000130: f167 1a3c e2a1 593c 2fcf c63b 778a 6b3c
00000140: 60d4 e73b b474 853b 8feb 353c efd7 d03b
00000150: 2d37 473c a9d9 3b3c 3197 d93b c283 ca3c
00000160: a757 6e3c 8ea2 ef3b e9a2 173c a95e 2fbb
00000170: 9284 ee3b f748 b63b 545c 11bb b76a 713c
00000180: 0f26 323c 654d eb3b 91f4 443c e051 353c
00000190: 7df8 523c c040 833c 5f30 013c e8e4 643c
000001a0: aef7 4f3c 8eea b93b ae5e be3b c1fe ab3c
000001b0: 045b 2b3c 5135 1a3c d0ab 693c d97f 343c
000001c0: 72bd 533c d7c7 4d3c fea5 d43b d95e 5f3c
000001d0: ec67 593c 0022 06b9 dd16 7c3c 8ba4 263c
000001e0: f8d0 ad3c 5895 7b3c a284 653c 0a3e 333c
000001f0: 0123 c43b a273 b63b 3fb8 033c e536 0f3c
00000200: aaa2 293c 55a9 f53b 34ca 103c 238d cc3a
00000210: 1069 513c 51b1 373b e405 583b 16ce 733c
00000220: 105a 7e3b df6d d63b 6575 ad3b 7c36 8d3b
00000230: 4284 383c c9bb f43b c5cd 793c 523f 0f3c
00000240: 81ac de3b c37d ce3b 37d8 613b 6438 343c
00000250: 6a75 c13b 9f45 8d3b e5da bf3b 8a6f a83b
00000260: ba0f 1b3c 4b7d 0b3c 4950 063c a4f3 ffb9
00000270: ada2 473c 5cc4 6d3b 8f35 33bb 11fa a73b
00000280: 28a7 853c 696d 153c 1f91 4d3c 8161 e83b
00000290: 6435 c93b b3bb 053c 0960 3c3b 16fe 1d3c
000002a0: f5c5 1a3c 6ca7 1d3c 7a35 263c 7ec2 993b
000002b0: f05d 323c cff5 20ba d85c ac3b 603b 1a3c
000002c0: f305 4f3b 0150 113c 9fc4 653c 0e26 1f3c
000002d0: bb08 503c e55c 6b3c 78a8 373c 58a7 6b3c
000002e0: e011 183c fc6a 6a3b 838c a0b8 63b2 413c
000002f0: 6889 633c 30a8 c53b 201e ab3b 607d 3f3c
00000300: d9c5 bdba 5ffa fa3b e8de 2e3c 2d17 303c
00000310: 18d9 fe3b 5f36 233c d9d5 2dbb 1d6e 613c
00000320: 3b23 8d3b 46b6 413b af48 5c3c da4b 793a
00000330: e1f7 22bb 4fd1 4b3c d36c f43b a4b9 3b3c
00000340: 89a5 143c 21de 9b3b 6154 1c3c 2d4a 173c
00000350: e7a6 2a3c 1250 193c ceb9 283b fe54 083c
00000360: 63e5 713c 3f10 ad3b 49e6 233c b531 4bbb
00000370: 5c8d 403b 4f44 963b 8f29 46bb 4baa 7d3c
00000380: 4c34 313c 3847 4f3b 7a0b 013c eacc 233c
00000390: 93fc 523c 6d93 6b3c d1f0 e53b 0542 2d3c
000003a0: 524a 4e3c 628e 863a 7bee 8d3b d8c8 1a3c
000003b0: f290 0a3c 7c27 1a3c d85e 763c d4d6 413c
000003c0: b3b5 423c 5586 4a3c 9815 e03b d4e0 6b3c
000003d0: 3800 f13b c65e 0b3b a447 593c 8e2f 0e3c
000003e0: 9c45 c73b 5d56 703c 7236 493c ef4e b13b
000003f0: aaec 4c3a 4799 5f3b a96b 783b 15ca f23b
0.016400738 0.013888871 0.009956244 0.0028379883 0.011793604 0.013280083 0.005476036 0.014087758
0.009453826 0.010216163 0.0067527425 0.010477888 0.012721011 0.011474273 0.015274019 0.011363031
0.008047865 0.016363684 0.0074147615 0.012764169 0.00792078 0.0111074215 0.011223237 0.013092395
0.008855442 0.011627764 0.011637653 0.0017472579 0.010931538 0.013789322 0.0052411184 0.011419185
0.014903165 0.0120659415 0.012765986 0.010366386 0.012812941 0.007608508 0.011958415 0.012570104
0.00930047 0.010459617 0.0063513136 0.0065116906 0.011675914 0.00035345257 0.011456571 0.009934407
0.0045189513 0.012639269 0.014345308 0.0075549274 0.011700458 0.017263627 0.012769459 0.014304445
0.009199259 0.009509942 0.0022127326 0.016483193 0.014528748 0.0074881255 0.011024938 0.013080165
0.0068391324 0.008062623 0.012853568 0.0048037977 0.015110144 0.012032402 0.0062868097 0.014279482
0.013279202 0.010034526 0.013141975 -0.00037896883 0.009424196 0.013283225 0.0060671787 0.014376274
0.0070748776 0.00407275 0.011103525 0.0063733975 0.012159151 0.011465468 0.006640338 0.02472103
0.014547265 0.007313079 0.009255149 -0.0026759303 0.007278987 0.0055628973 -0.0022180276 0.014734915
0.010873332 0.007180857 0.0120212 0.011066884 0.012876627 0.016022086 0.007885068 0.013970591
0.012693329 0.005673713 0.0058096265 0.0209955 0.010458712 0.009412126 0.014262155 0.011016809
0.012923585 0.012559853 0.0064895144 0.013633453 0.013269406 -0.00012791902 0.01538631 0.010171066
0.021217808 0.015355431 0.014008673 0.010940084 0.005985618 0.0055679837 0.008039533 0.008741115
0.010353724 0.0074969926 0.0088372715 0.0015606027 0.0127813965 0.0028029273 0.0032962495 0.014880678
0.0038811006 0.0065438594 0.0052935355 0.0043094736 0.0112620015 0.007468675 0.015246813 0.008743124
0.0067954664 0.006301613 0.003446115 0.010999773 0.0059038894 0.004311278 0.0058549517 0.0051402496
0.009464199 0.008513759 0.008197852 -0.00048818917 0.012184781 0.003628037 -0.0027345156 0.005126246
0.016315058 0.009120324 0.012546807 0.0070917015 0.006140398 0.008162427 0.0028743765 0.009643098
0.009446611 0.009622436 0.010144586 0.0046923747 0.010886654 -0.0006140144 0.0052600913 0.00941357
0.003158924 0.008869172 0.014023929 0.009713663 0.012697394 0.0143654095 0.0112096 0.01438316
0.0092816055 0.0035769334 -7.655567e-05 0.011822316 0.013887741 0.0060320124 0.005222097 0.011687607
-0.0014478519 0.007659241 0.010673262 0.010747713 0.0077773444 0.009961694 -0.0026525168 0.013759163
0.0043071783 0.0029558106 0.0134450635 0.0009509899 -0.0024866986 0.01244004 0.007459262 0.011457834
0.00907267 0.0047567044 0.009541602 0.0092339935 0.010415769 0.009357469 0.0025745514 0.008321045
0.014764163 0.0052814777 0.010003635 -0.003100497 0.0029381132 0.0045857797 -0.0030237173 0.015482496
0.010815691 0.0031628143 0.007876271 0.009997586 0.012877601 0.014378411 0.007017233 0.010574822
0.0125909615 0.0010265822 0.0043314076 0.009447299 0.008457409 0.009408828 0.015037261 0.011831004
0.011884141 0.012361129 0.0068385117 0.014396865 0.0073547624 0.0021266206 0.013261709 0.00867833
0.006081296 0.014669028 0.012281047 0.005411021 0.0007817248 0.003411846 0.0037905967 0.007409344
