models/european/GARCHLSTMKAGGLEDGV.pth (torch, 879554 bytes, 13 tensors)

lstm.weight_ih_l0 f4 [512, 5]
000000 4d 82 92 3d 83 54 33 3d 67 1c 8f 3c c2 c9 85 3b
       0.07153759 0.04378177 0.017469598 0.0040828893
000010 56 53 bb 3d 38 e3 d5 bd c3 c3 e0 3d 49 0a 38 bd
       0.091467544 -0.10443729 0.109748386 -0.044931684
000020 ac f4 d3 3d bb a8 24 bd cb 7e a9 bd dd 54 8d bd
       0.10349402 -0.040199976 -0.08276137 -0.06900952
000030 73 6a 3b bc ef 2b 33 bd 15 e7 ce 3d 22 90 d3 bb
       -0.011438954 -0.04374307 0.10102669 -0.006456391
000040 c1 89 91 bd 56 d6 ab 3d 36 4d 0e bd 88 a3 ed 3c
       -0.071063526 0.08390491 -0.034741603 0.029008642
000050 21 00 99 3d ed 26 0f bd 82 da 8e bd 57 56 77 bd
       0.07470728 -0.034949232 -0.06975271 -0.060385074
000060 09 3e 61 bd d3 cd 08 bd 35 7d b3 bd c6 4e 92 3d
       -0.054990802 -0.033399414 -0.08764116 0.07143931
000070 29 48 30 3d da 71 30 bd 54 d6 57 bd a5 4b b5 3d
       0.043037567 -0.043077327 -0.052694634 0.08852319
000080 1a 29 80 bc 44 41 24 3d f1 cf 2e 3d 24 eb 15 bd
       -0.015644599 0.040101305 0.042678777 -0.0366012
000090 a9 79 43 bd f7 b2 27 3d ce 60 c8 3d 8a ce 88 bd
       -0.047723446 0.04094216 0.09784089 -0.06680019
0000a0 81 a3 95 3d 23 96 95 3c ed 9d 0c 3d 61 4c b2 3c
       0.073065765 0.018260067 0.034330297 0.021764936
0000b0 48 bc ea bd 08 b5 1f bd 80 f6 e4 3d 23 7d c6 3c
       -0.11461693 -0.038991004 0.11179829 0.024229592
0000c0 4c 1d 9a bd b7 80 a2 bd 7f f7 e7 3d 40 f5 37 bd
       -0.07525119 -0.07934707 0.11326503 -0.044911623
0000d0 60 b2 bd 3d e4 2a 10 3d f0 ef 86 3d 17 79 76 bd
       0.09262538 0.035197154 0.06588733 -0.060174074
0000e0 c7 de 2a bd 55 bc c6 bd 17 55 05 3d 14 d3 6f bd
       -0.041716363 -0.0970389 0.03255185 -0.05855091
0000f0 da 4c be 3b af 4f 60 bd 13 42 d4 3d 4f f6 d2 bc
       0.0058075013 -0.054763492 0.10364165 -0.025752215
000100 9f f0 8b 3d 60 5d 93 3d a9 a2 82 3d b7 83 b6 3c
       0.06833004 0.07195544 0.06378681 0.022279603
000110 30 85 88 3d 03 8b b7 bb b1 55 c2 3d 49 e5 16 bd
       0.066660285 -0.0056012883 0.094890006 -0.036839757
000120 69 ed b1 3d 42 c0 a9 bd d9 4d d7 bc ba bf 11 3d
       0.086878605 -0.082886234 -0.026282238 0.035583235
000130 61 1c a1 bc 39 9a 98 bc 10 23 df bb da 65 a9 bc
       -0.019666852 -0.018628227 -0.0068095997 -0.02067845
000140 cf 97 cd 3d dd 82 47 3d 4a 12 e4 3d 09 b8 86 3d
       0.10038721 0.048708785 0.11136301 0.06578071
000150 50 79 8a bc 92 94 db bd cf 92 0c 3d 57 85 8e bd
       -0.01690355 -0.10721697 0.034319695 -0.06959026
000160 e4 20 39 3d 9c 6c 56 3d f7 91 8d bc 78 5c b6 3c
       0.045197383 0.05234967 -0.017281516 0.02226089
000170 9f 1c 40 bc e2 42 a4 3d 85 e3 cc 3c db 5c 54 bd
       -0.011725574 0.080205694 0.025010834 -0.051846366
000180 54 b1 a9 bd ef 35 cc 3d c3 d6 92 bd ae 8c 06 bd
       -0.08285776 0.099712245 -0.07169869 -0.032849006
000190 4e 52 a9 bc 9f 12 77 bd b6 14 f3 3c a7 5c 2e 3a
       -0.020669129 -0.060320493 0.029672962 0.00066513795
0001a0 1b c8 c9 bd 7c 1d 5a 3c 2b da 96 bd bb e5 23 bc
       -0.0985262 0.013312694 -0.07365831 -0.0100035025
0001b0 18 1b 6f bd 53 21 ae 3a 56 bf 13 bd ca ee ca 3d
       -0.058375448 0.0013285078 -0.036071144 0.09908827
0001c0 22 b5 a8 bd 6e 2c 1f bd b8 49 29 3d b6 81 b4 3d
       -0.08237673 -0.03886073 0.04133007 0.08813803
0001d0 4d c6 be 3d 76 a4 9b bd 66 99 30 bd da b6 c3 3d
       0.093151666 -0.07599728 -0.043115042 0.095563605
0001e0 75 77 89 bd 34 01 9c bd c5 f5 8c bd 2c 48 87 bd
       -0.06712238 -0.07617417 -0.06882814 -0.066055626
0001f0 ee 5e c6 3d 24 5e 59 3d ce bb ad 3d 12 3a 34 bd
       0.09686075 0.053068295 0.084830865 -0.044000693
000200 50 4e 74 3d c6 22 ac bd 62 29 2c 3d 1f 5e d8 3d
       0.059644997 -0.0840507 0.042031653 0.10564827
000210 df 55 d5 3d e1 9d c9 bd 26 a1 ce bd ca a1 78 bd
       0.10416769 -0.09844566 -0.100893304 -0.06070117
000220 22 26 e2 3b e4 d5 c0 3c 00 c2 69 3c 68 db c9 bd
       0.0069015184 0.023539491 0.014267445 -0.098563015
000230 1b 4c 0c bd 91 97 d8 3c 85 82 84 bd 4f c3 c7 3c
       -0.034252267 0.02643946 -0.06470207 0.024385123
000240 67 54 56 bd bc d7 d4 3d 8c 53 77 3d 6d 0d 2e bc
       -0.052326586 0.103927106 0.06038241 -0.010623318
000250 37 bd 81 3d 99 6e df 3d 47 53 62 bd c2 36 c5 bd
       0.06334918 0.10909767 -0.0552552 -0.09629585
000260 3e 41 91 bd 84 0b cc bd d2 f7 bb bd 6b 43 51 bd
       -0.07092522 -0.09963134 -0.09178127 -0.051089685
000270 0c 2c 5f 3c 14 34 30 3d 6f db ba 3b cf 16 e6 bb
       0.013621341 0.043018416 0.005702428 -0.007021762
000280 43 e9 88 bd 88 d0 d7 3d f2 52 82 bd 45 ea 95 bd
       -0.06685116 0.10537821 -0.06363477 -0.07320074
000290 fa 9d 82 bd 34 56 82 3b ca 51 67 bd 35 8a 56 3d
       -0.06377788 0.0039775614 -0.056474485 0.0523779
0002a0 dc 68 87 bd 42 d3 39 bd f2 b1 99 3c 30 8b d7 3d
       -0.06611797 -0.045367487 0.018761609 0.10524595
0002b0 ce 8a 6e bd 2a 6f 85 3d f9 ab d0 bd dc e1 53 3d
       -0.058237843 0.065153435 -0.10189051 0.05172907
0002c0 bb 6f 0a 3d ed 40 b3 3d 54 3a 3c bb 1b 5c 9b 3d
       0.03379796 0.08752618 -0.002872129 0.07585927
0002d0 21 1e 1d bd f7 b9 37 3d b2 eb e2 bb 54 74 5c 3c
       -0.03835881 0.044855084 -0.0069250697 0.013455469
0002e0 e7 11 8c bd b1 74 e5 3d 5d 92 34 bd 68 a4 00 3d
       -0.06839352 0.11203898 -0.044084895 0.03140679
0002f0 b0 52 81 bd 84 eb ac 3d 97 db e0 3c ee 01 08 3d
       -0.063145995 0.084433585 0.027448459 0.033204965
000300 db dc 26 3d e4 8b a9 bd 39 ad c5 bc 18 30 74 3d
       0.040737968 -0.08278635 -0.02413045 0.05961618
000310 8e ce b0 3d ca 44 0c 3d 6e 90 51 bd 05 31 e7 bc
       0.08633147 0.03424529 -0.05116313 -0.028221617
000320 b4 17 5f 3d 35 3a 8f bc 07 46 3c 3c 17 09 87 3d
       0.054465964 -0.01748381 0.011491305 0.065935306
000330 08 31 80 bb cd 46 0e bb 1c 74 ef bc 9c b0 93 bd
       -0.003912095 -0.002170968 -0.02923017 -0.0721142
000340 e2 fb bb 3d 0c af b4 3d 5f 3a 17 3d 4d 95 a9 bd
       0.09178902 0.0882245 0.0369209 -0.0828043
000350 1d ba bf 3d d6 87 b4 bd 3e 77 3d 3d a6 ce b6 3d
       0.0936167 -0.08814971 0.046256296 0.08926134
000360 73 3b 0b bd 4f 4f 1b bd a8 e2 9b bd 3f 2a b0 3c
       -0.033992242 -0.03791743 -0.076115906 0.02150452
000370 f6 1f d4 bc a4 87 5e bd 53 7c 9a bd ac f5 77 3d
       -0.025894146 -0.054328576 -0.07543244 0.060537025
000380 72 4a 03 3c 31 16 b0 3c fc 0a 5e 3d cd 06 ac 3d
       0.008013355 0.021494957 0.054209694 0.08399735
000390 fa 9c 00 bd 37 ae 1e 3d 07 57 aa bd 49 33 2d 3d
       -0.031399705 0.038740363 -0.083173804 0.042285237
0003a0 3e d3 ca bc 4d 8d 45 3c d5 c1 4b 3d 2b 18 80 bd
       -0.024758931 0.0120576145 0.0497454 -0.0625461
0003b0 aa 9c be 3d 0d 32 33 bd ff 10 72 3d 54 05 93 3c
       0.09307225 -0.043748904 0.05909824 0.017946877
0003c0 58 88 b0 bd b0 40 92 3d cf 4b df 3d 4c 8e 3e 3d
       -0.086197555 0.071412444 0.10903131 0.046522424
0003d0 3a 3e 92 bd 6c a0 b2 bd 77 34 c9 bd 05 6e a4 bc
       -0.07140775 -0.08722004 -0.0982446 -0.020071993
0003e0 ea aa 9d 3c e9 8a 83 3d 9f 5a a2 bd 00 99 f4 bc
       0.019246537 0.064229794 -0.07927441 -0.029858112
0003f0 fc 6b 4b 3d 6d c3 8f bc 08 46 8f 3d c9 e8 3f bd
       0.04966353 -0.017549241 0.06995779 -0.04685286

lstm.weight_hh_l0 f4 [512, 128]
000000 82 6c a1 bd 8d 4a 5c bc f8 d1 b0 3c 2b 69 1b bc
       -0.07882024 -0.013445509 0.021584496 -0.009485523
000010 45 10 22 3d 58 69 7c bd 78 86 8e bd 65 f9 73 bc
       0.039566297 -0.0616239 -0.06959242 -0.014891003
000020 94 6b 11 bd c1 17 8b bd 4f d2 8e 3d 09 72 c1 3d
       -0.035502985 -0.0679164 0.06973707 0.094455786
000030 3a 89 46 3c a0 93 95 bb 38 0e b7 3d 6b 73 be 3d
       0.012117678 -0.0045647174 0.08938259 0.09299358
000040 59 c0 84 bd a8 9d 91 3c be 8e 14 3d 9f 8c 79 3d
       -0.06482 0.017775372 0.036268942 0.060925122
000050 d5 48 48 bd a7 fe 4d ba 55 37 ee 3c 89 3f ae bc
       -0.048897583 -0.00078580756 0.029079119 -0.02127053
000060 ea c0 b9 3d 32 c2 b6 3d 84 5b 87 3d 3c bc fd bc
       0.090699986 0.089237586 0.06609252 -0.030973546
000070 89 27 25 3d 9a a4 31 bc ed 6d 61 bd fe 1b 9f bd
       0.040320907 -0.010842467 -0.055036474 -0.07769011
000080 70 a2 7a 3c 83 29 77 3d f7 a9 98 3c 18 6b bc 3b
       0.015297517 0.060342323 0.018635733 0.0057500713
000090 06 73 ee bc 57 ca 66 3d bc 08 8d bd 22 bb c0 3d
       -0.029107582 0.05634531 -0.068864316 0.09410693
0000a0 e7 0f 91 3d e5 bf 04 3d c6 ee 4d 39 cf 67 42 bd
       0.07083111 0.032409567 0.00019639274 -0.04746228
0000b0 dd 31 1f bd a0 44 88 bd 9b e1 98 3d 04 f7 55 3d
       -0.038865913 -0.06653714 0.07464906 0.052237526
0000c0 66 a9 64 b8 e1 b0 0b 3d b9 b2 94 3d 31 20 ed bc
       -5.45172e-05 0.03410423 0.07260651 -0.028946014
0000d0 e6 88 2e 3c 08 1e 88 bd e3 13 0b 3d f5 6a 8d 3d
       0.010652756 -0.06646353 0.033954512 0.06905166
0000e0 0a 74 fb bc 92 0f be 3c a7 94 91 3d f4 3c 9c 3d
       -0.03069498 0.023200784 0.07108431 0.076288134
0000f0 38 b5 8f 3c 1c b3 8a bd 4e db 6d 3b 5e fe 1b 3d
       0.017542467 -0.06772444 0.0036294046 0.03808438
000100 6d 1f 07 3d 95 75 07 3c 8c 04 b3 bd 6f a6 78 bd
       0.032988954 0.00826778 -0.087411016 -0.0607056
000110 ae b7 c4 3d 4f 64 1d 3d 10 4b b6 bc 37 07 e7 bc
       0.096053466 0.03842574 -0.02225259 -0.028201682
000120 31 3e 47 bc 00 a1 21 bd 08 2a 70 bd 81 8a 1c 3d
       -0.012160824 -0.039460182 -0.058633834 0.038218025
000130 7a fc 56 bd 48 1b ab bd 80 83 86 bc bf 7a e1 3c
       -0.052486874 -0.08354813 -0.016420126 0.02752435
000140 de 2f 9a bd ab ce a6 bd 50 84 2c bd 3f e1 96 3d
       -0.07528661 -0.081448875 -0.04211837 0.07367181
000150 b9 c7 8b bd b4 71 95 3d eb ac a0 bd 78 20 b4 3d
       -0.068252034 0.07297078 -0.078454815 0.087952554
000160 22 98 39 3d 91 51 b6 bd ee 68 02 ba e2 3b 9a 3d
       0.0453111 -0.08902276 -0.0004974742 0.07530953
000170 f9 0b 8b 3c ee 33 2f 3d 51 76 ad 3d 44 38 57 bd
       0.016973482 0.042774133 0.08469833 -0.052543893
000180 da e4 95 bc 77 b9 98 bb e3 09 aa 3b 1f ce a0 3d
       -0.018297601 -0.004660781 0.005189167 0.078518145
000190 df 49 a6 3d 61 e1 d0 bc ff 3c bc 3d 6c d9 ca 3c
       0.081195585 -0.025498094 0.091913216 0.024761878
0001a0 48 3b a1 bd c4 cf 33 bc 6b 07 7a bd 43 d1 6f bd
       -0.07872635 -0.010974828 -0.06104223 -0.058549177
0001b0 ae db b0 3d 0d c3 a9 bd 87 9a 0e bd e3 c0 9f 3d
       0.086356506 -0.08289156 -0.034815338 0.07800462
0001c0 b6 83 36 3d 2c d2 bc 3d 94 35 5a 3d c3 27 ac bd
       0.044559203 0.092197746 0.053273752 -0.084060214
0001d0 e0 f9 d7 3b 03 53 94 bd 78 6a a1 bd 69 d1 2e bd
       0.0065910667 -0.07242396 -0.078816354 -0.042680178
0001e0 bd 0f 67 3d e8 d5 37 bd 1c 4d 8a 3b 65 43 8f bd
       0.056411494 -0.04488173 0.004220618 -0.06995276
0001f0 14 73 9d bd a0 7e 9d 3b 0e ae b7 bc 56 03 c4 3c
       -0.07687965 0.0048063546 -0.022421863 0.023927372
000200 8f 97 76 3d b9 54 5c bd 4f 89 a5 3c ae bb 3f bd
       0.06020313 -0.053791735 0.020207075 -0.046809845
000210 09 aa 8f 3d 0b fd 59 3d 20 60 88 3d b6 25 88 bc
       0.070148535 0.053219836 0.066589594 -0.016619544
000220 3e eb c3 3c 31 fa 57 bd 05 6a f5 bb e1 61 72 3c
       0.023915883 -0.052728835 -0.007489445 0.014793844
000230 d1 41 30 3d ea 5c 64 bc 09 eb ac bd 4b d2 9f 3d
       0.043031517 -0.013938168 -0.08443267 0.07803782
000240 b7 23 87 bd 5d 41 2f bd 6f 83 13 bc f6 38 c5 bd
       -0.06598609 -0.042786945 -0.009003504 -0.09630005
000250 8c c5 8a 3d 07 f9 b6 3d ca 89 02 bd d1 08 ab 3d
       0.0677596 0.08934217 -0.031869687 0.08351291
000260 38 60 a6 3c a3 43 67 bc 57 33 c3 3b b3 3e cb 3d
       0.020309553 -0.014115247 0.005957048 0.09924068
000270 0a 94 4a 3c f7 63 f8 3b 93 c2 54 3d 9f 90 7b 3d
       0.012364397 0.007580276 0.051943373 0.06141722
000280 e3 83 3c bd 41 a4 80 bc 12 26 41 bd cf ee a0 3d
       -0.046024214 -0.015703322 -0.047155447 0.07858049
000290 ab 11 2c 3d d2 6d 8c 3d fd c5 6f 3d 9d c6 c2 3d
       0.042009037 0.06856884 0.058538426 0.09510539
0002a0 8b 9d 78 3c 4a 0e 7e bd 36 ff b8 bd d3 47 87 3c
       0.01517428 -0.062025346 -0.090330526 0.01651374
0002b0 ad 78 bb bd 97 be c4 3d 58 94 8a 3d 7e c7 55 3d
       -0.091538765 0.09606665 0.067665756 0.052192204
0002c0 7c a4 c1 3c 2a 1f 87 3c da 7e 90 bb a3 f3 8a 3c
       0.023638003 0.016494352 -0.004409653 0.016961878
0002d0 47 a2 85 3d b2 ee 4f bd 6d 4e ff bc 30 f0 23 3d
       0.065250926 -0.050764747 -0.031165326 0.040023983
0002e0 05 34 00 3d 30 31 c1 3d 91 53 ac 3d af 12 85 3b
       0.03129961 0.0943321 0.084143765 0.004061065
0002f0 4d 06 68 3d 6b 08 58 3d ad cd 72 3d 9f b4 59 bb
       0.056646634 0.052742403 0.05927818 -0.003321923
000300 66 c5 2a 3b 1c f5 7c bd 45 4d a1 3d e4 ae f0 3b
       0.00260576 -0.061757192 0.07876066 0.0073450673
000310 94 0d 0b 3d a8 6d c1 bc df 7d 0c bd cc 5e 13 3c
       0.033948496 -0.023611858 -0.034299728 0.008994769
000320 cd 9a c5 bc 4f e0 66 bd e5 49 17 bd c3 4c 47 3d
       -0.024121666 -0.05636626 -0.036935706 0.04865719
000330 a9 3d 0e bd 73 87 77 3d 87 1b 7c 3d 0a 99 29 bd
       -0.034726772 0.06043191 0.06154969 -0.041405715
000340 6d 7d 04 3d 76 de 86 bc 6b cc b9 bd d7 33 b9 3d
       0.032346178 -0.0164635 -0.09072193 0.09043091
000350 23 5a 1f bd ca 72 55 bd 03 c4 78 bd 65 7f a6 3c
       -0.03890432 -0.052111425 -0.060733806 0.020324418
000360 9a a1 8a bd d9 16 27 bc 77 b2 58 3d bd 45 91 3d
       -0.06769104 -0.010198318 0.052904572 0.0709338
000370 fd 17 22 3c 5d bc 56 3d 4c 79 35 3d 2f d5 bb bc
       0.009893415 0.05242573 0.04430513 -0.022928802
000380 57 a8 6f 3d 4d ad 8d bd 43 d7 36 3d 73 ec a6 bc
       0.05851015 -0.0691782 0.044638883 -0.02037642
000390 ea a0 d3 3d d8 9c af bc db 40 ae 3c 4b b5 52 3d
       0.10333426 -0.021437094 0.02127116 0.051442426
0003a0 28 17 ca bd 97 d4 88 bd 2a f8 4b bd 73 4b ad 3d
       -0.09867698 -0.06681173 -0.049797215 0.084616564
0003b0 a1 21 9f bd 47 c8 49 3d 3c c8 39 3d 2d 8a 23 bc
       -0.07770086 0.049263265 0.045356974 -0.009981674
0003c0 1f 37 78 3d bd ae 84 3d e8 db 89 3c 94 56 93 bd
       0.060599443 0.06478641 0.016828492 -0.07194248
0003d0 d3 38 a0 bd ed 48 f1 3b 01 a0 03 3d 6e d6 44 3c
       -0.07823338 0.0073634298 0.032135013 0.012014015
0003e0 19 38 59 3d 6a 46 49 3d 88 75 1a 3c 78 db 92 3d
       0.053032015 0.049139418 0.009427436 0.071707666
0003f0 ef 38 cd bc 03 78 77 3c 44 4e 1f 3d e5 64 be bd
       -0.025051562 0.015104297 0.038893 -0.09296588

lstm.bias_ih_l0 f4 [512]
000000 19 ea cb 3b bb 16 85 3b c6 ac 33 3c cf 9e 2f 3c
       0.006222975 0.0040615476 0.010966485 0.010719015
000010 d1 8a 63 3c be f4 f5 3a 90 4f 19 3c 19 c3 3d 3c
       0.013888077 0.0018764955 0.009357348 0.011582159
000020 2e 98 26 bc d7 71 13 3c 3b f1 a4 3b 0b 42 22 3c
       -0.010168118 0.0089993095 0.0050336397 0.009903441
000030 86 e0 c2 3b 51 3c 07 3c 39 19 6f 3c e0 f4 0b 3c
       0.0059471754 0.008254127 0.014593416 0.0085422695
000040 11 3d 76 3c 0f 51 06 3c 75 88 90 3b 9b 21 04 3c
       0.015029208 0.008198037 0.004410798 0.008064653
000050 b0 10 4c 3c 3a b1 71 3c e5 59 e7 3a 13 e5 f7 3b
       0.0124551505 0.014751727 0.0017650692 0.0075651496
000060 85 e6 2c 3c a7 28 2b 3c 9a 08 fe 3b 8c 78 be 3b
       0.010553007 0.010446704 0.00775249 0.00581271
000070 a5 3a ce 3b fd 9a 5a 3c 15 68 31 3c 5f c5 29 3c
       0.006293612 0.013342616 0.010828038 0.010361998
000080 ce 65 2c 3c 95 18 31 3c 8d 1f 74 3a d8 64 71 3c
       0.010522319 0.0108090835 0.0009312563 0.014733516
000090 8f d9 bb 3b eb 16 30 3c 5a 2c cb 3b 75 8a 21 3c
       0.005732722 0.010747652 0.0062003555 0.009859671
0000a0 24 6e f5 3b 65 8f 08 3c 82 cf 45 b8 e3 5c ec 3a
       0.0074899364 0.008334969 -4.7161717e-05 0.0018033053
0000b0 eb cf e8 39 18 9d 23 3c 19 58 87 3c 81 55 16 3c
       0.000444054 0.009986185 0.0165215 0.009175659
0000c0 d6 64 1a 3c 1f 6c 41 3c 02 b9 25 3c be 2f 51 3c
       0.009423455 0.011805563 0.01011491 0.01276773
0000d0 de 82 43 3c 9d 95 5f 3c cb 78 a4 3b e9 4f 18 3c
       0.011933057 0.01364651 0.0050192825 0.009296396
0000e0 74 61 49 bb 88 10 31 3c 05 c3 35 3c ba d9 4e 3c
       -0.0030728253 0.010807164 0.01109386 0.012625152
0000f0 10 b3 1f 3c a8 3f 47 3c 17 c2 6f 3c fc 6d 56 3c
       0.009747282 0.012161173 0.014633677 0.013087746
000100 7e b6 29 3c ca a5 1a 3b eb 01 4f 3c 95 52 17 3c
       0.010358451 0.0023597353 0.012634735 0.009235998
000110 fd 60 85 3a 96 e0 e6 3b 58 b1 a4 3b d2 73 6e 3c
       0.0010176 0.0070458157 0.005026024 0.014553981
000120 f5 39 ec 3b d3 b9 63 3c 88 31 57 3c e6 76 8a 3b
       0.0072090575 0.013899284 0.013134368 0.0042255996
000130 67 81 93 3b f0 1a 20 3c dc e2 6a 3c b1 a3 7f 3c
       0.00450151 0.009772047 0.014336314 0.015602992
000140 3a 44 79 3c db ec 9e bb 1c b3 55 3c e4 4f 38 3c
       0.01521402 -0.0048500127 0.013043191 0.011249516
000150 fe c3 01 3c 82 82 66 3c bf 5e 80 3b 3f ab 26 3c
       0.007920263 0.014069201 0.0039175446 0.010172664
000160 4b e2 d2 3b 44 20 cb 3b 9e 6a 7c ba 84 a7 36 3c
       0.0064356676 0.0061989147 -0.00096289243 0.011148337
000170 2d 0d 20 3c a6 74 30 3b ce 39 3c 3c 2b 02 1c 3c
       0.009768766 0.0026924997 0.011488391 0.009522001
000180 63 95 28 3c 56 99 26 3c a9 67 6b 3c 72 7d 1d 3c
       0.010289523 0.010168394 0.014367976 0.009612428
000190 95 12 02 3c 96 9a b6 3b ba e5 06 3c 34 fa 6d 3c
       0.007939001 0.0055726273 0.008233482 0.014524985
0001a0 fd db 35 3c ae 75 74 3c 51 37 2c 3c 33 3f 19 3c
       0.011099813 0.014920635 0.010511235 0.009353447
0001b0 79 46 71 ba a8 76 66 3c 04 25 5e 3c 6f d7 3b 3c
       -0.00092039217 0.014066376 0.01355863 0.011464938
0001c0 02 43 82 3b 6b 20 41 3b d8 c4 5d 3c 9e c8 a0 3b
       0.003975273 0.0029468786 0.013535701 0.004906728
0001d0 03 41 59 3c c9 16 52 3c 0a 6e 39 3c c2 b6 7b 3c
       0.013260129 0.012822815 0.011317739 0.015363397
0001e0 66 d9 60 3c 99 18 4b 3c 5b 16 3c 3c 0a ac 0c 3c
       0.013723707 0.012396001 0.011479939 0.008585939
0001f0 64 a8 39 3c ad d7 5c 3c a9 0e ce 3b 2b 8e 3b 3c
       0.011331651 0.0134791555 0.0062883687 0.01144747
000200 b9 af 26 3b d0 70 4e 3b a3 ce 29 3c ca 87 0b 3c
       0.0025434329 0.0031500347 0.010364207 0.008516261
000210 c4 81 60 3c d5 ca 58 3b bb 6a 17 3c 32 f8 3b 3c
       0.013702814 0.0033079882 0.009241755 0.011472749
000220 85 91 c1 bb f2 4b 26 3c 27 85 73 3b 91 a7 25 3c
       -0.00590724 0.010149943 0.0037158222 0.010110752
000230 97 36 d9 3b 34 c2 b2 3b e3 65 71 3c 49 b1 f4 3b
       0.006628822 0.0054552797 0.014733764 0.007467423
000240 22 d3 66 3c 7c 30 24 3c ab 56 24 3b bf 69 1a 3c
       0.014088424 0.010021325 0.0025076072 0.009424626
000250 dd 40 63 3c 2f a0 43 3c ab d0 73 3b 43 87 02 3c
       0.013870445 0.011940046 0.0037203233 0.007966819
000260 a9 c1 0c 3c c4 ef 16 3c c0 74 02 3c d6 f3 c3 3b
       0.008591094 0.009212438 0.007962406 0.0059799952
000270 44 9b 20 3c a0 1f 4f 3c 68 72 3e 3c 1a 04 12 3c
       0.009802643 0.012641817 0.011623956 0.008912111
000280 01 10 43 3c 85 37 26 3c b8 2a bf 3b 34 e6 6a 3c
       0.011905671 0.010145073 0.00583395 0.014337111
000290 76 c2 99 3b 75 b9 2b 3c 58 e6 9a 3b ea d0 16 3c
       0.004692371 0.010481228 0.004727166 0.009205082
0002a0 11 11 f3 3b 79 53 8e 3b 11 2f b0 3b db 45 28 3b
       0.007417806 0.004343447 0.0053767045 0.0025676403
0002b0 6b ec 12 37 2a e2 02 3c 78 a4 85 3c 79 0d ac 3b
       8.7573235e-06 0.007988492 0.016313776 0.0052506295
0002c0 80 29 26 3c 32 ac 5c 3c b5 5a db 3b ef 64 54 3c
       0.01014173 0.013468789 0.0066941627 0.012963518
0002d0 62 e1 28 3c 60 3e 51 3c 7a 38 ef 38 ab 0d 29 3c
       0.010307642 0.012771219 0.00011406928 0.0103182
0002e0 f9 64 b8 ba 90 c8 05 3c d6 d9 35 3c 55 6b 38 3c
       -0.0014068178 0.008165494 0.011099299 0.011256059
0002f0 2a 20 02 3c 43 9c 4f 3c c9 71 78 3c 26 a6 4e 3c
       0.007942239 0.012671533 0.015163847 0.012612855
000300 89 af 32 3c 23 e8 5a 3b 4e 99 37 3c 6e 3c 24 3c
       0.010906109 0.0033402524 0.011205984 0.010024173
000310 a7 4a 43 b9 07 da 8a 3b e1 15 7f 3b 81 92 5e 3c
       -0.0001862446 0.0042374167 0.0038922953 0.013584734
000320 d9 3c 0a 3c cf 26 69 3c 5b bf 40 3c ea 51 af 3b
       0.008437359 0.014230444 0.011764373 0.005350341
000330 0a 41 2e 3b 06 e1 53 3c 91 a2 6b 3c a0 dc 80 3c
       0.002658906 0.012932068 0.014382021 0.015730202
000340 cd 50 64 3c 88 a6 89 bb 44 84 43 3c 45 06 eb 3b
       0.01393528 -0.0042007603 0.01193339 0.0071723782
000350 97 bf 91 3b 64 ea 57 3c af 0b f7 3b f5 20 db 3b
       0.004447888 0.013178442 0.0075392346 0.0066872784
000360 04 4d 9d 3b c2 ad 12 3c a3 2e 75 bb c3 93 2c 3c
       0.0048004407 0.00895256 -0.003741183 0.010533276
000370 5f 0c 0a 3c bc af 96 39 97 72 31 3c bb fd d1 3b
       0.008425801 0.00028741162 0.010830543 0.006408421
000380 2c 81 29 3c 6c f2 02 3c af e8 6c 3c c2 8f 34 3c
       0.010345738 0.007992368 0.014459773 0.011020603
000390 34 b7 db 3b d0 c9 d1 3b 75 b4 cb 3b 70 39 6e 3c
       0.006705189 0.0064022318 0.0062165805 0.014540061
0003a0 e7 13 2a 3c 8a 03 72 3c ab 15 34 3c 7a c5 01 3c
       0.010380722 0.014771352 0.010991494 0.007920617
0003b0 02 0b 14 b9 1d 17 60 3c 08 ac 48 3c 5f de 0f 3c
       -0.0001411848 0.013677386 0.012248047 0.008781045
0003c0 4f 09 06 3c 2b 81 9b 3b c7 15 6b 3c c8 55 79 3b
       0.00818093 0.0047456226 0.014348454 0.0038045514
0003d0 d3 bb 59 3c 40 ab 51 3c 95 18 10 3c 26 5a 84 3c
       0.01328941 0.012797177 0.008794923 0.016156267
0003e0 3e e7 61 3c cc 3d 49 3c 65 8a 58 3c 8b 91 1b 3c
       0.013788043 0.0122828 0.01321659 0.009495149
0003f0 ba 53 3d 3c 48 28 5b 3c ab de 68 3b cd 3f 29 3c
       0.0115556065 0.013376303 0.003553311 0.010330153

lstm.bias_hh_l0 f4 [512]
000000 19 ea cb 3b bb 16 85 3b c6 ac 33 3c cf 9e 2f 3c
       0.006222975 0.0040615476 0.010966485 0.010719015
000010 d1 8a 63 3c be f4 f5 3a 90 4f 19 3c 19 c3 3d 3c
       0.013888077 0.0018764955 0.009357348 0.011582159
000020 2e 98 26 bc d7 71 13 3c 3b f1 a4 3b 0b 42 22 3c
       -0.010168118 0.0089993095 0.0050336397 0.009903441
000030 86 e0 c2 3b 51 3c 07 3c 39 19 6f 3c e0 f4 0b 3c
       0.0059471754 0.008254127 0.014593416 0.0085422695
000040 11 3d 76 3c 0f 51 06 3c 75 88 90 3b 9b 21 04 3c
       0.015029208 0.008198037 0.004410798 0.008064653
000050 b0 10 4c 3c 3a b1 71 3c e5 59 e7 3a 13 e5 f7 3b
       0.0124551505 0.014751727 0.0017650692 0.0075651496
000060 85 e6 2c 3c a7 28 2b 3c 9a 08 fe 3b 8c 78 be 3b
       0.010553007 0.010446704 0.00775249 0.00581271
000070 a5 3a ce 3b fd 9a 5a 3c 15 68 31 3c 5f c5 29 3c
       0.006293612 0.013342616 0.010828038 0.010361998
000080 ce 65 2c 3c 95 18 31 3c 8d 1f 74 3a d8 64 71 3c
       0.010522319 0.0108090835 0.0009312563 0.014733516
000090 8f d9 bb 3b eb 16 30 3c 5a 2c cb 3b 75 8a 21 3c
       0.005732722 0.010747652 0.0062003555 0.009859671
0000a0 24 6e f5 3b 65 8f 08 3c 82 cf 45 b8 e3 5c ec 3a
       0.0074899364 0.008334969 -4.7161717e-05 0.0018033053
0000b0 eb cf e8 39 18 9d 23 3c 19 58 87 3c 81 55 16 3c
       0.000444054 0.009986185 0.0165215 0.009175659
0000c0 d6 64 1a 3c 1f 6c 41 3c 02 b9 25 3c be 2f 51 3c
       0.009423455 0.011805563 0.01011491 0.01276773
0000d0 de 82 43 3c 9d 95 5f 3c cb 78 a4 3b e9 4f 18 3c
       0.011933057 0.01364651 0.0050192825 0.009296396
0000e0 74 61 49 bb 88 10 31 3c 05 c3 35 3c ba d9 4e 3c
       -0.0030728253 0.010807164 0.01109386 0.012625152
0000f0 10 b3 1f 3c a8 3f 47 3c 17 c2 6f 3c fc 6d 56 3c
       0.009747282 0.012161173 0.014633677 0.013087746
000100 7e b6 29 3c ca a5 1a 3b eb 01 4f 3c 95 52 17 3c
       0.010358451 0.0023597353 0.012634735 0.009235998
000110 fd 60 85 3a 96 e0 e6 3b 58 b1 a4 3b d2 73 6e 3c
       0.0010176 0.0070458157 0.005026024 0.014553981
000120 f5 39 ec 3b d3 b9 63 3c 88 31 57 3c e6 76 8a 3b
       0.0072090575 0.013899284 0.013134368 0.0042255996
000130 67 81 93 3b f0 1a 20 3c dc e2 6a 3c b1 a3 7f 3c
       0.00450151 0.009772047 0.014336314 0.015602992
000140 3a 44 79 3c db ec 9e bb 1c b3 55 3c e4 4f 38 3c
       0.01521402 -0.0048500127 0.013043191 0.011249516
000150 fe c3 01 3c 82 82 66 3c bf 5e 80 3b 3f ab 26 3c
       0.007920263 0.014069201 0.0039175446 0.010172664
000160 4b e2 d2 3b 44 20 cb 3b 9e 6a 7c ba 84 a7 36 3c
       0.0064356676 0.0061989147 -0.00096289243 0.011148337
000170 2d 0d 20 3c a6 74 30 3b ce 39 3c 3c 2b 02 1c 3c
       0.009768766 0.0026924997 0.011488391 0.009522001
000180 63 95 28 3c 56 99 26 3c a9 67 6b 3c 72 7d 1d 3c
       0.010289523 0.010168394 0.014367976 0.009612428
000190 95 12 02 3c 96 9a b6 3b ba e5 06 3c 34 fa 6d 3c
       0.007939001 0.0055726273 0.008233482 0.014524985
0001a0 fd db 35 3c ae 75 74 3c 51 37 2c 3c 33 3f 19 3c
       0.011099813 0.014920635 0.010511235 0.009353447
0001b0 79 46 71 ba a8 76 66 3c 04 25 5e 3c 6f d7 3b 3c
       -0.00092039217 0.014066376 0.01355863 0.011464938
0001c0 02 43 82 3b 6b 20 41 3b d8 c4 5d 3c 9e c8 a0 3b
       0.003975273 0.0029468786 0.013535701 0.004906728
0001d0 03 41 59 3c c9 16 52 3c 0a 6e 39 3c c2 b6 7b 3c
       0.013260129 0.012822815 0.011317739 0.015363397
0001e0 66 d9 60 3c 99 18 4b 3c 5b 16 3c 3c 0a ac 0c 3c
       0.013723707 0.012396001 0.011479939 0.008585939
0001f0 64 a8 39 3c ad d7 5c 3c a9 0e ce 3b 2b 8e 3b 3c
       0.011331651 0.0134791555 0.0062883687 0.01144747
000200 b9 af 26 3b d0 70 4e 3b a3 ce 29 3c ca 87 0b 3c
       0.0025434329 0.0031500347 0.010364207 0.008516261
000210 c4 81 60 3c d5 ca 58 3b bb 6a 17 3c 32 f8 3b 3c
       0.013702814 0.0033079882 0.009241755 0.011472749
000220 85 91 c1 bb f2 4b 26 3c 27 85 73 3b 91 a7 25 3c
       -0.00590724 0.010149943 0.0037158222 0.010110752
000230 97 36 d9 3b 34 c2 b2 3b e3 65 71 3c 49 b1 f4 3b
       0.006628822 0.0054552797 0.014733764 0.007467423
000240 22 d3 66 3c 7c 30 24 3c ab 56 24 3b bf 69 1a 3c
       0.014088424 0.010021325 0.0025076072 0.009424626
000250 dd 40 63 3c 2f a0 43 3c ab d0 73 3b 43 87 02 3c
       0.013870445 0.011940046 0.0037203233 0.007966819
000260 a9 c1 0c 3c c4 ef 16 3c c0 74 02 3c d6 f3 c3 3b
       0.008591094 0.009212438 0.007962406 0.0059799952
000270 44 9b 20 3c a0 1f 4f 3c 68 72 3e 3c 1a 04 12 3c
       0.009802643 0.012641817 0.011623956 0.008912111
000280 01 10 43 3c 85 37 26 3c b8 2a bf 3b 34 e6 6a 3c
       0.011905671 0.010145073 0.00583395 0.014337111
000290 76 c2 99 3b 75 b9 2b 3c 58 e6 9a 3b ea d0 16 3c
       0.004692371 0.010481228 0.004727166 0.009205082
0002a0 11 11 f3 3b 79 53 8e 3b 11 2f b0 3b db 45 28 3b
       0.007417806 0.004343447 0.0053767045 0.0025676403
0002b0 6b ec 12 37 2a e2 02 3c 78 a4 85 3c 79 0d ac 3b
       8.7573235e-06 0.007988492 0.016313776 0.0052506295
0002c0 80 29 26 3c 32 ac 5c 3c b5 5a db 3b ef 64 54 3c
       0.01014173 0.013468789 0.0066941627 0.012963518
0002d0 62 e1 28 3c 60 3e 51 3c 7a 38 ef 38 ab 0d 29 3c
       0.010307642 0.012771219 0.00011406928 0.0103182
0002e0 f9 64 b8 ba 90 c8 05 3c d6 d9 35 3c 55 6b 38 3c
       -0.0014068178 0.008165494 0.011099299 0.011256059
0002f0 2a 20 02 3c 43 9c 4f 3c c9 71 78 3c 26 a6 4e 3c
       0.007942239 0.012671533 0.015163847 0.012612855
000300 89 af 32 3c 23 e8 5a 3b 4e 99 37 3c 6e 3c 24 3c
       0.010906109 0.0033402524 0.011205984 0.010024173
000310 a7 4a 43 b9 07 da 8a 3b e1 15 7f 3b 81 92 5e 3c
       -0.0001862446 0.0042374167 0.0038922953 0.013584734
000320 d9 3c 0a 3c cf 26 69 3c 5b bf 40 3c ea 51 af 3b
       0.008437359 0.014230444 0.011764373 0.005350341
000330 0a 41 2e 3b 06 e1 53 3c 91 a2 6b 3c a0 dc 80 3c
       0.002658906 0.012932068 0.014382021 0.015730202
000340 cd 50 64 3c 88 a6 89 bb 44 84 43 3c 45 06 eb 3b
       0.01393528 -0.0042007603 0.01193339 0.0071723782
000350 97 bf 91 3b 64 ea 57 3c af 0b f7 3b f5 20 db 3b
       0.004447888 0.013178442 0.0075392346 0.0066872784
000360 04 4d 9d 3b c2 ad 12 3c a3 2e 75 bb c3 93 2c 3c
       0.0048004407 0.00895256 -0.003741183 0.010533276
000370 5f 0c 0a 3c bc af 96 39 97 72 31 3c bb fd d1 3b
       0.008425801 0.00028741162 0.010830543 0.006408421
000380 2c 81 29 3c 6c f2 02 3c af e8 6c 3c c2 8f 34 3c
       0.010345738 0.007992368 0.014459773 0.011020603
000390 34 b7 db 3b d0 c9 d1 3b 75 b4 cb 3b 70 39 6e 3c
       0.006705189 0.0064022318 0.0062165805 0.014540061
0003a0 e7 13 2a 3c 8a 03 72 3c ab 15 34 3c 7a c5 01 3c
       0.010380722 0.014771352 0.010991494 0.007920617
0003b0 02 0b 14 b9 1d 17 60 3c 08 ac 48 3c 5f de 0f 3c
       -0.0001411848 0.013677386 0.012248047 0.008781045
0003c0 4f 09 06 3c 2b 81 9b 3b c7 15 6b 3c c8 55 79 3b
       0.00818093 0.0047456226 0.014348454 0.0038045514
0003d0 d3 bb 59 3c 40 ab 51 3c 95 18 10 3c 26 5a 84 3c
       0.01328941 0.012797177 0.008794923 0.016156267
0003e0 3e e7 61 3c cc 3d 49 3c 65 8a 58 3c 8b 91 1b 3c
       0.013788043 0.0122828 0.01321659 0.009495149
0003f0 ba 53 3d 3c 48 28 5b 3c ab de 68 3b cd 3f 29 3c
       0.0115556065 0.013376303 0.003553311 0.010330153

lstm.weight_ih_l1 f4 [512, 128]
000000 13 4e 99 bd 87 46 7c bc 15 89 48 3d d8 b4 5e bd
       -0.074855946 -0.015397674 0.048958857 -0.054371685
000010 27 96 97 3c 28 a2 b6 3d bd 45 6f bd 30 7f 17 3d
       0.018504215 0.089176476 -0.058416117 0.03698653
000020 4f d1 a5 3b 93 91 57 3d 66 34 ca bd 72 36 01 bc
       0.005060352 0.052629065 -0.098732755 -0.007886516
000030 87 17 7a 3d 49 26 32 3d e8 b6 66 bb 4a c1 e1 ba
       0.061057594 0.043493543 -0.0035204235 -0.0017223742
000040 df ba 8f 3c b3 7f 23 3d 44 85 2f 3d d0 19 8a 3c
       0.017545162 0.039916705 0.0428517 0.016858011
000050 4b 42 94 3c f4 dd 1e bd 1d 12 0e 3d 21 4c ee 3c
       0.018098017 -0.03878589 0.034685243 0.029089035
000060 8c 75 8c 3d 13 10 03 3b 69 45 a9 bd fa b9 ad 3c
       0.06858358 0.0019998595 -0.08265192 0.021206845
000070 ac b3 19 3d 00 ed ac 3d df 93 a1 bd f9 2c 97 3d
       0.037524864 0.08443642 -0.07889532 0.07381625
000080 48 e9 97 bc 5c 1f 9d bd 02 a3 db 3c 87 94 ae 3d
       -0.018543854 -0.07671997 0.026811127 0.08524423
000090 9c 06 be bd 42 83 92 bd 6c f5 b8 3d 70 3c ab bd
       -0.092786044 -0.07153942 0.090311855 -0.08361137
0000a0 47 52 59 bd 9b 0a e8 bc 73 8e 25 3d 2c 5d 58 bd
       -0.05305698 -0.02832537 0.040419053 -0.05282323
0000b0 35 08 be 3c 93 30 a7 bd 79 50 6a ba be 2f 96 3c
       0.023197273 -0.08163562 -0.0008938383 0.018333312
0000c0 e1 7f 08 bd a9 74 29 bd 4a f2 d1 3c 93 87 ca 3d
       -0.03332508 -0.04137102 0.025628228 0.0988914
0000d0 46 4f 83 bc 5e a2 5a 3d 51 10 b6 bc 1d c6 2d bd
       -0.016029011 0.0533775 -0.022224577 -0.042425264
0000e0 af 00 f3 bc bb dc 86 ba ae 3b 83 bd 9b 04 c8 bb
       -0.029663412 -0.0010289171 -0.06407867 -0.0061040646
0000f0 de bf 2e bd eb 64 a6 3c 15 0e 5d bd 0d f0 c1 3d
       -0.042663448 0.020311793 -0.053968508 0.09469614
000100 12 90 48 3d 10 a1 44 bd e3 c5 87 3d dc 98 2d bc
       0.04896552 -0.048005164 0.06629541 -0.010595527
000110 19 27 a7 bd 6e 0d d8 bc ef 0f 96 3d 73 d6 c8 3d
       -0.08161754 -0.026373591 0.07327258 0.09806528
000120 96 df 61 bd 22 d8 ba bc a3 8f 9a bc cf 1b 99 3d
       -0.05514487 -0.022808138 -0.01886732 0.07476007
000130 1f e7 66 3d ba 03 8d bd 2e 3a 5c 3d d4 31 a3 3d
       0.056372758 -0.068854764 0.053766422 0.07968488
000140 c5 9b 3e 3c ae ca a1 bd a6 c9 57 bd a0 a3 87 3c
       0.011633818 -0.07899986 -0.05268254 0.016557515
000150 d6 d6 f8 3b e7 7d b5 3d 7b 25 a9 bc d4 6c 69 3d
       0.00759397 0.088619046 -0.020647755 0.056988552
000160 af 34 36 3d 8f ef 08 3d d4 60 09 3d 9e be ef bc
       0.044483837 0.033431586 0.033539608 -0.029265698
000170 7d 7c 0d 3c 1f 74 3b 3d 00 fb 96 bb f1 cd c6 3c
       0.008635637 0.04576504 -0.0046075583 0.024268122
000180 cf 16 e2 3c 2d 5e b2 3d 66 d1 07 3d 75 bd 8a 3d
       0.027598767 0.08709369 0.033158682 0.06774417
000190 bf 22 1f 3c c3 55 8d bd cc d4 8d 3d f9 f5 e4 ba
       0.009712874 -0.069011234 0.069253534 -0.0017468325
0001a0 8b 15 ff 3c e0 5d 0a 3d 1e 91 bf bc 80 d8 92 bd
       0.031138202 0.033780932 -0.023384627 -0.071702
0001b0 64 bb 2c 3d 5a 4b c9 bc e1 ca 8b 3c eb bc 8f 3c
       0.042170897 -0.024572063 0.017064514 0.017546138
0001c0 b0 01 7c bc 59 68 d8 3b 79 d2 b3 bc ac b4 86 3d
       -0.015381262 0.006604236 -0.021950947 0.06577429
0001d0 86 6d 9e bd dd 53 3f 3d e4 b5 c0 3b 31 2c 60 bd
       -0.07735734 0.046710838 0.005881058 -0.054729644
0001e0 a9 f1 8c 3d ad 1b 9e bc 11 8e 85 3d 4a 8f 8f bd
       0.068820305 -0.019300306 0.06521238 -0.07009752
0001f0 1b 50 82 3c 31 dd ae 3c fe 8d 17 3d c9 4c b9 3d
       0.015907338 0.021345707 0.03700065 0.09047849
000200 84 3d 4f 3c 29 fc b1 bd bf 9c c2 3d 72 d6 2a 3c
       0.012648944 -0.08690674 0.09502553 0.010427104
000210 ed 34 49 bd 73 a7 04 bd 16 f0 a7 ba e3 b0 51 3d
       -0.04912274 -0.032386255 -0.001281264 0.051194083
000220 14 55 ab bb 17 63 8e 3d 6b 48 9c 3d ad 6a 84 bd
       -0.005228648 0.06952494 0.07631 -0.06465659
000230 86 55 c2 bd a5 4b 63 3d 11 29 f5 bc 79 c4 14 bd
       -0.094889686 0.055492062 -0.029926809 -0.036320183
000240 90 e9 11 3c 78 d5 a1 3d 0c bf 7d bd ee f4 90 3d
       0.008905783 0.07902044 -0.061949775 0.07077967
000250 0c 0b 87 3d 79 12 92 3d 12 3d 9f 3d 8e 69 b2 bd
       0.06593904 0.0713243 0.0777532 -0.08711539
000260 cf 5f d3 bd 3f e9 4a 3d 11 5e a9 3c 30 3d 72 bc
       -0.103210084 0.049538847 0.020674737 -0.014785096
000270 86 93 1b bd 54 31 11 3c 28 2f 11 bd 73 1f 83 bc
       -0.037982486 0.008861858 -0.035445362 -0.016006207
000280 16 65 d6 bc cd 24 2f 3d 66 87 96 3d b3 e8 a6 3d
       -0.026171248 0.042759705 0.07350044 0.081498526
000290 8e 90 45 bd 64 d7 2d bd 2d fa 3b bd 56 3c c3 bd
       -0.04823356 -0.04244174 -0.045892883 -0.095329925
0002a0 b0 4b a4 3d e9 1e 7d bd 18 89 82 bc d0 a7 25 3d
       0.08022249 -0.061797056 -0.015934512 0.04044324
0002b0 7e 6d 9b bd e2 11 bf bd 51 ee 77 bd c8 65 77 bc
       -0.07589243 -0.09329583 -0.06053001 -0.01509995
0002c0 7e 12 40 3c 4a 3a 9f bc bf 9b 87 bc 7b 3e e9 bb
       0.011723159 -0.019436974 -0.016553758 -0.007118044
0002d0 30 67 74 3d f7 6b 8b bd d4 7e 46 3c 46 c0 b3 ba
       0.05966872 -0.06807702 0.012115199 -0.0013713918
0002e0 19 b9 9b bd 2e 22 b1 bd 42 0b 10 3d c9 a3 b0 bd
       -0.07603664 -0.086490974 0.035166986 -0.086249895
0002f0 f9 7e 8b bc a9 78 8b bc 03 59 a4 3d 6b 88 a5 3d
       -0.017028319 -0.017025309 0.0802479 0.0808266
000300 34 96 3b bd b4 25 7c 3d 64 23 a0 3d bd f3 b1 3c
       -0.04579754 0.061559394 0.0781925 0.021722669
000310 18 c8 f1 3b a0 54 6e bd 5f ce cc 3c ca 63 79 bd
       0.0073785894 -0.058186173 0.02500075 -0.060886182
000320 33 df 8f 3d cf 14 ac 3d bd f3 b8 bc 15 fb 81 3d
       0.07024994 0.084024064 -0.022577161 0.06346718
000330 39 b4 00 bd 1d 22 b1 3d ab 33 11 3d 57 1c b0 3d
       -0.031421874 0.08649085 0.035449665 0.085991554
000340 8f 3d c1 bd d0 48 d3 bd 9d f7 ad 3d 26 a8 8b bd
       -0.094355695 -0.10316622 0.08494494 -0.06819181
000350 93 37 ac 3d 5b 0c 5b bd 9b 57 01 3d 45 79 db bc
       0.084090374 -0.05347858 0.031577688 -0.026791224
000360 e2 ce 2f bc 13 10 0a bd 06 da 8b bd 80 ed 88 3c
       -0.010730477 -0.033706736 -0.06828694 0.016714811
000370 6b 5e 05 3d 2a b6 ae 3d f7 ba 30 bd a2 da 5e bd
       0.032560747 0.08530839 -0.043147054 -0.054407723
000380 47 a6 ad bd fe 48 6c bd 0d bd 81 bd ac 17 8b 3d
       -0.084789805 -0.0576868 -0.06334887 0.067916244
000390 eb 77 03 3d 0a ca 3a 3d 22 44 3f bd ce b2 70 3d
       0.032096785 0.045602836 -0.046695836 0.05876427
0003a0 ca 53 b5 3d 50 89 17 bd cc 47 69 3c 44 64 89 3d
       0.08853872 -0.036996186 0.014238309 0.06708577
0003b0 9a 20 2e bd d9 5c 1c 3c 3f f7 84 3d b5 b5 7b bd
       -0.04251156 0.009543621 0.06492471 -0.061452586
0003c0 3e 7c fe bc 54 66 c9 3d 60 e7 0f bd 71 55 49 bd
       -0.031065103 0.09833971 -0.035132766 -0.04915375
0003d0 56 76 12 bd cf ce a7 bc a2 2f 89 3d 06 d8 f6 bc
       -0.035757385 -0.020484356 0.06698538 -0.030132305
0003e0 94 81 fd 3c 55 8c 91 bd d3 92 3b 3d 7e fb ed bc
       0.030945577 -0.07106844 0.04579432 -0.029050585
0003f0 1b 87 1e bd 0c 9d b4 3d c9 b0 96 3d a7 75 2d 3d
       -0.038703065 0.08819017 0.07357938 0.04234853

lstm.weight_hh_l1 f4 [512, 128]
000000 68 01 f8 bb f5 e3 73 bc 13 99 8e bc b0 a8 ea bc
       -0.007568527 -0.014885892 -0.017406976 -0.02864489
000010 5c 24 97 bd 59 2e fb bc 8a 99 b1 3c 05 96 66 3d
       -0.07379982 -0.030661749 0.021679658 0.056295414
000020 4f 6e ab 3d 29 a4 a1 3d 3c 51 0a bd fb 39 5e 3d
       0.08370649 0.07892639 -0.033768877 0.054254513
000030 35 a2 aa bc 35 01 88 3c 5b 3d a6 3d eb a7 36 3d
       -0.0208293 0.016602138 0.081171714 0.044593733
000040 8c 17 a7 3d 59 84 54 3d e4 3e bd bc 4b a2 aa 3d
       0.08158788 0.05188403 -0.023101278 0.08331736
000050 45 bc 8d bb 11 8f 65 3d 50 f0 77 bd 57 de dc 3a
       -0.004325422 0.056044642 -0.060531914 0.001685093
000060 b5 07 8e bd 6c 83 64 3a 15 dc a9 3d 0e 12 87 3d
       -0.06935064 0.0008717093 0.082939304 0.065952405
000070 75 38 49 3d 20 a4 b5 bd 02 75 a7 bd 2c 3d b1 bd
       0.049126107 -0.08869195 -0.08176614 -0.08654246
000080 b7 8a 96 bd 84 76 28 3d 23 07 93 3c 3f fe aa 3d
       -0.073506765 0.04112865 0.017947739 0.08349275
000090 f3 b6 45 3d db 2b a1 bd 97 8e 60 bd f2 95 9a 3d
       0.048270177 -0.07869693 -0.054823484 0.07548131
0000a0 ab cf 45 bd 9c 87 0c bd 76 33 0a bd 1a 32 90 3d
       -0.04829375 -0.034309015 -0.033740483 0.07040806
0000b0 7c 74 8d 3d 2b 3d 4b bd 71 32 92 bc 37 df bf 3c
       0.06906983 -0.04961888 -0.017846318 0.023421867
0000c0 d7 09 8e 3b a1 40 88 3d 98 52 79 3d 15 5f 4e bb
       0.004334669 0.06652952 0.060869783 -0.0031489779
0000d0 95 98 b9 bc 80 58 21 bc b1 96 68 bd 63 63 3d 3b
       -0.022655765 -0.00984776 -0.056784336 0.002889835
0000e0 f8 38 f8 3c 4c 66 33 3d 52 9a a0 3d e8 0c 9f 3d
       0.030300602 0.04379873 0.07841934 0.077661335
0000f0 cc a8 4a 3d 8c 7d b3 3d d0 6d cf bc 7e cf 34 bb
       0.049477383 0.087641805 -0.025320917 -0.0027589495
000100 31 b9 ee 3c 69 64 ba 3d 27 d8 27 bd 3a 53 9d 3d
       0.02914104 0.09101183 -0.040977623 0.0768189
000110 f1 62 3b 3d 88 91 1e 3d fd 19 73 bd 11 3c d2 3d
       0.045748655 0.03871301 -0.059350956 0.10265363
000120 a3 7a 26 bd e9 85 15 bd 2a 18 97 bd 17 0b 9e bd
       -0.0406443 -0.03650466 -0.07377656 -0.07716959
000130 05 6f 61 bc c1 f3 09 3c dc b9 cd 3d 5d 1e 9a bd
       -0.013759379 0.008419932 0.100452155 -0.075253226
000140 42 6f 15 bd f5 32 46 3d cc 8d c0 bd 12 4d 51 3d
       -0.036483057 0.04838844 -0.094020456 0.05109889
000150 28 00 db 3c 44 15 3e 3d c0 fc 6e 3d 90 3b ab bc
       0.026733473 0.046407 0.05834651 -0.020902425
000160 73 3f c4 3b ee ce 3e 3b 87 e0 29 bc 18 80 22 3d
       0.005989009 0.002911504 -0.010368473 0.03967294
000170 16 77 3e 3d c9 72 6a 3b 91 29 58 bd 45 92 c9 3d
       0.046500288 0.0035773984 -0.052774016 0.09842352
000180 4c 6b 28 3d bf 44 53 bd 46 b8 da 3c ed 4f 94 3d
       0.04111795 -0.051579233 0.026699197 0.07241807
000190 46 56 5c 3d fa 02 6a 3b 6c 35 12 3d 81 2c f6 3c
       0.053793214 0.003570734 0.03569548 0.030050518
0001a0 01 6e 9a bc e1 02 e6 3c 04 12 85 b9 7f c0 bb bd
       -0.018851282 0.028077545 -0.0002538116 -0.09167575
0001b0 cd 8e 8d bd f9 35 76 bd c3 4b 60 3d e0 b8 b9 3d
       -0.06912003 -0.060110066 0.054759752 0.09068465
0001c0 79 0f 38 bd cc 60 8f bd 64 92 b0 bd e4 eb e9 bc
       -0.04493663 -0.070008844 -0.08621672 -0.028554864
0001d0 0a 34 5a 3d 0c be 71 bd da 60 ff 3c 3c b1 f8 3c
       0.053272285 -0.059019133 0.031174112 0.03035795
0001e0 ba 90 c3 3c a2 78 bf bc 08 c2 8d bd 92 d5 8c 3d
       0.023872722 -0.023372952 -0.06921774 0.06876673
0001f0 95 de 20 3d 7a 45 be bd e9 a5 d8 bc 95 d8 93 bd
       0.03927477 -0.09290595 -0.0264463 -0.07219044
000200 a3 d3 12 3d 2a 86 10 3d 24 44 61 3d fb ca 51 bd
       0.035846364 0.0352842 0.054996625 -0.051218968
000210 39 80 89 3d c3 b7 0f 3d 27 ee dc 3b 4f e0 ab 3d
       0.0671391 0.03508736 0.006742257 0.08392393
000220 00 88 d1 bc 5e a0 e7 bc 13 4b 61 3b 4a ea aa 3d
       -0.025577545 -0.028274711 0.0034377023 0.08345468
000230 94 3a 47 3d 62 ed b0 3d 5c 63 3c bc e2 28 98 bd
       0.04863985 0.08639027 -0.0114982985 -0.07429673
000240 ba f4 a7 3d e7 8b 26 bd 36 9d 05 bc c8 e7 68 3d
       0.08200975 -0.040660765 -0.008155158 0.05686167
000250 58 f2 6c bd 09 7c 8f 3d d2 88 0f 3d 52 88 65 3d
       -0.057848305 0.0700608 0.03504259 0.05603821
000260 68 7a bc 3d d8 64 8b bc 47 f4 99 3c d0 cc c4 3d
       0.09203035 -0.01701586 0.018793238 0.096093774
000270 01 43 bc bd c8 bd 9d bd 01 5d 41 bc 7d 9b 05 3d
       -0.091924675 -0.077022135 -0.011801959 0.03261899
000280 2c 33 1e 3d 69 e1 3c bd 4f 21 a4 3d f1 f7 4f 3d
       0.03862302 -0.046113405 0.080141656 0.050773565
000290 00 1b cf 3c ff 26 9c 3b 49 ec 34 bc 16 2c 7b bd
       0.02528143 0.004765391 -0.011042663 -0.06132134
0002a0 c9 e3 d8 3d c4 dc aa 3d 2f e7 c3 bc 38 ac c3 3c
       0.105903216 0.08342889 -0.023913948 0.023885831
0002b0 9c 43 b6 3d a1 f6 63 3d 73 d6 92 bc 3b d6 93 bd
       0.08899614 0.055655126 -0.017924523 -0.072185956
0002c0 d2 2f 11 3c bf 50 33 3d b6 44 0c bd 70 2b ac bd
       0.008861499 0.043778177 -0.034245215 -0.084067225
0002d0 c5 be 69 3d 94 bc a3 3d 57 db 79 ba 3d ef 9c bd
       0.057066698 0.07994953 -0.00095312804 -0.076628186
0002e0 c6 b2 a1 3d 71 8c cc 3d 84 87 9b 3d ea af 5a 3a
       0.078954265 0.099877246 0.07594207 0.0008342253
0002f0 fa c4 94 bd 24 7a bd bb ac be a5 3d dc a1 10 ba
       -0.07264133 -0.0057823826 0.080930084 -0.0005517283
000300 d4 4d 87 bd c3 ac 63 3d 2f 23 c3 bd cd c9 a3 3d
       -0.066066414 0.05558468 -0.09528195 0.07997475
000310 3b 11 ac 3d 4a bf 34 3d 56 f3 61 3d 6d 4f a3 bb
       0.08401724 0.04412774 0.055163704 -0.0049838335
000320 2a 4f b5 bd 6d c1 97 3c 14 34 f4 3c ef ba 76 3d
       -0.0885299 0.01852485 0.029809989 0.060236868
000330 3c e7 a4 bd 3a 8c 8c bc 44 80 ee 3c 85 ba 80 3d
       -0.08051917 -0.017156709 0.029113896 0.06285576
000340 68 5b 97 bd cd 3e 38 3d 49 0e 24 3d b0 ff 75 3d
       -0.07390481 0.044981766 0.040052686 0.060058296
000350 49 aa 2b 3c 3c 1c 8a 3b 5b 44 67 3c 46 bd 8c bd
       0.010477611 0.0042147916 0.014115418 -0.068720385
000360 7c ef ec 3b 9e 96 3f bc e9 c8 08 3d 74 81 09 3d
       0.007230697 -0.011693625 0.033394728 0.03357072
000370 b2 92 84 3b ac a5 de bc 1b 15 85 3d f4 3e 96 3d
       0.0040458078 -0.027178608 0.06498166 0.07336226
000380 e3 04 96 3d ba 3a a1 3d 61 24 b8 bd 98 c2 61 3d
       0.07325151 0.07872529 -0.08991314 0.05511722
000390 c0 fc 92 3d f4 0e 46 bd 31 53 91 bd 59 6c 9f 3d
       0.071771145 -0.048354104 -0.070959456 0.077843376
0003a0 55 ba 66 bd 0e 83 38 bd 42 65 02 3d 69 80 2b bd
       -0.056330044 -0.04504686 0.03183485 -0.04187051
0003b0 0c fa 79 3d 74 bb 34 bd 58 37 49 3d 18 81 76 3d
       0.06102948 -0.04412408 0.049125046 0.060181707
0003c0 2c af be 3d 9c 64 a7 3c d4 e1 a7 3d 96 87 7e 3d
       0.09310755 0.020433716 0.0819737 0.062141024
0003d0 fd 63 e3 3b f3 db 5e 3d 03 1d 73 ba 30 08 28 bd
       0.0069394098 0.05440898 -0.00092740374 -0.041023433
0003e0 df c7 97 3d 48 8f d7 3c ce 28 2d bd 23 3b 53 3c
       0.07411169 0.026313439 -0.042275243 0.012892517
0003f0 9f 94 b1 3d 13 12 11 bd b4 b9 e3 bb 6f ac 6b bd
       0.08670925 -0.035417628 -0.006949628 -0.057537492

lstm.bias_ih_l1 f4 [512]
000000 dd 4b 2f 3c 84 fc b1 3b e9 8d 8a 3c ea 1f 5f 3c
       0.01069924 0.0054317135 0.016913371 0.013618449
000010 25 a5 c9 3b 51 7f 26 3b 29 55 08 bb f3 62 1d 3c
       0.00615372 0.0025405476 -0.0020802713 0.009606111
000020 92 75 4b 3c 33 10 63 3c 74 4b f1 ba 3b 84 89 3c
       0.012418168 0.013858843 -0.0018409328 0.016786685
000030 93 ca 10 3c fc fe 50 3c d9 1f 34 3c f3 ae 21 bb
       0.00883736 0.0127561055 0.010993921 -0.0024670928
000040 3d 8e 1f 3c 2c 42 66 3c 9f 35 39 3c 32 c0 b1 3b
       0.009738502 0.014053863 0.011304288 0.005424523
000050 24 11 5e 3c 62 1a 03 3c 72 51 58 ba d4 3b a5 3b
       0.013553891 0.008001896 -0.00082518824 0.0050425325
000060 3c 1b 00 3c b9 4b 43 3c 7b f7 dc 3b 00 84 1e 3c
       0.007818993 0.011919909 0.006743369 0.009675026
000070 e6 db 35 3c cb 66 0a 3c 52 73 25 bb 4e bb 56 3c
       0.011099791 0.008447359 -0.0025245738 0.01310618
000080 0f d9 85 3c ad 96 24 3c 73 24 0e 3c 40 1e 0e 3c
       0.016338853 0.0100456895 0.008675682 0.008674204
000090 bc 2e 43 3c a5 73 35 3c 53 b4 42 3c 9b 16 12 3c
       0.011912998 0.011074935 0.011883813 0.008916522
0000a0 a4 96 23 3c b9 fa 8c 3b 20 36 91 3b 4d aa 3c 3c
       0.009984646 0.0043023494 0.004431501 0.011515212
0000b0 e2 88 3a 3c 3c e8 bd 3b dd 84 4e 3c 84 8c 43 3c
       0.0113851745 0.0057955068 0.012604919 0.011935357
0000c0 15 ed 16 3c 16 e7 b0 3b 3f 81 13 3c d0 75 25 3c
       0.009211798 0.0053986413 0.009002983 0.0100988895
0000d0 c9 4a ad 3b 12 05 14 3b 89 e9 0c 3b bb 70 27 3c
       0.005288456 0.002258603 0.0021501502 0.010219748
0000e0 f6 40 fc 3b 7e 57 a0 3b ab 5b f7 3b 48 f0 b3 3b
       0.0076981736 0.0048932424 0.0075487695 0.0054912902
0000f0 41 6d 69 3c fc 33 46 3c c3 03 0f 3c 8c f1 98 3b
       0.01424724 0.012097355 0.008728924 0.0046674665
000100 58 94 bf 3b cf d8 1d 3c 8c 09 8e 3b 2e a1 39 3c
       0.0058465414 0.009634211 0.004334634 0.011329932
000110 fc 84 3b 3c 28 ff a8 3b f3 1e 52 3b 24 f4 17 3c
       0.01144528 0.00515737 0.0032061904 0.009274516
000120 90 9d a4 3b c4 91 3b 3b 83 2c de 3a 9f a6 46 3c
       0.0050236657 0.0028620819 0.0016950521 0.0121246865
000130 18 6e f3 3b 60 0f 3d 3c 75 98 14 3c 00 11 6e 3c
       0.0074288957 0.01153931 0.009069552 0.01453042
000140 a1 0e 0d 3c fe 53 06 3c fe 1e 00 3c 9b 4c ff 3b
       0.008609445 0.008198736 0.007819889 0.0077911145
000150 8f 82 1c 3c e3 e6 73 3c 6b 18 8b 3c e3 57 6d 3c
       0.009552612 0.014886591 0.016979417 0.014486286
000160 5a 5a b6 3b 6c ff 82 3b 2e ad e3 3b 38 c2 fb 3b
       0.00556497 0.003997734 0.006948135 0.007683065
000170 a8 07 1c 3c ef 4e 5d 3c d6 96 01 3c 7d 64 8b 3b
       0.00952331 0.013507589 0.007909497 0.0042539225
000180 11 06 29 3c f9 b8 27 bb 0e f9 bf 3b 88 c8 47 3c
       0.010316388 -0.002559243 0.005858547 0.0121938065
000190 58 e9 ad 3b aa 80 e2 3a 9d c8 25 3c 4c 77 29 3b
       0.0053073578 0.0017280777 0.010118631 0.002585846
0001a0 e4 a1 1e 3c 21 1d 36 3c fe e3 a7 3b 98 4a 28 3c
       0.009682152 0.011115343 0.0051236143 0.010271691
0001b0 53 4d 1a 3c ce 5b 6b 3c 27 15 f9 3b 16 33 53 3c
       0.00941785 0.01436515 0.0076013985 0.012890598
0001c0 79 44 2f 3c f5 69 80 3b 45 dc aa 3b e0 0a 77 3c
       0.0106974775 0.003918881 0.0052142465 0.015078276
0001d0 96 34 eb 3b 45 b3 42 38 67 3b 74 3c e4 9c 9b bb
       0.0071778996 4.6420162e-05 0.014906741 -0.0047489274
0001e0 2d 5a 18 3c d4 bf a2 3b 9f 86 44 3c f2 e8 33 ba
       0.009298843 0.0049667154 0.011994987 -0.00068630197
0001f0 c9 cf 57 3b f1 63 17 3c 17 60 34 3c 1c 5c b6 3b
       0.0032930246 0.0092401365 0.011009238 0.0055651795
000200 64 e7 24 3c ef 2e 9c 3b 45 54 93 3c 45 a5 69 3c
       0.010064933 0.004766337 0.017984519 0.014260595
000210 ee 7f 9f 3a 55 c5 f0 3b c3 4c fb ba dd a7 16 3c
       0.0012168863 0.0073477426 -0.0019172657 0.009195295
000220 0f 92 51 3c f5 05 78 3c cb 20 2f 3a 25 95 78 3c
       0.012791171 0.015138139 0.0006680607 0.015172278
000230 b9 94 21 3c 03 86 82 3c 0c f3 55 3c 30 79 30 bb
       0.009862118 0.015933042 0.013058435 -0.0026927702
000240 6b d7 29 3c 0a 1d 59 3c ac ac 3d 3c 2c cc 47 3b
       0.010366301 0.013251552 0.011576813 0.0030486686
000250 15 16 47 3c f5 a4 d4 3b 72 33 9d b9 53 a7 8b 3b
       0.012151261 0.006489391 -0.00029983703 0.00426189
000260 0f a8 ba 3b 73 61 39 3c 57 29 bc 3b c2 28 15 3c
       0.0056963037 0.011314738 0.005742233 0.009103956
000270 1a d1 35 3c 40 1c bc 3b 50 bf 1c bb 7a e6 4d 3c
       0.011097217 0.0057406723 -0.0023917742 0.012567157
000280 1f d6 77 3c c0 9f 39 3c 9e 44 22 3c a1 d4 fe 3b
       0.015126734 0.011329591 0.009904055 0.007776812
000290 1e a7 4a 3c 43 22 31 3c 76 97 28 3c 0e af 02 3c
       0.012368945 0.010811391 0.010290017 0.007976307
0002a0 34 8a 18 3c 4b b6 ac 3b 7b 11 e6 39 96 7c 3a 3c
       0.009310294 0.0052707545 0.00043882043 0.011382243
0002b0 ec 83 2c 3c 7d af 99 3b ae 99 2b 3c 22 02 43 3c
       0.0105294995 0.0046901093 0.010473652 0.011902364
0002c0 d3 58 05 3c 9d 1a ff 3b 72 57 13 3c 9b be 17 3c
       0.008138853 0.007785155 0.008993017 0.0092617525
0002d0 79 47 e1 3b 8c 3d 86 3a 80 b2 1e 3b a0 42 20 3c
       0.0068749753 0.0010241731 0.002421528 0.00978151
0002e0 d0 54 aa 3b 5f f3 db 3b 0d f0 1b 3c a5 89 24 3b
       0.0051980987 0.0067123617 0.009517682 0.0025106457
0002f0 66 99 65 3c 87 ad 4a 3c 6e 59 1b 3c ce 0f 31 3b
       0.014013624 0.012370474 0.009481771 0.0027017477
000300 5d 9b 8e 3b de e0 14 3c b0 a1 b5 3b f5 bd 3e 3c
       0.004352017 0.009086816 0.0055429563 0.011641969
000310 a9 d3 3f 3c e3 91 f1 3b aa d2 7e 3b 02 a9 0b 3c
       0.011708179 0.0073721274 0.003888289 0.008524181
000320 29 d4 cb 3a a8 9f 43 3b 59 84 6d 3b 68 f8 31 3c
       0.00155509 0.0029849801 0.0036242215 0.010862447
000330 5a b1 11 3c b7 61 28 3c 2c b9 c0 3b bc ba 74 3c
       0.008892382 0.010277203 0.005881449 0.014937099
000340 f8 ac 02 3c 58 5d 21 3c 02 db 06 3c db 2a 03 3c
       0.007975809 0.009848915 0.0082309265 0.008005823
000350 73 fb 1e 3c 03 d0 72 3c 02 60 6e 3c c0 e6 5e 3c
       0.009703505 0.014820102 0.014549257 0.01360482
000360 90 8c 41 3b 31 f2 5f 3b 01 33 e9 3b 4d 88 84 3b
       0.0029533245 0.0034171457 0.007116676 0.0040445686
000370 b2 d5 24 3c 3b 4a 63 3c 95 23 92 3b fc 80 8d 3b
       0.010060715 0.013872678 0.004459808 0.0043183547
000380 8e 73 3b 3c 53 22 e3 bb 8f 54 42 3b d8 b4 60 3c
       0.011441125 -0.006931582 0.0029652452 0.0137149915
000390 b9 44 58 3b b3 63 1f ba 79 52 20 3c 36 c0 f9 ba
       0.0032999946 -0.0006080225 0.009785288 -0.0019054476
0003a0 32 1a 24 3c 3e 37 1d 3c 04 0d 8a 3b da cf 33 3c
       0.010016011 0.00959569 0.0042129774 0.010974849
0003b0 fb 96 28 3c 24 e6 7a 3c d8 2b 9e 3b 99 08 de 3b
       0.010289903 0.015313659 0.004827004 0.0067759273
0003c0 60 18 0c 3c 4a ad 71 3b 26 2e f8 3a 0a 82 86 3c
       0.008550733 0.003687697 0.0018934652 0.01641943
0003d0 44 03 0f 3c d7 b6 47 ba 73 79 88 3c 3d e9 a3 bb
       0.008728806 -0.0007618493 0.016659474 -0.0050021694
0003e0 b4 dd 1d 3c 41 78 1c 3c 82 a8 3a 3c cb 29 75 39
       0.009635378 0.009550155 0.011392714 0.0002338059
0003f0 18 f2 73 38 a3 48 0a 3c da e7 1f 3c 1f 5a c6 3b
       5.8161182e-05 0.0084401695 0.009759868 0.0060532237
