models/stock_only/checkpoint/AMDTCX.pth (torch, 874243 bytes, 11 tensors)

lstm.weight_ih_l0 f4 [512, 5]
-0.054502495 0.045006745 -0.041160934 -0.037688136 -0.041904338 -0.031889092 -0.09533448 0.052887972
0.024960687 -0.054721545 0.012322653 0.0020843619 -0.044890027 -0.058930907 0.10774757 0.12123492
0.04879413 -0.043695703 0.03331725 -0.104421526 0.010195216 -0.07129166 -0.101546556 0.027182942
-0.015812427 0.059288185 0.090872675 0.029271243 0.06385069 0.04938896 0.09908472 0.04274713
-0.035054725 0.033563465 -0.05987942 0.00053926965 0.097496636 -0.09336508 -0.09466559 0.10864589
0.06933283 0.08081616 -0.017518418 0.0009508745 0.05473282 -0.0025460003 -0.0127145555 -0.027598053
-0.071369626 0.063934304 0.067303725 -0.08659475 0.0712764 0.07427211 0.056517873 0.079902805
0.1181817 -0.09439149 -0.009974192 0.0637004 -0.009523538 -0.045501858 -0.056245863 -0.032303005
0.022283252 -0.04012784 -0.012090765 -0.0905065 -0.08527231 0.07821494 -0.101506874 0.008118846
0.100750364 -0.07690502 0.041578848 0.020776715 0.04552372 0.11103085 -0.08919882 -0.009095414
-0.01858306 0.040375676 -0.058405485 0.05302899 0.03413743 -0.013676379 -0.07004271 -0.08233051
-0.018420547 0.0002931721 -0.00924418 -0.002887588 -0.050566245 -0.039852377 0.08541278 -0.06997041
0.103826225 -0.0032256553 -0.027362254 -0.07580753 -0.038197406 0.060449503 0.016680256 -0.0637026
0.033766232 -0.09462369 -0.02445336 0.11771012 -0.02987408 0.05494829 -0.06821215 -0.05961661
-0.010832876 -0.08785795 0.09342281 -0.018170852 0.04673309 0.029121235 0.077471875 0.05650057
-0.008341394 0.06483378 0.10102915 -0.0063195024 -0.004646882 0.10801267 0.088751525 0.073496506
-0.040725145 -0.012174132 0.10747929 -0.048095237 0.035603788 -0.061633203 0.03076308 -0.04215397
0.041711964 -0.052049395 -0.06817994 -0.07175488 0.019458426 0.026929146 -0.07248784 0.024126045
0.07409261 -0.06120082 -0.0125884395 -0.10849181 0.019583145 0.034300398 0.044507675 0.019772792
0.029855749 0.040931493 0.07629228 0.0899436 -0.08988443 -0.05833595 0.083473 0.056238074
0.08053048 0.08330531 -0.03207284 -0.07304791 -0.0586781 0.0017965061 -0.0055476883 0.013864175
-0.0023989615 -0.12526844 0.022391625 -0.016103191 -0.027163535 0.020651557 0.08049053 -0.09417956
-0.06328677 -0.0019079868 -0.014072986 0.09185376 0.020391187 0.07271389 -0.0251384 -0.028494969
-0.102295205 0.06366035 0.119853556 0.05180612 0.06980357 0.06700597 0.01777666 -0.07819171
0.047825143 0.07329152 -0.112263694 0.099117406 -0.093732975 0.010749257 -0.042922225 0.018722953
-0.11831684 0.09629357 -0.012567846 -0.0003229192 0.06127964 -0.049011137 -0.042009447 -0.06793079
-0.078117155 -0.092984125 -0.029481472 0.033443682 -0.05200987 -0.07138623 0.06542214 0.0161141
0.07693293 0.09596259 -0.02107222 -0.101129524 -0.084656104 0.018447047 0.035399318 0.08007811
-0.11836459 0.005045494 0.014598791 0.107202314 -0.0916241 0.06929945 0.102583006 -0.06350453
0.018409155 -0.043049328 -0.054509945 -0.021414995 -0.09735147 -0.08347369 -0.0645888 -0.072669886
0.12555952 0.038325176 0.08615581 0.060806617 0.063249096 0.04827959 -0.092742294 -0.042087838
0.043045197 0.01869365 -0.004572821 0.0070482604 0.029636307 -0.08027126 -0.005602079 -0.03727697
00000000: 023e 5fbd fe58 383d 5e98 28bd e05e 1abd
00000010: e2a3 2bbd 239e 02bd b93e c3bd 0fa1 583d
00000020: 5b7a cc3c b323 60bd f4e4 493c ca99 083b
00000030: 9bde 37bd 8961 71bd c2aa dc3d 044a f83d
00000040: 5bdc 473d 44fa 32bd ab77 083d f4da d5bd
00000050: d609 273c 5d01 92bd a4f7 cfbd c3ae de3c
00000060: 1089 81bc 2bd8 723d 741b ba3d 3fca ef3c
00000070: 27c4 823d 144c 4a3d eeec ca3d 9d17 2f3d
00000080: 8b95 0fbd d879 093d 1f44 75bd c65d 0d3a
00000090: 51ac c73d 3136 bfbd 08e0 c1bd bd81 de3d
000000a0: 5ffe 8d3d f182 a53d c982 8fbc 1c44 793a
000000b0: 852f 603d ccda 26bb b650 50bc 5015 e2bc
000000c0: 3d2a 92bd fdef 823d 89d6 893d 9758 b1bd
000000d0: 5cf9 913d fa1b 983d 497f 673d 15a4 a33d
000000e0: 3f09 f23d 5350 c1bd cb6a 23bc 5b75 823d
000000f0: 9d08 1cbc 2860 3abd 1062 66bd 2850 04bd
00000100: 5e8b b63c 175d 24bd 5818 46bc 795b b9bd
00000110: 40a3 aebd 282f a03d d6e2 cfbd e904 053c
00000120: 3556 ce3d 6180 9dbd 954e 2a3d ee33 aa3c
00000130: 1577 3a3d 2464 e33d dfad b6bd ee04 15bc
00000140: 803b 98bc f760 253d 973a 6fbd ed34 593d
00000150: b1d3 0b3d e412 60bc 8d72 8fbd e69c a8bd
00000160: b0e6 96bc e5b4 9939 e774 17bc b03d 3dbb
00000170: 8d1e 4fbd 3f3c 23bd e5ec ae3d a54c 8fbd
00000180: d8a2 d43d 8465 53bb ce26 e0bc fa40 9bbd
00000190: e274 1cbd e699 773d 08a5 883c 8276 82bd
000001a0: 764e 0a3d 11ca c1bd 6a52 c8bc 0112 f13d
000001b0: 7dba f4bc 7511 613d d0b2 8bbd 8c30 74bd
000001c0: 607c 31bc deee b3bd 7554 bf3d 0adb 94bc
000001d0: 326b 3f3d a88f ee3c 93a9 9e3d 246d 673d
000001e0: 58aa 08bc 93c7 843d 5fe8 ce3d d413 cfbb
000001f0: df44 98bb bf35 dd3d 5cc3 b53d 5685 963d
00000200: 69cf 26bd 0376 47bc 1a1e dc3d 83ff 44bd
00000210: 47d5 113d 1973 7cbd db02 fc3c a4a9 2cbd
00000220: 2ada 2a3d bf31 55bd eda1 8bbd 39f4 92bd
00000230: 4767 9f3c 839a dc3c 8174 94bd fca3 c53c
00000240: debd 973d b6ad 7abd be3f 4ebc f430 debd
00000250: d56c a03c 937e 0c3d ae4d 363d 8dfa a13c
00000260: 0b94 f43c c8a7 273d 203f 9c3d 5a34 b83d
00000270: 5415 b8bd adf1 6ebd e4f3 aa3d e559 663d
00000280: 2aed a43d f99b aa3d cf5e 03bd 259a 95bd
00000290: 7358 70bd be78 eb3a 62c9 b5bb 9126 633c
000002a0: e537 1dbb 5f46 00be a46e b73c d7ea 83bc
000002b0: 1086 debc 742d a93c 38d8 a43d 37e1 c0bd
000002c0: 7e9c 81bd 6a15 faba 6292 66bc d31d bc3d
000002d0: 6b0b a73c 05eb 943d 0cef cdbc 486e e9bc
000002e0: 2680 d1bd 5c60 823d c875 f53d a732 543d
000002f0: 2df5 8e3d 6d3a 893d 5ca0 913c fa22 a0bd
00000300: 4ce4 433d dd19 963d 82ea e5bd 11fe ca3d
00000310: 13f7 bfbd a71d 303c 37cf 2fbd e160 993c
00000320: 1950 f2bd 9035 c53d 5ee9 4dbc 7b4d a9b9
00000330: 5c00 7b3d e7bf 48bd 1912 2cbd 4c1f 8bbd
00000340: e3fb 9fbd 766e bebd 2183 f1bc 3efc 083d
00000350: 4d08 55bd f232 92bd 0bfc 853d b801 843c
00000360: 038f 9d3d 0988 c43d a69f acbc ff1c cfbd
00000370: 2e60 adbd 431e 973c e0fe 103d feff a33d
00000380: 2269 f2bd ac54 a53b c42f 6f3c e38c db3d
00000390: 6ba5 bbbd dfec 8d3d 0a17 d23d aa0e 82bd
000003a0: ccce 963c 7e54 30bd d245 5fbd 806e afbc
000003b0: 3560 c7bd 41f4 aabd 2247 84bd f3d3 94bd
000003c0: ad92 003e dcfa 1c3d 7572 b03d 5c10 793d
000003d0: be88 813d d2c0 453d acef bdbd 4c64 2cbd
000003e0: 2950 303d 6d23 993c 9ad7 95bb 18f5 e63b
000003f0: d7c7 f23c 4265 a4bd a591 b7bb bcaf 18bd

lstm.weight_hh_l0 f4 [512, 128]
0.074661314 -0.064657755 0.038048003 0.0702128 -0.0128319375 0.009795773 0.033699308 0.07866719
-0.07709112 -0.08863741 0.047249585 0.08931964 -0.026586115 -0.018337715 0.0036533454 0.023268554
-0.08504201 -0.008364713 0.049897633 0.090192676 -0.0042438856 0.0023109573 -0.07535031 0.085018806
-0.04682198 -0.059687924 -0.07820553 0.0049716556 -0.039107446 0.006837842 -0.08268117 -0.05316984
-0.06655932 -0.041249212 0.06635985 -0.054924265 0.013722799 0.049520537 -0.0031086896 0.064893015
-0.039720215 -0.07759238 -0.027792208 -0.06816483 -0.040585637 0.03005758 -0.035804465 0.03455972
-0.04816669 0.0027583046 0.082961686 -0.06507133 0.09420095 -0.07980258 -0.024559654 0.10176614
0.1087283 0.02698939 0.040532142 -0.032094143 -0.05691882 -0.032148033 0.08498285 0.09337606
-0.06832292 0.013837663 -0.019618403 0.06910584 0.08409446 -0.028212607 0.07110817 -0.09121912
0.04226882 0.03918621 -0.040200636 0.06092642 -0.033697788 -0.013432696 -0.039248116 -0.08196594
-0.04643167 0.037798233 0.05704903 0.09527193 0.091593154 0.076813795 -0.095268585 -0.022485003
0.035516888 -0.017364288 0.09217009 0.072984 -0.020936012 -0.023208836 0.014330001 0.019536838
0.03855411 0.08869429 0.029519198 -0.067956194 0.07781025 0.07761599 -0.09377433 -0.04221582
-0.07442423 -0.07887582 -0.028919557 -0.08284846 -0.026027486 -0.06309208 0.008541713 0.010634214
0.0011583662 -0.02217403 -0.109414056 -0.04090017 -0.036272503 0.06964863 -0.040493023 0.058134336
0.010707912 -0.045696594 -0.08377783 -0.0688283 -0.08148767 0.06760504 0.106085606 0.06703733
0.06644356 0.092577204 0.07260434 -0.044698175 -0.034145713 0.07057658 -0.043651436 -0.0717946
0.06639088 0.04748421 0.06905738 -0.05024786 0.091414176 -0.088771895 -0.09147224 0.054548647
-0.042154454 -0.075545795 0.0685995 -0.030378459 -0.00025400778 -0.09343881 -0.011034606 0.06390561
-0.020289553 -0.029823514 -0.09931231 -0.0074711707 0.068379186 -0.08464563 0.07777822 0.064625114
-0.04388611 -0.029438261 0.07434216 0.0062818616 -0.08098112 0.068422265 -0.04947767 -0.040744923
0.036201388 -0.020091688 -0.06926216 -0.06313205 0.016827473 -0.066634744 -0.039431088 0.013675059
0.0681539 0.019410953 -0.020848043 0.037744317 -0.03082775 0.02178612 -0.03157934 -0.077713646
-0.11340617 -0.0075331633 0.021293702 -0.04849292 0.072067 -0.032502323 -0.07606785 -0.038013317
0.041600782 0.027661443 -0.08921726 0.091326125 0.002973605 -0.064931594 -0.024950497 -0.085906066
-0.07050921 -0.014110268 0.0037898186 0.030628925 -0.028513582 -0.036586944 0.015317283 0.061282225
-0.016275838 -0.046118442 -0.0036881787 0.068270035 0.10366598 0.0014197439 -0.057425447 -0.10703986
0.033496905 0.028749127 -0.013286097 -0.09942703 0.06560856 -0.012039861 -0.08818644 0.09667529
0.10178951 0.07255631 -0.083925955 0.03248662 -0.063099615 0.09602997 0.033310942 -0.008871272
0.07384207 -0.0660922 -0.006580057 -0.01793128 -0.07557151 0.0077250986 0.07942148 0.06096138
0.07325031 0.06616789 0.059635434 -0.073013894 0.063467145 -0.046864927 0.012489317 -0.0636547
0.076284885 -0.020388927 -0.074445136 -0.080987975 -0.06446958 -0.0963052 0.101791695 0.016742319
00000000: 08e8 983d 496b 84bd 39d8 1b3d bacb 8f3d
00000010: 0c3d 52bc 737e 203c 4908 0a3d 441c a13d
00000020: f3e1 9dbd 8887 b5bd c888 413d 37ed b63d
00000030: 20cb d9bc fa38 96bc f76c 6f3b b29d be3c
00000040: 812a aebd 260c 09bc 7661 4c3d f0b6 b83d
00000050: 4b10 8bbb 6e73 173b 4351 9abd 571e ae3d
00000060: 68c8 3fbd 537b 74bd 392a a0bd 45e9 a23b
00000070: 212f 20bd fa0f e03b bf54 a9bd 9ec8 59bd
00000080: 4150 88bd eff4 28bd ace7 873d 44f8 60bd
00000090: 97d5 603c 0cd6 4a3d 28bb 4bbb a1e6 843d
000000a0: aab1 22bd c1e8 9ebd 7cac e3bc 019a 8bbd
000000b0: 203d 26bd 503b f63c b4a7 12bd 7e8e 0d3d
000000c0: 6f4a 45bd acc4 343b d1e7 a93d 1e44 85bd
000000d0: 6dec c03d 896f a3bd 5431 c9bc c46a d03d
000000e0: f1ac de3d da18 dd3c 0805 263d 2675 03bd
000000f0: b523 69bd a8ad 03bd 7d0b ae3d f33b bf3d
00000100: e3ec 8bbd 5eb7 623c c6b6 a0bc 5d87 8d3d
00000110: b739 ac3d 201e e7bc 29a1 913d 17d1 babd
00000120: 1222 2d3d b881 203d 6ca9 24bd fb8d 793d
00000130: b106 0abd d014 5cbc a2c2 20bd c2dd a7bd
00000140: 232f 3ebd 52d2 1a3d 3eac 693d ee1d c33d
00000150: 3195 bb3d 8d50 9d3d 2d1c c3bd 7832 b8bc
00000160: 287a 113d 8d3f 8ebc acc3 bc3d a378 953d
00000170: 0082 abbc 7520 bebc 61c8 6a3c b80b a03c
00000180: eaea 1d3d 5aa5 b53d 3fd2 f13c 9e2c 8bbd
00000190: fb5a 9f3d 22f5 9e3d c20c c0bd 7fea 2cbd
000001a0: bb6b 98bd a589 a1bd b5e8 ecbc 74ac a9bd
000001b0: 9837 d5bc 6c36 81bd 8af2 0b3c 203b 2e3c
000001c0: 52d4 973a 50a6 b5bc 7a14 e0bd f086 27bd
000001d0: 7a92 14bd f1a3 8e3d 03dc 25bd 451e 6e3d
000001e0: 3d70 2f3c 5a2c 3bbd b693 abbd daf5 8cbd
000001f0: 02e3 a6bd 8374 8a3d 6943 d93d de4a 893d
00000200: 9013 883d 1e99 bd3d 96b1 943d 6f15 37bd
00000210: 60dc 0bbd 748a 903d d9cb 32bd 0c09 93bd
00000220: f1f7 873d ce7e 423d f56d 8d3d b3d0 4dbd
00000230: 5b37 bb3d 0ace b5bd cc55 bbbd 676e 5f3d
00000240: 26aa 2cbd c1b7 9abd e57d 8c3d 3fdc f8bc
00000250: 592c 85b9 d95c bfbd 7eca 34bc f2e0 823d
00000260: 4736 a6bc 7150 f4bc 4164 cbbd b9d0 f4bb
00000270: 630a 8c3d b05a adbd 304a 9f3d 2c5a 843d
00000280: ecc1 33bd 8228 f1bc b440 983d 13d8 cd3b
00000290: 6ed9 a5bd f920 8c3d 19a9 4abd 26e4 26bd
000002a0: e847 143d 5397 a4bc 52d9 8dbd 604b 81bd
000002b0: c5d9 893c cc77 88bd 7e82 21bd 5b0d 603c
000002c0: 4694 8b3d b803 9f3c 84c9 aabc c999 1a3d
000002d0: 7a8a fcbc ce78 b23c 5759 01bd 5528 9fbd
000002e0: 7e41 e8bd c1d8 f6bb 2170 ae3c 83a0 46bd
000002f0: dd97 933d 2821 05bd 76c9 9bbd dab3 1bbd
00000300: 9565 2a3d 409a e23c 8ab7 b6bd 3109 bb3d
00000310: d0e0 423b dbfa 84bd fc64 ccbc 85ef afbd
00000320: 2267 90bd c12e 67bc 9b5e 783b 83e9 fa3c
00000330: 5195 e9bc 31dc 15bd 57f5 7a3c 1203 7b3d
00000340: e854 85bc b1e6 3cbd 5fb5 71bb 29d1 8b3d
00000350: d44e d43d b316 ba3a f236 6bbd b737 dbbd
00000360: 0d34 093d 4a83 eb3c eead 59bc 66a0 cbbd
00000370: c85d 863d d642 45bc 189b b4bd b2fd c53d
00000380: 0577 d03d 6798 943d 5fe1 abbd b110 053d
00000390: 5f3a 81bd 5cab c43d 0e71 083d d058 11bc
000003a0: 833a 973d 595b 87bd 859d d7bb 9fe4 92bc
000003b0: 3cc5 9abd d322 fd3b bba7 a23d a4b2 793d
000003c0: 4204 963d 0883 873d 4944 743d 4f88 95bd
000003d0: 10fb 813d 70f5 3fbd fe9f 4c3c 655d 82bd
000003e0: 403b 9c3d ae06 a7bc b176 98bd 06dd a5bd
000003f0: a108 84bd a93b c5bd 2a78 d03d 3027 893c

lstm.bias_ih_l0 f4 [512]
0.014359584 0.0071128416 0.012546644 0.012671632 0.009122642 0.015672661 0.012792735 0.015667785
0.016522586 -0.0031474144 -0.001566837 0.013795174 0.011199727 0.011536261 0.0129392315 -0.0031485257
0.0098247165 0.010115703 0.02265861 0.013177554 0.008499399 0.0139588015 -0.0042088763 0.014362099
0.012817679 0.0036445993 -4.5079574e-05 0.008871062 0.020585574 0.0026964657 0.015735256 0.014769588
0.01641836 0.015535105 0.00713807 0.0153769655 0.00031754898 0.016757969 -0.005787015 0.0055063777
0.009243099 0.015754713 0.00660476 0.013249501 0.0034316818 -0.0028762026 0.00011741861 0.00340011
0.013728515 0.0037439377 0.0043980456 0.009276311 0.011479594 0.0020886164 0.013246517 0.016457627
0.015800092 -0.002449475 0.0018055266 0.0109217595 0.018923132 0.012109062 0.005240925 0.017453382
0.009331722 0.011622829 0.019233637 0.001640753 0.0057731015 -0.000529282 0.0026087842 0.012306743
0.006226653 0.015285652 0.011452912 0.009356669 0.012144621 0.012122284 0.0144621115 -0.0010407091
0.009450382 -0.003299539 -0.0008560767 0.00969348 -0.008532183 0.013879399 -0.00037054447 0.0051701986
0.01535726 -0.00052101625 0.007975303 0.016812345 0.015067302 0.0140738785 0.009272883 0.008968134
0.0065301433 0.0062170504 0.012674838 0.015006593 0.006402573 0.009099174 0.013092055 0.0064035123
0.0060739154 0.0033213957 0.011901377 -0.0016143747 0.0028055857 0.010742011 0.008178479 0.016312294
0.01561252 0.011716303 0.012980603 0.012380921 0.015601864 0.009483858 0.0055147107 0.015974738
0.012652606 0.00950802 0.014282806 0.014622289 0.0047492813 0.0063997163 0.013125201 0.010846255
0.00719407 0.007631963 0.0028135935 0.011562554 0.005399826 0.012966615 0.00915287 0.00839294
0.008371998 -0.0023317144 -0.003182925 0.0021856346 0.0044955476 0.0007666693 0.012539873 0.0040584044
0.005126015 0.007374592 0.021441892 0.011756676 0.00084088114 0.0034193343 -0.0031956017 0.011644564
0.0065020984 0.00028333205 -0.0012902102 0.006112356 0.02278207 0.0031343342 0.009120372 0.010270967
0.017566338 0.0115171 -0.0034136637 0.015013432 -0.0017344593 0.008669494 -0.0036004635 0.0021151858
0.008162118 0.010385695 0.0016247377 0.008334978 0.0063962806 0.0015773447 0.0012622998 0.007187811
0.009360668 0.0052381423 0.0027462123 0.0057110544 0.00091148436 0.0008216986 0.014114968 0.009089011
0.013537387 -0.008410103 -0.0064847646 0.006818074 0.01644513 0.01122737 0.00070084044 0.019368619
0.0062196376 0.004627518 0.013967363 -0.0042133173 0.0018682074 -0.0009564467 0.005680287 0.008507393
0.003648504 0.010405364 0.011560098 0.0056133154 0.00036090636 0.0008207181 0.0052596643 0.00024025874
0.00918349 -0.0065048505 0.0006921184 0.0037713833 -0.004831332 0.0043305308 0.00088467496 0.0079635335
0.0124425385 -0.0025251282 0.0037296142 0.016416047 0.007567057 0.0148250535 0.0040092105 0.0010060753
-0.0010632883 0.0002287668 0.004162364 0.0124758 0.0064583356 -0.0012662973 0.011271509 0.0022803564
-0.0026735966 -0.00095084705 0.0106347855 -0.0015915283 0.002260916 0.0028341375 0.00579198 0.018989637
0.010921588 0.009042023 0.010260045 0.0041331933 0.011971325 0.002078279 0.003911864 0.008355716
0.0072013955 0.0028884932 -0.0062377816 0.008292058 0.0012065371 0.0031516424 0.012207642 0.003039001
00000000: 7644 6b3c d712 e93b 7090 4d3c ad9c 4f3c
00000010: 2277 153c f463 803c 9f98 513c ba59 803c
00000020: 605a 873c da44 4ebb 535e cdba 2705 623c
00000030: 0f7f 373c 9602 3d3c 12ff 533c 7f57 4ebb
00000040: d9f7 203c 55bc 253c 8d9e b93c abe6 573c
00000050: 1041 0b3c 75b3 643c 9dea 89bb 024f 6b3c
00000060: 3e01 523c 3bda 6e3b d313 3db8 ee57 113c
00000070: 14a3 a83c 30b7 303b 39e7 803c 24fc 713c
00000080: cc7f 863c f486 7e3c 79e6 e93b abef 7b3c
00000090: b47c a639 0248 893c 00a1 bdbb d86e b43b
000000a0: 5e70 173c 0710 813c be6c d83b 6f14 593c
000000b0: 11e6 603b ac7e 3cbb a33e f638 61d4 5e3b
000000c0: 91ed 603c da5c 753b 7b1d 903b abfb 173c
000000d0: e814 3c3c 2be1 083b eb07 593c 25d2 863c
000000e0: 326f 813c 5f87 20bb 6ba7 ec3a 2ef1 323c
000000f0: af04 9b3c 1665 463c 11bc ab3b 65fa 8e3c
00000100: 14e4 183c ae6d 3e3c dc8f 9d3c 890e d73a
00000110: 492c bd3b 84bf 0aba 23f8 2a3b 39a2 493c
00000120: f308 cc3b ac70 7a3c ffa4 3b3c b74c 193c
00000130: 3cfa 463c 8b9c 463c 7ef2 6c3c 6768 88ba
00000140: c6d5 1a3c 143d 58bb 566a 60ba 67d1 1e3c
00000150: 92ca 0bbc 6b66 633c a345 c2b9 c56a a93b
00000160: 049d 7b3c cf94 08ba d8aa 023c 0bba 893c
00000170: d8dc 763c 2096 663c 4aed 173c 15ef 123c
00000180: d0fa d53b 66b8 cb3b 20aa 4f3c 37de 753c
00000190: adcc d13b b414 153c 0f80 563c 8ed4 d13b
000001a0: b207 c73b c6ab 593b fefd 423c 6d99 d3ba
000001b0: ebdd 373b 42ff 2f3c 07ff 053c 5ca1 853c
000001c0: a8cb 7f3c bdf5 3f3c 98ac 543c 59d9 4a3c
000001d0: f69e 7f3c 2f62 1b3c bfb4 b43b 74dd 823c
000001e0: e04c 4f3c 87c7 1b3c 6e02 6a3c 5392 6f3c
000001f0: dc9f 9b3b b6b4 d13b 150b 573c 7eb4 313c
00000200: 3cbc eb3b 8c15 fa3b 4464 383b de70 3d3c
00000210: 06f1 b03b ed71 543c ebf5 153c 8b82 093c
00000220: b42a 093c adcf 18bb 9f98 50bb dd3c 0f3b
00000230: 634f 933b 4efa 483a 0a74 4d3c 5dfc 843b
00000240: 21f8 a73b 90a6 f13b e8a6 af3c 139f 403c
00000250: 946e 5c3a e916 603b 4d6d 51bb d7c8 3e3c
00000260: 8e0f d53b 2f8c 9439 451c a9ba 294a c83b
00000270: 77a1 ba3c 6769 4d3b 9d6d 153c 8f47 283c
00000280: 48e7 8f3c 38b2 3c3c c6b7 5fbb e6fa 753c
00000290: cc56 e3ba 7e0a 0e3c c1f5 6bbb ee9e 0a3b
000002a0: 67ba 053c c328 2a3c 27f5 d43a 6e8f 083c
000002b0: e497 d13b e8be ce3a c173 a53a bb87 eb3b
000002c0: 7d5d 193c b9a4 ab3b ccf9 333b cc23 bb3b
000002d0: aef0 6e3a 4267 573a 7742 673c 13ea 143c
000002e0: ebcb 5d3c 87ca 09bc 267e d4bb 266a df3b
000002f0: f0b7 863c 01f3 373c 9bb8 373a f0aa 9e3c
00000300: 1ace cb3b 6fa2 973b 5ed7 643c de0f 8abb
00000310: a3de f43a 0dba 7aba b321 ba3b 9862 0b3c
00000320: bd1b 6f3b 437b 2a3c 9166 3d3c e7ef b73b
00000330: 0838 bd39 7625 573a 4359 ac3b f7ed 7b39
00000340: 5976 163c a426 d5bb 486f 353a 5029 773b
00000350: 2650 9ebb 20e7 8d3b 88e9 673a 7b79 023c
00000360: cadb 4b3c 9f7c 25bb 8b6c 743b f27a 863c
00000370: 13f5 f73b c8e4 723c b25f 833b 49de 833a
00000380: 095e 8bba 1fe1 6f39 7164 883b 4c67 4c3c
00000390: 72a0 d33b e3f9 a5ba 23ac 383c 0872 153b
000003a0: 8237 2fbb 4442 79ba 863d 2e3c d49a d0ba
000003b0: e02b 143b f0bc 393b a6ca bd3b 2890 9b3c
000003c0: 76f0 323c fe24 143c bf19 283c bd6f 873b
000003d0: 6023 443c bc33 083b 182f 803b 6ae6 083c
000003e0: aff9 eb3b e04c 3d3b 4e66 ccbb 69db 073c
000003f0: ab24 9e3a c98b 4e3b 9002 483c fa29 473b

lstm.bias_hh_l0 f4 [512]
0.014359584 0.0071128416 0.012546644 0.012671632 0.009122642 0.015672661 0.012792735 0.015667785
0.016522586 -0.0031474144 -0.001566837 0.013795174 0.011199727 0.011536261 0.0129392315 -0.0031485257
0.0098247165 0.010115703 0.02265861 0.013177554 0.008499399 0.0139588015 -0.0042088763 0.014362099
0.012817679 0.0036445993 -4.5079574e-05 0.008871062 0.020585574 0.0026964657 0.015735256 0.014769588
0.01641836 0.015535105 0.00713807 0.0153769655 0.00031754898 0.016757969 -0.005787015 0.0055063777
0.009243099 0.015754713 0.00660476 0.013249501 0.0034316818 -0.0028762026 0.00011741861 0.00340011
0.013728515 0.0037439377 0.0043980456 0.009276311 0.011479594 0.0020886164 0.013246517 0.016457627
0.015800092 -0.002449475 0.0018055266 0.0109217595 0.018923132 0.012109062 0.005240925 0.017453382
0.009331722 0.011622829 0.019233637 0.001640753 0.0057731015 -0.000529282 0.0026087842 0.012306743
0.006226653 0.015285652 0.011452912 0.009356669 0.012144621 0.012122284 0.0144621115 -0.0010407091
0.009450382 -0.003299539 -0.0008560767 0.00969348 -0.008532183 0.013879399 -0.00037054447 0.0051701986
0.01535726 -0.00052101625 0.007975303 0.016812345 0.015067302 0.0140738785 0.009272883 0.008968134
0.0065301433 0.0062170504 0.012674838 0.015006593 0.006402573 0.009099174 0.013092055 0.0064035123
0.0060739154 0.0033213957 0.011901377 -0.0016143747 0.0028055857 0.010742011 0.008178479 0.016312294
0.01561252 0.011716303 0.012980603 0.012380921 0.015601864 0.009483858 0.0055147107 0.015974738
0.012652606 0.00950802 0.014282806 0.014622289 0.0047492813 0.0063997163 0.013125201 0.010846255
0.00719407 0.007631963 0.0028135935 0.011562554 0.005399826 0.012966615 0.00915287 0.00839294
0.008371998 -0.0023317144 -0.003182925 0.0021856346 0.0044955476 0.0007666693 0.012539873 0.0040584044
0.005126015 0.007374592 0.021441892 0.011756676 0.00084088114 0.0034193343 -0.0031956017 0.011644564
0.0065020984 0.00028333205 -0.0012902102 0.006112356 0.02278207 0.0031343342 0.009120372 0.010270967
0.017566338 0.0115171 -0.0034136637 0.015013432 -0.0017344593 0.008669494 -0.0036004635 0.0021151858
0.008162118 0.010385695 0.0016247377 0.008334978 0.0063962806 0.0015773447 0.0012622998 0.007187811
0.009360668 0.0052381423 0.0027462123 0.0057110544 0.00091148436 0.0008216986 0.014114968 0.009089011
0.013537387 -0.008410103 -0.0064847646 0.006818074 0.01644513 0.01122737 0.00070084044 0.019368619
0.0062196376 0.004627518 0.013967363 -0.0042133173 0.0018682074 -0.0009564467 0.005680287 0.008507393
0.003648504 0.010405364 0.011560098 0.0056133154 0.00036090636 0.0008207181 0.0052596643 0.00024025874
0.00918349 -0.0065048505 0.0006921184 0.0037713833 -0.004831332 0.0043305308 0.00088467496 0.0079635335
0.0124425385 -0.0025251282 0.0037296142 0.016416047 0.007567057 0.0148250535 0.0040092105 0.0010060753
-0.0010632883 0.0002287668 0.004162364 0.0124758 0.0064583356 -0.0012662973 0.011271509 0.0022803564
-0.0026735966 -0.00095084705 0.0106347855 -0.0015915283 0.002260916 0.0028341375 0.00579198 0.018989637
0.010921588 0.009042023 0.010260045 0.0041331933 0.011971325 0.002078279 0.003911864 0.008355716
0.0072013955 0.0028884932 -0.0062377816 0.008292058 0.0012065371 0.0031516424 0.012207642 0.003039001
00000000: 7644 6b3c d712 e93b 7090 4d3c ad9c 4f3c
00000010: 2277 153c f463 803c 9f98 513c ba59 803c
00000020: 605a 873c da44 4ebb 535e cdba 2705 623c
00000030: 0f7f 373c 9602 3d3c 12ff 533c 7f57 4ebb
00000040: d9f7 203c 55bc 253c 8d9e b93c abe6 573c
00000050: 1041 0b3c 75b3 643c 9dea 89bb 024f 6b3c
00000060: 3e01 523c 3bda 6e3b d313 3db8 ee57 113c
00000070: 14a3 a83c 30b7 303b 39e7 803c 24fc 713c
00000080: cc7f 863c f486 7e3c 79e6 e93b abef 7b3c
00000090: b47c a639 0248 893c 00a1 bdbb d86e b43b
000000a0: 5e70 173c 0710 813c be6c d83b 6f14 593c
000000b0: 11e6 603b ac7e 3cbb a33e f638 61d4 5e3b
000000c0: 91ed 603c da5c 753b 7b1d 903b abfb 173c
000000d0: e814 3c3c 2be1 083b eb07 593c 25d2 863c
000000e0: 326f 813c 5f87 20bb 6ba7 ec3a 2ef1 323c
000000f0: af04 9b3c 1665 463c 11bc ab3b 65fa 8e3c
00000100: 14e4 183c ae6d 3e3c dc8f 9d3c 890e d73a
00000110: 492c bd3b 84bf 0aba 23f8 2a3b 39a2 493c
00000120: f308 cc3b ac70 7a3c ffa4 3b3c b74c 193c
00000130: 3cfa 463c 8b9c 463c 7ef2 6c3c 6768 88ba
00000140: c6d5 1a3c 143d 58bb 566a 60ba 67d1 1e3c
00000150: 92ca 0bbc 6b66 633c a345 c2b9 c56a a93b
00000160: 049d 7b3c cf94 08ba d8aa 023c 0bba 893c
00000170: d8dc 763c 2096 663c 4aed 173c 15ef 123c
00000180: d0fa d53b 66b8 cb3b 20aa 4f3c 37de 753c
00000190: adcc d13b b414 153c 0f80 563c 8ed4 d13b
000001a0: b207 c73b c6ab 593b fefd 423c 6d99 d3ba
000001b0: ebdd 373b 42ff 2f3c 07ff 053c 5ca1 853c
000001c0: a8cb 7f3c bdf5 3f3c 98ac 543c 59d9 4a3c
000001d0: f69e 7f3c 2f62 1b3c bfb4 b43b 74dd 823c
000001e0: e04c 4f3c 87c7 1b3c 6e02 6a3c 5392 6f3c
000001f0: dc9f 9b3b b6b4 d13b 150b 573c 7eb4 313c
00000200: 3cbc eb3b 8c15 fa3b 4464 383b de70 3d3c
00000210: 06f1 b03b ed71 543c ebf5 153c 8b82 093c
00000220: b42a 093c adcf 18bb 9f98 50bb dd3c 0f3b
00000230: 634f 933b 4efa 483a 0a74 4d3c 5dfc 843b
00000240: 21f8 a73b 90a6 f13b e8a6 af3c 139f 403c
00000250: 946e 5c3a e916 603b 4d6d 51bb d7c8 3e3c
00000260: 8e0f d53b 2f8c 9439 451c a9ba 294a c83b
00000270: 77a1 ba3c 6769 4d3b 9d6d 153c 8f47 283c
00000280: 48e7 8f3c 38b2 3c3c c6b7 5fbb e6fa 753c
00000290: cc56 e3ba 7e0a 0e3c c1f5 6bbb ee9e 0a3b
000002a0: 67ba 053c c328 2a3c 27f5 d43a 6e8f 083c
000002b0: e497 d13b e8be ce3a c173 a53a bb87 eb3b
000002c0: 7d5d 193c b9a4 ab3b ccf9 333b cc23 bb3b
000002d0: aef0 6e3a 4267 573a 7742 673c 13ea 143c
000002e0: ebcb 5d3c 87ca 09bc 267e d4bb 266a df3b
000002f0: f0b7 863c 01f3 373c 9bb8 373a f0aa 9e3c
00000300: 1ace cb3b 6fa2 973b 5ed7 643c de0f 8abb
00000310: a3de f43a 0dba 7aba b321 ba3b 9862 0b3c
00000320: bd1b 6f3b 437b 2a3c 9166 3d3c e7ef b73b
00000330: 0838 bd39 7625 573a 4359 ac3b f7ed 7b39
00000340: 5976 163c a426 d5bb 486f 353a 5029 773b
00000350: 2650 9ebb 20e7 8d3b 88e9 673a 7b79 023c
00000360: cadb 4b3c 9f7c 25bb 8b6c 743b f27a 863c
00000370: 13f5 f73b c8e4 723c b25f 833b 49de 833a
00000380: 095e 8bba 1fe1 6f39 7164 883b 4c67 4c3c
00000390: 72a0 d33b e3f9 a5ba 23ac 383c 0872 153b
000003a0: 8237 2fbb 4442 79ba 863d 2e3c d49a d0ba
000003b0: e02b 143b f0bc 393b a6ca bd3b 2890 9b3c
000003c0: 76f0 323c fe24 143c bf19 283c bd6f 873b
000003d0: 6023 443c bc33 083b 182f 803b 6ae6 083c
000003e0: aff9 eb3b e04c 3d3b 4e66 ccbb 69db 073c
000003f0: ab24 9e3a c98b 4e3b 9002 483c fa29 473b

lstm.weight_ih_l1 f4 [512, 128]
0.018202316 -0.02641723 -0.055541478 -0.06506439 0.028398773 0.06350634 -0.016138077 -0.06777825
-0.007300678 -0.06526515 -0.064178824 -0.0065760794 0.019072875 0.013557841 -0.07282509 0.00078213745
0.06176046 -0.03146506 0.02929114 0.08867448 0.09258459 -0.06284594 -0.018572973 -0.047720846
0.04494117 -0.04058525 0.067423984 0.07278466 -0.031198122 0.06961126 -0.02951377 -0.10431401
0.08486524 -0.01678001 -0.071306825 0.07818626 0.07192797 -0.0038715508 0.072214596 0.096122645
-0.011068992 -0.026095107 -0.049337678 0.049544476 -0.005508842 0.014018045 -0.016182907 -0.09333018
-0.017931987 0.029698465 0.013008095 -0.0262073 -0.059384584 -0.03079688 0.08985018 0.09933496
0.065501556 0.020939568 -0.09413368 -0.0626954 -0.049092483 0.005949798 -0.057769284 0.03755978
-0.086473204 0.012697288 0.046095386 -0.03593418 0.06314555 0.07825841 0.013496671 0.013881707
-0.016079247 -0.044045825 0.07666794 0.026974771 0.048059054 -0.019457927 -0.017907413 -0.043178875
0.028716441 -0.016187327 -0.078309424 0.014379093 -0.050299507 -0.02741544 -0.024924636 0.05016884
-0.021188488 -0.06743414 -0.040769108 -0.050593287 -0.020105323 0.04261989 0.030423885 -0.08398466
0.04479339 -0.016421825 -0.039599612 0.07228717 -0.02588586 -0.020273121 0.07818581 0.08120372
-0.0802721 -0.067029014 -0.059028726 0.096629836 0.057521638 0.09180217 -0.032091103 -0.033240467
0.07719303 0.029745903 0.024493903 -0.06142265 0.03200835 -0.011628861 0.011713951 0.050387107
-0.10853242 0.03704977 -0.025801014 -0.011012322 0.086415775 0.039139103 0.0062706256 0.0590602
0.08356593 -0.08772134 0.034974266 0.039832473 -0.048579033 0.013128823 0.056416243 0.021781826
-0.03978812 0.027175194 -0.01139902 0.012915771 0.07684838 -0.029440036 0.07713594 -0.08549782
-0.010199466 0.0681507 0.05587498 -0.087616466 0.03688851 0.05352759 -0.04273491 0.04489375
0.045774274 0.0073270416 0.0016257983 0.03288631 0.08969045 -0.013066012 -0.07789232 0.045497898
0.060096167 0.04246396 -0.07990302 -0.085552804 -0.060572024 -0.07883365 0.071288995 -0.08521623
0.021703472 -0.084910035 0.012690106 -0.031497713 -0.04682459 0.07965699 0.085493475 0.0530966
0.011480995 0.096457444 -0.026991094 -0.0343589 0.07761129 -0.008817812 0.0776241 0.058054153
-0.05948933 -0.023970583 0.062091425 0.08955193 0.043207567 -0.020072442 0.0030548936 0.04975999
-0.05574885 0.064374804 -0.00080734486 0.044784475 -0.072761625 -0.040428557 -0.05454972 -0.013888123
0.008730822 0.08323868 0.043121006 -0.06601213 -0.08138351 -0.068374045 0.023208542 -0.070623584
-0.020347219 0.07503269 0.004023393 -0.042687554 0.0051528616 -0.047775283 0.08381801 -0.06407627
0.010573232 -0.006511621 -0.018975297 0.0561205 -0.035350394 -0.021029254 0.09366643 -0.021513242
-0.077064216 -0.008174633 0.06609776 0.074814394 -0.04170712 -0.0038543313 0.022426069 -0.023118822
0.04056634 0.02648515 0.03921972 0.0019278716 0.0046070484 0.02628409 -0.016393334 0.076085046
-0.06276611 -0.103493586 0.0317384 -0.020915873 0.05823964 0.07027116 0.05686348 -0.0029177265
-0.030533614 0.04757121 -0.059594586 0.03188692 0.09285284 -0.013906932 0.08323731 0.00902281
00000000: 061d 953c f268 d8bc 767f 63bd 7b40 85bd
00000010: 8ba4 e83c 9d0f 823d 0034 84bc 53cf 8abd
00000020: 873a efbb bca9 85bd 3070 83bd 277c d7bb
00000030: b83e 9c3c b521 5e3c 5225 95bd 5b08 4d3a
00000040: 89f8 7c3d 82e1 00bd f9f3 ef3c f79a b53d
00000050: fd9c bd3d 5fb5 80bd 5926 98bc ef76 43bd
00000060: 3b14 383d b83c 26bd 9615 8a3d 2010 953d
00000070: 3493 ffbc 5990 8e3d ddc6 f1bc 95a2 d5bd
00000080: d4cd ad3d 3b76 89bc 5009 92bd 1e20 a03d
00000090: f94e 933d d8b9 7dbb 3fe5 933d f3db c43d
000000a0: b85a 35bc 68c5 d5bc 4e16 4abd 26ef 4a3d
000000b0: 8483 b4bb f1ab 653c 0492 84bc e523 bfbd
000000c0: 1ae6 92bc 324a f33c e81f 553c b1b0 d6bc
000000d0: 403d 73bd bd49 fcbc 5f03 b83d 2170 cb3d
000000e0: ae25 863d 7589 ab3c 29c9 c0bd 7266 80bd
000000f0: 3315 49bd 86f6 c23b 7c9f 6cbd 49d8 193d
00000100: dd18 b1bd 4908 503c 84ce 3c3d b82f 13bd
00000110: 7452 813d f245 a03d 2421 5d3c 1970 633c
00000120: a0b8 83bc 6569 34bd 1504 9d3d 32fa dc3c
00000130: 92d9 443d 3b66 9fbc 91b2 92bc 55dc 30bd
00000140: be3e eb3c 499b 84bc b160 a0bd 4a96 6b3c
00000150: db06 4ebd 5896 e0bc c02e ccbc d77d 4d3d
00000160: 7b93 adbc e91a 8abd 82fd 26bd e83a 4fbd
00000170: ebb3 a4bc 3292 2e3d 833b f93c 2600 acbd
00000180: 4679 373d 1087 86bc 3433 22bd 4c0b 943d
00000190: 950e d4bc d113 a6bc e21f a03d 234e a63d
000001a0: b365 a4bd 8246 89bd 1bc8 71bd dde5 c53d
000001b0: cf9b 6b3d c702 bc3d f671 03bd 2827 08bd
000001c0: 6117 9e3d aead f33c 70a7 c83c 5196 7bbd
000001d0: 301b 033d fa86 3ebc dfeb 3f3c b662 4e3d
000001e0: 3f46 debd 80c1 173d a65c d3bc 076d 34bc
000001f0: c1fa b03d 5350 203d d279 cd3b 1ce9 713d
00000200: 9d24 ab3d 3fa7 b3bd 2d41 0f3d 6027 233d
00000210: cffa 46bd 461a 573c b814 673d cd6f b23c
00000220: def8 22bd 839e de3c f5c2 3abc ac9c 533c
00000230: af62 9d3d 3b2c f1bc 73f9 9d3d 7b19 afbd
00000240: a91b 27bc 9892 8b3d 2add 643d 4370 b3bd
00000250: 6818 173d bf3f 5b3d cd0a 2fbd 82e2 373d
00000260: ce7d 3b3d ae17 f03b bd18 d53a ccb3 063d
00000270: a0af b73d d412 56bc 0286 9fbd 015c 3a3d
00000280: 6627 763d b0ee 2d3d 32a4 a3bd 4f36 afbd
00000290: 5f1a 78bd 8973 a1bd f7ff 913d d985 aebd
000002a0: 7bcb b13c 50e5 adbd 2aea 4f3c bf03 01bd
000002b0: 24cb 3fbd 3423 a33d 3417 af3d d27b 593d
000002c0: c91a 3c3c 7b8b c53d 6d1c ddbc ebbb 0cbd
000002d0: abf2 9e3d 9678 10bc 62f9 9e3d 31ca 6d3d
000002e0: 15ab 73bd f55d c4bc 9453 7e3d 0167 b73d
000002f0: 6bfa 303d f66e a4bc 9c34 483b 22d1 4b3d
00000300: e858 64bd f0d6 833d ffa3 53ba ed6f 373d
00000310: 0c04 95bd 6a98 25bd 876f 5fbd 038b 63bc
00000320: b90b 0f3c 0b79 aa3d a79f 303d 5e31 87bd
00000330: 66ac a6bd b107 8cbd d71f be3c 19a3 90bd
00000340: 36af a6bc bdaa 993d abd6 833b 25d9 2ebd
00000350: 56d9 a83b 04b0 43bd c7a8 ab3d 6b3a 83bd
00000360: 593b 2d3c 705f d5bb 1572 9bbc 9cde 653d
00000370: 93cb 10bd 8b45 acbc 2fd4 bf3d 8a3c b0bc
00000380: d8d3 9dbd e5ee 05bc 435e 873d 4a38 993d
00000390: 16d5 2abd f398 7cbb e0b6 b73c af63 bdbc
000003a0: e428 263d 63f7 d83c dba4 203d a3b0 fc3a
000003b0: b9f6 963b bb51 d73c 504b 86bc 7ad2 9b3d
000003c0: 858b 80bd 72f4 d3bd 2000 023d c457 abbc
000003d0: b08c 6e3d 53ea 8f3d aee9 683d 5437 3fbb
000003e0: a121 fabc 07da 423d 7419 74bd dc9b 023d
000003f0: a129 be3d e7d9 63bc 5378 aa3d 68d4 133c

lstm.weight_hh_l1 f4 [512, 128]
-0.045962427 0.05370811 0.00014111775 -0.092658445 -0.0874997 -0.001160915 -9.587103e-05 -0.07608272
-0.009731632 0.033585083 -0.08161063 -0.050342552 0.046791296 -0.047511443 0.05204871 -0.07674021
-0.0455378 0.048016164 0.06801854 -0.0077908053 -0.02698973 -0.0055007758 -0.012849675 0.04271789
-0.029602922 0.09571741 0.003764255 -0.03134343 0.07812069 0.05239655 -0.0094052 0.059923157
0.049021967 -0.034104105 -0.05041792 0.028550822 -0.09865594 -0.054392174 -0.0925883 0.009861722
-0.090560906 -0.02573205 0.07169861 0.01494366 -0.062176555 -0.016580312 -0.041824054 -0.021541331
-0.028001692 -0.076440096 0.068635546 0.0689191 0.08933465 -0.040486142 -0.05374155 -0.059133228
0.079663694 -0.048874665 -0.00018394574 0.00065898534 -0.011321778 -0.02784118 0.046287954 -0.0029094892
-0.0030499876 -0.03547724 -0.009463132 0.015020792 -0.09184642 -0.058632214 -0.062626205 0.05765939
-0.08327686 -0.00011332603 0.08383476 -0.0082252035 0.086932585 0.06284699 0.0482525 -0.062779866
0.0009785051 0.07002494 0.103324205 0.027758589 0.048443057 -0.018653844 0.07571588 -0.07721875
0.06613165 0.049877197 0.013061582 -0.053788472 -0.08763462 0.007653962 0.092412695 0.10386833
-0.06343927 -0.057911586 -0.09184842 0.014601718 0.011422897 -0.016479898 -0.06293684 -0.029739738
-0.058160417 -0.06460991 -0.04742981 -0.086700276 0.091261305 0.097881034 0.0874288 -0.020779872
-0.021422097 -0.05571992 -0.009055165 0.087429464 -0.00011561488 0.0799066 -0.007374137 0.06671195
-0.006036886 -0.013160486 -0.014349288 0.011608322 0.04895174 0.06438841 -0.036032543 -0.094148844
-0.052613284 0.001633855 0.068341 0.038838673 0.058008116 -0.055262834 -0.021018298 -0.045132622
-0.0703132 0.062265538 -0.07164792 -0.009491674 -0.019668309 0.073726825 0.07503822 0.020499025
-0.060207468 -0.008250363 -0.09263646 -0.032762557 0.011737609 -0.017190332 -0.0017782326 -0.033413835
-0.038455065 0.06524445 -0.10040768 0.049989432 -0.065608606 0.010872303 0.05560498 -0.0060406686
-0.072817974 0.04603918 0.051168 0.056433868 -0.05391127 -0.02188698 -0.04667225 -0.07437991
-0.03584278 -0.08806734 -0.055888172 -0.054302763 -0.042452395 0.072679594 -0.043373056 -0.07343539
-0.037485253 -0.04463192 -0.03098635 0.027150173 0.025301717 0.051227313 0.08233691 -0.03347996
0.047638245 -0.017527899 0.075775966 -0.017995153 -0.067750454 -0.0484842 0.07457795 0.01811918
0.096139625 -0.023617666 0.07156913 0.024726337 0.05799249 -0.09567763 -0.06689171 0.038505457
0.057232395 -0.004754538 -0.0006764431 -0.045764975 0.07124716 0.05947648 0.009192463 0.05052511
-0.0713958 -0.060899366 -0.07852482 -0.016936399 0.06367372 -0.041396804 0.010061056 0.04354384
0.073016144 -0.029286232 -0.056689244 0.011701878 -0.06752888 0.072209276 0.089474075 -0.041853055
-0.046031937 -0.05101031 0.09431075 0.09586637 -0.04485077 0.07015393 -0.055777095 -0.016887713
-0.03751186 -0.07861153 0.03233279 0.039292533 0.089666635 0.084561504 0.10329422 0.024402086
-0.07149874 -0.06448146 0.08018072 -0.018555894 -0.08842761 -0.0022496118 -0.043178223 -0.015513318
-0.01638275 -0.03252186 -0.01845888 0.08536335 -0.0897019 0.016388705 0.107208036 0.06534214
00000000: 1943 3cbd 09fd 5b3d 02f9 1339 b6c3 bdbd
00000010: 0b33 b3bd d829 98ba 5e0e c9b8 42d1 9bbd
00000020: 6c71 1fbc 8390 093d 7923 a7bd fe33 4ebd
00000030: 3ba8 3f3d 5c9b 42bd 0731 553d f929 9dbd
00000040: d885 3abd 99ac 443d 4e4d 8b3d 034a ffbb
00000050: 9119 ddbc da3f b4bb 7187 52bc f4f8 2e3d
00000060: d481 f2bc 7d07 c43d b8b1 763b f861 00bd
00000070: befd 9f3d c49d 563d 4518 1abc fc71 753d
00000080: 42cb 483d bfb0 0bbd 0583 4ebd 6ae3 e93c
00000090: 200c cabd 54ca 5ebd ef9e bdbd 0f93 213c
000000a0: ff77 b9bd 05cc d2bc b9d6 923d 41d6 743c
000000b0: d8ac 7ebd 6fd3 87bc b34f 2bbd 7277 b0bc
000000c0: ce63 e5bc a08c 9cbd cb90 8c3d 7525 8d3d
000000d0: 16f5 b63d ccd4 25bd 1920 5cbd af35 72bd
000000e0: b826 a33d cd30 48bd 8fe1 40b9 c2bf 2c3a
000000f0: fb7e 39bc 3013 e4bc 7098 3d3d 21ad 3ebb
00000100: 4de2 47bb 9550 11bd 410b 1bbc c519 763c
00000110: fa19 bcbd 5528 70bd 2b42 80bd 412c 6c3d
00000120: 0f8d aabd 73a9 edb8 8fb1 ab3d 01c3 06bc
00000130: b609 b23d ecb5 803d 6aa4 453d bb92 80bd
00000140: 2f41 803a 3c69 8f3d a49b d33d fb65 e33c
00000150: 3a6c 463d f2cf 98bc ed10 9b3d dd24 9ebd
00000160: 0870 873d 084c 4c3d 3f00 563c 4d51 5cbd
00000170: c879 b3bd 16ce fa3b de42 bd3d ebb8 d43d
00000180: 73ec 81bd b334 6dbd 061b bcbd 0b3c 6f3c
00000190: 1a27 3b3c da00 87bc 08e5 80bd c0a0 f3bc
000001a0: 9e39 6ebd 3352 84bd c345 42bd ea8f b1bd
000001b0: 35e7 ba3d da75 c83d df0d b33d 8d3a aabc
000001c0: 657d afbc 923a 64bd 1d5c 14bc 380e b33d
000001d0: 4476 f2b8 12a6 a33d bfa2 f1bb 46a0 883d
000001e0: 12d1 c5bb 149f 57bc 4719 6bbc d530 3e3c
000001f0: 9f81 483d 12de 833d dc96 13bd 1cd1 c0bd
00000200: 0781 57bd 1427 d63a 5ef6 8b3d 4d15 1f3d
00000210: eb99 6d3d 485b 62bd 912e acbc fcdc 38bd
00000220: 5e00 90bd 260a 7f3d 25bc 92bd f782 1bbc
00000230: 6f1f a1bc 17fe 963d a3ad 993d 92ed a73c
00000240: 1b9c 76bd 882c 07bc 2fb8 bdbd 0832 06bd
00000250: 1a4f 403c bdd2 8cbc 9613 e9ba f2dc 08bd
00000260: 0f83 1dbd e29e 853d 8ba2 cdbd b8c1 4c3d
00000270: ce5d 86bd be21 323c 0cc2 633d cdf0 c5bb
00000280: 9721 95bd 9493 3c3d 8995 513d 3327 673d
00000290: 10d2 5cbd 534c b3bc 672b 3fbd 7f54 98bd
000002a0: e1cf 12bd a65c b4bd ffea 64bd 936c 5ebd
000002b0: 90e2 2dbd 0ad9 943d f2a7 31bd 4b65 96bd
000002c0: 238a 19bd f6cf 36bd 16d7 fdbc 0a6a de3c
000002d0: 8c45 cf3c bbd3 513d 41a0 a83d 4822 09bd
000002e0: 5220 433d ab96 8fbc 6e30 9b3d 926a 93bc
000002f0: c0c0 8abd 5e97 46bd 53bc 983d ad6e 943c
00000300: dae4 c43d d679 c1bc d692 923d e38e ca3c
00000310: 8889 6d3d a2f2 c3bd 85fe 88bd e6b7 1d3d
00000320: 846c 6a3d f5cb 9bbb 5453 31ba 0e74 3bbd
00000330: 08ea 913d 9c9d 733d fc9b 163c 6bf3 4e3d
00000340: f637 92bd 9d71 79bd 9fd1 a0bd 34be 8abc
00000350: 5e67 823d b28f 29bd 21d7 243c 075b 323d
00000360: 7d89 953d aee9 efbc fb32 68bd 3cb9 3f3c
00000370: 954c 8abd 75e2 933d 2f3e b73d 1c6e 2bbd
00000380: fc8b 3cbd 30f0 50bd ff25 c13d 9655 c43d
00000390: 71b5 37bd ddac 8f3d 8676 64bd 1a58 8abc
000003a0: 09a6 19bd 15ff a0bd 636f 043d 35f1 203d
000003b0: 24a3 b73d 952e ad3d ec8b d33d e2e6 c73c
000003c0: ee6d 92bd db0e 84bd ca35 a43d 8802 98bc
000003d0: 8919 b5bd 396e 13bb a6db 30bd 922b 7ebc
000003e0: 1e35 86bc a435 05bd 1437 97bc fbd2 ae3d
000003f0: a1b5 b7bd 9b41 863c e38f db3d 1ad2 853d

lstm.bias_ih_l1 f4 [512]
0.005843614 0.0079499 0.009933423 0.002961158 0.012983676 0.0060892343 0.013810301 0.0035923184
-0.001610857 0.0062033357 0.007973804 0.0035818196 0.00851143 0.010976281 0.005809449 0.0061360374
0.011579591 0.007279702 0.006926109 0.018356996 0.015402551 0.0037571446 0.0015683472 0.018245663
0.016507184 0.011391844 0.013549706 0.017068502 0.011091416 0.013289313 0.004747906 0.017153114
0.004753674 0.0055825976 0.0118449805 0.0056121596 0.0051303366 0.014003247 0.009336531 0.009924129
0.011835044 0.01539397 0.013411735 0.00451776 0.011603861 0.0077768792 0.012517914 0.0051722275
0.0106669245 0.0010510257 0.009816685 0.009463268 0.008482461 0.011742129 0.014703241 0.0051419497
0.012679551 -0.0005880025 0.008002298 0.002931336 0.0099858325 0.010480674 -0.0024386696 0.011688344
-0.0002960797 0.00025497645 0.010385519 0.0045062685 -0.0063881674 0.0070947236 0.018392231 0.0075380625
0.0074603506 0.00043809976 0.013149248 0.010164202 0.019059423 0.004361358 0.011874429 0.008070182
0.014550386 0.009805765 0.013650131 0.0056459093 0.006387055 0.017339533 0.00857556 -0.00033600256
0.006450628 0.012319454 0.013399363 0.017744195 0.0047693476 0.016249858 0.012198001 0.0139907515
0.011199059 0.002492865 0.005426355 0.012974118 0.009975546 0.003937226 0.009207403 -7.003815e-05
0.008571895 0.0068879067 0.011662943 0.0036596027 0.0053893374 0.01562221 0.0012015429 0.0067085954
0.0029415933 0.0022730536 0.0019162325 0.008058966 0.004356981 0.0129813915 0.0123650255 -0.003050174
0.011628662 0.00097472867 0.00935327 -0.0028422438 0.012648919 0.009952053 0.018030101 0.010409851
0.0045521464 0.007336111 0.0018130941 -0.003259577 0.013087977 0.004530311 0.0028877435 0.0009737143
-0.0016554277 0.0037869853 0.0017532966 0.0032779453 0.0064543076 0.008566059 0.0050176764 0.0025687471
0.0035940579 0.004220594 0.00365968 0.013350228 0.011366423 -0.0017697837 -0.00054121774 0.013898999
0.011268171 0.0076159537 0.0065378235 0.014346752 0.0019483834 0.007537341 0.003447966 0.013483906
0.0010513332 0.011682188 0.007820329 0.0012208078 -0.0010864518 0.013232748 0.003145749 0.007462625
0.010656021 0.0051933993 0.0055769044 0.0042052497 0.0091010835 0.007361449 0.0017202286 0.002141807
0.0009627734 -0.00026833153 0.002916089 0.0043066177 0.0055966177 0.010172948 0.0068017077 0.0025563468
0.005710164 0.0005421853 0.0037403728 -0.0007657566 0.00977875 0.0047579342 -0.0041251206 0.0076077837
-0.0009804436 0.00026247278 -5.79154e-05 0.0015685622 -0.006205905 0.0058097066 0.015441856 0.0032081641
0.0004184231 0.000965016 0.0061392393 0.010572662 0.013353685 0.0009246471 0.0066628424 0.0030420637
0.0086522065 0.0045652157 0.008301256 0.0034375915 0.0030041272 0.00879417 0.0076227933 -0.0011615981
0.0020770533 0.00830509 0.0010859718 0.005073073 0.0027775222 0.01129173 0.008784881 0.007158661
0.008929038 -0.0005148491 -0.0013612431 0.00833133 0.005759773 0.0027762551 0.0020648814 -0.0015144317
0.005424199 0.0027210123 0.008834211 0.0016105607 -0.0006764296 0.012345081 -0.007830892 0.0012142446
-0.0023875146 -0.00015809976 -0.0009134361 0.0031273647 0.0016967267 0.008770001 0.007764394 -0.0018409833
0.009963889 -0.00028927947 0.006298126 0.0010470797 0.00699389 0.009405746 0.014129389 0.0044532944
00000000: ca7b bf3b 4c40 023c ccbf 223c fd0f 423b
00000010: 7cb9 543c 3388 c73b 9a44 623c 1a6d 6b3b
00000020: 6423 d3ba 5a45 cb3b 8fa4 023c f6bc 6a3b
00000030: 8673 0b3c dcd5 333c 315d be3b d010 c93b
00000040: 53b8 3d3c 918a ee3b 6af4 e23b 6961 963c
00000050: fb5a 7c3c 6d3a 763b 0091 cd3a ee77 953c
00000060: 133a 873c dba4 3a3c 96ff 5d3c 3ed3 8b3c
00000070: c5b8 353c 6bbb 593c 5294 9b3b b084 8c3c
00000080: b5c4 9b3b 39ee b63b 7311 423c 35e6 b73b
00000090: 621c a83b e06d 653c 40f8 183c d098 223c
000000a0: c6e7 413c fd36 7c3c e5bc 5b3c b809 943b
000000b0: 1f1e 3e3c 31d5 fe3b f017 4d3c ca7b a93b
000000c0: 53c4 2e3c 92c2 893a 29d6 203c d30b 1b3c
000000d0: 05fa 0a3c 0f62 403c dde5 703c cd7d a83b
000000e0: e4bd 4f3c 2e24 1aba 121c 033c a81b 403b
000000f0: 9e9b 233c 22b7 2b3c 16d2 1fbb 7880 3f3c
00000100: 253b 9bb9 5cae 8539 0628 2a3c 52a9 933b
00000110: d553 d1bb db7a e83b 4eab 963c da01 f73b
00000120: f575 f43b c1b0 e539 f26f 573c c187 263c
00000130: 8222 9c3c b9e9 8e3b f78c 423c cc38 043c
00000140: be64 6e3c 5ca8 203c cda4 5f3c 5201 b93b
00000150: 804a d13b a30b 8e3c 8180 0c3c 8029 b0b9
00000160: ca5f d33b 89d7 493c 0089 5b3c 465c 913c
00000170: 3048 9c3b 6c1e 853c 20da 473c 7739 653c
00000180: 427c 373c 565f 233b 91cf b13b 6591 543c
00000190: 7970 233c d803 813b a6da 163c 72e1 92b8
000001a0: 2271 0c3c f3b3 e13b ee15 3f3c f2d5 6f3b
000001b0: 0a99 b03b 4cf4 7f3c 177d 9d3a c7d3 db3b
000001c0: bfc7 403b 83f7 143b 182a fb3a c109 043c
000001d0: 01c5 8e3b e7af 543c ad96 4a3c 6ee5 47bb
000001e0: 2586 3e3c ef84 7f3a 753e 193c f044 3abb
000001f0: 693d 4f3c f00d 233c ddb3 933c 148e 2a3c
00000200: 2c2a 953b c263 f03b 58a5 ed3a a19e 55bb
00000210: f46e 563c 0173 943b 4c40 3d3b dc40 7f3a
00000220: f0fa d8ba 122f 783b dfce e53a ccd2 563b
00000230: a87e d33b a858 0c3c 526b a43b 6d58 283b
00000240: 498a 6b3b e94c 8a3b 3ed7 6f3b eaba 5a3c
00000250: 3c3a 3a3c 16f8 e7ba 82e0 0dba a1b8 633c
00000260: 229e 383c 408f f93b 3d3b d63b a40e 6b3c
00000270: e660 ff3a cdfb f63b 45f7 613b 9aeb 5c3c
00000280: e3cc 893a a666 3f3c d620 003c 8303 a03a
00000290: 4667 8eba 2bce 583c e928 4e3b 0989 f43b
000002a0: 9796 2e3c 642d aa3b 77be b63b 31cc 893b
000002b0: b61c 153c 4f38 f13b 4b79 e13a 8f5d 0c3b
000002c0: a162 7c3a d9ae 8cb9 db1b 3f3b 871e 8d3b
000002d0: d563 b73b 70ac 263c dce0 de3b 6288 273b
000002e0: 541c bb3b 7121 0e3a 0b21 753b 0ebd 48ba
000002f0: 0d37 203c 72e8 9b3b 052c 87bb b74a f93b
00000300: 3a82 80ba 809c 8939 30ea 72b8 3798 cd3a
00000310: e85a cbbb 5a5f be3b d7ff 7c3c 1040 523b
00000320: cc5f db39 21f9 7c3a ac2b c93b f538 2d3c
00000330: 6ac9 5a3c 0464 723a f953 da3b 5c5d 473b
00000340: fcc1 0d3c ce97 953b fe01 083c 3749 613b
00000350: e4e0 443b 6c15 103c a0c8 f93b c440 98ba
00000360: 2c1f 083b 1212 083c 2b57 8e3a 053c a63b
00000370: 1707 363b f300 393c 76ee 0f3c 3393 ea3b
00000380: 1a4b 123c f0f6 06ba bd6b b2ba 2180 083c
00000390: 7abc bc3b d5f1 353b f652 073b e57f c6ba
000003a0: 7bbd b13b 0353 323b 5ebd 103c 7319 d33a
000003b0: 6c52 31ba 0643 4a3c 244d 00bc 4a27 9f3a
000003c0: d977 1cbb 95c7 25b9 a973 6fba 79f4 4c3b
000003d0: b364 de3a 0db0 0f3c 756c fe3b 264d f1ba
000003e0: 943f 233c 6faa 97b9 8360 ce3b 2a3e 893a
000003f0: 002d e53b 8f1a 1a3c f47e 673c f1ec 913b
