models/stock_only/checkpoint/AMDTC.pth (torch, 874234 bytes, 11 tensors)

lstm.weight_ih_l0 f4 [512, 5]
00000000: 4a80 59bd da30 3c3d bc13 29bd 7ab2 19bd
00000010: cbe7 2abd d3f1 00bd 8d6b c2bd 6aaa 573d
00000020: 6e64 cc3c 1d1f 60bd e65e 503c c6b9 363b
00000030: 350b 38bd 7862 6fbd 90b1 dd3d bb56 f93d
00000040: cafc 493d daeb 34bd 999a 0a3d aebb d4bd
00000050: d3a9 233c 0394 91bd 84e0 cfbd 53fe dd3c
00000060: d824 82bc e83f 6d3d 1998 ba3d d234 ec3c
00000070: fcc4 833d 952d 4c3d e819 cb3d a495 303d
00000080: 5a8b 0cbd 6949 083d 9845 76bd d689 5d3a
00000090: 8440 ca3d e127 bdbd e854 c1bd 5e16 df3d
000000a0: a539 8e3d 90bc a63d e722 85bc 2c3c 303a
000000b0: 4b11 5f3d 10a6 22bb 669e 4dbc 67e3 dbbc
000000c0: da65 92bd c8a2 823d 8c2d 893d 98c6 b0bd
000000d0: 7a38 923d 4108 983d 1c5f 673d 752d a43d
000000e0: 39dc f23d 7e73 c1bd d92a 25bc d637 823d
000000f0: c783 19bc 3d1a 38bd 9eaa 65bd 47cb 03bd
00000100: 16d9 b73c 6968 21bd 0e11 38bc c34e babd
00000110: 0f43 adbd 86a0 a13d d5f2 cfbd 08ab 113c
00000120: 9344 d03d 8f88 9dbd 8944 2a3d f39b aa3c
00000130: d1c6 3b3d 2e37 e43d e6dc b6bd 2ecf 16bc
00000140: b61e 93bc f127 283d 3b0c 6dbd 58fc 593d
00000150: 0aac 0c3d 957d 5dbc 4dc9 8ebd be2f a9bd
00000160: 5c58 95bc a68e f839 8a1a 15bc 1f8f 1dbb
00000170: 88b0 4ebd fcce 22bd f628 af3d 40c7 8ebd
00000180: f07a d43d 229c 47bb db20 e5bc 3668 9cbd
00000190: 9bd5 1cbd c13b 7a3d 0023 8d3c a947 82bd
000001a0: 3ed2 0a3d 608b c1bd 6dcb c3bc ea7f f23d
000001b0: fd66 f6bc cc1e 603d 7afc 8bbd 7283 73bd
000001c0: 2fcf 2dbc 29f8 b3bd 515c bf3d 05af 8fbc
000001d0: 25ea 403d e95c e93c 2281 9f3d bb47 693d
000001e0: 83c5 03bc 9f5d 863d e640 cf3d 5c86 d1bb
000001f0: fbcf 9abb 3516 dd3d d25c b63d cde6 963d
00000200: 4971 27bd 849f 49bc f536 dc3d ebcd 42bd
00000210: 9879 123d 9d9d 7cbd 7dd9 fb3c 6cb5 2bbd
00000220: d479 2c3d 6bca 55bd ce4d 8bbd 738b 92bd
00000230: c920 a53c e916 de3c 154f 95bd 2a05 c63c
00000240: 64cc 973d 0da2 7abd 7615 4bbc 2bca ddbd
00000250: 80f1 9f3c df5c 0c3d 9ba0 373d 140c a73c
00000260: d616 fb3c 4786 273d d03f 9c3d 0fc3 b73d
00000270: 5a7b b6bd 4141 6abd 5278 ab3d 0287 673d
00000280: 36e0 a43d 9682 ab3d cba6 04bd 1ad0 95bd
00000290: 253e 70bd e245 f33a 5e37 aebb be9c 723c
000002a0: 5c18 47bb e4f1 00be 20a7 b93c f29c 7fbc
000002b0: 5108 e1bc 1915 a93c e8d3 a43d 4c8c bfbd
000002c0: 07d9 7fbd 2f54 66bb 74e1 61bc 9fbe bc3d
000002d0: 1e62 a83c 7351 953d 349c cdbc ddc6 eabc
000002e0: eeca d1bd 2c60 833d 49c3 f63d c7c7 543d
000002f0: 9c58 8f3d b3ac 893d 4a8b 923c 7a33 a0bd
00000300: e7cb 443d 33db 953d c126 e6bd 12b9 cc3d
00000310: 3ef9 bebd aad3 263c 9097 2ebd 03a5 9b3c
00000320: ee38 f1bd f0ab c93d 705d 35bc 761f cab8
00000330: 4a05 7c3d dca9 47bd 4b78 28bd 426f 8abd
00000340: 9a9e 9fbd dc14 bebd 303a f1bc 57bc 093d
00000350: 14f5 53bd 8d91 91bd 73a0 863d d36b 853c
00000360: 9514 9f3d bafe c43d 9feb a9bc 6992 cebd
00000370: d64e adbd 2e17 983c 98c5 153d e8dc a23d
00000380: a996 f3bd 5304 9e3b b7b8 723c 3900 dc3d
00000390: c172 bbbd e223 8e3d e2fe d23d a0be 81bd
000003a0: 68d6 973c a8f3 30bd b9e2 5fbd 3533 aebc
000003b0: 2bc6 c6bd fddd aabd 4562 84bd e2e7 94bd
000003c0: 7787 003e 9c54 1e3d a0cd b13d 0de6 783d
000003d0: 5871 813d ed22 473d 47e5 bdbd a07a 2dbd
000003e0: 2fc6 303d 7575 9a3c a79a 89bb 9bd1 ec3b
000003f0: 471d f23c 92ca a4bd 2e5b bfbb e00a 19bd
-0.05310086 0.045945026 -0.041278586 -0.037523724 -0.04172496 -0.03148062 -0.0949317 0.052652754
0.024950232 -0.054717172 0.012717938 0.0027881726 -0.044932563 -0.058443516 0.10824883 0.12174746
0.049313344 -0.044170238 0.033838842 -0.103873596 0.00998922 -0.07108309 -0.10150245 0.02709881
-0.01588671 0.057922274 0.091110416 0.02883378 0.06434056 0.049848158 0.099170506 0.04311146
-0.034312584 0.033273134 -0.060124964 0.000845102 0.09875587 -0.09236122 -0.09440023 0.10892938
0.069445886 0.08141434 -0.016251994 0.00067228335 0.05445985 -0.002481822 -0.012549972 -0.026841832
-0.07148333 0.06378704 0.066981405 -0.08631629 0.07139678 0.07423449 0.056487188 0.08016483
0.118584104 -0.094458565 -0.010081016 0.06358306 -0.009369797 -0.044946898 -0.056070916 -0.032176282
0.022442382 -0.039406214 -0.011234535 -0.09097054 -0.08460056 0.078919455 -0.101537384 0.008890875
0.101693295 -0.07692062 0.041569266 0.020826316 0.045843903 0.11143337 -0.08928852 -0.009204669
-0.01795898 0.041053716 -0.057872992 0.05321917 0.034343757 -0.013518711 -0.06971989 -0.08261059
-0.01823061 0.00047408527 -0.009100566 -0.0024041606 -0.050461322 -0.039748177 0.085527346 -0.06971598
0.10375011 -0.0030458053 -0.027969768 -0.07637064 -0.038289648 0.061092142 0.017228603 -0.06361324
0.03389191 -0.09450412 -0.023900712 0.11840804 -0.030078406 0.05471687 -0.068352655 -0.059451528
-0.010608478 -0.08787567 0.0934378 -0.01753951 0.047098298 0.028486686 0.07788302 0.056953173
-0.008042696 0.065608256 0.101198 -0.0063941907 -0.0047245002 0.10795251 0.08904423 0.073682405
-0.04087952 -0.012306098 0.1075267 -0.04755966 0.035760492 -0.06167375 0.030743355 -0.041921064
0.04210837 -0.052194994 -0.068019494 -0.07155504 0.020157235 0.027110534 -0.07290474 0.024172384
0.07412031 -0.0611897 -0.012395253 -0.10829576 0.019524336 0.034268256 0.0448309 0.020391501
0.030650537 0.04089954 0.07629359 0.08972751 -0.08910246 -0.057191137 0.08372559 0.056525238
0.08050577 0.08374517 -0.03238563 -0.07315083 -0.058653016 0.0018560255 -0.005316659 0.014807878
-0.003037951 -0.12592274 0.0226627 -0.0156013835 -0.027469786 0.020639943 0.080482304 -0.093529314
-0.062462833 -0.0035145392 -0.013786662 0.092160456 0.020554598 0.07290926 -0.025098898 -0.028659279
-0.10243784 0.06414828 0.120489664 0.051948335 0.06999323 0.06722393 0.017888684 -0.078223184
0.04804602 0.073171996 -0.112378605 0.09996237 -0.09324883 0.010182301 -0.04262501 0.018999582
-0.117784366 0.098472476 -0.0110696405 -9.637971e-05 0.06152848 -0.048745975 -0.041130345 -0.06759502
-0.07793923 -0.09281322 -0.029446691 0.03362688 -0.051747397 -0.0710784 0.06573572 0.016286766
0.077675976 0.09618898 -0.020742236 -0.10086519 -0.084623024 0.01856574 0.036565393 0.07952291
-0.118939705 0.004822293 0.014814547 0.1074223 -0.09152747 0.06940438 0.10302521 -0.06335187
0.018534854 -0.04320112 -0.05465958 -0.021264652 -0.09705766 -0.08343122 -0.06464056 -0.07270791
0.12551676 0.03865491 0.08681798 0.06076627 0.06320447 0.048617292 -0.09272247 -0.042353272
0.043157753 0.018854836 -0.004199344 0.0072271354 0.029554976 -0.0804645 -0.005839727 -0.037363887

lstm.weight_hh_l0 f4 [512, 128]
00000000: 1b32 993d 7d82 81bd 9f89 1b3d 574d 913d
00000010: a90e 49bc 5623 1b3c 1242 083d e2b1 9f3d
00000020: 0c28 9ebd 6da6 b3bd 76bb 3f3d 670f b73d
00000030: f4a8 d7bc be9c 98bc 3a40 333b 5bbd b63c
00000040: 5783 adbd cdfd 0bbc a9ba 523d 782d bb3d
00000050: 7448 8fbb 162d e63a d8ea 99bd b5ba b13d
00000060: 4a47 40bd 496f 75bd dea8 a1bd d5d6 853b
00000070: 7b59 19bd f391 fd3b 5307 a9bd a978 5abd
00000080: a72b 8abd 95c3 2dbd 4acd 873d b532 66bd
00000090: a51a 6f3c d829 4b3d d220 11bb f27f 853d
000000a0: 2bbf 28bd 088c a0bd bb9c e6bc 3a68 8abd
000000b0: db8d 21bd 75f3 f93c e5c4 15bd e4d8 113d
000000c0: fa9b 44bd a01d d23a 8ad8 a83d 4f10 83bd
000000d0: 40bc c03d 7021 a1bd ccec c0bc a550 d23d
000000e0: 343e de3d 4a97 e23c cf85 243d bf15 05bd
000000f0: 3812 6ebd e8b4 09bd a788 ae3d 361c bd3d
00000100: 812b 8cbd dcb9 6a3c fd95 9ebc c70b 8e3d
00000110: 8acb ac3d db3a e8bc c149 913d 0134 bdbd
00000120: 8c60 2e3d db10 203d 831e 20bd c5ac 813d
00000130: ca04 0cbd f802 58bc 5160 21bd fcba abbd
00000140: 44e9 3bbd f56c 183d e4a1 6c3d 4cbc c43d
00000150: 6385 bc3d a9ac 9c3d 2a59 c3bd e205 c0bc
00000160: 13af 103d b213 8cbc 13e2 bd3d 6d34 943d
00000170: 6c1e aabc ed73 b8bc f4b3 653c 2fea a23c
00000180: 16f7 1e3d d382 b53d 5a37 fd3c 5839 8abd
00000190: 2cfa a03d 20a4 9e3d a644 c0bd 0b6b 2cbd
000001a0: 4621 97bd a425 a2bd 20d8 edbc 8183 aabd
000001b0: a813 d7bc ed82 80bd f8b5 153c 5bb3 4b3c
000001c0: 2e31 a53a 493d b3bc 2331 e2bd 49da 27bd
000001d0: ed22 10bd 213d 8e3d d315 28bd 36a3 6f3d
000001e0: 44de 1a3c 3a88 3fbd 60bf abbd ebac 8cbd
000001f0: e20d a8bd 3ce5 8a3d 338d da3d 2dbf 883d
00000200: c1d0 873d ffe7 be3d 9760 953d bc0a 35bd
00000210: a1a2 0cbd 7334 913d d489 34bd 57a0 93bd
00000220: 84be 883d 777c 423d 9aa5 8c3d 431c 4dbd
00000230: cadc bb3d ca7b b6bd 6982 bbbd 23b4 5d3d
00000240: 0a30 2bbd 6563 9bbd 18a8 8c3d 27e6 f7bc
00000250: 368a e9b9 2a7c bfbd 13b6 31bc d35d 833d
00000260: 583a a3bc 1edf f2bc a673 ccbd da62 03bc
00000270: 3f5c 8c3d 072b acbd 5a0f a03d 77b5 843d
00000280: 5b54 36bd 2fac f2bc 19f0 973d 3d6e ba3b
00000290: d0b1 a4bd 3fb3 8c3d 0dcb 48bd d91f 26bd
000002a0: 0c91 123d d519 a9bc bbb2 8ebd d270 81bd
000002b0: c295 893c bb6e 88bd 2da9 20bd d38b 693c
000002c0: 9c49 8c3d 74dc 9a3c 2535 acbc 6dd3 1b3d
000002d0: 12c0 fbbc 02f3 b53c 0ea4 00bd 2b37 9fbd
000002e0: c065 e9bd 701a e9bb 8e8f ad3c d5d4 45bd
000002f0: 3eaf 933d 6c0a 06bd 6b39 9bbd e690 1ebd
00000300: c94a 293d de2d e63c 8d21 b6bd d7bb bb3d
00000310: 0f7f 563b 84a9 85bd a391 cdbc 797b afbd
00000320: a39b 8fbd adba 65bc 8ba3 853b c325 003d
00000330: d3c8 ecbc 5c2c 16bd 095a 7e3c 8cf7 783d
00000340: 1e17 84bc 95d1 3ebd d28f 53bb f8f5 8c3d
00000350: 644b d43d 3ad6 d03a 2f83 6abd 42a8 dbbd
00000360: 97ce 083d 4f2a ee3c 4e0a 51bc 30bc ccbd
00000370: e7f8 853d bf38 3abc 2468 b5bd e6c4 c63d
00000380: 958a d03d e172 943d f2df aabd aff3 063d
00000390: e841 81bd d624 c43d 9969 093d 6859 15bc
000003a0: 330e 983d cdfa 87bd 6f1e e7bb 2317 96bc
000003b0: 6075 9bbd 8cb9 043c 88c0 a33d 8890 7c3d
000003c0: 30a3 953d 9648 883d ee02 733d c291 95bd
000003d0: e40a 823d 8b24 41bd 44a3 443c 0996 82bd
000003e0: 19b5 9b3d 2618 acbc 69a3 98bd e268 a5bd
000003f0: d382 83bd cc8e c4bd a68b d03d 92c0 863c
0.0748026 -0.06323717 0.037973043 0.070948295 -0.012271562 0.009468874 0.033266135 0.077976
-0.07722482 -0.087719776 0.046809636 0.08938485 -0.02632568 -0.018629428 0.0027351514 0.022307089
-0.08472317 -0.008544398 0.051447544 0.09139532 -0.0043726508 0.0017561044 -0.07515496 0.0867819
-0.046942987 -0.059920583 -0.07893537 0.004084448 -0.03743885 0.007738346 -0.0825335 -0.053337727
-0.06746607 -0.04242285 0.06630953 -0.0562007 0.014593755 0.049600452 -0.0022144807 0.06518544
-0.041197937 -0.07839209 -0.028150907 -0.06758161 -0.039441925 0.030511597 -0.036564726 0.035607234
-0.048000313 0.0016030557 0.082444265 -0.06399595 0.09410906 -0.07867706 -0.023550414 0.10269288
0.10851708 0.02766003 0.040166672 -0.03249144 -0.058122844 -0.03361979 0.08522158 0.092338964
-0.06844235 0.014326539 -0.01935863 0.0693584 0.084372595 -0.028348377 0.070941456 -0.092384346
0.042572543 0.039078575 -0.0390916 0.06331781 -0.034184255 -0.013184302 -0.039398495 -0.08385274
-0.045876756 0.037213285 0.05777158 0.09606227 0.09205129 0.0765012 -0.09538491 -0.023440305
0.035323214 -0.017099235 0.09271636 0.07236562 -0.02076646 -0.022516215 0.014019955 0.019887058
0.03880986 0.08862843 0.030910183 -0.06749219 0.078602165 0.07746148 -0.09388094 -0.04209427
-0.07379393 -0.07917336 -0.02903372 -0.08325864 -0.02625449 -0.06274972 0.009137623 0.012432898
0.0012603158 -0.021879809 -0.11044528 -0.040979657 -0.035189558 0.06945253 -0.04103644 0.05850526
0.009452406 -0.046760775 -0.08386111 -0.06868919 -0.08205773 0.06782004 0.10671463 0.06677089
0.066316135 0.093215935 0.07293814 -0.04419969 -0.034334783 0.07090082 -0.044076756 -0.07208317
0.06676963 0.04748198 0.068675235 -0.05007578 0.091729715 -0.0891033 -0.09155733 0.05412687
-0.04179386 -0.075873174 0.06867999 -0.030261112 -0.00044544198 -0.09349854 -0.0108466325 0.0641438
-0.019925281 -0.029647406 -0.09982996 -0.0080191735 0.06853532 -0.08406644 0.07815428 0.06479924
-0.04451404 -0.02962312 0.07418842 0.005689411 -0.080417275 0.06870126 -0.04902177 -0.040557716
0.03578286 -0.0206422 -0.06967684 -0.06320347 0.016795043 -0.06661745 -0.03922384 0.014254528
0.068499774 0.018903948 -0.021021435 0.03804343 -0.030731235 0.022210602 -0.031406455 -0.07774194
-0.113963604 -0.0071137473 0.021186616 -0.048298676 0.07211159 -0.032724783 -0.07579311 -0.038712405
0.041331086 0.028098043 -0.08893118 0.09166687 0.0032729541 -0.06526473 -0.025093859 -0.085684724
-0.07012107 -0.014021558 0.0040783337 0.031286012 -0.028904354 -0.0366634 0.015524396 0.060782954
-0.016124304 -0.04658659 -0.0032281769 0.06882852 0.10365942 0.0015932985 -0.057254013 -0.10725452
0.033400144 0.029072909 -0.0127588045 -0.099968314 0.06541615 -0.011366068 -0.08857754 0.09705524
0.101826824 0.07248474 -0.083434954 0.03294724 -0.06311399 0.095773384 0.03354797 -0.009115554
0.07424583 -0.06639633 -0.0070531885 -0.01832158 -0.07590747 0.008100878 0.07995707 0.061661273
0.07306516 0.0665447 0.059328966 -0.07303192 0.063497335 -0.04715399 0.012001816 -0.06376273
0.07602901 -0.021007609 -0.07453043 -0.080766454 -0.06421437 -0.09597549 0.10182886 0.016449247

lstm.bias_ih_l0 f4 [512]
00000000: 820d 793c 7b8a f73b 23bf 593c a5a3 593c
00000010: 2487 183c 9f25 823c 5c1f 563c 7b23 8a3c
00000020: bec6 8b3c 82e9 44bb 4b82 a9ba c7a8 673c
00000030: 4dbb 403c 1b48 4b3c 521d 5f3c 4942 48bb
00000040: 1116 2b3c 68ef 2a3c 9b88 bc3c ea5f 563c
00000050: 2e40 153c 19da 6c3c c837 85bb a2ac 713c
00000060: 3e8d 5d3c ab03 7b3b e686 e639 e814 193c
00000070: 9489 a93c a150 3d3b ced1 853c 04df 7d3c
00000080: dba9 8a3c 98bf 7e3c 3fdd fa3b b442 843c
00000090: 0f57 1c3a 0688 8e3c cfae bcbb f840 c33b
000000a0: 3285 363c 57dc 873c 228a de3b 9fe6 633c
000000b0: a444 5c3b 32d8 33bb 4054 2f39 b669 733b
000000c0: 9565 653c 434c 803b 3e52 933b 0f19 153c
000000d0: d65d 443c d56b 0d3b 3297 5e3c 49b2 8b3c
000000e0: cd4c 833c 823d 07bb cfd9 313b def8 373c
000000f0: 2f22 9d3c 6cb7 483c 14c1 af3b 3200 923c
00000100: 8efd 1e3c 5e17 453c fd6a a43c 3efb 063b
00000110: 2ffe d83b 94aa ddb7 aa8c 723b bf7d 4e3c
00000120: 8533 d33b 0a39 803c 2f1a 3a3c c893 263c
00000130: 260d 563c e039 483c fd1c 743c ce38 18ba
00000140: edc4 203c b90a 46bb 72e9 2aba 3856 213c
00000150: 6de7 0fbc a988 693c b500 3638 806c b73b
00000160: 134f 843c 1857 e0b9 d601 063c 4004 8d3c
00000170: 0416 813c e247 6e3c f7ff 1d3c f405 1f3c
00000180: 4d37 d73b 3c52 de3b 68a9 563c 1a0b 7a3c
00000190: a5e7 d83b 0a18 1b3c 7cd6 613c d1bc d33b
000001a0: 43b8 e43b 9d75 6e3b 2ea9 453c 3757 c3ba
000001b0: a67e 3e3b da27 353c a47b 0d3c 0273 8d3c
000001c0: 575f 853c a7c9 443c b0dd 563c cd9d 523c
000001d0: 993a 7f3c 616c 263c 26b0 c13b 55cd 883c
000001e0: e553 523c 5ff0 223c c98d 7b3c 920f 7d3c
000001f0: 04b5 ab3b 33de d83b 4675 6b3c ab54 373c
00000200: f264 ea3b 4f9a 023c 404f 443b 33b8 3e3c
00000210: 89e7 ae3b b6b7 523c 39e6 113c fb2a 163c
00000220: b03e 093c 1a5f 1ebb 41b2 40bb cf37 fd3a
00000230: a4c1 933b cbd7 523a 5f57 523c d852 923b
00000240: aede a13b 5ea7 fb3b c047 af3c b881 3a3c
00000250: 230c 5d3a 6aa3 5b3b c25e 52bb ac6b 3f3c
00000260: 9bd2 dc3b 5885 8939 ca06 8dba c518 d33b
00000270: bfff bc3c 8e76 5c3b 418b 1a3c a395 2b3c
00000280: 898d 943c 4050 393c a4ff 5bbb 2c7d 7f3c
00000290: 6836 d3ba 4631 0e3c 45bb 69bb d8ed 103b
000002a0: a2fd 123c b4eb 2e3c e589 b83a 6105 0b3c
000002b0: ebfb ce3b 1383 e83a d740 ba3a 316c f93b
000002c0: 6f0a 193c b4e4 af3b 4846 253b dab3 b73b
000002d0: 73a7 003a bf1d 1b39 3671 6a3c 59fa 113c
000002e0: ea16 5e3c b218 10bc 30a9 d2bb 9b91 dd3b
000002f0: e052 863c 6725 393c 1bbb 293a c8d7 a23c
00000300: f07d cd3b 8b0a 913b ef82 693c b46a 8cbb
00000310: 0a2c 003b fcbc 21ba 125a cf3b 4f6c 0b3c
00000320: f544 723b 4720 2b3c 259a 3d3c d97b cb3b
00000330: 3395 fc38 8704 e239 9277 9e3b 884c 2e3a
00000340: 76d1 1a3c c2a2 dcbb 228d 2c3a 6f20 683b
00000350: 2372 a5bb a07e 913b 8fba 7b3a dd57 063c
00000360: e4e0 4c3c f33c 23bb 4425 763b 594c 893c
00000370: eb4c fb3b 4968 793c 9a2f 863b 243b 8b3a
00000380: 1fa9 a8ba e232 e838 0faf 803b 6575 523c
00000390: 6be0 cd3b 7c67 e2ba f1a8 3e3c 0299 043b
000003a0: d9d2 20bb 6506 81ba cc13 2c3c 4a11 d2ba
000003b0: 639d 0b3b 1bd5 363b 5a8f c83b 703c a53c
000003c0: b8b0 333c f23a 1b3c 7c73 253c ae2d 6a3b
000003d0: 4cd3 3f3c ea58 0c3b 3566 8d3b c1aa 003c
000003e0: 016a ee3b 23f6 4c3b 15d9 e4bb a7ca 093c
000003f0: dc17 a83a 6823 573b 3d59 4e3c 9df8 423b
0.015200974 0.00755435 0.013290199 0.013283645 0.009309564 0.01588708 0.013069 0.016862622
0.017062541 -0.0030046408 -0.0012932507 0.014139361 0.011763406 0.012407328 0.01361783 -0.0030557087
0.010442273 0.010433055 0.023014357 0.013084391 0.00910954 0.014456295 -0.0040654875 0.0147506315
0.013522444 0.0038301747 0.00043969526 0.009343363 0.020695485 0.002888717 0.016335394 0.015495066
0.016926697 0.015548609 0.007655769 0.016145088 0.00059639005 0.017398845 -0.0057581435 0.0059586726
0.011140155 0.016584558 0.006791369 0.013909965 0.003361025 -0.0027442095 0.00016720686 0.0037141866
0.01400127 0.003915341 0.004495888 0.009100213 0.011985263 0.0021579165 0.013585852 0.017052786
0.016027832 -0.0020636027 0.002713788 0.011228768 0.01918134 0.012250762 0.005363593 0.017822359
0.009704007 0.012029497 0.020070547 0.002059653 0.006622098 -2.6424685e-05 0.0037010112 0.012603222
0.0064453506 0.015652198 0.011358782 0.01016707 0.013064658 0.01222083 0.0148994895 -0.00058068044
0.009812576 -0.0030218794 -0.00065197714 0.009847216 -0.008783204 0.014253774 4.339284e-05 0.005597651
0.016150987 -0.000427895 0.008179149 0.01721394 0.015757568 0.014543505 0.009643546 0.009706009
0.0065678717 0.0067847054 0.013101913 0.015261436 0.006619411 0.009466181 0.013784047 0.0064617177
0.0069799735 0.003638602 0.012064261 -0.0014903311 0.0029067188 0.011056865 0.008635435 0.017266754
0.016280813 0.012010968 0.013114378 0.012855005 0.015577936 0.0101576755 0.005910891 0.016699472
0.012837385 0.009945004 0.015353628 0.015445607 0.0052400846 0.006618285 0.014371222 0.01118962
0.007153147 0.00797136 0.0029954463 0.011640596 0.0053376597 0.012861183 0.008904987 0.009165521
0.008376762 -0.0024165572 -0.0029403123 0.0019319 0.0045091677 0.000804302 0.012838214 0.004465442
0.0049398756 0.007679864 0.021396518 0.011383466 0.00084322895 0.003351415 -0.0032099937 0.011683386
0.0067389733 0.00026230025 -0.001075947 0.0064421617 0.023071168 0.003364 0.009432615 0.010472688
0.018133895 0.011310637 -0.0033569122 0.015593808 -0.0016114237 0.00867874 -0.00356646 0.0022114422
0.008971604 0.010676313 0.0014079182 0.008485169 0.006316652 0.0017739258 0.0014209998 0.0076117744
0.0093408665 0.0053678397 0.0025218893 0.005606157 0.00049077644 0.00014793033 0.014309218 0.008909785
0.013555268 -0.00879495 -0.00642886 0.0067617423 0.01639694 0.011300421 0.0006474719 0.019878283
0.0062711164 0.0044263056 0.014252408 -0.004285181 0.00195575 -0.00061698235 0.006327876 0.0085097095
0.003696737 0.010444707 0.011572395 0.006209832 0.00012044087 0.00043109452 0.0048360312 0.0006648977
0.009449353 -0.0067332694 0.000658231 0.0035419723 -0.0050490065 0.0044401437 0.00096026895 0.008199659
0.01250479 -0.0024908155 0.0037558833 0.016760038 0.0076690814 0.015222617 0.00409503 0.0010622484
-0.0012867785 0.000110721 0.0039271186 0.012845372 0.006282856 -0.0017273272 0.011636958 0.0020232801
-0.0024539737 -0.0009843825 0.010502767 -0.0016026881 0.0021303527 0.0027898017 0.0061206045 0.02017042
0.010967426 0.009474503 0.010098334 0.0035732794 0.011708092 0.0021415302 0.0043151625 0.007853211
0.0072758202 0.0031274639 -0.006983886 0.0084101325 0.0012824493 0.00328275 0.012594518 0.0029750236

lstm.bias_hh_l0 f4 [512]
00000000: 820d 793c 7b8a f73b 23bf 593c a5a3 593c
00000010: 2487 183c 9f25 823c 5c1f 563c 7b23 8a3c
00000020: bec6 8b3c 82e9 44bb 4b82 a9ba c7a8 673c
00000030: 4dbb 403c 1b48 4b3c 521d 5f3c 4942 48bb
00000040: 1116 2b3c 68ef 2a3c 9b88 bc3c ea5f 563c
00000050: 2e40 153c 19da 6c3c c837 85bb a2ac 713c
00000060: 3e8d 5d3c ab03 7b3b e686 e639 e814 193c
00000070: 9489 a93c a150 3d3b ced1 853c 04df 7d3c
00000080: dba9 8a3c 98bf 7e3c 3fdd fa3b b442 843c
00000090: 0f57 1c3a 0688 8e3c cfae bcbb f840 c33b
000000a0: 3285 363c 57dc 873c 228a de3b 9fe6 633c
000000b0: a444 5c3b 32d8 33bb 4054 2f39 b669 733b
000000c0: 9565 653c 434c 803b 3e52 933b 0f19 153c
000000d0: d65d 443c d56b 0d3b 3297 5e3c 49b2 8b3c
000000e0: cd4c 833c 823d 07bb cfd9 313b def8 373c
000000f0: 2f22 9d3c 6cb7 483c 14c1 af3b 3200 923c
00000100: 8efd 1e3c 5e17 453c fd6a a43c 3efb 063b
00000110: 2ffe d83b 94aa ddb7 aa8c 723b bf7d 4e3c
00000120: 8533 d33b 0a39 803c 2f1a 3a3c c893 263c
00000130: 260d 563c e039 483c fd1c 743c ce38 18ba
00000140: edc4 203c b90a 46bb 72e9 2aba 3856 213c
00000150: 6de7 0fbc a988 693c b500 3638 806c b73b
00000160: 134f 843c 1857 e0b9 d601 063c 4004 8d3c
00000170: 0416 813c e247 6e3c f7ff 1d3c f405 1f3c
00000180: 4d37 d73b 3c52 de3b 68a9 563c 1a0b 7a3c
00000190: a5e7 d83b 0a18 1b3c 7cd6 613c d1bc d33b
000001a0: 43b8 e43b 9d75 6e3b 2ea9 453c 3757 c3ba
000001b0: a67e 3e3b da27 353c a47b 0d3c 0273 8d3c
000001c0: 575f 853c a7c9 443c b0dd 563c cd9d 523c
000001d0: 993a 7f3c 616c 263c 26b0 c13b 55cd 883c
000001e0: e553 523c 5ff0 223c c98d 7b3c 920f 7d3c
000001f0: 04b5 ab3b 33de d83b 4675 6b3c ab54 373c
00000200: f264 ea3b 4f9a 023c 404f 443b 33b8 3e3c
00000210: 89e7 ae3b b6b7 523c 39e6 113c fb2a 163c
00000220: b03e 093c 1a5f 1ebb 41b2 40bb cf37 fd3a
00000230: a4c1 933b cbd7 523a 5f57 523c d852 923b
00000240: aede a13b 5ea7 fb3b c047 af3c b881 3a3c
00000250: 230c 5d3a 6aa3 5b3b c25e 52bb ac6b 3f3c
00000260: 9bd2 dc3b 5885 8939 ca06 8dba c518 d33b
00000270: bfff bc3c 8e76 5c3b 418b 1a3c a395 2b3c
00000280: 898d 943c 4050 393c a4ff 5bbb 2c7d 7f3c
00000290: 6836 d3ba 4631 0e3c 45bb 69bb d8ed 103b
000002a0: a2fd 123c b4eb 2e3c e589 b83a 6105 0b3c
000002b0: ebfb ce3b 1383 e83a d740 ba3a 316c f93b
000002c0: 6f0a 193c b4e4 af3b 4846 253b dab3 b73b
000002d0: 73a7 003a bf1d 1b39 3671 6a3c 59fa 113c
000002e0: ea16 5e3c b218 10bc 30a9 d2bb 9b91 dd3b
000002f0: e052 863c 6725 393c 1bbb 293a c8d7 a23c
00000300: f07d cd3b 8b0a 913b ef82 693c b46a 8cbb
00000310: 0a2c 003b fcbc 21ba 125a cf3b 4f6c 0b3c
00000320: f544 723b 4720 2b3c 259a 3d3c d97b cb3b
00000330: 3395 fc38 8704 e239 9277 9e3b 884c 2e3a
00000340: 76d1 1a3c c2a2 dcbb 228d 2c3a 6f20 683b
00000350: 2372 a5bb a07e 913b 8fba 7b3a dd57 063c
00000360: e4e0 4c3c f33c 23bb 4425 763b 594c 893c
00000370: eb4c fb3b 4968 793c 9a2f 863b 243b 8b3a
00000380: 1fa9 a8ba e232 e838 0faf 803b 6575 523c
00000390: 6be0 cd3b 7c67 e2ba f1a8 3e3c 0299 043b
000003a0: d9d2 20bb 6506 81ba cc13 2c3c 4a11 d2ba
000003b0: 639d 0b3b 1bd5 363b 5a8f c83b 703c a53c
000003c0: b8b0 333c f23a 1b3c 7c73 253c ae2d 6a3b
000003d0: 4cd3 3f3c ea58 0c3b 3566 8d3b c1aa 003c
000003e0: 016a ee3b 23f6 4c3b 15d9 e4bb a7ca 093c
000003f0: dc17 a83a 6823 573b 3d59 4e3c 9df8 423b
0.015200974 0.00755435 0.013290199 0.013283645 0.009309564 0.01588708 0.013069 0.016862622
0.017062541 -0.0030046408 -0.0012932507 0.014139361 0.011763406 0.012407328 0.01361783 -0.0030557087
0.010442273 0.010433055 0.023014357 0.013084391 0.00910954 0.014456295 -0.0040654875 0.0147506315
0.013522444 0.0038301747 0.00043969526 0.009343363 0.020695485 0.002888717 0.016335394 0.015495066
0.016926697 0.015548609 0.007655769 0.016145088 0.00059639005 0.017398845 -0.0057581435 0.0059586726
0.011140155 0.016584558 0.006791369 0.013909965 0.003361025 -0.0027442095 0.00016720686 0.0037141866
0.01400127 0.003915341 0.004495888 0.009100213 0.011985263 0.0021579165 0.013585852 0.017052786
0.016027832 -0.0020636027 0.002713788 0.011228768 0.01918134 0.012250762 0.005363593 0.017822359
0.009704007 0.012029497 0.020070547 0.002059653 0.006622098 -2.6424685e-05 0.0037010112 0.012603222
0.0064453506 0.015652198 0.011358782 0.01016707 0.013064658 0.01222083 0.0148994895 -0.00058068044
0.009812576 -0.0030218794 -0.00065197714 0.009847216 -0.008783204 0.014253774 4.339284e-05 0.005597651
0.016150987 -0.000427895 0.008179149 0.01721394 0.015757568 0.014543505 0.009643546 0.009706009
0.0065678717 0.0067847054 0.013101913 0.015261436 0.006619411 0.009466181 0.013784047 0.0064617177
0.0069799735 0.003638602 0.012064261 -0.0014903311 0.0029067188 0.011056865 0.008635435 0.017266754
0.016280813 0.012010968 0.013114378 0.012855005 0.015577936 0.0101576755 0.005910891 0.016699472
0.012837385 0.009945004 0.015353628 0.015445607 0.0052400846 0.006618285 0.014371222 0.01118962
0.007153147 0.00797136 0.0029954463 0.011640596 0.0053376597 0.012861183 0.008904987 0.009165521
0.008376762 -0.0024165572 -0.0029403123 0.0019319 0.0045091677 0.000804302 0.012838214 0.004465442
0.0049398756 0.007679864 0.021396518 0.011383466 0.00084322895 0.003351415 -0.0032099937 0.011683386
0.0067389733 0.00026230025 -0.001075947 0.0064421617 0.023071168 0.003364 0.009432615 0.010472688
0.018133895 0.011310637 -0.0033569122 0.015593808 -0.0016114237 0.00867874 -0.00356646 0.0022114422
0.008971604 0.010676313 0.0014079182 0.008485169 0.006316652 0.0017739258 0.0014209998 0.0076117744
0.0093408665 0.0053678397 0.0025218893 0.005606157 0.00049077644 0.00014793033 0.014309218 0.008909785
0.013555268 -0.00879495 -0.00642886 0.0067617423 0.01639694 0.011300421 0.0006474719 0.019878283
0.0062711164 0.0044263056 0.014252408 -0.004285181 0.00195575 -0.00061698235 0.006327876 0.0085097095
0.003696737 0.010444707 0.011572395 0.006209832 0.00012044087 0.00043109452 0.0048360312 0.0006648977
0.009449353 -0.0067332694 0.000658231 0.0035419723 -0.0050490065 0.0044401437 0.00096026895 0.008199659
0.01250479 -0.0024908155 0.0037558833 0.016760038 0.0076690814 0.015222617 0.00409503 0.0010622484
-0.0012867785 0.000110721 0.0039271186 0.012845372 0.006282856 -0.0017273272 0.011636958 0.0020232801
-0.0024539737 -0.0009843825 0.010502767 -0.0016026881 0.0021303527 0.0027898017 0.0061206045 0.02017042
0.010967426 0.009474503 0.010098334 0.0035732794 0.011708092 0.0021415302 0.0043151625 0.007853211
0.0072758202 0.0031274639 -0.006983886 0.0084101325 0.0012824493 0.00328275 0.012594518 0.0029750236

lstm.weight_ih_l1 f4 [512, 128]
00000000: aebc 993c 6647 dcbc d8e3 63bd 4c96 86bd
00000010: 8b90 e63c 1638 843d edae 7bbc c50e 89bd
00000020: afe9 01bc a20a 87bd c30c 84bd 53bb eabb
00000030: 52d8 983c 2a15 643c d449 96bd 488c 2b3a
00000040: 3d81 7b3d bbf8 febc 0381 ed3c cef6 b13d
00000050: de6f be3d 4258 81bd 3b4f 9abc 346b 4abd
00000060: e7ca 353d e434 27bd d46b 8a3d 6358 963d
00000070: 65c3 00bd 48ef 8d3d 2764 f4bc d064 d6bd
00000080: 9bb1 af3d a563 8cbc ca9b 91bd 2323 a03d
00000090: eb66 923d d81e 8abb 53ba 923d 0cb6 c43d
000000a0: fb56 43bc 0de8 cdbc afaf 49bd a076 4c3d
000000b0: d375 afbb 5077 6a3c b108 87bc ce0e c0bd
000000c0: f5fa 95bc edf6 f63c eae0 573c 3577 d7bc
000000d0: cab4 73bd daee febc b543 b83d 00ad cc3d
000000e0: e71b 893d 55ae a73c 4389 c1bd 8c5e 81bd
000000f0: 97ad 47bd 1fc8 de3b b8cf 6cbd 6a25 1e3d
00000100: 3479 b0bd 729b 4b3c cef4 393d 98d7 12bd
00000110: de4d 803d 98d3 a03d 59ca 653c d32f 563c
00000120: 1f71 85bc 3b4f 35bd 8ca5 9b3d a057 d63c
00000130: c055 443d baa6 9cbc 2807 96bc 86c1 30bd
00000140: 4989 e53c 7f05 82bc 8115 a0bd 3c55 603c
00000150: f655 4ebd d0e1 e3bc 8f2f cebc c595 4d3d
00000160: bbf9 99bc b5ce 8abd 2869 28bd b6b4 4abd
00000170: a472 a0bc 533e 2d3d 3ec7 fb3c 79a7 acbd
00000180: 4eb1 373d 8a79 83bc bab0 27bd d765 933d
00000190: 1694 d7bc 3a3b a4bc d009 9f3d fda7 a63d
000001a0: 97bb a5bd a6ae 88bd 539b 6ebd 881d c63d
000001b0: c2e9 6b3d 718b bb3d 898d 04bd c2ff 08bd
000001c0: f592 9f3d b4e1 f13c 14f1 bb3c 932a 79bd
000001d0: 8b70 003d 465a 3bbc 3195 443c e5c5 503d
000001e0: c60f e0bd 02e4 193d 97e1 d6bc c7b3 3dbc
000001f0: ff15 b13d ecef 1f3d f86f f33b 153d 733d
00000200: 5ac6 aa3d 1fd0 b2bd f8f7 103d 52c6 243d
00000210: d379 48bd 63e5 5d3c 4278 663d 8d69 af3c
00000220: d6cd 20bd b083 da3c 9322 41bc b9c5 583c
00000230: 5428 9e3d 87f0 f3bc ac68 9e3d 49a3 afbd
00000240: 3738 21bc 819c 8b3d 57c2 643d 739c b3bd
00000250: e8ff 153d 5ac9 5b3d 60da 2dbd 1442 363d
00000260: 92cc 3c3d b891 f43b 3912 a23a 581d 053d
00000270: 90d5 b73d 587d 52bc 90cd 9ebd 87d0 3b3d
00000280: 5e4f 763d 595a 2c3d 8630 a4bd 11c9 b0bd
00000290: b6be 76bd d2dd a0bd c4a0 923d efa1 aebd
000002a0: 9ee3 b33c 3cd7 aebd 8064 483c b2d1 01bd
000002b0: 0c69 3fbd c4c5 a23d 3cef af3d af2d 5b3d
000002c0: 3e08 3f3c af7c c53d aafc dbbc b48f 0cbd
000002d0: 1951 9f3d a49b 0dbc 0030 9e3d 8d2b 6e3d
000002e0: 7729 73bd 41c3 c0bc fdaf 7f3d 73f8 b73d
000002f0: baa8 323d 88ea a1bc a94a 413b db0a 4b3d
00000300: c6cd 65bd dd99 843d 9697 f7b9 8188 383d
00000310: 62e6 94bd 6a02 27bd b446 61bd 5101 5fbc
00000320: 085a 133c 7c52 ab3d 06b9 303d 652c 86bd
00000330: 542c a7bd 0543 8cbd 655b c13c 59c4 90bd
00000340: 0405 a9bc 8cc6 983d 45dc 933b 7c65 2cbd
00000350: ff6f 9f3b 86c4 42bd 7455 ac3d d2a8 82bd
00000360: a989 393c a217 cabb 1c5c 98bc 082b 663d
00000370: ca6f 12bd f49b abbc fa1c bf3d 5acf acbc
00000380: 060f 9ebd 1831 0bbc 5d10 873d d574 993d
00000390: b42d 2dbd 1a1c 88bb ea1b ba3c f822 c0bc
000003a0: 9cf8 273d e48c d53c 0aa0 1f3d d5da cb3a
000003b0: 7358 8b3b ef68 da3c 3e35 84bc 7f21 9c3d
000003c0: dcd9 80bd 57db d3bd 90b2 043d 37ea aabc
000003d0: 97dd 6d3d 703b 8f3d b9df 673d 7048 5abb
000003e0: 4e48 febc a3e2 403d 2e19 74bd a460 033d
000003f0: d1fc be3d 5f2b 5fbc 515d aa3d c910 0f3c
0.018766727 -0.026889514 -0.05563721 -0.065716356 0.028145095 0.0645601 -0.01536153 -0.0669227
-0.00792925 -0.06593825 -0.064477466 -0.007163444 0.018657837 0.0139210615 -0.073383 0.0006544036
0.061402548 -0.031124463 0.028992182 0.086896524 0.09298681 -0.06315662 -0.018836608 -0.049418643
0.044382956 -0.040821925 0.06758848 0.07341077 -0.031436343 0.06930405 -0.029832913 -0.10468447
0.085787974 -0.017137358 -0.071097925 0.07819202 0.07148536 -0.0042151026 0.07164445 0.09605035
-0.011922593 -0.025135064 -0.04923981 0.049917817 -0.005354622 0.014310673 -0.016483637 -0.09377824
-0.018308142 0.03014704 0.013176182 -0.02630196 -0.059498586 -0.031119753 0.08997289 0.09993935
0.06694775 0.02046887 -0.09450009 -0.063168615 -0.048749533 0.0067987586 -0.057815284 0.0386099
-0.08616868 0.012427198 0.04539948 -0.035850137 0.06264852 0.07852858 0.014025294 0.013072926
-0.016289292 -0.044265013 0.07599935 0.02616483 0.04793334 -0.01912247 -0.01831396 -0.04315331
0.028019564 -0.015871761 -0.078166015 0.013692196 -0.050374947 -0.027817637 -0.025169162 0.05019166
-0.018795839 -0.067777075 -0.04111591 -0.049488746 -0.019585915 0.042295765 0.030734655 -0.084303804
0.044846825 -0.016049165 -0.040940024 0.07197159 -0.02631573 -0.020047773 0.077655435 0.0813751
-0.080924205 -0.066739365 -0.058253597 0.096736014 0.057595976 0.09157456 -0.03236154 -0.033447035
0.07791702 0.029526569 0.022942103 -0.060831618 0.03135733 -0.011435097 0.011998461 0.050969977
-0.109405085 0.03757096 -0.026230616 -0.011578507 0.086467735 0.039047167 0.007429119 0.059384424
0.08338614 -0.08731102 0.03539273 0.040228195 -0.048944306 0.01354346 0.05626703 0.021412635
-0.0392588 0.026674122 -0.011788028 0.0132307345 0.07722536 -0.029777778 0.07734808 -0.08576066
-0.009840063 0.0681696 0.0558494 -0.08770075 0.036621004 0.05365882 -0.042444587 0.04449661
0.04609353 0.00746366 0.001236505 0.032498688 0.08976281 -0.012847267 -0.07754052 0.045853164
0.060134284 0.04207835 -0.080170676 -0.086321004 -0.06024047 -0.07854809 0.0715957 -0.0852698
0.021959122 -0.085371464 0.012230992 -0.03169412 -0.04673104 0.07947877 0.08590552 0.053510364
0.01165968 0.09642922 -0.026853878 -0.034316733 0.0777914 -0.008643065 0.07723999 0.058147002
-0.059365716 -0.023530604 0.062423695 0.08982935 0.04361794 -0.019765154 0.0029493964 0.0495709
-0.056104444 0.064746596 -0.00047224452 0.045052055 -0.072705045 -0.040773787 -0.05499907 -0.013611154
0.008993633 0.08365342 0.043145202 -0.06551436 -0.08162752 -0.068487205 0.02360315 -0.070687
-0.020632274 0.07459745 0.004512342 -0.04208897 0.004865646 -0.0475507 0.084147364 -0.06379856
0.011324325 -0.006167368 -0.018598609 0.05619338 -0.03575114 -0.020948388 0.09331699 -0.021094967
-0.07717709 -0.008495592 0.06594918 0.07492987 -0.042279914 -0.0041537406 0.022718389 -0.023454174
0.041008577 0.026068158 0.038970985 0.0015552888 0.0042524873 0.026661364 -0.01613867 0.076235764
-0.062915534 -0.1034457 0.032396853 -0.020863635 0.058072653 0.06993759 0.056609843 -0.0033307336
-0.031040337 0.047091138 -0.059594326 0.032074586 0.09325565 -0.01362118 0.0831858 0.008732029

lstm.weight_hh_l1 f4 [512, 128]
00000000: 346a 3dbd 6fde 5a3d cee8 b439 eed3 bfbd
00000010: 2e39 b2bd 4046 c8ba 7f3b 35b9 d217 9cbd
00000020: 6593 22bc 1cf8 053d 0b70 a5bd a654 4ebd
00000030: e95f 3f3d b0db 4bbd f00b 573d e2b6 9cbd
00000040: eebd 3bbd a41a 443d 25ec 8b3d eeee f6bb
00000050: 1f05 debc 22a1 c0bb 6923 58bc 1af7 323d
00000060: 6923 edbc 0ff2 c43d 1696 8a3b 5ab6 fabc
00000070: 8077 9f3d 3c2c 573d 34ba 18bc 8ef6 733d
00000080: 9bf0 493d 4af9 05bd 58ec 4fbd 66bd e83c
00000090: 765d cabd 134d 65bd 2b8e bcbd 192a 373c
000000a0: d575 b9bd b0ed dbbc e2c2 913d 5cb0 813c
000000b0: 0f46 80bd d835 89bc 3ad2 27bd c270 b0bc
000000c0: 5ef7 e5bc 24c0 9cbd 50f0 8b3d 51c9 8c3d
000000d0: 9e5f b83d 2e4a 1abd bc34 5bbd 62a5 72bd
000000e0: 5291 a23d d4d2 4abd fb68 b7b9 19b3 9439
000000f0: 8342 45bc a1a3 e9bc af0f 3b3d 8ddb 1cbb
00000100: a0d7 25bb f3c4 10bd 83cb 0ebc 1564 783c
00000110: f784 babd 4d98 75bd 8620 81bd 2e2d 6c3d
00000120: 993d abbd d924 fcb9 c2e7 aa3d c595 ffbb
00000130: 4282 b03d e965 813d cb09 443d 7a84 81bd
00000140: f914 b33a 9386 8e3d 388f d43d d1fd e43c
00000150: eb6b 453d 61b5 9ebc ed9c 9b3d cbb3 9ebd
00000160: 9cea 833d ba56 4d3d 5786 543c 2903 5cbd
00000170: 59d7 b1bd 9d17 0e3c 3717 bd3d ad0d d63d
00000180: 985b 80bd ce9b 6ebd 6188 bcbd 5f3e 643c
00000190: b7d2 373c 628f 8abc 85f9 7fbd 3a7e f3bc
000001a0: e707 72bd e6b9 83bd af8a 41bd 0fc0 b1bd
000001b0: d4a3 bb3d 5e6d c93d 4181 b33d 862f a7bc
000001c0: bb25 b2bc 1ae2 65bd 29a2 19bc 9e9e b23d
000001d0: 4a0d 9fba 93b1 a43d a606 04bc 87bd 883d
000001e0: c962 cdbb b564 4ebc 50ef 72bc ca3a 373c
000001f0: 7430 4b3d 6632 843d 3d73 07bd 169e c1bd
00000200: 0e67 57bd 8789 d53a 191d 8b3d 699c 193d
00000210: 5414 6c3d 9239 61bd 9120 afbc 26d1 36bd
00000220: 990f 90bd 89e3 7d3d 0b9a 93bd 7f00 25bc
00000230: cee1 9dbc 3b4a 973d e93a 993d b1e6 ad3c
00000240: cef2 74bd 0bab 03bc b11c bfbd a8ee 07bd
00000250: c4f4 433c 4021 8bbc fff4 c1ba 2ea6 0abd
00000260: 5f3a 20bd 02b9 853d ca90 cebd 50fc 4b3d
00000270: cb81 85bd 3732 293c e634 633d f2f0 b9bb
00000280: bd36 96bd cae2 3c3d defb 523d 8289 663d
00000290: 5101 5bbd 88a3 b3bc f71d 40bd 2a4a 98bd
000002a0: 578c 13bd a00e b3bd 7e27 63bd db04 5ebd
000002b0: 9cf2 2cbd 9b60 953d 8ddb 31bd 5528 95bd
000002c0: 6bd4 17bd 45b4 38bd b273 f9bc 4b13 e13c
000002d0: 8787 cd3c e80c 523d d10a a83d ac17 07bd
000002e0: ae3c 453d cb4f 8fbc 9d8d 9a3d ebd2 93bc
000002f0: dbf4 8abd 34a1 45bd d16f 963d 3924 933c
00000300: 6b03 c63d db25 c3bc ee91 8e3d b680 c63c
00000310: 9cdd 6c3d 4ebf c3bd 5c88 88bd 33f6 1a3d
00000320: 6e36 6c3d 139c 9bbb 71d9 86b9 2e19 3cbd
00000330: 64c0 923d 9d53 723d b994 1e3c f5c4 503d
00000340: 5dd6 92bd dae2 77bd 0d6b a1bd 540c 8ebc
00000350: d92e 833d b3f4 26bd 37b8 2a3c 7a3f 313d
00000360: 6f25 963d 5d09 f2bc dd21 66bd 4560 373c
00000370: 6587 89bd 4a68 933d 5ad4 b73d 2da8 2cbd
00000380: 9840 3bbd f157 50bd ac74 c23d c30b c53d
00000390: 3dde 34bd 4b60 8f3d 1e16 66bd f047 87bc
000003a0: 0645 18bd c4df a1bd ec23 043d ce46 213d
000003b0: 0888 b73d 02aa ac3d 6a21 d53d dac4 c33c
000003c0: 10dd 91bd 1454 83bd dc29 a53d 57e4 93bc
000003d0: ee62 b4bd 1b84 15bb d82a 2fbd 056b 7cbc
000003e0: cae3 87bc 9fb9 06bd 7d28 96bc bc85 ae3d
000003f0: 1ca6 b8bd cc89 843c b79a da3d ab93 863d
-0.04624386 0.053434785 0.00034505728 -0.09366594 -0.087023124 -0.0015279725 -0.00017283669 -0.07621731
-0.009922837 0.03270732 -0.08078011 -0.050373696 0.046722326 -0.049770057 0.05250162 -0.0765207
-0.045835428 0.04787697 0.0683215 -0.007535807 -0.027102051 -0.0058785835 -0.013192036 0.043692686
-0.028947549 0.096164815 0.0042293174 -0.03060453 0.07786465 0.05253242 -0.009321738 0.059561305
0.049301725 -0.032708444 -0.050762504 0.028410625 -0.098811075 -0.055981707 -0.09206804 0.01117947
-0.09055678 -0.026846737 0.07117249 0.015831165 -0.062633626 -0.016749308 -0.040971972 -0.021538142
-0.028072055 -0.076538354 0.06832945 0.068743356 0.090026125 -0.0376684 -0.05351709 -0.059239753
0.07937874 -0.049517468 -0.00034982697 0.00028362198 -0.012039783 -0.028520407 0.045669254 -0.0023934573
-0.0025305524 -0.035344075 -0.008715513 0.01516058 -0.09107392 -0.0599597 -0.063050315 0.057660274
-0.08361358 -0.0004809264 0.083449855 -0.0077998363 0.08618595 0.06318266 0.0478609 -0.06324096
0.0013662867 0.06959262 0.10378879 0.02795306 0.04819862 -0.019373598 0.075982906 -0.077491365
0.064412326 0.050131537 0.012971482 -0.05371395 -0.086836524 0.008672622 0.092329435 0.10451827
-0.0626747 -0.058254056 -0.092057 0.013930886 0.011219672 -0.016914073 -0.06249382 -0.029723275
-0.059089568 -0.06431942 -0.0472514 -0.086792104 0.09162107 0.09835313 0.087648876 -0.020408403
-0.021746507 -0.05612383 -0.009377041 0.0872166 -0.0012134698 0.08041682 -0.008058226 0.066767745
-0.0062678796 -0.012597253 -0.014827564 0.01118345 0.049606755 0.06454925 -0.033068884 -0.094539806
-0.052588515 0.0016291597 0.06792659 0.03750268 0.057636574 -0.054986544 -0.021377834 -0.044633053
-0.07034225 0.061984573 -0.07207116 -0.010070919 -0.019272711 0.07387205 0.07481939 0.021228166
-0.05980187 -0.008036385 -0.09331644 -0.033186585 0.011960212 -0.016983628 -0.0014797746 -0.033849888
-0.039118167 0.06529428 -0.1008621 0.04980117 -0.06518897 0.010326914 0.05547037 -0.005674475
-0.07334659 0.04611472 0.05150973 0.05628348 -0.053468052 -0.021928564 -0.046903577 -0.07436021
-0.03602251 -0.08743024 -0.055457585 -0.05420385 -0.042223558 0.07293817 -0.04342227 -0.07283083
-0.037067812 -0.045093793 -0.030450676 0.02747502 0.025089039 0.05128184 0.08205188 -0.03298156
0.04815357 -0.017494103 0.07546542 -0.01804491 -0.06784984 -0.04824944 0.07345546 0.017961608
0.09668621 -0.023821762 0.06961428 0.024231296 0.05782853 -0.09557973 -0.066666335 0.03783245
0.057669096 -0.00474883 -0.00025720478 -0.04592245 0.07165602 0.05916177 0.009679013 0.050969083
-0.07169793 -0.060519077 -0.078817464 -0.017339863 0.0640542 -0.040760707 0.010419897 0.043273427
0.07331359 -0.02954548 -0.05618464 0.011192386 -0.067152776 0.07197626 0.0897605 -0.042152572
-0.0457159 -0.050865117 0.0949491 0.09621384 -0.044157255 0.07000788 -0.056173436 -0.016513795
-0.0371752 -0.07904008 0.03226082 0.039374165 0.08961493 0.08430864 0.10406764 0.023897577
-0.071222425 -0.06412521 0.08064625 -0.018053217 -0.08807932 -0.0022814337 -0.04276547 -0.015406375
-0.01658811 -0.032891866 -0.018329853 0.085216016 -0.09016058 0.016178988 0.10674041 0.06571134

lstm.bias_ih_l1 f4 [512]
00000000: d620 bf3b e17f 093c 0aea 2a3c d7c8 7a3b
00000010: 4166 593c 74e8 d83b 56e5 753c 9783 7a3b
00000020: 0f25 9fba fef1 d93b e4d1 0e3c e6e2 593b
00000030: a5fe 1b3c 586d 353c fed0 cf3b 2137 f63b
00000040: e502 453c e23b f93b 1989 ea3b 58a0 9d3c
00000050: e0b4 813c 94c4 973b 8c9f 293b f9b5 9d3c
00000060: 0270 8a3c 8699 3e3c a83b 7a3c 54d4 8d3c
00000070: e4d4 3e3c 8b28 653c 7520 9d3b bda2 913c
00000080: 2ad1 aa3b c106 b43b f0cc 483c 7ebf d23b
00000090: 0f2a c83b 6cb5 633c 544a 243c 7739 213c
000000a0: 331a 413c 37f4 823c 89a9 633c 8ab6 973b
000000b0: d5ee 433c faa0 163c 28a0 603c d0b7 b53b
000000c0: 8a38 343c 74a9 893a 56af 263c 226c 213c
000000d0: fc8d 0e3c 7d57 403c 9337 813c e84c b03b
000000e0: 573a 553c 00a3 56ba 2094 0c3c b215 363b
000000f0: 2e33 333c 55b8 373c 7c05 f7ba ab79 423c
00000100: 09ff 6139 a299 423a d893 413c 4ed7 953b
00000110: 0a43 d4bb 18f7 e43b d183 993c 1c62 003c
00000120: 01ae f93b 7c59 003a 82be 5c3c b8b3 2e3c
00000130: 8b8c a03c a63d 943b fa52 473c 0276 0a3c
00000140: 7b87 7b3c 4898 233c b31a 723c c4a8 c33b
00000150: f86b d03b f441 943c a59a 113c a115 cab9
00000160: 2249 e03b 0c98 533c 4be5 6b3c 81ba 973c
00000170: a5ec b53b 7040 883c ef88 503c e8c4 6b3c
00000180: 2398 373c 06bc 3d3b e502 de3b 3e87 5d3c
00000190: b586 2b3c d47b 913b 9c88 1e3c 3678 02b8
000001a0: f79a 143c 6e50 f23b 612a 413c 09e4 683b
000001b0: 4ec3 b63b 7afb 833c ff9e d13a ddb9 e73b
000001c0: fce3 5b3b 8a00 193b 59f1 233b ce87 083c
000001d0: b588 923b 1c3c 593c c72f 543c dcd1 40bb
000001e0: 3813 413c da41 913a 19b6 1b3c 22d5 32bb
000001f0: 8d75 553c d221 233c 55da 963c 81de 2f3c
00000200: 60b5 8e3b 04c9 f43b 60e2 cf3a b05b 89bb
00000210: 1324 5c3c b4f7 9e3b 9878 5b3b cab7 6d3a
00000220: 9d7c bcba 900e 823b 6f2e ee3a 1bb3 393b
00000230: 17f0 d33b a255 093c bf9f b23b 4acd 373b
00000240: 2e09 7e3b c111 873b cd1c 663b 9bc6 5a3c
00000250: f455 3f3c 130a d8ba 40b1 d6b8 1787 713c
00000260: f8e5 323c c6a5 f33b 538e ec3b a4ae 6b3c
00000270: 9657 da3a d4e1 013c 6d35 583b 34a4 623c
00000280: b6d0 833a 7715 3f3c 9d0b 033c fd66 b03a
00000290: 0b7a 9dba f521 523c b4af 413b 4285 df3b
000002a0: 2003 2b3c 26db 9f3b 1728 b03b f66d 893b
000002b0: e04d 163c d4ad 103c 53b6 1e3b e961 093b
000002c0: 70ff 1d3a 0245 a4b9 f4d7 323b d517 893b
000002d0: 624e b53b 2340 1f3c 54ef 003c 7d3d 303b
000002e0: 2f9e b33b 17de 8c39 2931 833b 7d06 98ba
000002f0: edca 2d3c 3728 a33b 5f5a 82bb e1a9 ee3b
00000300: c2a9 4eba b18e 273a 5e44 27ba 0dba c73a
00000310: bdb2 d0bb 6c2c b23b b082 7b3c abae 513b
00000320: 986f 6a39 2004 803a c3f3 c13b a4d9 323c
00000330: 35e4 5a3c 50f5 563a 3a29 da3b eed9 473b
00000340: fc4e 0d3c 562e 8f3b ea72 123c c478 6e3b
00000350: e859 373b ac39 103c b4a6 003c c23b a8ba
00000360: 7701 e63a 1e97 073c d057 893a 4555 923b
00000370: e39e 543b eb67 363c 8a84 053c 39cf e33b
00000380: 448e 0f3c 25e8 86b9 62a8 69ba 380e 093c
00000390: e1df b53b 0af7 493b f850 eb3a c79a c9ba
000003a0: 2603 ba3b 2c2d 343b 170a 0d3c 3a3b 973a
000003b0: 34a5 8aba 56b0 4c3c 8903 07bc 6299 933a
000003c0: e52d 2fbb f8d9 e9b9 f2c6 1eba bdfc 433b
000003d0: 63ba cb3a ed27 0c3c f60a 023c 3e05 e0ba
000003e0: 8bf0 253c 7558 24ba 7ac5 cd3b 17c3 963a
000003f0: 3e37 e53b fadd 143c 5eed 673c 5567 8a3b
0.005832772 0.008392305 0.010431776 0.0038266683 0.013269008 0.0066195074 0.015008291 0.0038225406
-0.0012141782 0.006651162 0.008717034 0.0033246814 0.009521161 0.011073433 0.0063420525 0.007513896
0.012024616 0.0076060155 0.0071574566 0.019241497 0.015833318 0.0046315882 0.002588245 0.01925181
0.016899113 0.0116332825 0.015273012 0.01731316 0.011647437 0.013986717 0.004795129 0.017777795
0.0052129226 0.005493969 0.012255892 0.006431519 0.0061085294 0.013898235 0.010027487 0.009840361
0.011786032 0.015985591 0.013895401 0.0046299146 0.011958797 0.009193653 0.013710059 0.005545594
0.010999808 0.0010502771 0.010173639 0.009852441 0.008700844 0.011739609 0.01577357 0.0053802617
0.013014398 -0.0008187741 0.008580238 0.0027783928 0.010937495 0.011213382 -0.0018846239 0.011869828
0.0002155268 0.0007423406 0.011815034 0.0045727855 -0.0064777182 0.0069874637 0.018739613 0.007835891
0.00761962 0.0004896147 0.013473155 0.0106629655 0.019598266 0.0045239506 0.012165779 0.008450987
0.015352125 0.009985037 0.014776873 0.005971046 0.006360527 0.018097855 0.008886968 -0.00038544557
0.0068446556 0.012914669 0.014397929 0.01852155 0.005551892 0.016632289 0.01272796 0.014390208
0.011205706 0.0028951182 0.0067752474 0.013521014 0.010469128 0.0044398103 0.009676125 -3.110637e-05
0.00907015 0.007394842 0.011789889 0.003553631 0.0055774814 0.016111124 0.0015992819 0.007071717
0.0033552637 0.0023346269 0.002501568 0.00833316 0.004471863 0.01325896 0.012950844 -0.002942196
0.011784367 0.0011082247 0.009503865 -0.0027287682 0.013028515 0.009956794 0.018414656 0.010734201
0.0043551177 0.007470252 0.0015860312 -0.004191838 0.013436335 0.004851306 0.0033488628 0.0009068219
-0.0014380399 0.003969021 0.0018171797 0.0028335515 0.00646783 0.008382233 0.005451172 0.0028045946
0.0038762796 0.0041219895 0.0035112381 0.013353015 0.011678208 -0.0016482495 -0.000102373306 0.014741681
0.010919087 0.007435533 0.007219115 0.014384899 0.0016658183 0.007927377 0.0032990829 0.013833094
0.0010056708 0.011662832 0.007998374 0.0013458427 -0.0012014521 0.012825479 0.002955419 0.0068213055
0.010437757 0.0048784195 0.005375873 0.0041940166 0.00917384 0.008830506 0.002421756 0.00209629
0.0006027138 -0.00031331932 0.0027289363 0.004183749 0.0055330256 0.009719881 0.00786956 0.0026892119
0.0054815034 0.0002686835 0.004003663 -0.0011598613 0.010607463 0.004979159 -0.003978058 0.0072834347
-0.0007883572 0.0006391807 -0.0006380732 0.0015237943 -0.0063689635 0.0054374244 0.015350983 0.003199498
0.00022357551 0.0009766854 0.0059189512 0.010916147 0.013360073 0.00082000066 0.0066577466 0.0030494886
0.008624788 0.0043695373 0.00893853 0.00363879 0.0027977172 0.008802813 0.007852245 -0.0012835192
0.0017548044 0.008275775 0.0010478441 0.0044657313 0.0032443337 0.011133174 0.008149276 0.006952193
0.008761946 -0.00025731433 -0.00089133356 0.008365206 0.00555037 0.0030817413 0.0017953208 -0.001538121
0.005676645 0.0027492745 0.008608363 0.0011538037 -0.0010577799 0.012493214 -0.008240589 0.0011260922
-0.0026730236 -0.00044603623 -0.0006056867 0.0029905282 0.0015543218 0.008554441 0.007937184 -0.0017091406
0.010128151 -0.00062692846 0.0062796446 0.0011502233 0.006995111 0.009086126 0.014155714 0.004223744
