models/stock_only/checkpoint/BDTCX.pth (torch, 874234 bytes, 11 tensors)

lstm.weight_ih_l0 f4 [512, 5]
000000 b9 a2 a2 bd 27 27 d7 3c c7 fd 49 bd bb bf 2d bd
       -0.07941193 0.026263786 -0.049314287 -0.042419177
000010 62 01 41 bd 94 f2 7b bd 07 45 bb bd 9e 7f 61 3d
       -0.04712046 -0.061510637 -0.09144025 0.055053346
000020 5d ea 07 3d 19 ec 3f bd 25 62 47 bb 27 5b 8a 3b
       0.03318249 -0.04685602 -0.003042349 0.004222292
000030 aa ce 0b bd 5c d3 39 bd b5 0f f8 3d d4 f1 e1 3d
       -0.034132637 -0.045367584 0.12112371 0.11032453
000040 1b 9b 40 3d 30 5c 2f bd 9e 7c 07 3d 37 d6 d4 bd
       0.04702292 -0.042812526 0.03307783 -0.10392421
000050 01 2b 7c 3c 6a 8d 98 bd cf 15 d4 bd d4 0b d0 3c
       0.015391112 -0.074488476 -0.10355722 0.025396265
000060 d3 81 9f bc f7 d1 9a 3d 51 a9 b9 3d 6c 78 66 3d
       -0.019471085 0.07559579 0.09065498 0.056267187
000070 45 d3 80 3d 1c f9 42 3d 2c b5 75 3d 2a cb f5 3c
       0.062902965 0.04760085 0.059987232 0.030004103
000080 37 54 17 bd 56 b6 d2 3c e1 82 90 bd a3 ad f7 bb
       -0.036945548 0.02572171 -0.07056213 -0.007558541
000090 f1 9a bf 3d c8 6e c7 bd 83 eb bd bd 7c 13 e4 3d
       0.093557246 -0.09737927 -0.09273436 0.11136529
0000a0 ed 0e 0a 3d f8 cd 89 3d ec de db bc 2e 3c 6e 3b
       0.03370564 0.067287385 -0.026839696 0.0036351788
0000b0 2d 05 65 3d 23 f3 14 3b 1f 8c ab ba 60 65 07 bd
       0.05591314 0.0022727929 -0.0013088024 -0.033055663
0000c0 c3 43 8b bd 61 15 89 3d f8 d2 6d 3d 95 80 91 bd
       -0.06800034 0.06693531 0.058062524 -0.07104603
0000d0 6a 86 ac 3d 6e 4a b0 3d 5b 3e 8b 3d 4e e7 92 3d
       0.08424075 0.08607946 0.06799003 0.07173024
0000e0 21 67 02 3e a0 7d 9f bd 80 07 2d 3b 8e f0 99 3d
       0.12734653 -0.07787633 0.0026402175 0.07516585
0000f0 9a 8e de bc a2 87 6f bd e4 5d 80 bd ea 47 2d bd
       -0.027167607 -0.05847896 -0.06267908 -0.04230491
000100 96 d5 28 3c 03 7c 42 bd fc 62 47 bb b9 57 bd bd
       0.010304829 -0.047481548 -0.003042399 -0.092452474
000110 54 ea c0 bd c1 e9 90 3d 63 d9 9e bd 23 74 75 3c
       -0.094196945 0.07075835 -0.07756307 0.014981302
000120 2e 46 cf 3d 90 79 62 bd d0 80 82 3d 71 60 6b 3c
       0.101208076 -0.055291712 0.06372225 0.014366255
000130 87 0e 81 3d 77 dc ec 3d 35 cb 7c bd 3b b2 99 3c
       0.06301599 0.11565488 -0.06171723 0.018761745
000140 5a 67 78 bc a5 04 3d 3d fa 09 81 bd 0f 47 65 3d
       -0.01516136 0.046147007 -0.06300731 0.05597597
000150 f5 b6 1c 3d 39 30 43 bd c0 7b a6 bd 2d 93 9c bd
       0.03826042 -0.04765341 -0.08129072 -0.07645259
000160 a9 7f b0 bc 5a 91 67 bb 7b d4 a8 bc 5b b3 a9 bc
       -0.021545248 -0.003533444 -0.020609131 -0.020715406
000170 93 52 81 bd c6 da 2a bd 29 f2 ab 3d 12 e6 99 bd
       -0.06314578 -0.041712545 0.08395798 -0.075145856
000180 f8 d5 d7 3d ea b6 8f 3c 52 9f 0b bd c2 d5 ac bd
       0.10538858 0.017543275 -0.034087487 -0.084392086
000190 5b 3d 3f bd ab a6 8c 3d d5 da ba 3c 01 4c 75 bd
       -0.046689373 0.06867727 0.022809425 -0.059886936
0001a0 6b 1a 1f 3d d2 92 db bd 00 56 bd bc 7f fa f1 3d
       0.038843554 -0.10721363 -0.023112297 0.118153565
0001b0 e8 ab 6e bc 5d 31 91 3d 0b 7a 6a bd e7 69 2f bd
       -0.014567353 0.070894934 -0.057245295 -0.042825606
0001c0 78 b1 86 bb ff ed 9e bd 40 e3 d5 3d fa 5c ba 3b
       -0.0041105114 -0.07760238 0.10443735 0.005687353
0001d0 76 a0 57 3d f0 20 49 3d 03 58 9e 3d 55 01 5e 3d
       0.05264326 0.049103677 0.07731631 0.05420049
0001e0 f6 12 a5 bc ca 5a 83 3d 51 e1 db 3d 1f b1 83 bb
       -0.020150643 0.06413801 0.10736335 -0.004018917
0001f0 a0 97 b0 ba 67 80 cd 3d 11 d0 bb 3d fc 70 8c 3d
       -0.0013472922 0.100342564 0.09170545 0.068574876
000200 37 9e 11 bd a5 72 bf bb 70 78 b6 3d 97 40 54 bd
       -0.035551276 -0.005842524 0.089096904 -0.05181941
000210 81 1c 05 3d ce 5f 75 bd 9c 30 04 3d 1e fd 4c bd
       0.032497887 -0.05990582 0.03227292 -0.05004608
000220 3d e0 53 3d d4 b4 31 bd e7 b4 91 bd d2 a0 98 bd
       0.051727522 -0.04338534 -0.071145825 -0.07452549
000230 4f a5 b0 bb 56 5d d3 3c f0 37 8a bd bb 90 0b 3d
       -0.0053908 0.025801342 -0.067489505 0.034073573
000240 b3 03 ac 3d 3b 03 9e bd 2d 76 5d b8 f5 1b e0 bd
       0.08399143 -0.0771546 -5.2800566e-05 -0.109428324
000250 9d fa c7 3c 84 29 25 3d d1 95 f0 3c 6e 7a 38 3c
       0.024411494 0.040322796 0.029368313 0.011259658
000260 6d 81 f2 3c 44 35 4d 3d d5 3f ad 3d 65 0d a8 3d
       0.02960273 0.050099626 0.084594406 0.0820568
000270 85 3a b6 bd 8d 64 84 bd 24 f2 b8 3d 5a de 81 3d
       -0.088978805 -0.06464491 0.0903056 0.06341238
000280 38 fd 4d 3d 00 16 8c 3d 39 14 a4 bc 7c d5 90 bd
       0.050290316 0.06840134 -0.020029174 -0.07071969
000290 4e 92 77 bd da 40 2a 3b f1 75 dd bb 89 a0 68 bc
       -0.06044226 0.0025978596 -0.0067584445 -0.014198431
0002a0 27 59 c7 3c 1b 9f c6 bd 04 c7 94 ba 14 51 dc bb
       0.024334503 -0.09698316 -0.0011350815 -0.0067235325
0002b0 f5 fd 03 bc 9b 4a 20 3d 74 29 ca 3d 52 5c c5 bd
       -0.008056154 0.03913365 0.09871188 -0.09636749
0002c0 30 af 98 bd 1d dc 1c ba 02 75 51 bc d0 15 c0 3d
       -0.07455289 -0.0005983727 -0.0127842445 0.093791604
0002d0 a8 f5 6d 3c 05 9d b0 3d 5e 65 cf bc 3d 91 df bc
       0.014523901 0.08623699 -0.02531689 -0.027290935
0002e0 42 b1 cd bd ec ea 1b 3d 1f 07 e3 3d 9b 78 4a 3d
       -0.10043575 0.038065836 0.110853426 0.049431425
0002f0 8e 31 98 3d f5 98 92 3d 35 c5 9c 3c 52 29 84 bd
       0.07431327 0.071580805 0.019137004 -0.06453194
000300 2b 21 37 3d 33 b2 a5 3d cc ca d2 bd 3a 38 9e 3d
       0.044709366 0.080906294 -0.10292587 0.07725568
000310 b4 fb cd bd b8 5d 76 3c 80 ac 47 bd 86 ab 55 3c
       -0.10057774 0.015036993 -0.048748493 0.013041383
000320 c2 4f de bd ce 46 d4 3d 04 b2 67 bc e8 39 85 3c
       -0.10855056 0.103650674 -0.014141563 0.016262963
000330 47 66 a0 3d 15 76 99 bd 07 a0 87 bd 61 bc ac bd
       0.07832008 -0.074932255 -0.0662232 -0.08434368
000340 fe b6 b9 bd 82 0a d7 bd 47 33 0c bd e8 43 04 3d
       -0.09068106 -0.10500051 -0.03422859 0.032291323
000350 f1 57 82 bd ae 3c ab bd 1a c6 61 3d e8 77 42 3d
       -0.0636443 -0.08361183 0.055120565 0.047477633
000360 9d 3a 9c 3d cb 99 a4 3d 07 68 67 bc d6 84 be bd
       0.07628367 0.08037146 -0.014123923 -0.0930268
000370 36 3e ad bd 11 47 db 3c 17 59 b1 3c 44 28 ca 3d
       -0.084591314 0.026767286 0.021648927 0.09870961
000380 cb 73 c9 bd 23 db 32 3d 0a d9 0e 3d 46 9d f4 3d
       -0.09836539 0.043666016 0.034874953 0.1194406
000390 cb 40 9b bd 13 44 ae 3d dd 1e e5 3d f1 a2 59 bd
       -0.07580718 0.08509078 0.11187527 -0.05313391
0003a0 10 74 36 3c 6d d2 a3 bc ed b8 02 bd 4c bb 19 bd
       0.01113607 -0.0199978 -0.03191464 -0.037532136
0003b0 0d 59 b8 bd 0c d3 a8 bd 07 db 71 bd 00 d6 86 bd
       -0.0900136 -0.08243379 -0.05904677 -0.06583786
0003c0 85 a4 cf 3d 76 05 1d 3d 02 1d c1 3d a1 05 9b 3d
       0.101388015 0.038335286 0.09429361 0.07569433
0003d0 10 d6 9d 3d bf cc fe 3c db 63 ae bd 65 78 1f bd
       0.07706845 0.03110349 -0.0851514 -0.038933177
0003e0 e4 98 48 3d 4a 7e c9 3c ad 78 eb 3c 80 fe a7 3c
       0.048973933 0.024596352 0.028744066 0.020507097
0003f0 2d 2c f2 3c 30 3e a2 bd 12 ee 12 bb b6 f5 df bc
       0.02956208 -0.079220176 -0.0022419733 -0.027338844

lstm.weight_hh_l0 f4 [512, 128]
000000 08 85 9e 3d d5 38 a8 bd 50 9c 11 3d 96 52 5b 3d
       0.077402174 -0.08213965 0.03554946 0.053545557
000010 fc e0 ee bc c6 8c 6b 3b a6 02 24 3d 96 b8 b6 3d
       -0.029160015 0.0035942062 0.04004159 0.08921926
000020 6b 5f 9f bd 4c d2 d0 bd 61 1a 73 3d 88 5e af 3d
       -0.077818714 -0.10196361 0.05935133 0.08562952
000030 7c 28 11 bd 6a a6 da bb 55 57 0e 3c a6 49 42 3d
       -0.035439 -0.00667267 0.008687814 0.047433518
000040 ee a5 be bd da b9 e3 bb 7b d4 de 3c 27 09 95 3d
       -0.09308992 -0.0069496455 0.027200928 0.07277136
000050 87 07 7f 3b de f5 81 3b 6a 38 af bd b0 09 8b 3d
       0.0038914399 0.003966077 -0.08555682 0.06788957
000060 1d 13 51 bd b0 03 71 bd 51 87 82 bd 1e d7 c1 3c
       -0.05104362 -0.058841407 -0.06373466 0.023662146
000070 db 57 86 bd c1 18 01 bc 57 25 b2 bd 3b 47 5c bd
       -0.06559726 -0.007879437 -0.08698528 -0.05377887
000080 19 16 41 bd 09 17 27 bc 08 42 93 3d 0e b8 14 bd
       -0.047140215 -0.010198363 0.07190329 -0.03630834
000090 97 f4 88 bb 52 10 37 3d 0d d8 be bc 68 eb 79 3d
       -0.004179548 0.0446933 -0.02329638 0.061015517
0000a0 fd 42 13 bd 79 cf 8b bd ee 80 8b bc 36 7d 93 bd
       -0.035952557 -0.06826682 -0.017029252 -0.072016165
0000b0 49 cb 91 bd 1a df f8 3c 17 30 d1 bc 12 8c 74 3c
       -0.07118852 0.03037982 -0.025535626 0.0149259735
0000c0 2b e5 53 bd f0 8e d2 3c 7b 70 a8 3d 6f a0 ba bd
       -0.051732223 0.025702924 0.08224579 -0.091126315
0000d0 75 17 c1 3d 40 9f c2 bd c7 c3 0c bd 3e 21 c5 3d
       0.09428302 -0.09503031 -0.034366395 0.09625481
0000e0 32 56 cc 3d 9b e7 19 3c 6b b5 20 3d b8 74 e3 bc
       0.09977378 0.009393598 0.039235514 -0.027765617
0000f0 af 56 f9 bc 43 f0 04 bb 90 59 b0 3d 23 6a cd 3d
       -0.030436842 -0.0020284809 0.08610833 0.100300096
000100 1a ea 74 bd c1 a0 7c 3b ce eb ec bc 8d 4a a3 3d
       -0.05979357 0.0038547965 -0.028921034 0.07973204
000110 68 2c 95 3d 93 0a ad bc b0 c2 a7 3d 5e 8e a6 bd
       0.072838604 -0.021123206 0.081914306 -0.08132623
000120 72 f5 0b 3d a1 ab 0f 3d 17 e7 3e bd bc ba 43 3d
       0.03416962 0.035075787 -0.046607103 0.047785506
000130 fc fd eb bc 43 74 84 bc c7 7f 25 bd c8 2c 8f bd
       -0.028807633 -0.01616872 -0.04040506 -0.06990963
000140 85 a7 25 bd ea 1e 36 3d 23 37 1d 3d da 9c 9e 3d
       -0.040442962 0.044463076 0.03838266 0.07744761
000150 e3 8a bd 3d fc 2f a0 3d 15 63 c4 bd 8c 67 7d bc
       0.09255006 0.07821652 -0.09589211 -0.015466582
000160 fa 75 71 3d 59 c7 a8 bc ee de a3 3d 89 d0 92 3d
       0.0589504 -0.020602869 0.08001505 0.07168681
000170 66 e7 92 bc d7 0b 2a bd e8 b9 c2 3c cf 88 ea 3b
       -0.017932605 -0.041515198 0.023770288 0.007157422
000180 66 02 1b 3d 3d 88 b5 3d a7 c0 58 3c ec 20 98 bd
       0.037844084 0.08863876 0.013229526 -0.07428154
000190 41 e4 ad 3d f7 1a af 3d 9d 2e be bd 76 85 27 bd
       0.084908016 0.08550065 -0.092862345 -0.040898763
0001a0 b8 d1 b4 bd 28 90 8f bd 9b 5c e6 bc e7 56 88 bd
       -0.08829063 -0.070099175 -0.02812033 -0.066572
0001b0 5f 47 80 bc 98 40 96 bd 12 b4 d8 bb 91 b1 51 bc
       -0.015659032 -0.07336539 -0.006613263 -0.012798683
0001c0 df b6 87 3b 0c 84 f0 bc 3a 98 a4 bd 88 49 4a bd
       0.004141673 -0.02935984 -0.080368474 -0.04938653
0001d0 8a 0b 75 bd 41 e7 a0 3d 3a 36 07 bd c7 12 78 3d
       -0.059825458 0.07856608 -0.0330107 0.060564782
0001e0 ce ad c4 3c ca d9 ca bc 2d 8f b6 bd b9 d1 9c bd
       0.024008658 -0.024762053 -0.08914027 -0.07657189
0001f0 f0 46 a1 bd cf a5 73 3d 47 77 d7 3d bd 0b 96 3d
       -0.078748584 0.0594843 0.10520797 0.07326458
000200 36 d7 7e 3d 02 16 b9 3d 4c e7 99 3d a3 ff 4d bd
       0.06221696 0.09037401 0.075148195 -0.050292622
000210 70 f2 67 bd db 9b b2 3d 8e f5 01 bd ce 7b aa bd
       -0.05662769 0.08721133 -0.03172832 -0.08324395
000220 46 6e 7d 3d 45 fb 0c 3d 4d bd 54 3d 76 ae 63 bd
       0.061872743 0.034419317 0.051938344 -0.0555863
000230 57 19 ba 3d 3a 48 b7 bd 88 31 a7 bd a3 ad 50 3d
       0.090868644 -0.08949323 -0.08163744 0.050946843
000240 8a f5 01 bd 64 85 8f bd 6a 19 31 3d 3c ac 52 bd
       -0.031728305 -0.07007864 0.043237127 -0.051433787
000250 9b 81 8a bb f4 f4 b1 bd 74 31 1e bc a7 61 12 3d
       -0.004226876 -0.08689299 -0.009655345 0.03573766
000260 78 96 70 bc 5c 83 e0 bc 37 46 c8 bd 1a ce 6f 3b
       -0.014684312 -0.027406387 -0.097790174 0.0036591352
000270 58 9b 37 3d 7f a7 be bd 5e c9 9b 3d 05 2f 97 3d
       0.04482588 -0.09309291 0.07606767 0.07382015
000280 c6 72 b2 bc 4a 60 f3 bb b6 06 98 3d 42 af 9d 3c
       -0.021783244 -0.00742725 0.07423155 0.019248608
000290 63 2d b8 bd f7 ae 8e 3d 18 4a 59 bd 9b 0d 31 bd
       -0.08993032 0.06966966 -0.053049177 -0.043225866
0002a0 62 e4 51 3d 30 f5 c6 bc f5 9a 95 bd 4e 13 89 bd
       0.051243193 -0.024286836 -0.07304946 -0.06693135
0002b0 4f 97 ad 3c 4d c6 8f bd cb 12 fc bc ec dd 2f 3c
       0.021190314 -0.07020245 -0.03077068 0.010734063
0002c0 11 8a 79 3d 83 87 0a 3d 31 3a 1a bc a7 57 11 3d
       0.060922686 0.03382064 -0.009413288 0.035483982
0002d0 ff f5 c4 bc 72 6d 00 3d 68 0e 72 bd 2b 8d c4 bd
       -0.024043081 0.031354375 -0.05909577 -0.09597238
0002e0 6a 2d af bd a6 4a 4b bb f1 6e e9 3c 8b 43 46 bd
       -0.08553584 -0.0031019836 0.028495284 -0.048404258
0002f0 b5 88 ba 3d 73 c8 93 bb b5 9b a9 bd a7 ec 84 bc
       0.09108106 -0.0045099794 -0.08281652 -0.016226126
000300 06 fe 25 3d bb a7 09 3d 6f a5 b7 bd 09 b4 af 3d
       0.04052546 0.033607226 -0.08967101 0.08579261
000310 6e a7 10 bb ff 0f 71 bd 40 54 14 bd ab 48 b0 bd
       -0.0022072452 -0.058853146 -0.03621316 -0.0860761
000320 bf cb 92 bd 4f 28 46 3a a2 3b 2f bc 88 2e d5 bb
       -0.07167768 0.0007559107 -0.01069537 -0.006505791
000330 9b f0 93 bc bb 1a 14 bd 88 0f b8 3c db 83 a7 3d
       -0.018059066 -0.036158305 0.022468343 0.08179446
000340 2b 12 db bc 68 db 4d bd 2e 52 2f 39 89 aa 62 3d
       -0.026742062 -0.05025807 0.00016719915 0.055338416
000350 bc 26 c2 3d 16 fc 33 3b b5 d6 68 bd 12 90 c1 bd
       0.09480044 0.0027463487 -0.056845386 -0.09451307
000360 f3 a1 43 3d 49 a0 0a 3d c4 80 ac bc d3 8f 99 bd
       0.04776187 0.033844266 -0.021057494 -0.074981354
000370 b5 10 6e 3d a7 87 cc bc a1 29 af bd 1e 0f c0 3d
       0.0581214 -0.024967028 -0.08552862 0.093778834
000380 b7 59 c6 3d 36 99 71 3d cc 2b b1 bd 36 7a ab 3c
       0.096850805 0.058984004 -0.08650932 0.020932298
000390 7b e0 9a bd a4 9c bf 3d 0d cd 0c 3d b2 c9 93 bc
       -0.075623475 0.09356049 0.03437524 -0.018040512
0003a0 1f cf 96 3d 1a ce 92 bd 47 28 50 bb f7 e2 93 bc
       0.07363724 -0.07168217 -0.0031762288 -0.018052561
0003b0 16 83 a3 bd f9 6e 1b 3c af 57 8e 3d 28 0d 12 3d
       -0.07983987 0.009486907 0.06950318 0.035657078
0003c0 8c fb 94 3d 17 e6 6b 3d 2a 2e 4b 3d 89 f0 a2 bd
       0.07274541 0.057592478 0.049604572 -0.07956035
0003d0 a5 4c 3d 3d 85 fb 45 bd 48 7c 81 3c cf 9f 98 bd
       0.046215672 -0.04833557 0.015806332 -0.07452356
0003e0 c0 6f 9c 3d 64 ff 39 bc c8 9c 98 bd 33 52 a3 bd
       0.07638502 -0.011352394 -0.07451779 -0.07974663
0003f0 9b 8d 7a bd 54 ee c7 bd 0f f8 b7 3d d7 20 83 3c
       -0.0611702 -0.09762254 0.0898286 0.01600687

lstm.bias_ih_l0 f4 [512]
000000 22 d3 08 bb c2 5e 35 3c 85 62 72 3c f7 09 fd 3b
       -0.0020877798 0.011069955 0.014793997 0.007722135
000010 03 26 a0 3b d4 33 7f 3c 7a 8f 08 3b 5d b2 3b 3c
       0.004887344 0.015576322 0.0020837472 0.011456099
000020 ef c1 80 3b 5d 27 03 3c 92 b2 33 3c d0 91 b7 3c
       0.0039293687 0.00800499 0.010967867 0.022408396
000030 6e a5 23 bb 5b 90 9a 3c db 09 af 3c 5c 74 a1 3c
       -0.002497043 0.018867662 0.021367004 0.019708805
000040 ac c3 7c 3c ed 13 28 38 ea 1f 5f 3b a7 af 58 3c
       0.015427511 4.007288e-05 0.0034046122 0.0132254725
000050 ca 4b 84 3c 29 18 80 3c 47 32 5d 3c f6 15 87 3c
       0.01614942 0.01563652 0.013500757 0.016489964
000060 0e 8c 55 3c e4 7a 11 3c 3c 7f 95 bb f9 73 5e 3c
       0.01303388 0.008879397 -0.0045622867 0.013577455
000070 b1 ad a1 3c c8 e4 56 3c 26 96 00 3c d5 a4 82 3c
       0.019736143 0.013116069 0.007848298 0.015947739
000080 f0 1d c0 3a 58 c9 6e 3c ac e0 8a 3c 91 1f 42 3b
       0.001465736 0.014574371 0.016952835 0.0029620866
000090 5a 03 41 3c 51 6b fe 3b 56 1b 12 3c dd eb d0 ba
       0.011780584 0.007764258 0.00891765 -0.0015939433
0000a0 c4 47 98 3c 0a a4 13 bc 23 70 84 3b 93 0a 45 3c
       0.018588908 -0.009011278 0.004041688 0.012026447
0000b0 f4 f0 88 3c be c7 72 3c 2f 2d 81 3c 90 29 24 3c
       0.016716458 0.01481813 0.015768616 0.010019675
0000c0 c6 cc 81 3c f2 d1 15 3c 54 c1 65 3c 8e 5e a1 3c
       0.015844714 0.009144293 0.014023144 0.019698408
0000d0 05 9c 43 3c 9d a0 7f 3c 52 b2 08 3c 32 c4 6c 3c
       0.011939053 0.015602258 0.008343296 0.0144510735
0000e0 eb be 27 3c 65 d6 8b 3c 7c 7d 9a 3c 6a 34 3c 3c
       0.0102383895 0.017070005 0.018858664 0.011487106
0000f0 aa fe 80 3c d4 2e 9a 3c e0 a2 2b 3c 6a f3 6c 3b
       0.015746433 0.018821158 0.010475844 0.0036155828
000100 30 21 7e 3c 55 0a 2a 3c d6 3b b9 3c a4 38 0a 3c
       0.015510842 0.01037844 0.02261154 0.008436356
000110 8a 8d 29 3c 9e bc 2f 3c 11 7c 4b 3c 13 4e 58 bb
       0.010348687 0.010726122 0.012419716 -0.003300552
000120 b4 75 a7 3b 7f ef b2 3c b3 20 4e 3c 7c 8d 9e 3c
       0.005110467 0.021842716 0.012581038 0.019354574
000130 3d 50 e2 3b b8 0e 1a bb 87 69 8e 3c 2b c5 98 3c
       0.006906538 -0.0023507308 0.017384304 0.018648705
000140 c7 72 9a 3c 00 67 0a 3c 9e 5d 75 3c 76 9f 6b 3c
       0.018853558 0.008447409 0.014975933 0.01438128
000150 fa 20 09 3c b0 4a 6e 3c 52 c8 15 3a c3 31 30 3c
       0.008369679 0.014544174 0.0005713749 0.010754052
000160 33 dd 9d 3c 1c ec bf bb 8b 9d 55 3b 29 ae 92 3c
       0.019270515 -0.005857004 0.0032595124 0.017905312
000170 05 9c 72 3c e7 16 1f 3b 11 40 38 3c d9 6e b0 3b
       0.014807706 0.0024275125 0.011245743 0.005384308
000180 62 86 6f 3c 6d db f9 3b cd 78 ae 3c 17 5f c5 3b
       0.014619442 0.0076250345 0.021297837 0.0060232985
000190 0b 3b 46 3c 52 52 51 3c 0d 43 84 3c 66 1f a0 3c
       0.012099038 0.012775974 0.016145254 0.019546222
0001a0 9a 46 8b 3c b5 1a 32 bb 5a 8a 13 3c f0 b6 2f 3c
       0.017001439 -0.0027176563 0.009005154 0.010724768
0001b0 25 d2 30 3c ee dc 88 3c 28 ba 37 3c 4d 75 5a 3b
       0.01079229 0.01670691 0.011213817 0.0033334077
0001c0 b8 7a fe 3b 00 74 72 3c 7b 8e a7 3c 6c 63 4e 3c
       0.007766094 0.014798164 0.020453682 0.012596946
0001d0 52 a2 1a 3c ee 3d 15 3c 72 00 7f 3c 09 87 81 3c
       0.009438114 0.0091090035 0.015564071 0.01581146
0001e0 d5 2d 9b 3c 31 f0 7c 3c a0 94 9c 3c ad 2c 96 3c
       0.018942753 0.0154381255 0.019113839 0.01833185
0001f0 f0 51 1c 3c 0b c8 53 3c 26 13 8b 3c ec 23 40 3c
       0.00954102 0.012926112 0.016976904 0.011727314
000200 b5 15 21 bc 53 a9 3e bb fd 76 f8 3b 12 8f fe ba
       -0.0098318355 -0.0029092624 0.007582544 -0.00194213
000210 e2 84 80 3b de 88 13 3c a5 81 89 3b c8 b2 9b ba
       0.003922091 0.0090048 0.004196363 -0.0011878842
000220 a0 d7 40 3a 50 40 6d 3b c6 93 7e 3c 7a db 35 3c
       0.00073563494 0.0036201663 0.015538162 0.011099691
000230 0a a0 1b 3b fb af 69 bb 70 4a 4e 3c b8 45 2e b9
       0.0023746514 -0.003565787 0.0125909895 -0.00016619905
000240 94 b7 8e 3a 5d fd 34 bb d7 5f ee 39 93 96 8b 3c
       0.0010888451 -0.0027616837 0.00045466304 0.017039573
000250 8d f4 a4 3b a3 87 5b 3c 9d dc 1b 3b 44 47 86 3c
       0.0050340355 0.0133990375 0.0023782619 0.016391404
000260 84 de 03 3b 84 54 5d ba 8d d4 c4 ba 63 3e 13 3c
       0.0020121643 -0.0008443075 -0.0015016958 0.008987042
000270 4f e6 b5 3b 72 1b 1b bb 02 2a 53 39 1b 26 35 3c
       0.0055511366 -0.0023667482 0.00020138177 0.011056448
000280 7b f5 50 bb 03 fc 03 3c 55 0f 2c 3b f7 71 6f ba
       -0.00318846 0.00805569 0.0026254256 -0.00091341085
000290 4d 28 76 b9 8d f3 c7 3b cc 03 d0 bb 59 3d 0a bb
       -0.00023475401 0.0061020316 -0.006348109 -0.0021093695
0002a0 fe 7d b2 3b 59 40 93 bc 3c 33 53 ba 62 5a 32 3c
       0.0054471483 -0.01797502 -0.0008056646 0.010885807
0002b0 0d 0b 02 3b 5e 0b 9a 3c 2b dc 6e 3c 35 4e 99 ba
       0.0019843013 0.018804248 0.014578859 -0.0011696281
0002c0 45 2d 0f 3c d0 2f 8c ba e2 94 1c 3c f7 f8 b4 3b
       0.00873882 -0.0010695402 0.009556981 0.005522843
0002d0 ce ca 1c bc 74 47 1d bb bf 28 cf 3a 0a 90 28 3c
       -0.009569837 -0.0023998888 0.001580499 0.010288248
0002e0 4f a5 49 3b a3 e5 97 3b f7 29 fb 3b 5c 63 cc 3a
       0.0030768698 0.004635529 0.0076649147 0.0015593576
0002f0 54 a5 27 ba b9 2b a4 3c 03 d8 f5 ba 94 24 c2 3a
       -0.000639518 0.02004038 -0.0018756393 0.0014811927
000300 db 82 8b 3b 46 83 f9 38 5c 1e 5f bb c4 a6 9f b8
       0.0042575425 0.00011897697 -0.0034045195 -7.612773e-05
000310 b5 d9 d9 ba 1a f5 41 b9 fc e0 ee 3b 01 15 93 bb
       -0.0016620668 -0.00018497222 0.007290004 -0.004488588
000320 fa 7c 44 bb 47 5b 77 3c 89 4c 44 3c c9 40 81 3c
       -0.0029981718 0.015097446 0.011981138 0.015777962
000330 ad c1 a7 bb 2c 6d 70 ba fd 28 23 3c 81 27 9a 3c
       -0.0051195235 -0.00091715413 0.009958503 0.018817665
000340 c1 7f 1b 3b 22 78 91 bb 60 29 59 3b 40 b2 4c 3c
       0.002372727 -0.00443937 0.0033136234 0.01249367
000350 10 3f 0d 3b 6a 52 fa 3b 5a 6c eb bb fe 94 c0 3b
       0.002155248 0.007639219 -0.0071845474 0.0058771363
000360 f1 e6 00 bc 24 5a a9 bb ca e2 a7 3b 04 50 25 3c
       -0.007867561 -0.0051682163 0.005123471 0.010089878
000370 f0 4b c3 3b 00 57 c0 bb 6e b5 1d ba b6 f9 0d bc
       0.00595998 -0.005869746 -0.000601611 -0.008665493
000380 24 d5 af ba 8e 89 1a bc 91 36 27 3c 79 96 06 ba
       -0.0013414961 -0.00943221 0.010205881 -0.00051341165
000390 9f e8 07 3c 3e a4 0e ba 03 97 e7 3a 22 8b 11 3c
       0.008295207 -0.0005441344 0.0017668906 0.0088832695
0003a0 b5 04 91 3b 09 19 38 38 4f 62 86 3b 7f ef 6f bb
       0.00442561 4.3892334e-05 0.0041010748 -0.0036611257
0003b0 7b e1 61 3a 3e cd 1d bb c0 bc 64 3b 5f ea 6e bc
       0.0008616668 -0.0024078633 0.0034902543 -0.014582246
0003c0 ad a8 23 3c 80 1f fc 3b 7b d2 3b 3c 8e eb 97 bb
       0.009988946 0.007694185 0.011463757 -0.0046362346
0003d0 f1 47 fc 3b 21 4b 10 bc 7d 2a 4b bb 41 70 a0 3b
       0.007699006 -0.008806975 -0.0031000667 0.004896194
0003e0 2d 7d d1 ba b6 20 50 3b d2 2c f1 3b dc 9b 8d bb
       -0.001598274 0.0031757778 0.0073600793 -0.0043215584
0003f0 76 f2 45 3c bd cc 20 bb be 2f 81 3a 71 8c 43 bb
       0.012081733 -0.0024536096 0.0009856147 -0.0029838348

lstm.bias_hh_l0 f4 [512]
000000 22 d3 08 bb c2 5e 35 3c 85 62 72 3c f7 09 fd 3b
       -0.0020877798 0.011069955 0.014793997 0.007722135
000010 03 26 a0 3b d4 33 7f 3c 7a 8f 08 3b 5d b2 3b 3c
       0.004887344 0.015576322 0.0020837472 0.011456099
000020 ef c1 80 3b 5d 27 03 3c 92 b2 33 3c d0 91 b7 3c
       0.0039293687 0.00800499 0.010967867 0.022408396
000030 6e a5 23 bb 5b 90 9a 3c db 09 af 3c 5c 74 a1 3c
       -0.002497043 0.018867662 0.021367004 0.019708805
000040 ac c3 7c 3c ed 13 28 38 ea 1f 5f 3b a7 af 58 3c
       0.015427511 4.007288e-05 0.0034046122 0.0132254725
000050 ca 4b 84 3c 29 18 80 3c 47 32 5d 3c f6 15 87 3c
       0.01614942 0.01563652 0.013500757 0.016489964
000060 0e 8c 55 3c e4 7a 11 3c 3c 7f 95 bb f9 73 5e 3c
       0.01303388 0.008879397 -0.0045622867 0.013577455
000070 b1 ad a1 3c c8 e4 56 3c 26 96 00 3c d5 a4 82 3c
       0.019736143 0.013116069 0.007848298 0.015947739
000080 f0 1d c0 3a 58 c9 6e 3c ac e0 8a 3c 91 1f 42 3b
       0.001465736 0.014574371 0.016952835 0.0029620866
000090 5a 03 41 3c 51 6b fe 3b 56 1b 12 3c dd eb d0 ba
       0.011780584 0.007764258 0.00891765 -0.0015939433
0000a0 c4 47 98 3c 0a a4 13 bc 23 70 84 3b 93 0a 45 3c
       0.018588908 -0.009011278 0.004041688 0.012026447
0000b0 f4 f0 88 3c be c7 72 3c 2f 2d 81 3c 90 29 24 3c
       0.016716458 0.01481813 0.015768616 0.010019675
0000c0 c6 cc 81 3c f2 d1 15 3c 54 c1 65 3c 8e 5e a1 3c
       0.015844714 0.009144293 0.014023144 0.019698408
0000d0 05 9c 43 3c 9d a0 7f 3c 52 b2 08 3c 32 c4 6c 3c
       0.011939053 0.015602258 0.008343296 0.0144510735
0000e0 eb be 27 3c 65 d6 8b 3c 7c 7d 9a 3c 6a 34 3c 3c
       0.0102383895 0.017070005 0.018858664 0.011487106
0000f0 aa fe 80 3c d4 2e 9a 3c e0 a2 2b 3c 6a f3 6c 3b
       0.015746433 0.018821158 0.010475844 0.0036155828
000100 30 21 7e 3c 55 0a 2a 3c d6 3b b9 3c a4 38 0a 3c
       0.015510842 0.01037844 0.02261154 0.008436356
000110 8a 8d 29 3c 9e bc 2f 3c 11 7c 4b 3c 13 4e 58 bb
       0.010348687 0.010726122 0.012419716 -0.003300552
000120 b4 75 a7 3b 7f ef b2 3c b3 20 4e 3c 7c 8d 9e 3c
       0.005110467 0.021842716 0.012581038 0.019354574
000130 3d 50 e2 3b b8 0e 1a bb 87 69 8e 3c 2b c5 98 3c
       0.006906538 -0.0023507308 0.017384304 0.018648705
000140 c7 72 9a 3c 00 67 0a 3c 9e 5d 75 3c 76 9f 6b 3c
       0.018853558 0.008447409 0.014975933 0.01438128
000150 fa 20 09 3c b0 4a 6e 3c 52 c8 15 3a c3 31 30 3c
       0.008369679 0.014544174 0.0005713749 0.010754052
000160 33 dd 9d 3c 1c ec bf bb 8b 9d 55 3b 29 ae 92 3c
       0.019270515 -0.005857004 0.0032595124 0.017905312
000170 05 9c 72 3c e7 16 1f 3b 11 40 38 3c d9 6e b0 3b
       0.014807706 0.0024275125 0.011245743 0.005384308
000180 62 86 6f 3c 6d db f9 3b cd 78 ae 3c 17 5f c5 3b
       0.014619442 0.0076250345 0.021297837 0.0060232985
000190 0b 3b 46 3c 52 52 51 3c 0d 43 84 3c 66 1f a0 3c
       0.012099038 0.012775974 0.016145254 0.019546222
0001a0 9a 46 8b 3c b5 1a 32 bb 5a 8a 13 3c f0 b6 2f 3c
       0.017001439 -0.0027176563 0.009005154 0.010724768
0001b0 25 d2 30 3c ee dc 88 3c 28 ba 37 3c 4d 75 5a 3b
       0.01079229 0.01670691 0.011213817 0.0033334077
0001c0 b8 7a fe 3b 00 74 72 3c 7b 8e a7 3c 6c 63 4e 3c
       0.007766094 0.014798164 0.020453682 0.012596946
0001d0 52 a2 1a 3c ee 3d 15 3c 72 00 7f 3c 09 87 81 3c
       0.009438114 0.0091090035 0.015564071 0.01581146
0001e0 d5 2d 9b 3c 31 f0 7c 3c a0 94 9c 3c ad 2c 96 3c
       0.018942753 0.0154381255 0.019113839 0.01833185
0001f0 f0 51 1c 3c 0b c8 53 3c 26 13 8b 3c ec 23 40 3c
       0.00954102 0.012926112 0.016976904 0.011727314
000200 b5 15 21 bc 53 a9 3e bb fd 76 f8 3b 12 8f fe ba
       -0.0098318355 -0.0029092624 0.007582544 -0.00194213
000210 e2 84 80 3b de 88 13 3c a5 81 89 3b c8 b2 9b ba
       0.003922091 0.0090048 0.004196363 -0.0011878842
000220 a0 d7 40 3a 50 40 6d 3b c6 93 7e 3c 7a db 35 3c
       0.00073563494 0.0036201663 0.015538162 0.011099691
000230 0a a0 1b 3b fb af 69 bb 70 4a 4e 3c b8 45 2e b9
       0.0023746514 -0.003565787 0.0125909895 -0.00016619905
000240 94 b7 8e 3a 5d fd 34 bb d7 5f ee 39 93 96 8b 3c
       0.0010888451 -0.0027616837 0.00045466304 0.017039573
000250 8d f4 a4 3b a3 87 5b 3c 9d dc 1b 3b 44 47 86 3c
       0.0050340355 0.0133990375 0.0023782619 0.016391404
000260 84 de 03 3b 84 54 5d ba 8d d4 c4 ba 63 3e 13 3c
       0.0020121643 -0.0008443075 -0.0015016958 0.008987042
000270 4f e6 b5 3b 72 1b 1b bb 02 2a 53 39 1b 26 35 3c
       0.0055511366 -0.0023667482 0.00020138177 0.011056448
000280 7b f5 50 bb 03 fc 03 3c 55 0f 2c 3b f7 71 6f ba
       -0.00318846 0.00805569 0.0026254256 -0.00091341085
000290 4d 28 76 b9 8d f3 c7 3b cc 03 d0 bb 59 3d 0a bb
       -0.00023475401 0.0061020316 -0.006348109 -0.0021093695
0002a0 fe 7d b2 3b 59 40 93 bc 3c 33 53 ba 62 5a 32 3c
       0.0054471483 -0.01797502 -0.0008056646 0.010885807
0002b0 0d 0b 02 3b 5e 0b 9a 3c 2b dc 6e 3c 35 4e 99 ba
       0.0019843013 0.018804248 0.014578859 -0.0011696281
0002c0 45 2d 0f 3c d0 2f 8c ba e2 94 1c 3c f7 f8 b4 3b
       0.00873882 -0.0010695402 0.009556981 0.005522843
0002d0 ce ca 1c bc 74 47 1d bb bf 28 cf 3a 0a 90 28 3c
       -0.009569837 -0.0023998888 0.001580499 0.010288248
0002e0 4f a5 49 3b a3 e5 97 3b f7 29 fb 3b 5c 63 cc 3a
       0.0030768698 0.004635529 0.0076649147 0.0015593576
0002f0 54 a5 27 ba b9 2b a4 3c 03 d8 f5 ba 94 24 c2 3a
       -0.000639518 0.02004038 -0.0018756393 0.0014811927
000300 db 82 8b 3b 46 83 f9 38 5c 1e 5f bb c4 a6 9f b8
       0.0042575425 0.00011897697 -0.0034045195 -7.612773e-05
000310 b5 d9 d9 ba 1a f5 41 b9 fc e0 ee 3b 01 15 93 bb
       -0.0016620668 -0.00018497222 0.007290004 -0.004488588
000320 fa 7c 44 bb 47 5b 77 3c 89 4c 44 3c c9 40 81 3c
       -0.0029981718 0.015097446 0.011981138 0.015777962
000330 ad c1 a7 bb 2c 6d 70 ba fd 28 23 3c 81 27 9a 3c
       -0.0051195235 -0.00091715413 0.009958503 0.018817665
000340 c1 7f 1b 3b 22 78 91 bb 60 29 59 3b 40 b2 4c 3c
       0.002372727 -0.00443937 0.0033136234 0.01249367
000350 10 3f 0d 3b 6a 52 fa 3b 5a 6c eb bb fe 94 c0 3b
       0.002155248 0.007639219 -0.0071845474 0.0058771363
000360 f1 e6 00 bc 24 5a a9 bb ca e2 a7 3b 04 50 25 3c
       -0.007867561 -0.0051682163 0.005123471 0.010089878
000370 f0 4b c3 3b 00 57 c0 bb 6e b5 1d ba b6 f9 0d bc
       0.00595998 -0.005869746 -0.000601611 -0.008665493
000380 24 d5 af ba 8e 89 1a bc 91 36 27 3c 79 96 06 ba
       -0.0013414961 -0.00943221 0.010205881 -0.00051341165
000390 9f e8 07 3c 3e a4 0e ba 03 97 e7 3a 22 8b 11 3c
       0.008295207 -0.0005441344 0.0017668906 0.0088832695
0003a0 b5 04 91 3b 09 19 38 38 4f 62 86 3b 7f ef 6f bb
       0.00442561 4.3892334e-05 0.0041010748 -0.0036611257
0003b0 7b e1 61 3a 3e cd 1d bb c0 bc 64 3b 5f ea 6e bc
       0.0008616668 -0.0024078633 0.0034902543 -0.014582246
0003c0 ad a8 23 3c 80 1f fc 3b 7b d2 3b 3c 8e eb 97 bb
       0.009988946 0.007694185 0.011463757 -0.0046362346
0003d0 f1 47 fc 3b 21 4b 10 bc 7d 2a 4b bb 41 70 a0 3b
       0.007699006 -0.008806975 -0.0031000667 0.004896194
0003e0 2d 7d d1 ba b6 20 50 3b d2 2c f1 3b dc 9b 8d bb
       -0.001598274 0.0031757778 0.0073600793 -0.0043215584
0003f0 76 f2 45 3c bd cc 20 bb be 2f 81 3a 71 8c 43 bb
       0.012081733 -0.0024536096 0.0009856147 -0.0029838348

lstm.weight_ih_l1 f4 [512, 128]
000000 6b f3 fc 3b 9c 11 d3 bc 68 f9 58 bd f4 f9 85 bd
       0.0077194474 -0.025765233 -0.052972227 -0.065418154
000010 7c b8 13 3c 0d d2 79 3d 8b 9c c8 bc e8 df aa bd
       0.0090161525 0.060991336 -0.024488708 -0.08343488
000020 ff 3d 98 bb d7 82 8d bd 40 00 72 bd c5 51 78 bb
       -0.0046460624 -0.06909721 -0.05908227 -0.0037890535
000030 19 a7 d2 3c 81 c0 d6 3b 7f 85 7f bd bf d6 22 3b
       0.025714444 0.00655371 -0.06238317 0.0024847237
000040 4f 89 8f 3d 8e 5b 1b bd 84 14 c9 3b 4b aa a7 3d
       0.070086114 -0.03792911 0.006136479 0.08186778
000050 9d 03 b1 3d 2a 11 68 bd 05 14 5a bc 30 88 69 bd
       0.08643267 -0.056656994 -0.013310437 -0.057014644
000060 02 22 5f 3d 9d d2 0f bd f9 01 8a 3d 9b d6 89 3d
       0.05447579 -0.035112966 0.067386575 0.06730386
000070 d1 12 72 bd 8a d1 8c 3d 8a 5a da bc 08 6a c6 bd
       -0.059099976 0.06875904 -0.0266545 -0.096881926
000080 2a e7 b3 3d b1 2c 26 3c 00 9f 9c bd 0d 0f bb 3d
       0.087843254 0.010142491 -0.07647514 0.0913373
000090 16 7a 93 3d 61 29 e9 3a a5 1f 95 3d 67 31 b5 3d
       0.072010204 0.0017788821 0.07281426 0.088473134
0000a0 05 58 97 3b 78 ac 30 bd 65 a4 50 bd 1d f2 2b 3d
       0.004618647 -0.04313323 -0.05093803 0.041978944
0000b0 80 7f d0 bb ad e6 fb 3b 21 ad 2e bc 55 30 be bd
       -0.0063628554 0.007687411 -0.010661394 -0.09286562
0000c0 11 71 85 bc 53 32 22 3d c7 1d a8 3c 61 cb 00 bd
       -0.016289266 0.039598774 0.020522011 -0.031443957
0000d0 0e 79 50 bd c1 dd a3 bc 83 c0 80 3d c0 ad a4 3d
       -0.050896697 -0.020003201 0.06286719 0.08040953
0000e0 99 b4 7c 3d ca d4 cf 3c a1 a6 b1 bd 62 ca 65 bd
       0.06169567 0.02537002 -0.0867436 -0.05610121
0000f0 4a 50 14 bd 00 2b a2 3c 94 bb 84 bd 9c 1a 26 3d
       -0.036209382 0.019795895 -0.0648109 0.04055272
000100 f7 ff ba bd 42 b7 8c 3c e2 40 58 3d 9c 73 38 bd
       -0.09130853 0.017177228 0.052796252 -0.04503213
000110 29 82 8f 3d 6c 67 97 3d e1 4d cb 3b 35 ba b8 3c
       0.07007248 0.07392773 0.0062043522 0.022549728
000120 66 d0 5f bc 45 4d 13 bd 7b 67 95 3d 9c 4d 50 3a
       -0.013660526 -0.03596236 0.07295128 0.0007946135
000130 d3 c9 81 3d cf 06 d7 bc c5 c3 65 bc e1 48 0d bd
       0.06337323 -0.026248364 -0.014023726 -0.03449333
000140 bf 65 cd 3c b9 02 a0 bc 99 56 a3 bd 61 46 4f 3c
       0.02507293 -0.019532548 -0.079755016 0.012651057
000150 c4 26 68 bd 37 96 b4 bc c8 fe 8f bc a2 ab 73 3d
       -0.056677595 -0.022044284 -0.017577544 0.059489854
000160 59 09 d0 bc e6 89 84 bd c8 1e 31 bd 2d f2 64 bd
       -0.025395082 -0.064716145 -0.043242246 -0.05589502
000170 b6 2c e6 bc d2 82 0c 3d f0 33 ec 3c 96 b3 a5 bd
       -0.028097492 0.034304447 0.02883336 -0.08090894
000180 61 14 21 3d 8b e9 13 bd 37 dd ae bc a3 3f 90 3d
       0.039326075 -0.036111396 -0.021345718 0.07043388
000190 0f e6 dd bc a8 eb cd bc 47 63 ab 3d 01 cb 8f 3d
       -0.02708724 -0.025136784 0.08368545 0.07021142
0001a0 4d 38 9b bd ba e5 8a bd bc 8d 7c bd f6 53 c2 3d
       -0.07579098 -0.06782098 -0.061658606 0.094886705
0001b0 a5 46 60 3d f0 32 c3 3d 9e 6a f5 bc 81 88 3e bd
       0.054754872 0.095312 -0.029958066 -0.0465169
0001c0 57 26 87 3d bb 37 f7 3c 3a 09 05 3d 62 c3 a0 bd
       0.065991096 0.030177942 0.032479502 -0.07849766
0001d0 79 51 ea 3c 3e f9 98 bc 93 bb ce 3b bf 24 25 3d
       0.028603302 -0.018673535 0.0063089817 0.040318247
0001e0 42 ed c1 bd 5d 23 20 3d 08 ec a6 bc c5 31 82 bb
       -0.094690815 0.039096225 -0.02037622 -0.003973218
0001f0 3b da b3 3d 58 c2 2e 3d 06 fd 48 bc a5 fb 5b 3d
       0.087818585 0.04266581 -0.012267357 0.053706784
000200 33 2b a0 3d b0 4d be bd 37 19 02 3d 9c 58 2c 3d
       0.078207396 -0.092921615 0.031762328 0.042076692
000210 57 12 1e bd 2a 0e 8b bb ba 4e 3e 3d f0 ce a4 3c
       -0.03859171 -0.004243632 0.0464618 0.020118207
000220 78 ca 3b bd f7 82 13 3d 0c 74 a9 bb 6a aa 86 3c
       -0.045847386 0.03601357 -0.0051713046 0.016438682
000230 b9 45 a4 3d 13 49 11 bd 1c 66 9c 3d 3b 42 ac bd
       0.08021111 -0.03547008 0.07636663 -0.0841107
000240 96 1e 33 bc 8c bf 6d 3d 8c d3 6f 3d fd 48 80 bd
       -0.010932585 0.058044 0.058551356 -0.062639214
000250 5e e5 11 3d 93 b9 60 3d c3 5e 25 bd 7f d2 8c 3d
       0.035619132 0.054864477 -0.040373575 0.068760864
000260 10 0a 4b 3d 61 1f 2e 3c c1 aa 96 3b 3a 63 8b 3c
       0.049570143 0.0106275985 0.004597992 0.017015088
000270 b9 16 a4 3d 1d 98 06 bc 0b bc a0 bd 2c c9 2d 3d
       0.080121465 -0.008214978 -0.07848366 0.04242818
000280 10 15 36 3d ce c7 d9 3c 92 7e ab bd 9a a3 9b bd
       0.04445368 0.026584532 -0.08373751 -0.07599564
000290 b2 32 50 bd 11 75 9c bd b8 d5 92 3d 10 1a bb bd
       -0.050829597 -0.07639516 0.0716967 -0.091358304
0002a0 b1 fc ac 3c bb cb b5 bd 1a 8a 7c 3c 04 25 09 bd
       0.021116586 -0.08876749 0.015413785 -0.033482566
0002b0 b6 a4 38 bd f9 ca a0 3d c4 8f 9f 3d ad d1 60 3d
       -0.045078956 0.07851214 0.07791093 0.054887462
0002c0 77 90 80 3c d1 1e bd 3d 0e 20 de bc 5f 0c 0d bd
       0.015693886 0.092343934 -0.027114894 -0.034435626
0002d0 20 a6 a6 3d ec 4a d1 bb 10 f6 9f 3d 02 49 65 3d
       0.081371546 -0.006387105 0.078106046 0.05597783
0002e0 25 2c 83 bd 62 35 b5 bc 8c 04 83 3d e1 9c bb 3d
       -0.06404904 -0.022120181 0.063973516 0.09160782
0002f0 61 11 85 3c 80 bb 51 bd 2f 4b 96 3a 05 c2 34 3d
       0.016243638 -0.051204205 0.0011466498 0.044130344
000300 5a e1 67 bd b5 94 7e 3d eb 13 a8 3a 0c 54 31 3d
       -0.056611396 0.062153537 0.0012823319 0.043293044
000310 b5 b3 79 bd c1 89 34 bd 30 8e 4b bd 72 b8 9b bc
       -0.060962398 -0.044076685 -0.049696147 -0.019008849
000320 8a a5 27 3c 25 eb a0 3d d9 19 46 3d 96 74 6a bd
       0.010232339 0.0785735 0.048364494 -0.05724009
000330 f2 05 88 bd 41 08 95 bd 6d d2 9e 3c 90 1d a1 bd
       -0.06641759 -0.07276965 0.019387448 -0.07866967
000340 ef 69 66 bc 54 55 9f 3d 3c 2e ce b8 90 40 2e bd
       -0.0140633425 0.07779947 -9.831457e-05 -0.04254204
000350 53 1b e8 3b 64 8d 31 bd 00 0a ae 3d 05 1e 83 bd
       0.0070833354 -0.04334773 0.08498001 -0.0640221
000360 f3 f1 59 bc c4 36 18 bc 6c 64 a5 bc 2a 7f 45 3d
       -0.013302314 -0.009290401 -0.020189486 0.048216976
000370 7b c5 05 bd 79 26 86 bc 83 04 bd 3d 02 a4 a2 bc
       -0.032659035 -0.016375767 0.09229376 -0.019853596
000380 48 31 a0 bd eb 8d 92 bc 26 83 b8 3d d9 a2 a5 3d
       -0.078219 -0.017889937 0.090093896 0.08087701
000390 78 c9 fd bc a5 99 ad bb c5 5d b5 3c 71 6d c0 bc
       -0.030979857 -0.005297857 0.02213944 -0.023489686
0003a0 1d 67 24 3d 65 e4 ff 3c 8f aa 27 3d 51 61 1c 39
       0.0401374 0.031236837 0.04093414 0.00014913573
0003b0 aa c1 e5 3b 4c b0 e0 3c a5 74 05 bc af 2e a7 3d
       0.007011612 0.027427815 -0.008145486 0.08163201
0003c0 13 32 8a bd 0d 88 c6 bd fd 79 d0 3c 4e c1 fe bc
       -0.06747832 -0.096939184 0.025448794 -0.031098034
0003d0 6e 7b a1 3d b7 53 89 3d 0a 14 51 3d fa 6a fb 39
       0.078848705 0.067054205 0.0510445 0.00047954154
0003e0 2c 2b 16 bc 68 38 2a 3d b1 3d 59 bd 32 8c 1a 3d
       -0.009165566 0.0415577 -0.05303735 0.037731357
0003f0 99 c6 b2 3d c4 8d 33 bc 54 35 a1 3d 53 c0 05 3c
       0.08729286 -0.0109590925 0.078715 0.008163529

lstm.weight_hh_l1 f4 [512, 128]
000000 12 9b 3a bd ae c9 67 3d bf 56 b5 ba fb 7f b7 bd
       -0.045558043 0.05658882 -0.0013835056 -0.08959957
000010 54 b0 83 bd 94 16 ad 3a f6 f8 af bb e5 d6 9d bd
       -0.06430116 0.0013205581 -0.0053702546 -0.077070035
000020 56 10 13 bc 1a 7d 10 3d 2f 77 b1 bd 39 8c 33 bd
       -0.008976063 0.035275556 -0.086653106 -0.0438349
000030 49 9d 06 3d 12 c1 4e bd 2a df 5d 3d 22 38 7e bd
       0.032864843 -0.050477095 0.054167904 -0.06206525
000040 80 b2 32 bd fd ec 44 3d 18 47 87 3d 86 6f 35 bc
       -0.043627262 0.048077572 0.06605357 -0.011073953
000050 91 d1 1e bc 78 d8 9a bb e5 a6 48 bc f7 17 16 3d
       -0.009693519 -0.004725512 -0.012246822 0.03664395
000060 b1 bb 1a bd 32 d7 b1 3d 7c 55 72 bc 17 65 44 bd
       -0.037776653 0.086836234 -0.014790889 -0.04794797
000070 05 38 9f 3d b1 7e 1d 3d 14 d2 8e bc 93 de 7a 3d
       0.07774357 0.0384509 -0.017434157 0.06124742
000080 d1 cf 30 3d b9 97 4b bc 8d 48 0b bd 09 82 9b 3c
       0.04316694 -0.01242631 -0.034004737 0.018982904
000090 f3 c1 cd bd 88 fb 4d bd fe 3c cb bd 05 63 5b 3c
       -0.100467585 -0.050288707 -0.09923743 0.013390307
0000a0 f7 c3 d0 bd fb 16 bf bc d8 00 b0 3d 3a 38 73 3c
       -0.10193627 -0.023326388 0.08593911 0.014844948
0000b0 e9 33 46 bd de 9a 99 bc c9 f0 6d bd 6c 1c d7 bc
       -0.04838935 -0.018750604 -0.05809096 -0.02625867
0000c0 de 32 c0 bc 60 7b b2 bd 13 de 90 3d b2 07 8e 3d
       -0.023461755 -0.08714938 0.07073607 0.069350615
0000d0 65 99 a1 3d be e2 dd bc 5d 1a 93 bd ec c4 83 bd
       0.07890586 -0.027085658 -0.07182763 -0.06434044
0000e0 58 f3 bf 3d a2 8d 49 bd 86 10 74 bb cd 97 82 3b
       0.09372586 -0.049207337 -0.0037241294 0.003985381
0000f0 06 72 65 bc e8 a6 e6 bc 36 20 5c 3d 03 5a a5 bc
       -0.014004236 -0.028155759 0.053741656 -0.020184522
000100 16 39 a9 bb 4d 5f 16 bd 23 73 56 bc 87 dc 83 3c
       -0.005164276 -0.03671198 -0.013088974 0.016096367
000110 9c fd bc bd 43 cb 66 bd 04 e5 6f bd 40 26 7b 3d
       -0.0922806 -0.05634619 -0.058568016 0.061315775
000120 dc ee a3 bd 42 47 1f bb 77 0e ad 3d 1b ae fa bb
       -0.08004543 -0.0024303948 0.084500246 -0.0076501495
000130 f4 5d cf 3d 79 6e 81 3d ed 47 80 3d 5a 31 79 bd
       0.10125342 0.06319899 0.06263719 -0.06083808
000140 d0 ea f7 bb fb 3b 9b 3d 9d fa aa 3d df ba c3 3c
       -0.0075658336 0.075798 0.08348582 0.023892818
000150 c6 df 3b 3d 89 81 be 3a 11 b6 b3 3d eb b2 bb bd
       0.045867704 0.0014534454 0.08774961 -0.09164985
000160 de 82 74 3d de 98 47 3d 3e 74 05 3d e0 b0 62 bd
       0.059695117 0.04872977 0.03258156 -0.055344462
000170 0b 1f ae bd 6e ae 08 3c 51 f7 c9 3d 43 fc d0 3d
       -0.08502015 0.0083423685 0.09861625 0.10204365
000180 4b 33 83 bd 05 77 72 bd a5 85 a5 bd ef 0c 90 3c
       -0.06406268 -0.059195537 -0.08082131 0.017584292
000190 8d e6 b8 3b 17 df 74 bc 0b 6b a4 bd cb b4 9a bc
       0.005642718 -0.014945767 -0.08028229 -0.018885037
0001a0 44 1e 83 bd 63 8a 84 bd 28 8d 6b bd a9 d6 c8 bd
       -0.06402257 -0.06471708 -0.057507664 -0.09806568
0001b0 89 29 9c 3d 95 88 9f 3d fd f1 b7 3d 1d 0e 9e bc
       0.0762511 0.07789723 0.089817025 -0.01929384
0001c0 5f 29 9d bc be 0e 22 bd 0b 70 ab 39 34 f4 b1 3d
       -0.019184766 -0.03956484 0.0003269914 0.08689156
0001d0 85 61 f3 3b ae 49 98 3d cc 69 ee bb e9 dd 90 3d
       0.0074273967 0.07435928 -0.0072757956 0.07073576
0001e0 62 66 b3 3b 1d 1b 5f bc 6c 07 62 39 f6 9b 3c 3b
       0.0054748515 -0.013617304 0.00021555804 0.0028779483
0001f0 b4 dc 0d 3d 30 12 66 3d 11 84 1d bd b9 d1 b8 bd
       0.034634307 0.05616969 -0.038456026 -0.090243764
000200 ab ad 57 bd 7f a7 e2 3b d2 ed 8f 3d 34 f0 61 3d
       -0.052655857 0.0069169397 0.070277825 0.055160716
000210 ba 50 8b 3d 67 53 7c bd dd fe fc bb b7 fd 30 bd
       0.06802507 -0.061602976 -0.0077208118 -0.04321071
000220 e6 06 8f bd 47 11 88 3d 5e 64 8d bd 2b fe 3e bb
       -0.06983738 0.066439204 -0.06903909 -0.0029143195
000230 4e 41 23 bd a6 de b2 3d ba 9b 97 3d bd ed a0 3c
       -0.0398572 0.08733873 0.07402749 0.019644612
000240 85 91 89 bd 6f eb 6e bc e1 28 b8 bd c9 e5 ca bc
       -0.06717209 -0.014582499 -0.08992172 -0.024767773
000250 a2 24 96 3c c3 10 cc bc 0b 99 dc bb cd 9a c7 bc
       0.018328015 -0.024910336 -0.0067321113 -0.024365807
000260 0b 19 24 bd b2 d5 47 3d fb 17 cc bd 4d cf 47 3d
       -0.040062945 0.04878778 -0.099655114 0.04878168
000270 b6 6a 8e bd 41 3b 61 3c 83 03 80 3d 4b 54 47 bc
       -0.06953947 0.013747037 0.0625067 -0.012166093
000280 09 08 93 bd 44 8b 30 3d 8e 5c 7a 3d 23 bb 49 3d
       -0.07179267 0.043101564 0.061123423 0.049250733
000290 12 c3 80 bd 32 c3 a0 3a 78 b2 30 bd f7 54 c3 bd
       -0.06287207 0.0012265204 -0.04313895 -0.0953769
0002a0 18 e0 0b bd d9 21 bb bd ab e6 65 bd dd 62 81 bd
       -0.03414926 -0.09137315 -0.056128185 -0.06317685
0002b0 87 8b 57 bd 64 ca 90 3d 27 13 1e bd 83 2c a9 bd
       -0.052623298 0.07069853 -0.038592484 -0.08260443
0002c0 1c aa 2a bd b3 7d 36 bd 22 bb 0e bd e0 b6 aa 3c
       -0.041666135 -0.04455347 -0.034846433 0.020839155
0002d0 26 a3 d0 3c 1d 4f 39 3d bc 3c a1 3d 19 1c 1d bd
       0.02546842 0.045241464 0.07872912 -0.038356874
0002e0 e9 15 60 3d 5c 49 df bb 73 e6 a2 3d 36 bb c2 bc
       0.054708395 -0.006814165 0.07954111 -0.02377091
0002f0 90 df 77 bd a8 ec 32 bd 41 92 b8 3d b9 67 a4 3c
       -0.06051594 -0.043682724 0.09012271 0.02006899
000300 db c7 b8 3d ee e5 a8 bc 4c f2 97 3d 89 0b f7 3c
       0.090224944 -0.020617452 0.07419261 0.030156868
000310 69 eb 88 3d 53 cf aa bd 95 22 a6 bd 71 28 1f 3d
       0.06685526 -0.08340325 -0.08112065 0.038856927
000320 12 a6 50 3d b2 d2 a3 3b 99 47 46 3a 3d 3f 28 bd
       0.050939627 0.004999482 0.00075637695 -0.041075934
000330 74 d8 83 3d 8b 71 81 3d 5e 29 85 3c cb af 38 3d
       0.064377695 0.06320485 0.016255077 0.045089524
000340 82 27 91 bd 6c 4f 78 bd 59 80 a9 bd 44 86 89 bc
       -0.07087614 -0.060622618 -0.082764335 -0.016787656
000350 b2 eb 64 3d f9 71 32 bd 22 32 d4 3b 6d f0 37 3d
       0.05588884 -0.043565724 0.006475703 0.044907022
000360 b9 53 9a 3d 4e fc c7 bc ee 13 62 bd 52 a1 96 3c
       0.075355 -0.0244123 -0.055194788 0.01838747
000370 90 2b ad bd 67 23 81 3d 16 5c 9d 3d e9 3a 16 bd
       -0.084555745 0.063055806 0.076835796 -0.036677275
000380 c9 d9 82 bd 87 2f 5f bd e8 cb a0 3d d8 0e b4 3d
       -0.063891955 -0.054488685 0.07851392 0.08791894
000390 e8 80 33 bd 08 b3 8b 3d 3a 8c 64 bd 8b ba 89 bc
       -0.043824106 0.06821257 -0.055797793 -0.016812583
0003a0 2e 91 44 bd 94 00 98 bd 71 44 2f 3d 4d 92 23 3d
       -0.047990017 -0.07421985 0.04278988 0.039934445
0003b0 95 72 b7 3d b4 b3 a6 3d 99 09 c1 3d 1e f0 db 3c
       0.08957402 0.081397444 0.09425659 0.026847895
0003c0 fc 23 89 bd 68 f5 72 bd c5 99 91 3d 0b 65 85 bc
       -0.066963166 -0.05931607 0.07109407 -0.016283533
0003d0 a5 c9 ab bd a7 24 db 3b c8 a9 37 bd 9b 2e 55 bc
       -0.0838807 0.006687719 -0.04483965 -0.0130116
0003e0 06 35 e7 bb 12 ab e6 bc bb c2 51 bc 2d 92 c2 3d
       -0.0070558814 -0.028157745 -0.012802775 0.09500537
0003f0 17 50 b2 bd 23 da e3 3c e1 1c b7 3d b0 b1 8b 3d
       -0.08706682 0.027813977 0.08941055 0.068210006

lstm.bias_ih_l1 f4 [512]
000000 57 91 d6 3b 03 5b 61 3c ad 27 9e bb 14 10 48 3c
       0.0065480876 0.013754609 -0.004826507 0.012210865
000010 fc 1b 81 3c 93 e3 81 3c fa 3e f2 3b 50 7f 38 3b
       0.015760414 0.015855586 0.0073927613 0.0028152056
000020 65 18 01 3c 19 cf 92 3b 31 9f d3 3b f6 0f 27 3c
       0.007879351 0.0044802544 0.006458186 0.0101966765
000030 0c 7e c1 3c e1 c8 2c 3c 17 b0 10 3a da ae b5 3c
       0.023619674 0.01054594 0.00055194035 0.022178102
000040 fd e3 d1 3b 26 0d 4d 3c 1b ab 10 3c b8 e8 76 3c
       0.006405352 0.012515342 0.008829857 0.015070133
000050 a2 42 ad 3c 3b a6 3f 3c f3 6c 28 3c 88 94 0c 3c
       0.021149937 0.011697347 0.010279882 0.0085803345
000060 40 d2 2f 3c aa 5a d8 3b 4d 2d 98 3c b8 3b e6 3c
       0.01073128 0.006602605 0.018576289 0.028104648
000070 5a de 38 3c 39 9d e1 3b a2 e0 5c 3c 64 9b e9 3b
       0.0112834815 0.0068851975 0.013481291 0.0071291197
000080 e7 79 8d 3c 30 bf 70 3c cd 04 97 3c 82 44 37 3c
       0.017270042 0.01469402 0.018434906 0.011185767
000090 fa d5 89 3c fd 2a 96 3c 3b 2d 7b 3c 09 64 38 3c
       0.016825665 0.018331045 0.015330608 0.011254319
0000a0 db e7 97 3c 77 80 1d 3c ce 2f 0a 3c 45 ed 08 3c
       0.018543174 0.009613148 0.008434249 0.008357351
0000b0 8c e5 61 3c f7 7b a5 3b 05 4c 36 3c c7 78 9a 3c
       0.013787638 0.005050178 0.011126523 0.01885642
0000c0 f6 98 4d 3b 09 8e 86 3b 42 7e 71 ba 8a b2 7d 3c
       0.003137169 0.0041062874 -0.0009212234 0.015484462
0000d0 cd b4 91 3c 0c d1 71 3c f1 5c 13 3c 0a 29 37 3c
       0.017786408 0.014759313 0.008994327 0.011179218
0000e0 3e 58 2b 3c 4b e0 44 3c 1a 99 2e 3c cd f5 eb 3b
       0.01045805 0.012016366 0.010656619 0.0072009326
0000f0 65 ea cb 3b 88 04 58 3c 99 94 8e 3c 9c 29 99 3c
       0.0062230104 0.013184674 0.017404841 0.018696599
000100 c6 ec 5f 3c 1d 6d 44 3c 90 6c 64 3c e7 88 44 3b
       0.013667291 0.011988905 0.013941899 0.0029988827
000110 6d 2c 3e 3c 86 c0 7d 3c 75 fe 95 bb 63 b7 2c 3c
       0.011607272 0.015487796 -0.004577453 0.01054177
000120 9e 86 90 3c 4f 46 24 3c ad e3 d3 b9 66 ae 1c 3c
       0.017642315 0.0100265285 -0.00040414688 0.009563064
000130 c3 cf 30 3c 1b a7 7a 3c 52 96 c2 ba 65 3f 44 3c
       0.010791722 0.01529863 -0.0014845824 0.011978005
000140 f8 97 89 3b 8c bb e1 3b 0f e7 2b 3c 37 6f 46 3c
       0.0041990243 0.0068888124 0.0104921 0.012111477
000150 36 40 0a 3c 8f 65 1f 3b b1 42 c5 3b 5b 28 ab 3c
       0.008438161 0.0024322008 0.006019913 0.020893266
000160 c7 c3 f4 3b 5f 71 52 3c 60 8e ed 3b 15 16 91 3b
       0.0074696275 0.012844413 0.0072496384 0.004427681
000170 69 3e 09 3c 0e 86 bf 3b 12 23 22 3c ef 33 8f 3c
       0.008376696 0.005844838 0.009896057 0.017480819
000180 e5 a1 62 3c e4 7e 4e 3c 0c 00 b9 3b 51 71 8f 3b
       0.013832544 0.012603495 0.0056457575 0.004377522
000190 17 0c 8d 3c 6b 87 e6 3b bd cb 01 3c 0c 32 40 3c
       0.017217679 0.007035186 0.00792211 0.011730682
0001a0 95 bf 33 3c 45 48 4e 3c 3e a4 3c 3c 2e a3 9f 3c
       0.01097097 0.012590473 0.011513768 0.01948699
0001b0 3d 1a 9a 3c 54 ad 8a 3c d5 81 12 3a d6 a4 79 3c
       0.01881134 0.016928352 0.00055888045 0.015237054
0001c0 6e 7e 72 3c 75 91 29 3b 95 2b 69 3c 8f 93 e7 3b
       0.014800651 0.0025874053 0.014231582 0.007067151
0001d0 48 67 9c 3c a1 d5 1d 3c 0b 78 5b 3b 85 72 8d 3c
       0.019092217 0.009633453 0.00334883 0.017266521
0001e0 92 69 80 3c c1 ca 52 3c 37 94 83 3c bd 04 88 3c
       0.01567534 0.012865723 0.016061885 0.016603822
0001f0 bd e6 76 3c e0 37 d5 3b 66 84 89 3c 2f 74 92 3c
       0.015069661 0.006506905 0.016786765 0.017877666
000200 c0 22 8f bb 3e 0a 0d 39 71 77 e3 ba fd e9 3b ba
       -0.004368156 0.00013450623 -0.0017354322 -0.0007168351
000210 11 91 2b ba cf 5e 2b 3c e5 91 41 bb fb 28 bf 3a
       -0.0006544749 0.010459616 -0.0029536423 0.0014584357
000220 76 d6 c9 3a 22 57 b1 ba 0d d3 a4 39 39 df 16 bb
       0.0015398997 -0.0013529996 0.00031437763 -0.0023021235
000230 de 82 b8 bb 9a 82 28 3b 08 c3 be ba 36 70 d2 3b
       -0.005630835 0.002571261 -0.0014553973 0.006422068
000240 f7 8f 0c ba 2c b0 9d 3a 4a c2 26 3b 57 d6 7f 3b
       -0.00053620286 0.0012030653 0.0025445395 0.0039037669
000250 0c 8c 91 3b 3d 3c 5a bb cb 95 30 ba 44 0d 1d bb
       0.0044417437 -0.0033300065 -0.0006736188 -0.0023964206
000260 4e ae 15 39 87 1b a8 3a 20 ce f7 3a d7 14 02 bb
       0.00014274681 0.0012825587 0.0018906035 -0.0019848847
000270 16 53 64 3b 81 19 13 bb b6 50 c3 ba 68 ae 8f ba
       0.0034839562 -0.0022445621 -0.0014901373 -0.0010962011
000280 07 09 1b ba a5 ca 95 bb 0e f5 b1 bb 2d 50 50 3c
       -0.0005914126 -0.0045712763 -0.005430824 0.012714428
000290 42 71 97 bb 85 5b 28 3c 19 ee 43 bb 32 f9 e5 3b
       -0.0046216557 0.010275726 -0.0029896556 0.007018232
0002a0 89 eb a9 bb 8b 1b f2 3b 39 2e c8 bb 27 99 a9 3a
       -0.0051855487 0.0073885373 -0.006109026 0.001293932
0002b0 ff 43 6b 3c 36 d5 28 3b 5c 24 e2 3b 19 ca 0d 3b
       0.014359473 0.002576185 0.006901307 0.0021635352
0002c0 fb de 1a 3b a9 2d cf ba 4d 89 29 3b 01 12 e1 3b
       0.0023631442 -0.0015806454 0.002586919 0.0068686013
0002d0 a4 17 ec ba 79 76 35 3b e1 e4 c0 3b b3 cd 59 37
       -0.0018012417 0.0027689023 0.0058866595 1.2982101e-05
0002e0 24 3e b7 b7 5f 4f cf ba ed a4 79 39 9c d1 b9 3a
       -2.1844236e-05 -0.0015816501 0.0002380793 0.0014176848
0002f0 7f 7f 80 39 40 fd 15 ba fa 7c 5f bb 32 96 86 3b
       0.00024509054 -0.0005721636 -0.0034101591 0.00410726
000300 b6 19 43 bb bf 46 12 3c 88 12 cd 3a 81 1b 57 bb
       -0.0029769964 0.008928 0.0015645782 -0.003282279
000310 b2 44 35 3a a4 0f ab 3b 83 54 8e bb 31 61 0b 3c
       0.00069148385 0.0052203704 -0.0043435707 0.008507059
000320 b7 f9 85 3b bf e4 ce 3a b9 b8 62 bb 99 f1 d3 3b
       0.004088606 0.0015784724 -0.0034594967 0.0064680097
000330 24 fb ac 3b 90 02 65 3b ab 12 6e bb 04 70 22 bb
       0.0052789617 0.0034944154 -0.0036327045 -0.0024786005
000340 0d 40 11 bb 4b f1 b9 ba f7 ac 68 ba e4 1a 0f 39
       -0.0022163421 -0.0014186291 -0.00088758714 0.0001364756
000350 44 19 6a 3b 3a 25 0d 3b 8d 31 33 3b 29 96 5a bb
       0.0035720626 0.0021537081 0.0027342767 -0.0033353663
000360 76 43 01 3b e9 e4 e7 ba 12 6a 3d 3b 73 f9 02 3c
       0.0019724048 -0.0017692122 0.0028902334 0.007994044
000370 ba 1b d9 ba 6a 06 e3 3a 99 1c cd bb d5 8a fd 3b
       -0.0016564049 0.0017320637 -0.0062595126 0.0077374973
000380 45 68 1b bb eb f5 35 bb aa 3c 7e ba 9c 89 6f b9
       -0.0023713273 -0.0027764987 -0.00096983707 -0.0002284408
000390 08 f6 a5 3b aa 69 be ba a8 e9 e0 bb d6 a7 25 bb
       0.0050647296 -0.001452734 -0.0068637915 -0.002527704
0003a0 3b 4f 1c b8 33 b8 c7 b9 85 33 3b bb 73 9d dc ba
       -3.7267087e-05 -0.00038093477 -0.0028564644 -0.0016831591
0003b0 f8 b8 81 3b 95 24 54 bb 64 da af ba be ff b9 35
       0.0039588176 -0.0032370437 -0.0013416526 1.3858005e-06
0003c0 ee 44 05 3c c2 92 14 3b 79 26 ab 3a a9 46 e7 ba
       0.00813411 0.0022670482 0.001305773 -0.001764496
0003d0 98 f4 ed 3b 7c 09 16 3c 94 41 81 ba c3 38 af ba
       0.007261824 0.009157535 -0.0009861463 -0.0013368357
0003e0 a5 6c e4 38 c3 8a 90 bb 4e 32 e4 38 88 74 0a 3c
       0.00010892124 -0.004411073 0.00010881257 0.008450635
0003f0 cb 6c 0d 3a 95 28 d6 3a e3 23 51 bb 8c 7c b6 3b
       0.00053949346 0.0016338999 -0.003191226 0.0055690464
