models/stock_only/checkpoint/BDTC.pth (torch, 874225 bytes, 11 tensors)

lstm.weight_ih_l0 f4 [512, 5]
000000 fe 15 a7 bd c6 8b ce 3c 2d b9 46 bd 11 4b 2b bd
       -0.081584916 0.025213134 -0.04851644 -0.041819636
000010 4f 03 40 bd 86 71 79 bd 18 6e bb bd 60 e2 5f 3d
       -0.046878155 -0.06089928 -0.09151858 0.054659247
000020 4a 13 06 3d c8 5c 41 bd b7 be 91 ba 5d 31 90 3b
       0.03273324 -0.047207624 -0.001111946 0.004400416
000030 c9 16 09 bd f6 8f 37 bd a5 2d f9 3d 63 5f e0 3d
       -0.033468995 -0.044815026 0.12166909 0.109556936
000040 1c 9e 42 3d 3f a8 2b bd fa 55 0a 3d 55 ca d3 bd
       0.047514066 -0.0419085 0.0337734 -0.10341326
000050 c5 cc 89 3c f2 09 98 bd 44 85 d5 bd f1 b1 cd 3c
       0.016821275 -0.07423772 -0.10425809 0.025109263
000060 14 b7 a0 bc 35 5d 9c 3d cb c8 b9 3d 18 16 67 3d
       -0.019618548 0.07634965 0.09071501 0.056417555
000070 47 bb 80 3d 39 06 43 3d 7c d8 78 3d e1 ba f9 3c
       0.0628572 0.047613356 0.06075333 0.030484619
000080 ec cb 16 bd 1e 9c d6 3c e8 2c 8f bd 48 fc 06 bc
       -0.03681557 0.02619749 -0.06990987 -0.0082388595
000090 97 3c bf 3d de 00 c7 bd 6d 0a bd bd 8d e3 e4 3d
       0.093377285 -0.09716962 -0.09230504 0.11176214
0000a0 20 ea 0f 3d 69 95 89 3d 78 55 d6 bc f9 27 6f 3b
       0.03513539 0.06717951 -0.026163802 0.0036492331
0000b0 31 83 65 3d 53 f3 45 3b 2c eb 8f ba 8a e4 08 bd
       0.056033317 0.0030204847 -0.0010980121 -0.033421077
0000c0 ff 9e 8a bd a2 24 8a 3d 36 31 75 3d 78 e2 91 bd
       -0.06768607 0.067452684 0.059861384 -0.071232736
0000d0 9d cc a9 3d 70 0b ae 3d af 53 89 3d 0d e9 95 3d
       0.0829098 0.08498275 0.067054145 0.073198415
0000e0 2d 76 02 3e 7f 96 9f bd 9b 11 42 3b 0b ef 9a 3d
       0.12740393 -0.07792377 0.0029612544 0.07565125
0000f0 e2 4e e0 bc 30 8a 70 bd 66 ed 7c bd c0 c0 2d bd
       -0.027381364 -0.058725536 -0.06174984 -0.04242015
000100 ea 9e 25 3c 20 07 43 bd f8 e5 57 bb 10 6b bd bd
       0.010108689 -0.047614217 -0.0032943469 -0.09248936
000110 62 5f c1 bd 0e 29 90 3d a1 93 9e bd 08 64 73 3c
       -0.09442021 0.070390806 -0.07743002 0.014855392
000120 1a d3 cf 3d 88 dd 60 bd 91 2b 83 3d 69 8d 6d 3c
       0.10147686 -0.05489877 0.06404794 0.014499047
000130 20 ad 80 3d 47 29 ec 3d d2 ca 7e bd 9f c8 95 3c
       0.06283021 0.115313105 -0.062205143 0.01828414
000140 d4 99 83 bc af 99 3c 3d 2b 61 7d bd bb 0c 6a 3d
       -0.016064562 0.046045 -0.061860245 0.057141047
000150 2b 9e 20 3d 4e bb 40 bd 2a fc a5 bd 5b 6f 9c bd
       0.03921334 -0.047053628 -0.08104737 -0.07638427
000160 8d e1 ad bc c0 80 48 bb c9 ad ab bc e5 d0 aa bc
       -0.021225715 -0.003059432 -0.02095689 -0.020851562
000170 90 b4 81 bd a0 85 2b bd f5 77 ab 3d fe 1d a0 bd
       -0.06333268 -0.04187548 0.08372489 -0.078182206
000180 ed 94 d6 3d 72 34 97 3c 87 89 08 bd 0e ef ab bd
       0.10477624 0.018457625 -0.03333428 -0.083952054
000190 d5 31 42 bd ce ff 8b 3d 54 07 b7 3c 8e 72 74 bd
       -0.047410805 0.068359 0.022342362 -0.05967956
0001a0 5a c8 1f 3d 17 bc db bd bd cc be bc db 3f f1 3d
       0.03900943 -0.10729235 -0.023290986 0.117797576
0001b0 2b e4 6d bc d1 34 91 3d 2d e2 6c bd 7c 3f 30 bd
       -0.0145197315 0.07090152 -0.057832886 -0.043029293
0001c0 4d 50 8a bb 1c 8d 9e bd e1 12 d6 3d 0a 76 c5 3b
       -0.0042209984 -0.07741758 0.104528196 0.0060260342
0001d0 8c ab 56 3d ed c7 47 3d 9c 9b 9e 3d 8e 22 5f 3d
       0.052409694 0.04877465 0.07744524 0.054476313
0001e0 8b 51 ae bc d7 6a 82 3d bf ef da 3d 77 5f 81 bb
       -0.021279117 0.06368034 0.10690259 -0.003948148
0001f0 90 71 ac ba 91 c6 c9 3d 01 b5 bc 3d fb e2 8d 3d
       -0.0013156403 0.09852327 0.09214211 0.06928059
000200 e9 13 10 bd 14 24 bb bb 70 65 b8 3d f4 2e 56 bd
       -0.035175238 -0.005711088 0.09003723 -0.05229087
000210 7f 2e 03 3d 1b d7 76 bd 44 4e 03 3d 44 bf 4b bd
       0.032026764 -0.060263734 0.03205706 -0.049742952
000220 e7 c1 51 3d 41 04 34 bd c5 ac 92 bd 05 a2 99 bd
       0.05121031 -0.04394937 -0.071618594 -0.07501606
000230 98 a7 9a bb cc a9 d1 3c 5c 55 8a bd 45 dd 09 3d
       -0.0047196858 0.02559366 -0.06754562 0.033658285
000240 5d 2f ab 3d f5 dc 9f bd 4b 1e cb b9 34 cb df bd
       0.08358643 -0.07805816 -0.00038741747 -0.1092743
000250 2c d8 cb 3c e4 55 26 3d 21 a2 fa 3c 06 2f 3d 3c
       0.024883352 0.040609255 0.030594887 0.011546856
000260 09 67 f3 3c 25 32 4e 3d 11 e6 ad 3d f5 7e a7 3d
       0.029712217 0.05034079 0.08491147 0.08178512
000270 ad 84 b6 bd 8d b3 83 bd cc 55 ba 3d aa 0c 83 3d
       -0.08912025 -0.06430731 0.09098396 0.063989
000280 0d c5 4c 3d 69 a1 8b 3d 55 ff a0 bc ca 5a 90 bd
       0.04999261 0.06817896 -0.019653002 -0.07048567
000290 18 b0 76 bd 5c 67 11 3b f2 9b ea bb 46 12 73 bc
       -0.06022653 0.002218685 -0.0071597034 -0.0148359
0002a0 cb 23 c2 3c f0 f6 c7 bd ca 4d c3 ba 20 73 e3 bb
       0.023698708 -0.097638965 -0.0014900502 -0.006941214
0002b0 40 3a 08 bc 62 71 1f 3d e2 b6 c9 3d 6e b5 c7 bd
       -0.008314669 0.03892649 0.09849335 -0.09751402
0002c0 6b f1 98 bd 2a b0 b9 b9 a8 be 49 bc b8 9c c0 3d
       -0.07467922 -0.00035417202 -0.012313522 0.09404892
0002d0 f0 a4 75 3c 86 f8 b0 3d 29 d7 cc bc a4 0e de bc
       0.014992937 0.08641152 -0.02500494 -0.02710659
0002e0 79 5d cd bd b8 94 1a 3d 75 ff e2 3d f7 30 49 3d
       -0.10027594 0.037739486 0.11083881 0.049118962
0002f0 5e 25 98 3d e4 7e 92 3d c3 94 90 3c c0 08 83 bd
       0.07429002 0.07153109 0.01764906 -0.06398153
000300 56 13 3c 3d 93 9c a7 3d 19 64 d1 bd 21 19 9d 3d
       0.045916878 0.08184161 -0.1022417 0.076708086
000310 a6 42 ce bd ce 59 74 3c ff 7b 48 bd 78 9d 50 3c
       -0.10071306 0.014913989 -0.048946377 0.012732856
000320 66 1a df bd fb 69 d3 3d 45 19 74 bc f3 ed 81 3c
       -0.10893707 0.103229485 -0.014898603 0.015860533
000330 6f 8b 9f 3d 45 8b 9a bd 94 d7 87 bd 76 c4 ac bd
       0.07790267 -0.07546095 -0.06632915 -0.084359095
000340 ee 39 b9 bd 56 9e d6 bd d1 b8 0c bd 8a 9d 04 3d
       -0.09044252 -0.10479419 -0.034355942 0.032376803
000350 d3 98 82 bd 6c d2 aa bd e3 4e 62 3d a3 65 3f 3d
       -0.06376805 -0.08340916 0.055251013 0.046727788
000360 db 0e 9d 3d 1e 1a a6 3d 45 87 5b bc 40 80 bd bd
       0.07668849 0.0811045 -0.01339895 -0.09252977
000370 26 e9 ad bd 2e c7 d8 3c 50 b7 a6 3c 03 69 c8 3d
       -0.08491735 0.026462164 0.020351082 0.097856544
000380 7d 3f cb bd 83 7c 2c 3d 8c 26 0f 3d 05 22 f8 3d
       -0.09924219 0.04211093 0.03494887 0.12115864
000390 40 47 98 bd 6c 6f b0 3d d9 72 e5 3d 72 a5 5b bd
       -0.07435465 0.08615002 0.11203546 -0.053624578
0003a0 d8 44 29 3c 69 a8 a9 bc 7c 59 05 bd c5 0e 1b bd
       0.010331355 -0.020710187 -0.032556042 -0.037855882
0003b0 f9 9b b8 bd 13 f3 a8 bd 1e 0a 71 bd f9 81 86 bd
       -0.090141244 -0.08249488 -0.05884754 -0.06567759
0003c0 5f c2 d1 3d 87 bd 1d 3d f9 b5 c1 3d ce 07 9b 3d
       0.102421515 0.038510825 0.09458537 0.07569848
0003d0 75 f2 9d 3d 66 48 ff 3c 8b 6b af bd 69 ab 23 bd
       0.07712261 0.031162452 -0.08565434 -0.03995839
0003e0 73 88 45 3d e0 4e c4 3c ff 18 e6 3c d9 f6 a6 3c
       0.04822583 0.023963392 0.028088091 0.020381378
0003f0 07 1d ef 3c b6 d2 a1 bd 8c 4c 0b bb 03 f0 e5 bc
       0.029188646 -0.07901518 -0.0021255342 -0.028068548

lstm.weight_hh_l0 f4 [512, 128]
000000 86 49 9c 3d 6e 77 a6 bd 2e 05 17 3d 71 0b 5f 3d
       0.07631211 -0.08128248 0.036870174 0.05445427
000010 8f e8 e6 bc d9 ba 18 3b d6 06 24 3d 03 22 b3 3d
       -0.028187064 0.002330473 0.04004558 0.087467216
000020 12 f4 9c bd 57 cf ce bd 65 06 63 3d 68 65 b2 3d
       -0.0766374 -0.10098141 0.05542602 0.08710748
000030 e6 eb 0c bd 9d ba fc bb f5 dc 27 3c 05 2b 3d 3d
       -0.034404658 -0.0077126757 0.010245551 0.046183605
000040 6c 23 bb bd 6e 38 ff bb 54 1e df 3c 4c 43 91 3d
       -0.091376156 -0.0077887094 0.027236141 0.07092914
000050 9a 2b 18 3b 47 4f b2 3b 6f bd ac bd 1a b3 8a 3d
       0.0023219348 0.0054415795 -0.08434569 0.06772442
000060 8d 1a 4b bd a7 99 6c bd a1 00 81 bd bf 96 c2 3c
       -0.049585868 -0.05776372 -0.06298948 0.023753522
000070 45 49 88 bd c4 31 e3 bb 4d 0b b0 bd de 4e 56 bd
       -0.066546 -0.0069334228 -0.085959055 -0.052321307
000080 88 d0 43 bd 4b e6 2a bc 68 93 90 3d aa c4 18 bd
       -0.047806293 -0.010430883 0.070593655 -0.03729693
000090 bf 22 75 bb 8a f7 3b 3d d0 c7 b5 bc 6e ae 79 3d
       -0.0037404743 0.04589037 -0.022190005 0.060957365
0000a0 3b 91 0e bd e4 67 8c bd c5 e8 94 bc 0f 92 95 bd
       -0.03480647 -0.06855753 -0.0181774 -0.07303249
0000b0 8c d2 8f bd 30 39 ed 3c 80 72 c1 bc fe b9 81 3c
       -0.070225805 0.028957933 -0.023614168 0.015835758
0000c0 00 e4 4d bd f7 b6 ca 3c 2d 6b ab 3d d6 fc b8 bd
       -0.050266266 0.024745448 0.083700515 -0.090326
0000d0 2e f4 c3 3d c8 c5 c1 bd 27 a2 08 bd 21 5d c3 3d
       0.09568058 -0.09461552 -0.033357766 0.09539247
0000e0 3b a3 ca 3d 19 09 28 3c fc fe 26 3d 3e 6e da bc
       0.09894415 0.010256075 0.040770516 -0.026663896
0000f0 51 d6 04 bd c8 ae 19 bb 4c 9d ae 3d 1f 71 ca 3d
       -0.03243095 -0.0023450125 0.08526096 0.098848574
000100 4a 53 79 bd 48 4a a7 3b db d5 df bc 8e 77 a4 3d
       -0.060870446 0.0051052906 -0.027323654 0.08030616
000110 42 29 97 3d 9e 20 b5 bc 27 78 a4 3d c8 cf a3 bd
       0.07380916 -0.02211028 0.0803073 -0.079986155
000120 84 7b 10 3d d7 53 17 3d a0 6b 42 bd f5 a2 32 3d
       0.035274044 0.03694519 -0.04746592 0.04361244
000130 5c ab e5 bc 74 c4 8c bc 05 5a 1f bd b6 11 8c bd
       -0.028035812 -0.01718352 -0.03890421 -0.068393156
000140 1d fd 29 bd d9 88 30 3d ac b9 1f 3d f8 a4 a0 3d
       -0.041501153 0.043099258 0.03899543 0.07843965
000150 23 66 ba 3d f9 eb a2 3d 6f 61 c2 bd ff 3d 64 bc
       0.09101512 0.079551645 -0.0949124 -0.013930797
000160 80 25 6b 3d c7 bd a1 bc 59 0f a7 3d c4 2f 98 3d
       0.05740881 -0.019743813 0.08157224 0.074309856
000170 10 f3 9d bc a3 25 27 bd c7 f4 b7 3c 1a 5c 02 3c
       -0.01928094 -0.040807378 0.022455586 0.007956529
000180 e3 8a 15 3d 85 11 b3 3d cd f4 49 3c 2d 5c 96 bd
       0.036509406 0.08743576 0.012326431 -0.073418
000190 90 98 ab 3d 12 83 ac 3d f9 54 bb bd e1 aa 2e bd
       0.08378708 0.08423437 -0.091470666 -0.04264343
0001a0 6b ba b2 bd 69 d5 92 bd 8d 2c f5 bc be 8a 8a bd
       -0.08726963 -0.07169611 -0.02992847 -0.06764744
0001b0 67 99 8b bc 4f be 93 bd fd ff b5 bb df 96 5d bc
       -0.017040921 -0.07214033 -0.005554198 -0.01352474
0001c0 22 a6 42 3b 43 3d e7 bc 9b 46 a8 bd f8 1b 4e bd
       0.0029701074 -0.028227454 -0.08216592 -0.05031964
0001d0 52 b7 6f bd c2 85 9e 3d d3 ed 0a bd de 59 71 3d
       -0.058524437 0.07740356 -0.033918213 0.058923595
0001e0 94 44 dd 3c c4 25 ce bc f5 ea b3 bd 83 c1 99 bd
       0.02701024 -0.025164492 -0.08785049 -0.075076126
0001f0 d2 91 9e bd 14 8b 78 3d 9b 35 d6 3d 0a 5d 93 3d
       -0.07742657 0.06067951 0.10459443 0.0719548
000200 0c 49 7f 3d 15 17 b9 3d 67 34 99 3d d7 fe 4d bd
       0.062325522 0.09037606 0.07480698 -0.050291862
000210 38 90 69 bd 5f d2 b2 3d 0a ea 02 bd 5b 41 aa bd
       -0.057022303 0.08731531 -0.03196148 -0.08313247
000220 7a 3d 7e 3d cb 96 0b 3d 31 93 56 3d b0 20 64 bd
       0.062070347 0.034079354 0.052386466 -0.055695236
000230 9f a8 b9 3d 6c b0 b6 bd 63 84 a7 bd d4 dd 51 3d
       0.09065365 -0.089203686 -0.08179548 0.051236942
000240 de f0 02 bd 02 a7 8e bd f7 bf 30 3d 43 8f 4f bd
       -0.03196799 -0.06965448 0.043151822 -0.050673734
000250 ad ac 7a bb 66 a9 b2 bd a9 23 23 bc 4e 58 13 3d
       -0.0038249895 -0.087237164 -0.0099572325 0.035972886
000260 a6 2f 72 bc 7c 59 e3 bc d5 3c c9 bd 1b 4c 51 3b
       -0.014781868 -0.02775263 -0.09826056 0.0031936232
000270 ba c8 39 3d 0c 2a bf bd e1 76 9b 3d e4 8b 96 3d
       0.045357443 -0.09334192 0.07591034 0.07350901
000280 83 e0 b1 bc b2 75 f0 bb b1 ad 98 3d 12 f8 9f 3c
       -0.0217135 -0.007338249 0.07455004 0.019527469
000290 22 31 b8 bd d8 28 8e 3d 5f b9 59 bd 44 36 2f bd
       -0.08993746 0.06941384 -0.0531553 -0.04277636
0002a0 8d ae 51 3d 56 70 c9 bc e4 e6 94 bd 7e a0 88 bd
       0.051191855 -0.024589699 -0.072706014 -0.066712365
0002b0 68 4c ad 3c a8 43 8f bd 82 94 ff bc 95 8b 2d 3c
       0.021154597 -0.06995326 -0.031198744 0.010592361
0002c0 e6 6c 78 3d 86 21 0b 3d bc 53 22 bc 2c 82 10 3d
       0.06065073 0.033967517 -0.009907659 0.03528039
0002d0 68 9a ca bc 2e 75 00 3d 57 a1 72 bd 44 6c c4 bd
       -0.02473183 0.03136175 -0.059235897 -0.095909625
0002e0 86 12 b0 bd bd 0e 52 bb d5 a8 e6 3c af 16 47 bd
       -0.08597283 -0.0032052242 0.028156677 -0.048605617
0002f0 69 fb ba 3d 27 bd 95 bb 98 7a a8 bd 78 89 84 bc
       0.09129984 -0.004569668 -0.08226508 -0.016178831
000300 d1 11 27 3d f4 58 08 3d 7b 4a b8 bd 40 b3 ae 3d
       0.040788475 0.033287957 -0.08998581 0.08530283
000310 d4 9d 1f bb ac 0c 70 bd 17 1d 13 bd 24 27 b0 bd
       -0.0024355548 -0.058605835 -0.035916414 -0.086012155
000320 df 8f 93 bd 04 27 06 3a f3 59 21 bc 61 ff c7 bb
       -0.072051756 0.0005117508 -0.009848106 -0.0061034416
000330 39 db 95 bc fb 72 12 bd a2 b6 b5 3c 9f 00 a7 3d
       -0.01829301 -0.035754185 0.022181813 0.08154415
000340 72 ca d3 bc ef 82 4c bd 9c b5 74 38 c5 61 63 3d
       -0.02585337 -0.049929556 5.834327e-05 0.055513162
000350 8c 55 c3 3d 05 c5 29 3b 50 ff 69 bd 57 95 c2 bd
       0.09537801 0.0025904786 -0.05712825 -0.095011406
000360 32 91 43 3d 2a 6f 08 3d 8c 0b ae bc 96 7c 9a bd
       0.04774589 0.03330914 -0.02124574 -0.07543294
000370 dc 74 6e 3d 2d 59 cd bc ec 86 ae bd 7c c7 bf 3d
       0.058216915 -0.025066936 -0.08521828 0.093642205
000380 92 50 c7 3d d7 c9 72 3d 5a 17 b0 bd c7 07 aa 3c
       0.097321644 0.05927452 -0.08598204 0.020755662
000390 cf ac 9a bd d6 79 c0 3d 67 4f 0b 3d 63 b6 8d bc
       -0.07552492 0.09398238 0.03401127 -0.017298883
0003a0 8d 8e 96 3d af e9 91 bd 8e 25 44 bb 30 bd 91 bc
       0.07351408 -0.0712465 -0.002992961 -0.017790407
0003b0 e1 fc a2 bd 8c ef 15 3c f4 80 8d 3d f5 a3 13 3d
       -0.07958389 0.009151351 0.069093615 0.036045033
0003c0 de 4f 95 3d 0f 95 6a 3d 80 cb 4c 3d 59 a5 a2 bd
       0.07290624 0.05727106 0.04999876 -0.07941694
0003d0 ce 4c 3b 3d 50 61 44 bd 1e e1 84 3c c2 76 98 bd
       0.045727544 -0.047944367 0.016220625 -0.07444526
0003e0 b7 fe 9a 3d 5c 5a 3b bc fa 39 99 bd 35 e9 a3 bd
       0.07568114 -0.011435118 -0.07481761 -0.08003465
0003f0 d7 b7 7b bd 36 ee c8 bd ad d5 b7 3d e8 fc 85 3c
       -0.06145462 -0.0981106 0.08976302 0.016355947

lstm.bias_ih_l0 f4 [512]
000000 7f 3f 3b bb 99 78 32 3c 16 1b 76 3c 52 87 08 3c
       -0.0028571782 0.010893011 0.015021106 0.008333044
000010 b1 3a a6 3b 9b 34 80 3c 12 d8 1e 3b 90 b5 38 3c
       0.0050729145 0.015650084 0.0024237675 0.011273757
000020 a2 93 72 3b c7 bb 04 3c ce 75 2f 3c 78 cf b7 3c
       0.0037014266 0.00810141 0.010709239 0.022437796
000030 c2 b2 2d bb f8 10 99 3c 1f cc ae 3c 7c 05 a0 3c
       -0.0026504253 0.01868485 0.021337567 0.019533865
000040 6e 8d 7b 3c ea 8c 1e 39 73 c3 65 3b d9 bb 5a 3c
       0.015353544 0.00015120549 0.0035059124 0.01335045
000050 05 ef 81 3c d8 2a 7f 3c 5b 9c 5a 3c 1d 97 85 3c
       0.015861044 0.01557418 0.013342942 0.016307408
000060 4e 45 4f 3c bf 03 1c 3c 5c 66 aa bb 9d 88 53 3c
       0.012650801 0.0095223775 -0.0052001905 0.012910989
000070 54 f1 9f 3c 44 19 53 3c fc 03 05 3c f0 d9 81 3c
       0.019524254 0.012884442 0.008118626 0.015850991
000080 f0 32 ae 3a 9b f6 68 3c 38 19 89 3c d9 31 3a 3b
       0.0013290327 0.014218952 0.016735658 0.002841106
000090 97 89 44 3c 69 39 00 3c 82 c6 1d 3c 74 83 d2 ba
       0.011995695 0.007826188 0.0096298475 -0.0016060905
0000a0 86 47 95 3c 95 ef 14 bc 8b 2f 8c 3b 16 5e 4e 3c
       0.018222582 -0.009090324 0.0042781285 0.012595674
0000b0 72 a6 86 3c 33 95 77 3c a9 50 7a 3c 0e 57 22 3c
       0.01643679 0.015111255 0.01527802 0.009908451
0000c0 25 a2 82 3c 25 4f 0d 3c 52 54 64 3c 4e 27 9e 3c
       0.015946457 0.008624827 0.013936119 0.019305851
0000d0 73 8c 49 3c e5 c2 7a 3c 51 6e 0c 3c 03 a8 68 3c
       0.012301552 0.015305256 0.008571223 0.014200213
0000e0 e4 e4 1b 3c 3c 16 89 3c 7f 2e 97 3c f2 56 35 3c
       0.009515021 0.016734235 0.018454788 0.011068093
0000f0 dc 85 7a 3c e9 04 9f 3c a3 93 41 3c 73 8c 57 3b
       0.015290704 0.019411521 0.0118149845 0.003289011
000100 3d 48 7c 3c 45 a7 1f 3c 94 b8 b6 3c 00 c9 11 3c
       0.015398082 0.00974447 0.02230481 0.00889802
000110 c3 0f 27 3c 70 7e 2c 3c 94 67 48 3c 47 06 63 bb
       0.010196629 0.010528192 0.012231726 -0.0034641193
000120 87 03 a2 3b 51 d1 b1 3c 20 97 48 3c 4a 65 a0 3c
       0.004944268 0.021706255 0.012243062 0.019579548
000130 d4 3d e0 3b 5e 6d c7 ba 0e 3f 8c 3c 61 18 9a 3c
       0.006843308 -0.0015215089 0.01711991 0.018810453
000140 dc 5b 92 3c 6b fc 06 3c 0d ca 74 3c 08 81 66 3c
       0.017866068 0.008238892 0.014940751 0.014068849
000150 49 85 00 3c bf 44 69 3c 20 40 3e 3a 50 7d 38 3c
       0.007844278 0.014237582 0.000725748 0.011260346
000160 c1 5e 99 3c 5e c4 c2 bb d8 43 57 3b dd fe 92 3c
       0.01872194 -0.005943819 0.0032846835 0.017943794
000170 49 87 75 3c 46 40 27 3b a7 1a 3c 3c d2 47 a5 3b
       0.014985868 0.0025520488 0.011480964 0.005043962
000180 52 66 6e 3c 19 ba f3 3b 3f 5b ab 3c 1e 2d c4 3b
       0.014550762 0.007437956 0.020917533 0.0059868237
000190 ed ee 48 3c a2 cd 4f 3c f8 b3 83 3c 89 8e a2 3c
       0.012263996 0.012683304 0.016077027 0.019843357
0001a0 96 32 8a 3c 9d e1 31 bb 25 47 0e 3c c8 0a 2f 3c
       0.016869824 -0.0027142533 0.008683954 0.010683723
0001b0 c1 19 36 3c 34 af 89 3c fb 57 31 3c fd cd 2d 3b
       0.011114539 0.016807176 0.010824199 0.0026520484
0001c0 67 e4 fa 3b ee e2 6f 3c 9a b1 a9 3c b7 a6 63 3c
       0.007656622 0.014641507 0.02071457 0.013894728
0001d0 71 b4 1d 3c 18 9c 1b 3c af 4e 78 3c 33 f8 7b 3c
       0.00962554 0.009497665 0.015155478 0.0153789995
0001e0 5c 8a 97 3c dd 6e 76 3c bf 99 9b 3c 62 c9 8f 3c
       0.018498592 0.01504108 0.01899421 0.017552081
0001f0 3e 54 19 3c b2 75 52 3c 13 60 8a 3c f9 9d 38 3c
       0.009358464 0.012845444 0.016891515 0.011268132
000200 92 a0 16 bc 47 e2 4f bb 12 5d 01 3c 79 4a 9d ba
       -0.009193556 -0.0031720565 0.007895725 -0.0012000344
000210 22 cf 8a 3b 97 1c 17 3c 6e db a4 3b 21 42 7a ba
       0.004236118 0.009223125 0.005031041 -0.0009546597
000220 09 f5 5f 3a d9 f5 75 3b 56 fc 76 3c 9e 82 3a 3c
       0.0008543288 0.003753057 0.01507481 0.011383681
000230 48 57 20 3b 49 7c 4d bb c5 a4 58 3c c9 82 92 39
       0.0024466086 -0.0031354597 0.013222878 0.00027944733
000240 45 60 06 3b 97 08 34 bb 7a cf 0a 3a 9c de 84 3c
       0.0020504158 -0.002747094 0.00052951986 0.01621943
000250 4f 9c 95 3b 79 87 59 3c e5 b3 1a 3b 1e f1 84 3c
       0.0045657526 0.013276928 0.002360576 0.016228255
000260 5f e1 f6 3a 7c 64 da b9 90 99 ee ba 3b 08 10 3c
       0.0018835476 -0.00041655067 -0.0018203724 0.008791025
000270 a7 78 b6 3b 7e 5c 0a bb 7e e4 46 3a 7e 43 37 3c
       0.005568582 -0.0021112259 0.00075871486 0.011185525
000280 95 a9 41 bb 19 4c 04 3c 50 7a 1b 3b dc aa 8f ba
       -0.0029550542 0.008074784 0.0023724027 -0.0010960954
000290 34 b9 94 39 e1 b0 b9 3b e1 b8 bd bb 79 54 ea ba
       0.00028366747 0.0056668376 -0.0057898615 -0.0017877958
0002a0 a5 d3 a7 3b 7e 4c 93 bc 6d 5b 3a ba 11 fa 3a 3c
       0.0051216655 -0.01798081 -0.00071089604 0.01141216
0002b0 3b 13 e0 3a 98 5c a1 3c 09 3a 60 3c 3f 7b 93 ba
       0.0017095575 0.019697472 0.013685712 -0.001125194
0002c0 02 3e 13 3c 0b 32 b2 ba 25 78 0e 3c c9 68 c5 3b
       0.008986952 -0.0013595236 0.008695637 0.0060244543
0002d0 1b fc 1c bc ed 63 08 bb 51 16 f4 3a f8 8e 22 3c
       -0.009581591 -0.0020811514 0.0018622373 0.009921782
0002e0 46 b6 36 3b 81 42 85 3b 03 5c f0 3b 8e 8c a9 3a
       0.002787964 0.004066766 0.0073351874 0.0012935565
0002f0 b2 32 92 ba 30 38 a9 3c f8 ea 78 ba 10 b3 c5 3a
       -0.0011154024 0.020656675 -0.0009495462 0.0015083272
000300 41 e4 8c 3b 41 81 37 ba c9 77 91 bb 24 68 07 3a
       0.004299671 -0.00070001563 -0.0044393283 0.00051653595
000310 14 19 e4 ba 4f 10 70 39 cf ab f5 3b fe 32 8d bb
       -0.0017402493 0.00022894259 0.007497288 -0.0043090573
000320 4a 01 43 bb b9 02 70 3c e0 81 38 3c 71 79 83 3c
       -0.0029755407 0.014649087 0.011261433 0.016049119
000330 14 56 99 bb fa c5 3c ba bb 75 1f 3c 2c 42 9e 3c
       -0.0046794508 -0.00072011317 0.009732659 0.019318663
000340 92 4d 15 3b 1d 18 99 bb dd 18 5f 3b f9 4a 49 3c
       0.0022781831 -0.004672064 0.003404192 0.012285941
000350 4f 06 09 3b 5b 35 da 3b e8 1d f2 bb 1b 54 d5 3b
       0.0020908301 0.0066591925 -0.007388819 0.0065102703
000360 60 8a fd bb b3 41 ab bb 50 8a a9 3b ec ef 2e 3c
       -0.007737443 -0.005226338 0.005173959 0.010677319
000370 14 3b cb 3b 37 75 b1 bb 11 36 23 ba 9c ad 11 bc
       0.006202111 -0.0054155844 -0.0006226013 -0.008891489
000380 05 d6 d8 ba 63 3b 14 bc 1d 84 1a 3c 36 bb 05 ba
       -0.0016543275 -0.009047362 0.009430912 -0.0005101444
000390 67 4b 0f 3c 8e a2 60 ba 4b ea fc 3a 3f ca 0e 3c
       0.008746005 -0.00085691444 0.0019295899 0.008715211
0003a0 d4 94 98 3b 3e f2 d3 37 41 8e 76 3b f6 a4 7e bb
       0.0046564136 2.5265963e-05 0.003762141 -0.0038855649
0003b0 b7 3c c7 3a 2e d9 13 bb 0e 2e 49 3b 13 64 71 bc
       0.001520059 -0.002255987 0.0030697617 -0.014733332
0003c0 1d 60 20 3c 4d 0f fa 3b 56 4c 43 3c ca 3f 88 bb
       0.00978854 0.0076312185 0.011920055 -0.004157995
0003d0 98 8b 01 3c 20 f3 0d bc 7a f6 4c bb 44 c1 96 3b
       0.007906817 -0.008663923 -0.0031274841 0.004600676
0003e0 5b 7a 1a bb 06 9f 61 3b c6 d9 ee 3b b0 f6 83 bb
       -0.0023571465 0.003442706 0.007289144 -0.00402721
0003f0 a9 d5 44 3c f0 d6 29 bb f0 54 d9 3a d5 4c 87 bb
       0.012013831 -0.0025915466 0.00165811 -0.004129032

lstm.bias_hh_l0 f4 [512]
000000 7f 3f 3b bb 99 78 32 3c 16 1b 76 3c 52 87 08 3c
       -0.0028571782 0.010893011 0.015021106 0.008333044
000010 b1 3a a6 3b 9b 34 80 3c 12 d8 1e 3b 90 b5 38 3c
       0.0050729145 0.015650084 0.0024237675 0.011273757
000020 a2 93 72 3b c7 bb 04 3c ce 75 2f 3c 78 cf b7 3c
       0.0037014266 0.00810141 0.010709239 0.022437796
000030 c2 b2 2d bb f8 10 99 3c 1f cc ae 3c 7c 05 a0 3c
       -0.0026504253 0.01868485 0.021337567 0.019533865
000040 6e 8d 7b 3c ea 8c 1e 39 73 c3 65 3b d9 bb 5a 3c
       0.015353544 0.00015120549 0.0035059124 0.01335045
000050 05 ef 81 3c d8 2a 7f 3c 5b 9c 5a 3c 1d 97 85 3c
       0.015861044 0.01557418 0.013342942 0.016307408
000060 4e 45 4f 3c bf 03 1c 3c 5c 66 aa bb 9d 88 53 3c
       0.012650801 0.0095223775 -0.0052001905 0.012910989
000070 54 f1 9f 3c 44 19 53 3c fc 03 05 3c f0 d9 81 3c
       0.019524254 0.012884442 0.008118626 0.015850991
000080 f0 32 ae 3a 9b f6 68 3c 38 19 89 3c d9 31 3a 3b
       0.0013290327 0.014218952 0.016735658 0.002841106
000090 97 89 44 3c 69 39 00 3c 82 c6 1d 3c 74 83 d2 ba
       0.011995695 0.007826188 0.0096298475 -0.0016060905
0000a0 86 47 95 3c 95 ef 14 bc 8b 2f 8c 3b 16 5e 4e 3c
       0.018222582 -0.009090324 0.0042781285 0.012595674
0000b0 72 a6 86 3c 33 95 77 3c a9 50 7a 3c 0e 57 22 3c
       0.01643679 0.015111255 0.01527802 0.009908451
0000c0 25 a2 82 3c 25 4f 0d 3c 52 54 64 3c 4e 27 9e 3c
       0.015946457 0.008624827 0.013936119 0.019305851
0000d0 73 8c 49 3c e5 c2 7a 3c 51 6e 0c 3c 03 a8 68 3c
       0.012301552 0.015305256 0.008571223 0.014200213
0000e0 e4 e4 1b 3c 3c 16 89 3c 7f 2e 97 3c f2 56 35 3c
       0.009515021 0.016734235 0.018454788 0.011068093
0000f0 dc 85 7a 3c e9 04 9f 3c a3 93 41 3c 73 8c 57 3b
       0.015290704 0.019411521 0.0118149845 0.003289011
000100 3d 48 7c 3c 45 a7 1f 3c 94 b8 b6 3c 00 c9 11 3c
       0.015398082 0.00974447 0.02230481 0.00889802
000110 c3 0f 27 3c 70 7e 2c 3c 94 67 48 3c 47 06 63 bb
       0.010196629 0.010528192 0.012231726 -0.0034641193
000120 87 03 a2 3b 51 d1 b1 3c 20 97 48 3c 4a 65 a0 3c
       0.004944268 0.021706255 0.012243062 0.019579548
000130 d4 3d e0 3b 5e 6d c7 ba 0e 3f 8c 3c 61 18 9a 3c
       0.006843308 -0.0015215089 0.01711991 0.018810453
000140 dc 5b 92 3c 6b fc 06 3c 0d ca 74 3c 08 81 66 3c
       0.017866068 0.008238892 0.014940751 0.014068849
000150 49 85 00 3c bf 44 69 3c 20 40 3e 3a 50 7d 38 3c
       0.007844278 0.014237582 0.000725748 0.011260346
000160 c1 5e 99 3c 5e c4 c2 bb d8 43 57 3b dd fe 92 3c
       0.01872194 -0.005943819 0.0032846835 0.017943794
000170 49 87 75 3c 46 40 27 3b a7 1a 3c 3c d2 47 a5 3b
       0.014985868 0.0025520488 0.011480964 0.005043962
000180 52 66 6e 3c 19 ba f3 3b 3f 5b ab 3c 1e 2d c4 3b
       0.014550762 0.007437956 0.020917533 0.0059868237
000190 ed ee 48 3c a2 cd 4f 3c f8 b3 83 3c 89 8e a2 3c
       0.012263996 0.012683304 0.016077027 0.019843357
0001a0 96 32 8a 3c 9d e1 31 bb 25 47 0e 3c c8 0a 2f 3c
       0.016869824 -0.0027142533 0.008683954 0.010683723
0001b0 c1 19 36 3c 34 af 89 3c fb 57 31 3c fd cd 2d 3b
       0.011114539 0.016807176 0.010824199 0.0026520484
0001c0 67 e4 fa 3b ee e2 6f 3c 9a b1 a9 3c b7 a6 63 3c
       0.007656622 0.014641507 0.02071457 0.013894728
0001d0 71 b4 1d 3c 18 9c 1b 3c af 4e 78 3c 33 f8 7b 3c
       0.00962554 0.009497665 0.015155478 0.0153789995
0001e0 5c 8a 97 3c dd 6e 76 3c bf 99 9b 3c 62 c9 8f 3c
       0.018498592 0.01504108 0.01899421 0.017552081
0001f0 3e 54 19 3c b2 75 52 3c 13 60 8a 3c f9 9d 38 3c
       0.009358464 0.012845444 0.016891515 0.011268132
000200 92 a0 16 bc 47 e2 4f bb 12 5d 01 3c 79 4a 9d ba
       -0.009193556 -0.0031720565 0.007895725 -0.0012000344
000210 22 cf 8a 3b 97 1c 17 3c 6e db a4 3b 21 42 7a ba
       0.004236118 0.009223125 0.005031041 -0.0009546597
000220 09 f5 5f 3a d9 f5 75 3b 56 fc 76 3c 9e 82 3a 3c
       0.0008543288 0.003753057 0.01507481 0.011383681
000230 48 57 20 3b 49 7c 4d bb c5 a4 58 3c c9 82 92 39
       0.0024466086 -0.0031354597 0.013222878 0.00027944733
000240 45 60 06 3b 97 08 34 bb 7a cf 0a 3a 9c de 84 3c
       0.0020504158 -0.002747094 0.00052951986 0.01621943
000250 4f 9c 95 3b 79 87 59 3c e5 b3 1a 3b 1e f1 84 3c
       0.0045657526 0.013276928 0.002360576 0.016228255
000260 5f e1 f6 3a 7c 64 da b9 90 99 ee ba 3b 08 10 3c
       0.0018835476 -0.00041655067 -0.0018203724 0.008791025
000270 a7 78 b6 3b 7e 5c 0a bb 7e e4 46 3a 7e 43 37 3c
       0.005568582 -0.0021112259 0.00075871486 0.011185525
000280 95 a9 41 bb 19 4c 04 3c 50 7a 1b 3b dc aa 8f ba
       -0.0029550542 0.008074784 0.0023724027 -0.0010960954
000290 34 b9 94 39 e1 b0 b9 3b e1 b8 bd bb 79 54 ea ba
       0.00028366747 0.0056668376 -0.0057898615 -0.0017877958
0002a0 a5 d3 a7 3b 7e 4c 93 bc 6d 5b 3a ba 11 fa 3a 3c
       0.0051216655 -0.01798081 -0.00071089604 0.01141216
0002b0 3b 13 e0 3a 98 5c a1 3c 09 3a 60 3c 3f 7b 93 ba
       0.0017095575 0.019697472 0.013685712 -0.001125194
0002c0 02 3e 13 3c 0b 32 b2 ba 25 78 0e 3c c9 68 c5 3b
       0.008986952 -0.0013595236 0.008695637 0.0060244543
0002d0 1b fc 1c bc ed 63 08 bb 51 16 f4 3a f8 8e 22 3c
       -0.009581591 -0.0020811514 0.0018622373 0.009921782
0002e0 46 b6 36 3b 81 42 85 3b 03 5c f0 3b 8e 8c a9 3a
       0.002787964 0.004066766 0.0073351874 0.0012935565
0002f0 b2 32 92 ba 30 38 a9 3c f8 ea 78 ba 10 b3 c5 3a
       -0.0011154024 0.020656675 -0.0009495462 0.0015083272
000300 41 e4 8c 3b 41 81 37 ba c9 77 91 bb 24 68 07 3a
       0.004299671 -0.00070001563 -0.0044393283 0.00051653595
000310 14 19 e4 ba 4f 10 70 39 cf ab f5 3b fe 32 8d bb
       -0.0017402493 0.00022894259 0.007497288 -0.0043090573
000320 4a 01 43 bb b9 02 70 3c e0 81 38 3c 71 79 83 3c
       -0.0029755407 0.014649087 0.011261433 0.016049119
000330 14 56 99 bb fa c5 3c ba bb 75 1f 3c 2c 42 9e 3c
       -0.0046794508 -0.00072011317 0.009732659 0.019318663
000340 92 4d 15 3b 1d 18 99 bb dd 18 5f 3b f9 4a 49 3c
       0.0022781831 -0.004672064 0.003404192 0.012285941
000350 4f 06 09 3b 5b 35 da 3b e8 1d f2 bb 1b 54 d5 3b
       0.0020908301 0.0066591925 -0.007388819 0.0065102703
000360 60 8a fd bb b3 41 ab bb 50 8a a9 3b ec ef 2e 3c
       -0.007737443 -0.005226338 0.005173959 0.010677319
000370 14 3b cb 3b 37 75 b1 bb 11 36 23 ba 9c ad 11 bc
       0.006202111 -0.0054155844 -0.0006226013 -0.008891489
000380 05 d6 d8 ba 63 3b 14 bc 1d 84 1a 3c 36 bb 05 ba
       -0.0016543275 -0.009047362 0.009430912 -0.0005101444
000390 67 4b 0f 3c 8e a2 60 ba 4b ea fc 3a 3f ca 0e 3c
       0.008746005 -0.00085691444 0.0019295899 0.008715211
0003a0 d4 94 98 3b 3e f2 d3 37 41 8e 76 3b f6 a4 7e bb
       0.0046564136 2.5265963e-05 0.003762141 -0.0038855649
0003b0 b7 3c c7 3a 2e d9 13 bb 0e 2e 49 3b 13 64 71 bc
       0.001520059 -0.002255987 0.0030697617 -0.014733332
0003c0 1d 60 20 3c 4d 0f fa 3b 56 4c 43 3c ca 3f 88 bb
       0.00978854 0.0076312185 0.011920055 -0.004157995
0003d0 98 8b 01 3c 20 f3 0d bc 7a f6 4c bb 44 c1 96 3b
       0.007906817 -0.008663923 -0.0031274841 0.004600676
0003e0 5b 7a 1a bb 06 9f 61 3b c6 d9 ee 3b b0 f6 83 bb
       -0.0023571465 0.003442706 0.007289144 -0.00402721
0003f0 a9 d5 44 3c f0 d6 29 bb f0 54 d9 3a d5 4c 87 bb
       0.012013831 -0.0025915466 0.00165811 -0.004129032

lstm.weight_ih_l1 f4 [512, 128]
000000 77 26 fd 3b f8 2c d1 bc 78 dc 57 bd b5 e1 85 bd
       0.0077255326 -0.025534138 -0.05270049 -0.06537191
000010 59 ec 18 3c b1 f2 78 3d 48 20 c9 bc d3 14 ab bd
       0.009333693 0.060778324 -0.024551526 -0.08353581
000020 d1 ec 97 bb 5f f6 8c bd 91 a8 76 bd 35 89 6a bb
       -0.004636385 -0.06882929 -0.06021935 -0.0035787348
000030 12 15 d3 3c 19 34 d2 3b de 07 7f bd 31 51 0e 3b
       0.025766883 0.006414902 -0.062263362 0.0021715874
000040 a6 82 8f 3d c1 fb 1b bd d3 7a cc 3b 54 b7 a6 3d
       0.07007341 -0.038081888 0.0062402277 0.08140436
000050 23 55 b0 3d 08 e9 66 bd e9 cc 56 bc 84 fa 69 bd
       0.086099885 -0.05637458 -0.013110378 -0.057123676
000060 f2 7e 5f 3d 45 f5 0e bd 82 6e 8a 3d 96 1f 8b 3d
       0.054564424 -0.034901876 0.06759359 0.06793134
000070 ee 6f 70 bd 2b 37 8d 3d 88 12 d9 bc 3f dd c5 bd
       -0.058700494 0.06895288 -0.026498094 -0.0966134
000080 47 d5 b3 3d 90 0f 20 3c d3 f0 9c bd a2 6a ba 3d
       0.08780914 0.009769335 -0.07663121 0.0910237
000090 27 aa 93 3d d6 86 00 3b 34 54 95 3d b9 10 b6 3d
       0.07210188 0.0019611618 0.07291451 0.08889908
0000a0 0b b9 9b 3b ce 62 2e bd 3d 47 52 bd 9c 88 2b 3d
       0.0047522835 -0.042574696 -0.05133747 0.041878328
0000b0 ec e3 c5 bb 9e 9f f8 3b 83 6f 29 bc a2 af bd bd
       -0.0060391333 0.007587387 -0.010341528 -0.09262015
0000c0 e6 80 83 bc 74 2f 21 3d 3c 5c aa 3c aa 67 00 bd
       -0.016052675 0.039351895 0.020795934 -0.03134886
0000d0 25 ee 4e bd 29 7b a3 bc 2c 80 81 3d 84 85 a4 3d
       -0.05052008 -0.019956188 0.06323275 0.080332786
0000e0 82 78 7c 3d df 76 d1 3c a7 35 b1 bd cc ff 64 bd
       0.061638363 0.025569377 -0.086528115 -0.05590801
0000f0 b0 7e 16 bd 3c 91 9f 3c 70 a4 84 bd dd ea 23 3d
       -0.036741912 0.019478433 -0.064766765 0.040018905
000100 19 5f bb bd 35 19 90 3c af bf 59 3d e0 f6 38 bd
       -0.09148998 0.017590145 0.05316132 -0.045157313
000110 eb b7 8f 3d 50 45 97 3d ef 4f c2 3b b5 48 ba 3c
       0.070175014 0.07386267 0.005929939 0.022739748
000120 ed fb 5b bc 73 c8 11 bd bb 7c 94 3d f2 1d e3 39
       -0.013426763 -0.035591554 0.07250353 0.00043319125
000130 fb 9a 81 3d aa ce d7 bc e9 af 5f bc 89 5d 0c bd
       0.06328388 -0.026343662 -0.01365278 -0.03426889
000140 20 8b cb 3c 98 41 a2 bc 54 f0 a2 bd 4b 86 52 3c
       0.024846613 -0.019806668 -0.07955995 0.012849401
000150 2c 16 69 bd e5 e7 b2 bc f4 4e 8e bc 59 c0 74 3d
       -0.05690591 -0.021839092 -0.017371632 0.05975375
000160 02 e1 cf bc 2d 4a 84 bd b8 27 30 bd ae 16 63 bd
       -0.025375847 -0.064594604 -0.04300663 -0.05544155
000170 e0 39 e7 bc 03 74 0c 3d 6b fd e9 3c 91 73 a5 bd
       -0.02822584 0.034290325 0.028563222 -0.08078683
000180 01 1c 20 3d 0b 26 11 bd bd 3b b4 bc d6 af 90 3d
       0.039089207 -0.03543667 -0.022001142 0.07064788
000190 0d 21 df bc e4 37 d0 bc 4d f2 ab 3d 25 06 8f 3d
       -0.02723744 -0.025417276 0.083958246 0.06983594
0001a0 20 aa 9a bd c3 94 8b bd f0 1e 7e bd a9 eb c1 3d
       -0.0755198 -0.068154834 -0.062041223 0.09468777
0001b0 fc 26 5f 3d a5 aa c3 3d e8 e2 f2 bc 98 d5 3b bd
       0.054480538 0.09554032 -0.029649213 -0.045857996
0001c0 74 cd 86 3d 0f db f9 3c ef 27 04 3d db bf a0 bd
       0.06582156 0.030499963 0.032264646 -0.078490935
0001d0 07 12 ed 3c 93 eb 99 bc 0c 9b c9 3b 6a 79 24 3d
       0.02893926 -0.018789088 0.006152516 0.040154852
0001e0 c2 b5 c0 bd 8d b3 20 3d 91 39 a5 bc 83 58 7b bb
       -0.094096676 0.039233733 -0.020169051 -0.0038352318
0001f0 1e 96 b4 3d bb 0c 30 3d 46 e1 46 bc f6 97 5a 3d
       0.08817695 0.04298089 -0.01213867 0.053367577
000200 e6 ba 9f 3d 0d ba be bd 1a 48 02 3d dd ae 2b 3d
       0.0779932 -0.0931283 0.031807043 0.04191481
000210 fb 1f 1e bd ba 0f 83 bb 2f 62 3e 3d c8 bd a0 3c
       -0.038604718 -0.0039996775 0.046480354 0.019621745
000220 60 ee 3b bd 0b 2c 14 3d 56 18 ac bb 61 81 88 3c
       -0.04588163 0.036174815 -0.0052519245 0.016663255
000230 3e 15 a5 3d 00 80 12 bd 5b 72 9c 3d 52 a6 ac bd
       0.08060692 -0.0357666 0.07638999 -0.084301606
000240 cf 1d 2f bc e9 f0 6c 3d c8 36 6e 3d 9a 07 81 bd
       -0.010688259 0.057846937 0.058157712 -0.06300278
000250 4c 6b 10 3d d2 42 61 3d 6f 85 24 bd 76 0d 8d 3d
       0.035258576 0.054995365 -0.040166315 0.06887333
000260 c5 a8 4a 3d 79 64 30 3c 33 8d 9a 3b 1e 76 86 3c
       0.049477357 0.010766142 0.0047165393 0.016413745
000270 06 75 a2 3d 1e b9 03 bc 5c c1 a0 bd 6e 60 2e 3d
       0.07932477 -0.008039741 -0.078493804 0.04257243
000280 cb 6b 36 3d f9 43 dc 3c f7 e1 ab bd 97 d5 9b bd
       0.044536393 0.02688788 -0.08392709 -0.076090984
000290 a9 11 50 bd c4 3f 9c bd 61 a1 93 3d 9c 42 bb bd
       -0.050798092 -0.0762935 0.07208515 -0.09143564
0002a0 19 ff ac 3c 7e fd b5 bd e9 5b 7c 3c 45 61 09 bd
       0.021117734 -0.088862404 0.015402772 -0.03354003
0002b0 27 89 37 bd 2a a5 a0 3d 65 4e 9f 3d f8 42 61 3d
       -0.044808533 0.078440025 0.077786244 0.054995507
0002c0 54 fd 80 3c 08 80 bd 3d 81 2a db bc 1e 1c 0d bd
       0.015745796 0.09252936 -0.026753666 -0.034450643
0002d0 ed 46 a8 3d a9 89 d3 bb 28 8c 9e 3d 9a f8 66 3d
       0.08216653 -0.0064556194 0.077415764 0.05638943
0002e0 b3 3b 82 bd 56 bb b5 bc b3 62 83 3d 4a dd bb 3d
       -0.06359043 -0.022184055 0.0641531 0.09173067
0002f0 22 9f 80 3c 80 d8 52 bd f6 d1 81 3a cd 7e 35 3d
       0.01570088 -0.051476 0.0009904492 0.04431038
000300 7d 6d 68 bd 40 12 7f 3d 3b 76 ca 3a 09 68 31 3d
       -0.05674504 0.062273264 0.0015446612 0.043312106
000310 2b 91 78 bd 4c 76 35 bd 05 9a 4c bd a6 54 9d bc
       -0.060685318 -0.04430227 -0.049951572 -0.019205403
000320 89 e8 29 3c b3 59 a1 3d ee 29 43 3d c3 d8 6d bd
       0.010370382 0.07878437 0.04764741 -0.05806805
000330 4a 4b 87 bd 6f f6 95 bd 25 1b 9e 3c d1 b7 a1 bd
       -0.06606157 -0.07322394 0.019300053 -0.07896388
000340 83 50 71 bc 9d e4 9d 3d c4 4f d0 b9 ff 19 2e bd
       -0.014728668 0.0770962 -0.00039732282 -0.04250526
000350 14 02 dd 3b ac b4 31 bd f5 ec ae 3d 62 02 82 bd
       0.0067446325 -0.043385193 0.0854129 -0.06348111
000360 4e 05 5f bc e1 8a 13 bc 4d 0c a6 bc 52 de 48 3d
       -0.013612105 -0.009005279 -0.020269537 0.049040146
000370 e8 ab 05 bd bc 15 88 bc ec d0 bc 3d 44 a4 a1 bc
       -0.032634646 -0.016611926 0.09219536 -0.019731648
000380 43 fb a0 bd 10 35 99 bc e4 1d b7 3d f0 87 a5 3d
       -0.07860424 -0.01870206 0.08941248 0.08082569
000390 70 da fb bc 1d 28 b7 bb 61 e3 b6 3c 3a d0 c6 bc
       -0.030743808 -0.0055894987 0.02232522 -0.024269212
0003a0 41 70 25 3d ff c5 fd 3c a5 65 28 3d 7f 30 7f 37
       0.040390257 0.030978201 0.04111256 1.5210476e-05
0003b0 14 b6 de 3b 08 4c e2 3c de f1 ff bb a5 0c a6 3d
       0.0067966077 0.027624145 -0.0078108152 0.081078805
0003c0 16 b9 8a bd fa 2b c6 bd f9 65 d1 3c 73 0a 02 bd
       -0.067735836 -0.096763566 0.02556132 -0.031748246
0003d0 89 57 a2 3d 46 72 88 3d 58 5b 4f 3d 88 aa 90 39
       0.07926852 0.06662421 0.05062422 0.00027592876
0003e0 62 23 0e bc 27 88 2a 3d 44 8c 58 bd 10 ec 1b 3d
       -0.008675428 0.04163375 -0.052868143 0.038066924
0003f0 14 ae b2 3d 1f 86 2d bc a2 35 a1 3d 66 0b fd 3b
       0.08724609 -0.010591059 0.07871558 0.007722306

lstm.weight_hh_l1 f4 [512, 128]
000000 9e 5d 39 bd 98 f3 66 3d fe 1e be ba f4 8e b8 bd
       -0.045255296 0.056384653 -0.0014505086 -0.09011641
000010 ee 0d 85 bd 5e 7c c0 3a a9 25 a9 bb 92 03 9d bd
       -0.064967975 0.0014685502 -0.00516196 -0.076666966
000020 99 e0 16 bc 67 67 0f 3d 89 d2 b0 bd 00 74 35 bd
       -0.009208822 0.03501072 -0.086339064 -0.04430008
000030 0c d2 0b 3d 97 29 4e bd df de 5c 3d f4 e0 7f bd
       0.034135863 -0.050332632 0.053923484 -0.06247039
000040 f2 6b 31 bd c0 29 46 3d cc 84 86 3d 85 34 3c bc
       -0.043315835 0.04837966 0.06568298 -0.011487131
000050 18 6b 24 bc f1 d2 a4 bb a6 e0 43 bc 85 e6 17 3d
       -0.010035299 -0.005030029 -0.011955416 0.037085075
000060 db 02 19 bd 46 65 b2 3d ef d3 62 bc b7 b2 37 bd
       -0.03735624 0.087107226 -0.013844474 -0.04484817
000070 ec dd 9f 3d b7 a9 1e 3d 7b 21 8a bc f7 0e 7c 3d
       0.07806 0.03873607 -0.016861668 0.06153771
000080 ac e7 2c 3d 78 03 59 bc 23 33 12 bd bb 59 a4 3c
       0.042213127 -0.013245456 -0.0356933 0.020062318
000090 64 4b cc bd e9 c1 50 bd 2c e9 ca bd 8d 5a 62 3c
       -0.09975317 -0.050966177 -0.09907755 0.013815534
0000a0 0f e4 cf bd 50 f6 bb bc 73 89 ae 3d dc d5 76 3c
       -0.101509206 -0.0229446 0.0852231 0.0150656365
0000b0 4e 94 48 bd c8 c1 98 bc 26 ec 6c bd d9 d8 cf bc
       -0.04896956 -0.01864709 -0.057842396 -0.025371956
0000c0 4d ea bf bc b3 11 b3 bd fe 83 91 3d 0b aa 8e 3d
       -0.023427153 -0.0874361 0.07105254 0.06966027
0000d0 8f 4b a1 3d c6 5b de bc 08 bb 92 bd 15 ae 82 bd
       0.0787574 -0.02714337 -0.0716458 -0.0638086
0000e0 1b 6a bf 3d 08 bd 4a bd d4 f9 45 bb 11 fd 8e 3b
       0.0934641 -0.04949668 -0.0030208724 0.004363664
0000f0 c7 70 5e bc e1 95 e3 bc c8 74 5c 3d 0e de a1 bc
       -0.013576693 -0.027781429 0.05382231 -0.019759204
000100 30 20 9d bb a4 55 18 bd 9f f3 4f bc 15 e9 7d 3c
       -0.004795097 -0.03719105 -0.012692361 0.015497466
000110 57 60 bc bd 48 13 66 bd 64 b4 6f bd e7 03 79 3d
       -0.09198063 -0.05617073 -0.058521643 0.060794737
000120 6a 1a a3 bd 61 1b 39 bb 42 bb ad 3d 71 f2 01 bc
       -0.079640225 -0.002824508 0.08482982 -0.007931338
000130 f8 93 ce 3d 74 c3 80 3d 88 95 7e 3d d8 7e 7a bd
       0.100868165 0.0628728 0.062154323 -0.061156124
000140 46 46 fa bb ba 5d 9c 3d 74 ca ab 3d 54 3c c2 3c
       -0.007637772 0.076350644 0.08388224 0.023710407
000150 f7 45 3d 3d a8 e3 84 3a 59 0b b3 3d c4 da ba bd
       0.0462093 0.0010138648 0.08742399 -0.091237575
000160 91 ac 76 3d ab 42 46 3d 20 21 04 3d 47 a0 64 bd
       0.060223166 0.048403423 0.032258153 -0.055816915
000170 e3 a7 ae bd fa 09 07 3c c2 78 c9 3d 22 45 d0 3d
       -0.085281156 0.008242125 0.09837486 0.10169436
000180 56 f1 83 bd de fc 70 bd 12 33 a6 bd ff e6 91 3c
       -0.064425156 -0.058834903 -0.0811521 0.017810343
000190 b8 53 c8 3b 51 9a 6f bc ae 42 a3 bd 27 9d 9e bc
       0.0061134957 -0.014624194 -0.079717025 -0.019362045
0001a0 f5 ca 83 bd 15 92 85 bd 3a a3 69 bd 9e 83 c7 bd
       -0.06435195 -0.065220036 -0.05704043 -0.09741901
0001b0 ad 61 9d 3d 27 29 a1 3d 86 d1 b7 3d 57 da a2 bc
       0.07684646 0.07869177 0.0897551 -0.019879503
0001c0 ae 38 9b bc 0a 7b 23 bd 1f 83 3b b9 9e 9b b2 3d
       -0.018947925 -0.03991226 -0.00017882556 0.08721088
0001d0 33 ff e5 3b 89 70 97 3d b7 b6 de bb df df 8f 3d
       0.0070189475 0.07394511 -0.0067966837 0.07025122
0001e0 a8 7d a1 3b c4 b2 5d bc ea a9 c3 b9 dc c0 21 3b
       0.0049283095 -0.013531391 -0.00037319894 0.0024681604
0001f0 62 1f 10 3d 1f 9c 67 3d a4 73 1b bd 81 45 b4 bd
       0.03518618 0.056545373 -0.03795208 -0.08802319
000200 6d c9 57 bd 62 23 eb 3b 6e 15 90 3d 19 01 61 3d
       -0.05268233 0.007175849 0.070353374 0.054932687
000210 52 1b 8b 3d d5 88 7d bd 99 45 fd bb 32 eb 2f bd
       0.0679232 -0.06189807 -0.007729244 -0.04294891
000220 a8 bd 8e bd f4 2e 88 3d 27 d5 8b bd 21 ff 42 bb
       -0.06969768 0.066495806 -0.06827765 -0.002975412
000230 ce 20 21 bd 5d 76 b2 3d 2b 1d 98 3d 4c f7 a2 3c
       -0.039337926 0.08713982 0.07427438 0.019893311
000240 83 bb 89 bd 71 a0 6d bc a7 c4 b7 bd 44 3a ca bc
       -0.06725218 -0.014503584 -0.08973055 -0.024685986
000250 bf 96 97 3c 76 83 cb bc c9 86 dc bb 11 02 c7 bc
       0.018504499 -0.024842959 -0.006729935 -0.024292978
000260 ad 3d 24 bd a2 69 47 3d 3a 96 ca bd 64 94 4f 3d
       -0.04009788 0.048684724 -0.09891935 0.050678626
000270 bb e1 8e bd 60 63 5d 3c a6 0f 80 3d 54 28 49 bc
       -0.069766484 0.013512462 0.06252985 -0.012277681
000280 de 08 95 bd b5 ce 2f 3d 1e 88 72 3d 82 85 50 3d
       -0.07277082 0.04292174 0.059211843 0.050908573
000290 58 f0 7d bd 1c 8a 00 3a c7 9a 30 bd 60 80 c2 bd
       -0.061996788 0.00049033924 -0.043116357 -0.09497142
0002a0 14 02 0c bd ca c0 bb bd c1 4c 67 bd d5 a6 81 bd
       -0.03418167 -0.09167631 -0.056469683 -0.06330649
0002b0 c9 45 59 bd 97 c5 90 3d 06 1e 1e bd 6b 84 a8 bd
       -0.053045068 0.07068937 -0.03860285 -0.08228382
0002c0 62 ac 2a bd e7 9c 36 bd 66 22 0f bd 4a ab aa 3c
       -0.041668303 -0.044583227 -0.034944914 0.02083363
0002d0 a4 75 d4 3c 9e 18 3c 3d 2e 6e a0 3d 71 6f 1d bd
       0.025935002 0.045921914 0.07833515 -0.038436357
0002e0 21 f8 5f 3d d5 21 e8 bb 65 02 a2 3d f7 76 c4 bc
       0.054679994 -0.007084111 0.07910613 -0.023982508
0002f0 b6 63 78 bd 7e 7a 33 bd 63 74 b9 3d ca 52 a2 3c
       -0.060641967 -0.04381799 0.09055402 0.019814868
000300 99 0d b9 3d 48 09 a8 bc df 32 97 3d 9e fa f3 3c
       0.09035797 -0.020512238 0.0738275 0.02978259
000310 1f c8 88 3d da e2 ab bd 4f 0a a5 bd df 0e 1f 3d
       0.06678795 -0.08392878 -0.08058607 0.03883254
000320 25 be 50 3d 0a 5a a8 3b 1b 18 33 3a ef 80 27 bd
       0.050962586 0.0051376866 0.00068319 -0.040894445
000330 3a db 83 3d 46 34 81 3d ac dd 85 3c ff c5 38 3d
       0.064382985 0.063087985 0.016341053 0.0451107
000340 b6 de 90 bd cc ef 79 bd b7 b7 a9 bd 3b b4 83 bc
       -0.07073729 -0.061019704 -0.08286994 -0.016077152
000350 73 df 64 3d 04 c2 31 bd ee 8b d5 3b 6f 12 39 3d
       0.05587716 -0.04339792 0.006516925 0.045183595
000360 88 c4 99 3d 1a d1 c7 bc 53 d3 60 bd c9 41 96 3c
       0.075081885 -0.0243917 -0.054889034 0.018341916
000370 80 ea ac bd c9 ee 81 3d b4 df 9c 3d bb 7e 15 bd
       -0.08443165 0.06344373 0.076598555 -0.036497813
000380 41 35 83 bd 83 b4 5e bd 70 bb a0 3d 74 bf b3 3d
       -0.06406642 -0.05437137 0.07848251 0.08776751
000390 5e f7 33 bd 2e 27 8b 3d 1a 25 64 bd 94 35 88 bc
       -0.04393708 0.06794582 -0.055699445 -0.01662711
0003a0 c5 69 48 bd 2f 40 98 bd e6 c0 2f 3d d4 8d 25 3d
       -0.048928995 -0.07434117 0.04290857 0.04041846
0003b0 e4 88 b7 3d 4f 5b a9 3d 99 97 c1 3d d6 30 da 3c
       0.08961657 0.08269369 0.09452743 0.026634615
0003c0 db 7f 89 bd 5d 93 71 bd 49 9b 91 3d a3 2b 84 bc
       -0.067138396 -0.058978427 0.071096964 -0.016134089
0003d0 b1 8c ab bd c8 d8 df 3b 7f f1 37 bd ef a7 57 bc
       -0.08376444 0.0068312623 -0.044908043 -0.013162597
0003e0 41 70 f3 bb 7c cf ee bc f8 f8 53 bc db 67 c2 3d
       -0.007429153 -0.02915167 -0.012937777 0.09492465
0003f0 4b 8d b0 bd 1a 89 e3 3c 6e e9 b7 3d 6d 47 8b 3d
       -0.086206995 0.027775336 0.0898007 0.06800733

lstm.bias_ih_l1 f4 [512]
000000 ca 5b d2 3b 41 1f 65 3c 6f ee 94 bb 9f 47 4a 3c
       0.0064196335 0.013984502 -0.004545025 0.012346177
000010 36 1e 7b 3c d3 71 79 3c df ea f5 3b d4 df 15 3b
       0.015327027 0.015224892 0.0075048055 0.0022869008
000020 f3 95 03 3c a1 75 90 3b a3 6e c7 3b 27 f4 22 3c
       0.008031356 0.0044085537 0.006086187 0.009945906
000030 1e fe b4 3c 09 fd 2e 3c 66 97 a6 39 5f 5b ba 3c
       0.022093829 0.0106804455 0.00031774788 0.022748647
000040 1b b2 cf 3b e4 3b 50 3c 3c 47 06 3c d0 53 66 3c
       0.0063383705 0.012709592 0.008195695 0.014058068
000050 12 9d b2 3c f1 73 35 3c d4 3c 29 3c 5b c8 0a 3c
       0.021803413 0.011075006 0.010329444 0.00847062
000060 ea d1 31 3c 79 e2 ee 3b 88 ec 96 3c 26 7f dc 3c
       0.01085327 0.0072901812 0.018423334 0.026916098
000070 68 a9 37 3c b3 b4 d8 3b 00 db 54 3c a6 b3 f6 3b
       0.011209823 0.006613338 0.012991667 0.00752874
000080 30 f5 88 3c 33 a5 73 3c 33 ba 8f 3c 9f f9 2c 3c
       0.016718477 0.0148709295 0.017544841 0.010557561
000090 e6 b8 7f 3c e1 b4 96 3c 5c 61 79 3c 7b 4d 36 3c
       0.015608048 0.018396797 0.015220966 0.011126871
0000a0 8a 3b 97 3c ee 44 21 3c e3 56 07 3c 68 1f 16 3c
       0.018461008 0.009843094 0.0082604615 0.009162761
0000b0 df 8b 6f 3c a3 22 d5 3b 1b a6 3e 3c 9c 67 94 3c
       0.01462075 0.006504373 0.011636282 0.018115811
0000c0 ef 14 41 3b 34 30 46 3b fd 06 a3 ba 1c c1 83 3c
       0.002946194 0.0030241134 -0.0012437996 0.016083293
0000d0 0b d9 91 3c ae fc 74 3c 96 23 13 3c d2 7a 27 3c
       0.01780369 0.014952822 0.008980652 0.010222154
0000e0 94 57 2c 3c b0 29 53 3c ca af 2b 3c cf 6d da 3b
       0.010518927 0.012888357 0.010478923 0.0066659222
0000f0 78 59 c9 3b 6f bf 56 3c 8b 09 84 3c f9 e8 97 3c
       0.0061446987 0.013107165 0.016117832 0.018543707
000100 1d b7 62 3c f5 8f 3a 3c c3 c9 61 3c b9 6e 16 3b
       0.013837603 0.011386861 0.013781014 0.002295418
000110 25 44 42 3c 44 be 7e 3c a7 00 9e bb 55 00 2a 3c
       0.011857067 0.015548293 -0.004821855 0.010376056
000120 ca fe 8b 3c e3 0a 27 3c 8c 4d ce b9 0b 8b 1d 3c
       0.017089266 0.010195467 -0.0003934916 0.00961567
000130 01 35 48 3c c9 74 80 3c e1 ca dd ba 99 fb 3e 3c
       0.012219668 0.015680688 -0.0016921425 0.011656665
000140 35 7e 75 3b 0a 46 ed 3b 8c ed 25 3c 75 1a 3a 3c
       0.0037459258 0.0072410153 0.010127436 0.011358847
000150 27 6e 02 3c f1 05 14 3b bd 83 d8 3b 38 81 a9 3c
       0.007960833 0.002258655 0.0066075013 0.0206915
000160 91 05 ec 3b 64 81 50 3c 56 db fe 3b 37 c7 3e 3b
       0.007202812 0.012726162 0.0077776117 0.002911044
000170 f1 67 1b 3c 02 d1 f7 3b a2 32 22 3c 1d 84 8f 3c
       0.009485231 0.0075627575 0.009899767 0.017519051
000180 c6 58 5b 3c a4 e8 4c 3c 46 71 bd 3b 83 10 ac 3b
       0.013387864 0.012506638 0.0057813255 0.005250992
000190 5f 59 88 3c dd d1 d2 3b f1 b3 df 3b 9a 81 23 3c
       0.016644178 0.006433709 0.0068268706 0.00997963
0001a0 ca 5e 2f 3c c3 a3 48 3c 98 1b 3f 3c 51 30 9d 3c
       0.010703752 0.012246075 0.011664294 0.019188078
0001b0 5f ae 97 3c 7b 23 88 3c 00 0f 00 b8 7a 1c 76 3c
       0.018515764 0.01661848 -3.0531548e-05 0.015021438
0001c0 78 7b 71 3c 86 e1 48 3b b9 f4 5b 3c 0e f4 e9 3b
       0.01473891 0.0030652 0.013425046 0.0071396893
0001d0 43 bd 8e 3c fe 18 0f 3c b1 20 5e 3b c5 82 88 3c
       0.017424231 0.008733986 0.0033893997 0.016663918
0001e0 cf 8a 7f 3c bc 70 48 3c 13 ee 7e 3c b0 12 8a 3c
       0.015597059 0.012233909 0.015559691 0.016854614
0001f0 48 04 6e 3c 15 b7 e6 3b 09 55 91 3c 31 c2 91 3c
       0.014527388 0.007040868 0.017740743 0.017792793
000200 18 42 81 bb a1 d6 af b8 76 8b b4 ba b8 ba b7 b9
       -0.0039446466 -8.384628e-05 -0.0013774473 -0.00035043596
000210 d9 a2 82 ba ff 9a 13 3c f1 46 46 bb 1f 01 77 3a
       -0.0009966745 0.009009122 -0.0030254687 0.00094224693
000220 f3 a1 e3 3a 35 90 bd ba 1c 66 31 3a 17 51 0e bb
       0.001736699 -0.0014462533 0.00067672296 -0.0021715814
000230 fc 92 c7 bb 16 07 4d 3b 9f f2 f5 ba 5b b3 bc 3b
       -0.00609052 0.003128474 -0.0018764323 0.0057586855
000240 1c 48 21 ba 54 b5 ce 3a 5c c5 8a 3a 22 9a 37 3b
       -0.0006152408 0.0015770593 0.0010587382 0.0028015454
000250 ea 0f bd 3b 2a 44 60 bb 1d 04 80 b9 3e 77 34 bb
       0.0057697194 -0.0034220316 -0.00024417127 -0.0027536894
000260 53 82 c3 38 65 68 0e 3b 6b b5 63 3b 78 c6 5a ba
       9.322599e-05 0.0021729704 0.0034745585 -0.0008345614
000270 92 64 52 3b c6 04 1e bb b6 58 eb ba af b3 80 ba
       0.0032103402 -0.0024111732 -0.0017955515 -0.0009819175
000280 a2 ce f5 39 41 f7 a9 bb 95 3e b5 bb 30 cd 3f 3c
       0.00046883995 -0.0051869457 -0.005531142 0.011706635
000290 7e e0 74 bb b9 8d 37 3c 91 8d 35 bb 59 c5 df 3b
       -0.0037365253 0.011203223 -0.0027702788 0.0068289456
0002a0 33 79 a6 bb 74 37 fc 3b 97 e9 a6 bb f3 24 1e 3b
       -0.005080366 0.00769704 -0.005093764 0.002413091
0002b0 88 b4 81 3c 89 6d 85 3b 98 10 fc 3b 7e 4a 6a 39
       0.015833154 0.0040718955 0.007692408 0.0002234373
0002c0 5b 7a 09 3b cc 30 fd ba bf dc 1e 3b 4a fb 03 3c
       0.002097747 -0.0019316911 0.0024240462 0.008055517
0002d0 2c fc a3 ba 7b c1 49 3b c9 a5 c6 3b 58 b1 b5 b9
       -0.0012511066 0.003078549 0.0060622436 -0.00034655142
0002e0 2f ae a5 39 54 4e b5 39 a7 5d e1 39 08 bf a0 3a
       0.0003160103 0.0003458137 0.0004298512 0.0012263963
0002f0 21 db ce b8 0a 3a 33 ba 18 a6 20 bb 6e 2f 9d 3b
       -9.8636614e-05 -0.00068369566 -0.0024513062 0.004796914
000300 52 c3 47 bb 17 be 0a 3c 62 4e af 3a 6a 98 54 bb
       -0.003048141 0.0084681725 0.00133748 -0.0032439479
000310 db 88 8b 3a bd 04 bf 3b 08 cc 9a bb a2 e9 12 3c
       0.0010645645 0.0058294223 -0.0047240295 0.008966835
000320 32 4c c0 3b 9c cc d6 3a a5 77 59 bb 9c 4f c5 3b
       0.005868458 0.0016387883 -0.0033182886 0.006021453
000330 e6 e5 d6 3b 38 eb ba 3b 24 72 71 bb ed ef 0a bb
       0.0065581677 0.00570431 -0.0036841715 -0.0021200136
000340 37 ab d5 ba ca 2d 99 ba c2 7d 1d ba eb 5b 8c 39
       -0.0016301636 -0.001168662 -0.0006007814 0.00026771365
000350 e5 41 54 3b 7a e0 fb 3a 6b 39 4e 3b d8 27 2f bb
       0.003238791 0.001921668 0.003146733 -0.002672663
000360 8f ea f6 3a 05 6c ce ba 70 a5 67 3b 4e a0 c5 3b
       0.0018838214 -0.0015748745 0.0035346411 0.0060310727
000370 b9 8d b0 ba 93 cf 61 3b b3 00 b1 bb b1 78 0f 3c
       -0.0013469971 0.0034456 -0.0054016947 0.008756802
000380 77 3a 14 bb 57 51 16 bb bd fa 37 ba cb 16 9d 39
       -0.0022617856 -0.0022936666 -0.0007018259 0.00029962356
000390 f5 ec 89 3b 08 9f f5 ba 70 2d d5 bb 6f 3c 57 bb
       0.0042091557 -0.0018739412 -0.0065056607 -0.0032842418
0003a0 63 f3 02 3a 90 19 6d ba 9e 05 2e bb 7d 7a c9 ba
       0.0004995374 -0.00090446416 -0.002655364 -0.0015371587
0003b0 31 6d 84 3b 7d 8c 19 bb 84 b1 bf ba 60 f7 3d 39
       0.004041337 -0.0023429685 -0.0014625047 0.00018116599
0003c0 a0 df f1 3b 0d 40 17 3b 55 10 b2 b8 4b d7 14 bb
       0.0073813945 0.0023078949 -8.4907435e-05 -0.0022711332
0003d0 6b 32 07 3c 22 3f 0d 3c ba 44 7e ba 44 74 c3 ba
       0.008251767 0.008621009 -0.0009699572 -0.0014911969
0003e0 fb 35 87 3a b1 87 4a bb 83 86 f0 b8 25 14 0f 3c
       0.001031577 -0.0030903632 -0.000114691466 0.00873283
0003f0 44 fa 30 3a 74 ae 3e 3b e3 47 4f bb d8 6a da 3b
       0.00067511597 0.0029095681 -0.0031628541 0.006665569
