models/stock_only/checkpoint/DTC.pth (torch, 874216 bytes, 11 tensors)

lstm.weight_ih_l0 f4 [512, 5]
000000 eb e2 76 bd 52 f1 03 3d 0a 13 3a bd 2d fd 29 bd
       -0.060275 0.032212563 -0.045428313 -0.041501213
000010 15 85 3b bd cb 44 03 bd 7e 9c be bd dc ad 50 3d
       -0.045781214 -0.032048028 -0.09307192 0.050947055
000020 0f a0 1c 3d 94 60 28 bd cf 5e 25 bc 93 ce 9a 3b
       0.03823858 -0.04110773 -0.010093405 0.0047243326
000030 96 34 35 bd f6 4c 29 bd 80 59 00 3e db 56 00 3e
       -0.044239603 -0.04133316 0.12534142 0.12533133
000040 da 46 45 3d e5 ca 09 bd e3 96 41 3d f0 1f b8 bd
       0.048163272 -0.03364076 0.047263037 -0.089904666
000050 f6 df ad 3c 19 0b 88 bd 6d 5f ad bd 7c c6 1e 3d
       0.021224957 -0.06642742 -0.08465467 0.03876351
000060 ed 5c 89 bb be 65 b4 3d 00 95 c6 3d 8f 5a 85 3d
       -0.004191986 0.08808468 0.09696388 0.06511413
000070 53 27 90 3d 2c 80 65 3d 7f af d0 3d 9f 7c 47 3d
       0.070387505 0.056030437 0.10189723 0.048702832
000080 86 97 54 bc 12 cb 52 3d a0 e6 2b bd 30 d2 3a 3c
       -0.012975579 0.051463194 -0.041967988 0.011402652
000090 db 7b d4 3d df 1d c0 bd 84 20 9c bd 9f 21 02 3e
       0.10375186 -0.093806975 -0.07623389 0.12708138
0000a0 b9 54 8e 3d 7b c3 a0 3d eb ba 8e bc 80 7b 80 3c
       0.06949753 0.07849785 -0.017423114 0.01568389
0000b0 46 b4 8e 3d eb 3d dc bc dd a2 06 bc 6d 1c 9b bc
       0.06967978 -0.026884994 -0.008217541 -0.018934453
0000c0 16 89 70 bd 9f 3f 9d 3d ff ae 0c 3d 11 dd 9b bd
       -0.058724485 0.076781504 0.034346577 -0.076105244
0000d0 6b b3 a7 3d a1 5c aa 3d 8b 70 84 3d e6 15 a7 3d
       0.08188518 0.08318449 0.06466778 0.08158474
0000e0 68 be fd 3d 96 11 92 bd 55 68 e7 3b dd 8c a5 3d
       0.12389833 -0.071322605 0.007061998 0.08083508
0000f0 f6 d5 1d bd 6a de 55 bd c7 ac 2b bd 33 f1 d0 bc
       -0.038534127 -0.052214064 -0.04191282 -0.025505638
000100 82 35 f0 3c 81 30 c5 bc a0 12 bb ba f6 0b a0 bd
       0.02932239 -0.02407098 -0.0014272518 -0.07814781
000110 fb a9 96 bd 37 21 b8 3d ba e4 99 bd b1 05 67 3c
       -0.0735664 0.0899071 -0.07514329 0.014100478
000120 3b 19 c1 3d 6c 9b 4b bd be 8b 8d 3d ce b2 6e 3c
       0.094286405 -0.04970877 0.06911419 0.014568998
000130 11 39 73 3d 28 bc dc 3d 62 c3 70 bd e9 c4 b0 3c
       0.059380595 0.107780755 -0.05878008 0.02157827
000140 76 c6 1d bc 02 fa 41 3d 25 57 5e bd cd 8b 8e 3d
       -0.009629836 0.047357567 -0.054282326 0.06960259
000150 fc 16 4f 3d f7 30 58 bc d1 1d 7d bd 87 b9 65 bd
       0.05055903 -0.013195268 -0.061796013 -0.056085136
000160 14 e1 8f bb 3f d2 68 3c cf 39 cd 3a 77 f8 95 bc
       -0.004390845 0.014210283 0.0015657487 -0.018306954
000170 11 a4 60 bd ea 0f 10 bd 6d bf ba 3d a8 cd 7c bd
       -0.054843966 -0.035171427 0.09118543 -0.061719567
000180 44 ec bf 3d a6 9e 88 3c 39 cf 0a bd f7 f3 a8 bd
       0.09371236 0.016677212 -0.03388903 -0.082496576
000190 d9 15 e5 bc 56 b5 8a 3d 57 b4 a3 3c 69 1c 4c bd
       -0.02796452 0.06772868 0.019983454 -0.04983178
0001a0 63 ff 44 3d 07 ba b3 bd d6 9d 15 bd c6 4f cc 3d
       0.04809512 -0.08775716 -0.036527477 0.09976153
0001b0 a2 1a d3 bc c9 8a 76 3d 7b bc 07 bd a3 68 42 bd
       -0.025769535 0.06019095 -0.033138733 -0.04746307
0001c0 ac b0 71 bc b6 ea 9e bd db 80 d6 3d 4d ec 94 3c
       -0.0147515945 -0.07759611 0.10473796 0.018179083
0001d0 e3 69 65 3d 38 3c 80 3d 5f f4 b1 3d 05 36 85 3d
       0.056009185 0.06261486 0.08689188 0.06504444
0001e0 f8 6f e7 bb ad 2f 89 3d 32 5a d7 3d 8e 66 b3 3b
       -0.0070629083 0.066985466 0.1051525 0.005474872
0001f0 41 c3 f3 3b 30 b3 e5 3d 87 8a b5 3d 37 7a 9b 3d
       0.0074390476 0.11215818 0.088643126 0.0759167
000200 55 cf e3 bc 66 7b 24 3b 1f 95 d5 3d 4c 32 2a bd
       -0.027808825 0.0025097965 0.10428833 -0.041551873
000210 ee 90 32 3d 96 20 3a bd 76 59 45 3d 39 36 ff bc
       0.043595247 -0.045441233 0.04818102 -0.031153785
000220 95 93 60 3d a6 38 da bc 9a 8f 64 bd 73 d7 72 bd
       0.054828245 -0.02663834 -0.05580101 -0.0592875
000230 d5 8d ad 3c 79 32 02 3d dd 80 66 bd 78 55 56 3d
       0.021185795 0.031786416 -0.056275237 0.052327603
000240 c8 93 d1 3d 79 26 60 bd e3 96 fc bb 6c 2d d1 bd
       0.10233265 -0.05472419 -0.007708417 -0.10213742
000250 4c 16 e9 3c 24 3b 36 3d 7c 6b 22 3d 2f 02 0d 3c
       0.028453015 0.044489995 0.039653286 0.008606478
000260 62 e6 a2 3c 8e c2 36 3d f3 c8 a4 3d 69 43 c8 3d
       0.019885246 0.044619136 0.080461405 0.097784825
000270 f8 6f b9 bd 0a 8d 99 bd 71 de c4 3d f5 4b 8d 3d
       -0.090545595 -0.07497604 0.0961274 0.06899253
000280 4a 73 ac 3d 68 fc ad 3d 22 6f 85 ba 93 f2 4f bd
       0.08420427 0.08495408 -0.0010180215 -0.050768446
000290 74 78 1c bd 99 9d b3 3a ee 91 ee bc 99 33 89 bc
       -0.03820081 0.0013703584 -0.02912232 -0.016748236
0002a0 a4 e2 4c 3c a4 02 df bd 6b 7d d5 3c 04 32 a6 bb
       0.012505207 -0.108891755 0.02606078 -0.0050718803
0002b0 14 99 7b bc e9 c4 28 3d 73 9b cf 3d 21 a0 a8 bd
       -0.015356321 0.041203413 0.101370715 -0.08233667
0002c0 88 34 a5 bd 57 bc 50 3b ed 58 59 bc a2 f7 bf 3d
       -0.0806666 0.003185054 -0.01326583 0.09373404
0002d0 80 86 ee 3c 7e 6e ac 3d fe 5a 86 bc 7f d8 62 bc
       0.029116869 0.08419512 -0.01640081 -0.013845562
0002e0 d3 b7 b2 bd 7c fb 92 3d ac c1 e1 3d 31 1e 37 3d
       -0.08726468 0.07176873 0.11023268 0.044706527
0002f0 06 30 8b 3d 1b 93 85 3d f8 48 33 3d ff 9a 5d bd
       0.06796269 0.06522199 0.04377076 -0.054102894
000300 fc d3 79 3d 12 93 cb 3d 90 55 b0 bd 49 05 9d 3d
       0.06099318 0.09940161 -0.0861007 0.07667024
000310 bd 1a af bd 01 11 ff 3c f4 3f 05 bd 97 e4 f1 3c
       -0.08550022 0.031136038 -0.032531694 0.029527945
000320 a9 9f a2 bd 89 c3 d4 3d bc f6 d4 bc d3 8c b4 3c
       -0.07940609 0.10388858 -0.025996558 0.022039806
000330 73 25 ac 3d 4b b4 5f bd a3 4a 88 bd 51 ec a7 bd
       0.0840558 -0.0546153 -0.06654861 -0.08199371
000340 06 88 b9 bd f6 23 d8 bd 45 e4 26 bd f2 dd fd 3c
       -0.090591475 -0.10553734 -0.04074504 0.03098962
000350 3d 64 63 bd 26 8a 8b bd 93 7a 8b 3d db a0 54 3d
       -0.055515517 -0.06813459 0.068104886 0.051911216
000360 05 83 a2 3d ed f2 c8 3d 83 8f 71 3b 96 2b 9c bd
       0.07935146 0.098119594 0.0036859221 -0.07625501
000370 8b d9 7b bd 6f 16 9c 3c 1c 7b 58 3c a4 cd ce 3d
       -0.061486762 0.019053666 0.013212945 0.100978166
000380 19 0e c5 bd e4 a6 1f 3d 31 21 fd 3c 08 65 da 3d
       -0.096218295 0.03897752 0.030899616 0.106638014
000390 b7 07 9d bd f9 d9 ad 3d 4c c7 e8 3d e1 28 85 bd
       -0.07667487 0.084888406 0.11366138 -0.06501938
0003a0 f5 45 ce ba dd 41 d9 bc 44 dd 15 bd 10 2e 68 bc
       -0.0015737402 -0.026520664 -0.03658797 -0.014171138
0003b0 dc 09 bb bd be 1c a1 bd 3c 3f 5a bd 36 04 76 bd
       -0.0913274 -0.0786681 -0.05328296 -0.06006261
0003c0 02 bf 07 3e 96 cc 2c 3d a0 28 cd 3d d0 c4 a4 3d
       0.13256457 0.042187296 0.10017514 0.080453515
0003d0 38 9a aa 3d c1 36 43 3d 09 1f bf bd da f1 41 bd
       0.08330196 0.04765964 -0.09332091 -0.04734979
0003e0 37 1d 37 3d c4 34 aa 3c ec 25 8e 3c 8c dc b0 3c
       0.044705596 0.020777114 0.017352067 0.02158954
0003f0 8a 59 30 3d 2b ac 7a bd 9c a4 57 3c 4e af 01 bd
       0.04305414 -0.06119935 0.0131618045 -0.031661324

lstm.weight_hh_l0 f4 [512, 128]
000000 7e 4f 92 3d 60 65 9b bd a4 df 06 3d 29 f8 7b 3d
       0.07144068 -0.07587695 0.032928124 0.06151596
000010 6b 5c ca bb 42 1a 38 3c f5 61 15 3d 8a e6 a8 3d
       -0.006175568 0.011236729 0.036470372 0.08247097
000020 a4 2a 96 bd 84 96 c8 bd 4b 8e 74 3d db 01 c4 3d
       -0.07332352 -0.097943336 0.059706014 0.095706664
000030 27 d8 0b bd 0e 91 1d bc de 8d 31 3c 14 50 1d 3d
       -0.034141686 -0.009617103 0.010837046 0.038406447
000040 de 26 c1 bd a2 5d 95 3b 84 72 f9 3c 44 46 b4 3d
       -0.094312415 0.004558281 0.030450113 0.088024646
000050 2f 75 e0 3a 33 db 86 3b 5b 66 ac bd f0 cd a1 3d
       0.0017124767 0.004115486 -0.0841796 0.079006076
000060 99 71 21 bd 57 84 79 bd 41 25 9a bd 98 10 d2 3b
       -0.039414976 -0.060917225 -0.07526637 0.0064106695
000070 f3 c5 5e bd 30 bf ea bb 47 1f ba bd 85 b0 50 bd
       -0.054387998 -0.0071639046 -0.09087997 -0.050949592
000080 17 0d 3c bd 94 af 0f bd b5 f2 96 3d 6d 89 23 bd
       -0.04591092 -0.035079554 0.073705114 -0.03992598
000090 c4 24 ac 3b f9 6c 40 3d c6 78 99 bc d2 e0 9d 3d
       0.0052534062 0.046978924 -0.018734347 0.07708897
0000a0 b5 10 de bc d3 81 97 bd 43 83 b2 bc bd 6f 7c bd
       -0.027107576 -0.07397809 -0.021791106 -0.06163
0000b0 6e 24 77 bd 5e 8c 0a 3d f9 28 e4 bc 83 13 bb 3c
       -0.060337476 0.03382527 -0.027851569 0.022836452
0000c0 81 5f 62 bd 5f 45 a5 3c 4e ee 9c 3d b3 7c ab bd
       -0.05526686 0.02017468 0.076626405 -0.08373394
0000d0 4b d7 a9 3d 7f 05 ac bd 9d ea e5 bc 84 7e af 3d
       0.08293017 -0.08399486 -0.028065974 0.08569053
0000e0 38 d4 bb 3d a1 2c 9c 3c 36 13 28 3d 42 ab f2 bc
       0.09171337 0.01906425 0.041033946 -0.029622678
0000f0 cb 7c 41 bd 35 88 9e bc b0 6a c9 3d 3f 52 90 3d
       -0.047238152 -0.019352058 0.09834802 0.07046937
000100 1f e5 7c bd 34 60 3c 3c f0 11 be bc cb 43 96 3d
       -0.061741944 0.011497546 -0.023201913 0.07337149
000110 9d ee 9c 3d 61 9b 9a bc f7 57 9f 3d 50 8e ba bd
       0.07662699 -0.018872919 0.0778045 -0.09109175
000120 db cd 05 3d 3c d5 1d 3d 56 fe e5 bc dc f7 24 3d
       0.032667022 0.038533434 -0.028075378 0.04027544
000130 8d 6d 3c bd 00 fa da bb c7 f6 0d bd 10 97 8c bd
       -0.046002913 -0.0066826344 -0.034659173 -0.068647504
000140 05 39 08 bd c3 4b 0e 3d 8d af 3f 3d ad 3c b8 3d
       -0.033257503 0.03474022 0.046798278 0.08995948
000150 07 48 c1 3d 84 b5 a1 3d 0a bb c4 bd 5f 77 b5 bc
       0.09437566 0.078959495 -0.09605987 -0.022151647
000160 da 77 2d 3d 74 d3 d5 bc 2e 19 a5 3d a6 e0 99 3d
       0.042350627 -0.026101805 0.08061443 0.075135514
000170 3b c6 9f bc 25 fa 02 bd 38 6b ad 3c 0d a8 1d 3c
       -0.019503703 -0.031976838 0.02116929 0.009622586
000180 8b d0 3f 3d 61 72 c2 3d 2b 44 c8 3c 82 3e a0 bd
       0.04682974 0.09494472 0.024446568 -0.078244224
000190 f0 96 a6 3d 8f 9b ad 3d e0 ed be bd a2 0e 05 bd
       0.08134258 0.08476936 -0.09322715 -0.032484658
0001a0 9a df a6 bd ac 89 93 bd 28 9d f5 bc 8e 0c 92 bd
       -0.08148117 -0.07203993 -0.029982165 -0.07131301
0001b0 45 8f a2 bc aa db 91 bd 2a 5a f3 bb 41 20 0d bc
       -0.019843707 -0.07121976 -0.00742652 -0.008613647
0001c0 6f 7b fd ba 28 ac fb bc 9b 5f b2 bd 65 4d 1c bd
       -0.0019339154 -0.030721739 -0.087096415 -0.038159747
0001d0 53 5a 7a bd 9a a4 a3 3d 12 37 f1 bc 4b 4e 7c 3d
       -0.061121296 0.0799038 -0.029445205 0.061598103
0001e0 12 c1 ea 3c aa 63 0d bd 2c 73 b7 bd 71 41 93 bd
       0.028656516 -0.034518875 -0.08957514 -0.07190216
0001f0 3a 2a a0 bd b9 2f 6b 3d fd 4f c4 3d 71 a6 95 3d
       -0.07820554 0.05741856 0.09585569 0.07307137
000200 29 48 86 3d ad 78 b2 3d 64 6d 93 3d dc b7 51 bd
       0.06556732 0.08714423 0.07198599 -0.051200733
000210 cc d1 12 bd 45 02 91 3d 85 c6 44 bd a7 56 91 bd
       -0.03584461 0.07080511 -0.048040885 -0.07096606
000220 1b 68 95 3d 7b 4d ff 3c 71 69 94 3d 68 22 3b bd
       0.07295247 0.031164875 0.07246674 -0.04568711
000230 4b 83 ba 3d 90 fd af bd ba c5 af bd 6b 89 74 3d
       0.091070734 -0.08593285 -0.08582635 0.059701364
000240 a2 b9 34 bd 77 99 93 bd a2 4a 41 3d 78 bd 43 bd
       -0.044122346 -0.072070055 0.047190316 -0.047788113
000250 c3 88 9f b7 01 71 b8 bd ff b9 47 bc 23 77 93 3d
       -1.9017962e-05 -0.09005929 -0.012190341 0.07200458
000260 2f 8a af bc ab f5 f6 bc 59 ec cb bd ca 37 f1 bb
       -0.021428196 -0.03014644 -0.09957189 -0.007361387
000270 e4 99 78 3d 93 6b bb bd e0 bb 9c 3d f0 17 89 3d
       0.060693637 -0.091513775 0.07653022 0.06694019
000280 33 9c f9 bc 2c 3a 40 bc 3b 84 98 3d a8 35 9b 3c
       -0.03046999 -0.011732619 0.07447096 0.018946484
000290 01 5a b4 bd 61 f3 88 3d 47 5e 66 bd 10 77 76 bd
       -0.088062294 0.06687046 -0.056242254 -0.06017214
0002a0 e2 29 32 3d bd 11 ab bc 59 69 86 bd e9 9f 8a bd
       0.043496974 -0.020882482 -0.06563062 -0.06768782
0002b0 ed 4b 32 3c ea 08 91 bd 9d ce 14 bd 90 87 e8 3b
       0.01088236 -0.07081778 -0.036329854 0.0070962384
0002c0 54 ee 90 3d 2a 0b 0c 3d fa 10 83 bc 7c a5 01 3d
       0.070767075 0.034190334 -0.015999306 0.03165196
0002d0 90 bd ef bc d1 8e ad 3c b2 5a 7e bd 26 8b a6 bd
       -0.029265195 0.021186264 -0.062098213 -0.08132009
0002e0 c2 6d f1 bd 6e f7 18 bc 94 2a cc 3c c4 c9 3c bd
       -0.11788513 -0.009336336 0.024922647 -0.046090856
0002f0 97 4d b3 3d 9f 40 af bc 5b 30 a3 bd ec e9 0b bd
       0.087550335 -0.021393118 -0.079682074 -0.034158632
000300 79 26 31 3d c1 e9 d3 3c 3e 72 bd bd 2f d9 a9 3d
       0.04324958 0.025868298 -0.092503056 0.082933776
000310 5b a1 95 ba 6f 8c 85 bd 6b aa d2 bc 50 a3 a4 bd
       -0.0011415886 -0.06520926 -0.025716027 -0.08038962
000320 2c 22 98 bd d0 9d 2a bc 2e 83 42 bc d2 01 8f 3c
       -0.07428393 -0.010413602 -0.011872096 0.017456923
000330 f2 bc 3b bc 99 e9 47 bd 22 ca 79 3c 2e c5 92 3d
       -0.011458622 -0.04880676 0.015245946 0.07166515
000340 fe 37 9d bc c4 a5 42 bd f9 11 fc bb 6e dd 83 3d
       -0.019191738 -0.047521368 -0.007692572 0.06438719
000350 80 de d0 3d 66 fb e8 3a 0b ad 71 bd 5b ec cc bd
       0.101986885 0.0017775118 -0.059002917 -0.10006019
000360 2d 51 38 3d 1d f8 da 3c b7 06 83 bc a6 03 c7 bd
       0.04499929 0.026729638 -0.015994413 -0.09717493
000370 c6 57 84 3d dc ae b4 bc ea cb ad bd c9 7d bf 3d
       0.06462054 -0.022056036 -0.08486159 0.093501635
000380 74 0f ca 3d ac 87 82 3d e8 f3 aa bd 6d 0d fa 3c
       0.09866229 0.063735336 -0.08347303 0.03052398
000390 c6 3c 8d bd 32 2f c8 3d a6 8b 04 3d 5b a5 10 bc
       -0.06896357 0.09774627 0.03235974 -0.008828486
0003a0 7f 45 91 3d db e3 87 bd ff e9 53 bb e4 d4 71 bc
       0.070933335 -0.06635257 -0.0032335517 -0.01476023
0003b0 ec fc 98 bd f3 eb b6 3b 0b 79 90 3d 07 75 4d 3d
       -0.07470116 0.0055823266 0.07054337 0.050160434
0003c0 55 01 8f 3d 37 a8 6e 3d 1f ec 7c 3d 0e 09 bb bd
       0.06982676 0.05826589 0.06174862 -0.091325864
0003d0 0a ae 56 3d 95 d9 37 bd ca db 7d 3c ec 97 88 bd
       0.05241207 -0.044885237 0.015494296 -0.06669602
0003e0 49 c7 94 3d 6f 93 3f bc e7 15 9b bd 77 b6 a6 bd
       0.07264573 -0.011692866 -0.07572537 -0.08140271
0003f0 26 d2 84 bd a1 d0 c9 bd 33 cb c4 3d 60 b4 8e 3c
       -0.06485395 -0.09854246 0.0960907 0.017419994

lstm.bias_ih_l0 f4 [512]
000000 15 3c 44 3b 80 94 1a 3c 8a 00 83 3c f1 1a 06 3c
       0.0029943038 0.009434819 0.015991468 0.008185134
000010 f9 85 57 3c 3e 73 b2 3c 41 d0 98 3c 2e ba c1 3c
       0.0131545 0.021783467 0.01865399 0.023648348
000020 5d 52 7a 3c 8a 62 b4 3b e5 1d 14 3c 8f d9 a6 3c
       0.015278426 0.005504911 0.009040331 0.020367412
000030 17 f6 90 3b 4f 49 aa 3c 11 ac b3 3c 0e be 81 3c
       0.0044238674 0.02078691 0.021932634 0.015837695
000040 ab e4 93 3c 91 3c 97 3c f8 d3 c1 3b 01 41 3d 3b
       0.018053373 0.018461498 0.005915161 0.0028877857
000050 29 7c 76 3c b9 7a 57 3b eb 7c 02 3c 44 71 bf 3c
       0.0150442505 0.0032879545 0.007964353 0.023369439
000060 00 64 86 3c af 7e 9d 3b 99 7c 8c 3b 20 78 90 3c
       0.016405106 0.0048063616 0.004287314 0.017635405
000070 b6 dc d3 3c 18 05 ad 3b 30 88 92 3b 88 85 7b 3c
       0.02586208 0.0052801482 0.004471801 0.015351661
000080 a4 7e 68 3c 36 04 44 bb 60 01 97 3c 76 8b 21 bb
       0.01419035 -0.0029909736 0.018433273 -0.0024649776
000090 51 df 25 3c a1 b8 d3 3b e8 22 9b 3c 52 86 59 3c
       0.010124044 0.0064612185 0.018937543 0.013276653
0000a0 43 bf 9d 3c 1b 18 0f bc 06 f9 94 3b 0d f8 91 3c
       0.01925624 -0.008733775 0.0045462875 0.017818475
0000b0 40 ab 07 3c 39 e0 82 3c 31 f2 e3 3b 98 63 fb 3b
       0.008280575 0.015976058 0.0069563617 0.0076717846
0000c0 66 c1 8d 3c 17 28 22 3a a5 54 9e 3c da 2f 58 3c
       0.017304134 0.00061857834 0.019327471 0.013195002
0000d0 1b b6 99 3c 82 e2 f8 3b c5 2a b4 3c 1b 8a 5a 3c
       0.018763592 0.007595361 0.02199305 0.013338591
0000e0 0e 95 58 3c 08 42 10 3c 6d 09 91 3c 32 32 e1 3b
       0.013219131 0.008804806 0.01770469 0.006872439
0000f0 65 db 1a 3c a6 97 bc 3c 8d 88 37 3c b5 99 90 3c
       0.009451722 0.02302153 0.01120199 0.017651418
000100 e7 c0 8a 3c 40 5a 09 3b 5e 3f bb 3c 63 b5 24 3b
       0.016937686 0.0020958334 0.022857364 0.002513253
000110 ae 6b 03 3c 57 12 6c 3c b3 11 7a 3c 69 50 94 3c
       0.008021278 0.014408669 0.015263009 0.018104749
000120 6f 99 b2 3b e7 35 b3 3c 23 11 3a 3a af 25 88 3c
       0.0054504196 0.021876289 0.00070978905 0.016619531
000130 ea a4 72 3c 68 63 2d 3c bc ba 5f 3c 10 d9 00 3c
       0.014809826 0.010582782 0.013655361 0.007864252
000140 f5 50 75 3c 9b 42 05 bc 76 52 56 3c 5f 6d e9 3b
       0.014972915 -0.008133556 0.013081184 0.0071236338
000150 98 56 8a 3c 3e 43 0d 3c 88 9e e0 3c 67 0b 56 3c
       0.016886994 0.008621989 0.027419344 0.013064242
000160 03 a2 8b 3c aa e0 4b bb ce ca a2 bb df e0 33 3c
       0.017045027 -0.0031109252 -0.004968024 0.010978906
000170 e0 9d 8d 3c 01 ed f9 3b 46 0f a1 3b 67 cf 35 3b
       0.017287195 0.00762713 0.004915151 0.002774203
000180 e1 12 02 3b 91 3a 5d 3c 4d 1f bb 3c 30 8e b3 3b
       0.0019847678 0.013502733 0.022842074 0.0054795966
000190 c1 a1 42 3c 59 e0 00 3c 4c 86 93 3c 26 03 43 3c
       0.011879385 0.007865989 0.018008374 0.011902606
0001a0 30 83 22 3c 2e 4f de bb 0c 99 89 3c 77 b6 88 3c
       0.009918973 -0.0067843413 0.016796611 0.016688569
0001b0 7e e2 8e 3c 5b 55 79 3c 6d 82 a2 3b 17 8d 26 3c
       0.017441984 0.015218104 0.0049593956 0.010165474
0001c0 5d b8 08 3c 68 23 79 3b a5 b8 a7 3c ef ab 8d 3c
       0.008344737 0.0038015489 0.020473788 0.017293898
0001d0 50 69 92 3c bd 9a 75 3c df 95 b2 3b 45 a3 b5 3c
       0.017872483 0.014990506 0.005449995 0.02217258
0001e0 86 97 d0 3c d0 95 89 3c 17 63 ad 3c d5 aa b0 3c
       0.025462877 0.016795069 0.021165414 0.021565834
0001f0 2b 57 2b 3c 4e dd de 3a c8 3f ba 3c d6 f4 6a bb
       0.010457794 0.001700321 0.022735491 -0.00358515
000200 d4 36 ac b9 49 3b 6b bb cb 13 62 bb 74 e8 af b9
       -0.00032847247 -0.003589349 -0.003449666 -0.00033551792
000210 37 2c b3 3c 17 b3 07 bb b2 04 9b bb bb 68 d5 bb
       0.02187167 -0.002070611 -0.0047307843 -0.006512729
000220 55 35 8a bc 39 7f 09 38 39 b8 a4 3b 24 b4 34 bc
       -0.016871134 3.278183e-05 0.005026844 -0.011029277
000230 8e bc d0 bb 95 19 eb bb 6f 91 eb bb 06 5a 7b bb
       -0.0063701337 -0.0071746805 -0.007188968 -0.0038353219
000240 d9 7a 11 bc 9d 8c 5a 3b 29 64 e4 3b 05 dc 4c 3b
       -0.008879387 0.0033347972 0.006969948 0.0031259072
000250 ee f2 eb bb fb 61 9a bb 0b 1f 21 bb 7b 6c 65 3b
       -0.0072005903 -0.004711387 -0.0024585153 0.0035007286
000260 5d 37 49 3b b2 ec 6f 3a 17 aa 5d 39 5f f7 cc bb
       0.0030703165 0.0009152397 0.00021139566 -0.006255075
000270 34 79 a0 bc 77 bc b2 38 73 87 ed bb b8 4b 4c bb
       -0.019589044 8.522806e-05 -0.007248813 -0.0031173062
000280 3e c4 f1 3b 14 79 53 ba d1 93 ee bb 68 26 27 38
       0.00737813 -0.0008067053 -0.0072808047 3.985167e-05
000290 61 09 e1 3a 30 9d 8a 3a 67 5e b8 b9 0f 60 85 bc
       0.0017168933 0.001057541 -0.0003516555 -0.016281156
0002a0 99 75 35 bc d5 24 1e bc e5 18 d8 bb 86 02 86 3b
       -0.011075401 -0.009652336 -0.0065947645 0.0040896563
0002b0 9e a6 78 bb ad fa 44 bc 52 d8 09 bb 20 28 5b 3b
       -0.0037941108 -0.012022656 -0.0021033478 0.0033440664
0002c0 a6 49 32 39 fb 8b 31 bb e1 97 17 3b 4f 3a df bb
       0.00017002839 -0.0027091492 0.0023131298 -0.006812371
0002d0 ce 28 6c bc db 89 11 3b 09 63 47 39 44 90 d3 3b
       -0.0144140255 0.0022207412 0.00019015012 0.006456407
0002e0 c8 59 09 3c 5a 31 bb bb 64 d1 b6 bb 19 6e 06 bb
       0.008383222 -0.0057126703 -0.0055791605 -0.00205124
0002f0 92 fc 21 bb 88 f4 8f 3c 03 30 66 bb 56 97 a6 3c
       -0.0024717194 0.017572656 -0.0035123832 0.020335834
000300 5a 86 12 bb 25 97 8a bb 03 05 07 bc 8f b8 53 3a
       -0.0022357912 -0.0042294436 -0.008240941 0.00080765126
000310 9a f7 47 b8 43 45 8b bb cb da 80 39 fa 95 09 3c
       -4.7675894e-05 -0.0042502 0.00024577076 0.008397574
000320 21 29 ae 3a 74 05 d7 bb af b8 ab bb 59 7e ae 3b
       0.0013287404 -0.0065619294 -0.005240522 0.0053251204
000330 2c 74 ff bc 0c 35 a6 bc ca 62 13 3a 22 60 5d 39
       -0.031183325 -0.020288967 0.00056223257 0.00021112015
000340 27 cb da 3a 3d 61 26 bc 3a 1a 84 3b 44 2a f2 ba
       0.0016692624 -0.010155019 0.0040314468 -0.0018475731
000350 f8 f4 e4 3a e0 c7 7e bb 1d 39 9c bc 48 c0 19 bc
       0.0017468026 -0.003887646 -0.019070202 -0.009384222
000360 28 d0 e9 bb 1a fb 9b 3b 8d 17 7d bb c4 b6 d9 ba
       -0.00713541 0.0047601582 -0.0038618774 -0.0016610255
000370 b1 a5 d2 3a a1 81 92 bb 0c c1 70 bb 3d 84 e7 bb
       0.0016071108 -0.0044710194 -0.0036736159 -0.0070653246
000380 21 e6 22 bc 13 d2 b3 bc 9d 5d a3 bb 70 58 82 ba
       -0.009942562 -0.021950757 -0.004985525 -0.0009944569
000390 fa 93 97 bb db 7e 31 bc ad c7 ca bb f1 a9 14 bc
       -0.0046257945 -0.010833467 -0.006188354 -0.00907372
0003a0 d1 1e ef b8 cd 88 ec bb 59 2c c3 ba df a0 0e bc
       -0.00011402148 -0.0072184564 -0.0014890536 -0.008705347
0003b0 69 19 03 3b 8f d4 23 bc 48 cd ea 3a 85 6f 5b 3b
       0.002000416 -0.009999408 0.0017913962 0.003348322
0003c0 1c 39 4e bc 64 76 a0 3a 4f 05 ea bb cc 4a 72 bc
       -0.012586858 0.0012242314 -0.007141746 -0.014788341
0003d0 ef 39 91 bb 6d cb 0d bc a7 f0 1c bb 72 28 a2 bc
       -0.004431955 -0.0086544575 -0.002394715 -0.019794676
0003e0 3e a2 43 bc bf 01 cb bb 8d 79 50 bc 2c 28 88 bc
       -0.011940537 -0.0061952765 -0.012724292 -0.016620718
0003f0 ec 94 5d 38 61 7e b2 bb 08 8c e7 bb 33 ae 09 bc
       5.28292e-05 -0.0054471944 -0.0070662536 -0.008403349

lstm.bias_hh_l0 f4 [512]
000000 15 3c 44 3b 80 94 1a 3c 8a 00 83 3c f1 1a 06 3c
       0.0029943038 0.009434819 0.015991468 0.008185134
000010 f9 85 57 3c 3e 73 b2 3c 41 d0 98 3c 2e ba c1 3c
       0.0131545 0.021783467 0.01865399 0.023648348
000020 5d 52 7a 3c 8a 62 b4 3b e5 1d 14 3c 8f d9 a6 3c
       0.015278426 0.005504911 0.009040331 0.020367412
000030 17 f6 90 3b 4f 49 aa 3c 11 ac b3 3c 0e be 81 3c
       0.0044238674 0.02078691 0.021932634 0.015837695
000040 ab e4 93 3c 91 3c 97 3c f8 d3 c1 3b 01 41 3d 3b
       0.018053373 0.018461498 0.005915161 0.0028877857
000050 29 7c 76 3c b9 7a 57 3b eb 7c 02 3c 44 71 bf 3c
       0.0150442505 0.0032879545 0.007964353 0.023369439
000060 00 64 86 3c af 7e 9d 3b 99 7c 8c 3b 20 78 90 3c
       0.016405106 0.0048063616 0.004287314 0.017635405
000070 b6 dc d3 3c 18 05 ad 3b 30 88 92 3b 88 85 7b 3c
       0.02586208 0.0052801482 0.004471801 0.015351661
000080 a4 7e 68 3c 36 04 44 bb 60 01 97 3c 76 8b 21 bb
       0.01419035 -0.0029909736 0.018433273 -0.0024649776
000090 51 df 25 3c a1 b8 d3 3b e8 22 9b 3c 52 86 59 3c
       0.010124044 0.0064612185 0.018937543 0.013276653
0000a0 43 bf 9d 3c 1b 18 0f bc 06 f9 94 3b 0d f8 91 3c
       0.01925624 -0.008733775 0.0045462875 0.017818475
0000b0 40 ab 07 3c 39 e0 82 3c 31 f2 e3 3b 98 63 fb 3b
       0.008280575 0.015976058 0.0069563617 0.0076717846
0000c0 66 c1 8d 3c 17 28 22 3a a5 54 9e 3c da 2f 58 3c
       0.017304134 0.00061857834 0.019327471 0.013195002
0000d0 1b b6 99 3c 82 e2 f8 3b c5 2a b4 3c 1b 8a 5a 3c
       0.018763592 0.007595361 0.02199305 0.013338591
0000e0 0e 95 58 3c 08 42 10 3c 6d 09 91 3c 32 32 e1 3b
       0.013219131 0.008804806 0.01770469 0.006872439
0000f0 65 db 1a 3c a6 97 bc 3c 8d 88 37 3c b5 99 90 3c
       0.009451722 0.02302153 0.01120199 0.017651418
000100 e7 c0 8a 3c 40 5a 09 3b 5e 3f bb 3c 63 b5 24 3b
       0.016937686 0.0020958334 0.022857364 0.002513253
000110 ae 6b 03 3c 57 12 6c 3c b3 11 7a 3c 69 50 94 3c
       0.008021278 0.014408669 0.015263009 0.018104749
000120 6f 99 b2 3b e7 35 b3 3c 23 11 3a 3a af 25 88 3c
       0.0054504196 0.021876289 0.00070978905 0.016619531
000130 ea a4 72 3c 68 63 2d 3c bc ba 5f 3c 10 d9 00 3c
       0.014809826 0.010582782 0.013655361 0.007864252
000140 f5 50 75 3c 9b 42 05 bc 76 52 56 3c 5f 6d e9 3b
       0.014972915 -0.008133556 0.013081184 0.0071236338
000150 98 56 8a 3c 3e 43 0d 3c 88 9e e0 3c 67 0b 56 3c
       0.016886994 0.008621989 0.027419344 0.013064242
000160 03 a2 8b 3c aa e0 4b bb ce ca a2 bb df e0 33 3c
       0.017045027 -0.0031109252 -0.004968024 0.010978906
000170 e0 9d 8d 3c 01 ed f9 3b 46 0f a1 3b 67 cf 35 3b
       0.017287195 0.00762713 0.004915151 0.002774203
000180 e1 12 02 3b 91 3a 5d 3c 4d 1f bb 3c 30 8e b3 3b
       0.0019847678 0.013502733 0.022842074 0.0054795966
000190 c1 a1 42 3c 59 e0 00 3c 4c 86 93 3c 26 03 43 3c
       0.011879385 0.007865989 0.018008374 0.011902606
0001a0 30 83 22 3c 2e 4f de bb 0c 99 89 3c 77 b6 88 3c
       0.009918973 -0.0067843413 0.016796611 0.016688569
0001b0 7e e2 8e 3c 5b 55 79 3c 6d 82 a2 3b 17 8d 26 3c
       0.017441984 0.015218104 0.0049593956 0.010165474
0001c0 5d b8 08 3c 68 23 79 3b a5 b8 a7 3c ef ab 8d 3c
       0.008344737 0.0038015489 0.020473788 0.017293898
0001d0 50 69 92 3c bd 9a 75 3c df 95 b2 3b 45 a3 b5 3c
       0.017872483 0.014990506 0.005449995 0.02217258
0001e0 86 97 d0 3c d0 95 89 3c 17 63 ad 3c d5 aa b0 3c
       0.025462877 0.016795069 0.021165414 0.021565834
0001f0 2b 57 2b 3c 4e dd de 3a c8 3f ba 3c d6 f4 6a bb
       0.010457794 0.001700321 0.022735491 -0.00358515
000200 d4 36 ac b9 49 3b 6b bb cb 13 62 bb 74 e8 af b9
       -0.00032847247 -0.003589349 -0.003449666 -0.00033551792
000210 37 2c b3 3c 17 b3 07 bb b2 04 9b bb bb 68 d5 bb
       0.02187167 -0.002070611 -0.0047307843 -0.006512729
000220 55 35 8a bc 39 7f 09 38 39 b8 a4 3b 24 b4 34 bc
       -0.016871134 3.278183e-05 0.005026844 -0.011029277
000230 8e bc d0 bb 95 19 eb bb 6f 91 eb bb 06 5a 7b bb
       -0.0063701337 -0.0071746805 -0.007188968 -0.0038353219
000240 d9 7a 11 bc 9d 8c 5a 3b 29 64 e4 3b 05 dc 4c 3b
       -0.008879387 0.0033347972 0.006969948 0.0031259072
000250 ee f2 eb bb fb 61 9a bb 0b 1f 21 bb 7b 6c 65 3b
       -0.0072005903 -0.004711387 -0.0024585153 0.0035007286
000260 5d 37 49 3b b2 ec 6f 3a 17 aa 5d 39 5f f7 cc bb
       0.0030703165 0.0009152397 0.00021139566 -0.006255075
000270 34 79 a0 bc 77 bc b2 38 73 87 ed bb b8 4b 4c bb
       -0.019589044 8.522806e-05 -0.007248813 -0.0031173062
000280 3e c4 f1 3b 14 79 53 ba d1 93 ee bb 68 26 27 38
       0.00737813 -0.0008067053 -0.0072808047 3.985167e-05
000290 61 09 e1 3a 30 9d 8a 3a 67 5e b8 b9 0f 60 85 bc
       0.0017168933 0.001057541 -0.0003516555 -0.016281156
0002a0 99 75 35 bc d5 24 1e bc e5 18 d8 bb 86 02 86 3b
       -0.011075401 -0.009652336 -0.0065947645 0.0040896563
0002b0 9e a6 78 bb ad fa 44 bc 52 d8 09 bb 20 28 5b 3b
       -0.0037941108 -0.012022656 -0.0021033478 0.0033440664
0002c0 a6 49 32 39 fb 8b 31 bb e1 97 17 3b 4f 3a df bb
       0.00017002839 -0.0027091492 0.0023131298 -0.006812371
0002d0 ce 28 6c bc db 89 11 3b 09 63 47 39 44 90 d3 3b
       -0.0144140255 0.0022207412 0.00019015012 0.006456407
0002e0 c8 59 09 3c 5a 31 bb bb 64 d1 b6 bb 19 6e 06 bb
       0.008383222 -0.0057126703 -0.0055791605 -0.00205124
0002f0 92 fc 21 bb 88 f4 8f 3c 03 30 66 bb 56 97 a6 3c
       -0.0024717194 0.017572656 -0.0035123832 0.020335834
000300 5a 86 12 bb 25 97 8a bb 03 05 07 bc 8f b8 53 3a
       -0.0022357912 -0.0042294436 -0.008240941 0.00080765126
000310 9a f7 47 b8 43 45 8b bb cb da 80 39 fa 95 09 3c
       -4.7675894e-05 -0.0042502 0.00024577076 0.008397574
000320 21 29 ae 3a 74 05 d7 bb af b8 ab bb 59 7e ae 3b
       0.0013287404 -0.0065619294 -0.005240522 0.0053251204
000330 2c 74 ff bc 0c 35 a6 bc ca 62 13 3a 22 60 5d 39
       -0.031183325 -0.020288967 0.00056223257 0.00021112015
000340 27 cb da 3a 3d 61 26 bc 3a 1a 84 3b 44 2a f2 ba
       0.0016692624 -0.010155019 0.0040314468 -0.0018475731
000350 f8 f4 e4 3a e0 c7 7e bb 1d 39 9c bc 48 c0 19 bc
       0.0017468026 -0.003887646 -0.019070202 -0.009384222
000360 28 d0 e9 bb 1a fb 9b 3b 8d 17 7d bb c4 b6 d9 ba
       -0.00713541 0.0047601582 -0.0038618774 -0.0016610255
000370 b1 a5 d2 3a a1 81 92 bb 0c c1 70 bb 3d 84 e7 bb
       0.0016071108 -0.0044710194 -0.0036736159 -0.0070653246
000380 21 e6 22 bc 13 d2 b3 bc 9d 5d a3 bb 70 58 82 ba
       -0.009942562 -0.021950757 -0.004985525 -0.0009944569
000390 fa 93 97 bb db 7e 31 bc ad c7 ca bb f1 a9 14 bc
       -0.0046257945 -0.010833467 -0.006188354 -0.00907372
0003a0 d1 1e ef b8 cd 88 ec bb 59 2c c3 ba df a0 0e bc
       -0.00011402148 -0.0072184564 -0.0014890536 -0.008705347
0003b0 69 19 03 3b 8f d4 23 bc 48 cd ea 3a 85 6f 5b 3b
       0.002000416 -0.009999408 0.0017913962 0.003348322
0003c0 1c 39 4e bc 64 76 a0 3a 4f 05 ea bb cc 4a 72 bc
       -0.012586858 0.0012242314 -0.007141746 -0.014788341
0003d0 ef 39 91 bb 6d cb 0d bc a7 f0 1c bb 72 28 a2 bc
       -0.004431955 -0.0086544575 -0.002394715 -0.019794676
0003e0 3e a2 43 bc bf 01 cb bb 8d 79 50 bc 2c 28 88 bc
       -0.011940537 -0.0061952765 -0.012724292 -0.016620718
0003f0 ec 94 5d 38 61 7e b2 bb 08 8c e7 bb 33 ae 09 bc
       5.28292e-05 -0.0054471944 -0.0070662536 -0.008403349

lstm.weight_ih_l1 f4 [512, 128]
000000 26 2f 94 3b 59 80 c9 bc 66 44 4b bd c1 5f 75 bd
       0.004522222 -0.024597334 -0.049625777 -0.05990577
000010 07 77 8d 3c fe f9 0a 3d 7b 89 14 bd 56 b5 b0 bd
       0.01726867 0.033929817 -0.036263924 -0.08628337
000020 f9 d3 4d 3c 7b 9e 8c bd 20 89 6c bd 5e a3 62 3c
       0.012562745 -0.06866165 -0.05774796 0.013832895
000030 31 95 05 3d ee cf d8 3a ea b5 5a bd bb a1 95 3b
       0.032612983 0.001654146 -0.053396143 0.004566399
000040 80 05 97 3d f1 1c 6c bd 48 14 72 3c 84 e3 8a 3d
       0.07374096 -0.05764479 0.014775343 0.067816764
000050 25 d9 9c 3d 30 85 42 bd 2c 92 8c bb 6d 56 1c bd
       0.076586045 -0.0474903 -0.004289886 -0.03816836
000060 69 ea 65 3d ef df cc bc 2e f0 b7 3d 81 04 80 3d
       0.056131754 -0.025009124 0.089813575 0.06250859
000070 e1 37 88 bd 96 c7 9e 3d c5 b0 4d bc 79 48 be bd
       -0.06651283 0.07752912 -0.012554352 -0.09291167
000080 3c b8 90 3d 7f 19 15 3c 0e cd bc bd 85 4b b8 3d
       0.0706639 0.009100317 -0.092187986 0.08998779
000090 6a 27 98 3d 18 02 00 3c f8 4e 9d 3d 84 c5 82 3d
       0.07429393 0.007812999 0.07681078 0.06385329
0000a0 fd 37 01 3c a9 94 27 bd 62 34 46 bd 9e de f5 3c
       0.007886884 -0.040913258 -0.0483898 0.030013379
0000b0 7e 39 35 bc 4a 14 25 bc 41 a9 e8 ba 44 bf ba bd
       -0.0110610705 -0.010075638 -0.0017750637 -0.09118512
0000c0 66 84 a7 3b 2d 8b 17 3d d7 5c d4 3c 60 ee fd bc
       0.0051122187 0.036997963 0.025923176 -0.030997455
0000d0 d7 62 13 bd 25 90 e0 bc 3e c6 83 3d 61 8c b0 3d
       -0.035982933 -0.027412483 0.06434296 0.08620525
0000e0 b7 b6 17 3d e8 e3 ce 3c 5e 23 a0 bd b8 cd 33 bd
       0.037039485 0.025255159 -0.07819246 -0.04389736
0000f0 3e 80 48 bd 98 fb 6e 3a d5 e6 a2 bd 7a 9d cd 3c
       -0.048950426 0.000911647 -0.07954184 0.025099505
000100 9e d9 c5 bd 1a 10 88 3c 3e 1f 71 3d 69 9b f9 bc
       -0.09660648 0.01660924 0.058867685 -0.030469613
000110 8a 3c a1 3d 51 07 78 3d af b0 1d 3b cb 55 05 3d
       0.07872875 0.060553852 0.002406161 0.03255252
000120 1f dd a5 bb 1c e8 f2 bc b6 f6 58 3d 27 ba 4f 3a
       -0.00506176 -0.029651694 0.052969657 0.0007924162
000130 17 7c a0 3d 41 3f 36 bd fb fb 4d bc 11 5c 04 bd
       0.07836168 -0.044493917 -0.012572284 -0.032314364
000140 0d e1 99 3c 42 5f ed bc df 31 a8 bd 4d c6 a2 3c
       0.01878407 -0.028976087 -0.08212637 0.019869948
000150 e0 24 7b bd db b9 37 bc 7a be 38 bb 15 ca 94 3d
       -0.061314464 -0.011213745 -0.0028189705 0.072651066
000160 f6 a6 0e bd 40 39 71 bd 11 50 ed bc 84 92 80 bd
       -0.034827195 -0.05889249 -0.028968843 -0.06277946
000170 11 84 fa bc 85 a7 2f 3d f9 ec a6 3c d2 9a 9c bd
       -0.030580552 0.04288437 0.02037667 -0.07646717
000180 b1 47 be 3c c6 d6 1e bd 38 f6 d2 bc 6b de af 3d
       0.023227545 -0.038779043 -0.025752172 0.08587345
000190 ee 89 eb bc 07 4d 02 bd f0 48 c4 3d e0 81 6f 3d
       -0.028752293 -0.03181174 0.09584224 0.058473468
0001a0 d7 12 95 bd 42 90 96 bd 8e 4f 94 bd 39 8f b6 3d
       -0.07278984 -0.07351734 -0.07241736 0.08914036
0001b0 f3 90 50 3d 55 ad ce 3d b7 17 97 bc e2 a8 3a bd
       0.050919484 0.10091654 -0.018443925 -0.045571215
0001c0 af c4 51 3d 80 09 32 3d 22 32 fe 3c e9 41 ba bd
       0.051212963 0.04346609 0.031029765 -0.090946026
0001d0 91 5f 3e 3d e0 11 d3 bc a9 9a bc bb 56 93 f8 3c
       0.046477858 -0.02576536 -0.0057557416 0.030343693
0001e0 a1 86 aa bd fb dd 27 3d 34 33 2e bc e0 bc 1c 3c
       -0.0832646 0.04098318 -0.010632325 0.009566516
0001f0 67 e7 b8 3d c8 cd 5a 3d 95 c1 7a bc d6 1c 2d 3d
       0.090285115 0.053418905 -0.015304943 0.04226383
000200 a3 d1 96 3d 5f e4 bf bd 68 9e fd 3c 2d 38 3d 3d
       0.07364204 -0.0936973 0.030959323 0.04619615
000210 1d 1e e8 bc b5 9f ec bc ee f1 0c 3d 83 da ae 3c
       -0.028334672 -0.028884748 0.03441041 0.021344429
000220 cb 37 f9 bc cc cb 0b 3d 46 e8 99 3a 8c 01 01 3d
       -0.030422112 0.034129903 0.0011742197 0.031495616
000230 86 ab ae 3d 70 8f 1b bd ec d1 a5 3d ae ce a2 bd
       0.08528809 -0.03797859 0.0809668 -0.07949577
000240 64 ce 6b bc 14 89 25 3d 34 db 89 3d 28 be 83 bd
       -0.014392469 0.04041393 0.06731263 -0.06432754
000250 fd 56 f3 3c 4e 4c 76 3d 91 ea 0d bd 04 fa a7 3d
       0.029704565 0.060131364 -0.034647528 0.082019836
000260 aa 4c 55 3d 39 b2 8f 3c d8 e1 bf 3c 9a 90 52 3c
       0.052075066 0.017541038 0.02342312 0.0128518585
000270 77 dd 94 3d ad 00 bb ba 5a 07 8a bd c6 31 2d 3d
       0.072688036 -0.0014267169 -0.067396834 0.042283796
000280 2c e4 e4 3c 69 0b e8 3c b7 2a c4 bd 01 78 9a bd
       0.027940832 0.028325753 -0.0957846 -0.0754242
000290 e9 2e 48 bd aa 2b 93 bd e8 08 97 3d 10 ca e9 bd
       -0.048872862 -0.07186063 0.073747456 -0.114154935
0002a0 4f 48 a9 3c 02 54 b6 bd 87 d9 ab 3c 30 87 25 bd
       0.020664362 -0.08902742 0.020977749 -0.040412128
0002b0 eb 62 5a bd 29 04 85 3d 43 37 a4 3d c1 bd 60 3d
       -0.05331699 0.06494934 0.08018353 0.054868463
0002c0 31 c0 11 3d d8 4c ba 3d 23 47 cd bc d1 56 19 bd
       0.03558368 0.09096688 -0.025058335 -0.03743631
0002d0 33 1e bb 3d 8a 51 79 bc a7 83 a8 3d f1 85 81 3d
       0.091366194 -0.015217194 0.08228236 0.063243754
0002e0 55 a5 b8 bd cc f4 c8 bc 2b 48 8c 3d 9b 09 d0 3d
       -0.090159096 -0.02453079 0.068497024 0.10158082
0002f0 f4 5e b1 3b 4d 6b 7d bd 4e b7 2b bc 9f 26 a0 3c
       0.0054129306 -0.061869908 -0.010480715 0.019549666
000300 f3 ee 70 bd ac e7 73 3d e3 40 bc 3b 6a c4 61 3d
       -0.05882163 0.05954711 0.00574504 0.055118956
000310 09 44 58 bd 06 c8 62 bd a8 67 49 bd 08 f9 9d bc
       -0.05279926 -0.05536654 -0.04917112 -0.019283786
000320 b6 a4 7b 3c 58 91 9f 3d f1 40 0d 3d 89 bb 52 bd
       0.015359094 0.07791394 0.03448576 -0.05144838
000330 90 01 56 bd 53 82 b6 bd 98 78 94 3c 05 5f a4 bd
       -0.052247584 -0.08911576 0.01812391 -0.08025936
000340 fd 63 66 bc fa 37 91 3d ee 5e 93 bb cd a2 0e bd
       -0.014061925 0.07090755 -0.0044974005 -0.034823228
000350 d8 3d b6 3b cb ea 10 bd 85 ff c6 3d f5 cf 64 bd
       0.0055615716 -0.035380166 0.09716705 -0.055862386
000360 5a ef b3 bc bd 65 15 bc 07 15 f4 bb b0 cb 1a 3d
       -0.021964718 -0.009118495 -0.0074487957 0.037791908
000370 9e 68 02 bd f0 50 dd bb 2c f6 af 3d 38 1e 8c bc
       -0.031838052 -0.0067540333 0.085918754 -0.017104253
000380 d7 44 b9 bd 15 0e a4 bc 82 e0 b0 3d 0b 74 c7 3d
       -0.09046333 -0.020026246 0.086365715 0.0973893
000390 b4 70 df bc 25 cc 00 bc 94 e1 ff 3c 87 f6 ea bc
       -0.02727542 -0.007861172 0.031235494 -0.028682007
0003a0 ec 67 28 3d 78 95 f6 3c 92 13 10 3d 85 d3 fb ba
       0.041114733 0.03010057 0.035174914 -0.0019212818
0003b0 4c 62 bb 3b b6 8e f4 3c c1 26 a6 3a e3 34 c2 3d
       0.005718505 0.029853206 0.0012676344 0.094827436
0003c0 8b 11 a3 bd 36 db ae bd 4b 5e e9 3c e4 a3 30 bd
       -0.079623304 -0.08537905 0.028487345 -0.04312505
0003d0 39 cf c1 3d f8 64 80 3d 7b 92 25 3d f7 ca dc 39
       0.09463353 0.06269258 0.040422898 0.0004211289
0003e0 5c b7 2a b9 ec 38 32 3d 2f b2 3d bd 2d 62 47 3d
       -0.0001628077 0.043511316 -0.046312507 0.048677612
0003f0 55 b1 b3 3d da d3 5b bb b3 4d a1 3d 8d 2d c7 39
       0.08774058 -0.0033543021 0.07876148 0.00037990176

lstm.weight_hh_l1 f4 [512, 128]
000000 3a cd 1f bd 0b 8d 72 3d 56 00 58 bb bd 7f b8 bd
       -0.03901408 0.05921654 -0.0032959185 -0.09008739
000010 e1 9c 8d bd 0f 21 fd 3a 00 a2 87 bb 5e 58 8c bd
       -0.06914688 0.001931222 -0.004139185 -0.06852792
000020 a4 94 50 bc c2 62 ae 3c b2 8f e5 bd dc cb 33 bd
       -0.012730751 0.021287326 -0.11209048 -0.043895587
000030 72 1b c5 3c ee c2 54 bd e1 06 35 3d d3 e9 86 bd
       0.024060939 -0.051943712 0.044196013 -0.06587567
000040 2f e0 14 bd 11 ab 42 3d df ea 83 3d 65 9f 5f bc
       -0.03634661 0.047526423 0.064412825 -0.013648842
000050 67 0e 73 bc 3e cb 24 bc 64 26 1d bc ee c7 1d 3d
       -0.014834977 -0.010058222 -0.009591673 0.038520746
000060 79 28 1e bd 90 a2 bb 3d 64 c7 78 bc f7 87 51 bd
       -0.038612816 0.09161866 -0.015184257 -0.051155057
000070 43 c1 a7 3d 56 fe 2c 3d 76 f0 8e bc 1e b1 81 3d
       0.081911586 0.04223474 -0.017448645 0.063326105
000080 d8 5b 6a 3d 46 3c 87 bc 72 16 e0 bc fa 1a 61 3c
       0.057216495 -0.016508233 -0.027354453 0.013739342
000090 96 e4 d8 bd f3 e3 59 bd 35 21 ca bd 5d 87 9e 3c
       -0.10590474 -0.053195905 -0.09869615 0.019351656
0000a0 52 68 e3 bd 33 1f 7b bc ff d0 b6 3d fb 3b 7a 3c
       -0.11103882 -0.015327263 0.089265816 0.0152730895
0000b0 c6 82 3a bd d8 6a 57 bc 9e d9 23 bd bc da f2 bc
       -0.04553487 -0.013148032 -0.040002458 -0.029645316
0000c0 32 b0 49 bc d9 f2 a0 bd 71 b5 99 3d 19 40 8c 3d
       -0.012310075 -0.078588195 0.0750531 0.06848163
0000d0 f9 aa 93 3d be d6 16 bd b4 22 5c bd e5 07 6b bd
       0.07210345 -0.036825888 -0.053744033 -0.057380576
0000e0 b4 a7 9f 3d 99 f8 54 bd 22 5b 20 bc 87 0a a5 3c
       0.07795659 -0.051994894 -0.009787353 0.020146621
0000f0 83 0f 80 bb 2c 80 ec bc c6 3d 3b 3d 38 9a c1 bc
       -0.003908099 -0.02886971 0.04571321 -0.023633108
000100 1a 1a 0b bb 87 39 30 bd 11 39 62 bc dc 5e 66 3c
       -0.0021225275 -0.043023612 -0.013807551 0.014060702
000110 af 0d b7 bd f8 ec 0d bd f2 da 86 bd 37 a4 4e 3d
       -0.08938157 -0.03464982 -0.06584729 0.050449576
000120 9a 90 9e bd f0 1c 91 bb a1 39 c7 3d cb 97 49 bc
       -0.07742424 -0.0044284984 0.09727789 -0.012304257
000130 dd 10 c9 3d 66 52 8b 3d fe cb 5d 3d 4c c1 78 bd
       0.098176695 0.06802826 0.05414962 -0.060731217
000140 1d b8 0a bc 2b 65 b0 3d 84 fa ac 3d e6 27 ac 3c
       -0.008466748 0.08613046 0.084462196 0.021015119
000150 4a f4 95 3d b4 5f b8 bc f6 1b ad 3d e8 ba b2 bd
       0.07321985 -0.022506572 0.08452599 -0.08727056
000160 c5 f6 80 3d e6 4f 26 3d 1f 79 be 3c b7 1d 76 bd
       0.062970676 0.04060354 0.023251114 -0.060086932
000170 dd 4e b9 bd b0 13 ba 3b cd 79 c9 3d b1 d4 bb 3d
       -0.09048245 0.0056786165 0.09837685 0.09171427
000180 1c ea 85 bd bf 5a 69 bd e7 cb a9 bd 6f 56 c8 3c
       -0.065387934 -0.056971308 -0.082908444 0.024455277
000190 86 4b 09 3c 32 79 5d bc bc 62 9a bd e6 6a bf bc
       0.008379823 -0.013517665 -0.07538363 -0.023366403
0001a0 a0 e0 8b bd 5b f8 88 bd 18 8a 62 bd 97 6a cc bd
       -0.06829953 -0.06687995 -0.055307478 -0.09981268
0001b0 8d 70 9c 3d e3 49 a0 3d 14 73 b8 3d 2f 95 8a bc
       0.07638655 0.07826593 0.090063244 -0.01691684
0001c0 0d bd 4a bc 31 e4 41 bd 1c 38 0c bb c9 82 be 3d
       -0.012374175 -0.04733676 -0.0021395748 0.09302289
0001d0 81 e2 1d 3c b1 43 9b 3d a0 2e 4e bb 62 ff 8c 3d
       0.009636522 0.075812705 -0.0031460896 0.06884648
0001e0 49 65 35 3c 3d d1 51 bc ca 7b 2e 3a 5c 5b 52 3b
       0.011071512 -0.012806234 0.0006656019 0.0032097911
0001f0 32 13 15 3d bf 04 6f 3d 0d 20 38 bd eb da 92 bd
       0.03639526 0.058354136 -0.04495244 -0.071706615
000200 cb 4d 48 bd b5 a1 31 3c b3 cc 8b 3d ee 00 66 3d
       -0.048902314 0.010841777 0.06826153 0.05615323
000210 e8 b6 87 3d 7b 4d 83 bd 9a 7d a0 bb a5 bc 17 bd
       0.066266835 -0.064112626 -0.0048977854 -0.03704514
000220 39 71 91 bd 58 06 72 3d a2 97 b4 bd 1e 59 15 ba
       -0.07101674 0.05908808 -0.08817984 -0.00056971784
000230 38 a9 48 bd ea ec b4 3d 45 a8 88 3d 2b c6 92 3c
       -0.048989505 0.0883425 0.0667272 0.01791676
000240 32 8b 83 bd 46 e9 8a bc 97 38 b8 bd c9 24 cf bc
       -0.06423034 -0.016956937 -0.08995169 -0.025286095
000250 08 a5 98 3c 97 39 e2 bc 31 63 ce bb 04 cb cc bc
       0.01863338 -0.027615352 -0.0062984456 -0.02499915
000260 94 de 28 bd 01 c6 4b 3d ba 5a d0 bd a9 97 42 3d
       -0.041227892 0.049749378 -0.10173555 0.047507916
000270 99 8d 8b bd b9 35 83 3c 76 00 7b 3d 59 51 57 bc
       -0.06814117 0.016016828 0.061279736 -0.013141953
000280 54 97 7f bd f9 94 29 3d 78 8d 8e 3d fc 09 7d 3d
       -0.062400177 0.041401837 0.06960577 0.0617771
000290 fe 43 92 bd d4 16 31 3a cf ba 2d bd 71 93 bd bd
       -0.07141875 0.0006755416 -0.042414483 -0.09256638
0002a0 16 23 40 bd 51 91 b6 bd c4 e6 59 bd 45 7b 84 bd
       -0.04690846 -0.08914436 -0.05319859 -0.06468824
0002b0 b0 5c 39 bd 8a cd 96 3d 0d 21 c8 bc b1 0b b6 bd
       -0.04525441 0.07363422 -0.024429822 -0.08888949
0002c0 e0 4e 10 bd a5 60 11 bd cc 31 01 bd fa 28 84 3c
       -0.03523147 -0.035492558 -0.03154163 0.01613282
0002d0 81 da 91 3c 97 93 1d 3d ae d7 b9 3d fc b9 0a bd
       0.017804386 0.03847083 0.09074341 -0.033868775
0002e0 9a 84 3d 3d 86 ac de bb 75 3e 95 3d 1a df 71 bc
       0.046269037 -0.0067954687 0.07287303 -0.014762664
0002f0 51 f2 53 bd ee a8 38 bd ab ce b4 3d 37 70 66 3c
       -0.051744763 -0.04508298 0.08828481 0.01406484
000300 39 2d bd 3d 6a ea c8 bc 5f 1a 91 3d 25 8d 01 3d
       0.09237141 -0.02452584 0.07085108 0.031628747
000310 63 12 88 3d 3f 5a 8c bd 5c 8b ae bd 83 eb 08 3d
       0.06644132 -0.068531506 -0.085226744 0.033427726
000320 48 d6 4b 3d 24 85 b0 3b a8 75 2b 3c 3e 3d 30 bd
       0.0497649 0.0053869653 0.010465063 -0.043027155
000330 4a 61 81 3d 2e f7 90 3d d6 1a 76 3c 56 35 46 3d
       0.063173845 0.07078396 0.015021047 0.04839071
000340 6f ef 92 bd b8 54 57 bd 67 05 b2 bd fb 21 8c bc
       -0.071745746 -0.05257103 -0.08692437 -0.017106047
000350 c5 9a a2 3d f4 fb 6d bd 93 90 7b 3b f7 4b 3d 3d
       0.07939676 -0.05810161 0.0038385733 0.046215024
000360 a7 2f 98 3d b8 b8 b5 bc 63 a2 78 bd 8a d8 88 3c
       0.07430964 -0.022182807 -0.06070174 0.016704816
000370 53 a6 b5 bd c5 5c 6b 3d 86 15 9e 3d 10 23 32 bd
       -0.088696145 0.05746152 0.07718949 -0.04349047
000380 cd 8e 84 bd 00 d2 5a bd f9 99 9a 3d 1c 75 bb 3d
       -0.064725496 -0.053422928 0.07548899 0.09153196
000390 49 57 31 bd 42 04 8c 3d d8 4d 49 bd c4 62 9f bc
       -0.043296132 0.068367496 -0.049146503 -0.019456275
0003a0 63 27 4a bd 77 d5 96 bd 53 2c 34 3d 29 4e 14 3d
       -0.04935397 -0.07364934 0.043987583 0.03620735
0003b0 6c 37 b2 3d 00 a7 a4 3d 9c 15 c0 3d 8a 8c fd 3c
       0.08701977 0.08039665 0.09379122 0.030950803
0003c0 34 b5 85 bd 21 8e 81 bd a8 1a 8f 3d 49 02 24 bc
       -0.065287024 -0.06325937 0.06987506 -0.01001031
0003d0 98 95 a8 bd 63 64 0d 3c 88 1e 2e bd 8a 67 5d bc
       -0.08231658 0.008629891 -0.042509586 -0.013513455
0003e0 09 78 5d ba 0d 3f f7 bc 5c 37 29 bc d4 9c c5 3d
       -0.00084483676 -0.030181432 -0.01032814 0.09649053
0003f0 af 7b b2 bd bc 36 02 3d 1d 82 a3 3d 97 b8 a3 3d
       -0.08714997 0.03179048 0.079838015 0.07994192

lstm.bias_ih_l1 f4 [512]
000000 da 69 c5 3b 65 8e 53 3c 35 cd 89 3c de 34 0a 3c
       0.0060245814 0.0129123675 0.016821483 0.008435456
000010 38 ed 66 3b 7e 6d 5c 3c e5 8a 2b 3c 33 5a 74 3b
       0.0035236608 0.013453839 0.010470127 0.0037285208
000020 42 d0 bd 3b 8c df 00 3c aa 4a 9d 3c 5e 5f 36 3c
       0.0057926485 0.007865798 0.019200642 0.011131136
000030 40 3d 98 3c cb 97 12 3c ad 87 82 ba 28 85 5d 3b
       0.018583894 0.008947323 -0.0009958647 0.003380129
000040 c9 5b 7b 3b 96 64 95 3c 87 2a a8 3b 48 2f 41 3c
       0.0038354269 0.01823644 0.005132023 0.011791058
000050 0c d9 a5 3b 13 b2 5d 3c 44 b1 3f 3c 38 de 53 3c
       0.0050612744 0.013531226 0.011699978 0.012931399
000060 26 a5 49 3b 2a d8 f1 3b 19 87 31 3c d4 39 1f 3c
       0.0030768602 0.007380505 0.010835432 0.009718377
000070 8b 5d 7b 3b 7e be 62 3c 6b f8 19 3c 15 4b 24 3c
       0.0038355317 0.013839362 0.009397606 0.010027667
000080 38 2d 82 3c 39 c0 58 37 33 2c 9f 3b e5 d7 28 3c
       0.015890703 1.2919359e-05 0.004857564 0.0103053795
000090 26 ee ca 3c 3c 6d 70 3c 4b 3c a7 3b 6f 65 06 3c
       0.024771761 0.014674481 0.005103623 0.008202895
0000a0 0d 2c 1b bb aa e6 3c 3c 22 52 56 3b eb a5 d0 3b
       -0.002367738 0.011529604 0.0032702764 0.006367435
0000b0 3c ef 45 3c c5 ca 4e 3b d3 56 66 3c fd 29 2e 3c
       0.012080964 0.0031553966 0.014058786 0.010630128
0000c0 63 1a 38 3c 75 42 20 3c 12 2e 06 ba 50 2a a5 3c
       0.01123676 0.00978147 -0.00051185593 0.020161778
0000d0 be 16 8d 3c 89 f0 b5 3c f9 17 c0 3b 38 64 98 3a
       0.017222758 0.022209423 0.0058622328 0.0011626547
0000e0 14 8f 09 3c ee 9a 60 ba 15 2d 6a 3b ff f9 00 3c
       0.008395929 -0.0008568008 0.0035732437 0.007872104
0000f0 94 42 12 3c 09 8c 49 3c 73 29 bb 3c 1a 8f 6b 3c
       0.008927006 0.012301453 0.022846913 0.01437738
000100 19 24 51 3c 36 67 84 3b 3f 3d c7 3b 0e e2 fa 3b
       0.012764954 0.004040624 0.006080299 0.0076563423
000110 20 69 53 3c eb 9e bd 3c 5b d4 59 3c dc 52 49 3c
       0.012903482 0.023147067 0.013295258 0.012287822
000120 3e c4 80 3c 07 cf 5a 3c 17 61 b4 3b 33 f7 d1 3b
       0.015718576 0.013355023 0.005504738 0.0064076423
000130 ea 9d 64 3c 98 6d 74 3c cc 5d 9c bb b3 d5 2d 3c
       0.013953665 0.014918707 -0.0047719236 0.010610032
000140 b5 bb 9d 3b cc d0 c6 3b 00 cf b5 3c b2 df 8b 3b
       0.004813636 0.006067371 0.022193432 0.00426861
000150 1f c2 56 3c ab 98 72 3b af 79 c4 3c ee 23 bc 3c
       0.0131078055 0.0037017267 0.023983805 0.022966351
000160 64 60 19 3c 8c e2 bc 3c 48 d4 be 3b 93 21 c4 bb
       0.00936136 0.023057245 0.0058236457 -0.0059854477
000170 e2 ab 93 3b 79 b2 7c 3c 31 04 86 3c 1c d1 95 3c
       0.004506574 0.015423411 0.01635942 0.018288188
000180 db b3 a7 3c f8 a4 35 3c 9c 98 94 3c c7 46 19 3b
       0.020471504 0.011086695 0.018139176 0.0023388134
000190 39 16 41 3c 92 e6 02 3c 71 23 6c 3c ae dd 1c 3b
       0.011785083 0.007989543 0.014412747 0.0023935842
0001a0 14 9a 9b 3c 4c ed 2d 3c 79 f3 de 3b 03 cc a8 3c
       0.018994369 0.010615658 0.0068039265 0.020605093
0001b0 dc 16 27 3c 1d c6 6e 3c cd c6 a7 3b 97 87 60 3c
       0.010198321 0.014573601 0.0051201344 0.013704202
0001c0 c0 11 85 3c 9c d5 48 39 4a 88 d3 3b f7 7d ee 3b
       0.016243815 0.00019153062 0.006455456 0.0072782
0001d0 04 ea 6e 3c ca 05 04 ba c9 d1 b9 3b d9 cf 18 3c
       0.014582161 -0.0005036263 0.0056707603 0.0093268985
0001e0 a6 06 bb 3c 1c 61 99 3b 0c bd bf 3c 65 84 95 3c
       0.022830319 0.004680766 0.023405574 0.018251607
0001f0 17 fa 2b 3c ac e5 04 ba f2 f0 81 3c e4 a5 d2 3c
       0.010496638 -0.0005069624 0.015861962 0.025713868
000200 1a a2 aa bb bd a5 ca bb 26 0e 27 bc 2b 21 03 bb
       -0.0052073123 -0.0061843083 -0.010196244 -0.0020008783
000210 92 28 13 bb 89 dd d7 b9 e2 ff 1b bb e2 cc 69 ba
       -0.0022454602 -0.00041173052 -0.002380364 -0.00089187745
000220 df cb 49 ba f6 aa 8d 3b ef cc b2 bc a7 f9 8f bb
       -0.00076979207 0.0043233586 -0.021826236 -0.0043937746
000230 f3 44 78 bc 6d 18 7d bb 09 a7 24 bb af 94 9e ba
       -0.0151531575 -0.0038619295 -0.0025123975 -0.0012098755
000240 0c 72 27 3b 7e d2 6b bb 4f 9d b9 3a c0 f6 27 bb
       0.0025550155 -0.0035983617 0.0014161261 -0.0025629252
000250 91 50 8f bb bc d7 dd bb dc a0 35 bb 67 1c 86 bb
       -0.004373618 -0.0067701023 -0.0027714288 -0.0040927413
000260 e2 74 a4 ba 55 25 5b 3b b5 55 1a bb 73 c6 fa ba
       -0.0012547041 0.0033439 -0.002354962 -0.0019132629
000270 d8 95 46 39 e9 88 dc bb 78 f3 ec ba ab 7f 7c bb
       0.00018938573 -0.006730188 -0.001807793 -0.0038528244
000280 4c d9 4f bc 33 c9 ea ba fd ed 1c bc 89 59 0f 3c
       -0.012686085 -0.0017912745 -0.009578225 0.008749374
000290 cc 46 a0 bc b4 74 6a 3b 88 8b 48 ba 5f da 2b 3b
       -0.019565009 0.0035775127 -0.00076501863 0.0026222689
0002a0 6e a6 ed bb 5e 96 b5 3b c0 68 91 b9 eb 71 5c 3a
       -0.007252506 0.005541607 -0.000277346 0.0008409309
0002b0 8d 78 ae 3b b3 48 55 ba 7b 7f 0b bc e2 30 f4 bb
       0.0053244294 -0.0008136138 -0.00851428 -0.0074521163
0002c0 91 80 a8 ba f1 4d 39 3b 42 d6 07 ba 12 24 3c bc
       -0.0012855699 0.0028275216 -0.0005181768 -0.011483209
0002d0 5a 1f 10 bc f5 96 9e bb dd 9f 0e bc d2 3c c2 b9
       -0.008796537 -0.004839773 -0.008705107 -0.00037047878
0002e0 f5 f4 26 3a 1a 43 a8 38 c5 93 dc bb ae 48 cc 3b
       0.0006368899 8.023363e-05 -0.0067314827 0.00623425
0002f0 03 89 31 bb 02 d6 48 bb 04 0a 43 bc 6f bb ab bb
       -0.0027089722 -0.0030645137 -0.011904243 -0.0052408497
000300 a4 79 01 bb a0 63 ae ba 4c 90 e1 ba 34 ee 72 bb
       -0.0019756341 -0.0013304837 -0.0017209142 -0.003706825
000310 5d 53 58 bb 31 af 95 bc 6e 94 74 ba ce a0 91 3b
       -0.0033008673 -0.018272014 -0.0009329979 0.0044442182
000320 70 7e e1 bb 9f 53 38 bb 11 28 93 ba ca 7d 30 bb
       -0.0068815276 -0.0028126014 -0.0011227151 -0.0026930445
000330 c4 91 0d 3c 9c fa 4f bb 3f 26 d6 bb 20 dd b5 bb
       0.00864071 -0.0031735068 -0.006535321 -0.005550042
000340 bf cf cf 3a 7a 54 7d b9 90 00 b8 bc 16 01 8a 39
       0.001585476 -0.0002415943 -0.022461206 0.0002632222
000350 1b 5a c0 b9 0e d2 41 bb 7b 76 37 bc a4 5f fc bb
       -0.00036688228 -0.0029574665 -0.011197682 -0.007701831
000360 8b 3a 37 bb 45 99 fb bb 52 b6 9c bb cd 5a 5b bb
       -0.0027958478 -0.0076781833 -0.0047824765 -0.003347087
000370 e6 10 2a ba 99 10 b1 bb 6d 60 b2 bb de 85 b9 3b
       -0.00064875034 -0.00540359 -0.0054436238 0.00566171
000380 d2 cf 03 bc bd f5 d7 ba b8 47 0c bb bb 2b 64 bb
       -0.008045154 -0.0016476434 -0.0021405052 -0.0034816104
000390 79 50 26 bb fd 04 38 bb dd d7 3d bc 7c 57 f0 ba
       -0.0025377555 -0.0028079145 -0.01158711 -0.0018336619
0003a0 b2 c7 c4 bb 4a 7e a9 3a 3b dd 9e ba 04 1e 32 bc
       -0.006005251 0.0012931314 -0.0012120375 -0.010871414
0003b0 46 ae 68 bb 8e 4d fd bb 14 83 2e bb 96 17 e1 bb
       -0.0035504266 -0.0077301925 -0.0026628422 -0.0068692667
0003c0 f0 47 bc bb 6a 4f 6b bb b8 8e e7 ba 11 02 3a ba
       -0.0057458803 -0.0035905489 -0.0017666435 -0.0007095645
0003d0 e4 a5 18 bc d2 fb c8 bb 44 ae 03 3a 8e d3 67 bb
       -0.009316895 -0.006133535 0.0005023221 -0.00353739
0003e0 65 36 9b bc 1f d6 dc 3a 65 a6 57 bc fc c3 74 bb
       -0.018946836 0.0016848481 -0.01316223 -0.003734826
0003f0 ef 37 ee ba 11 7e de b9 46 57 e4 bb 1e 4e a8 bc
       -0.0018174628 -0.00042437066 -0.0069684116 -0.020545062
