models/3inst/checkpoint/AMDGVTCX.pth (torch, 876745 bytes, 13 tensors)

lstm.weight_ih_l0 f4 [512, 5]
00000000: 66b0 9d3d 6224 6d3d 0ccb d43c 3e3d 633c
00000010: dfe3 cf3d a4d5 bbbd d9bc ed3d 0c9c 2bbd
00000020: 7ef0 c03d b634 49bd ec3d 7dbd 3ec2 82bd
00000030: 9c77 22bc 43ac 3ebd 4152 cb3d e9c0 793c
00000040: 5725 8fbd 4bda ad3d 7195 0cbd 828b f53c
00000050: 76f1 5f3d 0ecd 1dbd 9b4b 8abd cd9a 53bd
00000060: 5d5d 3abd 56e7 f6bc 3072 b4bd e6b4 883d
00000070: 5d59 293d 9c67 34bd 9b57 33bd 7bfd c43d
00000080: 9fc4 86bc f6ad 103d ee0f 1c3d 3dc2 0bbd
00000090: e993 64bd 00f3 093d 1752 be3d 14f1 92bd
000000a0: 0e41 903d aca7 e73c 2cbc 303d cc7a 033d
000000b0: 2409 d6bd 86ae 61bd adbb dc3d 3c70 983c
000000c0: 0ee0 94bd e48b 9bbd b719 ef3d fc9a 3dbd
000000d0: 45e0 ac3d 6a2e d23c 17f6 663d beb3 86bd
000000e0: 62d5 3cbd 53b3 d6bd 793a 113d 5153 64bd
000000f0: ae43 063d 3f3c 43bd 1d50 fc3d dc0e 19bd
00000100: c4be 6b3d 96ce 3d3d 1072 833d e783 343c
00000110: 3b65 933d 0223 03ba 2fd5 863d 4916 07bd
00000120: f35f c33d 3260 a5bd c467 bbbc 7a2c 943c
00000130: 43d0 a3bc 60e5 f4bc 527d e6bb a6d9 aebc
00000140: 6512 b83d 8bcf 2c3d 1b9a c33d effe 983d
00000150: ca28 02bc da96 a6bd 3c85 153d 5285 90bd
00000160: b7be 363d 7f97 583d 42e1 b13a f0c7 013d
00000170: 8dee 3239 6e1b aa3d 94b8 e73c bd42 7ebd
00000180: 65ac c1bd 4fb4 b03d 686a 8fbd c808 fcbc
00000190: 1b1c 21bc 0051 8bbd 2b26 cc3c 102a 643a
000001a0: 4dc6 c7bd 859a 62bc 6582 97bd 00c3 f7bc
000001b0: 11a8 6ebd b5a0 da3a 0c9d 10bd 063a de3d
000001c0: 7b3e a4bd 9788 05bd 41d7 453d 981b ce3d
000001d0: 88aa b63d a647 aebd 688b 48bd 01a0 b83d
000001e0: c696 98bd b64d a5bd 05b2 93bd cd42 95bd
000001f0: 38a3 b83d d338 483d 439f 9f3d bf7a 59bd
00000200: bf29 663d 8802 b4bd f0d1 603d d8fc cf3d
00000210: e997 d23d f159 d6bd db39 d9bd 6d1a 76bd
00000220: 0ef0 a83b eea7 b53c aa1e 5f3c 5876 ccbd
00000230: f322 01bd 44f0 cf3c 4080 8fbd 8e45 f53c
00000240: 6db8 3ebd be4e c93d fdb8 143d 3219 11bd
00000250: b456 513d 60c2 c53d 94d3 38bd 5acd cfbd
00000260: 0550 8ebd c75a cebd b012 bdbd ef9b 60bd
00000270: e9c6 203c dffa 0c3d 7547 233b 2123 28bc
00000280: 3d37 3dbd c69d f03d 1e85 50bd f4d2 80bd
00000290: 1f8f 56bd ce39 c7bc 1683 7bbd f6bc 1e3d
000002a0: 9b0b 84bd 8e8b 34bd f6c6 253d 1292 f43d
000002b0: f604 58bd 763e 8f3d 8a82 c6bd 9175 573d
000002c0: ad1e da3c 8a15 a93d f23a 0fbc 25fd 8f3d
000002d0: a88e 8abd e44e 4c3d 1a71 9bbb fadb e33b
000002e0: 1464 99bd 7858 f73d 89b2 2fbd f6fa a93c
000002f0: 230c 78bd cb2a b33d 4e58 b63c 0686 003d
00000300: 2910 093d 1b12 b2bd effa e2bc 15d0 6a3d
00000310: ef1a aa3d de6a fd3c cb14 50bd 69bc eabc
00000320: c897 8f3d 4a5f 84bc 1cdf 413c d43f 6e3d
00000330: 6f63 41bc 3998 a8b9 4c48 94bc fb2d 8fbd
00000340: 06a7 ce3d 6bb1 c63d e679 a73c 92e9 b1bd
00000350: fbd4 b93d e779 b9bd 7807 313d 8396 b43d
00000360: b084 13bd 94f5 23bd 5d7b 8fbd 373b e13c
00000370: bb8c d6bc 26a1 39bd 5a1f 95bd cd92 893d
00000380: b563 673c f12c d03c 6eb2 5a3d 0fa3 9e3d
00000390: 2662 02bd a84e 1c3d 6ffe acbd 1ea4 043d
000003a0: 6a04 24bd aadb 0a3c ab87 3e3d b416 87bd
000003b0: 706c b63d fd0e 7fbd 8d6e 723d 8393 9b3c
000003c0: 9493 b5bd 8e7d 6f3d 4f11 d93d 8b78 1e3d
000003d0: 1143 a1bd fde4 d9bd 0206 dbbd f99a f4bc
000003e0: 23cd c13c eb0e 8d3d c7af 95bd 8f6b d2bc
000003f0: e439 353d c3de aabc a9bf 893d 5c66 2ebd
0.07699661 0.057896025 0.025975727 0.013869582 0.10150885 -0.09171608 0.116082855 -0.041896865
0.0942087 -0.049122535 -0.06182663 -0.06384705 -0.009916212 -0.046551 0.09927798 0.015243747
-0.06989544 0.08488902 -0.034322206 0.02997375 0.054673634 -0.038525634 -0.06752702 -0.0516613
-0.045499194 -0.030139606 -0.08810842 0.06675129 0.04134499 -0.044044122 -0.04378472 0.0961866
-0.016451178 0.035322152 0.03810113 -0.034120787 -0.05580512 0.03367901 0.09293001 -0.07174888
0.07043658 0.028278194 0.043148205 0.03209953 -0.10450962 -0.05509808 0.10777984 0.018608205
-0.072692975 -0.075950414 0.116748266 -0.046290383 0.084412135 0.025656898 0.056387033 -0.06577252
-0.046101935 -0.10483422 0.035456154 -0.05574352 0.032779388 -0.047664877 0.12319968 -0.037367687
0.057554975 0.046339594 0.0641824 0.011017776 0.071970426 -0.000500247 0.0658363 -0.032980237
0.09539785 -0.080749884 -0.022876628 0.018087614 -0.019996768 -0.02989453 -0.0070339823 -0.021344017
0.089878835 0.042190116 0.09550878 0.074705 -0.007944295 -0.081342414 0.036504015 -0.07056679
0.044615474 0.052878853 0.001357116 0.031684816 0.0001706427 0.08306013 0.028286256 -0.062075365
-0.0945671 0.08628141 -0.07002717 -0.030765906 -0.009833361 -0.06802559 0.024920544 0.00087037776
-0.0975462 -0.013830786 -0.07397918 -0.03024435 -0.05826575 0.0016679975 -0.03530602 0.10850911
-0.0801973 -0.032600965 0.048300985 0.10063857 0.08919245 -0.085097596 -0.048961073 0.09014893
-0.07450633 -0.08071463 -0.07211689 -0.07288132 0.090155065 0.048882317 0.07794049 -0.053095575
0.056192156 -0.08789545 0.054887712 0.10155648 0.10282881 -0.10466374 -0.10606738 -0.060083795
0.00515557 0.022174802 0.013618151 -0.0998351 -0.03152747 0.025383122 -0.070068836 0.029940393
-0.0465626 0.09829472 0.03630923 -0.03542442 0.051108077 0.09656215 -0.04512365 -0.101465896
-0.06948856 -0.10075908 -0.0923208 -0.05483621 0.009813049 0.034418937 0.0024914418 -0.010262282
-0.046195257 0.11748843 -0.0509082 -0.06290236 -0.052382585 -0.024319556 -0.06140431 0.038754426
-0.06447526 -0.044078402 0.040472947 0.11941923 -0.052739106 0.06994335 -0.09692867 0.052602354
0.026625955 0.082560614 -0.008742081 0.07030705 -0.06765491 0.049879923 -0.0047437074 0.0069537135
-0.074897915 0.12077421 -0.042894874 0.02074955 -0.06055845 0.087483965 0.022258904 0.031377815
0.033462677 -0.086948596 -0.027707545 0.05732735 0.083059184 0.030934747 -0.05080108 -0.028654294
0.07011372 -0.016158719 0.011832979 0.05816634 -0.011803492 -0.00032156872 -0.01810088 -0.06991192
0.10090451 0.097018085 0.020443868 -0.08687128 0.09073826 -0.09056454 0.043220013 0.0881777
-0.036015213 -0.040029123 -0.070059516 0.027494056 -0.026190152 -0.0453197 -0.072813705 0.06717453
0.014122893 0.025412055 0.05339282 0.07745945 -0.031831883 0.03816095 -0.08446967 0.032383077
-0.040043272 0.008475224 0.0465161 -0.06596127 0.089074016 -0.062270153 0.05918746 0.018991238
-0.08866039 0.058469348 0.105990045 0.038689177 -0.0787412 -0.10639379 -0.10694505 -0.029859053
0.023657387 0.06887611 -0.073089175 -0.025686054 0.044244662 -0.020858174 0.067260094 -0.042578086

lstm.weight_hh_l0 f4 [512, 128]
00000000: dd4d 95bd 503f 87ba 9d9d fe3c c59e 9fbc
00000010: a0d9 ed3c c6a0 8cbd 2a74 38bd 2f8c bfbc
00000020: 2ac1 0dbd a9f8 86bd ba28 843d b145 cd3d
00000030: c503 b93c 5006 82bb 79fc c33d 7f7e b63d
00000040: 9a82 86bd 5942 f03c 28f0 363d f604 563d
00000050: eb46 1bbd 6c99 413c 6d74 d83c f0b2 c7bc
00000060: b324 cd3d f83e c93d 1aab 843d edf0 92bc
00000070: 4bcb 4d3d 24be 40bc 08ce 8fbd 60bf a7bd
00000080: bcc8 e53c efe1 853d ae69 ce3c f255 16ba
00000090: 237d 11bd d903 4c3d c950 81bd 81be d63d
000000a0: 4ad2 813d 54ba 1f3d e7bd 60bb 8c3c 55bd
000000b0: f87c 27bd 1d66 62bd 73e4 893d 64ee 763d
000000c0: fa7f e73b 22af ed3c c012 853d ea9d 9bbc
000000d0: d521 6d3b c804 5fbd a565 213d e3e1 883d
000000e0: 505f 2ebd b5df aa3c 30fd ab3d c8a4 8e3d
000000f0: bc79 bd3c 2db8 a5bd 5f31 d2ba 8e54 ba3c
00000100: 0a2d 223d 2ccc c63b 4a71 d8bd 0bd4 3ebd
00000110: 1ce5 ca3d 0dfe 6a3d fbd8 4dbc b2c7 93bc
00000120: af09 6dbb 54f6 0dbd cf55 52bd a5bc 223d
00000130: c486 31bd 14e5 9dbd 1b47 edbc 8668 fc3c
00000140: 853c 85bd 2f07 9abd cb3d 60bd 9fe9 9f3d
00000150: ce17 6ebd 2e4b 833d ce01 8abd 9e47 a43d
00000160: 3921 ec3c 483a a6bd 20e9 183c ed0f a73d
00000170: 7c35 013c 35d1 023d 20f1 bb3d 24b6 4ebd
00000180: b109 eabb 167b 7cbc a024 04bc 6913 a43d
00000190: 2374 be3d 01a6 e1bc 2b02 e43d b2f9 f13c
000001a0: 69ce b1bd 4bef 61bc a667 5ebd 8721 90bd
000001b0: 3d6c b43d 8a4e 90bd 1662 26bd 68a9 9d3d
000001c0: 2d33 083d f7cc a13d f5b3 463d 7c96 92bd
000001d0: 7ec3 8b3c c34b a6bd 019f 9cbd de81 45bd
000001e0: 43fe 8f3d 91d4 59bd a266 813c 22b9 a7bd
000001f0: cc14 8ebd 34d8 20bc 2eaf 94bc ba73 7e3c
00000200: 3ffe 543d 89ae 70bd d749 533c f122 24bd
00000210: bf86 723d b65a 843d 298c 6f3d adc5 90bb
00000220: b0f5 043d 5252 81bd bfa5 893a 02d0 d93b
00000230: 1f96 0a3d fa4a ccbc a40e b2bd 757a b43d
00000240: 6038 58bd 54c2 4ebd 4782 8fbc fe75 b1bd
00000250: 28b0 6d3d 52d5 ad3d 832f 9dbc 278a c13d
00000260: 07e4 213c b93b acbc c44d f2bb fc59 bc3d
00000270: 69fa 9a3b 1151 2fbb a388 813d 460e 923d
00000280: 9735 3ebd 9d0f c7bc b8d8 dcbc 3334 b63d
00000290: 4ce7 5e3d fdb8 903d c046 8a3d 2809 ab3d
000002a0: a09a cb3c b87e 8fbd 3c6c b2bd 8c0a bb3c
000002b0: 2d2c a2bd bc95 b73d 3398 8f3d fb94 393d
000002c0: 55da 6e3c cca0 c63c 6b56 293b 5ba8 6c3c
000002d0: 29f8 983d 06b4 42bd 0679 2abd 4ac3 2e3d
000002e0: 3b70 173d 3bb3 a63d 0229 b93d 0cdb 7c3c
000002f0: 51c5 3a3d 7708 373d 99c5 8a3d 239f 9abc
00000300: 2e5c ebbb 3654 5dbd 623f a23d 282d aa39
00000310: b7b9 ae3c 70f4 1cbd eae2 31bd d1f5 023b
00000320: 07ab 06bd 5ebf 87bd 711d 45bd d412 173d
00000330: 87d3 49bd c73e 493d 6005 8c3d 8629 4cbd
00000340: 217a e93c 2907 e6bc a12c aabd f94e c43d
00000350: 55dc 3bbd 7003 38bd 230e 44bd 2aad fa3c
00000360: ee1c 5bbd c4d3 84bc 63c2 413d 59c2 7d3d
00000370: 3998 9a3c 69a7 6f3d 48fb 0f3d c097 07bd
00000380: a4b8 683d 6334 6ebd 3ec8 733d b406 0abd
00000390: 999c be3d 42f6 3ebc aa54 a13c 201b 373d
000003a0: 5fd9 b8bd 27d2 72bd 1984 71bd 3ff0 bf3d
000003b0: b394 b4bd 2da0 713d a561 5d3d 37dc 9e3a
000003c0: 45e8 8c3d 8952 933d 699f df3c 5f99 9cbd
000003d0: 4496 afbd 817d e33b 785a b53c 1a57 a3bb
000003e0: 1979 483d 659b 653d 9aef 093c a074 a23d
000003f0: 4f75 e4bc 1967 a73c 0616 e33c c3fd a9bd
-0.07290242 -0.0010318551 0.031081015 -0.019484887 0.029034436 -0.068666026 -0.045032658 -0.023382274
-0.034608044 -0.06590397 0.064530805 0.10023058 0.022584805 -0.0039680377 0.0956964 0.08910846
-0.06567879 0.029328512 0.044662625 0.052250825 -0.03790943 0.011816364 0.026422704 -0.024377316
0.100167654 0.098264635 0.064779475 -0.017937148 0.050242703 -0.011764083 -0.07021719 -0.08190799
0.02804982 0.06537234 0.025196876 -0.0005734853 -0.03551973 0.049808357 -0.06314237 0.104855545
0.063389376 0.038996056 -0.0034292878 -0.052059695 -0.040890664 -0.055273164 0.06733026 0.06028594
0.0070648165 0.029014174 0.06497717 -0.018996198 0.0036183496 -0.05444792 0.039403576 0.066837095
-0.042571366 0.020858625 0.08397901 0.06965023 0.023129337 -0.08091769 -0.0016036442 0.022745397
0.039593734 0.0060668197 -0.10568483 -0.04658894 0.099069804 0.057371188 -0.012563939 -0.018039558
-0.0036169102 -0.034658745 -0.051351365 0.039730687 -0.043341413 -0.07709709 -0.02896457 0.03081156
-0.06505684 -0.075209014 -0.05474643 0.078082316 -0.05812817 0.06410824 -0.067386255 0.080214724
0.028824436 -0.08116585 0.009332925 0.081573345 0.007886287 0.031937797 0.0917685 -0.05046667
-0.0071422686 -0.015410205 -0.008065373 0.08011515 0.09299495 -0.027544977 0.11133226 0.02953801
-0.08681948 -0.013789962 -0.054298066 -0.07037645 0.08809707 -0.0704623 -0.040620886 0.07698327
0.03325193 0.07900422 0.048511464 -0.07157609 0.017060991 -0.08119919 -0.07647515 -0.048219554
0.070309184 -0.053181235 0.01579601 -0.08189608 -0.069375604 -0.009817172 -0.018149938 0.015530521
0.05200028 -0.0587602 0.012896023 -0.040072385 0.059210535 0.06462614 0.058483277 -0.004418096
0.03246087 -0.063145295 0.0010501667 0.006647111 0.033834573 -0.024938095 -0.08694199 0.08812419
-0.05278814 -0.050478294 -0.017518176 -0.08665083 0.058029324 0.08487953 -0.019187694 0.094501786
0.009881026 -0.021024572 -0.0073945243 0.09196851 0.0047295582 -0.00267512 0.063248895 0.07131629
-0.046437826 -0.024299437 -0.026958808 0.08896675 0.0544198 0.07066534 0.06751776 0.08351356
0.024854004 -0.070065916 -0.0871205 0.022832178 -0.07918582 0.089641064 0.070114516 0.045308094
0.014578422 0.024246596 0.0025838863 0.014444436 0.07469208 -0.047534965 -0.041619323 0.04266671
0.036972266 0.08139654 0.09041025 0.015433084 0.04559833 0.044685807 0.0677597 -0.01887471
-0.0071826195 -0.054035388 0.079222456 0.0003245857 0.02132879 -0.03831905 -0.043429293 0.0019982944
-0.032877948 -0.06628297 -0.04812378 0.03688319 -0.049273994 0.049132135 0.06836963 -0.049844287
0.028500618 -0.028079586 -0.083092935 0.09585375 -0.045864422 -0.044925153 -0.047865044 0.03060015
-0.053494386 -0.016214259 0.047304522 0.061952922 0.018871414 0.058509264 0.03515175 -0.033103704
0.056816712 -0.05815543 0.059517138 -0.0336978 0.093072124 -0.011655392 0.019693691 0.044703603
-0.09025835 -0.05928245 -0.05896387 0.09371995 -0.088174246 0.058990646 0.0540482 0.0012120072
0.068802394 0.07193477 0.027297692 -0.07646441 -0.08573583 0.0069424515 0.022137865 -0.0049847485
0.048943613 0.0560564 0.008418942 0.07932401 -0.027887968 0.020434903 0.027720463 -0.08300354

lstm.bias_ih_l0 f4 [512]
00000000: 445a a63c cf54 1c3c 3c75 5c3c 32af 053c
00000010: 25b6 153c 10a0 af39 d425 843c ee4f 5b3a
00000020: dadd 03b9 d72f 173a 662e 8b3b 6a71 e73a
00000030: ea70 463c a6ee d33b ef7a 753c 9821 b53b
00000040: 2078 993b 45a2 e53b ce7b fe3b a203 cebb
00000050: f04d 2d3b cd58 2b3c 8765 013c a986 dd3a
00000060: b32a b83b 4149 fc3a 074e 223b 883a 023b
00000070: 8182 06bb 134a 2ebc 5d5c 173b 583a 9f3b
00000080: e725 8e3c caa5 563b cf49 513c af56 ba3b
00000090: eeca d63b 10eb e43b d02e 223b 743b 743b
000000a0: e774 123c 614f 963c d0d9 faba b4d8 6abb
000000b0: 0580 fa3b 031d eb3b 6a3d b83b 0ee8 883b
000000c0: 29f6 78bb 7a2f c4b8 24a7 663c 23af d23b
000000d0: cce0 383c e3e5 983c e72b e13a bcca 8e3c
000000e0: af2a 8c3b 6b3b f03a c0cc 8d3b f28d 273c
000000f0: 9206 f53b 7476 6d3b 1aae c3ba 040a 0d3c
00000100: 62b8 a23a fe97 293b e627 153b 7477 613c
00000110: 283a 2c3b bf83 353c 316a 8b3c d916 5c3c
00000120: f91b e93b 76e5 023c e330 0d3c 0bd8 333c
00000130: 38d9 a63b 2c6a 873b 3087 293c 142e 9b3a
00000140: feff 12ba b45d 1d3c 7de4 9f3b 4262 123c
00000150: 98d0 103c 9d8b 5f3c f3b3 4eba 4777 a03b
00000160: a9fd 463c 0ab1 733b e857 663c b1a2 b03a
00000170: c4c7 7b3b 36bb 813c 4108 363b afbe 1d3b
00000180: 803f 363c 4224 fd3b cb1e 223c 19a6 57ba
00000190: 10a9 7f3c bea1 cebb 298e 7f3c 2fcc 653a
000001a0: f3bb b839 f49d 583b 868b ef3b 0867 883c
000001b0: 226d 4b3c 9122 793c 0c8c 443c b75f a83a
000001c0: bc63 7d3b a732 f33b 6615 243b 788d b63c
000001d0: d6ca 443b dd02 c43a e72a da3b d586 443c
000001e0: c668 2a3c e456 223c c2a3 95bb 6893 9a3b
000001f0: 4caf 453b 5a10 7e3c 1f8b 963a 0c8a 1c3b
00000200: a922 203c 3d3d d13b 8c24 923a 91b1 5839
00000210: 369d c73b 203c 293a e817 343c 1462 5bb9
00000220: 8922 0ab9 5e92 7f39 c0ce 1e3c 2a24 3b3b
00000230: 8f11 84bb ba8b 643b d3d4 e3ba b3cf f73b
00000240: 8f7b 743b 6516 8a3a 70db 8cbb 0149 25bb
00000250: 0487 03bb 92cd 213c 1005 313a 6ef8 323a
00000260: 8aec ec38 a084 813a 89e8 d1ba f01c 1b3a
00000270: 9d17 8f39 5366 973b e3fd 8abb 0d0e 043b
00000280: 2a9f d63b fabb fd3a fead 433c 7fb3 78b6
00000290: 6502 153c 7db4 c33b b5fb 673b 5556 003b
000002a0: 2a4b 933b 37d6 493c 4b3c 7a3a ceba dcba
000002b0: ffe8 da3b 6e15 9d3b 970d 3c3b 5099 c13b
000002c0: e0d6 79bb c8bb f2b8 ffe3 ea3b 0741 cb3a
000002d0: 471e da3a 02be 3f3c 7b2d 073b 8433 473c
000002e0: b96d b6ba 597d a33a be6b d8b9 567b 783b
000002f0: 369e 4b3b 9015 223b c0fe c5bb 088d fd3b
00000300: 659a ccba 4aab 2a3a 750a 933a 1120 3a3c
00000310: 3a37 d9bb cc43 7b3b cab5 b93b a873 ff3a
00000320: e2de d7ba 9c69 aa3b 8104 e4bb 635b 6c3b
00000330: 9cdc a23b 8aa7 76ba 241a 21bb 4789 03bb
00000340: cdb3 04ba 35a0 623b d0ba 643b cc33 8f3b
00000350: 77ce 123c c9c2 493c 48b1 df39 ba4a 50b9
00000360: 16af a03a 13c9 103a 506d d43b bb4c ad3a
00000370: c041 a338 7b1e 593c 4730 383a 8317 063a
00000380: be67 0e3c 51be 4d3b b50a 793a 4cca 78bb
00000390: 3a08 903b f447 d1bb f58b 513c e0cd 243b
000003a0: f323 4e3a 57ab 183b b2b2 87bb a03f a73b
000003b0: 15f5 4d3b e68b 873c 8fef 7a3b 19f4 1db9
000003c0: cbe9 5bbb 35d7 7abb 00cf 76bb b1a0 a73c
000003d0: b058 67ba a2ac 8939 6d60 633b c207 893c
000003e0: d52b d43a f10a 3a3b e6c7 1e3b 8921 603b
000003f0: b849 3a3b b218 983c 3960 2839 0b05 3aba
0.020306714 0.009541704 0.013455685 0.008159446 0.009137665 0.00033497857 0.01613132 0.00083660975
-0.0001257578 0.00057673216 0.0042474745 0.0017657701 0.012111882 0.006467658 0.014982923 0.0055276863
0.0046835095 0.0070078694 0.0077662235 -0.006287054 0.002644416 0.0104581835 0.007897741 0.0016901094
0.0056203245 0.0019247906 0.0024765746 0.0019871313 -0.0020524564 -0.010637778 0.0023095824 0.00485925
0.017352058 0.0032752627 0.012773945 0.005686603 0.006554953 0.0069860294 0.002474714 0.0037266882
0.0089390045 0.018348398 -0.00191384 -0.0035834732 0.0076446556 0.0071750893 0.0056225555 0.0041780537
-0.003798852 -9.3548515e-05 0.014077935 0.0064295693 0.0112840645 0.018664306 0.0017179222 0.017430656
0.004277549 0.0018328255 0.0043273866 0.0102267135 0.00747759 0.0036233934 -0.0014929206 0.008608345
0.001241457 0.0025877948 0.0022759377 0.01376139 0.002627978 0.011078774 0.01701841 0.013433182
0.0071139303 0.007989278 0.0086176125 0.010976802 0.0050918125 0.0041325297 0.010347173 0.0011839294
-0.0005607604 0.00960486 0.004879533 0.008934559 0.008838795 0.013644126 -0.0007885091 0.0048970315
0.012145438 0.003718438 0.014059044 0.001347622 0.003841863 0.01583634 0.0027775916 0.0024069955
0.011123538 0.0077252695 0.009895037 -0.00082263496 0.0156042725 -0.0063059023 0.0155978585 0.00087660825
0.00035235248 0.0033053132 0.0073103337 0.016650692 0.012416156 0.015205995 0.01199628 0.0012845908
0.0038664183 0.0074218097 0.0025037169 0.022284254 0.0030028126 0.0014954467 0.0066579464 0.011995037
0.0104009565 0.009908412 -0.0045666406 0.004717279 0.00301643 0.015506828 0.0011485553 0.0023885993
0.009773889 0.006385474 0.0011149808 0.00020665514 0.006091739 0.00064557977 0.010992028 -0.00020922004
-0.00013173571 0.00024373221 0.009692848 0.002855549 -0.0040304135 0.0034873323 -0.0017382152 0.0075626015
0.0037305092 0.0010535239 -0.00429862 -0.0025220516 -0.002006949 0.009875672 0.00067527685 0.000682718
0.00011297416 0.0009881444 -0.0016014735 0.0005917093 0.0002729268 0.0046203523 -0.0042416914 0.0020149976
0.0065497356 0.001935839 0.011943338 -3.705936e-06 0.009094809 0.0059724436 0.0035397832 0.0019582708
0.0044950442 0.012319139 0.00095457275 -0.001684034 0.0066806073 0.0047938144 0.0028694624 0.005908169
-0.003812246 -0.00011574436 0.0071682925 0.001550705 0.0016641103 0.011703016 0.0020626474 0.012158278
-0.0013918198 0.001247327 -0.00041279005 0.003791531 0.0031069643 0.002473209 -0.0060423315 0.0077377595
-0.0015609978 0.00065105094 0.0011218326 0.011360184 -0.006628898 0.003833997 0.005667423 0.0019489424
-0.0016469622 0.005200578 -0.0069585447 0.0036065213 0.0049701463 -0.00094091205 -0.0024582231 -0.0020070837
-0.0005062193 0.0034580354 0.0034901388 0.0043701883 0.008960358 0.012314507 0.0004266596 -0.00019864264
0.0012259211 0.00055231265 0.0064827576 0.001322172 7.7846926e-05 0.013251896 0.0007026237 0.0005115198
0.008691726 0.0031393955 0.00095001917 -0.0037962375 0.004395512 -0.0063867513 0.012789716 0.0025147125
0.0007863633 0.0023295486 -0.004141175 0.0051040202 0.0031426598 0.016546201 0.003828976 -0.0001506362
-0.00335561 -0.0038275246 -0.0037660003 0.020462366 -0.0008825166 0.00026259298 0.0034694925 0.016727332
0.0016187379 0.002838787 0.0024228035 0.0034199676 0.0028425287 0.018566463 0.00016057574 -0.00070960884

lstm.bias_hh_l0 f4 [512]
00000000: 445a a63c cf54 1c3c 3c75 5c3c 32af 053c
00000010: 25b6 153c 10a0 af39 d425 843c ee4f 5b3a
00000020: dadd 03b9 d72f 173a 662e 8b3b 6a71 e73a
00000030: ea70 463c a6ee d33b ef7a 753c 9821 b53b
00000040: 2078 993b 45a2 e53b ce7b fe3b a203 cebb
00000050: f04d 2d3b cd58 2b3c 8765 013c a986 dd3a
00000060: b32a b83b 4149 fc3a 074e 223b 883a 023b
00000070: 8182 06bb 134a 2ebc 5d5c 173b 583a 9f3b
00000080: e725 8e3c caa5 563b cf49 513c af56 ba3b
00000090: eeca d63b 10eb e43b d02e 223b 743b 743b
000000a0: e774 123c 614f 963c d0d9 faba b4d8 6abb
000000b0: 0580 fa3b 031d eb3b 6a3d b83b 0ee8 883b
000000c0: 29f6 78bb 7a2f c4b8 24a7 663c 23af d23b
000000d0: cce0 383c e3e5 983c e72b e13a bcca 8e3c
000000e0: af2a 8c3b 6b3b f03a c0cc 8d3b f28d 273c
000000f0: 9206 f53b 7476 6d3b 1aae c3ba 040a 0d3c
00000100: 62b8 a23a fe97 293b e627 153b 7477 613c
00000110: 283a 2c3b bf83 353c 316a 8b3c d916 5c3c
00000120: f91b e93b 76e5 023c e330 0d3c 0bd8 333c
00000130: 38d9 a63b 2c6a 873b 3087 293c 142e 9b3a
00000140: feff 12ba b45d 1d3c 7de4 9f3b 4262 123c
00000150: 98d0 103c 9d8b 5f3c f3b3 4eba 4777 a03b
00000160: a9fd 463c 0ab1 733b e857 663c b1a2 b03a
00000170: c4c7 7b3b 36bb 813c 4108 363b afbe 1d3b
00000180: 803f 363c 4224 fd3b cb1e 223c 19a6 57ba
00000190: 10a9 7f3c bea1 cebb 298e 7f3c 2fcc 653a
000001a0: f3bb b839 f49d 583b 868b ef3b 0867 883c
000001b0: 226d 4b3c 9122 793c 0c8c 443c b75f a83a
000001c0: bc63 7d3b a732 f33b 6615 243b 788d b63c
000001d0: d6ca 443b dd02 c43a e72a da3b d586 443c
000001e0: c668 2a3c e456 223c c2a3 95bb 6893 9a3b
000001f0: 4caf 453b 5a10 7e3c 1f8b 963a 0c8a 1c3b
00000200: a922 203c 3d3d d13b 8c24 923a 91b1 5839
00000210: 369d c73b 203c 293a e817 343c 1462 5bb9
00000220: 8922 0ab9 5e92 7f39 c0ce 1e3c 2a24 3b3b
00000230: 8f11 84bb ba8b 643b d3d4 e3ba b3cf f73b
00000240: 8f7b 743b 6516 8a3a 70db 8cbb 0149 25bb
00000250: 0487 03bb 92cd 213c 1005 313a 6ef8 323a
00000260: 8aec ec38 a084 813a 89e8 d1ba f01c 1b3a
00000270: 9d17 8f39 5366 973b e3fd 8abb 0d0e 043b
00000280: 2a9f d63b fabb fd3a fead 433c 7fb3 78b6
00000290: 6502 153c 7db4 c33b b5fb 673b 5556 003b
000002a0: 2a4b 933b 37d6 493c 4b3c 7a3a ceba dcba
000002b0: ffe8 da3b 6e15 9d3b 970d 3c3b 5099 c13b
000002c0: e0d6 79bb c8bb f2b8 ffe3 ea3b 0741 cb3a
000002d0: 471e da3a 02be 3f3c 7b2d 073b 8433 473c
000002e0: b96d b6ba 597d a33a be6b d8b9 567b 783b
000002f0: 369e 4b3b 9015 223b c0fe c5bb 088d fd3b
00000300: 659a ccba 4aab 2a3a 750a 933a 1120 3a3c
00000310: 3a37 d9bb cc43 7b3b cab5 b93b a873 ff3a
00000320: e2de d7ba 9c69 aa3b 8104 e4bb 635b 6c3b
00000330: 9cdc a23b 8aa7 76ba 241a 21bb 4789 03bb
00000340: cdb3 04ba 35a0 623b d0ba 643b cc33 8f3b
00000350: 77ce 123c c9c2 493c 48b1 df39 ba4a 50b9
00000360: 16af a03a 13c9 103a 506d d43b bb4c ad3a
00000370: c041 a338 7b1e 593c 4730 383a 8317 063a
00000380: be67 0e3c 51be 4d3b b50a 793a 4cca 78bb
00000390: 3a08 903b f447 d1bb f58b 513c e0cd 243b
000003a0: f323 4e3a 57ab 183b b2b2 87bb a03f a73b
000003b0: 15f5 4d3b e68b 873c 8fef 7a3b 19f4 1db9
000003c0: cbe9 5bbb 35d7 7abb 00cf 76bb b1a0 a73c
000003d0: b058 67ba a2ac 8939 6d60 633b c207 893c
000003e0: d52b d43a f10a 3a3b e6c7 1e3b 8921 603b
000003f0: b849 3a3b b218 983c 3960 2839 0b05 3aba
0.020306714 0.009541704 0.013455685 0.008159446 0.009137665 0.00033497857 0.01613132 0.00083660975
-0.0001257578 0.00057673216 0.0042474745 0.0017657701 0.012111882 0.006467658 0.014982923 0.0055276863
0.0046835095 0.0070078694 0.0077662235 -0.006287054 0.002644416 0.0104581835 0.007897741 0.0016901094
0.0056203245 0.0019247906 0.0024765746 0.0019871313 -0.0020524564 -0.010637778 0.0023095824 0.00485925
0.017352058 0.0032752627 0.012773945 0.005686603 0.006554953 0.0069860294 0.002474714 0.0037266882
0.0089390045 0.018348398 -0.00191384 -0.0035834732 0.0076446556 0.0071750893 0.0056225555 0.0041780537
-0.003798852 -9.3548515e-05 0.014077935 0.0064295693 0.0112840645 0.018664306 0.0017179222 0.017430656
0.004277549 0.0018328255 0.0043273866 0.0102267135 0.00747759 0.0036233934 -0.0014929206 0.008608345
0.001241457 0.0025877948 0.0022759377 0.01376139 0.002627978 0.011078774 0.01701841 0.013433182
0.0071139303 0.007989278 0.0086176125 0.010976802 0.0050918125 0.0041325297 0.010347173 0.0011839294
-0.0005607604 0.00960486 0.004879533 0.008934559 0.008838795 0.013644126 -0.0007885091 0.0048970315
0.012145438 0.003718438 0.014059044 0.001347622 0.003841863 0.01583634 0.0027775916 0.0024069955
0.011123538 0.0077252695 0.009895037 -0.00082263496 0.0156042725 -0.0063059023 0.0155978585 0.00087660825
0.00035235248 0.0033053132 0.0073103337 0.016650692 0.012416156 0.015205995 0.01199628 0.0012845908
0.0038664183 0.0074218097 0.0025037169 0.022284254 0.0030028126 0.0014954467 0.0066579464 0.011995037
0.0104009565 0.009908412 -0.0045666406 0.004717279 0.00301643 0.015506828 0.0011485553 0.0023885993
0.009773889 0.006385474 0.0011149808 0.00020665514 0.006091739 0.00064557977 0.010992028 -0.00020922004
-0.00013173571 0.00024373221 0.009692848 0.002855549 -0.0040304135 0.0034873323 -0.0017382152 0.0075626015
0.0037305092 0.0010535239 -0.00429862 -0.0025220516 -0.002006949 0.009875672 0.00067527685 0.000682718
0.00011297416 0.0009881444 -0.0016014735 0.0005917093 0.0002729268 0.0046203523 -0.0042416914 0.0020149976
0.0065497356 0.001935839 0.011943338 -3.705936e-06 0.009094809 0.0059724436 0.0035397832 0.0019582708
0.0044950442 0.012319139 0.00095457275 -0.001684034 0.0066806073 0.0047938144 0.0028694624 0.005908169
-0.003812246 -0.00011574436 0.0071682925 0.001550705 0.0016641103 0.011703016 0.0020626474 0.012158278
-0.0013918198 0.001247327 -0.00041279005 0.003791531 0.0031069643 0.002473209 -0.0060423315 0.0077377595
-0.0015609978 0.00065105094 0.0011218326 0.011360184 -0.006628898 0.003833997 0.005667423 0.0019489424
-0.0016469622 0.005200578 -0.0069585447 0.0036065213 0.0049701463 -0.00094091205 -0.0024582231 -0.0020070837
-0.0005062193 0.0034580354 0.0034901388 0.0043701883 0.008960358 0.012314507 0.0004266596 -0.00019864264
0.0012259211 0.00055231265 0.0064827576 0.001322172 7.7846926e-05 0.013251896 0.0007026237 0.0005115198
0.008691726 0.0031393955 0.00095001917 -0.0037962375 0.004395512 -0.0063867513 0.012789716 0.0025147125
0.0007863633 0.0023295486 -0.004141175 0.0051040202 0.0031426598 0.016546201 0.003828976 -0.0001506362
-0.00335561 -0.0038275246 -0.0037660003 0.020462366 -0.0008825166 0.00026259298 0.0034694925 0.016727332
0.0016187379 0.002838787 0.0024228035 0.0034199676 0.0028425287 0.018566463 0.00016057574 -0.00070960884

lstm.weight_ih_l1 f4 [512, 128]
00000000: 5b79 9dbd 54d8 b1bc f1a0 273d f7b1 55bd
00000010: 8a95 823c c6d4 c93d 4831 9ebd 3aa4 153d
00000020: d5ab 1d3c dc15 4d3d e5db c3bd 2162 40bb
00000030: 099f 613d fd0c 213d 5e1f 1fbb 37dd caba
00000040: 830e ae3c 53d1 063d b5d3 263d 5378 a93c
00000050: 2266 0b3c d4c0 1bbd 8641 1b3d ff83 173d
00000060: 0032 7b3d a01c 113b a8f4 adbd 245c 523c
00000070: dc82 023d 790a a53d 972e 8bbd 0341 943d
00000080: b080 8dbc 84a4 a2bd 7e87 0b3d 04b0 b93d
00000090: 2f2f b0bd 9bcd 94bd b6c6 af3d 3396 aabd
000000a0: 8203 47bd 9e57 05bd 4302 2b3d 651e 47bd
000000b0: 5cd9 e43c 34db b2bd b0f4 41bb 41f6 0b3c
000000c0: 325d 23bd 3b29 2dbd 9789 f93c 7bdd c83d
000000d0: ba6a 40bc ff58 783d fec3 c5bc 7d0a b4bc
000000e0: 163e c9bc 81cb dfba a966 57bd 0bfb ceba
000000f0: 7291 49bd 44e7 793c 2adc 55bd 501f b33d
00000100: 5b8c 323d 0ab2 23bd e5b0 993d a7d0 9cbc
00000110: 4636 acbd 78f8 97bc b28b 8a3d e5e0 b83d
00000120: 115b 77bd 984f e8bc 26a1 efbc 6640 8d3d
00000130: 9f25 413d 82d5 95bd cfa2 7c3d c536 9e3d
00000140: d781 913c 1802 a8bd e879 4dbd 115d 863c
00000150: a733 ee3b 209a c33d 7025 babc e977 823d
00000160: 6cf2 5e3d b6f8 ff3c d5f9 da3c 1c9b a7bc
00000170: f1cb 5e3c 3f14 533d cc4a 5cbc 50a8 a83c
00000180: 1c67 c63c 99e6 c43d feaf 0e3d c04f 453d
00000190: fc0b 183b 38e2 7bbd ed6a 913d cb37 bdbb
000001a0: 5549 083d dd17 f53c 32dd febc 69ba 71bd
000001b0: c009 183d 77a4 8fbb 6aed ae3c 7a13 bc3c
000001c0: a0a3 f0bb 8329 663c 93ae 78bc 4a00 813d
000001d0: 2d0e aabd cac6 503d fe15 823a a7d1 69bd
000001e0: f6cc 803d f47b 60bc 1dab 803d ec9f 82bd
000001f0: 2671 7d3c 5164 dd3c 9a22 043d 5e44 ba3d
00000200: 37c5 933c 52ce 9cbd bdb2 d23d 3015 9c3b
00000210: 743a 45bd 4003 31bd 8232 8a3c 1965 273d
00000220: a3fc 65bb 5d39 9c3d 03a4 943d 1493 5abd
00000230: 3e3a adbd a726 853d da50 02bd acde 37bd
00000240: 4ed7 e939 2623 b43d b5ad 69bd 2d98 813d
00000250: 2931 953d f5f9 a53d 8643 8d3d c4cd bcbd
00000260: 6677 bfbd ca92 5e3d fa1c ef3c 4804 b5bb
00000270: 7b1d 14bd f67f 363c cb93 35bd ecb8 cebc
00000280: 9e08 92bc b8b2 573d f85a 923d 547f a03d
00000290: 546d 6cbd 01eb 26bd 0de1 5abd 1d39 a8bd
000002a0: c00f 943d 416b 58bd a933 8bbc 6f22 1b3d
000002b0: 9f61 abbd 307e aebd b88c 7ebd c3ac 91bc
000002c0: 1685 903c 59f7 bcbc 0a20 b6bc 5ba8 91bb
000002d0: c8aa 5a3d 6df5 6bbd fc3c 9b3c d958 94bb
000002e0: 2beb b1bd cbdb 9dbd c212 333d fee7 c0bd
000002f0: 3367 12bc 7b59 f8bc 50ba 9e3d 1c06 a43d
00000300: 3fd6 27bd fda6 743d 497e a53d ef6d 0b3d
00000310: 2928 4e3c 0be4 37bd 6e0d 043d 8968 50bd
00000320: 24e6 983d 9c48 b33d a259 b5bc 9ae7 8e3d
00000330: e32e 8abc 8002 bb3d 480c 0f3d 311d af3d
00000340: 4a1e aabd 1e62 c2bd 7d57 913d 8cc1 90bd
00000350: 6d48 bd3d 86b7 66bd b12d dd3c e052 0cbd
00000360: 1461 3bbc 07a7 02bd 4bb7 83bd 2ee1 e63c
00000370: 3165 df3c d847 a03d 1d5a 26bd 106b 48bd
00000380: 8288 9abd 58ba 91bd 44b1 a2bd e606 963d
00000390: d454 373d 889a 303d 618a f9bc 159e 823d
000003a0: 259c 9a3d 20a6 21bd 0a74 8d3c d68b 5b3d
000003b0: 0fd0 1bbd 94cb 913c 5959 7f3d dd83 8bbd
000003c0: 6dd4 2cbd 38dc b63d 9409 1abd b9b1 1bbd
000003d0: 5eb2 04bd acc0 9fbc 516c 8f3d d8b0 dfbc
000003e0: 6d3a 343d e558 98bd cd77 503d fa54 17bd
000003f0: 9288 15bd 93c3 9d3d c054 b23d bf3c fe3c
-0.07689162 -0.021709599 0.04092497 -0.052171674 0.015940446 0.098550364 -0.077242434 0.03653357
0.0096234875 0.050069675 -0.09563426 -0.0029355364 0.05508331 0.039319027 -0.002428017 -0.0015477304
0.021247154 0.03291447 0.040729243 0.020687258 0.008508237 -0.038025692 0.037904285 0.036991116
0.06132698 0.0022142306 -0.0849393 0.012839351 0.03186308 0.08058638 -0.06795996 0.072389625
-0.017273277 -0.07941535 0.034064762 0.090667754 -0.086027496 -0.07265779 0.08582823 -0.083294295
-0.04858733 -0.03255426 0.041750204 -0.04861297 0.027935676 -0.08733216 -0.0029595308 0.008542598
-0.0398838 -0.04227565 0.030461116 0.09807869 -0.011744196 0.06063175 -0.024141308 -0.021977657
-0.024565738 -0.0017074199 -0.05258814 -0.0015791369 -0.049210973 0.015252892 -0.052211918 0.08746207
0.043590885 -0.039964713 0.07504443 -0.019142462 -0.08408789 -0.018551096 0.06764926 0.0902727
-0.060389582 -0.028358266 -0.029251646 0.06897049 0.04715502 -0.07316114 0.061678704 0.0772529
0.017762108 -0.08203524 -0.050165087 0.0164018 0.007269341 0.095508814 -0.02272293 0.06370527
0.05443041 0.031246524 0.026730457 -0.020459704 0.013598428 0.05153298 -0.013445567 0.02058807
0.024219088 0.096142955 0.034835808 0.04817176 0.0023200503 -0.061495036 0.071004726 -0.0057744733
0.03327306 0.029918605 -0.031111334 -0.059015665 0.037118673 -0.0043836194 0.021353442 0.022958506
-0.0073437244 0.014047983 -0.0151783405 0.06298883 -0.08303485 0.05097083 0.0009924767 -0.057084706
0.06289093 -0.013701428 0.06282637 -0.06378159 0.015468871 0.027025374 0.03225956 0.09095071
0.018038375 -0.0765654 0.10287998 0.004763268 -0.04815145 -0.04321599 0.016869787 0.0408679
-0.003509321 0.07628129 0.07257845 -0.05336292 -0.084583744 0.06501513 -0.031815387 -0.04489009
0.00044601638 0.087957665 -0.057050426 0.06327853 0.07284767 0.08104316 0.06897645 -0.09218934
-0.09348945 0.054339208 0.029188622 -0.005524192 -0.036160927 0.011138907 -0.0443304 -0.025234662
-0.017826375 0.052660674 0.07146257 0.07836786 -0.05772145 -0.04075146 -0.05343728 -0.082140185
0.072295666 -0.05283666 -0.016992407 0.037874635 -0.08368229 -0.08520162 -0.06214592 -0.017782575
0.017641585 -0.023067163 -0.022232074 -0.0044451184 0.053385526 -0.057607103 0.018949978 -0.004527193
-0.08687433 -0.07707938 0.04371906 -0.09419249 -0.008935737 -0.030316105 0.0775038 0.08008978
-0.040975805 0.059729565 0.080807276 0.034040388 0.012582817 -0.044895213 0.03223937 -0.050880942
0.07465771 0.087540835 -0.022137467 0.06977768 -0.01686806 0.09131336 0.03492382 0.0855049
-0.083065584 -0.094913706 0.07096765 -0.07068166 0.0924233 -0.056327365 0.026999326 -0.034258723
-0.011436719 -0.03189757 -0.06431445 0.028183546 0.027269932 0.07826203 -0.040613282 -0.048930228
-0.07545568 -0.071156204 -0.07943967 0.073255345 0.044758633 0.043116122 -0.030461492 0.06377808
0.075493135 -0.03946507 0.017267246 0.053600155 -0.038040217 0.017797269 0.062341068 -0.0681226
-0.042194773 0.08928722 -0.03760679 -0.038011286 -0.032396667 -0.019501053 0.070030816 -0.027306005
0.04400103 -0.0743883 0.0508955 -0.036946274 -0.036507197 0.077033184 0.08707571 0.031034825

lstm.weight_hh_l1 f4 [512, 128]
00000000: bc87 91bc 2cbd 61bc 7d11 23bc b36e a6bc
00000010: 160c 8cbd 29df 2fbd c987 503c 0dda 703d
00000020: 32cd bb3d 96e2 ab3d 3e1d 2ebd e02f 5a3d
00000030: 3081 0cbd 056d 703c 67d1 b73d d155 3c3d
00000040: 5e0c 833d caee 4e3d e6b3 82bc 1e22 9e3d
00000050: a93f c23a 5af2 703d 8048 85bd 9566 0d3c
00000060: 2c84 77bd b05f fabb 4a5c a73d 4696 7a3d
00000070: 0854 3b3d 3799 b6bd 09cd b9bd e83a a5bd
00000080: 970d 8bbd 6b0c b83c bfc4 f13c fa02 b83d
00000090: a6db 253d d59a b7bd d405 67bd fc30 9c3d
000000a0: ca2e 4bbd b57d 27bd 91d0 d0bc 408e 803d
000000b0: f45e 913d 581c 3bbd 2281 50bc 0958 e83c
000000c0: a9b2 453c 91bb 573d c1c1 563d 50cc 333a
000000d0: 7d0f 08bd 4824 13bc 533d a8bd c348 9f3a
000000e0: d54a 063d ffa6 363d 84be 993d b388 953d
000000f0: 9d45 4f3d f127 b43d a897 17bd c4ef 68bb
00000100: 8eae e83c c717 b43d 6d01 f9bc 5073 963d
00000110: 285b 5a3d b9a8 d83c a2bd 5fbd 63dd c53d
00000120: de20 12bd 83f7 26bd 152a adbd a137 b0bd
00000130: 3d16 4abc 2903 2c3b 9dd2 d53d 9ed0 96bd
00000140: 8bf9 12bd dc59 2f3d 08bf b8bd a3cb 403d
00000150: a1eb 9f3c aaf1 2e3d 0106 733d e98e 93bc
00000160: 9ac8 e8ba a2b7 05bc cf99 b8bc dc3a 093d
00000170: 0023 613d 5a6a c53b 5c5a 5ebd 7c13 b63d
00000180: 0f76 1b3d 4f9a 50bd 31db d83c ec6c 913d
00000190: 51be 4c3d b0b9 9d3b d141 f73c c1ee c53c
000001a0: 9c5d 0bbc 704a bc3c e248 7fbb ccb0 a1bd
000001b0: 08c6 7ebd 5273 80bd f983 6f3d 2370 b93d
000001c0: 1133 1cbd 0749 86bd 458a b9bd 875d 23bd
000001d0: 8f7f 403d 92ff 84bd f0fe fe3c ec06 a73c
000001e0: f5bf f93c 64da dcbc 9240 89bd d5ef 9d3d
000001f0: 1c21 063d 2b5e abbd f4d8 9fbc 8fd5 92bd
00000200: ac8b 0e3d d4f8 fb3c 7a53 5f3d 317b 4abd
00000210: 0afa 833d 5a01 fb3c f99c 413c 5646 9e3d
00000220: 9ffa 05bd a7a8 e4bc 6fdb ec3b 76c8 aa3d
00000230: a5a8 503d 8c07 a13d 5c62 4dbc fa09 a5bd
00000240: 4f2a 9d3d 8529 02bd 1aea 3bbc e2ee 633d
00000250: 916f 84bd 9e47 803d be3a 1d3c 75f9 323d
00000260: 5ab1 c83d e176 c3bc 1c9e 743c 65b0 bb3d
00000270: 1daf b7bd b7dd a9bd 657d 78bc f638 f73c
00000280: a6e4 1b3d a1c5 46bd b3da 923d 6c82 4c3d
00000290: 2d09 b33c 8e9e 033c 4f60 1ebc cadf 89bd
000002a0: a824 bb3d ef3d 913d 6b58 27bd 6c8d a33c
000002b0: 07a9 a53d 7f22 653d ec37 9cbc 6ac9 aebd
000002c0: 919e 1abb 54e0 373d 31b9 fabc f6e7 a7bd
000002d0: d19b 833d 5161 ab3d ef71 7abc a2dd 8abd
000002e0: 387d bc3d 49f3 bb3d a6a1 9d3d ad5b 573c
000002f0: b988 9ebd 4e8c 273c e005 af3d 9716 1cbc
00000300: 2eef 63bd ee91 5b3d 0443 bcbd 5fa7 a93d
00000310: efb1 ad3d 781d 323d 6971 573d 1d90 02bc
00000320: 77d2 96bd 0ab9 ef3c 12ff e93c 7aef 873d
00000330: 6a25 b2bd 1447 54bc 1a73 213d 12af 7e3d
00000340: 256b 93bd b8cb 483d 4293 0e3d c786 763d
00000350: 55c0 1e3a d739 d53b 8492 183c 200b a1bd
00000360: 5dc5 ee3b 27b5 e1bb 26cd 053d 0640 153d
00000370: 0a2a 403c 97df f1bc 68a7 913d 9aea 993d
00000380: 80fc 963d d142 9e3d f7c7 aebd 2a2e 903d
00000390: 915a a03d d546 4fbd ae4e 9bbd 9c05 a73d
000003a0: 2769 61bd 90cf 0cbd ddd6 273d 23ea 4abd
000003b0: ab1a 6e3d 9110 41bd f9d1 273d 46a7 893d
000003c0: a2f2 b33d c3be 873c 43d0 b43d ada5 833d
000003d0: 0eca 313c 94ab 6c3d 213f 673a bb08 09bd
000003e0: f0b1 803d 97c9 2d3c c07d 56bd feb1 c03c
000003f0: 8709 c13d 200e e5bc 1dca 24bc 25c1 7ebd
-0.017764919 -0.013778012 -0.0099529 -0.020316457 -0.06838243 -0.04293743 0.012727686 0.0588017
0.09169997 0.08392827 -0.042508356 0.053268313 -0.03430289 0.01467443 0.08975487 0.04598028
0.06398843 0.050520696 -0.015954923 0.07721351 0.0014819998 0.058824874 -0.06507969 0.0086304145
-0.060428783 -0.0076408014 0.081718996 0.06117847 0.045734435 -0.08915942 -0.090723105 -0.08067876
-0.067897014 0.022466859 0.029512761 0.08984943 0.040492676 -0.08965079 -0.056402043 0.076265305
-0.04960517 -0.040891368 -0.025490077 0.06277132 0.07098189 -0.045681328 -0.0127261 0.028362291
0.012066522 0.05266911 0.052430872 0.0006858753 -0.033217896 -0.008980818 -0.08214822 0.0012152422
0.03278621 0.044592854 0.07507041 0.07301464 0.050603498 0.08796681 -0.037009865 -0.0035543302
0.028403547 0.08793598 -0.030396188 0.07346213 0.05330959 0.02644764 -0.054624207 0.09661367
-0.035675876 -0.04076339 -0.08455292 -0.0860436 -0.012334404 0.0026247 0.10440562 -0.07364009
-0.035882514 0.042810306 -0.09020811 0.047069203 0.019521536 0.042710938 0.059331898 -0.01801248
-0.0017759979 -0.008161457 -0.02253428 0.0335034 0.05496502 0.006024641 -0.054285392 0.08890435
0.037954386 -0.05092841 0.026471706 0.07100853 0.049986187 0.0048133954 0.03018275 0.024161698
-0.008506205 0.022984713 -0.0038953354 -0.078950495 -0.062200576 -0.062719956 0.05847547 0.090545915
-0.03813464 -0.065568976 -0.09059576 -0.039884117 0.04699665 -0.06494059 0.031127423 0.020389043
0.03048704 -0.026959606 -0.06701769 0.0771176 0.03274642 -0.083675705 -0.019512631 -0.07169639
0.03480117 0.030758299 0.05452297 -0.04943389 0.064441755 0.030640293 0.01181721 0.07728259
-0.032709714 -0.027912451 0.007228307 0.08339016 0.050942082 0.078627676 -0.012535658 -0.080585435
0.07674085 -0.031777877 -0.011469388 0.05564774 -0.06466592 0.0626366 0.009596525 0.043694932
0.09799452 -0.023860397 0.014930274 0.09164504 -0.08968947 -0.08294242 -0.015166615 0.030178528
0.038059853 -0.048528317 0.0717062 0.049929067 0.021854961 0.008033408 -0.009666516 -0.067321375
0.09137851 0.07091891 -0.040855806 0.019964896 0.0808888 0.0559411 -0.019069634 -0.085345104
-0.0023593048 0.04489167 -0.030605884 -0.0819854 0.06426204 0.08368171 -0.015285953 -0.06780554
0.09203571 0.09177262 0.076968476 0.013144416 -0.077409215 0.010226322 0.085460424 -0.00952687
-0.05564802 0.053605966 -0.0919247 0.08283877 0.08481204 0.043485135 0.05259839 -0.00796893
-0.07364362 0.029263038 0.02856401 0.066374734 -0.086985424 -0.0129563995 0.03941641 0.06217868
-0.071981706 0.049022406 0.034808405 0.060187127 0.00060558814 0.006507139 0.009312276 -0.0786345
0.007286711 -0.00688805 0.032666348 0.03643801 0.011728773 -0.029525561 0.07112008 0.0751545
0.07372379 0.07727588 -0.08534234 0.07040055 0.07829774 -0.05060466 -0.07583366 0.08155367
-0.05503192 -0.034377635 0.040976394 -0.049539696 0.0581309 -0.04713494 0.04097173 0.06721358
0.08786513 0.016570454 0.08828785 0.064280845 0.010851396 0.057780817 0.00088213576 -0.03345559
0.06283939 0.010607145 -0.05236602 0.023522373 0.09425645 -0.027960837 -0.010057953 -0.062195916

lstm.bias_ih_l1 f4 [512]
00000000: 2426 fb3b 13c7 273c 462b 3d3b d8a2 373c
00000010: 86fe 33bb 8ad0 973b 954e 9e3b c878 293c
00000020: 9af7 fa3b 1c0e d13b af34 64b9 4a1b b13b
00000030: 99f2 2b3c 698b dc39 e62d a73b 6ddb 273c
00000040: 49af 6c3c f4a1 5a3c 8404 2e3b 06c1 7dbb
00000050: 3021 23b8 6734 c439 16c0 743c 53fb 523c
00000060: 3684 723b 9504 9dba 6649 b23a b2a1 803b
00000070: c18c cd3b 31e6 d63b 7989 3c3b ab7b 583b
00000080: 0a0f 813b c33e b43a 8dbf 2cbb 746a 803c
00000090: fe55 443c 69e4 d33b 000b d63b 1e42 e63a
000000a0: 0bef 1b3c a456 3c3c b995 503c 789a 493c
000000b0: 732d 0f3c ee2b 8b3b 5fb0 e13b 983f 333c
000000c0: bb33 683b 2cc8 633c bab6 d43b db8d 683b
000000d0: d8c6 493b fc5e 39ba aaa2 653c eda0 0fba
000000e0: cf84 773a 33de 913c a9d5 20bb 9a3f f73b
000000f0: afc9 3e3b ef4e 85ba a97e 7f3b 7167 a83b
00000100: b1d7 8d3b 35e4 723c a5e3 f9ba 65c6 273b
00000110: 61d7 dd3b 816b c4bb 75d5 113c 43b0 f8b9
00000120: 79f8 573b c8bf 3d3b 8909 a4ba be25 733c
00000130: 3146 173c d81c a33b 91f9 953c 835f 823b
00000140: 8f85 313b 5c76 0e3b fd70 043b 8a5d a739
00000150: 38cb 1c3c f9e1 843b 06ce 1238 2c45 463c
00000160: bc5c 0d3c 12a9 4b3b 449d 863b f74e 15ba
00000170: a1f7 1f3c 3d68 813c e2e7 253b e3c9 bc3b
00000180: a9b2 56ba 7e15 973a 317f 2d3c 27d2 873c
00000190: 3f23 9c3b 58e0 3b3b 906c 383c 835e 803b
000001a0: dab2 f93b f5d7 2e3b bb3f b93b 73a8 a73b
000001b0: 80a5 fb3a e2d4 223c 6bbe d23b bda2 6f3c
000001c0: e3da 863b aee7 393b 271f 763b 9f64 8c3b
000001d0: 1b31 8b3b 6324 ac3b 9e02 423c 44f1 29bb
000001e0: 9953 053c 3b13 803b 91aa 753b c1bc ee3b
000001f0: c5cc 4a3c 5a79 473b 4d15 783b 571a e23a
00000200: 504c f4b8 9fc6 083c 78b6 3338 3986 303c
00000210: a4b1 14bb 4305 87bb c4e8 9d3b ce47 863a
00000220: 125e 95bb e42e 893b 5842 50ba cb2b 19bb
00000230: a01f d4bb d865 1c38 b095 a9ba f44b 42bb
00000240: fb78 dc3b 3ef3 223c 47c6 a8b6 4720 8ebb
00000250: 3d72 3bbb 146f 0cbb ecd0 6f3c fb08 413c
00000260: d8a4 153b 0d12 53bb bbb9 27ba 93b4 13bb
00000270: c3ae 37ba 1593 8e3b cec5 303b dff9 67ba
00000280: 2649 2abb f534 59bb 2639 beba aa78 97bb
00000290: 0d52 f13b 1f33 723a 8918 b73b 2511 c83a
000002a0: e152 443b f35f 073c eeea ad3b 06dd 2e3c
000002b0: 7dd2 b23b 75f4 eb3a 98e2 7838 8f08 963a
000002c0: 24dd 0dbb a1a5 6fbb 093c 2a3b fa5d 26bb
000002d0: 6a61 19bb 7c8f 8abb fb30 4e3c 2b12 76ba
000002e0: 3e38 323a a350 593c 7869 12bb 4a0b a83b
000002f0: 9707 06ba f3ee 47bb f675 37ba 658f 623b
00000300: 3eb0 0c3b 774f 683c c23e 8cba acd4 4bba
00000310: 40f3 83bb 682f f7bb f0cd c93b 6fab ae39
00000320: 94f1 233a 76a1 46bb 459e 36bb 8df2 22ba
00000330: 4d2b 503b 4ad2 363b e65e 853c c6b8 2b3b
00000340: 815c efbb 13f7 c2ba 4d8f 2a3b b9f8 80ba
00000350: 813e 9b3b e141 c338 e9da 75ba 50ba 313b
00000360: a9ef 993b c9c1 f7b9 808d a1ba 10cb 483a
00000370: a0bd 0c3b fd33 983b fa6a 5239 d0bc 9a3b
00000380: 2867 633a 368d ff39 c38f 5bbb 4dc2 933b
00000390: c16c 653a 1e33 53ba fdf0 273c 5d83 063c
000003a0: d950 8b3a e5b6 75b9 b0ee 4a3b 650c f7b9
000003b0: 363e 28ba 2e2a 2e3b 07f3 b23b eab9 8bba
000003c0: fbf5 5c3b 5235 023b b44d a13b f7f5 e2bb
000003d0: b1ff f5ba dc6f 143b c895 e339 d03d 34bb
000003e0: 9ccf 67bb f502 e9b8 2ee6 943b 9b4f 993b
000003f0: 30fe 243c 0bab afbb d2db 9bb9 6c14 8dba
0.007664459 0.010240334 0.0028864904 0.011208259 -0.002746494 0.004633014 0.004831145 0.010343738
0.007658911 0.006379856 -0.000217634 0.0054048644 0.0104948515 0.0004206554 0.005101907 0.010245186
0.014446088 0.013344277 0.0026552984 -0.0038719787 -3.8893137e-05 0.00037423076 0.014938375 0.012877303
0.0037005073 -0.0011979515 0.0013602197 0.0039255256 0.0062728827 0.0065582027 0.0028768464 0.0033032696
0.0039385604 0.0013751615 -0.002635929 0.01567576 0.011983393 0.0064664376 0.006532073 0.0017567312
0.0095174415 0.011495266 0.012731009 0.012304895 0.008738863 0.00424718 0.00688748 0.010940455
0.0035431224 0.013902705 0.0064915093 0.0035484943 0.0030788686 -0.0007071344 0.014015833 -0.0005478997
0.0009442092 0.017806148 -0.0024541414 0.0075454237 0.0029111912 -0.0010170619 0.0038985407 0.0051392843
0.004328691 0.014824917 -0.0019065036 0.002560043 0.00677006 -0.005994261 0.00890099 -0.0004743357
0.0032954498 0.0028953422 -0.0012515049 0.014840541 0.0092330435 0.0049778037 0.01830748 0.003978671
0.0027087664 0.0021738028 0.0020208948 0.00031922414 0.0095699355 0.0040552584 3.5000987e-05 0.012101453
0.008628067 0.0031076116 0.004108103 -0.00056956656 0.009763629 0.015796775 0.0025315215 0.0057613715
-0.00081900746 0.0011526791 0.010589407 0.0165797 0.004764944 0.0028667655 0.011256352 0.0039175167
0.0076201977 0.0026679013 0.005653349 0.0051165163 0.0019199103 0.0099384505 0.006431391 0.014626202
0.004115449 0.0028366852 0.003755519 0.004284456 0.004247797 0.005253361 0.011841444 -0.002593116
0.008137607 0.0039085425 0.0037485699 0.007285685 0.012377922 0.0030437321 0.0037854493 0.0017250282
-0.00011649041 0.008348136 4.2846863e-05 0.010774189 -0.002268889 -0.0041205003 0.0048190076 0.0010244788
-0.004558333 0.004186498 -0.00079444563 -0.002337205 -0.0064734966 3.7288148e-05 -0.0012938287 -0.0029647322
0.006728289 0.009945689 -5.0298727e-06 -0.004337344 -0.0028602027 -0.0021428512 0.014637213 0.011781926
0.002283385 -0.0032206804 -0.00063982204 -0.002253805 -0.00070069375 0.0043510296 0.002697337 -0.00088491844
-0.0025983541 -0.0033143137 -0.0014512881 -0.0046225386 0.0073645175 0.0009239185 0.0055876416 0.0015263899
0.0029956626 0.008262622 0.005307547 0.010672813 0.005457221 0.0018001931 5.933884e-05 0.0011446642
-0.0021646703 -0.0036567228 0.0025975725 -0.0025385604 -0.002340401 -0.0042285305 0.01258492 -0.00093868625
0.0006798542 0.013263854 -0.0022340696 0.005128299 -0.00051128253 -0.0030507415 -0.00069984735 0.0034570333
0.0021467353 0.014179102 -0.0010699856 -0.0007775526 -0.0040268004 -0.007543493 0.006158583 0.00033315594
0.00062539545 -0.003030864 -0.0027865332 -0.00062159525 0.003176409 0.0027896338 0.016280603 0.0026202663
-0.0073047285 -0.0014874659 0.0026025355 -0.000983975 0.0047376757 9.3105955e-05 -0.00093786285 0.0027119108
0.004697759 -0.00047255892 -0.0012325495 0.0007659653 0.002147533 0.0046448694 0.00020067013 0.0047222152
0.0008674734 0.000487426 -0.0033502437 0.0045092464 0.00087518623 -0.0008056628 0.010250327 0.00821003
0.0010628953 -0.00023433154 0.0030965023 -0.00047120746 -0.00064179616 0.0026575434 0.0054611 -0.0010660265
0.0033715952 0.0019868207 0.004922593 -0.006926294 -0.0018768219 0.0022649681 0.0004340841 -0.0027502663
-0.0035371548 -0.000111108566 0.004544041 0.004678679 0.010070369 -0.005360966 -0.00029727683 -0.0010763532
