models/3inst/checkpoint/AMDGVTC.pth (torch, 876348 bytes, 13 tensors)

lstm.weight_ih_l0 f4 [512, 5]
0.07759742 0.058158405 0.023678001 0.014193785 0.10180831 -0.09073654 0.11632915 -0.042220954
0.09428978 -0.049026836 -0.061663974 -0.06353807 -0.010976032 -0.046497356 0.09930118 0.014104222
-0.06996657 0.08477206 -0.034332108 0.029951423 0.052951917 -0.04074002 -0.06760751 -0.051936157
-0.045845825 -0.030846449 -0.08795347 0.06673703 0.04142497 -0.044012453 -0.046848986 0.09445204
-0.016918099 0.034389712 0.037190642 -0.03430266 -0.05606958 0.033620525 0.09317856 -0.071520366
0.07005037 0.028444825 0.04319922 0.032259382 -0.10435625 -0.055595104 0.10789679 0.018304583
-0.07204202 -0.075367704 0.11609048 -0.046532717 0.084217966 0.02583436 0.056479022 -0.06490719
-0.04654769 -0.10447139 0.035111364 -0.056043535 0.03196942 -0.04730629 0.1212453 -0.037209988
0.057683755 0.046108738 0.06315379 0.011073187 0.07191114 -0.0005801769 0.0684324 -0.03372439
0.0935612 -0.081026636 -0.022989614 0.018241987 -0.019727638 -0.030217262 -0.0068511367 -0.021220822
0.08936875 0.042201623 0.095539816 0.07484219 -0.00779381 -0.08153705 0.035985835 -0.07098052
0.044547547 0.05280419 0.0016485935 0.032441996 -0.00070784247 0.08327928 0.02855935 -0.06072288
-0.094483815 0.086265825 -0.070741236 -0.03132765 -0.00978006 -0.06804687 0.024850849 0.0008256658
-0.09758943 -0.012783528 -0.07437074 -0.0302635 -0.058125854 0.0017228774 -0.035511583 0.10874799
-0.080127046 -0.03230845 0.048576783 0.10164344 0.0890398 -0.08489021 -0.0496261 0.08946466
-0.07412569 -0.0806849 -0.07241555 -0.07296491 0.09010117 0.04917609 0.077610716 -0.052829847
0.055600777 -0.08846514 0.055392627 0.10148048 0.10270785 -0.10470707 -0.10607612 -0.05991038
0.0049888347 0.0219574 0.013593462 -0.099850535 -0.03103194 0.025283266 -0.070028275 0.030132096
-0.04633958 0.09668913 0.0357231 -0.03579246 0.050715603 0.09617353 -0.044727534 -0.101491414
-0.06972981 -0.100843325 -0.09238562 -0.055253364 0.009734128 0.03433664 0.002343283 -0.01044508
-0.046423234 0.11610746 -0.053131647 -0.062786944 -0.05220056 -0.024012096 -0.06149986 0.038971238
-0.06422058 -0.043873284 0.03845593 0.118999206 -0.053181063 0.06972212 -0.09715368 0.052840553
0.026329726 0.08226761 -0.008834215 0.07023215 -0.06711196 0.049389858 -0.004851379 0.0068566618
-0.07500434 0.121419534 -0.042251304 0.021215659 -0.06044447 0.08771411 0.02177371 0.031437468
0.03355115 -0.08695476 -0.027672976 0.057200294 0.0827694 0.030843586 -0.051092036 -0.028934468
0.06948919 -0.016402965 0.011135037 0.05827524 -0.01169858 -0.00041452373 -0.018292813 -0.07087397
0.10059408 0.09666715 0.019415267 -0.087018125 0.09077251 -0.09047466 0.04329805 0.088213585
-0.036098037 -0.039949164 -0.07004305 0.027502323 -0.029169185 -0.04606151 -0.07274577 0.0672118
0.01403591 0.025081212 0.05350523 0.07733939 -0.03174746 0.03825347 -0.08429485 0.033037603
-0.040139105 0.008459018 0.046508018 -0.06658898 0.089032695 -0.062103983 0.05940485 0.01921364
-0.08849001 0.05843733 0.105944075 0.038372397 -0.07899867 -0.10745846 -0.10667268 -0.029933421
0.023794755 0.06899764 -0.07342491 -0.026360096 0.043765105 -0.020949513 0.067157514 -0.042213846
00000000: 65eb 9e3d 8237 6e3d 5ef8 c13c 0d8d 683c
00000010: e080 d03d 14d4 b9bd fa3d ee3d e1ef 2cbd
00000020: 001b c13d 5dd0 48bd 5d93 7cbd 3f20 82bd
00000030: d1d4 33bc 0374 3ebd 6b5e cb3d 6515 673c
00000040: a24a 8fbd f99c ad3d d39f 0cbd b05c f53c
00000050: 1ce4 583d 02df 26bd ce75 8abd 02bb 54bd
00000060: d5c8 3bbd b1b1 fcbc f320 b4bd 6dad 883d
00000070: 3bad 293d 6746 34bd b9e4 3fbd 1270 c13d
00000080: d397 8abc 3adc 0c3d 3755 183d f280 0cbd
00000090: 37a9 65bd adb5 093d 67d4 be3d 4579 92bd
000000a0: 9276 8f3d 1f05 e93c aaf1 303d 6a22 043d
000000b0: bbb8 d5bd b1b7 63bd fef8 dc3d 7ef3 953c
000000c0: c48a 93bd 625a 9abd d8c0 ed3d 1799 3ebd
000000d0: 787a ac3d 94a2 d33c 8c56 673d 10ee 84bd
000000e0: caa8 3ebd 19f5 d5bd efd0 0f3d e88d 65bd
000000f0: 5ef2 023d 3ec4 41bd 754f f83d 8069 18bd
00000100: cd45 6c3d 84dc 3c3d c656 813d 506c 353c
00000110: 2646 933d 0317 18ba 4926 8c3d 9622 0abd
00000120: 049d bf3d 4bf1 a5bd b754 bcbc 3870 953c
00000130: db9b a1bc 318a f7bc 807f e0bb 4ad7 adbc
00000140: f706 b73d 9cdb 2c3d 61aa c33d dd46 993d
00000150: 3863 ffbb e6fc a6bd e265 133d 3c5e 91bd
00000160: 7d77 363d 3549 583d 9e15 d83a e6e1 043d
00000170: 818e 39ba 548e aa3d 4cf5 e93c 8eb8 78bd
00000180: bb80 c1bd 23ac b03d c8e0 90bd 6c51 00bd
00000190: 8b3c 20bc 285c 8bbd 0294 cb3c 7e71 583a
000001a0: f8dc c7bd 0172 51bc b04f 98bd 29eb f7bc
000001b0: 6015 6ebd 2cd2 e13a 9874 11bd 44b7 de3d
000001c0: a619 a4bd de55 04bd 73f8 463d 702a d03d
000001d0: 805a b63d ebda adbd bd44 4bbd 3f39 b73d
000001e0: 36cf 97bd 203e a5bd 9b4e 94bd a06e 95bd
000001f0: f686 b83d de6c 493d 5ef2 9e3d 1c64 58bd
00000200: a4bd 633d 362d b5bd 61e3 623d ffd4 cf3d
00000210: 7e58 d23d a970 d6bd 703e d9bd 9664 75bd
00000220: 6179 a33b 01e0 b33c 1db7 5e3c 707e ccbd
00000230: b236 febc da1e cf3c fc6a 8fbd 96d7 f63c
00000240: 92ce 3dbd f304 c63d 6352 123d 1d9b 12bd
00000250: 2abb 4f3d a1f6 c43d 3834 37bd bbda cfbd
00000260: 81ce 8ebd f286 cebd ac34 bdbd 5a51 62bd
00000270: e47b 1f3c 94a4 0c3d c491 193b d721 2bbc
00000280: 4a26 3ebd bfc9 ed3d 92a0 59bd 7196 80bd
00000290: 41d0 55bd 04b5 c4bc 47e7 7bbd 4ea0 1f3d
000002a0: 1486 83bd 79b4 33bd f783 1d3d dbb5 f33d
000002b0: 63d4 59bd 79ca 8e3d 82f8 c6bd 566f 583d
000002c0: 70b1 d73c ec7b a83d 62bd 10bc e0d5 8f3d
000002d0: ff71 89bd 054d 4a3d 51f8 9ebb d9ad e03b
000002e0: e09b 99bd ceaa f83d b40f 2dbd 76cc ad3c
000002f0: 9f94 77bd 75a3 b33d c85e b23c 93c4 003d
00000300: ee6c 093d 5615 b2bd 70b2 e2bc db4a 6a3d
00000310: 0183 a93d b0ab fc3c e245 51bd fa07 edbc
00000320: 5950 8e3d 835f 86bc bb6f 363c 05b2 6e3d
00000330: 67ab 3fbc 6f54 d9b9 cfda 95bc 5f26 91bd
00000340: 4504 ce3d 6df9 c53d c40c 9f3c 8f36 b2bd
00000350: f0e6 b93d c74a b9bd 4c59 313d 53a9 b43d
00000360: 89db 13bd bca1 23bd bb72 8fbd 8d4c e13c
00000370: 37f4 eebc feaa 3cbd bcfb 94bd 57a6 893d
00000380: e0f6 653c 1d77 cd3c 4d28 5b3d 1d64 9e3d
00000390: a009 02bd acaf 1c3d c7a2 acbd 7052 073d
000003a0: e768 24bd b197 0a3c 317f 3e3d ce5f 88bd
000003b0: c656 b63d bf60 7ebd 8052 733d ec65 9d3c
000003c0: 403a b5bd fb5b 6f3d 35f9 d83d 602c 1d3d
000003d0: 0eca a1bd 2e13 dcbd 3577 dabd ef36 f5bc
000003e0: 38ed c23c a24e 8d3d cd5f 96bd 21f1 d7bc
000003f0: 0a43 333d 509e abbc e189 893d 6de8 2cbd

lstm.weight_hh_l0 f4 [512, 128]
-0.07216065 -0.0006176259 0.031690676 -0.019754177 0.030114867 -0.06940552 -0.044353537 -0.024204198
-0.035511274 -0.06481385 0.06350982 0.10062201 0.023091659 -0.0027856084 0.096293226 0.08803028
-0.066209875 0.029671429 0.044747792 0.051534172 -0.03746356 0.012138572 0.025656536 -0.02514135
0.100698605 0.09883167 0.06556311 -0.017568512 0.05048231 -0.010733618 -0.070640795 -0.08290881
0.027812399 0.06575748 0.024789058 -0.0011207963 -0.036458805 0.048792347 -0.06392673 0.1056337
0.062781416 0.039823145 -0.004024145 -0.053001255 -0.0417571 -0.05493999 0.06673178 0.060735755
0.0076794117 0.028257271 0.064298265 -0.018562797 0.0029960428 -0.054259673 0.040035594 0.0668451
-0.04289382 0.021582255 0.08437345 0.069110535 0.023723634 -0.081589215 -0.0024203006 0.023485016
0.040398482 0.005483835 -0.10541988 -0.04643469 0.10002033 0.057541206 -0.012084497 -0.017446222
-0.0030965635 -0.033935793 -0.050963562 0.04053568 -0.042561986 -0.07614815 -0.029615592 0.031762816
-0.06425163 -0.074602336 -0.055270676 0.07721979 -0.05776094 0.06375967 -0.06814994 0.07957437
0.02831801 -0.08057472 0.009896073 0.08219084 0.0074080206 0.031708702 0.092303336 -0.049926396
-0.0071787266 -0.01580421 -0.009021419 0.08055213 0.09352554 -0.028225323 0.11160323 0.03039117
-0.087280795 -0.014627721 -0.053588066 -0.07118919 0.08889041 -0.070173495 -0.04122561 0.07635679
0.033028018 0.07880718 0.047876813 -0.07142931 0.017632676 -0.08065011 -0.0757564 -0.047926523
0.07059659 -0.05372548 0.016203098 -0.08224714 -0.068860464 -0.009899413 -0.017364284 0.015077223
0.05216837 -0.0587281 0.013117958 -0.04010509 0.059528943 0.06445651 0.058361158 -0.004598499
0.032344595 -0.06293517 0.00082750496 0.006738615 0.033981655 -0.024726203 -0.08500102 0.08799708
-0.052894566 -0.050506327 -0.017451081 -0.08689753 0.058101263 0.08498835 -0.019402152 0.09423739
0.010002501 -0.020884847 -0.007075135 0.09197272 0.0046462575 -0.0024711697 0.06333759 0.0710335
-0.046483956 -0.024210963 -0.027674086 0.08880201 0.054339234 0.0700473 0.067320734 0.08371334
0.024671324 -0.06980688 -0.08721953 0.022611642 -0.07937761 0.08974127 0.07001666 0.045461908
0.014731065 0.024138914 0.0024609147 0.014531425 0.07452815 -0.047644243 -0.04151139 0.042922962
0.037103187 0.0816573 0.09061254 0.015268288 0.045737963 0.045148857 0.06747671 -0.018529683
-0.0069582528 -0.054093454 0.07932956 0.00022806777 0.021593485 -0.03825029 -0.0432379 0.0021459726
-0.03273441 -0.06609318 -0.047783885 0.037087087 -0.04899457 0.04945039 0.06804936 -0.04950821
0.02865216 -0.0279242 -0.08316459 0.09573279 -0.04571505 -0.045084048 -0.04820934 0.030452166
-0.053482294 -0.01609252 0.047424458 0.0620934 0.018715218 0.05843171 0.035328817 -0.03294799
0.056796316 -0.058248457 0.058954105 -0.033013135 0.093222246 -0.011881995 0.019558344 0.044762004
-0.09023827 -0.059502173 -0.058692444 0.09346712 -0.087988116 0.059204973 0.053830523 0.0010413838
0.06881133 0.07200712 0.027109342 -0.07657145 -0.0856033 0.0069719604 0.022323154 -0.004762694
0.048507065 0.0559069 0.008526399 0.079336695 -0.027725333 0.02065091 0.027964355 -0.08313484
00000000: f6c8 93bd 2ce8 21ba 15ce 013d 83d3 a1bc
00000010: 74b3 f63c 7b24 8ebd 0eac 35bd e247 c6bc
00000020: 4574 11bd 20bd 84bd 7011 823d ea12 ce3d
00000030: b82a bd3c c18e 36bb 6235 c53d 3849 b43d
00000040: 0b99 87bd 7f11 f33c 7649 373d 7f15 533d
00000050: 6473 19bd dce0 463c a82d d23c 3cf5 cdbc
00000060: 123b ce3d 4268 ca3d f445 863d d7eb 8fbc
00000070: 8ac6 4e3d 0fdc 2fbc 1fac 90bd 18cc a9bd
00000080: d4d6 e33c dcab 863d 6c12 cb3c afe7 92ba
00000090: d455 15bd 7cda 473d 04ec 82bd 7b56 d83d
000000a0: 8b93 803d 981d 233d fadc 83bb d817 59bd
000000b0: 7e09 2bbd c108 61bd acaa 883d 0ec6 783d
000000c0: 93a3 fb3b cb7b e73c cfae 833d 0211 98bc
000000d0: 4259 443b 643f 5ebd 5dfc 233d 15e6 883d
000000e0: 6eb1 2fbd 45cd b03c fdcb ac3d d389 8d3d
000000f0: 1158 c23c 3f18 a7bd e89d 1ebb a663 c03c
00000100: e178 253d beb1 b33b 61e6 d7bd 4d32 3ebd
00000110: 75d7 cc3d 54b0 6b3d 0efe 45bc 61eb 8ebc
00000120: b7ef 4abb 4200 0bbd 2bbf 50bd be08 263d
00000130: 7a55 2ebd 90f3 9bbd 669c f2bc ba19 023d
00000140: 5c96 83bd 1cc9 98bd 8163 62bd 6925 9e3d
00000150: bc96 6cbd 6e94 823d 3292 8bbd e3f7 a23d
00000160: 2cfb e73c 5c04 a5bd 2323 223c ac53 a83d
00000170: fbbe f23b fce0 013d 8809 bd3d 9f7f 4cbd
00000180: 863b ebbb d577 81bc 93ce 13bc 84f8 a43d
00000190: 518a bf3d cb38 e7bc 3c90 e43d e7f6 f83c
000001a0: 46c0 b2bd 1ca9 6fbc 297f 5bbd a3cb 91bd
000001b0: 2d0c b63d 1fb7 8fbd 2fdc 28bd f360 9c3d
000001c0: 6348 073d a965 a13d 7a1a 443d 8849 92bd
000001d0: 6772 903c e32b a5bd 2c26 9bbd 9a4e 44bd
000001e0: f294 903d 400f 5cbd 5cbc 843c 3071 a8bd
000001f0: b706 8dbd 2631 22bc 8b3f 8ebc 7506 773c
00000200: 80ae 553d e08c 70bd b4ec 563c 3c45 24bd
00000210: 9fd4 733d c601 843d 1c0c 6f3d 01af 96bb
00000220: c47b 043d 28e4 80bd ebec 583a 9acf dc3b
00000230: 5930 0b3d 9b8e cabc 0415 aebd d037 b43d
00000240: f9a7 58bd b9df 4ebd 92f5 8ebc 55f7 b1bd
00000250: 97fb 6d3d 5f0e ae3d 43f1 9ebc 88ff c03d
00000260: 88e1 233c b316 abbc 89d6 e7bb 325c bc3d
00000270: a23f 983b 59f3 21bb 23b7 813d 037a 913d
00000280: f665 3ebd 1256 c6bc c4b4 e2bc d4dd b53d
00000290: d192 5e3d f574 8f3d 74df 893d e671 ab3d
000002a0: 841b ca3c e9f6 8ebd 27a0 b2bd 0d3c b93c
000002b0: ba90 a2bd 45ca b73d e564 8f3d 4436 3a3d
000002c0: 915a 713c f9be c53c 4c47 213b 3715 6e3c
000002d0: 37a2 983d 9c26 43bd d907 2abd fdcf 2f3d
000002e0: 83f9 173d f13b a73d 1193 b93d d727 7a3c
000002f0: bb57 3b3d 02ee 383d 3b31 8a3d 90cb 97bc
00000300: 0e02 e4bb 1991 5dbd 8977 a23d 7a25 6f39
00000310: d2e4 b03c 56ac 1cbd 391a 31bd 72a3 0c3b
00000320: 8414 06bd dc5b 87bd 09b9 43bd a1e8 173d
00000330: 88ae 48bd 7e8c 4a3d 765d 8b3d 1fc9 4abd
00000340: efb7 ea3c 4bc1 e4bc 3252 aabd 8e0f c43d
00000350: b43f 3bbd 0daa 38bd 2877 45bd d276 f93c
00000360: 4010 5bbd 76d4 83bc 2640 423d a655 7e3d
00000370: a850 993c 1756 6f3d f3b4 103d 79f4 06bd
00000380: 41a3 683d ef95 6ebd dc79 713d c838 07bd
00000390: 4eeb be3d b3ac 42bc d238 a03c 5d58 373d
000003a0: d8ce b8bd 8db8 73bd 7d67 70bd b06b bf3d
000003b0: 1d33 b4bd ea80 723d 657d 5c3d 0b7f 883a
000003c0: f4ec 8c3d 7878 933d 6914 de3c 7ed1 9cbd
000003d0: c850 afbd 0b75 e43b 0cdf b63c 5f10 9cbb
000003e0: 58af 463d a2fe 643d 4fb2 0b3c 477b a23d
000003f0: 3d20 e3bc 192c a93c 8115 e53c 9942 aabd

lstm.bias_ih_l0 f4 [512]
0.020554155 0.009774966 0.013716371 0.008082738 0.0069962097 0.0004800443 0.014286642 0.0006529408
3.6602843e-05 0.0007618743 0.0039875205 0.0013525302 0.012464318 0.0055424464 0.014323593 0.0057927063
0.004744315 0.006498166 0.0085086785 -0.0062214267 0.0026226556 0.010194555 0.008137686 0.0014735089
0.0056642923 0.001547368 0.0024245998 0.0018519679 -0.0021120298 -0.011226382 0.0022725426 0.0047687935
0.016048731 0.0032056167 0.012372211 0.005407589 0.006223832 0.007677254 0.0024339103 0.0034449275
0.0086794365 0.018124519 -0.0020389922 -0.0036600386 0.006939992 0.007295534 0.006176785 0.004173272
-0.0038621856 0.00017535767 0.013446728 0.006432008 0.011471627 0.018876795 0.0020951058 0.015920537
0.003771625 0.0014009866 0.0047091055 0.010101666 0.007663265 0.0044551054 -0.0013124512 0.008634829
0.0011262606 0.0027251104 0.0025945555 0.013845079 0.0030767808 0.011435237 0.017562 0.013656046
0.006683688 0.008464005 0.008307405 0.011195676 0.0047962773 0.0038491278 0.010672951 0.0011886257
-0.00038004524 0.009202885 0.00469529 0.008328773 0.0085802125 0.011995172 -0.00113611 0.004612432
0.012146641 0.003839431 0.013117117 0.0011048318 0.0039216494 0.015754506 0.0034177378 0.002889708
0.010020602 0.007564383 0.010007834 6.895721e-05 0.015491212 -0.006044154 0.01604787 0.0011029002
0.0003511055 0.0032232788 0.0072058886 0.01672815 0.012725226 0.015743293 0.012169358 0.0015138247
0.0033538798 0.006830505 0.0020752803 0.021230366 0.0027158093 0.0018931341 0.0068984986 0.011378289
0.010103927 0.009990959 -0.004840473 0.0049869586 0.0030221767 0.015269582 0.00077908003 0.0024221493
0.010700214 0.006432486 0.0015158156 -2.3641436e-05 0.0027058278 0.00074771995 0.009749348 -0.00069388736
-4.627226e-05 0.0004439748 0.010059686 0.0021712459 -0.0047822846 0.0029921092 -0.0004668748 0.0077784252
0.0037509575 0.00082930026 -0.004918782 -0.002341497 -0.0019929835 0.0095148515 0.00032178385 6.705335e-05
0.0006007801 0.0006551184 -0.001683851 0.0004954735 0.00012428053 0.004683229 -0.004082141 0.0019828456
0.0020870045 0.0017671954 0.011114567 -8.6728636e-05 0.008528969 0.0068078795 0.0034122616 0.0017901534
0.004401017 0.01194467 0.00069996953 -0.0016876219 0.005653949 0.0050189593 0.0032605391 0.0058648754
-0.0038460428 3.001695e-05 0.007008373 0.0014591897 0.0017733396 0.011588757 0.0023640825 0.010631816
-0.002432578 0.00095219497 -0.00023274824 0.0035473278 0.0032318023 0.0030651672 -0.00585627 0.0077557564
-0.0019928187 0.0006596777 0.0011187267 0.010911191 -0.005838076 0.0037648785 0.005590966 0.0019138826
-0.0020576776 0.005711161 -0.007218419 0.0035583319 0.0041823545 -0.0012275707 -0.0024121401 -0.002033752
-0.00064582896 0.0031352728 0.0033674955 0.003559198 0.008669628 0.011241591 -0.00047391484 -0.00024960304
0.00088788074 0.00045268598 0.0060454677 0.0011042398 1.2519361e-05 0.012654778 0.0013757816 0.0006952645
0.007899411 0.0030016059 0.00024016612 -0.0036410813 0.003212751 -0.0063189743 0.013180812 0.0025986484
0.00062837393 0.0022378967 -0.004020374 0.0053595174 0.0031959561 0.016759837 0.0038278403 8.755555e-05
-0.0034974266 -0.004473429 -0.0039287643 0.019045575 -0.0012481536 3.2486358e-05 0.003628656 0.015183517
0.0012834435 0.0026523145 0.0017216065 0.0034786714 0.0029535962 0.01793646 -5.463016e-05 -0.00067101436
00000000: 3061 a83c 2e27 203c a1ba 603c 766d 043c
00000010: 7640 e53b 75ae fb39 8512 6a3c 1e2a 2b3a
00000020: 0186 1938 85b8 473a bfa9 823b 6247 b13a
00000030: 2437 4c3c 699d b53b 81ad 6a3c bed0 bd3b
00000040: 3376 9b3b 91ee d43b fc67 0b3c 1cdd cbbb
00000050: dce0 2b3b 1007 273c ee53 053c c122 c13a
00000060: 879b b93b 0ed1 ca3a 09e6 1e3b bbbd f23a
00000070: fb69 0abb dcee 37bc f0ee 143b 8a43 9c3b
00000080: a178 833c 5315 523b d0b4 4a3c 2532 b13b
00000090: 49f1 cb3b 7991 fb3b 3d82 1f3b 4bc4 613b
000000a0: 3234 0e3c df79 943c 9da0 05bb 42dd 6fbb
000000b0: df68 e33b 600f ef3b a166 ca3b f1bf 883b
000000c0: b91c 7dbb 37e0 3739 aa4f 5c3c 98c3 d23b
000000d0: 7ef3 3b3c 82a3 9a3c 0b4e 093b c96b 823c
000000e0: 5e2d 773b 4fa1 b73a d74e 9a3b 7581 253c
000000f0: 201c fb3b 22fc 913b 8e06 acba 1979 0d3c
00000100: 099f 933a c497 323b 6b09 2a3b 78d6 623c
00000110: d1a3 493b dc5a 3b3c 2fde 8f3c 9cbd 5f3c
00000120: d702 db3b 9cac 0a3c c81b 083c 126e 373c
00000130: 172a 9d3b a641 7c3b 9add 2e3c a9cb 9b3a
00000140: cf40 c7b9 b3c7 163c f2da 993b 6875 083c
00000150: 0594 0c3c 6687 443c 87e9 94ba e223 973b
00000160: b402 473c f79e 7b3b 2de9 563c 01d0 903a
00000170: 2e81 803b 980f 813c 20fc 5f3b 4161 3d3b
00000180: 732d 243c a5de f73b e6f7 233c 1f9d 9038
00000190: dace 7d3c 0a0e c6bb d376 833c 318f 903a
000001a0: 9514 b839 a53d 533b 601f ec3b 7909 893c
000001b0: 777d 503c 14f8 803c fd61 473c 876b c63a
000001c0: c4cc 5b3b 6ed2 df3b 6d01 083b 4eeb ad3c
000001d0: b8fb 313b 0a23 f83a cd0c e23b 016c 3a3c
000001e0: f18a 253c 1fb1 233c d59c 9ebb a469 a33b
000001f0: b60f 463b 452d 7a3c 2d3b 4c3a ecbc 1e3b
00000200: f34f 2f3c 9bc7 d23b 55ae c63a 9951 c6b7
00000210: 4254 313b a302 443a bbbb 1f3c fee5 35ba
00000220: 7614 42b8 4ac5 e839 62d1 243c 764b 0e3b
00000230: b6b4 9cbb 4317 443b e0c6 f4b9 29e2 fe3b
00000240: a0d2 753b 6665 593a bc2d a1bb cd73 19bb
00000250: b79c 02bb 2ee4 1b3c 19b5 a839 fe9e 8c38
00000260: ac7d 1d3a 40bc 2b3a aab4 dcba aae2 013a
00000270: 4d51 0239 c675 993b 7bc3 85bb a1f2 013b
00000280: 20c6 083b 3da1 e73a df19 363c 15e2 b5b8
00000290: 17bd 0b3c a214 df3b 40a0 5f3b 95a3 ea3a
000002a0: 6836 903b 94b3 433c 297e 373a 3233 ddba
000002b0: c344 b93b 1576 a43b c5ae 553b 242e c03b
000002c0: e40d 7cbb e9cc fb37 7ea6 e53b 4842 bf3a
000002d0: 676f e83a c5de 3d3c b9ee 1a3b 1231 2e3c
000002e0: e36b 1fbb b99c 793a e10d 74b9 497a 683b
000002f0: a5cc 533b f9e0 483b f4e5 bfbb 0024 fe3b
00000300: f399 02bb 39ee 2c3a 3da2 923a dac4 323c
00000310: 554d bfbb 2ebc 763b 6c34 b73b 3edb fa3a
00000320: 1ada 06bb b124 bb3b 7d88 ecbb e732 693b
00000330: 220c 893b 70e6 a0ba ff14 1ebb b248 05bb
00000340: d94c 29ba 2679 4d3b 33b1 5c3b 6f41 693b
00000350: 0e0b 0e3c a62e 383c c677 f8b9 27dd 82b9
00000360: abc0 683a 7c56 ed39 0f19 c63b 24bc 903a
00000370: 3f0a 5237 fc55 4f3c 9253 b43a 6942 363a
00000380: 886c 013c 97b6 443b 1ad5 7b39 359f 6ebb
00000390: 048d 523b 660f cfbb 55f4 573c 164e 2a3b
000003a0: 76b9 243a ada9 123b 57bd 83bb e49e af3b
000003b0: 3f73 513b ed4b 893c 81dc 7a3b 079e b738
000003c0: 1535 65bb d895 92bb ddbc 80bb 7705 9c3c
000003d0: 1699 a3ba f641 0838 bfce 6d3b 49c4 783c
000003e0: 3839 a83a 74d2 2d3b 87a7 e13a 6cfa 633b
000003f0: 1f91 413b 7cef 923c b022 65b8 03e7 2fba

lstm.bias_hh_l0 f4 [512]
0.020554155 0.009774966 0.013716371 0.008082738 0.0069962097 0.0004800443 0.014286642 0.0006529408
3.6602843e-05 0.0007618743 0.0039875205 0.0013525302 0.012464318 0.0055424464 0.014323593 0.0057927063
0.004744315 0.006498166 0.0085086785 -0.0062214267 0.0026226556 0.010194555 0.008137686 0.0014735089
0.0056642923 0.001547368 0.0024245998 0.0018519679 -0.0021120298 -0.011226382 0.0022725426 0.0047687935
0.016048731 0.0032056167 0.012372211 0.005407589 0.006223832 0.007677254 0.0024339103 0.0034449275
0.0086794365 0.018124519 -0.0020389922 -0.0036600386 0.006939992 0.007295534 0.006176785 0.004173272
-0.0038621856 0.00017535767 0.013446728 0.006432008 0.011471627 0.018876795 0.0020951058 0.015920537
0.003771625 0.0014009866 0.0047091055 0.010101666 0.007663265 0.0044551054 -0.0013124512 0.008634829
0.0011262606 0.0027251104 0.0025945555 0.013845079 0.0030767808 0.011435237 0.017562 0.013656046
0.006683688 0.008464005 0.008307405 0.011195676 0.0047962773 0.0038491278 0.010672951 0.0011886257
-0.00038004524 0.009202885 0.00469529 0.008328773 0.0085802125 0.011995172 -0.00113611 0.004612432
0.012146641 0.003839431 0.013117117 0.0011048318 0.0039216494 0.015754506 0.0034177378 0.002889708
0.010020602 0.007564383 0.010007834 6.895721e-05 0.015491212 -0.006044154 0.01604787 0.0011029002
0.0003511055 0.0032232788 0.0072058886 0.01672815 0.012725226 0.015743293 0.012169358 0.0015138247
0.0033538798 0.006830505 0.0020752803 0.021230366 0.0027158093 0.0018931341 0.0068984986 0.011378289
0.010103927 0.009990959 -0.004840473 0.0049869586 0.0030221767 0.015269582 0.00077908003 0.0024221493
0.010700214 0.006432486 0.0015158156 -2.3641436e-05 0.0027058278 0.00074771995 0.009749348 -0.00069388736
-4.627226e-05 0.0004439748 0.010059686 0.0021712459 -0.0047822846 0.0029921092 -0.0004668748 0.0077784252
0.0037509575 0.00082930026 -0.004918782 -0.002341497 -0.0019929835 0.0095148515 0.00032178385 6.705335e-05
0.0006007801 0.0006551184 -0.001683851 0.0004954735 0.00012428053 0.004683229 -0.004082141 0.0019828456
0.0020870045 0.0017671954 0.011114567 -8.6728636e-05 0.008528969 0.0068078795 0.0034122616 0.0017901534
0.004401017 0.01194467 0.00069996953 -0.0016876219 0.005653949 0.0050189593 0.0032605391 0.0058648754
-0.0038460428 3.001695e-05 0.007008373 0.0014591897 0.0017733396 0.011588757 0.0023640825 0.010631816
-0.002432578 0.00095219497 -0.00023274824 0.0035473278 0.0032318023 0.0030651672 -0.00585627 0.0077557564
-0.0019928187 0.0006596777 0.0011187267 0.010911191 -0.005838076 0.0037648785 0.005590966 0.0019138826
-0.0020576776 0.005711161 -0.007218419 0.0035583319 0.0041823545 -0.0012275707 -0.0024121401 -0.002033752
-0.00064582896 0.0031352728 0.0033674955 0.003559198 0.008669628 0.011241591 -0.00047391484 -0.00024960304
0.00088788074 0.00045268598 0.0060454677 0.0011042398 1.2519361e-05 0.012654778 0.0013757816 0.0006952645
0.007899411 0.0030016059 0.00024016612 -0.0036410813 0.003212751 -0.0063189743 0.013180812 0.0025986484
0.00062837393 0.0022378967 -0.004020374 0.0053595174 0.0031959561 0.016759837 0.0038278403 8.755555e-05
-0.0034974266 -0.004473429 -0.0039287643 0.019045575 -0.0012481536 3.2486358e-05 0.003628656 0.015183517
0.0012834435 0.0026523145 0.0017216065 0.0034786714 0.0029535962 0.01793646 -5.463016e-05 -0.00067101436
00000000: 3061 a83c 2e27 203c a1ba 603c 766d 043c
00000010: 7640 e53b 75ae fb39 8512 6a3c 1e2a 2b3a
00000020: 0186 1938 85b8 473a bfa9 823b 6247 b13a
00000030: 2437 4c3c 699d b53b 81ad 6a3c bed0 bd3b
00000040: 3376 9b3b 91ee d43b fc67 0b3c 1cdd cbbb
00000050: dce0 2b3b 1007 273c ee53 053c c122 c13a
00000060: 879b b93b 0ed1 ca3a 09e6 1e3b bbbd f23a
00000070: fb69 0abb dcee 37bc f0ee 143b 8a43 9c3b
00000080: a178 833c 5315 523b d0b4 4a3c 2532 b13b
00000090: 49f1 cb3b 7991 fb3b 3d82 1f3b 4bc4 613b
000000a0: 3234 0e3c df79 943c 9da0 05bb 42dd 6fbb
000000b0: df68 e33b 600f ef3b a166 ca3b f1bf 883b
000000c0: b91c 7dbb 37e0 3739 aa4f 5c3c 98c3 d23b
000000d0: 7ef3 3b3c 82a3 9a3c 0b4e 093b c96b 823c
000000e0: 5e2d 773b 4fa1 b73a d74e 9a3b 7581 253c
000000f0: 201c fb3b 22fc 913b 8e06 acba 1979 0d3c
00000100: 099f 933a c497 323b 6b09 2a3b 78d6 623c
00000110: d1a3 493b dc5a 3b3c 2fde 8f3c 9cbd 5f3c
00000120: d702 db3b 9cac 0a3c c81b 083c 126e 373c
00000130: 172a 9d3b a641 7c3b 9add 2e3c a9cb 9b3a
00000140: cf40 c7b9 b3c7 163c f2da 993b 6875 083c
00000150: 0594 0c3c 6687 443c 87e9 94ba e223 973b
00000160: b402 473c f79e 7b3b 2de9 563c 01d0 903a
00000170: 2e81 803b 980f 813c 20fc 5f3b 4161 3d3b
00000180: 732d 243c a5de f73b e6f7 233c 1f9d 9038
00000190: dace 7d3c 0a0e c6bb d376 833c 318f 903a
000001a0: 9514 b839 a53d 533b 601f ec3b 7909 893c
000001b0: 777d 503c 14f8 803c fd61 473c 876b c63a
000001c0: c4cc 5b3b 6ed2 df3b 6d01 083b 4eeb ad3c
000001d0: b8fb 313b 0a23 f83a cd0c e23b 016c 3a3c
000001e0: f18a 253c 1fb1 233c d59c 9ebb a469 a33b
000001f0: b60f 463b 452d 7a3c 2d3b 4c3a ecbc 1e3b
00000200: f34f 2f3c 9bc7 d23b 55ae c63a 9951 c6b7
00000210: 4254 313b a302 443a bbbb 1f3c fee5 35ba
00000220: 7614 42b8 4ac5 e839 62d1 243c 764b 0e3b
00000230: b6b4 9cbb 4317 443b e0c6 f4b9 29e2 fe3b
00000240: a0d2 753b 6665 593a bc2d a1bb cd73 19bb
00000250: b79c 02bb 2ee4 1b3c 19b5 a839 fe9e 8c38
00000260: ac7d 1d3a 40bc 2b3a aab4 dcba aae2 013a
00000270: 4d51 0239 c675 993b 7bc3 85bb a1f2 013b
00000280: 20c6 083b 3da1 e73a df19 363c 15e2 b5b8
00000290: 17bd 0b3c a214 df3b 40a0 5f3b 95a3 ea3a
000002a0: 6836 903b 94b3 433c 297e 373a 3233 ddba
000002b0: c344 b93b 1576 a43b c5ae 553b 242e c03b
000002c0: e40d 7cbb e9cc fb37 7ea6 e53b 4842 bf3a
000002d0: 676f e83a c5de 3d3c b9ee 1a3b 1231 2e3c
000002e0: e36b 1fbb b99c 793a e10d 74b9 497a 683b
000002f0: a5cc 533b f9e0 483b f4e5 bfbb 0024 fe3b
00000300: f399 02bb 39ee 2c3a 3da2 923a dac4 323c
00000310: 554d bfbb 2ebc 763b 6c34 b73b 3edb fa3a
00000320: 1ada 06bb b124 bb3b 7d88 ecbb e732 693b
00000330: 220c 893b 70e6 a0ba ff14 1ebb b248 05bb
00000340: d94c 29ba 2679 4d3b 33b1 5c3b 6f41 693b
00000350: 0e0b 0e3c a62e 383c c677 f8b9 27dd 82b9
00000360: abc0 683a 7c56 ed39 0f19 c63b 24bc 903a
00000370: 3f0a 5237 fc55 4f3c 9253 b43a 6942 363a
00000380: 886c 013c 97b6 443b 1ad5 7b39 359f 6ebb
00000390: 048d 523b 660f cfbb 55f4 573c 164e 2a3b
000003a0: 76b9 243a ada9 123b 57bd 83bb e49e af3b
000003b0: 3f73 513b ed4b 893c 81dc 7a3b 079e b738
000003c0: 1535 65bb d895 92bb ddbc 80bb 7705 9c3c
000003d0: 1699 a3ba f641 0838 bfce 6d3b 49c4 783c
000003e0: 3839 a83a 74d2 2d3b 87a7 e13a 6cfa 633b
000003f0: 1f91 413b 7cef 923c b022 65b8 03e7 2fba

lstm.weight_ih_l1 f4 [512, 128]
-0.07687285 -0.021775492 0.04102894 -0.052099533 0.016435673 0.09859074 -0.076937206 0.036352105
0.009598421 0.050037306 -0.09572487 -0.0028083443 0.055121113 0.039480306 -0.0026246193 -0.0015937969
0.021396179 0.03281633 0.040802073 0.020837147 0.00841851 -0.038197268 0.03784903 0.036765806
0.061327916 0.0019910077 -0.0850309 0.01260327 0.031713236 0.08075426 -0.06754623 0.0722497
-0.017501226 -0.07925964 0.033323262 0.09065996 -0.08622592 -0.07282515 0.0858842 -0.08337195
-0.048707113 -0.032299146 0.041633405 -0.048754513 0.027857674 -0.08715621 -0.0027923062 0.008193579
-0.03987279 -0.042135604 0.030468127 0.09792804 -0.011736914 0.060245525 -0.024051555 -0.022107784
-0.024601676 -0.0017240038 -0.05370679 -0.0015968792 -0.04921843 0.01586372 -0.05224019 0.087670885
0.043769646 -0.04010533 0.07520374 -0.019089678 -0.084079646 -0.018678855 0.06794171 0.090357766
-0.060488 -0.02833075 -0.029269334 0.068997264 0.047589626 -0.07304365 0.06185117 0.077355616
0.017979909 -0.08197926 -0.050189003 0.016241102 0.007303965 0.095454015 -0.022691598 0.06366916
0.054443583 0.031101195 0.02668637 -0.020556696 0.013660983 0.051579963 -0.013716861 0.02056602
0.024226924 0.0958871 0.034462824 0.047956385 0.002624716 -0.061526973 0.07064871 -0.005702336
0.032961007 0.029800752 -0.031071786 -0.05940702 0.037108622 -0.00568741 0.021314535 0.022817947
-0.007348818 0.014255579 -0.01519626 0.06283975 -0.08307027 0.0508733 0.0010407676 -0.057006616
0.062957585 -0.013725809 0.06285165 -0.06365369 0.015464228 0.027044922 0.032488834 0.09089955
0.01790896 -0.07701209 0.10260276 0.0051230136 -0.04706063 -0.043189727 0.014760477 0.040708803
-0.0035438472 0.07634061 0.072667465 -0.05352356 -0.08463045 0.06520865 -0.032402694 -0.044873
0.0004960891 0.087603964 -0.057320263 0.06331323 0.07262199 0.080722906 0.06899495 -0.092156984
-0.09361003 0.054032274 0.029309427 -0.0059619974 -0.036552537 0.01112579 -0.04353987 -0.02518559
-0.019255608 0.052557927 0.07028606 0.07848348 -0.057789344 -0.040503927 -0.05334454 -0.08216978
0.07239872 -0.052811496 -0.016844973 0.038070664 -0.08372744 -0.08542992 -0.061937988 -0.017890977
0.017593395 -0.022958592 -0.022044089 -0.004997644 0.05351574 -0.058882132 0.018772414 -0.004808649
-0.08643429 -0.077067636 0.043711245 -0.094093405 -0.009066638 -0.029905362 0.077597186 0.07992435
-0.040999927 0.05998546 0.08074337 0.033650964 0.01271926 -0.045292433 0.032178562 -0.05097132
0.07445103 0.08741745 -0.022306783 0.06973104 -0.01644545 0.09133354 0.035242017 0.08538772
-0.0833716 -0.09499494 0.07131214 -0.070648536 0.09213314 -0.056010284 0.02677578 -0.034133215
-0.011259795 -0.03209741 -0.06454385 0.028080152 0.027475074 0.07853315 -0.04076028 -0.04904455
-0.0763719 -0.07125994 -0.07970519 0.07381325 0.0451033 0.043182142 -0.03164835 0.063705854
0.075303726 -0.039322592 0.017154794 0.053353973 -0.03811462 0.017800244 0.06250888 -0.068015926
-0.0420845 0.089779705 -0.037527226 -0.038652763 -0.032664753 -0.019605702 0.06990785 -0.026592987
0.043431643 -0.07419321 0.050104834 -0.03645201 -0.036781494 0.07785038 0.087204784 0.031157935
00000000: 836f 9dbd 8462 b2bc f60d 283d 5266 55bd
00000010: 1ba4 863c f1e9 c93d 4191 9dbd f2e5 143d
00000020: b242 1d3c ebf3 4c3d 670b c4bd 330c 38bb
00000030: adc6 613d 1ab6 213d ce01 2cbb f3e6 d0ba
00000040: 0a47 af3c 6b6a 063d 1320 273d aab2 aa3c
00000050: caed 093c bd74 1cbd 9607 1b3d be97 163d
00000060: fb32 7b3d 917b 023b ae24 aebd f27d 4e3c
00000070: bde5 013d 7d62 a53d ae55 8abd a7f7 933d
00000080: bb5e 8fbc e152 a2bd f97d 083d eeab b93d
00000090: 3797 b0bd 5a25 95bd 0ee4 af3d eabe aabd
000000a0: 1c81 47bd 1c4c 04bd ca87 2a3d d0b2 47bd
000000b0: c735 e43c f47e b2bd 20ff 36bb 5c3e 063c
000000c0: a751 23bd 6296 2cbd 4b98 f93c 7f8e c83d
000000d0: 2f4c 40bc 03c4 763d c407 c5bc 621b b5bc
000000e0: 7489 c9bc f8f7 e1ba a7fb 5bbd 604e d1ba
000000f0: 4499 49bd a2f4 813c cff9 55bd cb8c b33d
00000100: cd47 333d 7d45 24bd 6b04 9a3d f561 9cbc
00000110: f331 acbd 6604 99bc 0625 8b3d 7e0d b93d
00000120: 44c2 77bd e415 e8bc 3ec6 efbc 704e 8d3d
00000130: 57ed 423d e997 95bd a757 7d3d 9f6c 9e3d
00000140: 9a4a 933c bee4 a7bd fc92 4dbd 0f0c 853c
00000150: 1956 ef3b 657d c33d bbe3 b9bc fa64 823d
00000160: 3c00 5f3d efc7 fe3c 609d da3c 8466 a8bc
00000170: 51d2 5f3c 8345 533d afbc 60bc 127a a83c
00000180: 8b77 c63c 7560 c43d e428 0d3d ea6d 443d
00000190: 6d03 2c3b b503 7cbd 45b0 903d a9da babb
000001a0: 1f02 073d b520 f43c 428a febc c754 73bd
000001b0: 36ff 173d 745d babb d29b ae3c b4ec ba3c
000001c0: 5ace f0bb 3b90 693c bcf9 78bc 20b2 803d
000001d0: bf20 aabd 8560 503d 5e6a 883a c57f 69bd
000001e0: e8ef 803d 37e2 60bc 5eb8 803d de5c 82bd
000001f0: ac5d 7d3c 508d dd3c 0313 053d 8b29 ba3d
00000200: d0b5 923c 84b8 9dbd 6521 d23d f4de a73b
00000210: a6c2 40bd b6e7 30bd edd5 713c 46be 263d
00000220: e43f 68bb 7758 9c3d aed2 943d 853b 5bbd
00000230: bb52 adbd 1d8c 853d b0b8 04bd c0cc 37bd
00000240: fa0b 023a b569 b33d a7c8 6abd 5eaa 813d
00000250: d7ba 943d 0d52 a53d 394d 8d3d cdbc bcbd
00000260: 9eb6 bfbd f250 5d3d 531a f03c dc5c c3bb
00000270: 1db8 15bd f248 363c dd56 32bd 0352 cebc
00000280: f0bd 9dbc fb46 573d 23f2 8f3d f2bb a03d
00000290: 85b4 6cbd 72e7 25bd ce7f 5abd a148 a8bd
000002a0: c845 943d de50 58bd 78fe 89bc fcef 1b3d
000002b0: 4b79 abbd e2f5 aebd b0b2 7dbd 1990 92bc
000002c0: 0620 903c a813 bcbc ce95 b4bc 47c3 a3bb
000002d0: 5233 5b3d 642e 71bd 9bc8 993c df91 9dbb
000002e0: 7604 b1bd a3d5 9dbd 900a 333d 0bb4 c0bd
000002f0: 3c8c 14bc 17fc f4bc 46eb 9e3d 61af a33d
00000300: 8aef 27bd 50b3 753d c85c a53d 98d5 093d
00000310: 7164 503c 8f84 39bd abcd 033d 4ec7 50bd
00000320: c879 983d ec07 b33d b7bc b6bc 26cf 8e3d
00000330: 9cb8 86bc 140d bb3d ef59 103d c2df ae3d
00000340: bbbe aabd b58c c2bd 190c 923d 2eb0 90bd
00000350: 4db0 bc3d 0a6b 65bd e158 db3c 45cf 0bbd
00000360: 017b 38bc 9378 03bd 912f 84bd 5908 e63c
00000370: 6813 e13c fdd5 a03d 40f4 26bd f0e2 48bd
00000380: df68 9cbd bbf0 91bd 7a3c a3bd 672b 973d
00000390: 3dbe 383d c2df 303d b3a1 01bd 3778 823d
000003a0: d738 9a3d ba10 21bd 3688 8c3c b289 5a3d
000003b0: 131e 1cbd d1d1 913c a804 803d ef4b 8bbd
000003c0: cc60 2cbd 6cde b73d 26b6 19bd 5c52 1ebd
000003d0: 7acb 05bd 239c a0bc d92b 8f3d 89d9 d9bc
000003e0: 61e5 313d 9cf2 97bd ba3a 4d3d b44e 15bd
000003f0: 31a8 16bd 0570 9f3d 6c98 b23d ed3e ff3c

lstm.weight_hh_l1 f4 [512, 128]
-0.017588003 -0.014088852 -0.0100189 -0.02077219 -0.06901728 -0.04324493 0.013277134 0.058736853
0.09190202 0.08399978 -0.042306818 0.053072263 -0.03411405 0.014790394 0.08991663 0.045972053
0.0646379 0.05008676 -0.015926162 0.07756599 0.0019235739 0.058579877 -0.06481228 0.0089970315
-0.06080555 -0.0075344015 0.081470296 0.060486164 0.045241214 -0.0890151 -0.09067749 -0.08076736
-0.06747061 0.02243903 0.030200968 0.089872845 0.040151987 -0.089713424 -0.056695767 0.07594718
-0.049332283 -0.04097229 -0.025202118 0.06421718 0.07061887 -0.04577646 -0.013155058 0.028629264
0.012171516 0.052540682 0.05208594 0.00078352145 -0.032985933 -0.008494961 -0.08212975 0.0012330682
0.032934748 0.044526912 0.075007476 0.07302379 0.050552834 0.087467164 -0.03681924 -0.0036677085
0.028322682 0.08795807 -0.0307391 0.07335508 0.05348928 0.026660463 -0.054849714 0.09640847
-0.035742246 -0.04107852 -0.08470163 -0.08558362 -0.012297988 0.0027346297 0.10480282 -0.0738743
-0.03516947 0.04278357 -0.090157956 0.04734486 0.019789927 0.042592384 0.059058137 -0.018154714
-0.0018533254 -0.008618731 -0.02253473 0.033786286 0.05477057 0.0066575645 -0.054314435 0.08917886
0.0382787 -0.050934494 0.026463872 0.069927 0.04990092 0.00481133 0.03027023 0.024210736
-0.007679793 0.022845158 -0.003727327 -0.07926615 -0.062073346 -0.06267905 0.058581132 0.09112225
-0.03805201 -0.06568165 -0.09050543 -0.039739136 0.047163654 -0.06515436 0.031279992 0.020226317
0.030648863 -0.027068635 -0.066600055 0.076942384 0.033139233 -0.08340818 -0.019474039 -0.07177312
0.035028957 0.030394232 0.054757565 -0.0486869 0.06456297 0.030846508 0.011288164 0.07744915
-0.032838278 -0.028062506 0.007143293 0.083137855 0.05096296 0.0786841 -0.012125147 -0.08006986
0.0767052 -0.03367419 -0.011364288 0.0556998 -0.06453969 0.06303787 0.010535851 0.044676453
0.097827286 -0.022998836 0.014986631 0.091320366 -0.089755595 -0.08239333 -0.015181154 0.030188411
0.038383506 -0.04827411 0.07234107 0.04974196 0.02133757 0.008952317 -0.009700285 -0.066982195
0.0918857 0.07230601 -0.03988368 0.020358583 0.0810427 0.056137856 -0.018751012 -0.0848837
-0.0020688046 0.04549129 -0.03020359 -0.081716016 0.06472293 0.083590776 -0.013546341 -0.06787946
0.09176725 0.0925155 0.076744616 0.012876979 -0.07728083 0.009930129 0.085829586 -0.009275906
-0.055867657 0.053998407 -0.09141536 0.0827181 0.084740885 0.04328936 0.05308424 -0.007918718
-0.073896065 0.02899311 0.028545804 0.06664434 -0.08722848 -0.013414411 0.038516346 0.06252216
-0.07124211 0.04885431 0.03512247 0.05996788 0.001563931 0.006179908 0.009494364 -0.07830699
0.006987625 -0.0070973225 0.03249814 0.036455683 0.0114682 -0.029598987 0.07091775 0.07530209
0.07352265 0.077642694 -0.08562725 0.069511354 0.07793071 -0.050355878 -0.07549144 0.08114677
-0.056108013 -0.03471901 0.040948924 -0.049291674 0.058408137 -0.046960596 0.041415405 0.06769758
0.088305734 0.016203018 0.08785556 0.06415791 0.010764623 0.05751641 0.0013282814 -0.033647493
0.062333826 0.011876779 -0.053030197 0.022878202 0.09399869 -0.029045155 -0.009779971 -0.06228631
00000000: b714 90bc eed4 66bc 5026 24bc 712a aabc
00000010: ef58 8dbd 9921 31bd 5688 593c 0e96 703d
00000020: 2037 bc3d 1408 ac3d ea49 2dbd 4d62 593d
00000030: 2dbb 0bbd 6953 723c 3626 b83d 314d 3c3d
00000040: e060 843d c627 4d3d 9577 82bc ebda 9e3d
00000050: 6e20 fc3a 74f1 6f3d 4dbc 84bd 4968 133c
00000060: 3e0f 79bd 24e3 f6bb e6d9 a63d 57c0 773d
00000070: da4e 393d 8c4d b6bd 1fb5 b9bd 5c69 a5bd
00000080: 082e 8abd 0fd2 b73c 0568 f73c 410f b83d
00000090: 6976 243d acbb b7bd d239 68bd 328a 9b3d
000000a0: a610 4abd 8fd2 27bd ac74 cebc 4c84 833d
000000b0: a0a0 903d 1980 3bbd 5088 57bc eb87 ea3c
000000c0: 0a6b 473c e634 573d 1158 553d 3c65 4d3a
000000d0: 421c 07bd 732e 0bbc a433 a8bd e79e a13a
000000e0: 96e6 063d da61 363d 859d 993d 7f8d 953d
000000f0: 7d10 4f3d fc21 b33d c5cf 16bd f05d 70bb
00000100: f804 e83c 5c23 b43d 91d0 fbbc 303b 963d
00000110: 9317 5b3d 0b67 da3c 18aa 60bd ce71 c53d
00000120: 7666 12bd f341 28bd 0c78 adbd 7746 afbd
00000130: 807d 49bc 7937 333b dca2 d63d 694b 97bd
00000140: dd0d 10bd d33d 2f3d bca4 b8bd afec 413d
00000150: 7c1e a23c 5a75 2e3d f2e6 713d 32b9 94bc
00000160: 48eb f2ba 9435 0dbc c19a b8bc 7d63 0a3d
00000170: 1b57 603d b327 da3b d078 5ebd 68a3 b63d
00000180: 20ca 1c3d b0a0 50bd c3ca d83c e335 8f3d
00000190: e864 4c3d 5da8 9d3b 46f9 f73c 9855 c63c
000001a0: c6a6 fbbb c525 bb3c 2c46 74bb 4b56 a2bd
000001b0: 9f40 7ebd e05d 80bd c5f2 6f3d 4d9e ba3d
000001c0: 6ddc 1bbd 1a84 86bd e95a b9bd 81c5 22bd
000001d0: ad2e 413d a66f 85bd 731f 003d a9b1 a53c
000001e0: 5313 fb3c 0bbf ddbc 9c65 88bd f893 9d3d
000001f0: 01bd 073d e8d1 aabd 0588 9fbc c9fd 92bd
00000200: 867a 0f3d 53fd f83c 7849 603d ea6b 47bd
00000210: 9739 843d d1b1 fc3c fef1 383c a99d 9e3d
00000220: 6e81 06bd 57e3 e5bc 4912 ea3b 2e44 aa3d
00000230: 89be 503d 2125 a13d 8da8 46bc abfb a3bd
00000240: 9e17 9d3d f3ed 09bd 4731 3abc 7925 643d
00000250: 632d 84bd 001a 813d 909e 2c3c a8fe 363d
00000260: ac59 c83d 0e68 bcbc 7d8a 753c 2c06 bb3d
00000270: c8d1 b7bd d6bd a8bd 60ba 78bc b04d f73c
00000280: 0638 1d3d 13bb 45bd 8e27 943d 3abe 4b3d
00000290: 21cc ae3c bdac 123c f2ed 1ebc f62d 89bd
000002a0: 922e bc3d 2c15 943d 125d 23bd 0bc7 a63c
000002b0: b7f9 a53d cff0 653d b99b 99bc 81d7 adbd
000002c0: c894 07bb 1355 3a3d 856d f7bc ba5a a7bd
000002d0: 758d 843d a431 ab3d 79f1 5dbc 6304 8bbd
000002e0: 78f0 bb3d c478 bd3d 482c 9d3d f7f9 523c
000002f0: 6945 9ebd fbb1 223c 6cc7 af3d f8f9 17bc
00000300: 7cd5 64bd 6f2d 5d3d fa37 bbbd 1b68 a93d
00000310: a18c ad3d 2f50 313d dc6e 593d 83bd 01bc
00000320: d256 97bd f582 ed3c e4d8 e93c d47c 883d
00000330: d8a4 b2bd 1ec8 5bbc 51c3 1d3d 9e0b 803d
00000340: 62e7 91bd 751b 483d 94dc 0f3d e1a0 753d
00000350: d1fc cc3a d380 ca3b 408e 1b3c 6a5f a0bd
00000360: 72f8 e43b a890 e8bb c51c 053d 8e52 153d
00000370: 1ee5 3b3c 9379 f2bc 533d 913d fb37 9a3d
00000380: 0b93 963d 2203 9f3d 575d afbd f85b 8e3d
00000390: 239a 9f3d f741 4ebd 429b 9abd 4730 a63d
000003a0: 84d1 65bd 8535 0ebd 0fba 273d 11e6 49bd
000003b0: 5f3d 6f3d c159 40bd 33a3 293d 07a5 8a3d
000003c0: a3d9 b43d 31bc 843c 9eed b33d 3965 833d
000003d0: 1a5e 303c 5496 6b3d ba19 ae3a f4d1 09bd
000003e0: c151 7f3d d296 423c 3136 59bd 116b bb3c
000003f0: 6382 c03d 1bf0 edbc 2c3c 20bc ee1f 7fbd

lstm.bias_ih_l1 f4 [512]
0.007557243 0.009490975 0.002587581 0.0081399195 -0.0022096701 0.005163768 0.0045612487 0.010225102
0.0072157932 0.00648794 -4.59217e-05 0.005134298 0.010232293 -0.000560906 0.0049360613 0.009796685
0.016230693 0.012954997 0.0027414314 -0.003946077 0.00034882227 0.0011107931 0.016186727 0.013100113
0.0036956363 -0.001163777 0.0005204195 0.0032206576 0.0073335017 0.0063656373 0.0029723574 0.0031525588
0.0038862834 0.0013760289 -0.0026427014 0.015942508 0.008667134 0.005971176 0.006932555 0.0020237062
0.009471729 0.011057014 0.012297473 0.011021699 0.009300042 0.0040119076 0.006956847 0.011468809
0.0032689897 0.013890861 0.0065890644 0.0039766547 0.0026159363 -0.0007728983 0.013280665 -0.0005122981
0.0011633389 0.017774574 -0.0029736958 0.007531524 0.0027780964 -0.0011580891 0.0035020788 0.005444532
0.0045481515 0.013697965 -0.001819828 0.0026494826 0.0068317684 -0.006032805 0.010202803 0.000402978
0.003590339 0.0026098944 -0.0008582902 0.014493736 0.009816399 0.0049652867 0.0200769 0.0038645167
0.0029912528 0.0022371581 0.0017153954 0.0014673026 0.00887465 0.004101219 0.0002371256 0.01250805
0.008677137 0.005136565 0.0040557687 -0.00032539206 0.010153287 0.01600508 0.0023936636 0.005856306
-0.0007273238 0.0014363319 0.010044122 0.016806534 0.0047927033 0.0029516902 0.011774451 0.00354198
0.007887734 0.0025351048 0.0053613954 0.0055421675 0.0018190964 0.009868438 0.006070557 0.013644518
0.003750172 0.0043717357 0.003874433 0.005418129 0.0043757553 0.0048741805 0.013208809 -0.0025231345
0.007875235 0.0037122571 0.0041144295 0.0072943666 0.0116042355 0.0038962797 0.0035884394 0.001732696
-0.000690418 0.0077046906 -0.00017174751 0.0077539175 -0.0017561197 -0.0047499826 0.0044873506 0.0011683366
-0.004476573 0.004111238 -0.00068094383 -0.0024462405 -0.0067115324 -0.000873519 -0.0015314205 -0.0033695966
0.008521144 0.0093820505 5.040754e-05 -0.0043298164 -0.0026789778 -0.0015921919 0.015502971 0.011859687
0.0019527167 -0.0034191867 -0.0011597818 -0.0031538203 -0.00019973241 0.0040817973 0.0025751877 -0.00092691876
-0.002733741 -0.003125368 -0.0015458794 -0.0057216273 0.0044656075 0.0005100506 0.0056788833 0.0018998141
0.002637298 0.0078049144 0.004870894 0.008694951 0.006501675 0.0017649165 -0.0003871755 0.0011342168
-0.002096058 -0.0033940275 0.002480987 -0.0024264308 -0.0029518844 -0.004106328 0.01208389 -0.00090410555
0.0008948401 0.013588865 -0.002903349 0.005108958 -0.0007095859 -0.0031233935 -0.0009427831 0.0038156891
0.002310733 0.012308619 -0.0011425558 -0.00064995064 -0.004127235 -0.0077460157 0.007333327 0.00092374434
0.00091765716 -0.003066505 -0.0028911962 -0.0005080065 0.0033188632 0.0027267511 0.018273465 0.002475641
-0.007450858 -0.0014401673 0.0022955097 -3.477141e-05 0.0040875548 9.8303746e-05 -0.0008501983 0.0025804953
0.0041373023 0.0005847936 -0.001304803 0.0011592229 0.0018820495 0.0045955214 0.00013552888 0.00487864
0.001070583 0.00064388313 -0.0034883092 0.0035849726 0.00080873596 -0.0008036936 0.01068407 0.0074880915
0.0005967789 -0.0004279481 0.002981787 -0.00018162982 -0.0005213409 0.0023882436 0.0051531545 -0.0011575017
0.0030525322 0.0031121636 0.004646895 -0.006332166 -0.0017378979 0.0017873328 9.502943e-05 -0.0025715244
-0.003594479 -0.00020754531 0.0049077496 0.00486654 0.0098742265 -0.005176833 -0.00047481057 -0.0010670942
00000000: c0a2 f73b 0980 1b3c 6894 293b 4c5d 053c
00000010: 1dd0 10bb d334 a93b 8776 953b 3087 273c
00000020: 7672 ec3b c998 d43b 0d9c 40b8 9d3d a83b
00000030: 59a5 273c c409 13ba afbe a13b 4682 203c
00000040: 3bf6 843c 3241 543c 96a9 333b 184e 81bb
00000050: 22e2 b639 0898 913a 079a 843c dba1 563c
00000060: 7d32 723b e089 98ba c36c 083a ab11 533b
00000070: df4d f03b d696 d03b e2cb 423b 299b 4e3b
00000080: 04b1 7e3b de5b b43a 2c31 2dbb dd99 823c
00000090: 9800 0e3c dba9 c33b 7d2a e33b 28a0 043b
000000a0: 502f 1b3c 7a28 353c 577b 493c 5b94 343c
000000b0: 345f 183c 5276 833b 43f6 e33b ace7 3b3c
000000c0: 8c3c 563b 7e96 633c 14e9 d73b 994e 823b
000000d0: 2170 2b3b 549c 4aba 2597 593c be4b 06ba
000000e0: 2d7b 983a fc9b 913c 56e2 42bb 01cb f63b
000000f0: b910 363b 06cb 97ba 2283 653b 0b68 b23b
00000100: a908 953b 6e6d 603c 4b87 eeba f1a2 2d3b
00000110: 07dd df3b d6ae c5bb a829 273c cb46 d339
00000120: e54b 6b3b c30a 2b3b e1fe 60ba 2377 6d3c
00000130: f6d4 203c d8b3 a23b 5078 a43c d543 7d3b
00000140: e508 443b 499d 123b 1ed7 e03a 8152 c03a
00000150: fb66 113c 8563 863b eba4 7839 90ee 4c3c
00000160: 8d2a 0e3c a150 a83b 41e6 843b 6299 aab9
00000170: f959 263c 161d 833c 03df 1c3b 41e6 bf3b
00000180: e0a9 3eba 4d43 bc3a 1a90 243c dbad 893c
00000190: 1c0c 9d3b 2571 413b a0e9 403c 9020 683b
000001a0: 8e3b 013c 0024 263b a5ae af3b 129b b53b
000001b0: bf6e ee3a 3baf 213c 86eb c63b 428d 5f3c
000001c0: 72c5 753b c740 8f3b 33ea 7d3b 8f8a b13b
000001d0: 7f62 8f3b 97b7 9f3b c369 583c 2c5b 25bb
000001e0: 2107 013c 5749 733b 56d2 863b 9505 ef3b
000001f0: b11f 3e3c ba58 7f3b 062c 6b3b a11b e33a
00000200: 2bfd 34ba a177 fc3b 1f17 34b9 9314 fe3b
00000210: 992d e6ba bea5 9bbb a00a 933b df22 993a
00000220: 37b0 92bb 90b7 863b 5e81 32ba 1b51 20bb
00000230: 6aec dbbb defc 64ba f2b9 c8ba 73d4 5cbb
00000240: 459c 0b3c 2cb7 193c af6c 5338 22e1 8dbb
00000250: ca91 2fbb 18b1 d0ba 2c00 7e3c 224f 423c
00000260: 4df2 ff3a 6f14 60bb d203 98ba 53b0 4ebb
00000270: 436f 51b9 99c0 853b 7bc4 283b 77fc 72ba
00000280: 9028 33bb f9d2 4cbb 1b9f caba 7d7c bbbb
00000290: 3b54 923b ebb4 053a ed15 ba3b 2f03 f93a
000002a0: 85d6 2c3b 5ec0 ff3b 059c 9f3b 4575 0e3c
000002b0: 010c d53b c554 e73a d1fd cab9 00aa 943a
000002c0: 055e 09bb 556e 5ebb 0e98 223b c104 1fbb
000002d0: 6774 41bb 608e 86bb 82fb 453c 7f01 6dba
000002e0: b493 6a3a d5a3 5e3c 1d46 3ebb 0c69 a73b
000002f0: 8103 3aba d9b1 4cbb 1a25 77ba a410 7a3b
00000300: ab6f 173b 17aa 493c d0c1 95ba 7361 2aba
00000310: c23d 87bb 4ad2 fdbb 684c f03b 6f27 723a
00000320: ee8e 703a 6bf7 48bb 397a 3dbb bd2b 05ba
00000330: 4981 593b 4bb3 323b 3cb2 953c 5d3e 223b
00000340: 5426 f4bb ffc3 bcba 4370 163b 84d7 11b8
00000350: e5f0 853b 6c28 ce38 d8df 5eba 871d 293b
00000360: 3592 873b d64c 193a ec05 abba 11f1 973a
00000370: 1aaf f63a 0796 963b c21c 0e39 00dd 9f3b
00000380: ce52 8c3a 44ca 283a 1e9c 64bb dcf1 6a3b
00000390: 5a01 543a f7ae 52ba 3d0c 2f3c aa5e f53b
000003a0: 2771 1c3a 395e e0b9 166a 433b e273 3eb9
000003b0: 98aa 08ba 1484 1c3b cbdb a83b 50b7 97ba
000003c0: fe0c 483b 71f5 4b3b fb44 983b 0f7e cfbb
000003d0: 2dca e3ba f044 ea3a 894a c738 0587 28bb
000003e0: 5a91 6bbb 85a0 59b9 30d1 a03b 7f77 9f3b
000003f0: 82c7 213c 6ca2 a9bb ffef f8b9 bddd 8bba
