models/3inst/checkpoint/BDGVTCX.pth (torch, 876348 bytes, 13 tensors)

lstm.weight_ih_l0 f4 [512, 5]
0.07107234 0.04992381 0.027204288 0.009186693 0.095848635 -0.100306824 0.10174698 -0.054327365
0.091744006 -0.05152841 -0.08381564 -0.064212784 -0.0059141405 -0.044117987 0.10166168 -0.020545878
-0.08146195 0.07863818 -0.029623928 0.033699516 0.065754294 -0.04535141 -0.07084531 -0.05947703
-0.05360216 -0.006365364 -0.07475336 0.07545234 0.036404755 -0.048591536 -0.06009104 0.09448575
-0.009136929 0.038194984 0.04059721 -0.03887251 -0.050916005 0.02521584 0.094158985 -0.07094752
0.072533995 0.03155804 0.051066294 0.03642578 -0.10079315 -0.05509085 0.11043041 0.01884762
-0.06844773 -0.072955035 0.09183676 -0.053982954 0.09366219 0.029436395 0.059377838 -0.07746476
-0.04708645 -0.09648528 0.03750916 -0.053450495 0.028906405 -0.0429669 0.11399146 -0.031925943
0.06306811 0.056938194 0.05348505 0.020630682 0.07213269 -0.0011993265 0.09449748 -0.042984825
0.073303126 -0.08015774 -0.023559263 0.044329647 -0.017005023 -0.031674024 -0.0125786755 -0.026233459
0.10963437 0.052975688 0.095853314 0.07078952 -0.011653648 -0.09383384 0.036602087 -0.07680241
0.042841412 0.051467914 0.0027932946 0.03114676 -0.014265072 0.08497477 0.030407548 -0.04435345
-0.07357778 0.10802922 -0.06981523 -0.030261345 -0.0093020145 -0.059005108 0.016721165 -0.0082152495
-0.10592401 0.011133925 -0.07106497 -0.01249995 -0.06147755 -0.0018150631 -0.04691412 0.10213555
-0.07108205 -0.032882597 0.047644507 0.096221246 0.09488771 -0.08080714 -0.048158772 0.091470204
-0.0660034 -0.07344574 -0.076093726 -0.072499394 0.090929195 0.031297874 0.08741535 -0.047875006
0.061895765 -0.08231528 0.050460897 0.1023548 0.09327992 -0.10434971 -0.1056582 -0.06295884
0.010733874 0.02033416 0.012772215 -0.10009743 -0.021602446 0.031354748 -0.067226425 0.029967258
-0.046293836 0.10616778 0.052909877 -0.022198146 0.049483173 0.09579642 -0.059698623 -0.09241656
-0.06559361 -0.11229388 -0.103864655 -0.053324047 0.009025894 0.02606539 0.0010997186 -0.011283539
-0.055988275 0.10081036 -0.06782227 -0.07159927 -0.06130332 0.006838313 -0.06211744 0.039992277
-0.0692923 -0.048319682 0.03211748 0.11248744 -0.048623692 0.06966673 -0.09704341 0.044018168
0.030573145 0.077547766 -0.009451748 0.06993447 -0.04017877 0.05288016 -0.012209267 0.016196813
-0.06596982 0.12388753 -0.039485656 0.029683625 -0.06202602 0.08590607 0.0018838453 0.040811557
0.04468829 -0.0814022 -0.02337994 0.060716048 0.0898384 0.02498697 -0.053749938 -0.030667827
0.058936194 -0.015709998 0.0046400735 0.058535133 -0.010974602 -0.011573032 -0.027125292 -0.07283175
0.09221997 0.087819174 0.026568275 -0.07991307 0.09873763 -0.08624189 0.047054924 0.08951499
-0.040280856 -0.04227941 -0.073075004 0.024970556 -0.01549673 -0.048413794 -0.07929223 0.06261033
0.010117809 0.019572575 0.055748172 0.07283472 -0.03489417 0.03539337 -0.09194175 0.03450339
-0.049565736 0.001293458 0.038814493 -0.06838496 0.10458806 -0.032339565 0.05775123 0.016886609
-0.081910826 0.06419278 0.100976594 0.039521053 -0.077352844 -0.08949875 -0.10474351 -0.03444979
0.017949041 0.06357299 -0.084182695 -0.031202473 0.055250973 -0.028278286 0.058860242 -0.057599105
00000000: 608e 913d e97c 4c3d 87db de3c c883 163c
00000010: 4a4c c43d aa6d cdbd b860 d03d 5f86 5ebd
00000020: 48e4 bb3d 740f 53bd 89a7 abbd fe81 83bd
00000030: 68cb c1bb 10b5 34bd 0034 d03d d44f a8bc
00000040: 86d5 a6bd 0e0d a13d e1ad f2bc 8108 0a3d
00000050: 30aa 863d 66c2 39bd 5917 91bd 309e 73bd
00000060: f08d 5bbd 8b94 d0bb 4a18 99bd c286 9a3d
00000070: 271d 153d eb07 47bd 0622 76bd bf81 c13d
00000080: 0fb3 15bc 5872 1c3d 4349 263d c838 1fbd
00000090: 4d8d 50bd 7391 ce3c 6dd6 c03d ef4c 91bd
000000a0: b48c 943d 0143 013d e42a 513d 3333 153d
000000b0: a46c cebd f1a6 61bd 5729 e23d 5366 9a3c
000000c0: 532e 8cbd 7369 95bd e914 bc3d 3b1d 5dbd
000000d0: f6d1 bf3d 9824 f13c 2d36 733d d8a5 9ebd
000000e0: b9dd 40bd 139a c5bd 34a3 193d e8ee 5abd
000000f0: 20cd ec3c 0ffe 2fbd 5b74 e93d c7c4 02bd
00000100: da29 813d 0638 693d 2413 5b3d ad01 a93c
00000110: 4eba 933d b832 9dba e587 c13d db10 30bd
00000120: f31f 963d be29 a4bd 5bff c0bc 0193 353d
00000130: 1e4e 8bbc 9fbc 01bd ca16 4ebc 8de7 d6bc
00000140: fc87 e03d 09fd 583d be4e c43d 19fa 903d
00000150: f1ee 3ebc f52b c0bd 12ec 153d 954a 9dbd
00000160: 7a7a 2f3d 05d0 523d b50f 373b 7d27 ff3c
00000170: 0cb8 69bc 4107 ae3d 4019 f93c f7ab 35bd
00000180: f2af 96bd 6c3e dd3d 4afb 8ebd a4e6 f7bc
00000190: 7a67 18bc 57af 71bd d3fa 883c 4199 06bc
000001a0: b0ee d8bd 116b 363c 838a 91bd 97cc 4cbc
000001b0: e2cf 7bbd 69e7 edba 0529 40bd 712c d13d
000001c0: 7793 91bd e7af 06bd e326 433d a50f c53d
000001d0: 7d54 c23d 377e a5bd 2242 45bd bb54 bb3d
000001e0: ca2c 87bd b86a 96bd 07d7 9bbd 907a 94bd
000001f0: 1639 ba3d 3332 003d d206 b33d 9518 44bd
00000200: 6a86 7d3d ea94 a8bd 16b0 4e3d 659f d13d
00000210: 8b09 bf3d 4db5 d5bd 5463 d8bd 90f0 80bd
00000220: 21dd 2f3c d393 a63c 8d42 513c e2ff ccbd
00000230: 9df7 b0bc d66d 003d 02ae 89bd e57d f53c
00000240: 9b9e 3dbd 7e6e d93d 07b8 583d e3d8 b5bc
00000250: deae 4a3d ea30 c43d 8b86 74bd e544 bdbd
00000260: f155 86bd 55fa e5bd feb6 d4bd 516a 5abd
00000270: 58e1 133c 1687 d53c 6f24 903a 98de 38bc
00000280: f653 65bd a975 ce3d 67e6 8abd a3a2 92bd
00000290: 3119 7bbd ed13 e03b db6e 7ebd f1ce 233d
000002a0: 1fe9 8dbd dcea 45bd 9e8d 033d d15f e63d
000002b0: a329 47bd 6ead 8e3d b2be c6bd 654c 343d
000002c0: 8874 fa3c 5dd1 9e3d 81db 1abc ce39 8f3d
000002d0: 7e92 24bd de98 583d 6109 48bc 2eaf 843c
000002e0: 2f1b 87bd bfb8 fd3d b6bb 21bd 132b f33c
000002f0: ff0e 7ebd 86ef af3d 5ceb f63a 052a 273d
00000300: 120b 373d 32b6 a6bd 4a87 bfbc 64b1 783d
00000310: 32fd b73d 79b1 cc3c e528 5cbd 183b fbbc
00000320: 1467 713d 41b2 80bc c20b 983b 89c2 6f3d
00000330: d1ce 33bc d09c 3dbc dc35 debc d028 95bd
00000340: d3dd bc3d 8ada b33d b6a5 d93c 77a9 a3bd
00000350: f436 ca3d 979f b0bd aabc 403d a353 b73d
00000360: 8afd 24bd 2d2d 2dbd 59a8 95bd 0d8f cc3c
00000370: ffe5 7dbc 8b4d 46bd f763 a2bd d839 803d
00000380: 2bc5 253c aa56 a03c 3258 643d 5f2a 953d
00000390: 30ed 0ebd a3f8 103d f54b bcbd 6d53 0d3d
000003a0: 7105 4bbd 4089 a93a f2fb 1e3d 6a0d 8cbd
000003b0: 4432 d63d 7e76 04bd 8e8c 6c3d c955 8a3c
000003c0: ddc0 a7bd 8177 833d d1cc ce3d d4e0 213d
000003d0: 2b6b 9ebd 1f4b b7bd c483 d6bd 391b 0dbd
000003e0: de09 933c 8e32 823d fa67 acbd 549c ffbc
000003f0: d84e 623d dda7 e7bc 7017 713d 0aed 6bbd

lstm.weight_hh_l0 f4 [512, 128]
-0.07315488 -0.0023683968 0.02967158 -0.013381963 0.039806392 -0.06824647 -0.05423828 -0.02009499
-0.041010384 -0.062328152 0.06382456 0.10181954 0.019130787 4.2500855e-05 0.09628898 0.089089125
-0.06713023 0.027207749 0.041126672 0.053538065 -0.041621137 0.0123029165 0.025051173 -0.027954502
0.09677712 0.09505257 0.06564505 -0.021385202 0.048645385 -0.005783571 -0.0614356 -0.08647204
0.025104688 0.06473128 0.019634748 0.0015320659 -0.035638046 0.049129695 -0.06215321 0.10183824
0.06774742 0.036556087 -0.003003603 -0.055895373 -0.04345237 -0.059748743 0.0696947 0.06407987
0.0071017547 0.02595701 0.062174436 -0.022257056 0.004216441 -0.062285095 0.042136345 0.053744998
-0.03795465 0.025411518 0.07624551 0.0710983 0.021866933 -0.07173324 -0.0039647175 0.038686648
0.03827654 0.0048261364 -0.0971832 -0.05493538 0.10143191 0.054206733 -0.014391418 -0.024359882
-0.0055746473 -0.033271413 -0.051004525 0.04055692 -0.047960915 -0.0759608 -0.028863644 0.033160053
-0.06367566 -0.07801315 -0.050432004 0.07323213 -0.06221442 0.06552802 -0.080473624 0.08280701
0.038381506 -0.079713956 0.0077560353 0.08138365 0.009946423 0.03772651 0.09146545 -0.05154093
-0.011761957 -0.008869524 -0.00462862 0.08712192 0.08438518 -0.030225981 0.10588357 0.029219579
-0.07821783 -0.02035618 -0.05438336 -0.061544348 0.090571076 -0.08327176 -0.040325835 0.07412263
0.041852348 0.084089845 0.048112094 -0.07608392 0.015071646 -0.078916885 -0.07562724 -0.0380897
0.06438802 -0.0507791 0.01338125 -0.080002055 -0.072936036 -0.0046096104 -0.02019547 0.021107115
0.051307082 -0.06369347 0.009696581 -0.035776053 0.059796173 0.065153725 0.05321464 -0.0021538406
0.032427892 -0.063930206 0.0023662357 0.0058115926 0.03133776 -0.024570828 -0.09039362 0.08925827
-0.05456628 -0.054836527 -0.019804856 -0.08552432 0.05293716 0.08326301 -0.01784729 0.09613869
0.007657339 -0.024212377 -0.0083925035 0.08739725 7.8664314e-05 -0.0031572916 0.07066898 0.072183184
-0.05606842 -0.025534676 -0.028944815 0.090305544 0.054456223 0.075316675 0.063229896 0.08140834
0.026861949 -0.0714197 -0.085824236 0.02615051 -0.07932581 0.08608834 0.071780406 0.046780802
0.012390871 0.02468203 0.0044799126 0.008835703 0.07567555 -0.06026857 -0.042052504 0.046956357
0.04321307 0.0806377 0.07838359 0.016174648 0.04466531 0.05726095 0.070114344 -0.013405773
-0.00980056 -0.05368855 0.08598971 -0.0061643855 0.020298693 -0.03723959 -0.046654712 -0.0018090755
-0.035013583 -0.0674027 -0.04782267 0.036625322 -0.051329926 0.046652853 0.07506207 -0.051641945
0.024989845 -0.029744456 -0.08057098 0.09605046 -0.049164377 -0.042180456 -0.04893702 0.03238799
-0.054709435 -0.01966188 0.045307685 0.061560396 0.02135904 0.06134995 0.034070626 -0.033033755
0.052021936 -0.054655716 0.06316592 -0.03334251 0.08809827 -0.011082621 0.010319618 0.04583577
-0.08711205 -0.056713153 -0.06083223 0.0978514 -0.088202454 0.049231373 0.055488463 0.0012989072
0.072669454 0.077588886 0.028433152 -0.08195461 -0.090337716 0.012934007 0.021607015 -0.0015618948
0.037970357 0.058479138 -0.00033930712 0.08356847 -0.032709584 0.027691243 0.025751678 -0.08076494
00000000: 3ad2 95bd 1b37 1bbb d011 f33c 0540 5bbc
00000010: 070c 233d cec4 8bbd f528 5ebd 409e a4bc
00000020: 81fa 27bd ce4b 7fbd 73b6 823d c386 d03d
00000030: 2bb8 9c3c f242 3238 2833 c53d 5c74 b63d
00000040: 937b 89bd c9e2 de3c 7174 283d bb4a 5b3d
00000050: ed7a 2abd 2c92 493c 1e38 cd3c d700 e5bc
00000060: 1533 c63d ecaa c23d e970 863d 0530 afbc
00000070: 6240 473d 1c84 bdbb e5a3 7bbd 4118 b1bd
00000080: 59a8 cd3c d591 843d 0dd9 a03c 9acf c83a
00000090: 33f9 11bd 383c 493d 5d94 7ebd 9190 d03d
000000a0: 29bf 8a3d d6bb 153d 19d8 44bb 8cf2 64bd
000000b0: 1dfb 31bd 19bb 74bd 18bc 8e3d 4f3c 833d
000000c0: d6b5 e83b cca3 d43c 9faa 7e3d 6e54 b6bc
000000d0: 122a 8a3b a81e 7fbd 2997 2c3d b723 5c3d
000000e0: 5676 1bbd d12b d03c 9b26 9c3d fc9b 913d
000000f0: 4822 b33c e0e8 92bd 76ea 81bb e475 1e3d
00000100: dcc7 1c3d 9124 9e3b fc07 c7bd ec03 61bd
00000110: 89bb cf3d e107 5e3d fbc9 6bbc 608e c7bc
00000120: 88ab b6bb 9b47 08bd 1fea 50bd 031f 263d
00000130: aa72 44bd 5691 9bbd 7373 ecbc d6d2 073d
00000140: 6268 82bd 5cc5 9fbd ca91 4ebd bafa 953d
00000150: 8cd4 7ebd 8e33 863d 5bcf a4bd b996 a93d
00000160: ed35 1d3d 1241 a3bd 5726 fe3b 79ac a63d
00000170: 52f6 223c 1d87 1a3d 3d52 bb3d 951c 53bd
00000180: 39b5 40bc 7b51 11bc aeab 97bb fa6c b23d
00000190: 23d2 ac3d 7a9c f7bc 7cd9 d83d e65d ef3c
000001a0: ab30 a0bd 01c2 a6bc 16c1 5ebd ed15 7cbd
000001b0: 547d b93d 628a aabd b42c 25bd 9bcd 973d
000001c0: 5e6d 2b3d 4c37 ac3d 3011 453d e3d1 9bbd
000001d0: 11ef 763c 2d9f a1bd 74e2 9abd f203 1cbd
000001e0: dedd 833d bffd 4fbd 083d 5b3c 1ed8 a3bd
000001f0: 7d5f 95bd 370c 97bb f870 a5bc d4e8 ac3c
00000200: 6027 523d b971 82bd 69de 1e3c e989 12bd
00000210: d5ec 743d 516f 853d 98f7 593d 7327 0dbb
00000220: 1cd3 043d d7ed 82bd d912 1b3b 2c6f be3b
00000230: 065c 003d c348 c9bc 4a20 b9bd 0acd b63d
00000240: e480 5fbd 449c 60bd cb3d a2bc 6027 afbd
00000250: a3d4 583d cc85 aa3d 7b34 92bc 5de4 c43d
00000260: 6aea fa3b 0959 c6bc b680 09bc 54fd b23d
00000270: 95f8 a438 90ea 4ebb e6ba 903d c7d4 933d
00000280: 00a8 65bd 192e d1bc ad1d edbc 1df2 b83d
00000290: 7d0d 5f3d a13f 9a3d ad7e 813d 6ab9 a63d
000002a0: 970d dc3c 7e44 92bd 9ec4 afbd 9839 d63c
000002b0: 9275 a2bd 154f b03d 9b01 933d 3a9d 3f3d
000002c0: 1403 4b3c f831 ca3c 3bcc 923b a0c3 103c
000002d0: c8fb 9a3d 2ddc 76bd 3f3f 2cbd 4f55 403d
000002e0: 3000 313d 6125 a53d 9387 a03d b280 843c
000002f0: f9f2 363d 758a 6a3d 1c98 8f3d e3a3 5bbc
00000300: 8792 20bc 86e8 5bbd 601b b03d 9dfe c9bb
00000310: 7249 a63c 8a88 18bd 0319 3fbd 801e edba
00000320: 676a 0fbd 6d0a 8abd b4e1 43bd 6f04 163d
00000330: 543f 52bd 1017 3f3d 24ba 993d 8186 53bd
00000340: 81b7 cc3c a5aa f3bc 6602 a5bd 1bb6 c43d
00000350: 9660 49bd 6ac5 2cbd 2f72 48bd 45a9 043d
00000360: 0017 60bd f311 a1bc 8d94 393d c126 7c3d
00000370: 27f9 ae3c 164a 7b3d a48d 0b3d 674e 07bd
00000380: f414 553d acde 5fbd 225d 813d 2892 08bd
00000390: de6c b43d e293 35bc 9d13 293c 4abe 3b3d
000003a0: cd67 b2bd 0d4c 68bd 372b 79bd 5166 c83d
000003b0: 7da3 b4bd d6a6 493d df47 633d 1840 aa3a
000003c0: b9d3 943d ece6 9e3d a4ec e83c d2d7 a7bd
000003d0: fb02 b9bd 28e9 533c 3201 b13c 7eb8 ccba
000003e0: ce86 1b3d d287 6f3d 08e5 b1b9 f225 ab3d
000003f0: 7cfa 05bd bfd8 e23c 2ff5 d23c 1768 a5bd

lstm.bias_ih_l0 f4 [512]
0.011701177 -0.0028100715 0.012721557 -0.0022359905 0.0010204111 0.013178026 0.013008174 0.00676497
0.0033124986 0.0045047128 -0.0020392945 0.0010492152 0.017438509 -0.0030737834 0.0055407602 0.009310375
0.01559211 0.006885893 0.00769714 0.013126664 0.011580436 0.014386156 0.0018841428 0.007494417
0.01292465 0.011082788 0.0035065885 0.0071697067 0.003326355 0.0047360756 0.010743832 0.0052996967
0.0014609905 0.0027457552 0.0068838163 0.010879209 0.011932001 0.010540371 0.01175629 0.010931432
0.009350718 0.009586662 0.0057096984 -0.008859218 0.006764155 0.0101677915 0.0069069094 0.018997695
0.0014625817 0.0017688966 0.008587751 0.0005409014 0.0074706096 0.005426582 0.009247168 0.0136766285
0.008650048 0.006673022 0.0026989866 0.009445333 0.0060002767 0.001007538 0.0021554872 0.0049917353
0.011603893 0.0017277244 0.009330803 0.012073323 0.009104055 0.014935837 0.010959773 0.015120746
0.008569249 0.006855167 0.005702044 0.004656402 0.009875569 0.005192086 0.015832625 0.0038473338
0.009604767 0.008403879 0.012993468 0.0049876235 0.009820655 0.016476637 0.0064205974 0.013076718
0.014558633 -0.0017900815 0.014061322 0.0013295711 0.0015495057 0.0125697125 0.009881876 -0.0008625945
0.0089457 0.013517183 0.015022131 -0.0023065754 0.010185102 0.009156816 0.010555225 0.011664502
0.010886476 -0.0022676084 0.00020484066 0.012244801 -0.0062360074 0.013123079 0.0019198625 0.0040642517
0.0043477356 0.012000695 0.0029278595 0.0041796486 0.011493363 0.006654579 0.007837905 0.011856488
0.011881109 0.011175348 0.005060032 -0.007524939 0.003507512 0.009963253 0.0064988313 0.005747346
0.009601836 0.0017263573 0.0020491246 -8.5460495e-05 -0.0019628357 0.0039102985 0.007769307 0.006720379
0.0055313148 0.0040107295 -0.0022254477 0.0014262599 0.008980696 -0.004139549 0.006708 0.008377654
0.014445123 0.004726072 0.00014470257 0.0040919017 0.008983961 0.013158722 0.0020919382 0.0010946989
0.010763488 0.009962964 0.0028730286 0.004071366 -0.00032116784 0.00052952114 0.009147372 0.0036895531
-0.0028373487 0.0013165331 0.005318191 0.0037504009 0.010389988 0.0050288355 0.0097114295 0.009622022
0.0062542204 0.003105158 0.006677075 -0.007505965 0.005263919 0.0032724172 0.0070834146 0.003347279
-0.0024734 -0.0043091956 0.006321729 0.002893351 0.0021725285 -0.0022719458 0.0047576847 0.017034
0.0018326512 0.005445949 0.0035584609 0.0036752785 0.0041793343 0.000266662 -0.0038956874 0.005736869
0.008321844 0.0009634307 0.006073936 0.010611214 0.008240746 0.0032568935 0.0059393696 0.011277133
0.0026969821 0.00152978 -0.00065855077 0.004001537 0.008313877 0.003785512 0.007823666 -0.001776854
-0.0021128778 0.007931811 0.008729167 0.0044721025 0.0059123766 0.0063487194 0.0074228956 0.007002877
0.00759381 -0.0007233758 0.0075135645 0.00019949842 0.00061925256 0.007517142 -0.0021603485 -0.0017723356
0.0084908465 0.0097425375 0.0086459 -0.0036361476 0.00703566 0.0012402986 0.004907329 0.010705645
0.011676114 -0.0020173623 0.0011219775 0.00954927 0.0016879049 0.013123762 0.0025178457 0.0021908113
0.006056235 0.006603755 -5.2952877e-05 -0.0010247985 0.004656527 0.006156527 0.006538572 0.009245147
0.006265166 0.0076801027 0.0011762966 -0.010150798 0.006457788 0.0044830306 0.002996843 0.003956454
00000000: 4bb6 3f3c 2d29 38bb 146e 503c b289 12bb
00000010: 51bf 853a a6e8 573c 3c20 553c aeac dd3b
00000020: 8116 593b 459c 933b afa5 05bb d285 893a
00000030: 34db 8e3c 8771 49bb 448f b53b 8b8a 183c
00000040: 0d76 7f3c 0fa3 e13b 4a38 fc3b 3811 573c
00000050: debb 3d3c e9b3 6b3c 57f5 f63a ba93 f53b
00000060: e9c1 533c 9594 353c cbce 653b dcef ea3b
00000070: fafe 593b 1531 9b3b e606 303c 14a9 ad3b
00000080: b57e bf3a 21f2 333b a391 e13b b63e 323c
00000090: 717e 433c 85b1 2c3c 749d 403c c019 333c
000000a0: c133 193c 6011 1d3c 6c18 bb3b 4126 11bc
000000b0: d8a5 dd3b cf96 263c 5b53 e23b 0ea1 9b3c
000000c0: 19b4 bf3a 52da e73a a3b3 0c3c 47cb 0d3a
000000d0: 04cc f43b 78d1 b13b 6f81 173c f013 603c
000000e0: eeb8 0d3c 5ea9 da3b 7be1 303b 99c0 1a3c
000000f0: f89d c43b 5e0f 843a 1343 0d3b b691 a33b
00000100: 411e 3e3c d074 e23a 39e0 183c 30cf 453c
00000110: 2d29 153c 71b5 743c 9f90 333c 01bd 773c
00000120: 0966 0c3c 4fa1 e03b 36d8 ba3b bb94 983b
00000130: 23cd 213c 6022 aa3b 6cb3 813c 8d23 7c3b
00000140: 505d 1d3c 6cb0 093c 8ee2 543c 386f a33b
00000150: d0e6 203c 03fa 863c e063 d23b bb3f 563c
00000160: 5587 6e3c 2ba1 eaba 7661 663c 0145 ae3a
00000170: c918 cb3a 32f1 4d3c 98e7 213c bd1f 62ba
00000180: fc90 123c 2d77 5d3c 621f 763c ea29 17bb
00000190: 6adf 263c 7806 163c d3ef 2c3c 781c 3f3c
000001a0: 315d 323c 289c 14bb 7fca 5639 6b9e 483c
000001b0: 6c57 ccbb 2f02 573c e5a3 fb3a 6a2d 853b
000001c0: 7377 8e3b 909e 443c 55e1 3f3b 6ff5 883b
000001d0: a94e 3c3c a80e da3b 8e6a 003c b741 423c
000001e0: fca8 423c cf18 373c a0ce a53b c393 f6bb
000001f0: 49de 653b e93c 233c 26f4 d43b 3c54 bc3b
00000200: 0551 1d3c f046 e23a 9b4a 063b 4139 b3b8
00000210: eba2 00bb f621 803b ac95 fe3b a036 dc3b
00000220: 0840 b53b 706c 833b d1d8 11bb 57f1 ba3a
00000230: c523 133c 0ea5 87bb c8ce db3b 6d42 093c
00000240: 3dab 6c3c 2add 9a3b 4dbb 1739 5c15 863b
00000250: 7731 133c ae97 573c e618 093b 007c 8f3a
00000260: 5759 303c b33b 233c 6c49 3c3b 1869 853b
00000270: 6b62 a8b9 90cf 0a3a dcde 153c 6ecc 713b
00000280: d0f2 39bb 858f ac3a 3844 ae3b 49c9 753b
00000290: c53a 2a3c eec8 a43b b01c 1f3c afa5 1d3c
000002a0: 34f0 cc3b e87f 4b3b 5dcb da3b 99f4 f5bb
000002b0: f47c ac3b 0d76 563b fd1b e83b 065e 5b3b
000002c0: c418 22bb 2734 8dbb 8226 cf3b 609e 3d3b
000002d0: fb60 0e3b ede4 14bb 5ae6 9b3b e38a 8b3c
000002e0: 9235 f03a ee73 b23b 1135 693b f1dc 703b
000002f0: ccf2 883b c5ce 8b39 ca4e 7fbb 58fc bb3b
00000300: 5858 083c bd8e 7c3a de07 c73b a8da 2d3c
00000310: 3204 073c 9b71 553b 0b9f c23b b9c3 383c
00000320: dabf 303b e682 c83a 98a2 2cba 531f 833b
00000330: ed36 083c 5a16 783b d52e 003c 54e5 e8ba
00000340: 3578 0abb 6df4 013c c804 0f3c b78a 923b
00000350: 9cbc c13b eb08 d03b c33b f33b 6478 e53b
00000360: 7fd5 f83b eea0 3dba 5934 f63b 7330 5139
00000370: 5655 223a 5c52 f63b a294 0dbb b74d e8ba
00000380: 311d 0b3c 2a9f 1f3c 88a7 0d3c 6f4c 6ebb
00000390: 658b e63b 8491 a23a a9cd a03b bb66 2f3c
000003a0: 2c4d 3f3c b935 04bb 510f 933a 8b74 1c3c
000003b0: b13c dd3a 0c05 573c 7102 253b b793 0f3b
000003c0: 6273 c63b 5064 d83b b819 5eb8 8852 86ba
000003d0: c895 983b b1bc c93b 8441 d63b f578 173c
000003e0: 064c cd3b 5fa9 fb3b f72d 9a3a 884f 26bc
000003f0: da9b d33b 63e6 923b af66 443b 24a5 813b

lstm.bias_hh_l0 f4 [512]
0.011701177 -0.0028100715 0.012721557 -0.0022359905 0.0010204111 0.013178026 0.013008174 0.00676497
0.0033124986 0.0045047128 -0.0020392945 0.0010492152 0.017438509 -0.0030737834 0.0055407602 0.009310375
0.01559211 0.006885893 0.00769714 0.013126664 0.011580436 0.014386156 0.0018841428 0.007494417
0.01292465 0.011082788 0.0035065885 0.0071697067 0.003326355 0.0047360756 0.010743832 0.0052996967
0.0014609905 0.0027457552 0.0068838163 0.010879209 0.011932001 0.010540371 0.01175629 0.010931432
0.009350718 0.009586662 0.0057096984 -0.008859218 0.006764155 0.0101677915 0.0069069094 0.018997695
0.0014625817 0.0017688966 0.008587751 0.0005409014 0.0074706096 0.005426582 0.009247168 0.0136766285
0.008650048 0.006673022 0.0026989866 0.009445333 0.0060002767 0.001007538 0.0021554872 0.0049917353
0.011603893 0.0017277244 0.009330803 0.012073323 0.009104055 0.014935837 0.010959773 0.015120746
0.008569249 0.006855167 0.005702044 0.004656402 0.009875569 0.005192086 0.015832625 0.0038473338
0.009604767 0.008403879 0.012993468 0.0049876235 0.009820655 0.016476637 0.0064205974 0.013076718
0.014558633 -0.0017900815 0.014061322 0.0013295711 0.0015495057 0.0125697125 0.009881876 -0.0008625945
0.0089457 0.013517183 0.015022131 -0.0023065754 0.010185102 0.009156816 0.010555225 0.011664502
0.010886476 -0.0022676084 0.00020484066 0.012244801 -0.0062360074 0.013123079 0.0019198625 0.0040642517
0.0043477356 0.012000695 0.0029278595 0.0041796486 0.011493363 0.006654579 0.007837905 0.011856488
0.011881109 0.011175348 0.005060032 -0.007524939 0.003507512 0.009963253 0.0064988313 0.005747346
0.009601836 0.0017263573 0.0020491246 -8.5460495e-05 -0.0019628357 0.0039102985 0.007769307 0.006720379
0.0055313148 0.0040107295 -0.0022254477 0.0014262599 0.008980696 -0.004139549 0.006708 0.008377654
0.014445123 0.004726072 0.00014470257 0.0040919017 0.008983961 0.013158722 0.0020919382 0.0010946989
0.010763488 0.009962964 0.0028730286 0.004071366 -0.00032116784 0.00052952114 0.009147372 0.0036895531
-0.0028373487 0.0013165331 0.005318191 0.0037504009 0.010389988 0.0050288355 0.0097114295 0.009622022
0.0062542204 0.003105158 0.006677075 -0.007505965 0.005263919 0.0032724172 0.0070834146 0.003347279
-0.0024734 -0.0043091956 0.006321729 0.002893351 0.0021725285 -0.0022719458 0.0047576847 0.017034
0.0018326512 0.005445949 0.0035584609 0.0036752785 0.0041793343 0.000266662 -0.0038956874 0.005736869
0.008321844 0.0009634307 0.006073936 0.010611214 0.008240746 0.0032568935 0.0059393696 0.011277133
0.0026969821 0.00152978 -0.00065855077 0.004001537 0.008313877 0.003785512 0.007823666 -0.001776854
-0.0021128778 0.007931811 0.008729167 0.0044721025 0.0059123766 0.0063487194 0.0074228956 0.007002877
0.00759381 -0.0007233758 0.0075135645 0.00019949842 0.00061925256 0.007517142 -0.0021603485 -0.0017723356
0.0084908465 0.0097425375 0.0086459 -0.0036361476 0.00703566 0.0012402986 0.004907329 0.010705645
0.011676114 -0.0020173623 0.0011219775 0.00954927 0.0016879049 0.013123762 0.0025178457 0.0021908113
0.006056235 0.006603755 -5.2952877e-05 -0.0010247985 0.004656527 0.006156527 0.006538572 0.009245147
0.006265166 0.0076801027 0.0011762966 -0.010150798 0.006457788 0.0044830306 0.002996843 0.003956454
00000000: 4bb6 3f3c 2d29 38bb 146e 503c b289 12bb
00000010: 51bf 853a a6e8 573c 3c20 553c aeac dd3b
00000020: 8116 593b 459c 933b afa5 05bb d285 893a
00000030: 34db 8e3c 8771 49bb 448f b53b 8b8a 183c
00000040: 0d76 7f3c 0fa3 e13b 4a38 fc3b 3811 573c
00000050: debb 3d3c e9b3 6b3c 57f5 f63a ba93 f53b
00000060: e9c1 533c 9594 353c cbce 653b dcef ea3b
00000070: fafe 593b 1531 9b3b e606 303c 14a9 ad3b
00000080: b57e bf3a 21f2 333b a391 e13b b63e 323c
00000090: 717e 433c 85b1 2c3c 749d 403c c019 333c
000000a0: c133 193c 6011 1d3c 6c18 bb3b 4126 11bc
000000b0: d8a5 dd3b cf96 263c 5b53 e23b 0ea1 9b3c
000000c0: 19b4 bf3a 52da e73a a3b3 0c3c 47cb 0d3a
000000d0: 04cc f43b 78d1 b13b 6f81 173c f013 603c
000000e0: eeb8 0d3c 5ea9 da3b 7be1 303b 99c0 1a3c
000000f0: f89d c43b 5e0f 843a 1343 0d3b b691 a33b
00000100: 411e 3e3c d074 e23a 39e0 183c 30cf 453c
00000110: 2d29 153c 71b5 743c 9f90 333c 01bd 773c
00000120: 0966 0c3c 4fa1 e03b 36d8 ba3b bb94 983b
00000130: 23cd 213c 6022 aa3b 6cb3 813c 8d23 7c3b
00000140: 505d 1d3c 6cb0 093c 8ee2 543c 386f a33b
00000150: d0e6 203c 03fa 863c e063 d23b bb3f 563c
00000160: 5587 6e3c 2ba1 eaba 7661 663c 0145 ae3a
00000170: c918 cb3a 32f1 4d3c 98e7 213c bd1f 62ba
00000180: fc90 123c 2d77 5d3c 621f 763c ea29 17bb
00000190: 6adf 263c 7806 163c d3ef 2c3c 781c 3f3c
000001a0: 315d 323c 289c 14bb 7fca 5639 6b9e 483c
000001b0: 6c57 ccbb 2f02 573c e5a3 fb3a 6a2d 853b
000001c0: 7377 8e3b 909e 443c 55e1 3f3b 6ff5 883b
000001d0: a94e 3c3c a80e da3b 8e6a 003c b741 423c
000001e0: fca8 423c cf18 373c a0ce a53b c393 f6bb
000001f0: 49de 653b e93c 233c 26f4 d43b 3c54 bc3b
00000200: 0551 1d3c f046 e23a 9b4a 063b 4139 b3b8
00000210: eba2 00bb f621 803b ac95 fe3b a036 dc3b
00000220: 0840 b53b 706c 833b d1d8 11bb 57f1 ba3a
00000230: c523 133c 0ea5 87bb c8ce db3b 6d42 093c
00000240: 3dab 6c3c 2add 9a3b 4dbb 1739 5c15 863b
00000250: 7731 133c ae97 573c e618 093b 007c 8f3a
00000260: 5759 303c b33b 233c 6c49 3c3b 1869 853b
00000270: 6b62 a8b9 90cf 0a3a dcde 153c 6ecc 713b
00000280: d0f2 39bb 858f ac3a 3844 ae3b 49c9 753b
00000290: c53a 2a3c eec8 a43b b01c 1f3c afa5 1d3c
000002a0: 34f0 cc3b e87f 4b3b 5dcb da3b 99f4 f5bb
000002b0: f47c ac3b 0d76 563b fd1b e83b 065e 5b3b
000002c0: c418 22bb 2734 8dbb 8226 cf3b 609e 3d3b
000002d0: fb60 0e3b ede4 14bb 5ae6 9b3b e38a 8b3c
000002e0: 9235 f03a ee73 b23b 1135 693b f1dc 703b
000002f0: ccf2 883b c5ce 8b39 ca4e 7fbb 58fc bb3b
00000300: 5858 083c bd8e 7c3a de07 c73b a8da 2d3c
00000310: 3204 073c 9b71 553b 0b9f c23b b9c3 383c
00000320: dabf 303b e682 c83a 98a2 2cba 531f 833b
00000330: ed36 083c 5a16 783b d52e 003c 54e5 e8ba
00000340: 3578 0abb 6df4 013c c804 0f3c b78a 923b
00000350: 9cbc c13b eb08 d03b c33b f33b 6478 e53b
00000360: 7fd5 f83b eea0 3dba 5934 f63b 7330 5139
00000370: 5655 223a 5c52 f63b a294 0dbb b74d e8ba
00000380: 311d 0b3c 2a9f 1f3c 88a7 0d3c 6f4c 6ebb
00000390: 658b e63b 8491 a23a a9cd a03b bb66 2f3c
000003a0: 2c4d 3f3c b935 04bb 510f 933a 8b74 1c3c
000003b0: b13c dd3a 0c05 573c 7102 253b b793 0f3b
000003c0: 6273 c63b 5064 d83b b819 5eb8 8852 86ba
000003d0: c895 983b b1bc c93b 8441 d63b f578 173c
000003e0: 064c cd3b 5fa9 fb3b f72d 9a3a 884f 26bc
000003f0: da9b d33b 63e6 923b af66 443b 24a5 813b

lstm.weight_ih_l1 f4 [512, 128]
-0.07653682 -0.019902859 0.041255258 -0.050583333 0.018372182 0.09746253 -0.068337925 0.036333814
0.011453821 0.049148515 -0.09532263 -0.0035967831 0.055329494 0.04085827 -0.0030523567 -0.00042070626
0.01922533 0.034657013 0.03874523 0.021008953 0.008204107 -0.035455156 0.03904497 0.03529607
0.062637456 -0.0011451644 -0.089622185 0.0140145905 0.03186051 0.080152646 -0.06564105 0.07274284
-0.023342043 -0.078085735 0.033761512 0.09069398 -0.08790799 -0.0687135 0.08720456 -0.0832222
-0.048873227 -0.031891473 0.042452093 -0.048874862 0.026482431 -0.08725284 -0.012021259 0.008619966
-0.038822323 -0.042176306 0.029758364 0.09676124 -0.0124117285 0.05623561 -0.023671538 -0.020633511
-0.02545765 -0.0046957815 -0.058643315 -0.002602081 -0.048670445 0.012107814 -0.05020599 0.08772729
0.0427861 -0.04181901 0.07722569 -0.017584944 -0.08558167 -0.02227752 0.06804305 0.091322534
-0.060571373 -0.028007561 -0.027926136 0.06906011 0.05005305 -0.07374278 0.06605959 0.07578112
0.017343417 -0.082443856 -0.0531533 0.018079558 0.006038113 0.09527893 -0.020135723 0.06355238
0.052031733 0.030147064 0.026635844 -0.021566115 0.013822445 0.050788373 -0.013156659 0.01968954
0.029691856 0.09457217 0.03459059 0.0687945 0.0033160727 -0.06176814 0.06973359 -0.0047484105
0.03050776 0.031910386 -0.03135029 -0.061872475 0.036961395 -0.013045512 0.021841696 0.023548728
-0.0080470275 0.013965402 -0.0154165635 0.06304326 -0.08341639 0.049426705 -6.8825066e-05 -0.05586848
0.0637896 -0.014536917 0.05908367 -0.06513475 0.013359562 0.027345318 0.032361556 0.09202089
0.009486711 -0.087005004 0.08952126 0.016070295 -0.042629573 -0.034565713 -0.012947585 0.04546824
0.0019738963 0.06605767 0.080131605 -0.055122852 -0.09587638 0.059223033 -0.03473915 -0.040293396
0.008453483 0.07595975 -0.06599423 0.07379134 0.057671897 0.073718265 0.07585196 -0.08275355
-0.10429088 0.04423038 0.02616707 -0.019129429 -0.045948565 0.0061397417 -0.023425441 -0.01835559
-0.032935325 0.046015874 0.06556993 0.08710248 -0.050814793 -0.03761775 -0.05880863 -0.09378538
0.0835316 -0.062056236 -0.010548594 0.043238524 -0.07684074 -0.09861317 -0.060724925 -0.027013006
0.009542516 -0.015140796 -0.015760206 -0.012568677 0.063259766 -0.076111965 0.008098405 0.00017931868
-0.07119567 -0.079381414 0.032149013 -0.0850839 -0.018778883 -0.013413453 0.08543819 0.072551675
-0.052449167 0.06776507 0.089171864 0.016963977 0.006202007 -0.05005696 0.019952368 -0.065029934
0.06549834 0.07903833 -0.029290795 0.06304487 -0.021492874 0.07957769 0.04450551 0.08021114
-0.093335286 -0.1055865 0.08512319 -0.06722234 0.08186476 -0.04770002 0.028644232 -0.023922568
-0.013349127 -0.03638555 -0.07303938 0.019357795 0.037163004 0.09034215 -0.05038168 -0.056428958
-0.08572373 -0.064611144 -0.06834319 0.06258062 0.038215086 0.051442467 -0.04760796 0.054062773
0.084905274 -0.037203867 0.008656409 0.06739727 -0.043811616 0.0075348923 0.070880815 -0.062563665
-0.029643381 0.104175046 -0.028925242 -0.05163904 -0.04320693 -0.015395421 0.06178233 -0.024888542
0.02189172 -0.066282205 0.038403623 -0.025679955 -0.04224686 0.0946506 0.08250882 0.040121943
00000000: 56bf 9cbd 520b a3bc 46fb 283d 7830 4fbd
00000010: 4281 963c 6f9a c73d c1f4 8bbd c4d2 143d
00000020: cfa8 3b3c f44f 493d 8338 c3bd 02b8 6bbb
00000030: 2ea1 623d 005b 273d 0c0a 48bb 3d92 dcb9
00000040: 707e 9d3c 83f4 0d3d 51b3 1e3d f81a ac3c
00000050: 856a 063c 6d39 11bd 9eed 1f3d 9d92 103d
00000060: 1148 803d 5719 96ba d68b b7bd 749d 653c
00000070: 2b80 023d 1227 a43d d16e 86bd 33fa 943d
00000080: d037 bfbc 6aeb 9fbd 8349 0a3d c4bd b93d
00000090: 1b09 b4bd aab9 8cbd 4e98 b23d 6770 aabd
000000a0: 4b2f 48bd a2a0 02bd 3fe2 2d3d 0231 48bd
000000b0: aff1 d83c 9eb1 b2bd d1f4 44bc c23a 0d3c
000000c0: 2804 1fbd 10c1 2cbd d0c7 f33c c22a c63d
000000d0: 905a 4bbc 5057 663d d0ea c1bc 9c07 a9bc
000000e0: 908c d0bc 12df 99bb f933 70bd ad87 2abb
000000f0: a95a 47bd da5f 463c cca4 4dbd 5eaa b33d
00000100: 7a40 2f3d 694a 2bbd 8128 9e3d 4d0e 90bc
00000110: 7145 afbd 587f b6bc 285a 8b3d 4f07 bb3d
00000120: b019 78bd 1d70 e5bc 5ac5 e4bc 636f 8d3d
00000130: 6d04 4d3d 7406 97bd 404a 873d 2233 9b3d
00000140: c813 8e3c 53d8 a8bd 46b7 59bd 951b 943c
00000150: 5ddb c53b 9a21 c33d acf3 a4bc c027 823d
00000160: 3a1f 553d faf6 f63c 6a33 da3c 6cab b0bc
00000170: 8977 623c 7807 503d 078f 57bc f54b a13c
00000180: 563c f33c 0eaf c13d ddae 0d3d 21e4 8c3d
00000190: 7852 593b 9700 7dbd 7cd0 8e3d 8e98 9bbb
000001a0: 69eb f93c 77b4 023d 2969 00bd fe6d 7dbd
000001b0: d564 173d d8bc 55bc 5bed b23c 43e9 c03c
000001c0: aed7 03bc 24cf 643c c195 7cbc d31c 813d
000001d0: 36d6 aabd a873 4a3d 2d56 90b8 59d6 64bd
000001e0: 1fa4 823d 402c 6ebc b801 723d 5e65 85bd
000001f0: 10e2 5a3c 4a03 e03c 8d8d 043d 7375 bc3d
00000200: 266e 1b3c ae2f b2bd ec56 b73d daa5 833c
00000210: 599c 2ebd c794 0dbd 1c22 54bc e83c 3a3d
00000220: 7c5c 013b 3e49 873d 0a1c a43d 80c8 61bd
00000230: d65a c4bd da93 723d a44a 0ebd b00a 25bd
00000240: 7a80 0a3c c990 9b3d fc27 87bd ea1f 973d
00000250: 5e39 6c3d 9af9 963d 4658 9b3d b17a a9bd
00000260: 7596 d5bd ea2a 353d 535c d63c 52b5 9cbc
00000270: 9034 3cbd e32f c93b b6e6 bfbc 765e 96bc
00000280: 31e7 06bd 247b 3c3d 8749 863d c962 b23d
00000290: 2c23 50bd 1215 1abd 51e1 70bd 8d12 c0bd
000002a0: 9e12 ab3d ae2e 7ebd 03d4 2cbc e11a 313d
000002b0: ae5e 9dbd b4f5 c9bd b3ba 78bd 614a ddbc
000002c0: 3758 1c3c 1a11 78bc 8c1b 81bc daec 4dbc
000002d0: 568e 813d 97e0 9bbd 2caf 043c 7e07 3c39
000002e0: 09cf 91bd b992 a2bd afae 033d 7840 aebd
000002f0: 2cd6 99bc 19c4 5bbc 38fa ae3d f995 943d
00000300: f0d4 56bd 6ac8 8a3d bd9f b63d 0af8 8a3c
00000310: 353a cb3b 8708 4dbd 2673 a33c 6a2e 85bd
00000320: fe23 863d d9de a13d 40f3 efbc ab1d 813d
00000330: d311 b0bc a1f9 a23d 694b 363d bd45 a43d
00000340: 9226 bfbd bc3d d8bd 1155 ae3d deab 89bd
00000350: b6a8 a73d 1961 43bd 4fa7 ea3c 43f9 c3bc
00000360: 4cb6 5abc 0409 15bd ac95 95bd 3d94 9e3c
00000370: 3c38 183d 4e05 b93d 055d 4ebd 0d22 67bd
00000380: ec8f afbd d952 84bd 84f7 8bbd 452a 803d
00000390: 6c87 1c3d 56b5 523d 9000 43bd ed70 5d3d
000003a0: d1e2 ad3d 1563 18bd 9cd3 0d3c 9407 8a3d
000003b0: cf73 33bd 42e7 f63b f629 913d 6121 80bd
000003c0: add6 f2bc ba59 d53d a1f4 ecbc 7583 53bd
000003d0: c0f9 30bd 133d 7cbc 780f 7d3d 0ee3 cbbc
000003e0: 4456 b33c f7be 87bd 1e4d 1d3d c55e d2bc
000003f0: 0b0b 2dbd 2cd8 c13d 62fa a83d e856 243d

lstm.weight_hh_l1 f4 [512, 128]
-0.016177015 -0.010088322 -0.018367544 -0.017754378 -0.06700566 -0.038765628 0.015596628 0.0589801
0.0899035 0.085727036 -0.040564623 0.04929311 -0.03158502 0.016742814 0.08498714 0.04644674
0.067045726 0.052160956 -0.016364388 0.078020595 0.0008669108 0.05781075 -0.059834164 0.008663941
-0.06168175 -0.0044210046 0.08112798 0.06284804 0.046626102 -0.08861883 -0.09148684 -0.084464304
-0.071460344 0.021446733 0.025178194 0.09164714 0.041599367 -0.09441271 -0.057805505 0.07808041
-0.0531116 -0.033593282 -0.025921505 0.07072323 0.071153544 -0.045825046 -0.018649837 0.029202856
0.008910966 0.055138815 0.056051113 -0.0076002683 -0.029240113 -0.010626375 -0.06156614 -0.00059258245
0.031864088 0.042484622 0.077223875 0.07361942 0.050760675 0.08632769 -0.04171349 -0.0034640378
0.02948159 0.083896875 -0.033693876 0.07274463 0.049598973 0.032251738 -0.05821375 0.095608816
-0.033546947 -0.039627045 -0.08186324 -0.07214461 -0.018638548 0.0017656062 0.09268616 -0.07731344
-0.0338187 0.043752402 -0.088291675 0.046330586 0.012947411 0.04051776 0.05892782 -0.015055134
-0.002652248 -0.0015244338 -0.018964134 0.033419013 0.04666295 0.0085789105 -0.05600831 0.09520077
0.03608481 -0.049127165 0.027267229 0.07782201 0.05224315 0.0053334376 0.037713207 0.026737774
-0.015225302 0.025316851 -0.001656731 -0.08863441 -0.060786154 -0.055903453 0.060226362 0.0859389
-0.038338188 -0.06840118 -0.088521436 -0.02336551 0.050063483 -0.06341764 0.03372529 0.02346666
0.030226514 -0.028506942 -0.072533496 0.069503866 0.032132037 -0.088084444 -0.019554071 -0.070770316
0.025978407 0.0262059 0.05651439 -0.05024603 0.06997615 0.02943265 -0.0017124988 0.09281534
-0.026799489 -0.021614878 -0.0031540191 0.06431173 0.04170402 0.079778366 -0.005745166 -0.07400671
0.08051816 -0.036762457 -0.00279736 0.063035056 -0.04870993 0.06922158 0.032422427 0.058827467
0.108153895 -0.004618346 0.016926594 0.084974475 -0.09060805 -0.069979146 -0.01745149 0.026496887
0.028662676 -0.04609358 0.09055219 0.052043777 0.014259917 0.00977434 -0.005221591 -0.062409405
0.10016211 0.089657664 -0.023002438 0.03517111 0.075286835 0.06963007 -0.0256982 -0.061692216
0.012450911 0.039611842 -0.02005915 -0.08429318 0.051988136 0.09255268 0.0039582523 -0.06327053
0.07863833 0.086586155 0.078568414 -0.0004054479 -0.08371694 -0.0043334304 0.08539512 -0.0014336548
-0.07023532 0.06019836 -0.08332205 0.07253349 0.07025358 0.03813173 0.05465204 -0.009680042
-0.08810703 0.014240089 0.02249861 0.064733766 -0.093147665 -0.023053287 0.0257872 0.06391251
-0.0811134 0.049756993 0.045124415 0.05268278 -0.0015576133 -0.007814327 0.016124958 -0.07735359
-0.002389845 -0.017990906 0.02073318 0.03327522 -0.0021685609 -0.008968353 0.053706624 0.080974855
0.06442709 0.08775382 -0.093849726 0.05745459 0.07007224 -0.037592053 -0.06860229 0.07612839
-0.05632783 -0.044498146 0.030387836 -0.03679967 0.07227125 -0.037476677 0.055958364 0.065928355
0.09715808 0.015781963 0.082913026 0.0602563 0.021117613 0.059279133 -0.0010732497 -0.047575932
0.06788288 0.020537581 -0.03693109 0.00984463 0.0809703 -0.040618263 -0.0021709485 -0.063842416
00000000: a985 84bc 7d49 25bc 8877 96bc a171 91bc
00000010: 433a 89bd b5c8 1ebd 0089 7f3c 1e95 713d
00000020: 541f b83d a891 af3d 1727 26bd 92e7 493d
00000030: 4b5f 01bd 3a28 893c bd0d ae3d f03e 3e3d
00000040: 454f 893d baa6 553d 9c0e 86bc 43c9 9f3d
00000050: 6641 633a f7ca 6c3d ab14 75bd 34f3 0d3c
00000060: 01a6 7cbd 13de 90bb 6d26 a63d 79b6 803d
00000070: 03fb 3e3d ca7d b5bd 745d bbbd 9ffb acbd
00000080: cd59 92bd 0fb1 af3c 8042 ce3c 7fb1 bb3d
00000090: 1964 2a3d 735b c1bd 77c5 6cbd 9fe8 9f3d
000000a0: 8d8b 59bd 1c99 09bd 5659 d4bc 57d7 903d
000000b0: f3b8 913d 0bb3 3bbd 8bc7 98bc d43a ef3c
000000c0: 4dff 113c 3dd9 613d da95 653d ac0b f9bb
000000d0: f688 efbc 3f1a 2ebc c72c 7cbd 8957 1bba
000000e0: eb83 023d 5b04 2e3d 8d27 9e3d c7c5 963d
000000f0: 6dea 4f3d 92cc b03d c4db 2abd e904 63bb
00000100: 6083 f13c 20d2 ab3d 9702 0abd 23fb 943d
00000110: 4b28 4b3d 661a 043d 8b71 6ebd 8ece c33d
00000120: 8668 09bd f84f 22bd eaa7 a7bd 8ec0 93bd
00000130: deaf 98bc ea6b e73a 3ed2 bd3d 8256 9ebd
00000140: 7a85 0abd b835 333d 44d2 b4bd 24c5 3d3d
00000150: 6121 543c f3f5 253d 4c5e 713d cfa9 76bc
00000160: 56d1 2dbb 83cf c7ba ac5a 9bbc 60e2 083d
00000170: a621 3f3d 8f8e 0c3c f868 65bd 9ff8 c23d
00000180: aacd 133d 9139 49bd 865f df3c 2561 9f3d
00000190: eafc 553d 1ec4 ae3b 2a79 1a3d 2d09 db3c
000001a0: 8c73 79bc 4965 cf3c ab26 d9ba f585 b5bd
000001b0: e7fa 78bd 05fb 64bd ebaf 763d bc00 b03d
000001c0: 8108 1dbd eb15 8cbd ba4a b5bd 0769 bfbc
000001d0: 5e0f 4d3d 1ce1 81bd 8823 0a3d 273d c03c
000001e0: 989d f73c 6487 e9bc 718c 94bd 0b58 8e3d
000001f0: e29c 033d 9e65 b4bd dc2f a0bc 07f0 90bd
00000200: abd0 d43c c1ad d63c a27b 673d c8ce 4dbd
00000210: a84f 8f3d be1c f13c ed75 e0ba f815 be3d
00000220: 9a8a dbbc af11 b1bc a9b3 4ebb deb5 833d
00000230: d6d1 2a3d d762 a33d f241 bcbb d490 97bd
00000240: b4e6 a43d 3b94 16bd ea53 37bb 8618 813d
00000250: 1084 47bd 0bc4 8d3d 61cd 043d 12f5 703d
00000260: ca7f dd3d 7f55 97bb a4a9 8a3c 1907 ae3d
00000270: b790 b9bd 3a51 8fbd 6df6 8ebc 0010 d93c
00000280: fdcd ea3c 9fcc 3cbd 6d73 b93d db2b 553d
00000290: 6da2 693c 8e24 203c e119 abbb 01a1 7fbd
000002a0: cb21 cd3d 709e b73d 9c6f bcbc 950f 103d
000002b0: fc2f 9a3d 369a 8e3d 0885 d2bc fab0 7cbd
000002c0: e8fe 4b3c 0740 223d 1653 a4bc e7a1 acbd
000002d0: 83f1 543d 428c bd3d 3ab4 813b fb93 81bd
000002e0: 220d a13d 1554 b13d 7ae8 a03d 4c92 d4b9
000002f0: c973 abbd 73ff 8dbb a3e3 ae3d 79e9 bbba
00000300: 89d7 8fbd 8e92 763d c0a4 aabd 708c 943d
00000310: 1ce1 8f3d 0430 1c3d d1da 5f3d 0a99 1ebc
00000320: 7571 b4bd 434f 693c 014f b83c 2393 843d
00000330: 34c4 bebd 3fda bcbc ae3f d33c 90e4 823d
00000340: c81e a6bd fdcd 4b3d 61d4 383d e6c9 573d
00000350: d428 ccba aa07 00bc 7d18 843c 8f6b 9ebd
00000360: f29e 1cbb aa61 93bc a1d8 a93c 994b 083d
00000370: 6a1e 0ebb 00f0 12bc 7afb 5b3d 25d6 a53d
00000380: 5af2 833d 46b8 b33d 4934 c0bd 8155 6b3d
00000390: 0982 8f3d 20fa 19bd 5b7f 8cbd 34e9 9b3d
000003a0: 03b8 66bd b043 36bd e9ef f83c 40bb 16bd
000003b0: f302 943d 2581 19bd 9934 653d 7205 873d
000003c0: d1fa c63d 2d49 813c 4ece a93d 4fcf 763d
000003d0: d8fe ac3c adce 723d 49ac 8cba fbde 42bd
000003e0: 2e06 8b3d 6e3e a83c 0e45 17bd 5f4b 213c
000003f0: c2d3 a53d 565f 26bd 7946 0ebb d0bf 82bd

lstm.bias_ih_l1 f4 [512]
0.00871095 -0.0024075853 0.00011597281 0.0015420481 0.0024346826 0.0022577709 0.009923465 0.011465468
0.0029615439 0.0019956667 0.006780052 0.020753762 0.010202308 0.011855111 0.0026319653 -0.0020375587
-0.001962932 0.015585254 0.00095706404 0.010406544 0.0064620636 0.0070788856 0.005567013 0.0006168307
0.013218355 0.008917181 0.009066591 0.006548525 0.0079813795 0.006191522 0.002362358 0.008623624
0.005829638 0.0060484796 0.007478945 0.011342675 0.010547366 0.007086187 0.0083983345 0.0027997245
0.012422399 -0.0057036844 0.01148366 0.0100358175 -0.0012424968 0.0068935417 0.008236513 0.018627524
0.009871539 0.010576034 0.010802152 0.0073581026 0.0064707445 0.0024266536 0.005228602 0.0059870677
0.0056866603 0.014608347 0.0055459104 0.012844327 -0.0013450038 0.0035564364 0.01248009 0.00804505
0.008155514 0.011153816 0.0017203147 0.005782532 0.010161824 7.111364e-05 0.008873753 0.012308572
0.009428631 0.010107133 -0.0024582092 0.0075088483 0.0019606154 0.012308936 0.007440527 0.006510598
0.009071137 0.010758089 0.0027551935 0.008327989 0.011176014 0.019972067 -0.0011242173 0.00015250075
0.0065447185 0.0015486608 0.0027959032 0.006447738 0.016963203 0.020162366 0.016898438 0.006705749
0.005057518 0.002322312 0.007435706 0.009574334 0.0009056479 0.019183137 0.002926522 0.0035290506
0.00598504 0.018133735 0.0045014727 0.0006784102 0.0056938888 0.010572713 0.008544876 0.011889726
0.0069718026 0.010991878 0.0015224656 -0.0014052053 0.017557891 -0.00025542715 -0.0012731251 0.011437901
0.012211204 0.00935286 0.005987684 0.0028996968 0.009962586 -0.0026789238 -0.00034212545 0.008305812
0.0019101512 -0.0049609053 -0.0016030137 -0.00080501894 -0.0021235486 0.0021654142 0.0074069253 0.012712233
0.00073566224 0.0005283409 0.001887375 0.017155869 0.0006945565 0.0027436893 0.0054160743 -0.00047325235
-0.0028091094 0.00992686 -0.0033560023 0.004642406 0.0009403379 -0.00027725595 0.004089255 0.00090249674
0.011125129 0.0069489814 0.0044709276 0.0027689605 0.0028474617 0.0031216703 -0.0014273139 0.008958678
0.002421348 0.005870808 0.005719725 0.0055806423 0.004036876 0.00588647 0.00013509222 0.0013621607
0.007979594 -0.008050496 0.004188127 0.0072614327 -0.0016930137 0.0055200923 0.006252142 0.015411928
0.0036447847 0.007892928 0.008575152 0.00272354 -0.0016185485 -0.000591416 0.002188746 -6.853064e-05
-0.0025920419 0.0022732706 0.0057592825 0.0070653437 -0.00679304 0.0023576159 0.01236336 0.0012425265
0.0023885341 0.0014883236 0.004079461 0.0024403587 -0.0006112593 0.00081860006 0.008790936 0.012017768
0.009319374 0.006612833 -0.0008541068 -0.0008593769 0.00035987963 -0.00049114483 0.0014924175 0.005485442
0.0017445353 0.005098737 -0.0019321906 -0.0028470587 0.009807346 0.006802777 -0.003561105 -0.004890107
0.0043880907 -0.0049166745 0.0035843877 -0.00010736923 0.013497694 0.022224432 0.015472863 0.007271994
0.0031521134 0.00064503594 0.0012856206 0.0048536295 0.0038445285 0.011606992 -0.0013869279 0.004100052
-0.001603469 0.01558742 0.0028478135 -0.00023259142 0.005918463 0.008776277 0.0005817148 -0.008233841
-0.0012735958 0.006950178 0.0036543082 0.0009189658 0.014625518 0.0010684168 0.00015964909 0.0024514538
0.0107233785 0.010968012 -0.00070274953 -0.0057769744 0.0038236897 -0.004013446 -0.002898944 0.0032953199
00000000: 5fb8 0e3c 94c8 1dbb 6e36 f338 8c1e ca3a
00000010: 328f 1f3b 1cf7 133b 0796 223c a9d9 3b3c
00000020: 7616 423b bbc9 023b 332b de3b cb03 aa3c
00000030: 9527 273c f13b 423c 0d7d 2c3b 9088 05bb
00000040: 89a4 00bb 4b59 7f3c 7be3 7a3a 3680 2a3c
00000050: b8bf d33b fff5 e73b 7d6b b63b cfb2 213a
00000060: cd91 583c 5e19 123c 0a8c 143c 0295 d63b
00000070: 55c4 023c 40e2 ca3b cad1 1a3b 1a4a 0d3c
00000080: 8c06 bf3b 5332 c63b f011 f53b a1d6 393c
00000090: dcce 2c3c 3f33 e83b 2b99 093c 957b 373b
000000a0: 5187 4b3c f9e5 babb f625 3c3c 456d 243c
000000b0: 46db a2ba 38e3 e13b 70f2 063c c098 983c
000000c0: 3cbc 213c 1a47 2d3c 82fb 303c 3d1c f13b
000000d0: 8a08 d43b 7e08 1f3b b154 ab3b 2a2f c43b
000000e0: 2a57 ba3b d957 6f3c 78ba b53b 0371 523c
000000f0: d74a b0ba 1a13 693b 4b79 4c3c 63cf 033c
00000100: b49e 053c 7fbe 363c 2f7c e13a 657b bd3b
00000110: c77d 263c d822 9538 3863 113c e5a9 493c
00000120: 8b7a 1a3c 6398 253c e819 21bb c90c f63b
00000130: ab7d 003b 6bab 493c aacf f33b db56 d53b
00000140: 1b9f 143c b242 303c 7a90 343b 1e72 083c
00000150: 9a1b 373c 769c a33c 795a 93ba 9ce8 1f39
00000160: 1475 d63b 6ffc ca3a 793b 373b 8c47 d33b
00000170: 6af6 8a3c 8c2b a53c 986e 8a3c e6bb db3b
00000180: 89b9 a53b ee31 183b 39a7 f33b abdd 1c3c
00000190: 0069 6d3a f425 9d3c e4ca 3f3b a547 673b
000001a0: 281e c43b 338d 943c 1781 933b 56d7 313a
000001b0: cd93 ba3b 2c39 2d3c cfff 0b3c 20cd 423c
000001c0: b873 e43b 4717 343c 788d c73a de2e b8ba
000001d0: 91d5 8f3c daea 85b9 fdde a6ba 0966 3b3c
000001e0: 8011 483c bd3c 193c 5534 c43b d708 3e3b
000001f0: 1d3a 233c e290 2fbb 4d5f b3b9 1a15 083c
00000200: 0a5e fa3a 178f a2bb 371c d2ba e807 53ba
00000210: 3c2b 0bbb 9fe9 0d3b cbb5 f23b f846 503c
00000220: 75d9 403a 5c80 0a3a cc61 f73a 778a 8c3c
00000230: e612 363a 78cf 333b 5379 b13b db1e f8b9
00000240: 0919 38bb 45a4 223c 60f0 5bbb 531f 983b
00000250: 0281 763a aa5c 91b9 28ff 853b 8895 6c3a
00000260: 2c46 363c 48b4 e33b dc80 923b 7377 353b
00000270: 7b9c 3a3b f094 4c3b b514 bbba 6bc7 123c
00000280: 7aaf 1e3b e85f c03b 886c bb3b d2dd b63b
00000290: c547 843b 4ae3 c03b 8ba7 0d39 878a b23a
000002a0: d8bc 023c 3ae6 03bc 8e3c 893b 50f1 ed3b
000002b0: 1de8 ddba e4e1 b43b c5de cc3b 5082 7c3c
000002c0: 57dd 6e3b 5751 013c cb7e 0c3c 6b7d 323b
000002d0: 7a25 d4ba 4209 1bba 1071 0f3b 1bb8 8fb8
000002e0: 3fdf 29bb 27fb 143b 5db8 bc3b 6684 e73b
000002f0: 2698 debb 3b82 1a3b b18f 4a3c 45dc a23a
00000300: f488 1c3b da13 c33a 00ad 853b 6dee 1f3b
00000310: eb3c 20ba 5297 563a dc07 103c 2ce6 443c
00000320: 4ab0 183c 77b0 d83b 23e6 5fba cf47 61ba
00000330: 3aae bc39 2cc0 00ba 399d c33a 39bf b33b
00000340: e4a8 e43a 4e13 a73b 8f41 fdba b895 3abb
00000350: feae 203c d4e9 de3b 6e61 69bb 313d a0bb
00000360: f9c9 8f3b 0e1c a1bb 0ce8 6a3b 6b2b e1b8
00000370: 6f25 5d3c 0310 b63c e481 7d3c e849 ee3b
00000380: b093 4e3b a117 293a 4582 a83a 320b 9f3b
00000390: 7cf4 7b3b 412b 3e3c 94c9 b5ba bb59 863b
000003a0: 7e2b d2ba 6162 7f3c 62a2 3a3b c9e3 73b9
000003b0: abef c13b 60ca 0f3c 387e 183a 3be7 06bc
000003c0: c9ee a6ba 52be e33b 1e7d 6f3b c0e6 703a
000003d0: de9f 6f3c 1e0a 8c3a 7a67 2739 92a8 203b
000003e0: 1cb1 2f3c 2db3 333c b938 38ba c64c bdbb
000003f0: de96 7a3b 3a83 83bb 36fc 3dbb 4bf6 573b
