models/3inst/checkpoint/BDGVTC.pth (torch, 876335 bytes, 13 tensors)

lstm.weight_ih_l0 f4 [512, 5]
00000000: 7cf9 913d 1db6 4c3d 9d71 dc3c 843a 153c
00000010: b022 c43d ba5a cebd 0a0c d03d b166 5dbd
00000020: b452 bb3d c93e 54bd 06cd acbd 9b37 83bd
00000030: 9b29 b7bb 3b97 34bd b63d d03d 7411 a7bc
00000040: 0ba8 a6bd cf62 a13d 0bc5 f2bc 0800 0a3d
00000050: 26ef 843d 02aa 3abd 7111 8ebd 99a3 72bd
00000060: bc92 5abd e9c7 cbbb b52e 99bd e939 993d
00000070: f12e 153d 42f7 46bd 48f5 79bd 910b c13d
00000080: a3fc 13bc d5fe 1a3d 45ec 243d ab81 1dbd
00000090: f308 50bd 6f37 d33c b7a7 c03d ae7f 91bd
000000a0: 4e43 953d f6d7 013d cba8 503d 0773 153d
000000b0: 8245 cebd 1906 61bd 5114 e23d fc47 993c
000000c0: 0e11 8cbd 8f47 95bd c87d bc3d a85e 5dbd
000000d0: cb4a bf3d 0550 f23c 91d0 733d b181 9ebd
000000e0: 2090 40bd 1b41 c5bd eeb7 193d 09d7 5abd
000000f0: d165 ea3c dfa2 2fbd 4ac0 e93d d334 03bd
00000100: 97ea 803d abc6 673d 6e04 5a3d e6e9 aa3c
00000110: 9ab5 933d 509e a0ba 0d53 c23d f868 2fbd
00000120: b39f 953d ba1e a4bd aa9b c0bc 6644 363d
00000130: 67c7 89bc 70a8 01bd a2b1 4ebc 8333 d7bc
00000140: 79d6 e03d 9f06 5a3d f1ee c33d 7f0b 913d
00000150: 6c6a 3ebc d26f c0bd f605 163d b711 9ebd
00000160: 3a45 2f3d 0c93 523d 5a31 2f3b 31c0 fd3c
00000170: 34d4 6fbc 56ee ad3d 46ab f83c d544 35bd
00000180: 0d4e 97bd 7460 dc3d a9cb 8fbd 2ef0 fabc
00000190: baa5 13bc 7be0 70bd 1992 8a3c 63b5 06bc
000001a0: 1ff5 d8bd 35f0 313c 17cb 91bd 80d1 5bbc
000001b0: 43ba 7cbd 9d29 04bb ccc8 3fbd bbad d13d
000001c0: 6c01 91bd d76f 06bd 8d69 433d 3266 c53d
000001d0: d168 c23d 5fe3 a5bd 0c5f 45bd a443 bb3d
000001e0: c310 87bd bb32 96bd ae1a 9cbd 7b8a 94bd
000001f0: c123 ba3d 6bcd 013d 9c0b b43d 6109 46bd
00000200: 716b 7d3d 32a6 a8bd a1d1 4e3d f9d1 d13d
00000210: 2672 bf3d 5d8f d5bd ff2c d8bd 4cfc 80bd
00000220: aaa2 303c 5803 a63c cbaf 503c 6113 cdbd
00000230: 294f b2bc 2834 003d 1989 89bd 210e f53c
00000240: 25dc 3dbd cba9 d93d a824 583d 7ffe b8bc
00000250: a65d 4a3d 4c06 c43d 0a3b 74bd cfbb bcbd
00000260: 4cb9 86bd 91be e5bd 4b7a d4bd 26b1 5bbd
00000270: cf3b 163c aac7 d43c 2d7c 973a e818 38bc
00000280: aa2c 65bd 3793 ce3d 20ee 89bd cb8a 92bd
00000290: 71f3 7abd 898c e43b 886e 7ebd e710 233d
000002a0: 15f3 8dbd 2107 46bd e5ae 033d ba42 e63d
000002b0: a626 49bd a4bb 8e3d a0a6 c6bd 7c3d 343d
000002c0: ee08 fc3c f9dd 9e3d 151d 1cbc 7b0f 8f3d
000002d0: a93e 22bd 78db 593d beff 44bc 503d 833c
000002e0: 4674 87bd 87ee fd3d 7af6 20bd 036f f33c
000002f0: 222f 7ebd c6de af3d f85c e93a 5c1a 283d
00000300: 9fa5 373d 137c a6bd b0a7 bebc 925b 783d
00000310: 8753 b83d 8698 cc3c 2458 5cbd 09af fbbc
00000320: 690f 713d 35cb 7fbc 5bca 8f3b 2ed6 6f3d
00000330: f8a5 33bc adae 37bc 6d06 dcbc b7e7 94bd
00000340: 8ddd bc3d 0cd7 b33d a65c dc3c b497 a3bd
00000350: f051 ca3d 3fa3 b0bd fcba 403d d05b b83d
00000360: 159e 24bd 50f6 2dbd d867 95bd 6fae cd3c
00000370: 083d 7bbc 2ac5 45bd 59b4 a2bd 4822 803d
00000380: d0f0 243c b04f a33c ec89 643d 4993 943d
00000390: 7e9c 0ebd d646 113d ec76 bcbd ba27 0d3d
000003a0: 6525 4abd 689e 903a 1d35 1e3d 81c3 8bbd
000003b0: 645f d63d dfbb 01bd 3ea8 6b3d cd78 883c
000003c0: ac1f a8bd 8e8e 833d a0ee ce3d 3f7f 213d
000003d0: 189f 9ebd ee4e b7bd ee44 d6bd df72 0dbd
000003e0: 7428 943c 1d7e 823d 2fbd acbd c40c ffbc
000003f0: 8202 653d b203 ebbc 8053 6f3d 8974 6bbd
0.071276635 0.049978364 0.026909644 0.0091081895 0.095769286 -0.100758985 0.10158546 -0.054053012
0.09146634 -0.05181769 -0.084375426 -0.0640709 -0.0055896766 -0.044089537 0.101680204 -0.020394064
-0.081375204 0.07880174 -0.029634973 0.033691436 0.064909264 -0.04557229 -0.069369204 -0.05923805
-0.053362593 -0.0062188995 -0.07479612 0.074817486 0.03642172 -0.048575647 -0.061024934 0.09426034
-0.009032401 0.037840683 0.040264387 -0.03845374 -0.050789785 0.025783269 0.09406989 -0.07104431
0.07288228 0.031700097 0.050942224 0.03648665 -0.10071851 -0.054937456 0.11039031 0.018711083
-0.068391904 -0.07289039 0.09203678 -0.05404535 0.093404375 0.029579172 0.059525076 -0.077395804
-0.04701245 -0.096315585 0.037528925 -0.05342773 0.028613003 -0.042879935 0.11413629 -0.0320328
0.062947445 0.05658595 0.05322688 0.020863485 0.07212372 -0.0012254212 0.09488497 -0.042824715
0.07305851 -0.08013673 -0.023511726 0.044498824 -0.016818715 -0.031654775 -0.012615593 -0.02626968
0.109784074 0.05322897 0.09567059 0.07082271 -0.011622053 -0.09396328 0.03662678 -0.077182226
0.04279063 0.051409766 0.0026732297 0.030975433 -0.0146379955 0.084927246 0.030355107 -0.044255096
-0.07387934 0.107605845 -0.07021267 -0.030632105 -0.00901168 -0.05880783 0.016915368 -0.008221957
-0.10593628 0.0108604925 -0.071188144 -0.013416648 -0.06170107 -0.0020166405 -0.046822354 0.102382146
-0.07080349 -0.032821503 0.047708083 0.09638633 0.094926484 -0.08100008 -0.048186347 0.09143761
-0.06594994 -0.07333895 -0.07622276 -0.072529756 0.09088851 0.031690042 0.08791277 -0.04834879
0.061870042 -0.08234824 0.050492886 0.10245127 0.09347944 -0.10427735 -0.10555457 -0.06298122
0.01078097 0.020265266 0.012737225 -0.10013462 -0.021766262 0.03129974 -0.067156024 0.029913964
-0.046352524 0.106280886 0.052769333 -0.02258229 0.049405716 0.095715135 -0.059626617 -0.09215509
-0.06578311 -0.11217988 -0.10374888 -0.05363574 0.009169533 0.025974113 0.0011557393 -0.011236407
-0.055950798 0.10086673 -0.06734872 -0.07155379 -0.06126732 0.006974761 -0.06211713 0.03981104
-0.0693113 -0.048346642 0.032149214 0.11243196 -0.049109124 0.06969383 -0.0969975 0.04400395
0.030765977 0.07757182 -0.009528418 0.069853745 -0.03961054 0.053187817 -0.012023864 0.016020447
-0.06613974 0.12399011 -0.03929756 0.02971602 -0.062056668 0.085874125 0.0017804196 0.041040763
0.044835683 -0.08129134 -0.023273319 0.060634203 0.090003066 0.024975073 -0.053794995 -0.030723112
0.058852587 -0.015612413 0.0043881363 0.058553867 -0.010964863 -0.01121108 -0.026858533 -0.072707586
0.09221945 0.08781251 0.026899647 -0.079879194 0.098789096 -0.08624887 0.047053322 0.09001887
-0.04018982 -0.04247123 -0.07295197 0.02510759 -0.015334375 -0.048283733 -0.07944555 0.06256539
0.01006718 0.019935459 0.055795595 0.07254655 -0.03481721 0.035467945 -0.0920237 0.034461714
-0.04935207 0.0011033537 0.03862487 -0.06824399 0.10467413 -0.03167331 0.057533495 0.016659165
-0.08209166 0.064236745 0.10104108 0.039427992 -0.077451885 -0.089506015 -0.10462366 -0.034533378
0.018085696 0.063717104 -0.084345214 -0.031134017 0.055910595 -0.028688285 0.05842924 -0.057484183

lstm.weight_hh_l0 f4 [512, 128]
00000000: 6ef5 95bd a00e 12bb 30bb f23c 6882 59bc
00000010: 71d6 203d 0167 8bbd 605c 5ebd fcd0 a0bc
00000020: 08b2 27bd f018 80bd fe11 833d 9683 d03d
00000030: 0984 9b3c 41e2 19b9 8114 c63d 7a90 b73d
00000040: e0ca 88bd 2348 de3c f6e7 273d 9851 5c3d
00000050: dc8f 2bbd 989d 473c 0ca0 cf3c 02ee e3bc
00000060: 42cc c53d 9653 c23d 857d 853d 3f16 b0bc
00000070: f4e8 463d 912f bebb bd92 7abd 0aef b0bd
00000080: cd59 cf3c b720 843d 7fab a33c 42ca de3a
00000090: 15b8 10bd 1357 483d 26b4 7ebd 6c2b d03d
000000a0: 3f07 8b3d 8cc7 143d 2f45 40bb 201d 65bd
000000b0: 64ec 30bd 0cb5 75bd 9b67 8e3d 8123 833d
000000c0: fff4 e53b 27a1 d53c cc6d 7e3d 1a04 b6bc
000000d0: 8388 8e3b a50b 7fbd b2f4 2b3d c47e 5c3d
000000e0: 1010 1bbd dc52 cc3c 52dc 9d3d 21e0 913d
000000f0: b597 b13c 8a32 93bd ef6a 80bb 6665 1d3d
00000100: 7015 1c3d b0a8 a03b c7bf c6bd a9ae 61bd
00000110: 413b cf3d 3bf9 5e3d 13eb 6ebc df9a c8bc
00000120: 112f b9bb 2b85 08bd acb2 50bd 20d1 243d
00000130: b512 46bd 8feb 9bbd 6844 edbc 30ab 073d
00000140: 2956 82bd 725c a0bd 940a 4ebd f5c8 963d
00000150: 1252 7fbd 5d3e 863d 1c07 a4bd 66f2 a93d
00000160: 7fbf 1b3d aaa9 a2bd 9d81 fa3b 344e a63d
00000170: b19f 233c f40a 1b3d 2627 bb3d 3e4c 54bd
00000180: 16e4 3cbc 6987 0bbc 8010 92bb 8374 b33d
00000190: f1f0 ab3d 9290 f6bc 18d9 d83d de82 ed3c
000001a0: 3a8d 9fbd ad56 aabc c418 5fbd 4cfc 7abd
000001b0: 232f b93d cc99 aabd ccc2 24bd 5630 983d
000001c0: bf5b 2c3d 6e71 ac3d e9e6 453d 7f01 9cbd
000001d0: 52a1 753c 0113 a2bd b65d 9bbd 17fd 1dbd
000001e0: f6a0 833d bbaf 4fbd 76ae 5c3c ede4 a3bd
000001f0: 6592 95bd efee 94bb 0271 a7bc b051 b03c
00000200: 7b98 503d 5cf7 82bd 318c 1a3c 210b 11bd
00000210: 3d16 743d 72bd 853d 8308 5a3d f44c f5ba
00000220: 3d56 063d a66c 83bd f793 333b 712e ae3b
00000230: ae7b fe3c 19a7 cbbc 5885 b9bd bf2b b73d
00000240: 5b81 5ebd 28c5 61bd f607 a5bc cfd9 aebd
00000250: be8a 583d ef96 a93d 6a98 8fbc 3481 c53d
00000260: e85a f23b b5f8 c9bc caea 0bbc b393 b23d
00000270: 885a 24b9 e883 63bb 1608 903d 328f 943d
00000280: 9183 66bd d3fd d3bc 4550 ebbc a6a5 b93d
00000290: 9311 603d f1e8 9a3d 4dd9 823d 8328 a63d
000002a0: de98 de3c f0fd 92bd 6ae8 aebd 864a d83c
000002b0: 74e0 a1bd 01a8 af3d 63b2 933d e9be 3f3d
000002c0: 47b4 463c a9a7 cb3c cd4b 9a3b 93fe 0a3c
000002d0: 55a4 9b3d ccf8 77bd 2b6f 2dbd 43ac 3b3d
000002e0: e749 323d 44e0 a43d d185 a03d 7f09 873c
000002f0: 60c0 353d 3439 6b3d 913a 903d 75af 61bc
00000300: 2bdb 25bc 27c1 5abd b6db af3d 88c0 d2bb
00000310: 238f a33c 491e 1abd 9e8b 40bd a3b2 0abb
00000320: 858b 10bd 1d9b 8abd dadb 43bd f2b9 143d
00000330: 9633 53bd 09af 3d3d 2c5e 993d a68f 54bd
00000340: 5c18 ca3c 928f f6bc f985 a4bd 7d78 c53d
00000350: 110e 4bbd 4e97 2bbd 6dca 46bd 7ea9 053d
00000360: 87ed 62bd fd59 a2bc c0b5 383d 4d9f 793d
00000370: 4467 b13c 848a 7c3d ece8 0a3d 2d09 08bd
00000380: 56df 533d b4eb 5ebd 28a9 813d 64cd 06bd
00000390: 66ff b33d 4063 31bc d55f 263c 919e 3a3d
000003a0: 507d b1bd e8c9 66bd 3182 7abd 17e7 c83d
000003b0: b143 b5bd 39e3 463d cabd 643d 52d8 cc3a
000003c0: de62 953d ae5b 9f3d 368c eb3c 007c a8bd
000003d0: b58d b9bd 5021 523c 530b ae3c 4ad4 deba
000003e0: f27b 1a3d 5cc0 703d ffdd 15ba 2889 ab3d
000003f0: aab6 07bd 01dd e53c 1879 d03c 08da a4bd
-0.073222026 -0.002228655 0.029630274 -0.01327572 0.039267007 -0.06806756 -0.054287314 -0.019630902
-0.04094127 -0.062547565 0.06399916 0.10181348 0.018983858 -0.00014675503 0.096718796 0.089631036
-0.0667932 0.027134007 0.0409927 0.05378875 -0.041885242 0.012183569 0.025344871 -0.027823452
0.096581 0.09488599 0.065180816 -0.021494983 0.048562005 -0.00580401 -0.061175097 -0.08639343
0.025311375 0.06451552 0.019979237 0.0016997533 -0.035331804 0.048911165 -0.06218352 0.10164532
0.067884915 0.036323115 -0.0029338112 -0.05593598 -0.04319419 -0.059987113 0.06953355 0.06403256
0.007017731 0.02607782 0.06211643 -0.022218753 0.0043497696 -0.062266964 0.041981407 0.05383183
-0.037857115 0.024941854 0.077080384 0.07122827 0.021678785 -0.07187374 -0.0039189975 0.03842678
0.038106382 0.0049029216 -0.097045474 -0.05509821 0.10118724 0.054436903 -0.014582413 -0.02448791
-0.0056513627 -0.033330124 -0.050951645 0.0402385 -0.048357684 -0.076132886 -0.028963283 0.03312224
-0.0636409 -0.078301325 -0.050303057 0.07362548 -0.062334128 0.065548636 -0.080091685 0.08298187
0.03802442 -0.07942517 0.0076448456 0.08120385 0.009986804 0.037852243 0.09138326 -0.051830523
-0.011528989 -0.008516171 -0.0044575334 0.08762457 0.08395565 -0.030098233 0.10588282 0.028993066
-0.07790609 -0.020793283 -0.054466978 -0.061275765 0.09042194 -0.08330116 -0.040224835 0.07431094
0.042079683 0.084200725 0.048315916 -0.07617473 0.014992075 -0.07913781 -0.07586233 -0.038571443
0.06427185 -0.0507047 0.013469329 -0.080026485 -0.07303313 -0.0045450847 -0.020439629 0.021523327
0.050926667 -0.06394836 0.009432838 -0.035411004 0.05959152 0.065302745 0.053230774 -0.001871495
0.032797087 -0.064172074 0.0027401426 0.005315595 0.031064834 -0.024859952 -0.090586364 0.08943891
-0.05432258 -0.055119663 -0.020145398 -0.085376374 0.05286669 0.082807414 -0.017528731 0.09643784
0.007396091 -0.024654726 -0.008539865 0.08719578 -0.00015673984 -0.0034716073 0.07032792 0.07253875
-0.056277815 -0.025877869 -0.028724799 0.09064798 0.05470426 0.07563961 0.06389103 0.08113196
0.027172502 -0.07177341 -0.08540423 0.026402723 -0.07904139 0.08576966 0.07211759 0.046812925
0.012127942 0.02486022 0.004708743 0.008483547 0.07599703 -0.060540006 -0.042342346 0.04581858
0.04352751 0.08050588 0.078380235 0.01648402 0.044372916 0.0574276 0.07042421 -0.013774742
-0.0101230545 -0.05340686 0.085868284 -0.006431643 0.019965714 -0.03762654 -0.04700815 -0.0021163605
-0.035289306 -0.06767867 -0.04781709 0.036310144 -0.051562868 0.046309505 0.07488665 -0.051894806
0.024669819 -0.030097757 -0.08033366 0.09642122 -0.04957396 -0.041892342 -0.048532892 0.032632343
-0.055402305 -0.0198183 0.045095205 0.060942937 0.021655686 0.061655536 0.033913538 -0.033211876
0.05172666 -0.054424003 0.06331092 -0.03291072 0.08788948 -0.010826886 0.010154684 0.045561377
-0.086664796 -0.056344897 -0.061159316 0.09809702 -0.08850802 0.04855654 0.05584506 0.0015628433
0.07294248 0.077811584 0.028753381 -0.08226776 -0.090602316 0.012825325 0.021245634 -0.0017000523
0.03771586 0.0587772 -0.0005716979 0.0837577 -0.033133186 0.028059484 0.025448367 -0.08049399

lstm.bias_ih_l0 f4 [512]
00000000: bca0 403c 7dfe 41bb 6db4 523c 191d 0ebb
00000010: 858b 2b3a 36ff 563c 3207 503c 9a54 e33b
00000020: e62d 613b bc73 923b a55e 0abb f328 903a
00000030: b693 8f3c ad60 5ebb 289b ba3b 1e95 1b3c
00000040: cdb5 813c c272 e33b a3a2 f63b 12ca 523c
00000050: b241 413c ff12 6a3c c716 0d3b ca57 f73b
00000060: 33c8 553c 55f7 3d3c 30f8 6d3b a9a4 ec3b
00000070: 6d5f 573b 116c 973b 8eb1 333c c83c b03b
00000080: 4efa c83a 16b5 353b f937 e03b 9999 353c
00000090: 1b16 493c 9873 2f3c c89e 433c be3a 363c
000000a0: 7403 1b3c 1b99 213c e035 bb3b 169e 0fbc
000000b0: d446 e33b 21cb 273c 1730 e03b 6665 9c3c
000000c0: 02c7 c53a 73c1 f93a ec91 0d3c 277c 3b3a
000000d0: 7529 013c 0a8b b73b 5888 193c 51ef 553c
000000e0: bb60 0d3c 293d dd3b 5aef 673b 1755 1a3c
000000f0: faba d03b 69e2 9e3a e375 0c3b c082 a53b
00000100: 98ae 413c 9961 f63a 6423 193c bafd 453c
00000110: 49ac 163c c35f 813c 72f4 343c 446d 7a3c
00000120: 30fc 0f3c 132d d63b 4adc c53b 1669 a33b
00000130: 5ab3 243c 2775 af3b a2aa 863c 2aa6 823b
00000140: cb03 203c 630f 0e3c c284 553c 9e97 a53b
00000150: cebd 293c aa2c 863c 8f11 d93b 38aa 583c
00000160: 59b9 733c 82f6 d7ba 74c0 6b3c cfc9 b53a
00000170: 9c04 c83a f6ff 4f3c fd4e 223c 39a0 18ba
00000180: acb8 143c 81e1 603c af37 7b3c 5ebd 16bb
00000190: 324f 283c 016a 1a3c 87f7 2e3c cc0a 473c
000001a0: cb7b 363c 8d95 17bb ec30 ef39 691b 4b3c
000001b0: 57b4 cbbb 26d6 5a3c f692 043b 0ef4 893b
000001c0: 3c18 963b 8501 483c 3a1b 383b 3bfe 803b
000001d0: 799a 3b3c 7edd e33b 26d8 053c 2e91 443c
000001e0: 729a 463c 12d7 373c 3331 9e3b 7e58 f4bb
000001f0: ed7b 6e3b 4e52 273c a1fb d13b c5b0 c43b
00000200: 39ad 1c3c 0d26 da3a 246a 023b 20ec c5b8
00000210: 87ca 37bb d4f9 813b 7265 f23b fef5 e13b
00000220: 0541 ba3b 9d4a 833b 7844 10bb 8c41 bf3a
00000230: 6a23 143c b53a 94bb 0152 e23b b5ae 0b3c
00000240: c4a1 723c d926 a03b 67e8 1d39 611b 813b
00000250: 6c9d 163c d66c 563c ca29 0b3b ae84 923a
00000260: 07c1 323c ae20 2e3c 7351 403b 7c58 863b
00000270: c2a8 c8b9 cf39 073a b50a 1b3c a44b 753b
00000280: aa5b 44bb e095 bb3a 9efb ac3b 901c 813b
00000290: bddf 303c 7e81 a53b 1758 223c a45b 203c
000002a0: 56f2 d03b 4ba7 5b3b eea1 d93b 79ce f0bb
000002b0: 0f4d b23b 2e51 5d3b a79c e63b dc42 5b3b
000002c0: d549 25bb 8682 92bb 27eb cb3b 8be4 4c3b
000002d0: 1b22 1f3b c2e8 12bb cbe0 9b3b 048f 813c
000002e0: d6d9 f03a 645d b43b 2b3d 983b c93b 623b
000002f0: 4e39 973b c481 cb39 b7fc 82bb cdf7 bc3b
00000300: 1a1c 0d3c c65b 803a d81e be3b 746c 2c3c
00000310: e9ac 063c 598c 483b 39f2 c33b 085c 3d3c
00000320: d480 373b 22de 8f3a 64fb 1db9 60a9 8e3b
00000330: 055d 0b3c 71e0 7b3b 3991 0a3c 9376 edba
00000340: 896e 0abb 5f51 073c a423 0f3c f264 973b
00000350: ae43 d03b 5e0f c43b 2e8c fe3b 1cfc ea3b
00000360: bb88 fe3b a9f3 76ba d323 023c d917 ce38
00000370: 56be db39 eba3 f63b 4a37 09bb a143 c9ba
00000380: e953 0d3c f45b 233c a264 0f3c f48b 6fbb
00000390: 1664 e73b 42bf bb3a db54 993b 6238 393c
000003a0: fb9b 443c 5ed3 07bb 059d ab3a a6a2 203c
000003b0: 84c6 e63a 073a 573c 7afc 323b de30 1b3b
000003c0: 265a cb3b f4cc d83b 353a e7b8 7196 b0ba
000003d0: a53c 953b cd93 c93b 4a46 e43b fe2c 183c
000003e0: 2e39 d53b 1618 fc3b e2ef 413a ca3d 27bc
000003f0: 3221 de3b 91eb 903b fb8d 403b bbd0 8b3b
0.011757072 -0.002960115 0.0128604 -0.0021684824 0.00065439224 0.0131223705 0.012697028 0.0069375755
0.0034359633 0.004469363 -0.0021113541 0.0010998532 0.017526489 -0.0033932135 0.0056947656 0.0094960015
0.01583376 0.0069411704 0.007526712 0.01286556 0.011795448 0.014286756 0.002152847 0.007548307
0.0130482195 0.011594613 0.0036311261 0.0072217775 0.0032863275 0.004621037 0.010967625 0.0053783394
0.0015333386 0.0027726344 0.00684261 0.011083984 0.012273337 0.010708712 0.011939712 0.011122404
0.0094612725 0.009863163 0.0057132095 -0.008765718 0.0069359336 0.010241301 0.0068416703 0.01909132
0.0015089216 0.0019054845 0.0086407475 0.0007151984 0.007883419 0.0056012915 0.009370886 0.013057546
0.008629019 0.0067516756 0.0035390467 0.009419701 0.0063699456 0.0012121919 0.002143257 0.005050987
0.011821412 0.0018797397 0.009346817 0.012084419 0.009196349 0.015792733 0.011044608 0.01528484
0.0087881535 0.006536135 0.0060382234 0.0049868925 0.010052526 0.005354542 0.016438786 0.0039870935
0.009766529 0.008670661 0.01303214 0.0050534746 0.010360194 0.01637872 0.0066244076 0.013224177
0.014875733 -0.0016476663 0.014389146 0.0013869348 0.0015260163 0.012695303 0.009906528 -0.0005822215
0.009077232 0.013725639 0.0153331 -0.0023001055 0.010272788 0.009424687 0.010679132 0.01214857
0.011137913 -0.002312991 0.00045622082 0.012396672 -0.0062165665 0.013356721 0.0020229197 0.004210002
0.0045805257 0.012207394 0.00280924 0.0039365566 0.011450403 0.006953894 0.00816921 0.011997504
0.012121784 0.01122071 0.0048276423 -0.007456838 0.0036389783 0.010212494 0.0064081703 0.006002518
0.009562784 0.001664342 0.001989969 -9.437674e-05 -0.00280443 0.0039665494 0.007397347 0.0068957796
0.0056840205 0.0040066973 -0.0022013467 0.0014591678 0.0090416465 -0.0045236 0.0069067483 0.00852554
0.014809076 0.0048874435 0.00015059263 0.0039400314 0.009192806 0.013087472 0.0021234625 0.0011178458
0.010910279 0.010627909 0.0029345423 0.0040999036 -0.00038272707 0.00051584555 0.009463002 0.0037429119
-0.0029961863 0.0014311634 0.0052790185 0.0039401725 0.010795531 0.005050837 0.009908698 0.009787474
0.006376545 0.0033516462 0.006641618 -0.007348832 0.005441315 0.003377031 0.0070377174 0.00334566
-0.002522101 -0.004471126 0.0062231007 0.0031264152 0.0024281803 -0.0022416566 0.004757022 0.015815265
0.0018375467 0.005504297 0.0046459637 0.0034520498 0.0046149855 0.0003881586 -0.003997411 0.005766845
0.008612657 0.0009792976 0.0058020167 0.010523904 0.008219936 0.0030601232 0.005979803 0.0115575865
0.0028000372 0.0010976235 -0.00015066337 0.004353687 0.008506064 0.0038433338 0.008457475 -0.0018117003
-0.0021123013 0.0082591465 0.008736525 0.004620188 0.0063557243 0.005983277 0.0077681756 0.007171167
0.0077677644 -0.00094204635 0.0079431115 9.8272874e-05 0.00041912746 0.0075268648 -0.0020937496 -0.0015355238
0.008625963 0.009970654 0.00875202 -0.0036551924 0.0070614917 0.0014323967 0.004679305 0.011304947
0.012000079 -0.002072535 0.001309306 0.009804403 0.001760677 0.013136393 0.0027311132 0.002368025
0.006205815 0.006616229 -0.0001102578 -0.0013472569 0.0045543485 0.0061516524 0.006966387 0.009288071
0.0065070605 0.007693301 0.0007398111 -0.010207603 0.0067788595 0.004422613 0.0029381502 0.004266826

lstm.bias_hh_l0 f4 [512]
00000000: bca0 403c 7dfe 41bb 6db4 523c 191d 0ebb
00000010: 858b 2b3a 36ff 563c 3207 503c 9a54 e33b
00000020: e62d 613b bc73 923b a55e 0abb f328 903a
00000030: b693 8f3c ad60 5ebb 289b ba3b 1e95 1b3c
00000040: cdb5 813c c272 e33b a3a2 f63b 12ca 523c
00000050: b241 413c ff12 6a3c c716 0d3b ca57 f73b
00000060: 33c8 553c 55f7 3d3c 30f8 6d3b a9a4 ec3b
00000070: 6d5f 573b 116c 973b 8eb1 333c c83c b03b
00000080: 4efa c83a 16b5 353b f937 e03b 9999 353c
00000090: 1b16 493c 9873 2f3c c89e 433c be3a 363c
000000a0: 7403 1b3c 1b99 213c e035 bb3b 169e 0fbc
000000b0: d446 e33b 21cb 273c 1730 e03b 6665 9c3c
000000c0: 02c7 c53a 73c1 f93a ec91 0d3c 277c 3b3a
000000d0: 7529 013c 0a8b b73b 5888 193c 51ef 553c
000000e0: bb60 0d3c 293d dd3b 5aef 673b 1755 1a3c
000000f0: faba d03b 69e2 9e3a e375 0c3b c082 a53b
00000100: 98ae 413c 9961 f63a 6423 193c bafd 453c
00000110: 49ac 163c c35f 813c 72f4 343c 446d 7a3c
00000120: 30fc 0f3c 132d d63b 4adc c53b 1669 a33b
00000130: 5ab3 243c 2775 af3b a2aa 863c 2aa6 823b
00000140: cb03 203c 630f 0e3c c284 553c 9e97 a53b
00000150: cebd 293c aa2c 863c 8f11 d93b 38aa 583c
00000160: 59b9 733c 82f6 d7ba 74c0 6b3c cfc9 b53a
00000170: 9c04 c83a f6ff 4f3c fd4e 223c 39a0 18ba
00000180: acb8 143c 81e1 603c af37 7b3c 5ebd 16bb
00000190: 324f 283c 016a 1a3c 87f7 2e3c cc0a 473c
000001a0: cb7b 363c 8d95 17bb ec30 ef39 691b 4b3c
000001b0: 57b4 cbbb 26d6 5a3c f692 043b 0ef4 893b
000001c0: 3c18 963b 8501 483c 3a1b 383b 3bfe 803b
000001d0: 799a 3b3c 7edd e33b 26d8 053c 2e91 443c
000001e0: 729a 463c 12d7 373c 3331 9e3b 7e58 f4bb
000001f0: ed7b 6e3b 4e52 273c a1fb d13b c5b0 c43b
00000200: 39ad 1c3c 0d26 da3a 246a 023b 20ec c5b8
00000210: 87ca 37bb d4f9 813b 7265 f23b fef5 e13b
00000220: 0541 ba3b 9d4a 833b 7844 10bb 8c41 bf3a
00000230: 6a23 143c b53a 94bb 0152 e23b b5ae 0b3c
00000240: c4a1 723c d926 a03b 67e8 1d39 611b 813b
00000250: 6c9d 163c d66c 563c ca29 0b3b ae84 923a
00000260: 07c1 323c ae20 2e3c 7351 403b 7c58 863b
00000270: c2a8 c8b9 cf39 073a b50a 1b3c a44b 753b
00000280: aa5b 44bb e095 bb3a 9efb ac3b 901c 813b
00000290: bddf 303c 7e81 a53b 1758 223c a45b 203c
000002a0: 56f2 d03b 4ba7 5b3b eea1 d93b 79ce f0bb
000002b0: 0f4d b23b 2e51 5d3b a79c e63b dc42 5b3b
000002c0: d549 25bb 8682 92bb 27eb cb3b 8be4 4c3b
000002d0: 1b22 1f3b c2e8 12bb cbe0 9b3b 048f 813c
000002e0: d6d9 f03a 645d b43b 2b3d 983b c93b 623b
000002f0: 4e39 973b c481 cb39 b7fc 82bb cdf7 bc3b
00000300: 1a1c 0d3c c65b 803a d81e be3b 746c 2c3c
00000310: e9ac 063c 598c 483b 39f2 c33b 085c 3d3c
00000320: d480 373b 22de 8f3a 64fb 1db9 60a9 8e3b
00000330: 055d 0b3c 71e0 7b3b 3991 0a3c 9376 edba
00000340: 896e 0abb 5f51 073c a423 0f3c f264 973b
00000350: ae43 d03b 5e0f c43b 2e8c fe3b 1cfc ea3b
00000360: bb88 fe3b a9f3 76ba d323 023c d917 ce38
00000370: 56be db39 eba3 f63b 4a37 09bb a143 c9ba
00000380: e953 0d3c f45b 233c a264 0f3c f48b 6fbb
00000390: 1664 e73b 42bf bb3a db54 993b 6238 393c
000003a0: fb9b 443c 5ed3 07bb 059d ab3a a6a2 203c
000003b0: 84c6 e63a 073a 573c 7afc 323b de30 1b3b
000003c0: 265a cb3b f4cc d83b 353a e7b8 7196 b0ba
000003d0: a53c 953b cd93 c93b 4a46 e43b fe2c 183c
000003e0: 2e39 d53b 1618 fc3b e2ef 413a ca3d 27bc
000003f0: 3221 de3b 91eb 903b fb8d 403b bbd0 8b3b
0.011757072 -0.002960115 0.0128604 -0.0021684824 0.00065439224 0.0131223705 0.012697028 0.0069375755
0.0034359633 0.004469363 -0.0021113541 0.0010998532 0.017526489 -0.0033932135 0.0056947656 0.0094960015
0.01583376 0.0069411704 0.007526712 0.01286556 0.011795448 0.014286756 0.002152847 0.007548307
0.0130482195 0.011594613 0.0036311261 0.0072217775 0.0032863275 0.004621037 0.010967625 0.0053783394
0.0015333386 0.0027726344 0.00684261 0.011083984 0.012273337 0.010708712 0.011939712 0.011122404
0.0094612725 0.009863163 0.0057132095 -0.008765718 0.0069359336 0.010241301 0.0068416703 0.01909132
0.0015089216 0.0019054845 0.0086407475 0.0007151984 0.007883419 0.0056012915 0.009370886 0.013057546
0.008629019 0.0067516756 0.0035390467 0.009419701 0.0063699456 0.0012121919 0.002143257 0.005050987
0.011821412 0.0018797397 0.009346817 0.012084419 0.009196349 0.015792733 0.011044608 0.01528484
0.0087881535 0.006536135 0.0060382234 0.0049868925 0.010052526 0.005354542 0.016438786 0.0039870935
0.009766529 0.008670661 0.01303214 0.0050534746 0.010360194 0.01637872 0.0066244076 0.013224177
0.014875733 -0.0016476663 0.014389146 0.0013869348 0.0015260163 0.012695303 0.009906528 -0.0005822215
0.009077232 0.013725639 0.0153331 -0.0023001055 0.010272788 0.009424687 0.010679132 0.01214857
0.011137913 -0.002312991 0.00045622082 0.012396672 -0.0062165665 0.013356721 0.0020229197 0.004210002
0.0045805257 0.012207394 0.00280924 0.0039365566 0.011450403 0.006953894 0.00816921 0.011997504
0.012121784 0.01122071 0.0048276423 -0.007456838 0.0036389783 0.010212494 0.0064081703 0.006002518
0.009562784 0.001664342 0.001989969 -9.437674e-05 -0.00280443 0.0039665494 0.007397347 0.0068957796
0.0056840205 0.0040066973 -0.0022013467 0.0014591678 0.0090416465 -0.0045236 0.0069067483 0.00852554
0.014809076 0.0048874435 0.00015059263 0.0039400314 0.009192806 0.013087472 0.0021234625 0.0011178458
0.010910279 0.010627909 0.0029345423 0.0040999036 -0.00038272707 0.00051584555 0.009463002 0.0037429119
-0.0029961863 0.0014311634 0.0052790185 0.0039401725 0.010795531 0.005050837 0.009908698 0.009787474
0.006376545 0.0033516462 0.006641618 -0.007348832 0.005441315 0.003377031 0.0070377174 0.00334566
-0.002522101 -0.004471126 0.0062231007 0.0031264152 0.0024281803 -0.0022416566 0.004757022 0.015815265
0.0018375467 0.005504297 0.0046459637 0.0034520498 0.0046149855 0.0003881586 -0.003997411 0.005766845
0.008612657 0.0009792976 0.0058020167 0.010523904 0.008219936 0.0030601232 0.005979803 0.0115575865
0.0028000372 0.0010976235 -0.00015066337 0.004353687 0.008506064 0.0038433338 0.008457475 -0.0018117003
-0.0021123013 0.0082591465 0.008736525 0.004620188 0.0063557243 0.005983277 0.0077681756 0.007171167
0.0077677644 -0.00094204635 0.0079431115 9.8272874e-05 0.00041912746 0.0075268648 -0.0020937496 -0.0015355238
0.008625963 0.009970654 0.00875202 -0.0036551924 0.0070614917 0.0014323967 0.004679305 0.011304947
0.012000079 -0.002072535 0.001309306 0.009804403 0.001760677 0.013136393 0.0027311132 0.002368025
0.006205815 0.006616229 -0.0001102578 -0.0013472569 0.0045543485 0.0061516524 0.006966387 0.009288071
0.0065070605 0.007693301 0.0007398111 -0.010207603 0.0067788595 0.004422613 0.0029381502 0.004266826

lstm.weight_ih_l1 f4 [512, 128]
00000000: 8a63 9cbd 1336 a2bc 37b3 293d 5c2e 50bd
00000010: 9a2b 983c 3148 c73d a519 8bbd 78b0 133d
00000020: 8bfe 383c c1df 493d 1b97 c3bd fc77 61bb
00000030: a694 633d 3f49 283d 0319 4abb 7546 18ba
00000040: 7b78 9b3c 8ccb 0e3d 317b 1f3d 6dee aa3c
00000050: fe6d 093c 86cb 0fbd 226b 1f3d 40af 0f3d
00000060: 0ac5 803d ff3c 6aba 2d76 b7bd bf7a 693c
00000070: a146 033d 6257 a43d 6a17 86bd d1c6 943d
00000080: 64a4 bebc c26b 9fbd 80ad 093d 4b55 b93d
00000090: fd6f b4bd 9ecf 8cbd bc73 b23d 1ff8 a9bd
000000a0: 6f39 49bd 7ba3 01bd 4527 2d3d 77bb 48bd
000000b0: a728 d73c 2d44 b2bd 7dcb 44bc fae4 0c3c
000000c0: 3438 1ebd 6fdd 2cbd b8ee f23c 786b c63d
000000d0: e163 4ebc 8647 673d ac73 c0bc 8119 aebc
000000e0: 88cf d2bc 286a 98bb 35bd 70bd b84d 37bb
000000f0: b896 46bd c28a 3e3c c83b 4ebd 9046 b43d
00000100: fc2e 303d 9e16 2cbd 2cb4 9c3d 4351 8dbc
00000110: 23e2 aebd b9ef b5bc 97c8 8b3d 5db0 bb3d
00000120: 5859 77bd 4f47 e4bc 2e0d e5bc edd2 8d3d
00000130: 2e30 4e3d 3b9d 96bd 59d7 873d c681 9b3d
00000140: f502 8f3c e856 a8bd c5ee 5abd 0390 923c
00000150: 091a cd3b cbc7 c23d 56a8 a6bc fbc9 813d
00000160: 20f8 563d 425d f63c 58de da3c 1ab5 aebc
00000170: 97de 5f3c 9af4 4e3d e251 55bc 2c9c a23c
00000180: 7e2c f43c 3c03 c13d 94f3 0c3d 2954 8c3d
00000190: a3e0 703b 62af 7dbd 641a 8f3d c579 92bb
000001a0: f144 f63c 9827 033d 0cb3 ffbc 9aeb 7ebd
000001b0: f3d9 173d 76d9 56bc 4d79 b13c d4f4 bf3c
000001c0: 8ed1 07bc b3c1 603c a650 7fbc 098a 813d
000001d0: 4a64 aabd dc27 493d fbb6 0139 c93c 64bd
000001e0: e863 833d 368e 71bc 7d67 723d 04a4 85bd
000001f0: f9f5 5d3c e140 de3c fea4 053d f4fd bb3d
00000200: 62e5 183c 464e b1bd 5e57 b73d 31a6 843c
00000210: d2ce 30bd 2b94 09bd fefc 5fbc f815 3d3d
00000220: 4086 ff3a 62a5 853d 3b8c a43d baf8 5fbd
00000230: 5cf6 c5bd 7997 6f3d d5ee 0bbd eebb 21bd
00000240: 6a57 1d3c b8f4 9b3d 6526 88bd d85f 993d
00000250: 74d0 673d 6e4a 973d 286d 9c3d 49d6 a8bd
00000260: cf4e d7bd 1b9e 343d c481 d13c e5da 9dbc
00000270: 9c99 3cbd 1035 c23b f9e7 b6bc bd15 96bc
00000280: e356 05bd 8e22 3a3d 0945 873d b9d5 b33d
00000290: bac3 4cbd 9b19 1cbd 3139 71bd d1fb c1bd
000002a0: 1073 ac3d 714b 80bd 4f3d 2abc 856e 2f3d
000002b0: bfc7 9bbd b144 cbbd 9a18 7bbd 7646 e4bc
000002c0: 442f 1c3c 6264 69bc bb87 81bc 746c 47bc
000002d0: 2d38 823d 5d5c 9bbd 68ce f83b 185e 483a
000002e0: 8ddd 90bd e51a a4bd d471 063d 4c38 adbd
000002f0: ca28 a0bc 75b4 64bc fac7 ae3d af9b 913d
00000300: 49e0 59bd c019 8b3d 20d8 b63d 1a6f 853c
00000310: b77e b53b cbb2 4bbd 60a1 9f3c 9594 86bd
00000320: 2cb1 853d 9e4b a13d 4553 f0bc 54d2 7e3d
00000330: c7d3 b5bc f08f a13d 5285 393d 6402 a43d
00000340: 3d01 bfbd 5a10 dabd 507b af3d b401 88bd
00000350: f66d a73d b5b0 43bd 563c ee3c 29ee bbbc
00000360: 057a 5bbc cdd6 13bd c6d9 96bd 9286 9e3c
00000370: 1c5c 193d 499d b93d bfe6 4fbd 3d5b 6bbd
00000380: 0d4c aebd b9bb 82bd e759 8abd f2a9 803d
00000390: e04d 193d 441a 553d 7ff4 42bd 6249 583d
000003a0: 9486 af3d 894a 1bbd 9abf 0b3c 75f8 8b3d
000003b0: ac29 36bd 9a35 063c 6a75 913d c210 7dbd
000003c0: 127e ebbc 4ae9 d53d 057e e7bc eeaf 52bd
000003d0: c8c0 31bd 251e 81bc d99a 793d 581a d2bc
000003e0: d1ea ad3c d8a5 87bd 749a 1e3d 582a d2bc
000003f0: 0197 2bbd 218a c13d 4cac a73d 3077 283d
-0.07636173 -0.019801175 0.04143068 -0.05082546 0.018575478 0.09730566 -0.06792001 0.036056966
0.0112911565 0.049285654 -0.095503055 -0.0034403792 0.055561684 0.041085478 -0.0030837662 -0.0005808839
0.018978348 0.034862086 0.038935844 0.020865643 0.008388041 -0.035106204 0.03892053 0.03507924
0.06287582 -0.0008935481 -0.08958087 0.014250456 0.03204978 0.080244794 -0.06547435 0.07264484
-0.023271747 -0.07784225 0.033612728 0.090494715 -0.088104226 -0.06875537 0.08713481 -0.082992785
-0.04912704 -0.031650048 0.04227378 -0.049006905 0.026264502 -0.0870441 -0.012011406 0.008599514
-0.03862782 -0.042203363 0.029654846 0.09688467 -0.012597055 0.056464694 -0.023492657 -0.021252396
-0.025733724 -0.0046513267 -0.058774192 -0.0027969908 -0.04848358 0.011629762 -0.05034998 0.08802521
0.043013558 -0.042013757 0.076515526 -0.017250663 -0.08539226 -0.022209035 0.06825369 0.09164498
-0.06038794 -0.027866034 -0.027960386 0.069249965 0.050338916 -0.07354208 0.06632871 0.07593112
0.017457465 -0.08219701 -0.053450365 0.017890936 0.006259207 0.09510764 -0.02034394 0.06337353
0.052482724 0.030073766 0.02671735 -0.02132659 0.013663909 0.05052624 -0.013020011 0.01984986
0.029806372 0.09424445 0.03441198 0.0685199 0.0036754988 -0.061934836 0.069874555 -0.0044700825
0.03006217 0.03202018 -0.031213306 -0.062236406 0.037073087 -0.01311337 0.021664286 0.023432173
-0.008289708 0.0137180565 -0.015583193 0.06325156 -0.0831991 0.04911028 0.00012370564 -0.05572203
0.0641554 -0.014743378 0.059180725 -0.06525424 0.013547414 0.027130546 0.032628052 0.09179297
0.009332033 -0.086575076 0.08952211 0.016192527 -0.04316599 -0.03358857 -0.013671158 0.04616353
0.0019494966 0.06525685 0.08034559 -0.054680564 -0.0966613 0.058494065 -0.034163315 -0.039485864
0.009603361 0.07615036 -0.06647948 0.07488984 0.05659528 0.07387243 0.076380074 -0.08243997
-0.105130784 0.044096094 0.025574572 -0.019269416 -0.04604493 0.0059267357 -0.02232741 -0.018320912
-0.032553565 0.04544311 0.06604964 0.08780999 -0.049991347 -0.038110357 -0.058892433 -0.09471858
0.08420384 -0.06264389 -0.010390594 0.04283001 -0.07606458 -0.09925211 -0.06130276 -0.02786563
0.009532753 -0.0142451245 -0.015811792 -0.012171853 0.06358371 -0.07585976 0.007592965 0.00076434156
-0.070735075 -0.08012942 0.0328234 -0.084580034 -0.0195507 -0.01395904 0.08534236 0.071097724
-0.05319241 0.06792021 0.08927941 0.016288329 0.005538787 -0.049731057 0.01948613 -0.065713085
0.065279335 0.07875751 -0.029336581 0.062212303 -0.02219571 0.07888782 0.04529316 0.080082685
-0.09326408 -0.1064765 0.08568442 -0.0664095 0.0817527 -0.047775943 0.029081505 -0.022940712
-0.013395791 -0.036093522 -0.07365756 0.019351278 0.037441358 0.09063203 -0.050757166 -0.05746006
-0.08510599 -0.063834615 -0.06755429 0.062824145 0.037427783 0.052027002 -0.04759645 0.05280436
0.085705906 -0.03791288 0.008529568 0.06834499 -0.044473335 0.008191491 0.07102473 -0.06178356
-0.028746638 0.10444887 -0.028258333 -0.05143731 -0.04339674 -0.015761444 0.06093869 -0.025647327
0.021230133 -0.06623429 0.038721517 -0.025654957 -0.041892055 0.09450174 0.0818716 0.04112929

lstm.weight_hh_l1 f4 [512, 128]
00000000: 68f5 81bc 1cb4 1abc af53 98bc b297 8cbc
00000010: 5a9d 89bd 4e5a 22bd d403 833c 5bd8 6f3d
00000020: 1298 b83d d56d ae3d b613 25bd cff9 4b3d
00000030: 65fc 00bd 1b19 8d3c 1d53 ae3d 30bd 3c3d
00000040: 49da 883d c523 553d 5dda 88bc e12e 9f3d
00000050: e19a 143a 0cca 6b3d 97ad 77bd 7a2f 093c
00000060: f733 7ebd 4be8 9dbb 0d88 a53d a6ce 803d
00000070: 1984 3d3d f023 b6bd 5ade bbbd f6f0 acbd
00000080: 97be 91bd d2e3 aa3c cc2e cb3c 5d21 bb3d
00000090: fb03 2a3d 298e c1bd 9364 6dbd ef6d 9f3d
000000a0: 877d 5bbd 75bf 0abd 42d3 d6bc 1d32 903d
000000b0: 49eb 913d 7cc2 3dbd eaab 95bc 381f ec3c
000000c0: fd24 0c3c 0d42 633d 29b8 633d 1162 fbbb
000000d0: 92cb edbc 33ea 2bbc 1bc6 7dbd 14ad 1dba
000000e0: adda 033d 3268 2f3d 9d8a 9d3d e35e 973d
000000f0: b1bd 513d 0039 b13d d503 29bd 347d 6fbb
00000100: ad5c f43c 362b ab3d 2b99 0abd 509a 953d
00000110: b981 4c3d f257 033d 86d1 6cbd 19c2 c23d
00000120: 6654 08bd 18cc 20bd ae25 a7bd 8189 92bd
00000130: 45d2 94bc 52da 073b 144b be3d 7b7f 9dbd
00000140: d4b9 09bd 569e 313d ab6a b5bd 5b3f 3e3d
00000150: d32a 553c 8bb1 273d 0939 713d 0fe8 74bc
00000160: 4cc3 24bb 48d9 c4ba f11f 99bc 1d63 093d
00000170: 6c16 413d 5549 013c 0ad4 63bd 1e66 c13d
00000180: 991a 153d ba4a 4abd 5c79 e13c 257f 9f3d
00000190: 13e3 563d 3262 a33b 7fbf 1b3d d4f2 dc3c
000001a0: 3945 73bc a532 d23c 514d afba 2a7b b5bd
000001b0: 0b85 7abd 3a60 66bd 0c56 753d d313 b03d
000001c0: 90c9 1dbd 201b 8dbd 6bac b4bd b70d c0bc
000001d0: a552 4a3d eaa6 82bd f5b4 0c3d ea0a c33c
000001e0: 0ab8 f43c f8b7 ecbc 680f 95bd 6b1e 8f3d
000001f0: b1ce 043d 8efa b3bd ab85 a1bc e8e4 90bd
00000200: 7afd ca3c 395d da3c 8ac4 673d 2d34 50bd
00000210: c16b 913d ab60 f73c cd1e 1ebb b4d7 c03d
00000220: b0ca d7bc 178a aabc 6955 74bb d597 823d
00000230: 0a71 273d f75e a43d e3dd cebb 1a8a 95bd
00000240: 6ecb a33d 6494 13bd 54a8 d2ba ffae 823d
00000250: 4110 46bd a60c 903d d531 093d d35a 703d
00000260: 1eca df3d 763f 7bbb 7c33 923c 1535 ae3d
00000270: 6c00 b8bd 412c 8ebd c385 91bc 5caf d43c
00000280: 8a0d eb3c acb6 3ebd 355e ba3d bd3f 553d
00000290: 19ce 6e3c f418 143c e407 83bb 4574 80bd
000002a0: 4ddc cd3d 1a09 b83d 45bc b7bc e475 0e3d
000002b0: 5157 993d 4920 903d 4718 d9bc 3efe 7abd
000002c0: 5b07 5a3c 1279 1e3d 2a32 a1bc 4a85 aebd
000002d0: 23a0 523d b7eb be3d 0eeb 993b 8ce2 80bd
000002e0: 61a2 a03d df1b b03d 596c a03d 2d16 79ba
000002f0: 289e adbd 01df 9abb 092b ad3d d32c ecb9
00000300: 5fe7 91bd ef8d 753d 14b2 abbd f829 943d
00000310: c44d 8e3d ea13 1e3d 5787 5c3d 5c62 11bc
00000320: 6b76 b4bd bf61 643c 0113 b53c 355f 843d
00000330: 536a bebd 4492 bebc a688 d63c f9be 813d
00000340: 9881 a7bd a486 4a3d 7cd0 3c3d 961a 553d
00000350: 4aa0 18bb dd16 17bc d823 853c 39a6 9ebd
00000360: 6d85 22bb b5ea 90bc 189e a83c afc2 093d
00000370: 5f44 63bb a390 0abc cfcc 593d bf26 a83d
00000380: dca7 833d c042 b43d 483f c0bd eded 6c3d
00000390: 3a12 903d 6d3c 17bd b1ee 8dbd 9cb8 9c3d
000003a0: de5c 68bd 6ca4 35bd 1976 f33c e3f9 13bd
000003b0: c5e9 953d d733 19bd 4f3d 663d 6b78 873d
000003c0: 8db5 c63d c0db 883c 128a aa3d 3717 793d
000003d0: 01db b53c d879 753d 43dd ffba 1d05 47bd
000003e0: 7c2d 8d3d f5f5 a63c 3348 17bd 2988 173c
000003f0: 01db a43d 3343 28bd 30e7 e3ba 3ccf 81bd
-0.01586409 -0.0094423555 -0.018594591 -0.017162178 -0.067194656 -0.039636903 0.015993036 0.058555942
0.0901338 0.085170425 -0.040302 0.049798783 -0.031490702 0.017223885 0.08511946 0.04607886
0.066822596 0.052036066 -0.016705686 0.07772613 0.00056688307 0.057565734 -0.060468283 0.008373136
-0.062061276 -0.0048189512 0.0808259 0.06289415 0.046268556 -0.08893573 -0.091732696 -0.08444397
-0.0711643 0.020860586 0.024802588 0.09137223 0.041507702 -0.09450943 -0.057957243 0.0778464
-0.05358651 -0.033873994 -0.026223782 0.07040808 0.07124955 -0.046328053 -0.018270452 0.02882348
0.008553741 0.055482913 0.05559555 -0.0076716025 -0.029027734 -0.010492849 -0.061956506 -0.00060148654
0.032190967 0.042823978 0.07692454 0.07391145 0.051206294 0.0865345 -0.04126342 -0.0036543133
0.029829348 0.08357851 -0.03383748 0.073048234 0.0499284 0.032066293 -0.057817005 0.095096774
-0.033283614 -0.03925714 -0.08161484 -0.07155133 -0.01816667 0.0020729494 0.09291664 -0.076903306
-0.033624485 0.04336389 -0.08858236 0.04644714 0.013010698 0.040940803 0.058892284 -0.014947905
-0.002514082 -0.0015018368 -0.018691989 0.033541787 0.047140524 0.007891019 -0.055622138 0.094433054
0.03640232 -0.04938767 0.027523689 0.07787923 0.05246265 0.004986071 0.03802442 0.026971258
-0.014848047 0.025658915 -0.0013374483 -0.08861382 -0.061162036 -0.056244113 0.059896514 0.08597531
-0.038522303 -0.06889939 -0.088219486 -0.02344404 0.049395222 -0.063794926 0.03435226 0.023808915
0.029872913 -0.028896317 -0.07278329 0.06988224 0.03242368 -0.08788024 -0.019717058 -0.070749104
0.02477907 0.02665578 0.05658392 -0.05083101 0.071006306 0.030197462 -0.0024127245 0.09416142
-0.026341766 -0.0208178 -0.0037282354 0.06376616 0.040879287 0.080259256 -0.006313072 -0.073017314
0.079977855 -0.03603019 -0.0016071894 0.06381034 -0.048355345 0.070336625 0.03349479 0.058680367
0.10927223 -0.0038337386 0.017846815 0.08506218 -0.089844555 -0.069420345 -0.017763978 0.025962524
0.02869298 -0.04656093 0.091 0.05206274 0.014575505 0.009039152 -0.0039987434 -0.06272177
0.10051785 0.08986111 -0.022428641 0.034780398 0.074873574 0.07037408 -0.026500834 -0.06127762
0.013307418 0.03868968 -0.01967724 -0.085215166 0.05142225 0.09322303 0.00469721 -0.062932104
0.07843471 0.08599066 0.07833166 -0.00095019006 -0.084774315 -0.004726291 0.08455474 -0.00045046824
-0.07124209 0.05994981 -0.08383575 0.072345674 0.06948426 0.03859321 0.053840008 -0.008873548
-0.08811649 0.01393932 0.022103788 0.06463472 -0.092976235 -0.023263104 0.026188206 0.06335253
-0.08179015 0.04944481 0.046097264 0.052027307 -0.00232889 -0.00922176 0.016252443 -0.07746548
-0.0024798766 -0.017690042 0.020583197 0.03363293 -0.0034678204 -0.008457336 0.053173836 0.08210515
0.06428501 0.08801794 -0.0938707 0.05784409 0.070347264 -0.03692286 -0.069302924 0.07652399
-0.05672919 -0.044346258 0.0297194 -0.036126982 0.073199786 -0.037402954 0.056210812 0.06614765
0.09702597 0.016706347 0.08327116 0.060813155 0.022199156 0.059930652 -0.0019520897 -0.04858886
0.06893441 0.020380953 -0.03693409 0.009248772 0.08049584 -0.04107971 -0.0017387625 -0.06338355

lstm.bias_ih_l1 f4 [512]
00000000: 8a73 0f3c a80c 0cbb dba7 1938 b74b d03a
00000010: e721 203b 5e8b da3a fc93 213c 118a 403c
00000020: 7a7a 333b 4d60 e13a 24ff e13b fd22 a73c
00000030: 3cb0 2c3c c55e 443c d107 2e3b 53e5 f0ba
00000040: be21 18bb f73f 833c b12b a13a 38f6 2b3c
00000050: 43d5 d63b d7b9 e33b ffb2 bc3b 3f9e 243a
00000060: 7272 683c 9cf7 0b3c ff24 193c 850f d23b
00000070: 9f26 023c 601e dc3b 3326 263b f0f0 033c
00000080: 3fef ad3b 3f04 c53b a362 f53b b05d 3c3c
00000090: 49a6 2e3c e909 e93b 68da 013c 94a5 373b
000000a0: 82bf 513c 9e5e bbbb b037 413c 7a09 213c
000000b0: 30ab a4ba 2bcd e03b aa67 0d3c 715a 9f3c
000000c0: bdd7 223c 63a3 303c fa4c 333c 1429 f63b
000000d0: cd20 da3b 5530 213b ea19 b53b 7bdc c23b
000000e0: d863 b53b 8bd6 7c3c d9a7 bf3b e99e 583c
000000f0: c70a 21ba bde7 743b ee34 4d3c 2fb8 033c
00000100: b06d 073c f00e 373c 7397 c23a e4e0 be3b
00000110: 7999 273c 1e67 64b9 4e69 0e3c 6572 4d3c
00000120: 5ca9 173c 1739 2b3c 83f3 2bbb c700 f63b
00000130: ac50 193b 7ab4 493c 0456 013c efbb d43b
00000140: 1c96 113c ea38 333c 100a 613b 6837 083c
00000150: d579 363c 377c a83c 8402 a8ba e55e ab37
00000160: 6bb2 dd3b 1eb8 b33a 9b47 443b 0994 d23b
00000170: bef6 8e3c 876a a13c 6b01 8d3c ecd7 eb3b
00000180: 37cd a83b 42cd 213b 8598 ec3b ca84 213c
00000190: 1d8f 833a c1b5 9f3c 88ec 3e3b de44 4e3b
000001a0: 6cc2 c13b 46f3 953c fe16 963b ad46 543a
000001b0: 58a9 bf3b 3838 323c e4d8 0e3c 00b2 443c
000001c0: 9c4a e83b baa2 323c 3f87 b03a 6124 aeba
000001d0: 1b9d 8f3c c14c b3b9 70e9 b4ba a9c3 453c
000001e0: b952 4c3c b864 163c c576 be3b ec04 563b
000001f0: e500 263c a2c4 3fbb a44a 64b9 9ad8 063c
00000200: d784 0d3b 9a33 97bb cd8d 04bb 201d 54ba
00000210: fdc8 0bbb 9ab0 f23a 86d8 ea3b 7e80 543c
00000220: db52 cf39 9121 9f39 dff6 f03a adc3 883c
00000230: 48a8 483a 1153 2f3b a69f af3b 9261 a1b9
00000240: 96b7 52bb c218 233c d4be 49bb 8a61 a13b
00000250: a29f 8c3a 6d33 a1b9 47be 8e3b bb3e 7e3a
00000260: 7111 483c 3b36 d93b 4051 913b 72b1 153b
00000270: 9cc9 3a3b e4cc 703b 0b05 a5ba c9bd 093c
00000280: dd63 023b 3bae bb3b 7fde c33b 9e28 d03b
00000290: 0ef6 8f3b 314d c23b c568 3fb8 92a8 ac3a
000002a0: 1941 0a3c 6eef 01bc 6c03 8b3b 1dda e63b
000002b0: 5c70 d6ba 389c b03b 4ffb d33b 6d21 843c
000002c0: 8d4a 793b fbc7 023c e168 0c3c 09f2 363b
000002d0: edb5 ddba 2a72 34ba c096 233b deab d938
000002e0: c24b 49bb da20 183b 2fec c33b 331c ed3b
000002f0: 4b58 c9bb e55d 243b 2fab 4a3c 6b14 953a
00000300: 951d 243b 2c17 d23a 7541 753b e030 233b
00000310: 1058 6dba 3d16 193a ee45 0c3c ee88 483c
00000320: 6674 153c a528 e43b aead 89ba d20b 89ba
00000330: 9b51 563a ee6d 37ba a738 cb3a 9de6 b33b
00000340: edab cf3a c331 b43b c343 cdba 8c33 48bb
00000350: 6bd2 1f3c c6af ed3b 6913 8bbb 63b0 a2bb
00000360: 20c2 873b 4f0d 9fbb 1060 773b fec4 43b9
00000370: 2683 633c 4b80 b03c 3bf1 803c 0e98 003c
00000380: 714b 583b 3fa9 5d3a 8e34 993a b68a a73b
00000390: a231 813b fbc6 423c 8aa9 ceba 3c44 703b
000003a0: 3346 c2ba 413d 833c 8dae 3d3b 7a82 41b9
000003b0: dfd7 be3b 23ef 0d3c 342d 8439 9a9c 04bc
000003c0: 4b66 acba 8d54 da3b ff62 673b c748 703a
000003d0: 6234 6d3c d735 803a b57f 5b39 07f4 443b
000003e0: ebe8 323c 51b4 313c 8cc7 4cba c142 a3bb
000003f0: 9900 733b 6020 8dbb 1d5a 3abb 46bd 403b
0.008755574 -0.0021369848 3.663437e-05 0.0015891705 0.002443427 0.0016673615 0.009861942 0.011751668
0.0027386234 0.0017194838 0.00689687 0.020402426 0.010540064 0.011985485 0.0026554952 -0.0018378891
-0.0023213471 0.016021712 0.0012296346 0.010495715 0.0065561845 0.006949644 0.0057586427 0.0006279684
0.014187442 0.008542921 0.009347199 0.0064105415 0.007943778 0.006717488 0.0025352358 0.008053049
0.0053080614 0.006012469 0.007488565 0.011496946 0.010659763 0.007111777 0.007925607 0.0028022276
0.012802007 -0.0057180664 0.011793062 0.00982892 -0.0012563225 0.0068603954 0.0086306725 0.019452306
0.009939131 0.010781142 0.010943646 0.007512221 0.006656742 0.0024595459 0.005526771 0.0059466935
0.005535584 0.01543201 0.0058488664 0.013221481 -0.00061432685 0.0037369572 0.012524826 0.008039518
0.008265898 0.011172995 0.0014846161 0.005825149 0.010229462 -0.00021782189 0.008692099 0.012539481
0.009256687 0.010450623 -0.0026237674 0.007507417 0.0023394031 0.012311095 0.007894043 0.00649213
0.0088858865 0.010938862 0.0034338273 0.008313991 0.011137445 0.020567043 -0.0012818133 2.0428977e-05
0.006765654 0.0013711487 0.0029949907 0.0064263386 0.01745164 0.019704117 0.01721259 0.0071973708
0.0051514166 0.0024688994 0.00722033 0.00985832 0.0010037158 0.019495847 0.0029132683 0.0031474154
0.0059130695 0.018304478 0.0045803776 0.000809769 0.005849045 0.010877661 0.008718703 0.012005329
0.0070889723 0.010903055 0.0013468041 -0.0013285988 0.017530968 -0.00034198727 -0.001380248 0.012070575
0.0124708945 0.009179287 0.0058124983 0.0032656742 0.010132049 -0.002926149 -0.0002177158 0.008230353
0.0021594071 -0.0046143057 -0.0020226121 -0.0008091498 -0.0021329515 0.0018515766 0.007166925 0.012970088
0.0003954385 0.00030351852 0.001838412 0.016694868 0.00076544704 0.0026752392 0.0053596077 -0.00030781009
-0.0032152883 0.009954633 -0.0030783908 0.0049249576 0.0010728727 -0.00030746628 0.004356179 0.00096986786
0.01221119 0.006628779 0.0044347346 0.0022841361 0.0028501516 0.0036743218 -0.0012590004 0.008407065
0.001989595 0.005727557 0.0059774513 0.006352498 0.0043933457 0.005929612 -4.5635523e-05 0.0013172796
0.008438372 -0.00793062 0.0042423513 0.007045044 -0.001636039 0.0053897165 0.0064691673 0.01612922
0.003803882 0.007982249 0.008569927 0.002791526 -0.001691518 -0.0006883467 0.002496168 0.00010379379
-0.0030715321 0.002321294 0.005979083 0.0072360276 -0.0061445585 0.002508038 0.012369915 0.0011373883
0.0025042046 0.0016028634 0.0037423049 0.0024900958 -0.0009053955 0.00058398006 0.008561594 0.012239678
0.00912199 0.006962853 -0.0010504031 -0.0010455793 0.00081756123 -0.0006997277 0.0015504555 0.0054901377
0.0015844085 0.005499096 -0.0015660453 -0.0030548302 0.009754757 0.00725362 -0.004244257 -0.0049648746
0.0041430146 -0.0048538814 0.0037746467 -0.00018670034 0.013886249 0.02154555 0.015740028 0.007848753
0.003300395 0.00084557006 0.0011688636 0.005112971 0.0039426843 0.011888261 -0.0015767079 0.0036661765
-0.0014821946 0.01602042 0.0028943152 -0.0001845452 0.0058240737 0.008662972 0.0002521068 -0.008093977
-0.0013153044 0.0066629113 0.003530681 0.0009166118 0.014477821 0.000978167 0.00020933042 0.0030052678
0.01091979 0.010846213 -0.0007811717 -0.004982323 0.0037079214 -0.004306838 -0.002843506 0.002940969
