models/3inst/checkpoint/DGVTC.pth (torch, 876322 bytes, 13 tensors)

lstm.weight_ih_l0 f4 [512, 5]
0	0x3d90dd3a	0.070734456
1	0x3d682efc	0.056685433
2	0x3cfc8303	0.03082419
3	0x3c9ff438	0.019525632
4	0x3dd9f7f4	0.106429964
5	0xbddb87b6	-0.10719244
6	0x3dd5c237	0.10437434
7	0xbd6c7b56	-0.05773481
8	0x3dc7e5c3	0.097606204
9	0xbd3b633e	-0.04574894
10	0xbd82e4b9	-0.06391282
11	0xbd8453fa	-0.0646133
12	0xbc90d8e9	-0.017681556
13	0xbd1b3120	-0.037888646
14	0x3ddc4b91	0.10756601
15	0xbc45eaa4	-0.0120798685
16	0xbdad391d	-0.08458159
17	0x3d82ab5a	0.06380339
18	0xbd15b4cb	-0.03654937
19	0x3ce1f757	0.027583761
20	0x3d8c18bd	0.06840656
21	0xbd2b13b3	-0.041766834
22	0xbda76844	-0.08174184
23	0xbd830e7c	-0.06399247
24	0xbd6ff9ec	-0.058587953
25	0xbbd6ad64	-0.0065514315
26	0xbd9b7a34	-0.07591668
27	0x3da94456	0.08264987
28	0x3d569171	0.052384797
29	0xbd07dd08	-0.033169776
30	0xbd69d323	-0.05708612
31	0x3daf5e0c	0.0856286
32	0xbcaf859f	-0.02142602
33	0x3d18eba7	0.03733411
34	0x3d2180c4	0.03942944
35	0xbcdadf64	-0.02671785
36	0xbd364eee	-0.044508867
37	0x3d203150	0.039109528
38	0x3dd3a4d2	0.10334171
39	0xbd7b0e37	-0.061292853
40	0x3da98a3c	0.08278319
41	0x3ce5f35c	0.028070144
42	0x3d5cab05	0.053874034
43	0x3cfe2957	0.031025572
44	0xbdd7b1b4	-0.10531941
45	0xbd11753f	-0.035512205
46	0x3dde6c83	0.10860541
47	0x3b4d4040	0.0031318814
48	0xbd87b08d	-0.06625471
49	0xbd8ed0a5	-0.069733895
50	0x3de08df7	0.10964578
51	0xbd3ed66c	-0.046591207
52	0x3db65692	0.08903231
53	0x3cefed21	0.029287877
54	0x3d75725d	0.05992352
55	0xbd7a6e3c	-0.061140284
56	0xbd410b13	-0.0471297
57	0xbde86a55	-0.11348406
58	0x3d1c2ef5	0.03813072
59	0xbd55b32c	-0.052172825
60	0x3d00f073	0.03147931
61	0xbd2836f3	-0.04106803
62	0x3df31b90	0.118704915
63	0xbc5adfb3	-0.013358998
64	0x3da5cb2e	0.08095394
65	0x3d84fbef	0.06493365
66	0x3d96725b	0.0734603
67	0x3d07d54f	0.03316241
68	0x3dad17ea	0.08451827
69	0x3c4027fb	0.011728282
70	0x3da984e9	0.08277304
71	0xbd192b03	-0.037394535
72	0x3db1a1be	0.08673428
73	0xbd87275d	-0.06599305
74	0xbc187b5b	-0.009306754
75	0x3d2640cf	0.04058915
76	0xbca33339	-0.019921886
77	0xbc36832b	-0.011139671
78	0xbb86cdad	-0.004113874
79	0xbc930c08	-0.017950073
80	0x3dd9cf79	0.106352754
81	0x3d39cac4	0.045359388
82	0x3ddea08a	0.10870464
83	0x3da33be3	0.07970407
84	0xbb37671b	-0.002798504
85	0xbdacf2ad	-0.08444724
86	0x3d314a99	0.043284032
87	0xbd874983	-0.06605818
88	0x3d7b3318	0.061328024
89	0x3d8eb2ab	0.06967672
90	0xba1d131a	-0.0005991921
91	0x3d2034c8	0.039112836
92	0xb9cfabdf	-0.0003961017
93	0x3dd59528	0.1042884
94	0x3d4a2907	0.049355533
95	0xbd35882d	-0.04431932
96	0xbd9d5d01	-0.07683755
97	0x3dd6023b	0.10449644
98	0xbd7b06ce	-0.061285786
99	0xbcb6547c	-0.022257082
100	0xbc89d554	-0.016825356
101	0xbd933b3b	-0.07189032
102	0x3c783285	0.015148764
103	0xbb2a2217	-0.002596026
104	0xbdce893e	-0.100847706
105	0xbbd3197d	-0.0064422474
106	0xbd9f35a4	-0.07773903
107	0xbb5210c2	-0.0032053445
108	0xbd37e42a	-0.04489533
109	0x3c6eef3d	0.014583406
110	0xbd1ab657	-0.03777155
111	0x3dc70bce	0.097190484
112	0xbdba48f3	-0.09095945
113	0xbd1636bc	-0.036673293
114	0x3d364d36	0.044507228
115	0x3dd33743	0.10313275
116	0x3dd951ba	0.10611291
117	0xbd834dd1	-0.06411327
118	0xbcda2637	-0.02662955
119	0x3de654ee	0.11246668
120	0xbd85e98b	-0.065386854
121	0xbd96e9bb	-0.07368799
122	0xbd883c8f	-0.06652176
123	0xbd7a6440	-0.061130762
124	0x3dd06a3f	0.10176515
125	0x3d677201	0.056505207
126	0x3dbe2e40	0.09286165
127	0xbd40b1b5	-0.047044475
128	0x3d9bb54a	0.076029375
129	0xbd8ab6a1	-0.06773115
130	0x3d730b48	0.05933693
131	0x3de76807	0.112991385
132	0x3de8b2a9	0.11362202
133	0xbdb58ced	-0.0886477
134	0xbdb7e87c	-0.0897989
135	0xbd84fc3c	-0.064934224
136	0x3ba4d804	0.005030634
137	0x3caae4fa	0.020861138
138	0x3c836712	0.016040359
139	0xbdc72496	-0.09723775
140	0xbc97c3ae	-0.018525925
141	0x3cee9f9c	0.029128842
142	0xbd82bc85	-0.063836135
143	0x3d021f7d	0.03176831
144	0xbd3853bb	-0.045001727
145	0x3dd90f67	0.10598641
146	0x3d5ddb94	0.054164484
147	0xbc1ead3f	-0.00968486
148	0x3d5da63d	0.054113615
149	0x3dcca9e8	0.099933445
150	0xbd42e629	-0.04758278
151	0xbdbb2f40	-0.091398716
152	0xbd89221c	-0.06695959
153	0xbdacf4fe	-0.08445166
154	0xbd9ba2e3	-0.075994276
155	0xbd2b1052	-0.04176361
156	0x3cb2f916	0.021847289
157	0x3d6506d9	0.055914734
158	0x3cb48af6	0.022038918
159	0x3c206785	0.009790306
160	0xbd82ca22	-0.0638621
161	0x3dc59494	0.0964748
162	0xbd88aa68	-0.066731274
163	0xbd8e9f5c	-0.06963989
164	0xbd757795	-0.059928495
165	0xb86af63e	-5.601928e-05
166	0xbd72995f	-0.059228297
167	0x3d4affd8	0.049560398
168	0xbd80f003	-0.062957786
169	0xbd2e1e55	-0.042509396
170	0x3d16ee25	0.036848206
171	0x3de1b15e	0.11020158
172	0xbd451e9f	-0.048124906
173	0x3d891052	0.06692566
174	0xbdcd0475	-0.10010616
175	0x3d491572	0.049092717
176	0x3d0e856a	0.034795202
177	0x3db8830c	0.0900937
178	0x3bd5d988	0.006526176
179	0x3daf7727	0.085676484
180	0xbd199978	-0.037499875
181	0x3d43ef08	0.04783538
182	0xbb66dd80	-0.003522724
183	0x3cb7baad	0.022427881
184	0xbd72e093	-0.059296202
185	0x3deb520a	0.11490257
186	0xbd18212c	-0.03714101
187	0x3d323c2d	0.04351442
188	0xbd412045	-0.047149915
189	0x3dcd5359	0.10025663
190	0x3c4e1bd0	0.012579873
191	0x3d093f9d	0.033507932
192	0x3cca8e4b	0.024726054
193	0xbda00e2f	-0.07815205
194	0xbca117ad	-0.01966461
195	0x3d6ddfd1	0.058074776
196	0x3db64e70	0.089016795
197	0x3d1dbceb	0.038510244
198	0xbd2c2ea9	-0.042036686
199	0xbc9ec1df	-0.019379554
200	0x3d7513e7	0.059833433
201	0xbc80c157	-0.015717192
202	0x3c361c67	0.01111517
203	0x3d88ee4a	0.06686075
204	0xbb4ef0b7	-0.0031576583
205	0x3b5f2746	0.0034050508
206	0xbc9c731e	-0.01909786
207	0xbd7a713e	-0.061143152
208	0x3ddd2dcd	0.107997514
209	0x3dd47c5e	0.10375284
210	0x3ce540de	0.027985033
211	0xbdb9e999	-0.09077758
212	0x3dce3255	0.10068194
213	0xbdcaab34	-0.09895936
214	0x3d0d6f83	0.034530174
215	0x3db4c3ed	0.088264324
216	0xbd0a8628	-0.033819348
217	0xbd482181	-0.048860077
218	0xbd982e53	-0.07430711
219	0x3cbdcca6	0.023168873
220	0xbca31ab5	-0.019910196
221	0xbd39f578	-0.045400113
222	0xbd8a070d	-0.06739626
223	0x3d95fc37	0.07323497
224	0x3ca8b726	0.020595144
225	0x3ca022a8	0.019547775
226	0x3d630265	0.055422205
227	0x3da2d4c9	0.07950742
228	0xbcde7491	-0.027155193
229	0x3d2e2c12	0.042522497
230	0xbdbb3cec	-0.09142479
231	0x3d1cf909	0.038323436
232	0xbd36ee50	-0.044660866
233	0x3c959f50	0.018264443
234	0x3d64c130	0.0558483
235	0xbd78e31b	-0.06076346
236	0x3dda884c	0.10670528
237	0xbcd3c47d	-0.025850529
238	0x3d9f63ba	0.07782693
239	0x3d18ef70	0.03733772
240	0xbdba97ca	-0.09110983
241	0x3d98b545	0.074564494
242	0x3df5891f	0.119890444
243	0x3d64d15c	0.055863723
244	0xbd7c52ad	-0.061602283
245	0xbdb5db0c	-0.088796705
246	0xbdd7d342	-0.10538341
247	0xbc9dc3dc	-0.019258432
248	0x3cbd64ca	0.023119349
249	0x3d8bd50c	0.06827745
250	0xbdb01fc7	-0.08599811
251	0xbcf1a6f1	-0.02949855
252	0x3d851b80	0.06499386
253	0xbc78ebcb	-0.015192936
254	0x3d9492a8	0.07254535
255	0xbd61e04a	-0.05514554

lstm.weight_hh_l0 f4 [512, 128]
0	0xbdac5ccc	-0.08416137
1	0xbc85222c	-0.016251646
2	0x3c888d3f	0.016668914
3	0xbb9b7b4d	-0.004744923
4	0x3d1b7797	0.037955847
5	0xbd6af96f	-0.057366785
6	0xbd814a9d	-0.063130595
7	0xbc52b77e	-0.012861131
8	0xbcef127a	-0.029183615
9	0xbd8fa955	-0.070147194
10	0x3d992c77	0.07479184
11	0x3dbc3b07	0.09190946
12	0x3bd5914a	0.006517564
13	0xbbf5b8a6	-0.0074988184
14	0x3da31191	0.07962335
15	0x3dc3421b	0.09534093
16	0xbd82968f	-0.06376373
17	0x3c57a7a0	0.0131625235
18	0x3cf44a37	0.029820545
19	0x3d81c685	0.06336693
20	0xbd59313e	-0.053025477
21	0x3aae6e55	0.0013308028
22	0x3d0ba083	0.034088623
23	0xbc804dba	-0.015662063
24	0x3db1603c	0.086609334
25	0x3dad27fc	0.08454892
26	0x3d77975f	0.060447093
27	0xbd0dadc4	-0.034589544
28	0x3d0e7f83	0.034789573
29	0xbc870131	-0.01648006
30	0xbd45b09c	-0.04826413
31	0xbd95e8fd	-0.073198296
32	0x3c0e216a	0.008674959
33	0x3d65db5d	0.056117404
34	0x3cc595d7	0.0241193
35	0x3c43abdf	0.011942833
36	0xbcd7415d	-0.026276285
37	0x3d892017	0.06695574
38	0xbd82d29e	-0.06387828
39	0x3dbb1ecc	0.091367334
40	0x3d9a4dae	0.075343475
41	0x3ce72954	0.028217949
42	0x3bf79cd2	0.0075565362
43	0xbd32a95d	-0.04361855
44	0xbd0e7a6e	-0.034784727
45	0xbd90837e	-0.0705633
46	0x3da1ffd6	0.07910125
47	0x3d41e2a9	0.0473353
48	0xbbbc1d6f	-0.0057408134
49	0x3d1b2086	0.037872814
50	0x3da10d5c	0.07863876
51	0xbd0f3ce3	-0.034970175
52	0x3c74ee1f	0.014949351
53	0xbd9c3714	-0.07627693
54	0x3cf9dba6	0.030500244
55	0x3d670276	0.05639883
56	0xbcd8b025	-0.02645118
57	0x3c90572e	0.017619696
58	0x3d9c6fb3	0.076384924
59	0x3da56a08	0.080768645
60	0x3c5ef3f0	0.013607964
61	0xbd8c4d91	-0.06850732
62	0x3c284a5b	0.010271634
63	0x3cc1c6ca	0.02365436
64	0x3cdb725d	0.026787931
65	0x3c5dfd8a	0.013549218
66	0xbdbbe591	-0.09174646
67	0xbd86a6f7	-0.06574815
68	0x3db868cc	0.090043634
69	0x3d1537af	0.036430057
70	0xbce261a0	-0.027634442
71	0xbd071657	-0.03298029
72	0xbc8e27d2	-0.017352972
73	0xbd375634	-0.044759944
74	0xbd85c039	-0.06530804
75	0x3d09bb09	0.033625636
76	0xbd694b10	-0.05695635
77	0xbdb7201e	-0.08941673
78	0xbc2f96a3	-0.010717067
79	0x3cae1017	0.021247907
80	0xbda1f66b	-0.079083286
81	0xbdaee349	-0.08539445
82	0xbd297b8f	-0.0413776
83	0x3da16d8f	0.07882225
84	0xbd952abd	-0.07283542
85	0x3da11c39	0.07866711
86	0xbd98adb2	-0.07455005
87	0x3dbe3b79	0.09288687
88	0x3d27a91a	0.040932752
89	0xbdc45bb0	-0.095878005
90	0xbbb6284e	-0.005559004
91	0x3d9089cc	0.07057533
92	0x3cb4b3d2	0.022058401
93	0x3d41e0a8	0.04733339
94	0x3da24345	0.07922987
95	0xbd61e4a5	-0.055149693
96	0xbcb9d442	-0.02268422
97	0x388ffd88	6.865995e-05
98	0x3c106974	0.0088142045
99	0x3da7a936	0.08186571
100	0x3d9e09b8	0.077166975
101	0xbca23590	-0.019800931
102	0x3db68e32	0.0891384
103	0x3cb808ea	0.022465188
104	0xbd9b7aea	-0.07591803
105	0xbae58e89	-0.0017513792
106	0xbd880c52	-0.06642975
107	0xbd61171a	-0.054953672
108	0x3da5b39d	0.08090899
109	0xbdbd5acd	-0.092458345
110	0xbcf0818a	-0.029358644
111	0x3da8e21b	0.08246251
112	0x3d46f6c1	0.048575167
113	0x3dc7486a	0.09730609
114	0x3d7139a4	0.05889286
115	0xbdb5e030	-0.08880651
116	0x3a85b58b	0.0010201199
117	0xbd8528a3	-0.065018915
118	0xbdac6f1a	-0.084196284
119	0xbd390638	-0.045171946
120	0x3d4fecc1	0.050762895
121	0xbd229ad0	-0.039698422
122	0xbb6270f2	-0.0034552184
123	0xbd8575a8	-0.06516582
124	0xbdabb6ec	-0.08384499
125	0x3c25b49b	0.0101138605
126	0xbcdfc337	-0.027314765
127	0x3cd1a2da	0.025590349
128	0x3d801d41	0.0625558
129	0xbd6723b5	-0.056430537
130	0x3c8fd35b	0.017556837
131	0xbd305a2f	-0.043054756
132	0x3d94bea1	0.07262922
133	0x3d59d5be	0.053182356
134	0x3d8355ee	0.06412874
135	0xbc7b65cc	-0.0153440945
136	0x3cbe23a7	0.02321036
137	0xbd5bab37	-0.05363008
138	0xbbec3686	-0.007208648
139	0x3c600571	0.013673172
140	0x3d31bd08	0.043393165
141	0xbc7cf7d4	-0.015439946
142	0xbda79aee	-0.08183847
143	0x3d9729a4	0.07380989
144	0xbd859b69	-0.06523783
145	0xbd3d3a82	-0.046198376
146	0xbc127f59	-0.008941495
147	0xbdcb7f8e	-0.099364385
148	0x3d83af61	0.06429935
149	0x3dbe2edb	0.09286281
150	0xbcf59124	-0.029976435
151	0x3db2638b	0.087103926
152	0x3c9b7719	0.018977689
153	0xbc693625	-0.0142341005
154	0x3bf86cdb	0.007581336
155	0x3dc47a0a	0.095935896
156	0x3bf7fee0	0.0075682253
157	0x3c04286c	0.008066278
158	0x3d5d5ea6	0.054045342
159	0x3d7bdc0d	0.061489154
160	0xbd45565f	-0.048178073
161	0xbc98f8f4	-0.018673398
162	0xbd2c43f8	-0.042057008
163	0x3da34b69	0.07973368
164	0x3d2d88fe	0.042366974
165	0x3d84185c	0.06449959
166	0x3d71729b	0.058947187
167	0x3dbf9172	0.09353913
168	0x3c9821d8	0.018570825
169	0xbd825bed	-0.0636519
170	0xbdc01c6f	-0.09380423
171	0x3cac7eb2	0.021056507
172	0xbdb74aeb	-0.08949836
173	0x3dc3793d	0.09544609
174	0x3d8bf973	0.06834688
175	0x3d80492c	0.062639564
176	0x3cb07d91	0.02154425
177	0x3c5e94c1	0.01358527
178	0xbbaa9b72	-0.005206519
179	0x3c768bd1	0.015047983
180	0x3d879ea4	0.06622055
181	0xbd5ac754	-0.05341275
182	0xbd02e294	-0.031954363
183	0x3d00f288	0.031481296
184	0x3d08f392	0.03343541
185	0x3dc94713	0.098280095
186	0x3d7c86ab	0.061651867
187	0x3bec8bdb	0.0072188205
188	0x3d5ba26b	0.05362169
189	0x3d8fc3db	0.07019778
190	0x3d777bc2	0.06042076
191	0x3b827279	0.0039809314
192	0x3aa96a1c	0.00129253
193	0xbd75a940	-0.059975863
194	0x3db0d367	0.08634072
195	0x3b7de9a2	0.0038743992
196	0x3d02391b	0.03179274
197	0xbcb3c4c0	-0.021944404
198	0xbd18a917	-0.03727063
199	0x3be0afff	0.006856918
200	0xbccf15bd	-0.02527892
201	0xbd6b3921	-0.05742753
202	0xbd290035	-0.041259963
203	0x3d41e793	0.047339987
204	0xbd16a487	-0.036778
205	0x3d71d29a	0.059038736
206	0x3d602afb	0.05472849
207	0xbd335cb6	-0.043789588
208	0x3d173721	0.03691781
209	0xbc9c756b	-0.019098958
210	0xbdb63174	-0.08896151
211	0x3daa44ff	0.08313941
212	0xbd213b8a	-0.03936342
213	0xbd5221c9	-0.05130175
214	0xbd5da2db	-0.05411039
215	0x3ca9cc89	0.020727413
216	0xbd96d5e7	-0.073650174
217	0xbc269a2d	-0.010168594
218	0x3d6facb7	0.058514323
219	0x3d91efdd	0.071258284
220	0x3c24bffe	0.01005554
221	0x3d5cb364	0.053882018
222	0x3d3288a9	0.04358736
223	0xbcd9d96e	-0.026592936
224	0x3d5d915e	0.05409371
225	0xbd89be80	-0.06725788
226	0x3d34455a	0.04401145
227	0xbd0eb229	-0.034837876
228	0x3dcaf708	0.09910399
229	0xbcb07f6c	-0.021545134
230	0x3cb638d2	0.02224389
231	0x3d6a522f	0.057207283
232	0xbdbd0c03	-0.09230807
233	0xbd8b7a3e	-0.06810425
234	0xbd4f53c0	-0.05061698
235	0x3db3ef67	0.08785897
236	0xbd9d6060	-0.07684398
237	0x3d39cea6	0.04536309
238	0x3d3f6e86	0.046736263
239	0xbc308fe4	-0.010776494
240	0x3d7fda1e	0.062463872
241	0x3d89d823	0.06730678
242	0x3c98f61d	0.018672043
243	0xbd9a66b7	-0.075391226
244	0xbda6ac60	-0.08138347
245	0x3bb240fd	0.005439876
246	0x3d03733e	0.032092325
247	0x3c82c0e7	0.015961124
248	0x3d4358e5	0.0476922
249	0x3d513a20	0.051080823
250	0x3c09d8c6	0.008413499
251	0x3d99a3ad	0.07501922
252	0xbcd85288	-0.026406541
253	0x3c9fbbee	0.019498792
254	0x3d13b457	0.036060657
255	0xbdb9ec19	-0.09078235

lstm.bias_ih_l0 f4 [512]
0	0x3c9b5abb	0.018964162
1	0xbab7ace8	-0.0014013322
2	0x3c4c49d5	0.012468775
3	0xbbc8cd37	-0.006127979
4	0x3b89a8be	0.004201024
5	0x3c497dea	0.012298087
6	0x3bbe2685	0.0058029317
7	0x3c598893	0.013277191
8	0xba2a5f4e	-0.0006499187
9	0x3ad3d4eb	0.0016161477
10	0x3b7b26da	0.0038322718
11	0x3a36f0a2	0.0006978606
12	0x3c9da88e	0.019245412
13	0x3c811f26	0.015761923
14	0x3c31eb65	0.010859345
15	0x3bddce2c	0.0067689624
16	0x3c02a13a	0.00797301
17	0x3c555d76	0.013022771
18	0x3c81477b	0.015781155
19	0x3c280c3d	0.010256824
20	0xba8bc142	-0.0010662454
21	0x3bf2a0b7	0.0074044126
22	0xbb61052c	-0.0034335358
23	0x3c97488e	0.018467214
24	0x3c51189a	0.012762213
25	0x3c89f184	0.016838796
26	0x3c6e4421	0.01454261
27	0x3b23a86f	0.002497222
28	0x3afa0c6f	0.0019077192
29	0x3bd66071	0.0065422584
30	0x3c4ad24e	0.012379242
31	0x3c8c77dd	0.017146999
32	0xbb2fb03b	-0.0026807922
33	0x3bbeb104	0.0058194418
34	0x3b94fce8	0.0045467503
35	0x3c6aceed	0.0143315615
36	0x3bcf2e58	0.0063226633
37	0x3c5cb519	0.013470911
38	0x3bc3ac7b	0.005971489
39	0x3c2cc8c7	0.010545916
40	0x3c1f1f0e	0.009711994
41	0x3c8e4d66	0.01737089
42	0xbbbefee1	-0.005828724
43	0xbad5f7de	-0.001632448
44	0x3c093bd2	0.008376079
45	0x3c204d54	0.009784061
46	0x3c1cdaab	0.009573619
47	0x3caf31ec	0.02138611
48	0x3c493897	0.0122815585
49	0x3ab663e6	0.001391527
50	0x3c28af87	0.010295755
51	0x3b068837	0.0020527968
52	0x3c4d9d6b	0.012549738
53	0x3c852362	0.016252223
54	0x3c38a7d4	0.011270482
55	0xbad6cf24	-0.0016388637
56	0x3c2276b8	0.009916
57	0x3c80f4ef	0.015741793
58	0x3c2063d8	0.00978943
59	0x3c26cba5	0.010180389
60	0x39ad525d	0.00033058497
61	0x3c61bf88	0.013778575
62	0x3c5ba53e	0.013406096
63	0x3ca7a52f	0.020464508
64	0x3c9cf086	0.01915766
65	0x3b54be8c	0.0032462208
66	0x3c6feab0	0.014643356
67	0x3c213c8b	0.009841095
68	0x3c2326ae	0.009957952
69	0x3c90ad0b	0.017660638
70	0x3c3b84dc	0.01144525
71	0x3c588407	0.0132150715
72	0x3c00afa0	0.007854372
73	0x3bb0b487	0.0053926143
74	0x3bee2d94	0.007268617
75	0x3b6ac194	0.0035820948
76	0x3c87a4f4	0.016558148
77	0x3be396f2	0.0069454843
78	0x3c0762ce	0.008263303
79	0x3b91073f	0.0044259126
80	0x3c812361	0.01576394
81	0x3ae73810	0.0017640609
82	0x3c121050	0.008915022
83	0x3c3f7d05	0.011687522
84	0x3b986606	0.004650834
85	0x3c915d20	0.0177446
86	0xbb75f43f	-0.0037529615
87	0x3c33e929	0.010980883
88	0x3c96ee8a	0.018424291
89	0x3bcd8298	0.0062716715
90	0x3c8765ed	0.016528094
91	0x3c85ed69	0.016348558
92	0x3c64c7d0	0.013963655
93	0x3c5457f4	0.012960423
94	0x3bad200b	0.005283361
95	0xbb24ba30	-0.002513539
96	0x3bc6f918	0.0060721748
97	0x3c80ccf4	0.01572273
98	0x3cc08925	0.023502896
99	0x3c036ade	0.008021085
100	0x3b5d53ce	0.0033771875
101	0x3c3e44db	0.011613096
102	0x3c73479f	0.014848619
103	0x3be44fd7	0.0069675255
104	0x3c22ea66	0.00994358
105	0x3c3e4f33	0.011615562
106	0x3b59c41a	0.0033228458
107	0x3c100806	0.008790975
108	0xbb29871c	-0.0025867885
109	0x3c30139f	0.0107468655
110	0x3b66bbd7	0.0035207176
111	0x3bfc7c05	0.007705214
112	0xba83f7ae	-0.0010068321
113	0x3c927479	0.017877804
114	0x3b520352	0.0032045436
115	0x3c0cc0bc	0.008590873
116	0x3c206ec7	0.009792036
117	0x3b8725c8	0.004124377
118	0x3c573c3d	0.0131369205
119	0x3b4db573	0.003138867
120	0x3c8219dd	0.015881473
121	0x3c2d3803	0.010572436
122	0x3bfd0785	0.0077218437
123	0xbb81d7a3	-0.0039624735
124	0x3bc3f23e	0.0059798053
125	0x3c32074c	0.0108659975
126	0x3bf40ef3	0.007448071
127	0x3b35eb83	0.0027758784
128	0xbabc2ea2	-0.0014357159
129	0x3b2d7e9b	0.0026473168
130	0x3bc20aa7	0.00592168
131	0xbb057fe6	-0.0020370423
132	0x3bd4bb92	0.0064920867
133	0xbbc31ff6	-0.005954738
134	0xbb93dcb2	-0.004512393
135	0x3b7baddb	0.0038403186
136	0xbb99b237	-0.0046904343
137	0xb9b4a6d2	-0.00034456566
138	0x3a4edc0e	0.0007891067
139	0xb9bdaf7b	-0.00036179632
140	0xbabf2eee	-0.001458613
141	0x3ac6ee67	0.0015177251
142	0xbc274cd9	-0.010211193
143	0xbbb3983f	-0.0054807956
144	0x38c856f5	9.55294e-05
145	0x3b79ee73	0.0038136512
146	0xba13e075	-0.00056410517
147	0xbbb65949	-0.005564843
148	0xbb1d886d	-0.0024037615
149	0xbc254396	-0.0100869145
150	0xba90d875	-0.0011050837
151	0xb886540c	-6.405273e-05
152	0x3b841596	0.0040308936
153	0x3c2f0f7b	0.010684843
154	0xbb85c7c7	-0.004082653
155	0xba888773	-0.0010416344
156	0xbab2c03c	-0.0013637613
157	0xbb8439ae	-0.0040351963
158	0xbb127e6c	-0.0022353185
159	0xb810d791	-3.4533037e-05
160	0xbbf84701	-0.0075768237
161	0x3799be0b	1.8327517e-05
162	0xbb5528fd	-0.0032525652
163	0xba10249d	-0.000549862
164	0xbaee2331	-0.0018168447
165	0xbc04e07e	-0.008110164
166	0xbbd8defe	-0.0066183796
167	0xbb252b05	-0.0025202644
168	0x3a8e9be2	0.0010880197
169	0x3b5265f4	0.0032104226
170	0xbc53dac5	-0.012930577
171	0x3a9ac915	0.0011809195
172	0x395df5a3	0.00021167709
173	0x3b4ad0d2	0.003094722
174	0x3c1d1eeb	0.009589891
175	0xbc5f3cd8	-0.013625346
176	0xbb6fc016	-0.0036582998
177	0xbc2387d6	-0.009981116
178	0xbc442439	-0.011971527
179	0x3b7c5673	0.0038503676
180	0xbb420c2f	-0.0029609313
181	0x3b758120	0.0037460998
182	0xbb1ae716	-0.0023636273
183	0x3b3beacb	0.0028673883
184	0x3b763323	0.00375671
185	0xbc73ab9c	-0.014872458
186	0xbb5c829d	-0.0033647188
187	0x3aada76b	0.0013248747
188	0xbabe94ef	-0.0014540235
189	0xbc64f586	-0.013974553
190	0xbb1c8d30	-0.0023887865
191	0xbc456cf8	-0.012049906
192	0x3c0d23e6	0.008614516
193	0xba2d5c04	-0.00066131377
194	0xbb224423	-0.002475985
195	0x3ac0e50e	0.0014716701
196	0xbb06f7bb	-0.0020594436
197	0xbc6e185c	-0.014532175
198	0x3b04ff29	0.002029369
199	0x38f27c09	0.000115625626
200	0xbb22ad03	-0.0024822361
201	0xbb93c87d	-0.004509984
202	0xb961e1f0	-0.0002154184
203	0xb992c380	-0.0002799295
204	0x3c0e6993	0.008692163
205	0xbb31a5d7	-0.0027106905
206	0xba6f82cc	-0.0009136617
207	0xbb09606c	-0.0020962013
208	0xbb8bc261	-0.004265115
209	0xbb8ec288	-0.004356686
210	0x3b410176	0.0029450334
211	0xb96663c5	-0.00021971676
212	0x3ab6078a	0.0013887745
213	0x3afad94c	0.0019138246
214	0xbb0d5269	-0.0021564013
215	0xbad66b90	-0.001635896
216	0xbc879b76	-0.016553622
217	0xbb000c03	-0.001953841
218	0xbbc6c5a8	-0.006066043
219	0xbbaf91de	-0.005357965
220	0xbbb492ee	-0.0055106794
221	0x3b5b9d69	0.0033510572
222	0xbb04d4ee	-0.0020268518
223	0xbb50d453	-0.0031864836
224	0x3ad403f4	0.0016175495
225	0xbb15beb0	-0.0022849254
226	0xbbcf6957	-0.006329696
227	0xbad6f2ec	-0.0016399301
228	0xbba2ecd1	-0.0049720784
229	0xbbe0fef8	-0.006866332
230	0x380b78da	3.3252734e-05
231	0x3950f2ad	0.0001992683
232	0x3bb0bc94	0.005393574
233	0xbc805cda	-0.015669275
234	0xbb7bab99	-0.003840184
235	0x3b4469a2	0.0029970189
236	0xbc2bba54	-0.010481436
237	0xb9ba74ae	-0.00035563618
238	0xba59578d	-0.0008290939
239	0x3b21deb0	0.0024699382
240	0x3af4fb9d	0.0018690709
241	0x3bb73d1a	0.0055920007
242	0xbb7b503c	-0.0038347384
243	0x3b194f62	0.0023393263
244	0x3b33d179	0.0027438088
245	0x3ad5c294	0.0016308599
246	0x3b9fd560	0.004877731
247	0xbb38c90c	-0.0028196005
248	0x3bc8016f	0.0061036865
249	0x3b521038	0.0032053124
250	0xbb9a43e2	-0.0047077993
251	0xbc43102c	-0.011905711
252	0x3aa06d78	0.0012239655
253	0x3b2ddc6e	0.0026529091
254	0x3b27cc78	0.002560405
255	0xba430fbd	-0.0007441005

lstm.bias_hh_l0 f4 [512]
0	0x3c9b5abb	0.018964162
1	0xbab7ace8	-0.0014013322
2	0x3c4c49d5	0.012468775
3	0xbbc8cd37	-0.006127979
4	0x3b89a8be	0.004201024
5	0x3c497dea	0.012298087
6	0x3bbe2685	0.0058029317
7	0x3c598893	0.013277191
8	0xba2a5f4e	-0.0006499187
9	0x3ad3d4eb	0.0016161477
10	0x3b7b26da	0.0038322718
11	0x3a36f0a2	0.0006978606
12	0x3c9da88e	0.019245412
13	0x3c811f26	0.015761923
14	0x3c31eb65	0.010859345
15	0x3bddce2c	0.0067689624
16	0x3c02a13a	0.00797301
17	0x3c555d76	0.013022771
18	0x3c81477b	0.015781155
19	0x3c280c3d	0.010256824
20	0xba8bc142	-0.0010662454
21	0x3bf2a0b7	0.0074044126
22	0xbb61052c	-0.0034335358
23	0x3c97488e	0.018467214
24	0x3c51189a	0.012762213
25	0x3c89f184	0.016838796
26	0x3c6e4421	0.01454261
27	0x3b23a86f	0.002497222
28	0x3afa0c6f	0.0019077192
29	0x3bd66071	0.0065422584
30	0x3c4ad24e	0.012379242
31	0x3c8c77dd	0.017146999
32	0xbb2fb03b	-0.0026807922
33	0x3bbeb104	0.0058194418
34	0x3b94fce8	0.0045467503
35	0x3c6aceed	0.0143315615
36	0x3bcf2e58	0.0063226633
37	0x3c5cb519	0.013470911
38	0x3bc3ac7b	0.005971489
39	0x3c2cc8c7	0.010545916
40	0x3c1f1f0e	0.009711994
41	0x3c8e4d66	0.01737089
42	0xbbbefee1	-0.005828724
43	0xbad5f7de	-0.001632448
44	0x3c093bd2	0.008376079
45	0x3c204d54	0.009784061
46	0x3c1cdaab	0.009573619
47	0x3caf31ec	0.02138611
48	0x3c493897	0.0122815585
49	0x3ab663e6	0.001391527
50	0x3c28af87	0.010295755
51	0x3b068837	0.0020527968
52	0x3c4d9d6b	0.012549738
53	0x3c852362	0.016252223
54	0x3c38a7d4	0.011270482
55	0xbad6cf24	-0.0016388637
56	0x3c2276b8	0.009916
57	0x3c80f4ef	0.015741793
58	0x3c2063d8	0.00978943
59	0x3c26cba5	0.010180389
60	0x39ad525d	0.00033058497
61	0x3c61bf88	0.013778575
62	0x3c5ba53e	0.013406096
63	0x3ca7a52f	0.020464508
64	0x3c9cf086	0.01915766
65	0x3b54be8c	0.0032462208
66	0x3c6feab0	0.014643356
67	0x3c213c8b	0.009841095
68	0x3c2326ae	0.009957952
69	0x3c90ad0b	0.017660638
70	0x3c3b84dc	0.01144525
71	0x3c588407	0.0132150715
72	0x3c00afa0	0.007854372
73	0x3bb0b487	0.0053926143
74	0x3bee2d94	0.007268617
75	0x3b6ac194	0.0035820948
76	0x3c87a4f4	0.016558148
77	0x3be396f2	0.0069454843
78	0x3c0762ce	0.008263303
79	0x3b91073f	0.0044259126
80	0x3c812361	0.01576394
81	0x3ae73810	0.0017640609
82	0x3c121050	0.008915022
83	0x3c3f7d05	0.011687522
84	0x3b986606	0.004650834
85	0x3c915d20	0.0177446
86	0xbb75f43f	-0.0037529615
87	0x3c33e929	0.010980883
88	0x3c96ee8a	0.018424291
89	0x3bcd8298	0.0062716715
90	0x3c8765ed	0.016528094
91	0x3c85ed69	0.016348558
92	0x3c64c7d0	0.013963655
93	0x3c5457f4	0.012960423
94	0x3bad200b	0.005283361
95	0xbb24ba30	-0.002513539
96	0x3bc6f918	0.0060721748
97	0x3c80ccf4	0.01572273
98	0x3cc08925	0.023502896
99	0x3c036ade	0.008021085
100	0x3b5d53ce	0.0033771875
101	0x3c3e44db	0.011613096
102	0x3c73479f	0.014848619
103	0x3be44fd7	0.0069675255
104	0x3c22ea66	0.00994358
105	0x3c3e4f33	0.011615562
106	0x3b59c41a	0.0033228458
107	0x3c100806	0.008790975
108	0xbb29871c	-0.0025867885
109	0x3c30139f	0.0107468655
110	0x3b66bbd7	0.0035207176
111	0x3bfc7c05	0.007705214
112	0xba83f7ae	-0.0010068321
113	0x3c927479	0.017877804
114	0x3b520352	0.0032045436
115	0x3c0cc0bc	0.008590873
116	0x3c206ec7	0.009792036
117	0x3b8725c8	0.004124377
118	0x3c573c3d	0.0131369205
119	0x3b4db573	0.003138867
120	0x3c8219dd	0.015881473
121	0x3c2d3803	0.010572436
122	0x3bfd0785	0.0077218437
123	0xbb81d7a3	-0.0039624735
124	0x3bc3f23e	0.0059798053
125	0x3c32074c	0.0108659975
126	0x3bf40ef3	0.007448071
127	0x3b35eb83	0.0027758784
128	0xbabc2ea2	-0.0014357159
129	0x3b2d7e9b	0.0026473168
130	0x3bc20aa7	0.00592168
131	0xbb057fe6	-0.0020370423
132	0x3bd4bb92	0.0064920867
133	0xbbc31ff6	-0.005954738
134	0xbb93dcb2	-0.004512393
135	0x3b7baddb	0.0038403186
136	0xbb99b237	-0.0046904343
137	0xb9b4a6d2	-0.00034456566
138	0x3a4edc0e	0.0007891067
139	0xb9bdaf7b	-0.00036179632
140	0xbabf2eee	-0.001458613
141	0x3ac6ee67	0.0015177251
142	0xbc274cd9	-0.010211193
143	0xbbb3983f	-0.0054807956
144	0x38c856f5	9.55294e-05
145	0x3b79ee73	0.0038136512
146	0xba13e075	-0.00056410517
147	0xbbb65949	-0.005564843
148	0xbb1d886d	-0.0024037615
149	0xbc254396	-0.0100869145
150	0xba90d875	-0.0011050837
151	0xb886540c	-6.405273e-05
152	0x3b841596	0.0040308936
153	0x3c2f0f7b	0.010684843
154	0xbb85c7c7	-0.004082653
155	0xba888773	-0.0010416344
156	0xbab2c03c	-0.0013637613
157	0xbb8439ae	-0.0040351963
158	0xbb127e6c	-0.0022353185
159	0xb810d791	-3.4533037e-05
160	0xbbf84701	-0.0075768237
161	0x3799be0b	1.8327517e-05
162	0xbb5528fd	-0.0032525652
163	0xba10249d	-0.000549862
164	0xbaee2331	-0.0018168447
165	0xbc04e07e	-0.008110164
166	0xbbd8defe	-0.0066183796
167	0xbb252b05	-0.0025202644
168	0x3a8e9be2	0.0010880197
169	0x3b5265f4	0.0032104226
170	0xbc53dac5	-0.012930577
171	0x3a9ac915	0.0011809195
172	0x395df5a3	0.00021167709
173	0x3b4ad0d2	0.003094722
174	0x3c1d1eeb	0.009589891
175	0xbc5f3cd8	-0.013625346
176	0xbb6fc016	-0.0036582998
177	0xbc2387d6	-0.009981116
178	0xbc442439	-0.011971527
179	0x3b7c5673	0.0038503676
180	0xbb420c2f	-0.0029609313
181	0x3b758120	0.0037460998
182	0xbb1ae716	-0.0023636273
183	0x3b3beacb	0.0028673883
184	0x3b763323	0.00375671
185	0xbc73ab9c	-0.014872458
186	0xbb5c829d	-0.0033647188
187	0x3aada76b	0.0013248747
188	0xbabe94ef	-0.0014540235
189	0xbc64f586	-0.013974553
190	0xbb1c8d30	-0.0023887865
191	0xbc456cf8	-0.012049906
192	0x3c0d23e6	0.008614516
193	0xba2d5c04	-0.00066131377
194	0xbb224423	-0.002475985
195	0x3ac0e50e	0.0014716701
196	0xbb06f7bb	-0.0020594436
197	0xbc6e185c	-0.014532175
198	0x3b04ff29	0.002029369
199	0x38f27c09	0.000115625626
200	0xbb22ad03	-0.0024822361
201	0xbb93c87d	-0.004509984
202	0xb961e1f0	-0.0002154184
203	0xb992c380	-0.0002799295
204	0x3c0e6993	0.008692163
205	0xbb31a5d7	-0.0027106905
206	0xba6f82cc	-0.0009136617
207	0xbb09606c	-0.0020962013
208	0xbb8bc261	-0.004265115
209	0xbb8ec288	-0.004356686
210	0x3b410176	0.0029450334
211	0xb96663c5	-0.00021971676
212	0x3ab6078a	0.0013887745
213	0x3afad94c	0.0019138246
214	0xbb0d5269	-0.0021564013
215	0xbad66b90	-0.001635896
216	0xbc879b76	-0.016553622
217	0xbb000c03	-0.001953841
218	0xbbc6c5a8	-0.006066043
219	0xbbaf91de	-0.005357965
220	0xbbb492ee	-0.0055106794
221	0x3b5b9d69	0.0033510572
222	0xbb04d4ee	-0.0020268518
223	0xbb50d453	-0.0031864836
224	0x3ad403f4	0.0016175495
225	0xbb15beb0	-0.0022849254
226	0xbbcf6957	-0.006329696
227	0xbad6f2ec	-0.0016399301
228	0xbba2ecd1	-0.0049720784
229	0xbbe0fef8	-0.006866332
230	0x380b78da	3.3252734e-05
231	0x3950f2ad	0.0001992683
232	0x3bb0bc94	0.005393574
233	0xbc805cda	-0.015669275
234	0xbb7bab99	-0.003840184
235	0x3b4469a2	0.0029970189
236	0xbc2bba54	-0.010481436
237	0xb9ba74ae	-0.00035563618
238	0xba59578d	-0.0008290939
239	0x3b21deb0	0.0024699382
240	0x3af4fb9d	0.0018690709
241	0x3bb73d1a	0.0055920007
242	0xbb7b503c	-0.0038347384
243	0x3b194f62	0.0023393263
244	0x3b33d179	0.0027438088
245	0x3ad5c294	0.0016308599
246	0x3b9fd560	0.004877731
247	0xbb38c90c	-0.0028196005
248	0x3bc8016f	0.0061036865
249	0x3b521038	0.0032053124
250	0xbb9a43e2	-0.0047077993
251	0xbc43102c	-0.011905711
252	0x3aa06d78	0.0012239655
253	0x3b2ddc6e	0.0026529091
254	0x3b27cc78	0.002560405
255	0xba430fbd	-0.0007441005

lstm.weight_ih_l1 f4 [512, 128]
0	0xbd7b1acd	-0.061304856
1	0xbc36dab5	-0.011160542
2	0x3d56954b	0.05238847
3	0xbd802a6f	-0.062580936
4	0x3d17324a	0.036913194
5	0x3da707df	0.08155798
6	0xbd69a9dd	-0.05704676
7	0x3c9cb84d	0.01913085
8	0xbb67d5e8	-0.00353753
9	0x3d865aff	0.06560325
10	0xbde0c8ba	-0.109757856
11	0x3c15e86a	0.00914965
12	0x3d8e5ffa	0.069519
13	0x3d5b98c5	0.05361249
14	0x3be452c2	0.0069678733
15	0xbca3d42e	-0.019998636
16	0x3b9367c1	0.0044984524
17	0x3d3a99b7	0.04555675
18	0x3d55f548	0.05223587
19	0x3b7aab2d	0.0038249001
20	0x3cb83c14	0.022489585
21	0xbc9f4eb8	-0.019446716
22	0x3cb95b2a	0.022626478
23	0x3cb8e795	0.022571364
24	0x3d9d6249	0.07684762
25	0x3c35f9a5	0.011106883
26	0xbd8e2820	-0.06941247
27	0x3cd3e912	0.025867973
28	0x3d336896	0.043800913
29	0x3dc2df21	0.09515215
30	0xbdaa673e	-0.08320473
31	0x3d6e8162	0.058228858
32	0xbc48aa57	-0.012247643
33	0xbd889c92	-0.066704884
34	0x3c698af3	0.0142543195
35	0x3d9bf187	0.07614427
36	0xbdd4acea	-0.10384543
37	0xbdaa16c5	-0.08305124
38	0x3d8ab360	0.06772494
39	0xbd8b3523	-0.067972444
40	0xbd79e155	-0.06100591
41	0xbca567c2	-0.020191077
42	0x3cd35077	0.025795205
43	0xbd700505	-0.058598537
44	0x3c3eb2a1	0.011639268
45	0xbd981bb4	-0.07427159
46	0xbbf4edac	-0.0074746218
47	0x3cf4c4cb	0.029878994
48	0xbcd8cf0a	-0.026465911
49	0xbd8098c2	-0.06279136
50	0x3c1f8c81	0.009738089
51	0x3dd3f69a	0.1034977
52	0xbcda8cc2	-0.026678447
53	0x3d8a4466	0.06751327
54	0xbc065cc2	-0.008200826
55	0xbd394b77	-0.045237985
56	0xbd11f4a3	-0.035633694
57	0x3c910208	0.017701164
58	0xbda9c3df	-0.082893126
59	0xbc879a7e	-0.01655316
60	0xbd0ced25	-0.034405846
61	0x3d3329c0	0.043740988
62	0xbd844627	-0.06458693
63	0x3de2a46b	0.110665165
64	0x3d64e171	0.05587906
65	0xbd58cacb	-0.052927773
66	0x3dadf350	0.08493674
67	0xbbcf19a2	-0.0063201943
68	0xbd8efcc0	-0.06981802
69	0xbb885311	-0.004160293
70	0x3da5824b	0.08081492
71	0x3dcf9596	0.10135953
72	0xbd42c476	-0.04755064
73	0xbc59ac4e	-0.01328571
74	0xbc50e9b0	-0.012751028
75	0x3dabf291	0.08395875
76	0x3d872997	0.065997295
77	0xbd6fb1ff	-0.05851936
78	0x3d3df4ca	0.046376027
79	0x3db281c8	0.0871616
80	0x3cfa7345	0.030572543
81	0xbd8868d4	-0.066606194
82	0xbd81bcc9	-0.06334836
83	0x3b2b33fd	0.0026123517
84	0x3ca0dca7	0.019636465
85	0x3da8fdef	0.08251559
86	0xbd066846	-0.032814287
87	0x3d446a3e	0.047952883
88	0x3d0dbdb5	0.034604747
89	0x3d2e4053	0.042541813
90	0x3d318475	0.04333921
91	0xbbf8dab1	-0.0075944294
92	0xba899a4a	-0.0010498252
93	0x3d22263c	0.039587244
94	0x3ac92e0f	0.001534881
95	0x3d06ed55	0.03294118
96	0x3cff7180	0.03118205
97	0x3da43094	0.08017078
98	0x3c7f095b	0.015566195
99	0x3d834662	0.06409909
100	0x3c94e4f4	0.01817558
101	0xbd9b5f5d	-0.075865485
102	0x3da2435d	0.07923005
103	0x3bfe3e61	0.007758901
104	0x3caca00a	0.021072406
105	0x3c57200f	0.013130202
106	0xbc90fff9	-0.017700182
107	0xbd954e06	-0.072902724
108	0x3d5edf93	0.054412436
109	0xbcf65551	-0.030069979
110	0x3c042b1e	0.008066921
111	0x3c1d14d3	0.009587484
112	0xbca4e0a0	-0.02012664
113	0x3b3bd4a5	0.0028660682
114	0xbcf38b74	-0.029729582
115	0x3d965d2f	0.07341992
116	0xbd93c6c7	-0.07215648
117	0x3d3bff04	0.0458975
118	0x3c6f37a6	0.01460067
119	0xbd1382df	-0.03601348
120	0x3d913781	0.07090665
121	0xbccf6531	-0.025316807
122	0x3d8fde10	0.07024777
123	0xbd9effe8	-0.07763654
124	0x3ca3162b	0.019908031
125	0x3c811a21	0.01575953
126	0x3d36f9f1	0.044671956
127	0x3d9e1ce3	0.077203535
128	0x3cb1e5d4	0.021716036
129	0xbdaea56e	-0.08527647
130	0x3dbfbf4a	0.09362657
131	0x3bcb0a6a	0.00619631
132	0xbd319156	-0.043351494
133	0xbd3a1305	-0.045428295
134	0xbb7b8eab	-0.0038384597
135	0x3d1f0f37	0.03883287
136	0xbc2e2390	-0.010628596
137	0x3d9e4ef9	0.077299066
138	0x3d8e8a4a	0.0695997
139	0xbd61ef6e	-0.05515998
140	0xbda3d467	-0.07999497
141	0x3d760872	0.060066648
142	0xbca965ff	-0.020678518
143	0xbd381ed5	-0.04495128
144	0x3b504111	0.0031777064
145	0x3da7ad55	0.08187357
146	0xbd686a83	-0.056742202
147	0x3d719374	0.058978513
148	0x3d8f945b	0.070107184
149	0x3dc5aaf9	0.09651751
150	0x3d8b4d48	0.068018496
151	0xbdbd5c92	-0.09246172
152	0xbdb7e4bf	-0.08979177
153	0x3d48b53b	0.04900096
154	0x3d27f94c	0.041009232
155	0xbc607f36	-0.013702204
156	0xbd1c2fa8	-0.038131386
157	0x3c961d5e	0.01832455
158	0xbd12bde4	-0.035825625
159	0xbcbdd020	-0.02317053
160	0xbc91bfe3	-0.017791694
161	0x3d3fe9fe	0.04685401
162	0x3d38dfff	0.045135494
163	0x3d94d96e	0.07268034
164	0xbd651c86	-0.055935405
165	0xbd63c976	-0.05561205
166	0xbd912420	-0.070869684
167	0xbd995123	-0.07486179
168	0x3da2194b	0.079149805
169	0xbd6dff10	-0.058104575
170	0xbd099003	-0.033584606
171	0x3d275d92	0.04086072
172	0xbdaf6996	-0.08565061
173	0xbdb17175	-0.08664218
174	0xbd557c8a	-0.052120723
175	0x3b5634c3	0.0032685257
176	0x3c3d89a2	0.011568459
177	0xbd1f99ae	-0.03896492
178	0xbd0e52ae	-0.03474682
179	0xbbdba66a	-0.0067031877
180	0x3d617350	0.05504161
181	0xbd6b0247	-0.05737522
182	0x3ca476d6	0.020076197
183	0xbc9b8d15	-0.018988172
184	0xbda134d1	-0.07871402
185	0xbd7fca5e	-0.06244885
186	0x3cd6ad40	0.026205659
187	0xbdbc3072	-0.09188928
188	0xbc6fbd35	-0.014632513
189	0x3c281564	0.010259006
190	0x3d954892	0.07289232
191	0x3dd70775	0.10499469
192	0xbd3a405e	-0.04547154
193	0x3d90ed01	0.07076455
194	0x3dd2a03a	0.10284467
195	0x3cf4c4ad	0.029878939
196	0x3cad0655	0.021121183
197	0xbcd21944	-0.025646813
198	0x3d0e183b	0.034691077
199	0xbd750778	-0.059821576
200	0x3d9220d7	0.0713517
201	0x3db5faa3	0.08885696
202	0xbca46846	-0.020069253
203	0x3d8a12d7	0.06741875
204	0xbca3408d	-0.019928241
205	0x3dcf03cc	0.10108146
206	0x3cf071e8	0.02935119
207	0x3db1a8ed	0.08674798
208	0xbd949b53	-0.07256188
209	0xbdb54907	-0.088518195
210	0x3d9ef4b5	0.07761518
211	0xbd957512	-0.0729772
212	0x3dbec794	0.0931541
213	0xbd6b9245	-0.05751254
214	0x3cc0df45	0.023543963
215	0xbd1a2c38	-0.037639827
216	0xbd1db620	-0.038503766
217	0xbcfa717a	-0.030571688
218	0xbd616c86	-0.055035137
219	0x3d1b0941	0.037850622
220	0x3ccd3650	0.025050312
221	0x3daccd48	0.08437592
222	0xbd2e5466	-0.042560957
223	0xbd5dcd5a	-0.054150917
224	0xbda91a09	-0.08256919
225	0xbd8b5eaa	-0.06805165
226	0xbdc107e6	-0.09425335
227	0x3da6a7b2	0.08137454
228	0x3d508d32	0.050915904
229	0x3d33c515	0.043889124
230	0xbcfe23ae	-0.031022873
231	0x3d6a1db3	0.05715723
232	0x3dadd7cb	0.08488425
233	0xbd5944f7	-0.053044286
234	0x3c8fd916	0.01755957
235	0x3d77c8c4	0.0604942
236	0xbcfb47d6	-0.030673902
237	0xbc686549	-0.0141843045
238	0x3d7900f4	0.060791925
239	0xbd846b3f	-0.06465768
240	0xbd0dff43	-0.034667265
241	0x3db7404f	0.08947813
242	0xbd2856e9	-0.04109851
243	0xbd43f444	-0.04784037
244	0xbcf68787	-0.030093921
245	0xbb690e0f	-0.0035561358
246	0x3d87e25d	0.06634972
247	0xbc13f255	-0.009029944
248	0x3d109726	0.035300396
249	0xbd8d8d8c	-0.069117635
250	0x3d46c009	0.048522983
251	0xbd33be97	-0.043882933
252	0xbd361ee9	-0.044463072
253	0x3da622d4	0.08112112
254	0x3da6f961	0.08153034
255	0x3d05cb60	0.032664657

lstm.weight_hh_l1 f4 [512, 128]
0	0xbbea9843	-0.0071592643
1	0xbd07ddb7	-0.033170428
2	0xbc89c6ac	-0.016818367
3	0xbce01ee6	-0.027358484
4	0xbda129d2	-0.07869305
5	0xbcbdfce8	-0.023191884
6	0x3cce656c	0.025194846
7	0x3d40110d	0.04689126
8	0x3dae1010	0.084991574
9	0x3dd28ec6	0.10281138
10	0xbcf75a04	-0.03019429
11	0x3d82f160	0.06393695
12	0xbca1a0e6	-0.019730043
13	0xbbcdf584	-0.0062853713
14	0x3da376cc	0.07981643
15	0x3ce35090	0.027748376
16	0x3d9cf5ee	0.07664095
17	0x3ce24c34	0.027624227
18	0xbcb66852	-0.02226654
19	0x3d8b1e32	0.06792869
20	0xbbe7bdc3	-0.007072182
21	0x3d3c2f7c	0.045943722
22	0xbd84dc26	-0.064873025
23	0x3c124687	0.008927948
24	0xbd9312b0	-0.07181299
25	0xbc809224	-0.015694685
26	0x3dc783db	0.09741946
27	0x3d687e0a	0.056760825
28	0x3d3b621e	0.04574787
29	0xbdca6d4c	-0.09884128
30	0xbd9b9098	-0.075959384
31	0xbdb74f7a	-0.08950706
32	0xbd644f99	-0.055739973
33	0x3cc79753	0.02436415
34	0x3c9554b9	0.018228875
35	0x3dac12a5	0.08401994
36	0x3d5454af	0.051838573
37	0xbda21252	-0.079136506
38	0xbd9cb74a	-0.07652147
39	0x3d9561c7	0.0729404
40	0xbd6ba7ca	-0.057533063
41	0xbd680cc2	-0.05665279
42	0xbd184b93	-0.03718145
43	0x3d87a420	0.06623101
44	0x3d71a02b	0.05899064
45	0xbd545ccf	-0.05184632
46	0xbc524502	-0.012833836
47	0x3cb38694	0.021914758
48	0xb963b081	-0.0002171416
49	0x3d8c82d8	0.06860894
50	0x3d18dcdd	0.037320007
51	0x3c81d272	0.015847418
52	0xbc98a6ac	-0.018634163
53	0x3b244e8c	0.0025071232
54	0xbd870d8c	-0.06594381
55	0x3be2cffb	0.006921766
56	0x3d2f07ae	0.042731933
57	0x3d5d543d	0.054035414
58	0x3d984ed8	0.07436913
59	0x3dac012c	0.08398661
60	0x3d2325a4	0.03983082
61	0x3dbc3a03	0.09190752
62	0xbd171d27	-0.036893036
63	0xbc9427ae	-0.018085327
64	0x3d1b9d1c	0.037991628
65	0x3d9ab134	0.0755333
66	0xbd2335ca	-0.03984622
67	0x3da3fbe1	0.080070265
68	0x3d7be645	0.0614989
69	0x3d1808b1	0.037117664
70	0xbd6b548f	-0.05745369
71	0x3d9a86cc	0.07545242
72	0xbc7ca8d2	-0.015421109
73	0xbd0856da	-0.033285953
74	0xbd8fa35a	-0.07013579
75	0xbdb088d5	-0.08619849
76	0xbcadbcae	-0.021208134
77	0x3c50c905	0.012743239
78	0x3dcc27cd	0.09968529
79	0xbd7c7a9b	-0.061640363
80	0xbca113f3	-0.019662833
81	0x3d3cf726	0.046134137
82	0xbdc062c8	-0.09393841
83	0x3d77e301	0.060519222
84	0x3cc60662	0.024172965
85	0x3d62600f	0.05526739
86	0x3d4cb4d4	0.04997714
87	0xbbbcedd1	-0.0057656546
88	0x3bac13b5	0.0052513727
89	0xba2d9084	-0.0006620961
90	0xbc57af5f	-0.01316437
91	0x3d2ee015	0.04269417
92	0x3d769798	0.060203165
93	0x3b8f0240	0.004364282
94	0xbd467b8b	-0.048457664
95	0x3dde80d9	0.108644195
96	0x3d33a0f4	0.04385467
97	0xbd6cc4bb	-0.057804804
98	0x3d2b07c1	0.04175544
99	0x3dacf887	0.0844584
100	0x3d68b55e	0.05681359
101	0xbbb759b7	-0.0055954116
102	0x3d149ae5	0.03628053
103	0x3d046bfe	0.032329552
104	0xbba047cf	-0.0048913728
105	0x3d0180f8	0.031617135
106	0x3bf5750d	0.00749076
107	0xbdd31564	-0.10306814
108	0xbd831a21	-0.06401468
109	0xbd81bcf6	-0.063348696
110	0x3d4efa3f	0.050531622
111	0x3dd4cdca	0.10390814
112	0xbd4f5a9a	-0.050623514
113	0xbdad4a93	-0.084614895
114	0xbda72a50	-0.08162367
115	0xbd375b4c	-0.0447648
116	0x3d55ad5b	0.052167278
117	0xbdad8623	-0.0847285
118	0x3cc6047c	0.02417206
119	0x3d031acd	0.03200798
120	0x3caba957	0.020954771
121	0xbce03f28	-0.027373865
122	0xbdb9d616	-0.09074037
123	0x3db1455a	0.08655806
124	0x3d277b45	0.040889043
125	0xbda392e1	-0.07986999
126	0xbd0017f4	-0.031272843
127	0xbd9b8ccd	-0.07595215
128	0x3cba6fb7	0.022758348
129	0x3d3584ee	0.044316225
130	0x3d8a338e	0.067481145
131	0xbd6c6401	-0.05771256
132	0x3d9fbd1f	0.07799744
133	0x3c82edb6	0.01598249
134	0xbb43fcd8	-0.0029905345
135	0x3dbcc9ca	0.09218176
136	0xbd296c86	-0.04136326
137	0xbc914c1e	-0.01773649
138	0xbc15d0ed	-0.00914405
139	0x3d8cd86b	0.06877216
140	0x3d0fc5d6	0.03510078
141	0x3dc2a721	0.095045336
142	0x3c0c57db	0.008565868
143	0xbda75a06	-0.081714675
144	0x3dadd3a5	0.084876336
145	0xbce16e18	-0.027518317
146	0x3ae91048	0.0017781341
147	0x3d8e1e4e	0.06939374
148	0xbd341cb0	-0.04397267
149	0x3d9454b3	0.072427176
150	0x3d113aeb	0.03545658
151	0x3d741c3b	0.059597235
152	0x3ddf6607	0.10908132
153	0xbbd3f357	-0.0064682174
154	0xbc2ff1c9	-0.010738798
155	0x3dc21725	0.09477071
156	0xbdd1e4c8	-0.10248715
157	0xbd87ab7d	-0.06624506
158	0xbcbdd795	-0.023174087
159	0x3d2fb9fe	0.042901985
160	0x3c9e7b54	0.019345917
161	0xbd20d63b	-0.039266806
162	0x3dc891d2	0.09793438
163	0x3d84b458	0.0647971
164	0x3b2c2d72	0.0026272205
165	0xbbd673a4	-0.006544547
166	0x3b2bcd6f	0.0026214977
167	0xbd616b71	-0.055034105
168	0x3ddd53ae	0.10806976
169	0x3dcda6bb	0.10041567
170	0xbc57bc22	-0.013167413
171	0x3d22fcf6	0.039792024
172	0x3d9c4da2	0.07631995
173	0x3d8b81a1	0.06811834
174	0xbcccf885	-0.025020847
175	0xbd70fb75	-0.058833558
176	0x3c909a61	0.017651739
177	0x3ce264fe	0.027636047
178	0xbcc53745	-0.024074206
179	0xbdcd45fb	-0.10023113
180	0x3d40b071	0.047043268
181	0x3d97e002	0.07415773
182	0x3c4faf65	0.012676095
183	0xbd92f0cc	-0.071748346
184	0x3d9d0c8a	0.07668407
185	0x3d9faba6	0.07796411
186	0x3dbdc5e0	0.09266257
187	0xbb98fd65	-0.004668879
188	0xbd8c997c	-0.06865212
189	0xbbab6b95	-0.0052313306
190	0x3da69400	0.081336975
191	0x3bc3204d	0.0059547783
192	0xbd92f078	-0.07174772
193	0x3d5825fe	0.052770607
194	0xbdbcea46	-0.092243716
195	0x3d890e92	0.06692232
196	0x3d90ed0c	0.07076463
197	0x3ccbf63c	0.024897687
198	0x3d8af98a	0.06785877
199	0x3b187380	0.0023262203
200	0xbdbe5935	-0.09294359
201	0x3c49d884	0.012319688
202	0x3ce8fdc2	0.028441314
203	0x3d86d8c6	0.06584315
204	0xbdc878e0	-0.0978868
205	0xbcf92ba6	-0.030416321
206	0x3c7753e0	0.015095681
207	0x3d826cf2	0.06368436
208	0xbdb23eca	-0.08703382
209	0x3d76438b	0.060123008
210	0x3d4ae285	0.049532432
211	0x3d835662	0.064129606
212	0xbc1e37f9	-0.0096569
213	0xbc1f1195	-0.009708782
214	0x3cb52c0e	0.022115733
215	0xbdb012c3	-0.085973285
216	0xbbe8ec6f	-0.007108263
217	0xbc07fde9	-0.008300283
218	0x3c9aad1b	0.018881371
219	0x3cbeaaf4	0.023274876
220	0xbc0e2d31	-0.008677767
221	0xbc08fece	-0.008361531
222	0x3d6a0902	0.057137497
223	0x3d91d5b1	0.071208365
224	0x3d7b07f0	0.061286867
225	0x3dbda71e	0.09260391
226	0xbdd2137b	-0.10257622
227	0x3d325af5	0.043543775
228	0x3d75905c	0.059952125
229	0xbd0f3c21	-0.034969453
230	0xbd675898	-0.056480974
231	0x3d873644	0.06602147
232	0xbd85bc98	-0.06530112
233	0xbd57bd75	-0.052670915
234	0x3cd8cc4d	0.026464606
235	0xbd0de2ef	-0.03464025
236	0x3d8bf2fa	0.068334535
237	0xbce41e36	-0.027846437
238	0x3d804e02	0.06264879
239	0x3d641d0e	0.05569177
240	0x3ddf53ab	0.1090463
241	0x3cfefe20	0.031127036
242	0x3d9d585f	0.07682871
243	0x3d979c3f	0.074028485
244	0x3c56a17e	0.013100026
245	0x3d918b9c	0.071067065
246	0x3bc53801	0.006018639
247	0xbd41b280	-0.04728937
248	0x3d9758e2	0.0739
249	0x3d02f4a8	0.031971604
250	0xbd03f56b	-0.03221647
251	0xb94a276e	-0.0001927891
252	0x3d9d2aae	0.07674156
253	0xbd292933	-0.041299056
254	0x3c357fcd	0.011077833
255	0xbd9d3362	-0.07675816

lstm.bias_ih_l1 f4 [512]
0	0x3c44f167	0.012020445
1	0x3c74b7f0	0.014936432
2	0x3b899d8c	0.0041996893
3	0x3bdaa8cf	0.0066729556
4	0x3b988d72	0.0046555335
5	0x3b81aaba	0.00395712
6	0x3b4d149b	0.00312928
7	0x3b08c88f	0.0020871495
8	0x3bba490c	0.0056849774
9	0x3c20e6ff	0.009820699
10	0x3b4f34eb	0.0031617235
11	0x3c5082ed	0.012726528
12	0x3ba96b8f	0.0051702927
13	0x3ca29b4a	0.019849438
14	0x3b92c518	0.004479062
15	0x3c46910c	0.012119543
16	0x3bffd98e	0.007807917
17	0x3cb46215	0.022019425
18	0x3ba81c66	0.0051303385
19	0x3c074468	0.008256055
20	0x3baad326	0.005213159
21	0x3b846e04	0.004041435
22	0x3a08a282	0.0005212204
23	0x39aee9d5	0.00033362085
24	0x3ba92860	0.005162284
25	0x3b6a187e	0.0035720165
26	0x3c8c102a	0.017097551
27	0x3af1217a	0.0018396818
28	0x3c1dda4c	0.009634566
29	0x3bbb9c1f	0.005725398
30	0x3c43a6d8	0.011941634
31	0x3c22c858	0.009935461
32	0x3c4addf5	0.01238202
33	0x37a5b5df	1.9754223e-05
34	0x3b4cdc78	0.003125934
35	0x3c405bd2	0.011740642
36	0x3c0288c6	0.00796718
37	0x3c3dd0c5	0.011585419
38	0x3c0cb412	0.008587854
39	0x3b13c1f9	0.0022546037
40	0x3c69e747	0.014276332
41	0x3c1a029b	0.009400035
42	0x3c2fe4c0	0.010735691
43	0x3bc77cd8	0.0060878806
44	0x3b5f67fc	0.003408908
45	0x3c35cde8	0.011096455
46	0x3c1e6aa7	0.009668983
47	0x3c2faad1	0.010721878
48	0x3c27588a	0.01021398
49	0x3b60b6a9	0.0034288561
50	0x3b0a7f30	0.0021132939
51	0x3c234bdb	0.009966816
52	0x3c15e9fa	0.009150023
53	0x3c8e0e20	0.01734072
54	0x3bed006f	0.0072327177
55	0x3c87e7d8	0.016590044
56	0x3bd41623	0.0064723655
57	0x3c7082a5	0.014679586
58	0x3c1b2cbb	0.009471114
59	0x3bc824f4	0.006107921
60	0x3c143633	0.009046125
61	0x3af73fde	0.0018863638
62	0xbb0df46a	-0.0021660575
63	0x3ba1db2e	0.0049394583
64	0x3afce67e	0.0019294766
65	0x3c308002	0.010772707
66	0x3bc2fadb	0.0059503145
67	0x3c3b8add	0.011446682
68	0x3bb32340	0.0054668486
69	0x39e0abec	0.000428527
70	0x3c4772e4	0.012173388
71	0x3ad0ef37	0.0015940432
72	0x3c9de6ae	0.019275036
73	0x3b735cfd	0.0037134283
74	0xbbbd50f7	-0.005777474
75	0x3c03109d	0.007999566
76	0xbc0b955f	-0.0085195
77	0x3c08b6fa	0.008344406
78	0x3c07fc98	0.008299969
79	0x3b956820	0.004559532
80	0x3be21827	0.006899852
81	0xbb12621d	-0.0022336312
82	0x3b13e637	0.0022567639
83	0x39d30632	0.00040249672
84	0x3bd5d32d	0.0065254183
85	0x3c9ad1da	0.018898893
86	0x3b95382f	0.0045538167
87	0x3c14cf52	0.009082632
88	0x3c16b093	0.009197372
89	0x3b7a63d3	0.0038206473
90	0x3be1d7b7	0.0068921703
91	0x3c0139bc	0.0078873
92	0x3c915917	0.017742677
93	0x3c54634a	0.0129631255
94	0x3c25afa8	0.0101126805
95	0xb9dfdda9	-0.00042699024
96	0x3c21830e	0.009857906
97	0x3bfeb083	0.0077725067
98	0x3c8fb848	0.017543927
99	0x3c1fa0fe	0.009742973
100	0x3b62d605	0.003461243
101	0x3c80fa00	0.01574421
102	0x3b2381e2	0.0024949242
103	0x3c141ddc	0.009040322
104	0x3b3e448a	0.0029032552
105	0x3c707478	0.014676206
106	0x3b883a16	0.004157315
107	0x3c5039d7	0.012709103
108	0x3bc3c6f8	0.0059746467
109	0x3c72b0a7	0.014812625
110	0x3c231ab2	0.009955095
111	0x3cc9147f	0.024545906
112	0x3c40d3fa	0.011769289
113	0x3ca56258	0.020188496
114	0x3c3d7b91	0.011565105
115	0xbb0ee78a	-0.0021805489
116	0x3c29b531	0.010358141
117	0x3caae90c	0.020863079
118	0xbc04f134	-0.008114148
119	0x3b398a45	0.0028311175
120	0x3bde1d5a	0.0067784013
121	0x3c54feec	0.013000231
122	0x3bbceadf	0.0057653035
123	0x3b95d194	0.004572103
124	0x3c1181bc	0.008881029
125	0xba0eb3c2	-0.0005443656
126	0x3bc9c38e	0.006157345
127	0xbb374d91	-0.0027969817
128	0x3b4b9b9b	0.003106809
129	0xbc517986	-0.012785321
130	0xb9711ffa	-0.00022995463
131	0xbb9bc6c7	-0.0047539207
132	0xbb3188bf	-0.0027089564
133	0xbb70d574	-0.0036748322
134	0xb9bd36ba	-0.00036089664
135	0x3acaa74f	0.0015461239
136	0x390f45da	0.00013663564
137	0xbbef82b9	-0.0073092845
138	0xbbe423d1	-0.0069622775
139	0xbb9f04fc	-0.004852889
140	0xba0cc633	-0.000537011
141	0xbc6962dc	-0.014244761
142	0x3b158e62	0.0022820462
143	0xbc4ab5f1	-0.01237248
144	0x3a2801ad	0.0006408941
145	0xbc4cadeb	-0.012492637
146	0xb972f7ea	-0.00023171274
147	0xbb51a975	-0.0031991873
148	0xbb24c7b3	-0.0025143444
149	0xbb0a3c63	-0.0021093122
150	0xb9fd05ac	-0.00048260146
151	0xbbb34112	-0.0054704035
152	0xbb13350a	-0.0022462034
153	0xbb22bf24	-0.0024833167
154	0xbc3c5c11	-0.01149656
155	0xba1a3787	-0.0005882908
156	0xbc018831	-0.007906006
157	0x3b5937a2	0.0033144732
158	0xbbc56ec3	-0.0060251667
159	0x3a89a786	0.0010502196
160	0xbc86252d	-0.016375149
161	0xba5842d2	-0.0008249703
162	0xbaeb8a70	-0.0017970335
163	0x3b90b001	0.0044155126
164	0xbb48101d	-0.0030527182
165	0x3bd5f457	0.0065293717
166	0xbc0ea8fd	-0.008707282
167	0xb9e2275f	-0.00043135413
168	0x3c29a819	0.010355019
169	0xbc579fea	-0.013160685
170	0xbacbc808	-0.0015547285
171	0x3b42f026	0.002974519
172	0x3b053702	0.0020326977
173	0x3be18ea3	0.0068834587
174	0x3c01e384	0.007927779
175	0x3b920a05	0.004456761
176	0xbb006654	-0.0019592242
177	0xbc36cb13	-0.011156815
178	0xbb850fcf	-0.0040607224
179	0xbc1f9199	-0.009739303
180	0xbaa9556d	-0.0012919136
181	0xbca0c92a	-0.019627172
182	0x3c00189f	0.00781837
183	0xba9d70cf	-0.0012011769
184	0xbb05d267	-0.00204196
185	0xbc5c30cf	-0.013439371
186	0x3a52289f	0.0008016917
187	0xb897678a	-7.219527e-05
188	0x3ba28bef	0.004960529
189	0x399d1d78	0.0002996733
190	0xbbd0e8cc	-0.006375408
191	0xbb786c18	-0.0037906226
192	0xbabf3e18	-0.0014590649
193	0xbb639f56	-0.0034732423
194	0x3b47bbdf	0.003047697
195	0x3be7b18c	0.007070726
196	0xbb778330	-0.0037767403
197	0xbb0ed558	-0.0021794643
198	0x3bcdcc80	0.006280482
199	0xbc949461	-0.018137159
200	0xbc4641a1	-0.012100608
201	0x3b4ba72d	0.0031074986
202	0xbb8cdbb2	-0.0042986507
203	0xbb616caf	-0.0034397056
204	0xbbe65179	-0.0070287553
205	0xbb9f78c7	-0.0048666927
206	0x39bc30a0	0.00035894383
207	0xba5c5a4a	-0.0008405788
208	0xbb1ef364	-0.002425396
209	0xbb42a310	-0.0029699244
210	0x3b1fead4	0.0024401443
211	0xbb2bd867	-0.0026221515
212	0x3a71749c	0.00092107966
213	0xbbf7b292	-0.007559129
214	0x39f73ca8	0.00047156704
215	0xbbcfca78	-0.006341275
216	0x3bf69715	0.0075253346
217	0xbb8b64b8	-0.00425395
218	0x3b19a68b	0.0023445215
219	0xbb358f13	-0.0027703687
220	0x3c2bf6bd	0.010495839
221	0x3c828286	0.015931379
222	0x3be98d0c	0.00712741
223	0xbbb5aa41	-0.0055439775
224	0x3b21a0e8	0.0024662558
225	0xbad1eee5	-0.0016016631
226	0xbc34ecd8	-0.011042796
227	0xbae0fb25	-0.0017164691
228	0x3c0947d1	0.008378939
229	0x3b85ceea	0.004083504
230	0x37849f49	1.58098e-05
231	0xbb124533	-0.0022319078
232	0xbb949d8f	-0.004535384
233	0x3c41e4b2	0.01183431
234	0xb98a6dbb	-0.00026403167
235	0xbc48b32b	-0.012249748
236	0xbb274ecb	-0.0025529142
237	0x3c310f67	0.010806895
238	0xba0589fd	-0.0005094109
239	0xbc8be505	-0.017076978
240	0xbbba3467	-0.0056825164
241	0xbc98d055	-0.018654028
242	0x3b9284c8	0.004471395
243	0xbc0d3e67	-0.008620835
244	0xbaeff587	-0.0018307426
245	0xbcbb5712	-0.022868667
246	0xba63dcbc	-0.0008692255
247	0x39d6c472	0.00040963624
248	0x3aeb99c1	0.0017974899
249	0x3c3ad9ec	0.011404496
250	0xbb9eff7f	-0.004852235
251	0xbc5a0be9	-0.013308504
252	0xb9cad702	-0.00038688636
253	0xba801c0f	-0.0009773987
254	0xbbf08c2a	-0.0073409276
255	0xbba10a4f	-0.004914559
