models/barrier/NoTC/policy_net_barrier_3inst (1).pth (torch, 878330 bytes, 13 tensors)

lstm.weight_ih_l0 f4 [512, 5]
0	0x3d79b54b	0.06096391
1	0x3d296c4a	0.041363038
2	0x3c867b99	0.016416358
3	0x3bba7e5c	0.0056913327
4	0x3dbd282c	0.09236178
5	0xbdf31cd2	-0.118707314
6	0x3dd81556	0.105509445
7	0xbd50742b	-0.050892036
8	0x3dc17a74	0.09447184
9	0xbd4a098a	-0.049325503
10	0xbd9757ac	-0.07389769
11	0xbd9b2021	-0.075744875
12	0xbc498358	-0.012299381
13	0xbd23c611	-0.039983813
14	0x3dd833d7	0.10556763
15	0xbc99cf2a	-0.018775541
16	0xbda52fdc	-0.08065769
17	0x3d8c6e6b	0.06856998
18	0xbd0ddf92	-0.03463704
19	0x3ceed5fe	0.029154774
20	0x3d84ee1a	0.06490727
21	0xbd4a117e	-0.049333088
22	0xbdb0c7f8	-0.08631891
23	0xbd823ede	-0.06359647
24	0xbd6d1aad	-0.057886768
25	0xbd05a18e	-0.032624774
26	0xbda99ff3	-0.08282461
27	0x3d98a8d9	0.0745408
28	0x3d441c44	0.04787852
29	0xbd1c8622	-0.038213857
30	0xbd6e6b22	-0.05820764
31	0x3db870d0	0.09005892
32	0xbc77e2e3	-0.015129778
33	0x3d3407d0	0.043952763
34	0x3d3bf374	0.045886472
35	0xbd0e32d5	-0.034716446
36	0xbd6c30ee	-0.05766385
37	0x3cfe79c1	0.031063916
38	0x3dc0f0c9	0.09420926
39	0xbd904278	-0.07043928
40	0x3dc9ddfc	0.09856793
41	0x3cf62886	0.03004862
42	0x3d3584c1	0.044316057
43	0x3cee55f4	0.02909372
44	0xbddb1e4d	-0.10699139
45	0xbd33756b	-0.04381315
46	0x3ddbeff4	0.10739127
47	0x3cbaa987	0.022785915
48	0xbd89f6f3	-0.06736555
49	0xbd92b9c4	-0.07164338
50	0x3df97727	0.1218093
51	0xbd3a544b	-0.045490544
52	0x3dc64e3f	0.09682893
53	0x3cd77295	0.026299754
54	0x3d6ab340	0.057299852
55	0xbd9a085c	-0.07521126
56	0xbd4f485d	-0.05060612
57	0xbdd8dbbe	-0.105887875
58	0x3d0f4425	0.034977097
59	0xbd648e28	-0.055799633
60	0x3cecca69	0.02890511
61	0xbd61595f	-0.05501687
62	0x3dd5d2a3	0.104405664
63	0xbce5531d	-0.027993733
64	0x3d884ac8	0.066548884
65	0x3d965bc2	0.0734172
66	0x3d7693df	0.060199615
67	0x3cad6cd8	0.021170065
68	0x3d93c258	0.072148025
69	0xb990957d	-0.00027577198
70	0x3d9ad75b	0.07560607
71	0xbd44a59a	-0.048009492
72	0x3d9b43f4	0.075813204
73	0xbda0b9f9	-0.078479715
74	0xbcb48b54	-0.022039093
75	0x3d184887	0.037178542
76	0xbcd4ad8e	-0.025961664
77	0xbce39236	-0.02777968
78	0xbc1d3e87	-0.009597427
79	0xbcc08f96	-0.023505967
80	0x3dd01aae	0.10161339
81	0x3d190c02	0.037364967
82	0x3dcd7ed0	0.10033953
83	0x3d93d429	0.07218201
84	0xbc2940ff	-0.010330438
85	0xbdc14a90	-0.0943805
86	0x3cfa0c1e	0.030523356
87	0xbd970d8d	-0.073756315
88	0x3d424568	0.047429472
89	0x3d631a92	0.05544526
90	0x3ac46171	0.0014982653
91	0x3cd927fb	0.026508322
92	0xbc5b4d98	-0.013385199
93	0x3db71939	0.08940358
94	0x3d0ddb38	0.03463289
95	0xbd79580e	-0.06087499
96	0xbda84bd9	-0.08217592
97	0x3dccc32a	0.09998162
98	0xbd85c100	-0.065309525
99	0xbcdaa01f	-0.02668768
100	0xbcf49d68	-0.029860213
101	0xbd94026a	-0.07227023
102	0x3ca28026	0.019836497
103	0x3b0e7735	0.0021738533
104	0xbdc5ccef	-0.096582286
105	0x3c76ab77	0.015055529
106	0xbd955f66	-0.072935864
107	0xbc9cafdc	-0.019126825
108	0xbd656b46	-0.056010507
109	0x3b804776	0.003914769
110	0xbd39816e	-0.04528945
111	0x3dc8a9a6	0.09797983
112	0xbdac5245	-0.08414129
113	0xbd1a8481	-0.03772402
114	0x3d2fd1e7	0.042924788
115	0x3ddcb936	0.10777514
116	0x3dbd6a55	0.09248797
117	0xbda2250f	-0.079172246
118	0xbd289873	-0.041161012
119	0x3dc8ea0b	0.09810265
120	0xbd855e9d	-0.06512187
121	0xbdad828e	-0.08472167
122	0xbd909e01	-0.07061387
123	0xbd8c3cd7	-0.06847542
124	0x3dc1fe5d	0.09472344
125	0x3d394b7d	0.045238007
126	0x3d9d3724	0.07676533
127	0xbd46c938	-0.04853174
128	0x3d75e0ab	0.060028713
129	0xbdabe666	-0.083935544
130	0x3d041b45	0.03225257
131	0x3dc7b056	0.0975043
132	0x3dd01819	0.10160846
133	0xbdd37018	-0.103241146
134	0xbdd70d6f	-0.10500609
135	0xbd7c6279	-0.06161735
136	0x3acf82bb	0.0015831807
137	0x3cacab74	0.021077849
138	0x3c7f466c	0.015580755
139	0xbdc7e848	-0.09761101
140	0xbc761c5f	-0.015021413
141	0x3ceb341a	0.028711367
142	0xbd88fad9	-0.066884704
143	0x3d02dfec	0.03195183
144	0xbd3646dd	-0.044501174
145	0x3ddf1d1d	0.10894225
146	0x3d6e4459	0.05817065
147	0xbc5c5c1a	-0.013449693
148	0x3d6d14c6	0.05788114
149	0x3dd4dc2a	0.103935555
150	0xbd5ef506	-0.05443289
151	0xbdc39ff2	-0.095519915
152	0xbd8ea0f5	-0.06964294
153	0xbdb145a9	-0.08655865
154	0xbd9ff9e6	-0.07811336
155	0xbd2bc880	-0.04193926
156	0x3c159ef0	0.009132132
157	0x3d12ef5f	0.035872813
158	0x3b68d202	0.0035525565
159	0xbc0ccf9b	-0.008594419
160	0xbd946601	-0.07246018
161	0x3dcf4f08	0.10122496
162	0xbd9ee69b	-0.07758828
163	0xbd8beb8c	-0.068320364
164	0xbd7121d0	-0.058870137
165	0x3c3d9639	0.01157146
166	0xbd78f6e1	-0.060782317
167	0x3d3ee7be	0.046607725
168	0xbd87c4fd	-0.066293694
169	0xbd39ba3d	-0.045343626
170	0x3c8da902	0.017292503
171	0x3dd59bbd	0.10430095
172	0xbd6a4b97	-0.057200994
173	0x3d8504fc	0.06495091
174	0xbdd085a5	-0.10181741
175	0x3d4a8e58	0.049452156
176	0x3cd26c6d	0.025686467
177	0x3da483e1	0.080329664
178	0xbb64ef3e	-0.0034932639
179	0x3d9b28ca	0.07576139
180	0xbd08eb80	-0.033427715
181	0x3d3a72c1	0.045519594
182	0xbc280fe5	-0.010257696
183	0x3c84d1ae	0.016213264
184	0xbd864fe5	-0.065582074
185	0x3df8d86f	0.121506564
186	0xbd3b1860	-0.045677543
187	0x3cd91309	0.026498334
188	0xbd6e419d	-0.058168042
189	0x3db7895a	0.089617446
190	0x3c8d98dd	0.017284805
191	0x3cf6ba53	0.030118143
192	0x3d117596	0.03551253
193	0xbda58299	-0.0808155
194	0xbcb38e52	-0.02191845
195	0x3d805026	0.06265287
196	0x3da2a6db	0.079419814
197	0x3cd90375	0.026490906
198	0xbd503826	-0.050834797
199	0xbce3a507	-0.027788652
200	0x3d728168	0.059205443
201	0xbc932cba	-0.017965663
202	0x3c55d684	0.013051633
203	0x3d858573	0.06519594
204	0xbb98ea13	-0.0046665757
205	0xba285c33	-0.000642243
206	0xbcf788bb	-0.030216565
207	0xbd8aeac7	-0.067830615
208	0x3dce3990	0.10069573
209	0x3dc59dd9	0.09649248
210	0x3cdf9862	0.027294341
211	0xbda9efa3	-0.0829766
212	0x3dc32953	0.09529366
213	0xbdbabd7b	-0.09118172
214	0x3d2f9b21	0.04287255
215	0x3dabfabd	0.08397434
216	0xbce84803	-0.02835465
217	0xbd340682	-0.04395152
218	0xbd941061	-0.072296865
219	0x3cce6b40	0.025197625
220	0xbc874f45	-0.01651729
221	0xbd497e0a	-0.049192466
222	0xbd92f2c6	-0.071752116
223	0x3d8a6e16	0.067592785
224	0x3c777aef	0.015104993
225	0x3cbdcff5	0.02317045
226	0x3d41d768	0.047324568
227	0x3da6c94c	0.08143863
228	0xbd0025b9	-0.031285975
229	0x3d1f8dfb	0.038953763
230	0xbdcc5874	-0.099778086
231	0x3d06d116	0.032914244
232	0xbd29ccba	-0.041455008
233	0x3c0b57bc	0.008504804
234	0x3d3e6086	0.04647877
235	0xbd8e58f5	-0.06950561
236	0x3dc28a26	0.09499006
237	0xbd3c2613	-0.045934748
238	0x3d80c1a1	0.06286932
239	0x3cb2be58	0.021819279
240	0xbd9f3a96	-0.07774846
241	0x3d84a706	0.0647717
242	0x3dce7b61	0.100821264
243	0x3d2bd32e	0.041949444
244	0xbd99a85c	-0.07502815
245	0xbd9f550c	-0.07779893
246	0xbdd66c45	-0.104698695
247	0xbce8752a	-0.02837618
248	0x3ca09d72	0.019606326
249	0x3d85d2e8	0.06534368
250	0xbdce68ce	-0.10078584
251	0xbd10ad04	-0.03532125
252	0x3d244098	0.040100664
253	0xbcd694c4	-0.026193984
254	0x3d7a6073	0.061127137
255	0xbd6eea5c	-0.05832897

lstm.weight_hh_l0 f4 [512, 128]
0	0xbd9a501e	-0.075348124
1	0xbc365658	-0.011128984
2	0x3cca291d	0.024677807
3	0xbc2d9f87	-0.010597116
4	0x3d3e2774	0.046424344
5	0xbd8997b6	-0.0671839
6	0xbd5ff118	-0.054673284
7	0xbcb8c5b1	-0.022555204
8	0xbd19d8d9	-0.037560318
9	0xbd8032d8	-0.06259698
10	0x3d89082d	0.066910125
11	0x3dc91c0e	0.09819804
12	0x3c814ddd	0.015784198
13	0x3a220674	0.0006180771
14	0x3db1fd66	0.0869091
15	0x3dad240d	0.08454142
16	0xbd9414b5	-0.07230512
17	0x3ca8a579	0.020586716
18	0x3d1d7ebe	0.03845095
19	0x3d5af047	0.053451803
20	0xbd396bc3	-0.045268785
21	0x3b4d9560	0.0031369552
22	0x3cd17162	0.02556676
23	0xbcc3adea	-0.02388664
24	0x3dc2dcbd	0.09514759
25	0x3dbc5207	0.09195333
26	0x3d9091fc	0.07059094
27	0xbcdc8606	-0.026919376
28	0x3d295fcc	0.041351125
29	0xbbe7c1fd	-0.0070726858
30	0xbd72ca97	-0.059275236
31	0xbda89b9f	-0.08232807
32	0x3c75a0fa	0.014991993
33	0x3d82c4ad	0.06385169
34	0x3c8402b2	0.016114566
35	0x3b4ea391	0.0031530599
36	0xbd13820a	-0.036012687
37	0x3d6b83fa	0.05749891
38	0xbd8d94cf	-0.069131486
39	0x3dcdff86	0.10058503
40	0x3d8978a7	0.06712466
41	0x3d17c1f9	0.03705022
42	0xb9c783f7	-0.0003805456
43	0xbd45d0ea	-0.04829494
44	0xbd31790f	-0.04332834
45	0xbd806783	-0.06269743
46	0x3da1904b	0.0788885
47	0x3d78b302	0.06071759
48	0x3b2d97c1	0.0026488157
49	0x3cf3d57e	0.029764887
50	0x3d8c37db	0.06846591
51	0xbcf929c0	-0.030415416
52	0x3bd27db7	0.006423678
53	0xbd955026	-0.07290678
54	0x3d222426	0.039585255
55	0x3d61443e	0.05499672
56	0xbd057b7d	-0.03258847
57	0x3ceb068f	0.02868965
58	0x3d8a8d69	0.06765253
59	0x3d941be1	0.0723188
60	0x3cb4569e	0.022013959
61	0xbd82c32d	-0.06384883
62	0x3ad34931	0.0016119835
63	0x3d26fd43	0.040768873
64	0x3d1069b2	0.03525705
65	0x3bcbfd63	0.0062252744
66	0xbdc8cedb	-0.098050795
67	0xbd6c7a94	-0.057734087
68	0x3dca84fd	0.09888647
69	0x3d207038	0.03916952
70	0xbc9de5fb	-0.019274702
71	0xbcceb6b5	-0.025233606
72	0xbc18520d	-0.009296906
73	0xbd15d4ce	-0.0365799
74	0xbd68d4eb	-0.05684368
75	0x3d2c0e98	0.042006105
76	0xbd3fff20	-0.046874166
77	0xbda50059	-0.08056707
78	0xbcab9a4f	-0.020947604
79	0x3ce32162	0.02772588
80	0xbd8fbf96	-0.07018964
81	0xbd9e7265	-0.07736663
82	0xbd480852	-0.04883606
83	0x3d8fc97a	0.070208505
84	0xbd857a13	-0.065174244
85	0x3d90b81c	0.07066366
86	0xbda58721	-0.080824144
87	0x3dab4ad2	0.0836388
88	0x3d10d88a	0.035362758
89	0xbdb5f3ea	-0.088844135
90	0x3b67834c	0.0035326062
91	0x3d9e77ab	0.077376686
92	0x3c662d22	0.014048846
93	0x3d21f68c	0.039541766
94	0x3db31761	0.087446935
95	0xbd42eff6	-0.047592126
96	0xbc9c6e0e	-0.019095447
97	0xbc162697	-0.009164474
98	0xbb14afd6	-0.0022687814
99	0x3da076c8	0.07835156
100	0x3daed563	0.08536794
101	0xbce9445c	-0.02847498
102	0x3dc6a739	0.09699864
103	0x3d04c42a	0.03241364
104	0xbda98a13	-0.08278289
105	0xbc31964e	-0.010839058
106	0xbd6f6333	-0.058444213
107	0xbd8186de	-0.06324552
108	0x3db8a706	0.09016232
109	0xbdba838b	-0.09107121
110	0xbd16e2af	-0.036837276
111	0x3d959478	0.07303709
112	0x3d282df2	0.041059442
113	0x3db696b5	0.08915464
114	0x3d50f6a3	0.05101646
115	0xbda7da1e	-0.081958994
116	0x3c03e72e	0.008050723
117	0xbd925b62	-0.07146336
118	0xbd9a80eb	-0.075441204
119	0xbd0e1499	-0.034687612
120	0x3d6a1538	0.057149142
121	0xbd3fe58b	-0.04684977
122	0x3b911286	0.004427257
123	0xbd945e92	-0.072446
124	0xbd9eb3e3	-0.077491544
125	0x3b40ca8f	0.002941761
126	0xbc9f15ad	-0.019419516
127	0x3c93b803	0.01803208
128	0x3d5344d0	0.051579297
129	0xbd7e488a	-0.062080897
130	0x3c2becd1	0.010493473
131	0xbd119437	-0.03554174
132	0x3d867bc4	0.06566575
133	0x3d75866c	0.059942648
134	0x3d8c4405	0.06848911
135	0xbbc8b52f	-0.0061251144
136	0x3d0a6325	0.033785958
137	0xbd791afc	-0.06081675
138	0x3b846092	0.0040398324
139	0x3b595b58	0.0033166017
140	0x3d0a361f	0.03374302
141	0xbcbe6164	-0.023239799
142	0xbdc1d49a	-0.09464379
143	0x3da9eb7a	0.08296867
144	0xbd773296	-0.060350977
145	0xbd5c37d6	-0.053764187
146	0xbcaac650	-0.020846516
147	0xbdbc4323	-0.09192493
148	0x3d7c2bf3	0.06156535
149	0x3dc1b314	0.094579846
150	0xbcae2812	-0.021259341
151	0x3dc4bf6f	0.096068256
152	0x3c285fa6	0.010276711
153	0xbcc1de60	-0.023665607
154	0xbb65be90	-0.003505621
155	0x3dbbad56	0.091639206
156	0x3a5b298a	0.0008360377
157	0xbb6c33ac	-0.003604154
158	0x3d569501	0.052388195
159	0x3d969437	0.073524885
160	0xbd648a86	-0.05579617
161	0xbcdb358c	-0.026758932
162	0xbd000036	-0.0312502
163	0x3dbaf20c	0.09128198
164	0x3d529c50	0.051418602
165	0x3da30c84	0.079613715
166	0x3d935e94	0.07195774
167	0x3dac762a	0.084209755
168	0x3cd51936	0.026012998
169	0xbd955610	-0.07291806
170	0xbdabb905	-0.08384899
171	0x3cdb8095	0.026794711
172	0xbda3c91b	-0.07997342
173	0x3db10d87	0.08645158
174	0x3da885d7	0.08228653
175	0x3d678e8c	0.056532428
176	0x3c476152	0.012169199
177	0x3cc148e0	0.02359432
178	0xba578129	-0.00082208455
179	0x3bb36e16	0.0054757698
180	0x3d99505f	0.07486033
181	0xbd7d164d	-0.061788846
182	0xbd254db6	-0.040357314
183	0x3ca9f8fc	0.020748608
184	0x3d29c3cf	0.041446503
185	0x3db1001e	0.086426005
186	0x3d95e313	0.073187016
187	0x3c855df5	0.016280154
188	0x3d41a3aa	0.047275223
189	0x3d7f432a	0.062319912
190	0x3d90d29c	0.070714206
191	0xbc2d8f03	-0.010593179
192	0xbc1e85be	-0.009675441
193	0xbd5c8b57	-0.053843822
194	0x3d927f7d	0.07153223
195	0xbb7fbe8d	-0.003902349
196	0x3ca312f9	0.019906508
197	0xbd07d70e	-0.033164077
198	0xbd46234a	-0.048373498
199	0xba901f63	-0.0010995682
200	0xbd0a1f54	-0.033721283
201	0xbd880724	-0.06641987
202	0xbd3b5cac	-0.045742676
203	0x3d1d8c72	0.038464017
204	0xbd426cfe	-0.047467224
205	0x3d421a83	0.047388565
206	0x3d7a02a4	0.061037675
207	0xbd580d2a	-0.05274693
208	0x3cceaab1	0.025227876
209	0xbcdac3f7	-0.026704771
210	0xbdac97a6	-0.08427362
211	0x3dc332f5	0.09531204
212	0xbd4e52fd	-0.050372113
213	0xbd2f5bf0	-0.042812288
214	0xbd3b5ac5	-0.04574086
215	0x3cf27763	0.029597944
216	0xbd8ea681	-0.06965352
217	0xbcac8f7d	-0.021064514
218	0x3d49433c	0.049136385
219	0x3d67281b	0.056434732
220	0x3ca0e1ef	0.019638984
221	0x3d7c87e1	0.06165302
222	0x3d1bd9c1	0.038049463
223	0xbcf199ca	-0.029492278
224	0x3d40cb00	0.047068596
225	0xbd6a72f9	-0.057238553
226	0x3d61a6e5	0.055090804
227	0xbcc01e2d	-0.023451889
228	0x3dba4133	0.09094467
229	0xbc4bc34a	-0.012436697
230	0x3c82824d	0.015931273
231	0x3d47a312	0.0487395
232	0xbdb304b3	-0.08741131
233	0xbd542276	-0.051790677
234	0xbd7a326f	-0.061083253
235	0x3dc0be2d	0.09411273
236	0xbdb12068	-0.08648759
237	0x3cfa0d41	0.030523898
238	0x3d67b9d2	0.056573696
239	0xbad8f0ed	-0.0016551294
240	0x3d8d9bd8	0.069144905
241	0x3d98dd33	0.074640654
242	0x3ce5848b	0.028017303
243	0xbdab1673	-0.08353891
244	0xbdb77d5e	-0.08959459
245	0x3c63d952	0.013906794
246	0x3caac8a1	0.02084762
247	0x3bc3b6df	0.0059727277
248	0x3d274d45	0.040845174
249	0x3d700821	0.058601502
250	0xba905345	-0.0011011144
251	0x3da7c0d4	0.08191076
252	0xbd1564ac	-0.03647296
253	0x3cdee9b3	0.027211046
254	0x3ce11405	0.027475366
255	0xbdaef60e	-0.08543025

lstm.bias_ih_l0 f4 [512]
0	0x3b851a7c	0.004061995
1	0x3994d2e6	0.0002838589
2	0x3aceb807	0.0015771397
3	0xbae2a4e8	-0.0017291578
4	0xbb1a2af1	-0.002352413
5	0x3bbae8ae	0.005704007
6	0x3c247281	0.0100370655
7	0xba3ceaf3	-0.0007206641
8	0x3a89dd1c	0.0010518166
9	0x3a954942	0.001138963
10	0x3ba0343a	0.0048890384
11	0xbaeba333	-0.0017977714
12	0x3ba95b04	0.0051683206
13	0x3b006f77	0.0019597688
14	0x3a65e186	0.00087692623
15	0x396af75b	0.00022408126
16	0xb8c3fc1d	-9.345284e-05
17	0x3a10fbc0	0.0005530678
18	0x3b490337	0.0030672082
19	0x3bc421b9	0.0059854654
20	0xba5e5ab6	-0.0008482145
21	0x3c4ba7ee	0.012430174
22	0xbb04ed68	-0.0020283107
23	0x3b9c5478	0.0047708116
24	0x3abfa8b1	0.0014622418
25	0x3a9cf7b5	0.0011975678
26	0xb9c14a3e	-0.00036867143
27	0xba885a88	-0.0010402957
28	0x3a8d83e3	0.0010796752
29	0x3c2a69db	0.0104012145
30	0x3c083af4	0.008314837
31	0x3b8ce4eb	0.00429975
32	0x3b00588e	0.0019584033
33	0x3b6ddb98	0.0036294218
34	0xbadf6dd6	-0.0017046283
35	0x3bacf27a	0.005277929
36	0x3b709e79	0.003671555
37	0x3b9c1466	0.004763174
38	0x3b146ece	0.0022649053
39	0x39efb00e	0.00045716803
40	0x3bf36ac5	0.0074284994
41	0x3bc406de	0.005982264
42	0x3b018d1e	0.001976795
43	0x3b71e758	0.0036911573
44	0x3b89b801	0.004202843
45	0x3aa97d18	0.0012930958
46	0x3b8ca783	0.00429243
47	0x3c27316e	0.010204656
48	0x3b1a893c	0.0023580333
49	0x3adb8256	0.0016747217
50	0x3ba33061	0.0049801324
51	0xb964911f	-0.00021797836
52	0x3bcb8120	0.0062104613
53	0x3b629055	0.0034570892
54	0x3b318596	0.002708768
55	0x3c8e5c84	0.0173781
56	0x3af3d16f	0.0018601845
57	0x3b05baa4	0.0020405436
58	0x3a4f137f	0.00078993285
59	0x3c05143c	0.0081225
60	0x3b81d397	0.003961991
61	0x3a9c39f5	0.0011919128
62	0x3b8a9c44	0.004230054
63	0x3b219624	0.0024656141
64	0x3b5c5534	0.003362012
65	0x3b303d95	0.0026892175
66	0x3c2ec249	0.010666438
67	0x3b3b5ce8	0.0028589312
68	0x3b7a45b8	0.0038188528
69	0xbb61bce3	-0.003444486
70	0x3b3fa84f	0.0029244607
71	0x3ba54b00	0.005044341
72	0x3bb7f356	0.0056137247
73	0x3ac2d7cc	0.0014865338
74	0xbad3d0f9	-0.0016160301
75	0xba22ac53	-0.0006205488
76	0x3b922d16	0.004460941
77	0x3ac5b1b7	0.001508287
78	0x3b9876d9	0.0046528396
79	0x3b06d6a9	0.0020574725
80	0x3b5d4708	0.0033764262
81	0xbac2c3de	-0.0014859398
82	0x3b474973	0.003040877
83	0xba9dfe64	-0.0012053964
84	0xb9cc7548	-0.00038997293
85	0x39bac4fd	0.00035623452
86	0x3bc284d4	0.0059362445
87	0x3b711966	0.003678882
88	0x3bc721ad	0.0060770125
89	0xb89d35e5	-7.496382e-05
90	0x3ab4c0ca	0.0013790366
91	0xbb5a9ac2	-0.0033356403
92	0x3b84c3bc	0.0040516537
93	0x3b82604f	0.003978766
94	0xba149402	-0.0005667807
95	0x3b281952	0.0025649858
96	0x39c84278	0.00038196496
97	0x3c01e583	0.007928255
98	0x3c010061	0.0078736255
99	0xba8ba82d	-0.0010654979
100	0x3b6197e7	0.0034422816
101	0x3b224a41	0.0024763497
102	0x3b3fab21	0.0029246288
103	0x3b2ad5ef	0.0026067456
104	0x3a94973c	0.0011336575
105	0x3be03d95	0.0068432787
106	0x3a96b38c	0.0011497601
107	0x3b1c40d7	0.0023842358
108	0xba215fe7	-0.0006155953
109	0x3c164808	0.009172447
110	0xbab8a66f	-0.0014087687
111	0x3be2c907	0.006920937
112	0xb898d9b0	-7.288472e-05
113	0x3b9b6243	0.0047419383
114	0x3ae80b26	0.0017703518
115	0x3b0288e9	0.001991803
116	0xba2f0cb8	-0.00066776155
117	0xb7532a28	-1.2586395e-05
118	0x3bc06601	0.005871535
119	0xb9ee74f0	-0.00045482023
120	0xbab5dd87	-0.0013875224
121	0x3b838d42	0.004014642
122	0x3b37d79e	0.0028052102
123	0x3b12473a	0.0022320286
124	0x3a0cc45f	0.0005369838
125	0xbaace717	-0.0013191429
126	0x3b3e3864	0.002902531
127	0xbaba0666	-0.0014192581
128	0x3b6e3ede	0.003635339
129	0x3af611bb	0.0018773595
130	0x3a438d05	0.0007459673
131	0xba868c89	-0.0010265271
132	0xbafb47f1	-0.001917122
133	0x3baaf73f	0.0052174623
134	0x3c1e48a0	0.00966087
135	0xbad4bba7	-0.0016230241
136	0x3b2a7a33	0.0026012778
137	0x3a7edb9b	0.0009722055
138	0x3bddcd41	0.006768853
139	0xba05c5b7	-0.0005103009
140	0x39820dd7	0.00024805844
141	0x3b0d14b5	0.0021527235
142	0x395dd5c7	0.0002115584
143	0xb99482be	-0.0002832617
144	0xb9c5d5f4	-0.00037734176
145	0x392c5dd6	0.00016438155
146	0x3a76642e	0.0009399083
147	0x3bc6ee32	0.0060708756
148	0x3a97d8ba	0.0011584975
149	0x3c5394f6	0.012913933
150	0x3aacb000	0.0013175011
151	0x3b4a9602	0.0030912166
152	0x39cf2b8e	0.00039514567
153	0x3a1f08ed	0.00060666987
154	0x3a4bcc7f	0.0007774308
155	0xbb242bce	-0.0025050524
156	0xb79f5d3d	-1.8997694e-05
157	0x3c0c3cff	0.0085594645
158	0x3be9c020	0.007133499
159	0x3b57815d	0.0032883503
160	0x3b3d107e	0.0028848941
161	0x3b8cd9e8	0.0042984374
162	0xb962cef8	-0.00021630141
163	0x3b92605d	0.004467054
164	0x3b80e07f	0.003933012
165	0x3b3853b1	0.0028126056
166	0x3afbd040	0.0019211844
167	0xba46ad74	-0.0007578947
168	0x3bdf30f1	0.006811254
169	0x3bb46846	0.0055055944
170	0x3b574587	0.0032847838
171	0x3b80a52b	0.0039259396
172	0x3b906769	0.0044068587
173	0xba53cbb7	-0.0008079367
174	0x3b97d3c6	0.0046333997
175	0x3c03e3e5	0.00804994
176	0x3b1a99e4	0.002359026
177	0x3b43e938	0.0029893648
178	0x3ba6b5ce	0.005087591
179	0x39a25479	0.00030961985
180	0x3be28765	0.006913113
181	0x3b0867af	0.0020813753
182	0x3a65678d	0.0008751087
183	0x3c9ebe9c	0.019377999
184	0x3b794e75	0.0038041149
185	0x3ad3b438	0.0016151732
186	0x3a7d29fa	0.0009657439
187	0x3c0038bf	0.007826029
188	0x3b64b2a9	0.0034896529
189	0x3a7b1d36	0.0009579243
190	0x3b4396fd	0.0029844635
191	0xba7a349d	-0.0009544583
192	0x3b1b1e9e	0.0023669372
193	0x3b628c6c	0.0034568561
194	0x3c18fbc7	0.009337372
195	0x3ae36222	0.0017347971
196	0x3b73a219	0.0037175475
197	0xbba6ffa5	-0.005096393
198	0x3b25b7b8	0.0025286507
199	0x3b596202	0.003316999
200	0x3b98d0aa	0.0046635466
201	0xba58e4be	-0.00082738313
202	0xb9d77f11	-0.00041102667
203	0x3a45bf23	0.0007543435
204	0x3b9bcf25	0.004754918
205	0x3b2174d5	0.0024636288
206	0x3bc3804d	0.0059662224
207	0x3a33e187	0.00068619143
208	0x3b24c85b	0.0025143835
209	0xba10042c	-0.0005493786
210	0x3b3ef82a	0.0029139617
211	0xb9e099a3	-0.00042839078
212	0xbaa3b31d	-0.0012489293
213	0xbb037780	-0.0020060241
214	0x3bf3a0aa	0.007434924
215	0x3b4d2ec9	0.0031308404
216	0x3aca5ea5	0.0015439583
217	0x3a58128c	0.000824251
218	0x39a87fed	0.0003213877
219	0xbb78bfe2	-0.0037956168
220	0x3b8b3a95	0.004248927
221	0x3b863072	0.0040951306
222	0x3a9b6523	0.0011855703
223	0x3ad8a1b2	0.0016527681
224	0xb9ed3715	-0.00045245202
225	0x3c1255f3	0.008931625
226	0x3bce59b0	0.0062973127
227	0xbacbba69	-0.0015543225
228	0x3b698673	0.0035633116
229	0x3b64f83a	0.0034937994
230	0x3b22fa16	0.00248683
231	0x3affd0fd	0.0019517239
232	0x39c4a12d	0.00037504119
233	0x3bde56ec	0.0067852642
234	0x3b046a8f	0.0020205115
235	0x3a7b38f9	0.000958338
236	0xb8fdc30e	-0.00012100312
237	0x3c29ce4c	0.010364126
238	0xbb1585de	-0.0022815387
239	0x3c01350e	0.007886184
240	0x3b358c1e	0.0027701925
241	0x3bda1658	0.0066554956
242	0x3b5f4a03	0.0034071214
243	0x3aa31c78	0.0012444397
244	0xbb05aa91	-0.0020395855
245	0x3a01443a	0.0004931126
246	0x3ba7256f	0.005100898
247	0xbad353a8	-0.0016122954
248	0xb6455d44	-2.9409575e-06
249	0x3b56ae98	0.0032757875
250	0x3ac30fef	0.0014882068
251	0x3b857e21	0.0040738736
252	0x39a0a2e9	0.00030638956
253	0xbb2212fa	-0.002473055
254	0x3adcd42a	0.0016847898
255	0xbb18ae2a	-0.002329717

lstm.bias_hh_l0 f4 [512]
0	0x3b851a7c	0.004061995
1	0x3994d2e6	0.0002838589
2	0x3aceb807	0.0015771397
3	0xbae2a4e8	-0.0017291578
4	0xbb1a2af1	-0.002352413
5	0x3bbae8ae	0.005704007
6	0x3c247281	0.0100370655
7	0xba3ceaf3	-0.0007206641
8	0x3a89dd1c	0.0010518166
9	0x3a954942	0.001138963
10	0x3ba0343a	0.0048890384
11	0xbaeba333	-0.0017977714
12	0x3ba95b04	0.0051683206
13	0x3b006f77	0.0019597688
14	0x3a65e186	0.00087692623
15	0x396af75b	0.00022408126
16	0xb8c3fc1d	-9.345284e-05
17	0x3a10fbc0	0.0005530678
18	0x3b490337	0.0030672082
19	0x3bc421b9	0.0059854654
20	0xba5e5ab6	-0.0008482145
21	0x3c4ba7ee	0.012430174
22	0xbb04ed68	-0.0020283107
23	0x3b9c5478	0.0047708116
24	0x3abfa8b1	0.0014622418
25	0x3a9cf7b5	0.0011975678
26	0xb9c14a3e	-0.00036867143
27	0xba885a88	-0.0010402957
28	0x3a8d83e3	0.0010796752
29	0x3c2a69db	0.0104012145
30	0x3c083af4	0.008314837
31	0x3b8ce4eb	0.00429975
32	0x3b00588e	0.0019584033
33	0x3b6ddb98	0.0036294218
34	0xbadf6dd6	-0.0017046283
35	0x3bacf27a	0.005277929
36	0x3b709e79	0.003671555
37	0x3b9c1466	0.004763174
38	0x3b146ece	0.0022649053
39	0x39efb00e	0.00045716803
40	0x3bf36ac5	0.0074284994
41	0x3bc406de	0.005982264
42	0x3b018d1e	0.001976795
43	0x3b71e758	0.0036911573
44	0x3b89b801	0.004202843
45	0x3aa97d18	0.0012930958
46	0x3b8ca783	0.00429243
47	0x3c27316e	0.010204656
48	0x3b1a893c	0.0023580333
49	0x3adb8256	0.0016747217
50	0x3ba33061	0.0049801324
51	0xb964911f	-0.00021797836
52	0x3bcb8120	0.0062104613
53	0x3b629055	0.0034570892
54	0x3b318596	0.002708768
55	0x3c8e5c84	0.0173781
56	0x3af3d16f	0.0018601845
57	0x3b05baa4	0.0020405436
58	0x3a4f137f	0.00078993285
59	0x3c05143c	0.0081225
60	0x3b81d397	0.003961991
61	0x3a9c39f5	0.0011919128
62	0x3b8a9c44	0.004230054
63	0x3b219624	0.0024656141
64	0x3b5c5534	0.003362012
65	0x3b303d95	0.0026892175
66	0x3c2ec249	0.010666438
67	0x3b3b5ce8	0.0028589312
68	0x3b7a45b8	0.0038188528
69	0xbb61bce3	-0.003444486
70	0x3b3fa84f	0.0029244607
71	0x3ba54b00	0.005044341
72	0x3bb7f356	0.0056137247
73	0x3ac2d7cc	0.0014865338
74	0xbad3d0f9	-0.0016160301
75	0xba22ac53	-0.0006205488
76	0x3b922d16	0.004460941
77	0x3ac5b1b7	0.001508287
78	0x3b9876d9	0.0046528396
79	0x3b06d6a9	0.0020574725
80	0x3b5d4708	0.0033764262
81	0xbac2c3de	-0.0014859398
82	0x3b474973	0.003040877
83	0xba9dfe64	-0.0012053964
84	0xb9cc7548	-0.00038997293
85	0x39bac4fd	0.00035623452
86	0x3bc284d4	0.0059362445
87	0x3b711966	0.003678882
88	0x3bc721ad	0.0060770125
89	0xb89d35e5	-7.496382e-05
90	0x3ab4c0ca	0.0013790366
91	0xbb5a9ac2	-0.0033356403
92	0x3b84c3bc	0.0040516537
93	0x3b82604f	0.003978766
94	0xba149402	-0.0005667807
95	0x3b281952	0.0025649858
96	0x39c84278	0.00038196496
97	0x3c01e583	0.007928255
98	0x3c010061	0.0078736255
99	0xba8ba82d	-0.0010654979
100	0x3b6197e7	0.0034422816
101	0x3b224a41	0.0024763497
102	0x3b3fab21	0.0029246288
103	0x3b2ad5ef	0.0026067456
104	0x3a94973c	0.0011336575
105	0x3be03d95	0.0068432787
106	0x3a96b38c	0.0011497601
107	0x3b1c40d7	0.0023842358
108	0xba215fe7	-0.0006155953
109	0x3c164808	0.009172447
110	0xbab8a66f	-0.0014087687
111	0x3be2c907	0.006920937
112	0xb898d9b0	-7.288472e-05
113	0x3b9b6243	0.0047419383
114	0x3ae80b26	0.0017703518
115	0x3b0288e9	0.001991803
116	0xba2f0cb8	-0.00066776155
117	0xb7532a28	-1.2586395e-05
118	0x3bc06601	0.005871535
119	0xb9ee74f0	-0.00045482023
120	0xbab5dd87	-0.0013875224
121	0x3b838d42	0.004014642
122	0x3b37d79e	0.0028052102
123	0x3b12473a	0.0022320286
124	0x3a0cc45f	0.0005369838
125	0xbaace717	-0.0013191429
126	0x3b3e3864	0.002902531
127	0xbaba0666	-0.0014192581
128	0x3b6e3ede	0.003635339
129	0x3af611bb	0.0018773595
130	0x3a438d05	0.0007459673
131	0xba868c89	-0.0010265271
132	0xbafb47f1	-0.001917122
133	0x3baaf73f	0.0052174623
134	0x3c1e48a0	0.00966087
135	0xbad4bba7	-0.0016230241
136	0x3b2a7a33	0.0026012778
137	0x3a7edb9b	0.0009722055
138	0x3bddcd41	0.006768853
139	0xba05c5b7	-0.0005103009
140	0x39820dd7	0.00024805844
141	0x3b0d14b5	0.0021527235
142	0x395dd5c7	0.0002115584
143	0xb99482be	-0.0002832617
144	0xb9c5d5f4	-0.00037734176
145	0x392c5dd6	0.00016438155
146	0x3a76642e	0.0009399083
147	0x3bc6ee32	0.0060708756
148	0x3a97d8ba	0.0011584975
149	0x3c5394f6	0.012913933
150	0x3aacb000	0.0013175011
151	0x3b4a9602	0.0030912166
152	0x39cf2b8e	0.00039514567
153	0x3a1f08ed	0.00060666987
154	0x3a4bcc7f	0.0007774308
155	0xbb242bce	-0.0025050524
156	0xb79f5d3d	-1.8997694e-05
157	0x3c0c3cff	0.0085594645
158	0x3be9c020	0.007133499
159	0x3b57815d	0.0032883503
160	0x3b3d107e	0.0028848941
161	0x3b8cd9e8	0.0042984374
162	0xb962cef8	-0.00021630141
163	0x3b92605d	0.004467054
164	0x3b80e07f	0.003933012
165	0x3b3853b1	0.0028126056
166	0x3afbd040	0.0019211844
167	0xba46ad74	-0.0007578947
168	0x3bdf30f1	0.006811254
169	0x3bb46846	0.0055055944
170	0x3b574587	0.0032847838
171	0x3b80a52b	0.0039259396
172	0x3b906769	0.0044068587
173	0xba53cbb7	-0.0008079367
174	0x3b97d3c6	0.0046333997
175	0x3c03e3e5	0.00804994
176	0x3b1a99e4	0.002359026
177	0x3b43e938	0.0029893648
178	0x3ba6b5ce	0.005087591
179	0x39a25479	0.00030961985
180	0x3be28765	0.006913113
181	0x3b0867af	0.0020813753
182	0x3a65678d	0.0008751087
183	0x3c9ebe9c	0.019377999
184	0x3b794e75	0.0038041149
185	0x3ad3b438	0.0016151732
186	0x3a7d29fa	0.0009657439
187	0x3c0038bf	0.007826029
188	0x3b64b2a9	0.0034896529
189	0x3a7b1d36	0.0009579243
190	0x3b4396fd	0.0029844635
191	0xba7a349d	-0.0009544583
192	0x3b1b1e9e	0.0023669372
193	0x3b628c6c	0.0034568561
194	0x3c18fbc7	0.009337372
195	0x3ae36222	0.0017347971
196	0x3b73a219	0.0037175475
197	0xbba6ffa5	-0.005096393
198	0x3b25b7b8	0.0025286507
199	0x3b596202	0.003316999
200	0x3b98d0aa	0.0046635466
201	0xba58e4be	-0.00082738313
202	0xb9d77f11	-0.00041102667
203	0x3a45bf23	0.0007543435
204	0x3b9bcf25	0.004754918
205	0x3b2174d5	0.0024636288
206	0x3bc3804d	0.0059662224
207	0x3a33e187	0.00068619143
208	0x3b24c85b	0.0025143835
209	0xba10042c	-0.0005493786
210	0x3b3ef82a	0.0029139617
211	0xb9e099a3	-0.00042839078
212	0xbaa3b31d	-0.0012489293
213	0xbb037780	-0.0020060241
214	0x3bf3a0aa	0.007434924
215	0x3b4d2ec9	0.0031308404
216	0x3aca5ea5	0.0015439583
217	0x3a58128c	0.000824251
218	0x39a87fed	0.0003213877
219	0xbb78bfe2	-0.0037956168
220	0x3b8b3a95	0.004248927
221	0x3b863072	0.0040951306
222	0x3a9b6523	0.0011855703
223	0x3ad8a1b2	0.0016527681
224	0xb9ed3715	-0.00045245202
225	0x3c1255f3	0.008931625
226	0x3bce59b0	0.0062973127
227	0xbacbba69	-0.0015543225
228	0x3b698673	0.0035633116
229	0x3b64f83a	0.0034937994
230	0x3b22fa16	0.00248683
231	0x3affd0fd	0.0019517239
232	0x39c4a12d	0.00037504119
233	0x3bde56ec	0.0067852642
234	0x3b046a8f	0.0020205115
235	0x3a7b38f9	0.000958338
236	0xb8fdc30e	-0.00012100312
237	0x3c29ce4c	0.010364126
238	0xbb1585de	-0.0022815387
239	0x3c01350e	0.007886184
240	0x3b358c1e	0.0027701925
241	0x3bda1658	0.0066554956
242	0x3b5f4a03	0.0034071214
243	0x3aa31c78	0.0012444397
244	0xbb05aa91	-0.0020395855
245	0x3a01443a	0.0004931126
246	0x3ba7256f	0.005100898
247	0xbad353a8	-0.0016122954
248	0xb6455d44	-2.9409575e-06
249	0x3b56ae98	0.0032757875
250	0x3ac30fef	0.0014882068
251	0x3b857e21	0.0040738736
252	0x39a0a2e9	0.00030638956
253	0xbb2212fa	-0.002473055
254	0x3adcd42a	0.0016847898
255	0xbb18ae2a	-0.002329717

lstm.weight_ih_l1 f4 [512, 128]
0	0xbd9045fa	-0.07044597
1	0xbc89a9b2	-0.01680455
2	0x3d3cff8b	0.046142142
3	0xbd6247be	-0.0552442
4	0x3ce0d11d	0.027443463
5	0x3dba94ce	0.091104135
6	0xbd8a3a5e	-0.06749414
7	0x3ce4e473	0.027940964
8	0x3baf24ab	0.0053449473
9	0x3d68910d	0.056778956
10	0xbdd0bbe9	-0.10192091
11	0x3b4fa3a7	0.0031683238
12	0x3d76ae30	0.060224712
13	0x3d3fd1f1	0.046831075
14	0xbb90ed5b	-0.004422826
15	0xbc072697	-0.008248947
16	0x3c5c9afe	0.013464687
17	0x3d20f5a9	0.03929678
18	0x3d33f807	0.04393771
19	0x3c5c9d4b	0.013465236
20	0x3c6687bb	0.014070447
21	0xbd135f13	-0.03597934
22	0x3cfd363c	0.03090965
23	0x3cf087a9	0.029361563
24	0x3d8be578	0.06830877
25	0x3b91f756	0.0044545336
26	0xbda390d3	-0.079866074
27	0x3c927363	0.017877286
28	0x3d14a0ae	0.03628605
29	0x3db171bc	0.08664271
30	0xbd92783d	-0.0715184
31	0x3d83fcf2	0.0644473
32	0xbca82ef5	-0.020530203
33	0xbd9438d3	-0.07237401
34	0x3cbbc52c	0.022921167
35	0x3dac8cc6	0.08425288
36	0xbdc2cc1d	-0.09511588
37	0xbd93d59b	-0.072184764
38	0x3da1bbcd	0.07897148
39	0xbd9e91e1	-0.07742668
40	0xbd5c997a	-0.053857304
41	0xbcd7279f	-0.02626401
42	0x3d183892	0.037163325
43	0xbd5bf164	-0.053697005
44	0x3ca446b2	0.020053241
45	0xbda5254c	-0.080637544
46	0xbb58f7c3	-0.0033106662
47	0x3c7b993c	0.015356358
48	0xbd0ab8c0	-0.033867598
49	0xbd48c268	-0.049013525
50	0x3cc8b223	0.024499005
51	0x3dc81a3b	0.09770628
52	0xbc9bc5fd	-0.019015307
53	0x3d5d81e2	0.054078944
54	0xbc85d7aa	-0.016338188
55	0xbd0e4c83	-0.034740936
56	0xbcecc7dc	-0.028903894
57	0x3b8604ad	0.004089913
58	0xbd86dc8f	-0.06585037
59	0xbc1061d0	-0.008812383
60	0xbd2c8b6c	-0.04212515
61	0x3cc4c141	0.024017932
62	0xbd65df89	-0.056121383
63	0x3dc15286	0.09439568
64	0x3d4573d0	0.04820615
65	0xbd421bfa	-0.04738996
66	0x3d99f4f2	0.07517423
67	0xbc61d9df	-0.013784855
68	0xbda04e78	-0.07827467
69	0xbc8b0cff	-0.01697397
70	0x3d995abb	0.074880086
71	0x3dc257fb	0.09489437
72	0xbd634e6a	-0.055494703
73	0xbcb4659b	-0.022021106
74	0xbcb64a56	-0.022252243
75	0x3d9c958a	0.0764571
76	0x3d6c99a9	0.05776373
77	0xbd8a3856	-0.067490265
78	0x3d6c8fbe	0.05775427
79	0x3da4416d	0.080202915
80	0x3cb48a02	0.022038464
81	0xbd9a51a0	-0.075351
82	0xbd684632	-0.05670757
83	0x3c3a34c3	0.011365118
84	0x3c41a185	0.011818294
85	0x3db85fea	0.09002669
86	0xbce4b7b4	-0.027919628
87	0x3d6ab84c	0.057304665
88	0x3d5b7978	0.05358264
89	0x3d0717d1	0.032981697
90	0x3d00ca41	0.031442884
91	0xbc759360	-0.01498875
92	0x3c026275	0.007958044
93	0x3d3e3617	0.046438303
94	0xbc010651	-0.007875041
95	0x3cd39288	0.025826707
96	0x3ce40f47	0.027839316
97	0x3db3ad90	0.08773339
98	0x3cd3231f	0.025773583
99	0x3d7ba720	0.06143868
100	0x3c247d9d	0.010039714
101	0xbd8ab468	-0.06772691
102	0x3d8e8586	0.06959061
103	0x39fbb1f6	0.00048007042
104	0x3cd35cbf	0.02580106
105	0x3cd948c7	0.02652396
106	0xbccc9719	-0.024974393
107	0xbd883375	-0.0665044
108	0x3d3381e7	0.043825056
109	0xbcbb4e56	-0.022864502
110	0x3c80be96	0.015715878
111	0x3c8661a7	0.016403986
112	0xbc5d4b0b	-0.013506661
113	0x3c276228	0.010216273
114	0xbcb1ea92	-0.021718297
115	0x3d8a2f2c	0.067472786
116	0xbda1eaa3	-0.079060815
117	0x3d506650	0.050878823
118	0x3beac5a4	0.007164674
119	0xbd430e63	-0.047621142
120	0x3d856cd8	0.06514901
121	0xbc986c86	-0.018606436
122	0x3d80a40a	0.06281288
123	0xbd8e76fb	-0.069562875
124	0x3c727c00	0.014800072
125	0x3cb3f631	0.02196798
126	0x3d1df3b0	0.038562477
127	0x3daf26a0	0.08552289
128	0x3c4573f9	0.012051576
129	0xbdb32ec1	-0.08749152
130	0x3dbabb7c	0.09117791
131	0x3c5c061f	0.013429194
132	0xbd204a5f	-0.039133426
133	0xbd2a1b68	-0.041530043
134	0xbba5ee39	-0.0050637987
135	0x3d27042c	0.040775463
136	0x3a382980	0.0007025227
137	0x3d95ef2a	0.073210075
138	0x3da15fc7	0.07879596
139	0xbd708158	-0.0587171
140	0xbdb7b751	-0.08970512
141	0x3d84c716	0.06483285
142	0xbd1cab51	-0.038249318
143	0xbd3cb577	-0.046071496
144	0xb9fa3a09	-0.00047726955
145	0x3d9df488	0.07712656
146	0xbd818689	-0.06324489
147	0x3d86aa24	0.065754205
148	0x3d871cd2	0.06597294
149	0x3da71a62	0.08159329
150	0x3d91d757	0.07121151
151	0xbdafab3b	-0.085775815
152	0xbdc72cc7	-0.097253375
153	0x3d40f2ee	0.047106676
154	0x3cf3dc40	0.02976811
155	0xbc7fccb7	-0.015612773
156	0xbd35df23	-0.044402253
157	0x3bd262bf	0.006420463
158	0xbd019ffd	-0.031646717
159	0xbca1c921	-0.019749226
160	0xbd0a52c3	-0.033770334
161	0x3d4cf5dc	0.050039157
162	0x3d817c42	0.063225284
163	0x3da9e2d9	0.08295221
164	0xbd678f0f	-0.056532916
165	0xbd0e10ea	-0.0346841
166	0xbd5945b1	-0.05304498
167	0xbdaecf3f	-0.08535623
168	0x3d9f2fcb	0.07772788
169	0xbd7077ba	-0.05870793
170	0xbc444dd7	-0.011981449
171	0x3d368fa5	0.044570584
172	0xbda86bc2	-0.08223678
173	0xbdbfe857	-0.09370487
174	0xbd681cdc	-0.056668147
175	0xbc8bef8f	-0.017082004
176	0x3c30c92a	0.010790149
177	0xbc9de58a	-0.019274492
178	0xbc98a347	-0.018632544
179	0xbc6c7b02	-0.014433624
180	0x3d7367f5	0.059425313
181	0xbd9dc95e	-0.07704423
182	0x3c70d4ff	0.01469922
183	0xbc613098	-0.013744496
184	0xbd98f7cd	-0.07469139
185	0xbd981367	-0.07425576
186	0x3ce2eabf	0.027699826
187	0xbdb704b6	-0.089364454
188	0xbc51c037	-0.012802175
189	0xbc2b36aa	-0.010450045
190	0x3dacc0d8	0.084352195
191	0x3da9da08	0.08293539
192	0xbd427b87	-0.047481086
193	0x3d849737	0.064741544
194	0x3dae525e	0.08511804
195	0x3cc6a225	0.024247238
196	0x3c2e7aa9	0.010649362
197	0xbd4286f4	-0.047491983
198	0x3cbd56da	0.023112703
199	0xbd75f9bb	-0.060052615
200	0x3d8b9b4a	0.068167284
201	0x3da831c9	0.08212621
202	0xbce39338	-0.02778016
203	0x3d8b1869	0.06791765
204	0xbc8af64d	-0.016963148
205	0x3dad5bbd	0.08464763
206	0x3d2203dd	0.039554466
207	0x3da41e98	0.08013648
208	0xbdbdf43d	-0.092751004
209	0xbdc71fd1	-0.097228654
210	0x3da1d625	0.07902173
211	0xbd9105e6	-0.07081203
212	0x3dad2078	0.084534585
213	0xbd49a26e	-0.04922717
214	0x3ce17566	0.0275218
215	0xbcfaa420	-0.030595839
216	0xbc9be8d1	-0.019031914
217	0xbd1e9e43	-0.03872515
218	0xbd8c5bc5	-0.06853441
219	0x3cc80895	0.024418155
220	0x3d09e999	0.03367004
221	0x3db28a19	0.08717746
222	0xbd3dc24b	-0.04632787
223	0xbd4c047f	-0.049808975
224	0xbdb763de	-0.08954595
225	0xbd8e33dd	-0.06943486
226	0xbd9a12ed	-0.07523141
227	0x3d80849a	0.06275292
228	0x3d2f7af5	0.04284187
229	0x3d4301f8	0.0476093
230	0xbd3f2bbd	-0.04667257
231	0x3d7ee9f6	0.06223484
232	0x3da153a7	0.078772835
233	0xbd06482e	-0.03278368
234	0x3c22354c	0.009900402
235	0x3d73e700	0.05954647
236	0xbd274bd6	-0.040843807
237	0x3aeaaf66	0.0017905056
238	0x3d8cfde8	0.06884366
239	0xbd899095	-0.0671703
240	0xbd16b18d	-0.03679042
241	0x3dcd8f88	0.10037142
242	0xbd0354ea	-0.032063402
243	0xbd52f615	-0.051504213
244	0xbd297ec1	-0.041380648
245	0xbc67875a	-0.014131391
246	0x3d86563b	0.06559416
247	0xbc9f733a	-0.019464124
248	0x3cd79525	0.026316235
249	0xbd8a3c25	-0.06749753
250	0x3d1a2c72	0.037640043
251	0xbcdec0ea	-0.027191598
252	0xbd398a89	-0.045298133
253	0x3dbe4d73	0.09292116
254	0x3db063f1	0.08612812
255	0x3d021efa	0.031767823

lstm.weight_hh_l1 f4 [512, 128]
0	0xbc2ef939	-0.0106795365
1	0xbc9b9be4	-0.018995233
2	0xbc5a7eca	-0.013335893
3	0xbc9529f7	-0.018208487
4	0xbd95799c	-0.07298586
5	0xbd033b46	-0.03203895
6	0x3ca7358b	0.020411273
7	0x3d5a7223	0.053331506
8	0x3dac09fa	0.084003404
9	0x3db92dfe	0.090419754
10	0xbd1026b5	-0.035193164
11	0x3d4ad0e9	0.04951564
12	0xbccf26d0	-0.025287062
13	0x3c33d55d	0.010976163
14	0x3dac57e8	0.08415204
15	0x3d2bdf82	0.0419612
16	0x3d9bee8f	0.07613861
17	0x3d37ec56	0.044903122
18	0xbcada60e	-0.021197345
19	0x3d9aaa5b	0.07552024
20	0xbb5d16e1	-0.003373556
21	0x3d587e4e	0.05285483
22	0xbd78853f	-0.06067395
23	0x3bb275dd	0.0054461793
24	0xbd89e4d5	-0.06733099
25	0xbc31b266	-0.010845756
26	0x3d9e0247	0.07715278
27	0x3d72e2e3	0.059298407
28	0x3d22c584	0.039739147
29	0xbdbf7e0c	-0.093502134
30	0xbdabae90	-0.083829045
31	0xbdafb07b	-0.08578583
32	0xbd8e353c	-0.069437474
33	0x3cca2904	0.02467776
34	0x3cb26be7	0.021779967
35	0x3db2c17f	0.08728313
36	0x3d30b9dc	0.043146
37	0xbda84471	-0.08216179
38	0xbd841a7e	-0.064503655
39	0x3d96dc9f	0.07366299
40	0xbd4c3917	-0.049859133
41	0xbd18121d	-0.03712665
42	0xbd02b77a	-0.031913258
43	0x3d8ca586	0.068675086
44	0x3d8af2b7	0.067845754
45	0xbd49db78	-0.049281567
46	0xbc8689f4	-0.016423203
47	0x3cc66930	0.02422008
48	0x3b680039	0.0035400523
49	0x3d7eed6c	0.062238142
50	0x3d4b0e54	0.04957421
51	0xba04b5ea	-0.00050625077
52	0xbcc202f7	-0.023683054
53	0xbc69bf64	-0.0142668225
54	0xbd869b3b	-0.065725766
55	0x3bf3b2da	0.0074370923
56	0x3d181a3a	0.037134387
57	0x3d39d6ed	0.045370985
58	0x3d9d771f	0.07688736
59	0x3da111c9	0.078647204
60	0x3d3a2965	0.045449633
61	0x3db8e05c	0.09027168
62	0xbcf221eb	-0.029557189
63	0xbc206e9b	-0.009791995
64	0x3d0c4aaf	0.03425091
65	0x3db9b5ff	0.09067916
66	0xbd1330c7	-0.03593519
67	0x3d9d66a6	0.07685594
68	0x3d60ad4d	0.054852773
69	0x3d0d373f	0.034476515
70	0xbd6a2072	-0.05715985
71	0x3dc6bb4a	0.09703691
72	0xbcf5436c	-0.029939376
73	0xbd11c547	-0.03558853
74	0xbd9bcf9a	-0.07607956
75	0xbdace3e9	-0.08441908
76	0xbca02853	-0.019550478
77	0x3bf789bc	0.007554261
78	0x3dc53d13	0.096307896
79	0xbd9f4e2b	-0.07778581
80	0xbcede728	-0.029040888
81	0x3d463056	0.04838594
82	0xbdbe6a4d	-0.09297619
83	0x3d582eb2	0.052778907
84	0x3cbee4df	0.023302494
85	0x3d39c041	0.045349363
86	0x3d6079bd	0.0548036
87	0xbc34cde3	-0.011035415
88	0x3b158993	0.0022817596
89	0xba6152ff	-0.0008595436
90	0xbc63e5e4	-0.013909791
91	0x3d1b05af	0.037847217
92	0x3d58ed4b	0.052960675
93	0x3bb299aa	0.005450447
94	0xbd50adac	-0.050946876
95	0x3dc606c1	0.09669257
96	0x3d24c45e	0.040226333
97	0xbd5beffc	-0.053695664
98	0x3cfae431	0.030626388
99	0x3da3e091	0.08001817
100	0x3d61da78	0.05513999
101	0x3a9e7bac	0.00120913
102	0x3d0aae48	0.033857614
103	0x3cf48d69	0.029852586
104	0xbc66a6a4	-0.014077816
105	0x3cde7d7f	0.02715945
106	0x3b377854	0.0027995305
107	0xbdc43077	-0.095795564
108	0xbd8a5b5f	-0.06755709
109	0xbd718c76	-0.058971845
110	0x3d63b248	0.055589944
111	0x3dbe137e	0.092810616
112	0xbd30dbb3	-0.04317827
113	0xbd9af030	-0.075653434
114	0xbdadfcd0	-0.08495486
115	0xbcefd167	-0.029274656
116	0x3d59c9e6	0.05317106
117	0xbd8b15a2	-0.067912355
118	0x3d193539	0.037404273
119	0x3ce669a5	0.028126547
120	0x3cb5474d	0.022128725
121	0xbcdb3a7f	-0.026761292
122	0xbd9f23e9	-0.07770521
123	0x3d8f81d2	0.07007183
124	0x3d162817	0.036659326
125	0xbda9a5ef	-0.082836024
126	0xbcd6d7f5	-0.026226023
127	0xbda3a7a0	-0.07990956
128	0x3d05b43a	0.03264258
129	0x3cd3bbb9	0.02584635
130	0x3d5d252f	0.05399054
131	0xbd4fbe16	-0.05071839
132	0x3d88f600	0.06687546
133	0x3cd377a7	0.02581389
134	0x3becfefe	0.007232546
135	0x3da91c4e	0.08257352
136	0xbcf3bdc9	-0.029753583
137	0xbcd6ed61	-0.026236238
138	0x3b28e40a	0.0025770687
139	0x3dacd3e5	0.08438853
140	0x3d3f5c0f	0.046718653
141	0x3d9f265f	0.077709906
142	0xbba3d219	-0.004999411
143	0xbda027f5	-0.07820121
144	0x3da7d2b8	0.08194488
145	0xbd3dcca1	-0.046337727
146	0xbbe239f2	-0.0069038803
147	0x3d6b2f93	0.057418417
148	0xbd56e73b	-0.052466612
149	0x3d7e8685	0.062140007
150	0x3cb01bfa	0.021497715
151	0x3d6813d5	0.05665954
152	0x3dc967b3	0.09834232
153	0xbc7de10d	-0.015495551
154	0x3c318667	0.010835267
155	0x3dba3a03	0.09093096
156	0xbdbe77bb	-0.093001805
157	0xbd94dc9c	-0.072686404
158	0xbc93a37e	-0.018022295
159	0x3d0e104c	0.03468351
160	0x3d2c0de9	0.042005453
161	0xbd2857c5	-0.04109933
162	0x3db11255	0.08646075
163	0x3d5331df	0.051561233
164	0x3c888ece	0.016669657
165	0x3c2ac0ff	0.01042199
166	0xbc20aa95	-0.009806295
167	0xbd77a3f8	-0.060459107
168	0x3dbec73c	0.09315345
169	0x3d9c8f7b	0.07644554
170	0xbcf10000	-0.029418945
171	0x3d058121	0.03259385
172	0x3da2e505	0.07953838
173	0x3d707d1f	0.058713075
174	0xbca15fb6	-0.019698959
175	0xbd8df61e	-0.06931709
176	0x3ba139d2	0.004920223
177	0x3d36ade9	0.044599447
178	0xbcee2de7	-0.029074622
179	0xbd9ee794	-0.07759014
180	0x3d70eaec	0.05881779
181	0x3dbcdb0b	0.09221467
182	0xbacb0c86	-0.0015491403
183	0xbd893b26	-0.06700735
184	0x3db0d59a	0.08634491
185	0x3dc60a95	0.09669987
186	0x3da1fb6b	0.07909282
187	0x3beb6bb8	0.007184472
188	0xbd92d57a	-0.07169624
189	0xb8561ffd	-5.1051367e-05
190	0x3db45c31	0.088066466
191	0xbbc99357	-0.0061515975
192	0xbd79f720	-0.061026692
193	0x3d5a0de4	0.053235903
194	0xbda9d1ba	-0.08291955
195	0x3d9a0dee	0.07522188
196	0x3da40cba	0.0801024
197	0x3d1b2a7f	0.037882324
198	0x3d773336	0.060351573
199	0xbc3f6a2e	-0.01168303
200	0xbda05105	-0.07827953
201	0x3cb810cc	0.022468947
202	0x3cc42c95	0.02394704
203	0x3d96595a	0.07341261
204	0xbdbb1868	-0.091355145
205	0xbc9683be	-0.018373366
206	0x3cbcf845	0.023067603
207	0x3d88c6dc	0.066785544
208	0xbd95e20f	-0.07318508
209	0x3d3cdaab	0.046106976
210	0x3d3041aa	0.043031372
211	0x3d65ba57	0.05608591
212	0x3b105550	0.0022023506
213	0x3a8caf56	0.0010733407
214	0x3c1c7e33	0.009551573
215	0xbd994002	-0.07482912
216	0x399d3e48	0.00029991777
217	0xbc9dbb10	-0.019254237
218	0x3cd6b3c2	0.026208762
219	0x3d035175	0.032060105
220	0x3c135a5b	0.00899371
221	0xbcaf8087	-0.021423591
222	0x3d836426	0.06415586
223	0x3d95ac6d	0.07308278
224	0x3d92666e	0.07148443
225	0x3dacb968	0.08433801
226	0xbdbe380c	-0.09288034
227	0x3d67f863	0.056633364
228	0x3d902603	0.070385
229	0xbd45c9f0	-0.048288286
230	0xbd826b24	-0.06368092
231	0x3d9bfb9c	0.0761635
232	0xbd4b6c2a	-0.0496637
233	0xbd2107a8	-0.039313942
234	0x3d1da074	0.0384831
235	0xbd2a220d	-0.04153638
236	0x3d8985e1	0.067149885
237	0xbd298b21	-0.04139245
238	0x3d52d60a	0.051473655
239	0x3d8f6af6	0.07002823
240	0x3dc631da	0.09677477
241	0x3c619b83	0.013769987
242	0x3dab6e4b	0.08370646
243	0x3d6f19b4	0.05837412
244	0x3bd29b18	0.00642718
245	0x3d58e335	0.052951057
246	0x3ae9314c	0.0017791181
247	0xbd16ae59	-0.036787365
248	0x3d845dfd	0.06463239
249	0x3cade35e	0.021226581
250	0xbd33395c	-0.043755874
251	0x3cb56e57	0.02214734
252	0x3db510b5	0.08841077
253	0xbd0e5778	-0.034751385
254	0xbad5a385	-0.0016299343
255	0xbd85fad9	-0.06541986

lstm.bias_ih_l1 f4 [512]
0	0x3bc58226	0.006027478
1	0xbb412c1f	-0.002947576
2	0x3b5c1827	0.0033583732
3	0x3c41d911	0.011831538
4	0x3b0dafa4	0.0021619583
5	0x3a8e4238	0.0010853475
6	0xba220966	-0.000618121
7	0xbaffdf20	-0.0019521452
8	0xba9bb521	-0.0011879542
9	0x3bd5f76d	0.0065297396
10	0xbaa9816b	-0.0012932246
11	0x3b352481	0.0027640166
12	0x3a831d4a	0.0010003236
13	0xba30a7e6	-0.0006738886
14	0x3a332a80	0.0006834641
15	0x3b8355e1	0.0040080403
16	0xba60ab24	-0.0008570424
17	0x395be093	0.00020969128
18	0x3b2c312f	0.0026274433
19	0x3c593f10	0.013259664
20	0x3ad112a1	0.0015950986
21	0x3a623f95	0.000863069
22	0x3adc4a57	0.0016806823
23	0xba049b53	-0.00050585455
24	0x3b1cb2bb	0.0023910243
25	0x3b8e1aef	0.004336707
26	0xbb9a5129	-0.004709382
27	0x3b427faf	0.0029678156
28	0xbb078120	-0.002067633
29	0x3abbfeeb	0.0014342939
30	0x3a3f25bd	0.0007291695
31	0xbb964c7e	-0.0045867553
32	0xbb115309	-0.0022174737
33	0x3c3f87d4	0.011690099
34	0x3a65ffb2	0.00087737583
35	0x3b7e03d9	0.0038759618
36	0xbaeacc42	-0.0017913657
37	0x3adf68ef	0.0017044822
38	0x3b3ba780	0.0028633773
39	0xbb123e43	-0.0022314943
40	0xb85ecffa	-5.3122618e-05
41	0x3b0a285e	0.002108119
42	0xba9b5a0f	-0.0011852401
43	0x3bb4c363	0.005516456
44	0x3b05b232	0.0020400402
45	0x3accb08f	0.0015616583
46	0x3c1cf926	0.009580886
47	0x3bc1cc9a	0.005914283
48	0x3b29b435	0.0025894765
49	0x3ac502e3	0.0015030768
50	0xba53c519	-0.0008078381
51	0xbac38fc1	-0.0014920161
52	0x3b3f9c92	0.002923761
53	0x3a9a16cf	0.0011756065
54	0xbaab75e9	-0.0013081405
55	0x3b12406c	0.002231623
56	0x3b50af5a	0.00318428
57	0x3c005c22	0.007834466
58	0x3b96ed0f	0.0046058963
59	0x3b57ec8d	0.0032947392
60	0x3b8e887c	0.0043497663
61	0x3b7f231e	0.0038930844
62	0x3b82fe53	0.003997603
63	0x3b132f2c	0.0022458537
64	0x3aae8971	0.0013316107
65	0xb6d318ae	-6.291163e-06
66	0x3a3da989	0.00072350405
67	0x3c01bc6f	0.007918461
68	0x390e7a38	0.00013587705
69	0x3aff4275	0.0019474762
70	0xba8bb232	-0.0010657965
71	0x3b911fef	0.0044288556
72	0xbb40a81f	-0.0029397083
73	0x3abc1962	0.0014350826
74	0xba872580	-0.0010310858
75	0x3bc0c2e9	0.00588261
76	0xbafd28be	-0.001931451
77	0x3b36e9f2	0.0027910438
78	0x3ba0a23f	0.0049021537
79	0x3b36fdf0	0.0027922355
80	0x3aa42f39	0.001252628
81	0xbbc555a9	-0.0060221744
82	0x3b216961	0.002462946
83	0x3a99883e	0.0011713577
84	0x3b9accc0	0.004724115
85	0x3b067717	0.002051776
86	0x3b0f9467	0.0021908523
87	0x3be1df75	0.006893093
88	0x3b820a6f	0.003968529
89	0xbb9c61bd	-0.0047723935
90	0x3b8fe913	0.0043917983
91	0x3b47aaf1	0.003046688
92	0x3bb73e54	0.005592147
93	0x3be10f6a	0.0068682926
94	0x3b84f8f2	0.004057997
95	0x3ae384e9	0.0017358336
96	0x3ad2caa5	0.0016082121
97	0x3b2268c4	0.0024781683
98	0x3b9d8638	0.00480726
99	0x3aa27176	0.0012393433
100	0x3b1dfbc2	0.0024106358
101	0x3b6b2cff	0.0035884974
102	0x3b3f4dcd	0.002919066
103	0xb9b063b5	-0.00033643623
104	0x3b0d7dd9	0.0021589904
105	0xba47a629	-0.00076160074
106	0x3b5d84e6	0.0033801137
107	0x3b9efdbe	0.004852026
108	0x3b0ed8c6	0.0021796688
109	0x3abf5b77	0.0014599402
110	0x3b8e8600	0.00434947
111	0x3c59001e	0.013244657
112	0x3a98a9ec	0.001164732
113	0x3aaf83b3	0.001339069
114	0xbac94c6b	-0.0015357857
115	0x3a9263f4	0.0011168704
116	0x383d3b83	4.5116536e-05
117	0x3bcf29c2	0.0063221166
118	0xba2f5850	-0.000668888
119	0x3aa19fc3	0.0012330938
120	0x3b7549a2	0.0037427922
121	0x3b810c35	0.003938223
122	0x3b9bfd71	0.004760437
123	0x3a86ea8a	0.0010293287
124	0x3b826043	0.0039787604
125	0x3b356a65	0.0027681824
126	0x3b43069e	0.0029758583
127	0xbac609f6	-0.001510917
128	0x3b830acc	0.00399909
129	0xbb25ab91	-0.0025279264
130	0x3b437eb7	0.0029830167
131	0x3c4844f6	0.012223473
132	0x3a857886	0.0010183014
133	0x3ad781dd	0.00164419
134	0xba97b26b	-0.0011573558
135	0x39819d74	0.0002472211
136	0xbac593ad	-0.0015073918
137	0x3ba11aec	0.0049165394
138	0xb98b1d66	-0.0002653405
139	0x3b528ec9	0.0032128564
140	0x3a2ae732	0.0006519436
141	0xbad22aee	-0.0016034523
142	0x3b1c5333	0.0023853302
143	0x3b86c8a3	0.004113273
144	0xba57f34a	-0.0008237852
145	0xbaba5e3e	-0.001421876
146	0x3afde303	0.0019370023
147	0x3c572d53	0.013133365
148	0x3a91a67b	0.0011112237
149	0xba126c42	-0.00055855897
150	0x3b6bbe10	0.003597144
151	0xb95f03d0	-0.00021268358
152	0x3b67123f	0.0035258678
153	0x3a896414	0.0010482096
154	0xbbb1fc4c	-0.0054316875
155	0x3b41f365	0.0029594537
156	0xbb05ad9e	-0.0020397673
157	0x3afc3d90	0.0019244421
158	0x3b006171	0.001958933
159	0xbb8b60c1	-0.0042534773
160	0xbb21399f	-0.0024600995
161	0x3c3e4e99	0.011615419
162	0x3a183003	0.0005805494
163	0x3b8bf988	0.00427169
164	0xbb6b7fd6	-0.003593435
165	0x3a9db6a2	0.0012032578
166	0x3a9d7a21	0.0012014547
167	0xbaa92761	-0.0012905413
168	0x3a68400b	0.0008859641
169	0x3b599ed6	0.0033206246
170	0xbaee6d16	-0.0018190469
171	0x3bcb0a69	0.0061963093
172	0x3adbbeaa	0.0016765196
173	0x3adad9b4	0.0016696961
174	0x3c15ba86	0.009138709
175	0x3be03dcb	0.006843304
176	0x3ac81bd5	0.0015267084
177	0x3a48430b	0.0007639385
178	0xb903bc54	-0.00012563291
179	0xbb252742	-0.0025200401
180	0x3b1a7701	0.0023569467
181	0x3acc4e0e	0.0015587227
182	0xba9a78e1	-0.0011785292
183	0x3b4b5731	0.0031027312
184	0x3b3956ce	0.00282805
185	0x3c16285e	0.009164898
186	0x3b87453d	0.004128127
187	0x3b1ff753	0.0024408891
188	0x3b2d2769	0.0026421195
189	0x3b882d31	0.004155778
190	0x3b8f7050	0.0043774024
191	0x3aa666bc	0.0012695412
192	0x3a11b8e0	0.00055588596
193	0x3a319e82	0.00067756337
194	0x3a884786	0.0010397292
195	0x3bfeddf4	0.0077779237
196	0xb970073a	-0.00022890876
197	0x3aff9385	0.001949892
198	0xb9ff4f97	-0.0004869669
199	0x3b5504f6	0.0032504178
200	0xbb5b3d71	-0.003345337
201	0x3b1e41a5	0.0024148014
202	0xba2f5ad8	-0.0006689257
203	0x3ac4ae14	0.0015005493
204	0xbb1879a6	-0.0023265867
205	0x3aca0e14	0.0015415573
206	0x3b9d1638	0.0047939084
207	0x3b67c1f1	0.00353634
208	0xb9583638	-0.00020619563
209	0xbb91d5f3	-0.0044505536
210	0x3b5d77df	0.0033793373
211	0x3b07e9cc	0.002073872
212	0x3bc3144e	0.0059533482
213	0x39fa84b5	0.0004778259
214	0x3aa4b5e1	0.0012566411
215	0x3bbae570	0.0057036206
216	0x3b966651	0.004589834
217	0xbbbe59eb	-0.005809059
218	0x3bcae456	0.0061917705
219	0x3a838a1c	0.0010035667
220	0x3bc72871	0.006077819
221	0x3bccea41	0.006253511
222	0x3b4571ce	0.0030127647
223	0x3aeffbe4	0.0018309322
224	0x3a9edc75	0.0012120145
225	0x3afb87bd	0.0019190233
226	0x3b0fe73f	0.0021957902
227	0x3aa34a2e	0.001245802
228	0x3a83a42a	0.0010043432
229	0x3ad3a246	0.0016146384
230	0x3b881065	0.004152345
231	0x38740334	5.8177116e-05
232	0x3af629e8	0.00187808
233	0xba933eea	-0.001123396
234	0x3b3d45d0	0.0028880723
235	0x3bd8f6c6	0.0066212146
236	0x3b40eab2	0.0029436764
237	0x3a8cbdde	0.0010737737
238	0x3b701101	0.003663123
239	0x3c3ea5fa	0.011636252
240	0xba6c701a	-0.000901939
241	0x38ce2f3e	9.831645e-05
242	0x396a11b2	0.00022322571
243	0x3ac60c76	0.0015109915
244	0x3a4b74d6	0.00077612454
245	0x3bccb786	0.0062474636
246	0x3a95c4d4	0.0011426457
247	0x3a449482	0.0007498936
248	0x3b7a2e0a	0.0038174414
249	0x3b94379a	0.00452323
250	0x3b11fef8	0.0022277217
251	0x3b093afd	0.00209397
252	0x3b5213ca	0.0032055252
253	0x3b2bc6c4	0.0026211003
254	0x3b4b97ef	0.0031065901
255	0xba4343e9	-0.0007448779
