models/FGTC (2).pth (torch, 563861 bytes, 48 tensors)

input_proj.weight f4 [64, 5]
0	0xbdf27b79	-0.11839957
1	0xbe8133a1	-0.25234702
2	0xbdf11656	-0.11771838
3	0x3d4b52ba	0.04963944
4	0xbe8a06ca	-0.26958305
5	0xbd980a41	-0.07423831
6	0x3e269e99	0.16271438
7	0x3e20be8b	0.15697686
8	0x3d37a40e	0.04483419
9	0x3d55f048	0.052231103
10	0xbe0451ea	-0.12921873
11	0xbda82e3e	-0.08211945
12	0x3e080736	0.13284001
13	0x3da49254	0.080357224
14	0x3e98f4a7	0.29874155
15	0x3d5f1979	0.054467652
16	0x3bc0815e	0.005874797
17	0xbd98d1ec	-0.074619144
18	0xbdd24411	-0.10266889
19	0x3e817bdf	0.2528982
20	0xbc36da3d	-0.0111604305
21	0xbe1741bf	-0.14771174
22	0x3e8802c6	0.26564616
23	0xbdfc750d	-0.12327013
24	0xbde69288	-0.11258417
25	0x3df1ac7e	0.118004784
26	0x3e490442	0.1963053
27	0xbe6941a1	-0.22778942
28	0xbde7dd8c	-0.113215536
29	0xbda107d6	-0.07862823
30	0xbe1a54c0	-0.15071392
31	0xbe1b3d41	-0.15160085
32	0xbe0302b9	-0.12794007
33	0xbe4adef4	-0.19811612
34	0x3d8de699	0.06928749
35	0xbe7737a1	-0.24142314
36	0xbd952437	-0.07282298
37	0xbe5cc4d2	-0.21559456
38	0x3a543af7	0.00080959446
39	0x3dacc745	0.08436445
40	0xbe373d4c	-0.17894477
41	0xbce166f5	-0.027514914
42	0x3e8fe845	0.28106895
43	0x3d200607	0.039068248
44	0x3e8f702c	0.28015268
45	0xbd998831	-0.074966796
46	0xbe618907	-0.22024928
47	0x3dcacb00	0.099020004
48	0x3e931de0	0.2873373
49	0xbe75545b	-0.2395796
50	0xbe4aa125	-0.19788034
51	0x3db181a2	0.086673036
52	0xbe74b6f4	-0.23897916
53	0x3d8bf41c	0.068336695
54	0x3e92c62a	0.28666812
55	0xbd4948bc	-0.04914163
56	0xbe89ba2a	-0.26899844
57	0xbdd86c0a	-0.10567482
58	0x3ca4366a	0.020045478
59	0x3e1e7149	0.15472902
60	0xbe887e0d	-0.2665867
61	0xbe85fd92	-0.2617002
62	0xbd9ea26e	-0.07745825
63	0x3e09156a	0.13387075
64	0xbd334d03	-0.043774616
65	0x3e0ceaf4	0.13761503
66	0xbddafee8	-0.10693151
67	0x3d4f52a0	0.050615907
68	0x3e824e82	0.25450522
69	0xbe886ab8	-0.2664392
70	0x3e398de4	0.18120533
71	0x3e4f0f53	0.2022069
72	0x3e7cd7c6	0.24691686
73	0xbe7f35c5	-0.24922855
74	0xbe42d7f1	-0.19027688
75	0xbe6b21c1	-0.22962095
76	0xbe2f99cf	-0.17148517
77	0x3e242a10	0.1603167
78	0x3e3e2c09	0.18571486
79	0x3e55713a	0.20843974
80	0x3dd57f57	0.10424679
81	0xbdd77290	-0.10519898
82	0xbe695670	-0.2278688
83	0xbe0ae02d	-0.13562079
84	0x3e8d39a1	0.2758303
85	0x3d8cddc6	0.068782374
86	0x3e84e9c4	0.259596
87	0xbdb2e927	-0.087358765
88	0xbe9338df	-0.28754327
89	0xbe8cdcf5	-0.27512327
90	0x3c5a6b5a	0.013331259
91	0xbe1f3fc2	-0.15551665
92	0xbd961ce8	-0.07329732
93	0x3dd13b25	0.10216359
94	0xbe1dad20	-0.15398073
95	0x3d0fe41e	0.03512966
96	0x3de2254d	0.11042271
97	0x3e35ac7c	0.17741579
98	0x3e145913	0.14487104
99	0x3e38f347	0.18061553
100	0xbe3858fc	-0.18002695
101	0x3dcb5361	0.09928013
102	0xbd0d64a4	-0.034519807
103	0x3e2716ae	0.16317245
104	0xbe8488ea	-0.25885707
105	0x3e4afab0	0.19822192
106	0xbe88d158	-0.26722217
107	0xbe89695c	-0.26838195
108	0xbe00d218	-0.12580144
109	0x3e24606d	0.16052409
110	0xbda1cb5d	-0.079001166
111	0xbe90333d	-0.28164092
112	0x3e93b8d8	0.28851962
113	0xbddaae21	-0.10677744
114	0xbdc40f55	-0.09573237
115	0x3e4835ff	0.19551848
116	0x3e05ba40	0.1305933
117	0x3e863c5e	0.26217932
118	0xbe1a7685	-0.15084274
119	0xbe5e4900	-0.21707535
120	0xbe19b8ec	-0.15011948
121	0x3e16b8d4	0.14718944
122	0xbe05c516	-0.13063464
123	0xbde9beb2	-0.11413325
124	0xbde4d0af	-0.11172616
125	0xbe369701	-0.17831041
126	0xbb2b767e	-0.0026163156
127	0xbdec6bc5	-0.11543993
128	0x3e9676f0	0.29387617
129	0x3e8f8f65	0.2803909
130	0x3dc140df	0.09436201
131	0x3e88066a	0.26567394
132	0x3d9dcbec	0.07704911
133	0xbd91a2f8	-0.07111162
134	0x3e2cccc9	0.16874994
135	0xbe5ce76c	-0.21572655
136	0x3d97ae9f	0.07406353
137	0x3e072eef	0.13201497
138	0x3d893914	0.0670034
139	0x3d437566	0.04771938
140	0xbdd52600	-0.104076385
141	0xbe2282ed	-0.15870257
142	0xbe17035d	-0.14747377
143	0x3e82e24e	0.25563282
144	0x3d92797c	0.071520776
145	0x3e960ce7	0.2930672
146	0xbe1f622c	-0.15564793
147	0xbe27b956	-0.16379294
148	0xbda766e7	-0.08173924
149	0x3dd78c1b	0.1052477
150	0x3e5c9f49	0.21545137
151	0xbe0e057c	-0.1386928
152	0x3ce4b3c0	0.027917743
153	0x3e574760	0.21023321
154	0xbda424f0	-0.08014858
155	0xbe1565d1	-0.14589621
156	0x3e3fe414	0.18739349
157	0xbe5c9aec	-0.21543473
158	0xbe7baacd	-0.24576874
159	0xbe1c16ac	-0.15243024
160	0xbe94e9f3	-0.2908474
161	0x3e454e3c	0.19268125
162	0x3e5c1ff5	0.21496566
163	0xbd8e777b	-0.06956383
164	0x3c777f2b	0.015106003
165	0x3e209f35	0.15685733
166	0xbe6af0f3	-0.22943477
167	0x3e73c9c9	0.23807444
168	0xbde56071	-0.11200035
169	0x3de92106	0.11383252
170	0xbe90a241	-0.2824879
171	0x3e543376	0.20722756
172	0xbdff967e	-0.12479876
173	0xbe857b2c	-0.26070535
174	0xbe4affac	-0.19824094
175	0x3dc0a983	0.09407332
176	0xbd3c42d5	-0.045962173
177	0xbe4fc3aa	-0.20289484
178	0x3e2b47d4	0.16726619
179	0xbd807e1d	-0.06274054
180	0xbd906fd4	-0.070525795
181	0xbe5a4026	-0.21313533
182	0xbd702220	-0.058626294
183	0xbe0651c0	-0.13117123
184	0x3e18e6aa	0.14931741
185	0x3e252ee5	0.1613117
186	0x3de0b093	0.10971179
187	0xbd90f8a4	-0.070786744
188	0x3c8ae201	0.01695347
189	0xbe3a67f3	-0.18203716
190	0x3e1c5dda	0.15270177
191	0x3e2aff77	0.16699015
192	0x3b50fbd5	0.0031888385
193	0xbd9f3dc1	-0.077754505
194	0xbdbcaf5e	-0.09213136
195	0xbe1fa1bb	-0.15589039
196	0x3e813084	0.25232327
197	0xbe90ec6b	-0.28305373
198	0x3c95d925	0.01829202
199	0x3da8e4d7	0.08246773
200	0xbe28a1c7	-0.16467963
201	0x3e89f376	0.26943558
202	0xbdce3072	-0.10067834
203	0x3a3e17c8	0.00072514685
204	0x3e631ef8	0.22179782
205	0x3e51a668	0.20473635
206	0x3e610f31	0.21978451
207	0xbd1e78fd	-0.038689602
208	0xbe2def5b	-0.16985838
209	0x3e7fdbe8	0.24986231
210	0xbe8c2275	-0.2737004
211	0x3e0005ea	0.12502256
212	0xbe8c06fd	-0.27349082
213	0xbcdcf632	-0.026972864
214	0x3dbbe1b4	0.09173909
215	0xbd3c916a	-0.046037115
216	0xbe5fd58d	-0.21858807
217	0x3d65bfdb	0.05609117
218	0xbdb414ca	-0.08793028
219	0xbe49cd72	-0.19707277
220	0x3d9a3b23	0.07530811
221	0xbe54587d	-0.2073688
222	0x3cea328b	0.028588554
223	0xbe73395b	-0.23752348
224	0x3cc10116	0.023560088
225	0x3d9c8c16	0.07643907
226	0x3cb3e428	0.02195938
227	0xbe941216	-0.28920048
228	0x3c7e28b3	0.015512633
229	0x3e82d9dd	0.25556841
230	0xbe97206d	-0.29516926
231	0xbd72a6ce	-0.05924111
232	0x3e2c595b	0.16830961
233	0x3e3b7c4d	0.18309136
234	0x3e76ffb4	0.2412098
235	0xbe70b4ce	-0.23506472
236	0x3e58307d	0.21112247
237	0xbe159fd9	-0.14611758
238	0xbe5fe52f	-0.2186477
239	0xbdb7ae0f	-0.08968746
240	0xbe710ca9	-0.23539986
241	0x3d8c1293	0.0683948
242	0x3d07a6d5	0.033118088
243	0x3d890064	0.06689528
244	0x3e7c67d9	0.2464899
245	0xbd116fe5	-0.0355071
246	0xbe370bed	-0.17875643
247	0x3e90c50e	0.2827534
248	0xbd74c0be	-0.059754126
249	0x3e311e2b	0.17296664
250	0xbe336f31	-0.17522885
251	0x3df84e1f	0.121242754
252	0x3e155a29	0.14585175
253	0x3e600df1	0.21880318
254	0xbd49ae8e	-0.049238734
255	0x3e96200c	0.29321325

input_proj.bias f4 [64]
0	0xbb8ae983	-0.0042392625
1	0x3b698638	0.003563298
2	0xba396db4	-0.0007073537
3	0x3b43df6d	0.002988781
4	0xbb40c8b2	-0.0029416499
5	0xbb7c1e0a	-0.0038470053
6	0xba97393a	-0.0011537441
7	0x3a6335df	0.000866739
8	0x3b5d5937	0.00337751
9	0x39397178	0.00017685245
10	0xbb512906	-0.003191532
11	0xbb524bc6	-0.0032088622
12	0x3b9c02d1	0.004761078
13	0xbb3659fd	-0.0027824633
14	0x3b5515df	0.0032514257
15	0x3b5ed672	0.003400233
16	0x39cdbe36	0.00039242365
17	0xbb0a87b8	-0.0021138024
18	0xbb56a3e0	-0.0032751486
19	0xbba06b26	-0.0048955856
20	0x3a9ab5d8	0.0011803461
21	0xbb5f6ca9	-0.0034091866
22	0xbba86e48	-0.0051400997
23	0xbb9f5ca9	-0.004863341
24	0x3baf610d	0.0053521455
25	0xba93e6e6	-0.0011284023
26	0xbb08919f	-0.002083875
27	0xba58b910	-0.00082673226
28	0xbb5d310e	-0.0033751163
29	0x3b71a91e	0.0036874483
30	0xbb4aaabe	-0.0030924524
31	0x3a20a747	0.0006128442
32	0xbb496960	-0.0030732974
33	0xbb766fef	-0.0037603339
34	0x3a4c152b	0.00077851367
35	0x3ab85d6c	0.0014065928
36	0xba4b6b59	-0.00077598315
37	0xbb6bc240	-0.0035973936
38	0xbb123db3	-0.0022314608
39	0xbb700197	-0.0036622041
40	0xbb3e308e	-0.002902064
41	0xbb6a692a	-0.003576825
42	0xbb5f17e8	-0.003404135
43	0x393c8ae7	0.00017980822
44	0xbb906db3	-0.0044076084
45	0x3b59fda1	0.0033262747
46	0x37e00987	2.6707317e-05
47	0x3b647f2a	0.0034865835
48	0xbb7f5965	-0.0038963195
49	0x3b79a072	0.0038090018
50	0x3b972bc2	0.0046133706
51	0xbb89f9e6	-0.0042106984
52	0x3b657009	0.0035009405
53	0x3b6c22bc	0.0036031445
54	0xbb80e909	-0.00393403
55	0x3b4b9bb0	0.0031068139
56	0xbb63d81f	-0.003476627
57	0x3b59f500	0.0033257604
58	0xbb265e26	-0.0025385707
59	0x3b489d22	0.0030611237
60	0xbba038ef	-0.0048895995
61	0x3a92d296	0.0011201676
62	0xbb1aec45	-0.0023639363
63	0xbb1ef2cf	-0.0024253612

lstm_blocks.0.rms_norm.weight f4 [64]
0	0x3f7fc70a	0.99913085
1	0x3f8092e8	1.0044832
2	0x3f802dd8	1.001399
3	0x3f7ef419	0.99591213
4	0x3f804052	1.0019629
5	0x3f80a36b	1.0049871
6	0x3f807930	1.0036983
7	0x3f805a2e	1.0027521
8	0x3f808b6f	1.0042552
9	0x3f7e874c	0.99425197
10	0x3f7fe1be	0.9995383
11	0x3f7f0f9c	0.99633193
12	0x3f7ff2ce	0.99979866
13	0x3f7ef439	0.99591404
14	0x3f7ef36b	0.99590176
15	0x3f80978b	1.0046247
16	0x3f805f60	1.0029106
17	0x3f7ee7c1	0.9957238
18	0x3f7efae6	0.9960159
19	0x3f7f1907	0.99647564
20	0x3f7ef195	0.99587375
21	0x3f7febb8	0.99969053
22	0x3f808a05	1.004212
23	0x3f80a768	1.0051088
24	0x3f7fbbc4	0.9989588
25	0x3f7f06aa	0.99619544
26	0x3f7f6c88	0.9977498
27	0x3f80ba55	1.0056864
28	0x3f7ef029	0.99585205
29	0x3f7eefa4	0.9958441
30	0x3f8099cb	1.0046934
31	0x3f7f20e2	0.9965955
32	0x3f80aab5	1.0052096
33	0x3f7f10e1	0.9963513
34	0x3f7f0549	0.9961744
35	0x3f7fe155	0.99953204
36	0x3f807a08	1.0037241
37	0x3f80952c	1.0045524
38	0x3f80881d	1.0041538
39	0x3f80aa74	1.0052018
40	0x3f8093a9	1.0045062
41	0x3f802c8a	1.0013592
42	0x3f7efd5c	0.99605346
43	0x3f7ef421	0.9959126
44	0x3f8071fe	1.0034788
45	0x3f8096ad	1.0045983
46	0x3f805e0a	1.0028698
47	0x3f804bed	1.0023171
48	0x3f80a4c8	1.0050287
49	0x3f80a01b	1.004886
50	0x3f7eb192	0.994897
51	0x3f7ee15b	0.99562615
52	0x3f7fae49	0.99875313
53	0x3f8074f2	1.0035689
54	0x3f80251d	1.0011326
55	0x3f808088	1.0039225
56	0x3f808983	1.0041965
57	0x3f80280e	1.0012224
58	0x3f802ff2	1.0014632
59	0x3f8088ae	1.0041711
60	0x3f80b1b0	1.0054226
61	0x3f7fd756	0.9993795
62	0x3f808e1f	1.0043372
63	0x3f7ef8e6	0.9959854

lstm_blocks.0.lstm_cell.weight_ih f4 [256, 64]
0	0xbde21d8e	-0.11040793
1	0xbde424a9	-0.11139805
2	0xbd3ae08a	-0.045624293
3	0xbce80fe6	-0.028327893
4	0x3dc99de6	0.0984457
5	0x3c0be3d8	0.008538209
6	0xbdf836ae	-0.12119804
7	0xbd2771c9	-0.04088
8	0xbcb64049	-0.02224745
9	0x3d931a5e	0.071827635
10	0x3dc1b478	0.0945825
11	0xbd322fae	-0.043502502
12	0x3c9a761b	0.018855145
13	0x3c51c170	0.012802467
14	0x3cc681c8	0.024231806
15	0x3d28fbcf	0.04125577
16	0x3df439e3	0.119251035
17	0x3d992860	0.07478404
18	0x3dd2ddd1	0.10296214
19	0xbc374b37	-0.011187366
20	0x3df1a346	0.1179872
21	0xbc4000f0	-0.0117189735
22	0xbdebe5e8	-0.115184605
23	0xbdde1658	-0.108441055
24	0x3d8e56a1	0.06950117
25	0x3db9bd05	0.09069256
26	0x3d0992c9	0.03358725
27	0x3df9cf83	0.12197783
28	0x3d8da618	0.069164455
29	0x3d120703	0.03565122
30	0x3df1215d	0.11773942
31	0xbd2baa82	-0.041910656
32	0xbd7088d5	-0.058724243
33	0xbd42acb7	-0.047527995
34	0x3dd5bd93	0.10436549
35	0x3dbd6f93	0.09249797
36	0x3df41814	0.11918655
37	0x3db0317d	0.08603189
38	0xbd99d11a	-0.07510586
39	0x3caf5b9c	0.021405987
40	0x3c9b165f	0.018931566
41	0x3dd6b714	0.10484138
42	0xbdd18553	-0.10230508
43	0x3dc6cd9d	0.09707186
44	0x3d9af917	0.07567041
45	0x3d46431c	0.048403844
46	0x3ce2c2e3	0.02768082
47	0xbdadb67d	-0.084820725
48	0x3cf50067	0.029907418
49	0x3d90450d	0.070444204
50	0x3d228de0	0.039686084
51	0x3d898e7b	0.06716629
52	0x3d22bdc6	0.039731763
53	0xbde48cbd	-0.11159656
54	0xbdad7561	-0.08469654
55	0xbc9da594	-0.019243993
56	0xbddb2b1d	-0.107015826
57	0x3b0eec0e	0.002180818
58	0xbd20c65d	-0.039251674
59	0x3dc59e79	0.09649367
60	0x3d610014	0.054931715
61	0xbdd6fffa	-0.104980424
62	0xbc8c9bd5	-0.01716415
63	0x3db0186b	0.08598407
64	0x3d48c323	0.049014222
65	0x3db6babd	0.08922336
66	0x3cf9e78a	0.030505914
67	0xbc9af75c	-0.018916778
68	0x3bda4782	0.0066613564
69	0x3cf7cbb3	0.030248499
70	0xbdd01902	-0.1016102
71	0x3dd228fd	0.10261724
72	0x3d826674	0.06367198
73	0x3d8fe41c	0.0702593
74	0xbe0222f3	-0.12708645
75	0xbd7fb6e0	-0.062430263
76	0x3c6b21fe	0.014351366
77	0x3c4e5dd3	0.012595612
78	0x3d90742b	0.07053407
79	0xbd5dba46	-0.054132722
80	0x3cea92d4	0.028634466
81	0xbdeb8817	-0.115005665
82	0x3b51cf0e	0.0032014283
83	0xbd173007	-0.036911037
84	0x3dcf365e	0.101177916
85	0x3cd264d4	0.025682844
86	0xbdfd2ac8	-0.123616755
87	0x3e0481b5	0.12940104
88	0x3da7f7fe	0.08201598
89	0xbcaf9641	-0.021433951
90	0x3d886f9b	0.06661912
91	0x3da0e646	0.07856421
92	0xbd21327a	-0.03935478
93	0x3d937e68	0.072018445
94	0xbda8cfde	-0.082427725
95	0xbca77d7c	-0.020445578
96	0xbd1ae28d	-0.037813712
97	0x3cc6c3a7	0.024263216
98	0xbdcde863	-0.1005409
99	0x3dc643dd	0.09680913
100	0x3d80c48b	0.062874876
101	0x3cb68a4c	0.022282742
102	0xbc11318f	-0.008861913
103	0x3c948979	0.018131958
104	0xbdbf624b	-0.0934492
105	0x3e01aeaa	0.12664285
106	0xbdedd91f	-0.11613678
107	0xbd98f0f9	-0.07467837
108	0x3b178b9b	0.0023123983
109	0x3da06626	0.07831983
110	0xbcf79aff	-0.030225275
111	0xbd7d0b5a	-0.061778404
112	0xbbec7402	-0.0072159776
113	0xbd7c355a	-0.061574318
114	0x3d57f6a6	0.052725457
115	0x3dbca615	0.09211365
116	0x3b79e0b0	0.003812831
117	0xbdb571c1	-0.088595875
118	0x3da38652	0.07984604
119	0x3dcec169	0.10095484
120	0xbd88181a	-0.06645222
121	0x3dfc70b0	0.12326181
122	0xbda5f96b	-0.08104213
123	0x3d55c78c	0.052192256
124	0x3ca9ac49	0.020712035
125	0x3bfa0f6c	0.007631233
126	0xbd1df73c	-0.03856586
127	0x3d9920b4	0.07476941
128	0x3dabdcfe	0.0839176
129	0xbde91e79	-0.11382765
130	0x3d6a77cc	0.057243153
131	0x3d372ca6	0.044720314
132	0x3ca56464	0.020189472
133	0xbcb28c15	-0.021795312
134	0x3d03779a	0.032096483
135	0x3dace5e0	0.08442283
136	0xbd85ac82	-0.06527044
137	0xbdeba303	-0.115057014
138	0xbd58c8d0	-0.052925885
139	0x3d81e3a1	0.06342245
140	0x3daef6bc	0.085431546
141	0x3d7cc37d	0.06170987
142	0xb9cb9c73	-0.0003883574
143	0xbdda04f1	-0.10645474
144	0xbd57943c	-0.0526316
145	0xbddbc797	-0.10731428
146	0xbdc2d0ce	-0.095124826
147	0xbdb8d18c	-0.09024343
148	0xbdf2f9ed	-0.11864076
149	0x3cc80e55	0.024420897
150	0x3d22e533	0.039769363
151	0xbd3730ca	-0.044724263
152	0x3d6d0491	0.057865683
153	0x3d99adcf	0.075038545
154	0xbcc4d576	-0.024027567
155	0x3dfc1c69	0.12310106
156	0x3ced8dbb	0.028998246
157	0xbd8a913c	-0.067659825
158	0xbdd3517c	-0.10318276
159	0xbdc73779	-0.097273774
160	0x3dde7ac7	0.10863262
161	0xbc6e1755	-0.01453193
162	0x3db8cb04	0.09023097
163	0x3d1346b7	0.03595611
164	0xbd05d649	-0.03267506
165	0x3dd63698	0.10459632
166	0xbcace07f	-0.021103142
167	0xbd08a936	-0.033364497
168	0xbd7a245b	-0.061069828
169	0x3cda8f2c	0.026679598
170	0xbb8b6ccc	-0.004254913
171	0xbd121ab2	-0.03566999
172	0xbd520674	-0.051275685
173	0xbd8cd157	-0.06875866
174	0xbd32469f	-0.04352438
175	0x3dfcbae7	0.12340336
176	0xbc90b8f6	-0.017666321
177	0x3bf028c8	0.0073290803
178	0xbc7d62c2	-0.01546544
179	0x3c9e9bba	0.019361366
180	0x3d65a1a6	0.056062363
181	0xbde6c0d9	-0.112672515
182	0x3dfa8245	0.12231878
183	0xbcc89c76	-0.024488669
184	0x3c2c2e9f	0.010509162
185	0xbd8dc9d9	-0.06923265
186	0x3c317ef1	0.010833488
187	0xbd8cb27d	-0.068699814
188	0xbde1c69e	-0.11024211
189	0xbd8d9182	-0.06912519
190	0x3db07466	0.08615951
191	0xbcfe1509	-0.03101589
192	0xbd94c2a8	-0.0726369
193	0xbdb4bb55	-0.08824793
194	0x3df4666d	0.11933599
195	0x3d9613b9	0.073279805
196	0xbdb6c53b	-0.089243375
197	0x3d813265	0.0630844
198	0xbbc4f902	-0.0060111294
199	0x3d98fc0e	0.074699506
200	0x3d234973	0.03986497
201	0xbdfb0e6d	-0.12258611
202	0xbd60d98c	-0.05489497
203	0xbd103a79	-0.035212014
204	0x3da48b30	0.080343604
205	0xbdccb96d	-0.09996305
206	0xbdc9796c	-0.098376125
207	0x3d68f801	0.05687714
208	0xbd002390	-0.031283915
209	0x3da4d9c2	0.080493465
210	0xbb69767e	-0.0035623605
211	0x3c46d519	0.012135767
212	0xbdae7e25	-0.08520154
213	0xbdc7fe9a	-0.09765358
214	0xbd69bacf	-0.05706292
215	0x3cc02edb	0.023459842
216	0x3c96c538	0.018404588
217	0x3ddc33cb	0.10752066
218	0x3c033488	0.00800813
219	0xbdcca56a	-0.09992488
220	0x3de6aa9b	0.11263009
221	0xbda2e746	-0.07954268
222	0x3d065942	0.032799967
223	0x3cf9b072	0.030479643
224	0x3d80ddb1	0.06292284
225	0xbc6b3e94	-0.0143581815
226	0xbd8c2cd7	-0.0684449
227	0xbdfd1724	-0.12357929
228	0x3db5df26	0.08880453
229	0x3de196bc	0.110150784
230	0xbd4e49fa	-0.05036352
231	0xbd06f645	-0.032949705
232	0xbcbd2aa0	-0.023091614
233	0x3dddd780	0.10832119
234	0x3cc16761	0.023608865
235	0x3dc7d163	0.09756734
236	0x3d8c7392	0.06857981
237	0xbd9f6d8a	-0.07784565
238	0x3d9d4495	0.076790966
239	0xbcd6a0a8	-0.026199654
240	0xbd97872d	-0.073988296
241	0x3d7d8899	0.061897848
242	0x3cd7b5e1	0.026331844
243	0x3dff2b5e	0.124594435
244	0x3de8226f	0.11334693
245	0xbda993ad	-0.0828012
246	0x3da9126a	0.08255465
247	0x3db40fee	0.08792101
248	0x3d8c0324	0.068365365
249	0x3d8c2790	0.068434834
250	0x3cd2a67b	0.02571415
251	0xbda52f94	-0.080657154
252	0xbc74ec51	-0.01494892
253	0x3c832b46	0.016011845
254	0xbdc77b9e	-0.09740375
255	0xbca3e9fb	-0.020009032

lstm_blocks.0.lstm_cell.weight_hh f4 [256, 64]
0	0x3c6401a1	0.013916404
1	0xbbe624ec	-0.0070234444
2	0x3dd38d93	0.103297375
3	0x3c1849ef	0.009294971
4	0x3c3832d2	0.011242585
5	0xbdadf7ec	-0.08494553
6	0x3dc3a93e	0.09553765
7	0x3c4a7780	0.012357593
8	0xbde21f37	-0.1104111
9	0x3ddd1411	0.10794843
10	0x3d270701	0.040778164
11	0x3e00440f	0.12525962
12	0x3dd4bc79	0.10387511
13	0xbde7056a	-0.112803295
14	0xbda90d86	-0.082545325
15	0xbdf2eb18	-0.11861247
16	0xbdaa3fe5	-0.08312968
17	0xbd74d93d	-0.059777487
18	0xbd6ed8d9	-0.05831227
19	0x3d0ab699	0.033865545
20	0xbdfa274f	-0.12214529
21	0xbce2faa1	-0.0277074
22	0xbd66c3e7	-0.05633917
23	0xbdcb21e8	-0.099185765
24	0xbd20f4c8	-0.03929594
25	0xbcc3046a	-0.023805816
26	0xbb6c249d	-0.0036032565
27	0xbcf4c2e9	-0.029878097
28	0x3de5c291	0.11218751
29	0xbde90d45	-0.11379484
30	0xbdd3aba5	-0.10335473
31	0x3da3973d	0.07987831
32	0xbe019649	-0.12654985
33	0x3dc0ee95	0.09420506
34	0x3cb4a248	0.022050038
35	0xbdc1d414	-0.09464279
36	0xbbe9f418	-0.007139694
37	0x3d072897	0.032997694
38	0x3dc3ec04	0.09566501
39	0x3d802c21	0.06258417
40	0xbd9b13be	-0.07572125
41	0xbdbe01b4	-0.092776686
42	0x3d57efe2	0.052719004
43	0xbb991aec	-0.004672399
44	0xbd523f4e	-0.051329903
45	0xbdabf1b9	-0.08395714
46	0x3d5c5265	0.053789515
47	0x3d0fa506	0.035069488
48	0xbd6747e0	-0.05646503
49	0xbd057a84	-0.032587543
50	0x3c81fb81	0.015866997
51	0xbbdf07d8	-0.006806355
52	0xbcdfcef9	-0.027320372
53	0x3da4a5d9	0.080394454
54	0xbc8bd860	-0.01707095
55	0xbddc24f1	-0.107492335
56	0xbd23275e	-0.039832465
57	0xbdd14768	-0.10218698
58	0xbc7d362d	-0.015454811
59	0xbc864554	-0.01639048
60	0x3d2a6706	0.041602157
61	0xbd2194a7	-0.039448407
62	0x3d1f7329	0.038928185
63	0xbdde4a8a	-0.10854061
64	0xbd2a9063	-0.041641604
65	0xbdb730d2	-0.089448586
66	0x3d6cd390	0.05781895
67	0x3da547be	0.08070324
68	0xbdb5e137	-0.08880847
69	0xbe028897	-0.12747417
70	0x3d629b9f	0.055324193
71	0x3c8edb83	0.017438656
72	0x3d70768d	0.05870681
73	0xbc5d2a06	-0.013498789
74	0xbcfaa290	-0.030595094
75	0x3c311e1d	0.010810402
76	0x3df4865f	0.11939692
77	0xbcb291ac	-0.021797977
78	0xbcf3f340	-0.029779077
79	0x3de7f3ac	0.113257736
80	0xbd2ef09d	-0.042709935
81	0xbd970d68	-0.07375604
82	0x3ccd47dc	0.02505868
83	0x3dd25440	0.10269976
84	0x3ddd20d5	0.10797278
85	0x3db6d6d9	0.08927698
86	0x3df38a1f	0.11891579
87	0x3dd6d3e6	0.10489635
88	0x3da1e08c	0.07904157
89	0xbd93e1f1	-0.07220829
90	0x3db5ea95	0.088826336
91	0xbd177496	-0.03697642
92	0xbd389ba6	-0.045070313
93	0x3dbc0257	0.09180134
94	0xbc87855e	-0.016543087
95	0xbd905a54	-0.07048479
96	0xbdf5032c	-0.119634956
97	0x3d84452a	0.064585045
98	0x3d700d06	0.05860617
99	0x3daf1301	0.085485466
100	0xbd18d02d	-0.037307907
101	0x3d839d5e	0.064265
102	0x3cca2071	0.024673672
103	0xbdeefdab	-0.11669477
104	0xbdd98aad	-0.106221534
105	0xbd11af17	-0.03556737
106	0x3d29df2e	0.041472606
107	0xbde25cd8	-0.11052865
108	0xbd01fbb1	-0.031734172
109	0xbcdb7a26	-0.026791643
110	0x3d1b1fde	0.037872188
111	0x3bd31ad5	0.0064424076
112	0xbd1ce672	-0.038305707
113	0x3d81bc0f	0.063346975
114	0x3dd7ad40	0.10531092
115	0xbdb96b1c	-0.090536326
116	0xbcbd6d44	-0.023123391
117	0xbd2b1370	-0.041766584
118	0xbda77d2c	-0.081781715
119	0x3ce62446	0.028093468
120	0xbd508fbd	-0.05091833
121	0xbba03460	-0.004889056
122	0xbe008d9a	-0.12554017
123	0xbce82f75	-0.028342942
124	0x3dd2f81e	0.10301231
125	0x3d2fb03d	0.042892683
126	0x3bb11240	0.005403787
127	0xbd6be633	-0.057592582
128	0xbd7956ad	-0.060873676
129	0xbcbb1d65	-0.022841165
130	0xbd806a95	-0.06270329
131	0xbdd54bbe	-0.10414837
132	0x3d6558fd	0.05599307
133	0xbd96fc90	-0.07372391
134	0xbd7de4f2	-0.061985917
135	0xbdf4b493	-0.11948504
136	0x3d90937b	0.0705938
137	0xbd0e1ef7	-0.0346975
138	0xbd22f621	-0.039785508
139	0xbd740703	-0.059577
140	0x3d423d96	0.047422014
141	0x3d7fe689	0.062475715
142	0xbdde0733	-0.10841217
143	0x3c218693	0.009858745
144	0xbc681b07	-0.0141666
145	0x3c5df814	0.013547916
146	0x3dae7927	0.08519202
147	0x3da18264	0.07886198
148	0xbd8aec1f	-0.06783318
149	0x3da470f4	0.080293566
150	0x3c44dfd3	0.0120162545
151	0xbdcff4a2	-0.10154082
152	0xbda88103	-0.08227732
153	0x3d8e800c	0.06958017
154	0x3dec1313	0.115270756
155	0x3df174eb	0.117898785
156	0xbd27c110	-0.040955603
157	0x3dab3240	0.08359194
158	0x3c57c739	0.013170057
159	0xbd89721c	-0.06711218
160	0xbdbc24da	-0.091867164
161	0xbcca3e34	-0.024687864
162	0xbdcc7f94	-0.09985271
163	0x3d3357d1	0.04378492
164	0xbc6c155d	-0.01440939
165	0xbdc76957	-0.09736889
166	0xbde40716	-0.11134164
167	0xbd13ef12	-0.036116667
168	0xbdf0f90c	-0.11766252
169	0x3d186cc6	0.03721311
170	0x3deb3403	0.1148453
171	0x3db49bd2	0.08818783
172	0xba8cc0b0	-0.0010738578
173	0xbda80bcb	-0.08205374
174	0xbca6b023	-0.02034766
175	0x3d12a056	0.03579744
176	0x3d9bd857	0.07609623
177	0x3d988187	0.074465804
178	0x3dcced54	0.10006204
179	0xbdd5792f	-0.104235046
180	0x3dd008d7	0.10157936
181	0x3df7c662	0.120983854
182	0x3d5ed365	0.05440082
183	0xbd9686e2	-0.073499456
184	0xbc526d96	-0.01284351
185	0xbd3fc5ac	-0.046819374
186	0x3c8a44a3	0.016878432
187	0x3ddd2e53	0.10799851
188	0x3daacf95	0.083403744
189	0x3cb6b46a	0.022302825
190	0x39151765	0.00014218462
191	0x3d62ef00	0.05540371
192	0xbdda8d00	-0.10671425
193	0xbcb4a65b	-0.02205198
194	0x3aaa0574	0.0012971596
195	0x3d9502f2	0.072759524
196	0x3d4fa506	0.050694488
197	0x3d8aaf40	0.067717075
198	0xbd5822d8	-0.052767605
199	0x3d70a796	0.058753572
200	0x3d97636b	0.07392009
201	0x3dfacb6b	0.1224583
202	0xbac219d4	-0.0014808723
203	0x3d51a6f9	0.05118463
204	0x3c7f6101	0.015587092
205	0xbdb1d47c	-0.08683106
206	0xbd80dac4	-0.06291726
207	0xbda32ba0	-0.07967305
208	0x3da27fa6	0.07934503
209	0x3bb07923	0.0053855344
210	0x3cfeb0ee	0.031090226
211	0x3cd25b5d	0.025678331
212	0xbd274bb2	-0.040843673
213	0xbd74655e	-0.059666984
214	0x3de1fd71	0.11034668
215	0x3dce0fd9	0.100616165
216	0x3b736ae2	0.0037142565
217	0x3d4b68bf	0.04966044
218	0x3db7dc77	0.08977597
219	0xbde3ccc3	-0.111230396
220	0x3da9f0eb	0.082979046
221	0xbcd829a7	-0.026387049
222	0xbdaec1ce	-0.08533059
223	0xbd81ed37	-0.06344073
224	0xbddb3de2	-0.107051626
225	0x3dff1f45	0.12457136
226	0x3dc22bef	0.09481036
227	0xbd5dbbdf	-0.054134246
228	0x3cf0488a	0.029331464
229	0x3cce44b3	0.025179243
230	0x3d7f492a	0.062325634
231	0x3d9044c9	0.0704437
232	0xbda577d5	-0.08079497
233	0xbda86e27	-0.08224135
234	0x3dd74951	0.10512031
235	0xbddb2b85	-0.1070166
236	0xbde92924	-0.113848
237	0x3bc99a91	0.006152459
238	0xbabb029b	-0.0014267744
239	0x3c9f4ab5	0.019444803
240	0xbd92a8f8	-0.071611345
241	0xbdce9811	-0.10087598
242	0xbb114504	-0.002216638
243	0xbd278f7f	-0.040908333
244	0xbd84d2d3	-0.06485524
245	0x3deb766f	0.11497199
246	0xbd55dd07	-0.05221274
247	0x3dcef60b	0.10105523
248	0x3ba0da23	0.0049088164
249	0x3d941288	0.07230097
250	0xbd2713ab	-0.04079024
251	0x3c456a7b	0.012049313
252	0x3da4f5c5	0.08054689
253	0x3d6efe77	0.058348145
254	0x3b282957	0.0025659406
255	0xbda15676	-0.07877819

lstm_blocks.0.lstm_cell.bias_ih f4 [256]
0	0x3b36cb33	0.0027892112
1	0x3c8ad6c7	0.016948117
2	0x3c5ee773	0.0136049865
3	0x3b2b6527	0.002615282
4	0x3d627c38	0.055294245
5	0xbc92c7b3	-0.01791749
6	0xbd827d65	-0.06371573
7	0x3d0a5f7b	0.033782464
8	0x3da07aee	0.07835947
9	0x3db6d38a	0.089270666
10	0xbde932b3	-0.11386623
11	0xbd898129	-0.067140885
12	0x3d73a1a3	0.05948032
13	0x3d935941	0.07194758
14	0x3da39992	0.079882756
15	0x3d8f184c	0.06987056
16	0x3ce79740	0.028270364
17	0x3db411a7	0.087924294
18	0x3d90480f	0.07044994
19	0x3d1c8d5b	0.038220745
20	0x3d3d8bc0	0.046275854
21	0xbd2eaf06	-0.042647384
22	0xbdbe35e8	-0.092876256
23	0xbd18e454	-0.037327126
24	0xbcf3e21a	-0.0297709
25	0xbdb88949	-0.0901056
26	0xbd30a298	-0.04312381
27	0xbd78ae44	-0.060713068
28	0xbd16bf4b	-0.036803525
29	0xbda0d329	-0.078527756
30	0xbdc25427	-0.09488707
31	0x3dbc1906	0.0918446
32	0xbd478418	-0.04870996
33	0x3df347c4	0.118789226
34	0xbd906490	-0.07050431
35	0xbd8e024f	-0.06934034
36	0x3dc27102	0.09494211
37	0x3d69c11a	0.05706892
38	0xbd072f2b	-0.033003967
39	0xbcd6d33c	-0.026223771
40	0x3dc6e28b	0.097111784
41	0xbde7693d	-0.112993695
42	0xbdca7cdf	-0.098870985
43	0xbd8bd1da	-0.068271354
44	0xbc8ce7ff	-0.017200468
45	0x3cc33033	0.023826694
46	0xbcab8cda	-0.020941187
47	0x3e01fa1b	0.12693064
48	0x3d82ddce	0.06389962
49	0xbd793393	-0.0608402
50	0xbd6ea072	-0.05825848
51	0xbd928ba5	-0.07155541
52	0xbcf94a52	-0.030430946
53	0xbdcae014	-0.09906021
54	0xbd8f1685	-0.06986717
55	0x3db4cd0d	0.08828173
56	0xbd97b384	-0.07407287
57	0x3df73e4d	0.1207243
58	0xbc0ccbe3	-0.008593532
59	0x3ddff306	0.10935025
60	0xbdd4d0bb	-0.10391375
61	0x3d65b77f	0.0560832
62	0x3d9a5aa7	0.07536822
63	0xbde0d380	-0.109778404
64	0xbd6c550b	-0.05769829
65	0xbce14661	-0.02749938
66	0xbafed1b6	-0.0019441161
67	0x3b08255c	0.002077422
68	0xbd091b3b	-0.033473235
69	0xbd217866	-0.03942146
70	0x3e037734	0.12838441
71	0x3b242605	0.0025047075
72	0x3d27b71f	0.040946122
73	0xbdc30295	-0.09521977
74	0xbd4754d6	-0.04866489
75	0x3d833574	0.0640668
76	0xbc21de07	-0.009879596
77	0xbad8c0ad	-0.0016536914
78	0xbda11fd7	-0.07867401
79	0xbd6b8838	-0.057502955
80	0x3c850fe9	0.016242938
81	0x3cba88a1	0.022770228
82	0xbd2d258f	-0.042272147
83	0xbd920876	-0.0713052
84	0xbd02e10a	-0.031952895
85	0xbcfd43a2	-0.030916039
86	0x3dbab512	0.09116568
87	0xbcd73086	-0.026268255
88	0xbde464e5	-0.111520566
89	0xbb9cabc7	-0.0047812196
90	0x3dedd00a	0.11611946
91	0x3da43942	0.080187336
92	0x3d89b321	0.06723619
93	0x3d0d4440	0.034488916
94	0xbd33e4e5	-0.043919463
95	0x3b3d21cd	0.0028859258
96	0xbdf409ed	-0.11915956
97	0x3da5e5b3	0.08100452
98	0x3df379e9	0.11888487
99	0xbc9609bd	-0.01831519
100	0x3d13c78c	0.036078975
101	0xbdf5f087	-0.120087676
102	0x3de4b0e1	0.111665495
103	0x3cf3ee36	0.029776674
104	0xbd7aaf4b	-0.06120233
105	0xbbe9d11b	-0.007135523
106	0xbd717e3e	-0.058958285
107	0x3d5abd9d	0.053403486
108	0x3d349022	0.04408277
109	0xbda77a89	-0.081776686
110	0x3db0c704	0.08631709
111	0x3d9acd0f	0.07558643
112	0xbd3ec54b	-0.046574872
113	0x3ce6d103	0.028175836
114	0x3dc906aa	0.09815724
115	0x3db5f7f6	0.088851854
116	0xbd11e5d2	-0.035619564
117	0xbca0891f	-0.019596634
118	0xbdbc6c8a	-0.0920039
119	0x3db5ca03	0.08876421
120	0xbdad6fb5	-0.08468572
121	0xbda7bb0a	-0.08189972
122	0x3d4c39a4	0.049859658
123	0xbd6e7863	-0.05822028
124	0x3d1287ee	0.035774164
125	0xbd8e1d28	-0.06939155
126	0x3d9c601a	0.076355174
127	0xbd8f1888	-0.06987101
128	0xbdc13988	-0.09434801
129	0xbd094b1d	-0.0335189
130	0xbd1f2168	-0.038850218
131	0xbd8c1ecb	-0.06841811
132	0x3de4e079	0.11175627
133	0x3dcaabaa	0.098960236
134	0x3d6391b9	0.055558894
135	0x3d6c92f9	0.05775735
136	0x3dcb8898	0.099381626
137	0xbda9e18d	-0.082949735
138	0xbdbabe1c	-0.09118292
139	0xbcf27919	-0.02959876
140	0x3c84ef4e	0.01622739
141	0x3ce17de0	0.027525842
142	0x3dbe3f86	0.0928946
143	0xbc1a441c	-0.009415653
144	0x3d771415	0.060321886
145	0xbc8bd3c9	-0.01706876
146	0xbdeaad27	-0.114588074
147	0xbd3269ec	-0.043558046
148	0xbcf9a321	-0.030473294
149	0x3dd11d53	0.10210671
150	0x3d12ec6e	0.03587001
151	0x3dfcb49c	0.12339136
152	0xbdc99dc6	-0.09844546
153	0xbde7d7b7	-0.11320441
154	0x3dce7bec	0.1008223
155	0xbd4fbb4b	-0.050715726
156	0xbd6187e0	-0.05506122
157	0xbdf40052	-0.119141236
158	0x3d9029eb	0.07039245
159	0xbd5830d7	-0.052780952
160	0x3dea4549	0.11438996
161	0x3dde503b	0.108551465
162	0xbd2b941e	-0.041889302
163	0xbda4b8ef	-0.08043086
164	0x3dd638c1	0.10460044
165	0x3de2cdee	0.11074434
166	0xbd9032d3	-0.07040944
167	0xbd223c35	-0.0396082
168	0x3d796cdb	0.06089483
169	0xbdedb56f	-0.11606871
170	0x3cac2030	0.021011442
171	0x3d8a7b24	0.067617685
172	0x3dce24a1	0.1006558
173	0xbdf5048f	-0.1196376
174	0xbd5f6633	-0.054540824
175	0x3d57b28e	0.052660517
176	0x3d9d88c3	0.07692101
177	0x3d75a8cb	0.059975427
178	0x3df47cfa	0.119379
179	0xbcd9a1af	-0.026566355
180	0xbd8ec977	-0.0697202
181	0xbdbce5ad	-0.09223495
182	0xbdf1e6d9	-0.11811609
183	0xbcf01964	-0.029308982
184	0xbdc59b5c	-0.09648773
185	0xbc6b0f47	-0.014346904
186	0x3d479f98	0.048736185
187	0xbdbc5f63	-0.09197881
188	0xbd6946fe	-0.05695247
189	0x3d593b01	0.053034786
190	0xbd558142	-0.052125223
191	0x3d2b9c46	0.04189708
192	0x3d250d7f	0.040296074
193	0xbc963510	-0.018335849
194	0x3ca70941	0.020390155
195	0x3cd79230	0.026314825
196	0xbd70d37a	-0.05879543
197	0xbdcb23ea	-0.099189594
198	0xbde1d6e5	-0.11027316
199	0x3ddd4584	0.10804275
200	0xbd2ce67e	-0.042212002
201	0xbbbe0183	-0.00579852
202	0xbd711fe1	-0.058868293
203	0xbd5b7bd4	-0.05358489
204	0x3d9048a0	0.07045102
205	0xbd2c6e49	-0.042097364
206	0xbdb75f70	-0.0895375
207	0x3df0b731	0.11753691
208	0xbc74910f	-0.014927163
209	0x3da27781	0.0793295
210	0x3d04251f	0.032261964
211	0xbdb534aa	-0.088479355
212	0xbcff031d	-0.031129414
213	0xbd35c56f	-0.04437774
214	0x3d0cc478	0.034367055
215	0x3c9a3196	0.018822473
216	0x3daa5afc	0.08318135
217	0xbba337f4	-0.0049810354
218	0x3cc716d6	0.024302881
219	0x3d03ccee	0.032177858
220	0xbcf8f52b	-0.030390343
221	0x3c7fac58	0.015605055
222	0xbdbe9b8b	-0.09307011
223	0xbd2c843f	-0.042118307
224	0x3d622cb0	0.0552184
225	0xbd3a7f95	-0.045531828
226	0xbbe2796d	-0.0069114477
227	0xbdf81f16	-0.12115304
228	0xbdeae196	-0.11468808
229	0xbd809d5b	-0.06280013
230	0xbd8d07bc	-0.06886241
231	0xbdbab4ed	-0.0911654
232	0x3da14001	0.07873536
233	0xbd8e4005	-0.069458045
234	0xbc831899	-0.01600294
235	0x3d07c6cb	0.033148568
236	0xbdc3101f	-0.09524559
237	0x3db3a4a6	0.087716386
238	0x3e00cb25	0.12577493
239	0x3dfb3dab	0.122676216
240	0x3d4c0149	0.049805913
241	0x3dad7e0e	0.08471309
242	0xbcb52481	-0.022112133
243	0x3d7c0047	0.061523702
244	0xbda49d6a	-0.08037837
245	0xbddeff8b	-0.10888585
246	0x3db164c0	0.08661795
247	0x3d74afb9	0.059737895
248	0xbdfcd4ee	-0.123453006
249	0xbcd2dce0	-0.025740087
250	0xbd1c6adf	-0.038187858
251	0x3dba314a	0.090914324
252	0x3d33ca05	0.043893833
253	0xbdecee90	-0.1156894
254	0xbcb36458	-0.021898434
255	0xbde500ed	-0.11181817

lstm_blocks.0.lstm_cell.bias_hh f4 [256]
0	0x3daff4dc	0.08591625
1	0xbdb1b53f	-0.08677148
2	0x3ca5fb03	0.020261293
3	0xbd0c09f6	-0.034189187
4	0x3d75d556	0.060017906
5	0xbdb80cb1	-0.08986796
6	0xbd076b92	-0.03306157
7	0x3d1d696c	0.038430616
8	0xbda47b1c	-0.08031294
9	0xbdb5f9c1	-0.088855274
10	0x3d5df7d8	0.05419144
11	0xbdb9b4c6	-0.09067683
12	0xbdf806b3	-0.12110653
13	0xbde3e06d	-0.1112679
14	0x3c5a454a	0.013322184
15	0xbd17012a	-0.036866345
16	0xbd9bd4a4	-0.07608917
17	0xbca4b22a	-0.020104486
18	0x3db04c51	0.08608306
19	0x3beb00bc	0.0071717184
20	0xbdea64c4	-0.11445001
21	0xbe004f8f	-0.12530349
22	0x3df81f47	0.12115341
23	0x3d19b901	0.03752995
24	0x3de53df1	0.11193455
25	0x3db83ed1	0.08996356
26	0x3d503d97	0.050839987
27	0x3dee5fb0	0.11639345
28	0xbdda2cac	-0.10653052
29	0xbb9a816c	-0.0047151353
30	0x3ddff768	0.10935861
31	0xbddb059c	-0.10694429
32	0xbdb21ab0	-0.086964965
33	0xbd587175	-0.052842576
34	0xbd86b36d	-0.065771915
35	0x3d31f890	0.04344994
36	0xbd0ab0ee	-0.03386014
37	0xbdbbbf2d	-0.09167323
38	0x3cc54ed0	0.024085432
39	0xbdf38e84	-0.11892417
40	0xbd8ef02f	-0.06979405
41	0xbd952f6b	-0.07284435
42	0x3dc5670c	0.09638795
43	0x3d941cfd	0.072320916
44	0xbcde44d8	-0.027132437
45	0x3cf43380	0.029809713
46	0x3dfc581b	0.12321492
47	0x3d44ff39	0.04809496
48	0xbd9e4a40	-0.07729006
49	0xbda12d26	-0.078699395
50	0x3dcac86f	0.09901511
51	0x3d8a49cf	0.06752359
52	0x3da89a11	0.08232511
53	0x3d221eac	0.039580032
54	0x3bc0f8a5	0.0058890157
55	0xbdd2307a	-0.102631524
56	0x3cfd1d7b	0.030897846
57	0x3db2fd44	0.08739713
58	0x3dede413	0.11615767
59	0x3d8ce696	0.06879918
60	0x3ddf3dc2	0.10900451
61	0xbd5a06df	-0.05322921
62	0xbdf00c92	-0.117211476
63	0x3df6a872	0.12043847
64	0xbdf6526c	-0.120274395
65	0xbd4d0f72	-0.050063558
66	0xbd8e0b60	-0.06935763
67	0xbd1b5ae0	-0.037928462
68	0xbd14f59a	-0.036367036
69	0xbdee9789	-0.11649997
70	0xbd00d60f	-0.031454142
71	0x3dd6712f	0.10470807
72	0xbdb8523f	-0.09000062
73	0xbc295721	-0.010335715
74	0x3dcdc497	0.10047262
75	0xbd9a4b54	-0.07533899
76	0x3da20969	0.07911951
77	0xbd55b3af	-0.052173313
78	0x3d02896d	0.03186934
79	0xbc8b3781	-0.01699424
80	0x3cbcaedc	0.023032598
81	0x3d02c644	0.031927362
82	0x3d8d9f6d	0.06915174
83	0x3daa15c7	0.08304935
84	0xbd4fdc2d	-0.050747085
85	0xbcbc47e4	-0.022983499
86	0x3df2dce2	0.11858536
87	0xbcb41a31	-0.021985145
88	0xbdb4ee9c	-0.088345736
89	0xbc839857	-0.016063852
90	0xbd92cc97	-0.07167929
91	0x3dcc4d97	0.099757366
92	0x3d20f581	0.03929663
93	0xbd4eb71f	-0.050467607
94	0xbd5f92e8	-0.05458346
95	0xbdf1e2c0	-0.11810827
96	0x3d3a3fb9	0.045470927
97	0xbddf8826	-0.1091464
98	0xbdba2cd4	-0.090905815
99	0x3d019a0c	0.03164105
100	0x3d38fecf	0.04516488
101	0x3da8409d	0.08215449
102	0xbce0668f	-0.027392654
103	0xbd38610a	-0.04501442
104	0x3cee2275	0.029069165
105	0xbde6321d	-0.11240027
106	0xbd31ef6d	-0.043441225
107	0xbd639788	-0.055564433
108	0x3d91ce40	0.07119417
109	0xbdc4fea5	-0.09618882
110	0x3d3cd07b	0.04609726
111	0xbd1b2086	-0.037872814
112	0x3dedcf40	0.116117954
113	0x3d10a2f7	0.035311665
114	0x3cbdca59	0.023167776
115	0xbbc25f48	-0.0059317686
116	0x3bc09ad1	0.0058778306
117	0x3da7efd8	0.082000434
118	0xbca633e5	-0.020288417
119	0xbd0a4469	-0.033756647
120	0xbd974999	-0.073870845
121	0x3e0016d7	0.12508713
122	0x3db4bec5	0.08825449
123	0x3c511c5a	0.012763107
124	0xbd9d06fc	-0.07667348
125	0xbb5c71fe	-0.003363728
126	0xbdce93fc	-0.100868195
127	0xbd958e71	-0.07302559
128	0xbde32c3a	-0.1109242
129	0x3d956ca6	0.07296114
130	0xbcad128a	-0.021127004
131	0x3da32b26	0.07967214
132	0xbd4d11e2	-0.050065883
133	0xbdafe161	-0.085879095
134	0x3dfc7987	0.12327867
135	0xbc8496b0	-0.016185135
136	0x3d992f0d	0.07479677
137	0x3d850e56	0.06496875
138	0x3d29e4a6	0.04147782
139	0x3de090b4	0.109651
140	0xbc7e6d16	-0.015528938
141	0xbdd6aeaf	-0.10482537
142	0x3daf4cdf	0.08559584
143	0x3db4ef11	0.08834661
144	0xbd877aee	-0.06615244
145	0x3d3a7ee7	0.04553118
146	0xbd828f41	-0.0637498
147	0xbd3f5c5f	-0.04671895
148	0x3c585a1f	0.01320508
149	0xbd9049fe	-0.07045363
150	0xbd45015a	-0.048096992
151	0x3d17bfdb	0.037048202
152	0x3d6065eb	0.054784697
153	0xba03f3d5	-0.0005033587
154	0xbda1205f	-0.078675024
155	0x3c930cbe	0.017950412
156	0xbde781de	-0.11304067
157	0x3c4e2def	0.012584194
158	0xbd16afd2	-0.03678877
159	0x3d163997	0.036676016
160	0xbc9d87ea	-0.019229848
161	0xbe020a46	-0.12699232
162	0x3d5ecf0e	0.05439668
163	0x3defc496	0.11707418
164	0x3df5a3b5	0.11994115
165	0xbdd37fd0	-0.10327113
166	0x3d145106	0.036210082
167	0xbc37e31a	-0.011223579
168	0xbd450fe8	-0.048110873
169	0x3df9cf6e	0.12197767
170	0xbd801828	-0.062546074
171	0x3cc2d2df	0.023782192
172	0xbc8d5f2a	-0.017257292
173	0xbcf5578a	-0.029948968
174	0xbb548742	-0.0032429253
175	0xbd9ad7cd	-0.07560692
176	0xbc81c2d4	-0.015839972
177	0xbdeddac8	-0.11613995
178	0x3ded6a8c	0.11592588
179	0x3d16df20	0.036833882
180	0x3dd33aff	0.10313987
181	0xbb5f0c9e	-0.003403462
182	0xbd8fd657	-0.07023304
183	0x3d82d1f6	0.06387703
184	0xbdbef721	-0.0932448
185	0xbde1296e	-0.1099423
186	0x3d20094d	0.03907137
187	0x3d9fb850	0.07798827
188	0x3d2320e2	0.03982628
189	0x3debc7d5	0.11512724
190	0xbbb25207	-0.0054419073
191	0x3d9f7b29	0.07787163
192	0xbd483c80	-0.048885822
193	0x3db6cbe6	0.08925609
194	0xbc8681cb	-0.016419312
195	0xbdcab77b	-0.09898277
196	0xbd2dd98f	-0.04244381
197	0xbcaa9cb8	-0.020826682
198	0x3dc1c593	0.094615124
199	0xbcd6ba3f	-0.026211856
200	0x3db116ab	0.08646902
201	0xbcf4c3e8	-0.029878572
202	0x3dba9d58	0.09112042
203	0xbccb3dad	-0.024809683
204	0xbdb90764	-0.09034613
205	0xbc68c95c	-0.014208164
206	0x3d21c674	0.0394959
207	0x3dee9534	0.11649552
208	0xbdc42328	-0.09577018
209	0x3dafa5e3	0.08576562
210	0xbd46cbe8	-0.048534304
211	0xbcbb604b	-0.022873065
212	0xbd69c1e9	-0.057069693
213	0xbd99bd38	-0.07506794
214	0xbd8d1de7	-0.06890469
215	0xbde4d6e9	-0.11173803
216	0x3dfef642	0.12449314
217	0xbc28e423	-0.010308298
218	0xbbd594bb	-0.006517974
219	0x3dfc1ace	0.123098
220	0xbdb54bbb	-0.08852335
221	0x3dd3d2a1	0.10342909
222	0xbd845e6d	-0.06463323
223	0xbd99d89e	-0.075120196
224	0x3d3ef60d	0.04662137
225	0xbdd94a98	-0.10609931
226	0xbcecc823	-0.028904026
227	0xbdc7a6d8	-0.0974862
228	0xbcfacc19	-0.0306149
229	0x3cb07a88	0.021542802
230	0x3d886990	0.066607594
231	0x3df4c5ce	0.11951791
232	0xbd91b63d	-0.07114837
233	0xbd945a2f	-0.07243764
234	0xbddef6f8	-0.10886949
235	0xbdf86030	-0.12127721
236	0x3d770bd3	0.06031401
237	0xbd2c8551	-0.042119328
238	0xbda47dd5	-0.08031813
239	0x3ce455d2	0.027872954
240	0x3cf39204	0.029732712
241	0x3c3a5654	0.011373121
242	0x3cf82311	0.030290158
243	0x3ccfbbc7	0.025358094
244	0x3de54151	0.11194099
245	0xbde27097	-0.11056631
246	0xbde02d8b	-0.10946187
247	0x3c433dd7	0.011916599
248	0x3df3547d	0.11881349
249	0x3dd87c41	0.105705746
250	0x3db9afc0	0.09066725
251	0xbd8d37b8	-0.06895393
252	0xbd707fbe	-0.058715574
253	0xbdb45fc0	-0.08807325
254	0x3c55560f	0.013021006
255	0x3deea82c	0.1165317

lstm_blocks.1.rms_norm.weight f4 [64]
0	0x3f80838e	1.0040147
1	0x3f800b58	1.0003462
2	0x3f7fb243	0.9988138
3	0x3f7ed6b8	0.99546385
4	0x3f800479	1.0001365
5	0x3f7feb9c	0.99968886
6	0x3f803e30	1.0018978
7	0x3f808596	1.0040767
8	0x3f80674f	1.0031527
9	0x3f7fc340	0.999073
10	0x3f7f00f5	0.99610835
11	0x3f7fd751	0.9993792
12	0x3f809a6f	1.0047129
13	0x3f80a029	1.0048877
14	0x3f7ef28c	0.9958885
15	0x3f809deb	1.0048193
16	0x3f80a3b7	1.0049962
17	0x3f7f2233	0.9966156
18	0x3f808181	1.0039521
19	0x3f7f47dc	0.99719024
20	0x3f7f1a1c	0.99649215
21	0x3f8098ca	1.0046628
22	0x3f7ef625	0.99594337
23	0x3f80795b	1.0037035
24	0x3f809680	1.0045929
25	0x3f7efb0d	0.99601823
26	0x3f7fe2b7	0.99955314
27	0x3f800a7b	1.0003198
28	0x3f7f5d22	0.99751484
29	0x3f7f3040	0.99683
30	0x3f7feab0	0.9996748
31	0x3f7f1397	0.99639267
32	0x3f80557d	1.0026089
33	0x3f808d6b	1.0043157
34	0x3f7fba68	0.9989381
35	0x3f7f94b9	0.9983631
36	0x3f7efdd0	0.9960604
37	0x3f809895	1.0046564
38	0x3f7f4b35	0.9972413
39	0x3f802115	1.0010096
40	0x3f80a8aa	1.0051472
41	0x3f7fcf5d	0.99925786
42	0x3f7ef55f	0.99593157
43	0x3f807ce8	1.0038118
44	0x3f807daa	1.003835
45	0x3f7f90e3	0.99830455
46	0x3f7ed9b5	0.99550945
47	0x3f8078a1	1.0036813
48	0x3f80a762	1.0051081
49	0x3f800dd7	1.0004224
50	0x3f7f6a9d	0.99772054
51	0x3f80886e	1.0041635
52	0x3f80011d	1.000034
53	0x3f7f7034	0.99780583
54	0x3f80921d	1.004459
55	0x3f7f184b	0.99646443
56	0x3f7f8431	0.99811083
57	0x3f8095b9	1.0045692
58	0x3f7f40cd	0.99708253
59	0x3f7fef2c	0.9997432
60	0x3f7ff376	0.99980867
61	0x3f7f0b5a	0.99626696
62	0x3f809b81	1.0047456
63	0x3f805e39	1.0028754

lstm_blocks.1.lstm_cell.weight_ih f4 [256, 64]
0	0x3de7309d	0.11288569
1	0xb4aaeaa5	-3.1835694e-07
2	0xbd011b9c	-0.03152047
3	0xbdcf5e80	-0.10125446
4	0x3d009e0d	0.03140073
5	0xbd85acce	-0.065271005
6	0xbd09aacb	-0.033610146
7	0x3c89b180	0.016808271
8	0xbdbaa602	-0.09113695
9	0x3d58027a	0.052736737
10	0xbc55dbde	-0.013052909
11	0x3c3a1b05	0.011358981
12	0x3d0b9f8a	0.034087695
13	0xbdd33035	-0.10311929
14	0x3de0abe6	0.10970287
15	0x3cba4d0f	0.022741823
16	0xbdd180e8	-0.10229665
17	0x3deebcef	0.1165713
18	0x3d831640	0.06400728
19	0xbd2c155c	-0.042012557
20	0x3dc06427	0.093941025
21	0xbc741ceb	-0.014899473
22	0x3d85b666	0.0652893
23	0x3d19ad04	0.037518516
24	0x3d1ef7fc	0.038810715
25	0xbddd77d3	-0.1081387
26	0x3c77edc6	0.015132373
27	0x3b4e5467	0.0031483413
28	0x3d8962cc	0.06708297
29	0x3d08b12c	0.03337209
30	0x3dd38b7a	0.103293374
31	0x3d2248bd	0.03962015
32	0x3ca08b0b	0.01959755
33	0x3d27b831	0.040947143
34	0x3c860c82	0.016363386
35	0x3bb4ae3e	0.0055139353
36	0x3d6404f5	0.05566879
37	0x3d763672	0.060110517
38	0x3d877e3c	0.06615874
39	0x3da63e96	0.08117406
40	0xbde25154	-0.11050668
41	0x3cd84980	0.026402235
42	0xbdaa64f0	-0.083200336
43	0xbbfaf284	-0.0076583046
44	0xbc304982	-0.010759713
45	0xbdb4e5fb	-0.08832928
46	0xbce6741c	-0.028131537
47	0xbcdf426b	-0.02725335
48	0xbd8dcfc6	-0.06924395
49	0xbc3206d1	-0.010865883
50	0x3c4130e0	0.011791438
51	0x3d959085	0.073029555
52	0x3d3a9ef4	0.045561746
53	0xbdd7af60	-0.10531497
54	0x3d71660c	0.05893521
55	0x3d9c3ccb	0.07628783
56	0xbd980fc5	-0.07424883
57	0xbb319f16	-0.002710288
58	0x3d914ca6	0.07094698
59	0xbcfcbfb5	-0.030853132
60	0xbd4c4246	-0.04986789
61	0x3d785954	0.060632065
62	0x3dac618d	0.08417044
63	0x3d2023b6	0.039096557
64	0x3d42cbec	0.047557756
65	0xbd87a732	-0.06623687
66	0xbdafebbe	-0.08589886
67	0x3d497f18	0.04919347
68	0xbd34b41b	-0.044117074
69	0xbbc356ec	-0.0059612896
70	0x3dc49d4a	0.09600313
71	0xbdbed793	-0.09318461
72	0xbdfacd7b	-0.122462235
73	0xbd9a52c7	-0.0753532
74	0xbda67915	-0.08128563
75	0x3dee7736	0.116438314
76	0xbc6381ec	-0.013885956
77	0x3a673a41	0.0008820631
78	0xbd2506dc	-0.040289745
79	0xbdfd615c	-0.123720855
80	0x3df1c6c4	0.1180549
81	0xbcad0f72	-0.021125529
82	0x3b17f4d1	0.0023186693
83	0x3cd03b08	0.025418773
84	0x3dcd6e44	0.10030797
85	0xbd9e7938	-0.077379644
86	0x3db4ddec	0.08831391
87	0x3d6ffd55	0.058591206
88	0x3c8b24df	0.016985355
89	0xbb03358a	-0.0020020925
90	0xbd06651c	-0.03281127
91	0x3c34ebac	0.011042517
92	0x3db7ef6a	0.089812115
93	0xbc8e7eb0	-0.017394394
94	0x3dc808de	0.09767316
95	0xbd7a4a59	-0.06110606
96	0xbe01b5a7	-0.12666951
97	0x3dd465bf	0.10370969
98	0xbe0163f4	-0.12635785
99	0x3dcc10ae	0.09964119
100	0xbd6d8dda	-0.05799661
101	0x3da492b7	0.08035796
102	0xbd903e58	-0.07043141
103	0xbdb0f9d0	-0.08641398
104	0x3d61e22d	0.05514734
105	0x3dacdba2	0.08440329
106	0xbb83582a	-0.0040083127
107	0xbda69135	-0.08133165
108	0x3db81cb9	0.089898534
109	0x3d1abbca	0.037776746
110	0xbd7aeba7	-0.06125989
111	0x3ca5f3f5	0.02025793
112	0x3df2a380	0.118475914
113	0x3da9f3b9	0.082984395
114	0x3d10b44d	0.0353282
115	0xbdd03c64	-0.101677686
116	0xbd815af1	-0.06316174
117	0xbd4cfe4f	-0.050047215
118	0xbd1c0a40	-0.038095713
119	0x3d04ad4a	0.032391824
120	0xbdd034a4	-0.101662904
121	0x3d1a7607	0.037710216
122	0x3dde8cf7	0.10866731
123	0xbdbb31fc	-0.09140393
124	0xbd57fcdd	-0.052731384
125	0x3d5a568e	0.0533052
126	0x3d5565cc	0.052099034
127	0x3d1a7bcb	0.037715714
128	0xbd449854	-0.047996834
129	0x3d158015	0.0364991
130	0x3d3afbfb	0.045650464
131	0xbd3a38b7	-0.045464244
132	0x3cdca7fa	0.026935566
133	0xbd8bc5b6	-0.0682482
134	0xbddb2008	-0.10699469
135	0xba1d9b40	-0.0006012209
136	0xbde2a60e	-0.11066829
137	0x3d9d5482	0.07682134
138	0xbd7e3caa	-0.062069573
139	0x3d9ae557	0.07563274
140	0xbdbb8c57	-0.09157627
141	0x3de9b5b2	0.11411609
142	0x3d8339ba	0.06407495
143	0xbda896d8	-0.08231896
144	0x3c905e15	0.017622987
145	0x3c4d64d6	0.012536248
146	0xbc5b0efd	-0.013370273
147	0xbd681e56	-0.056669556
148	0x3e007a92	0.12546757
149	0xbcde6110	-0.027145892
150	0xbde33ebe	-0.110959515
151	0xbd1a5ebc	-0.037688002
152	0xbdca3456	-0.098732635
153	0xbc683905	-0.014173751
154	0x3d13e311	0.03610522
155	0x3d0e756b	0.034779947
156	0x3dab0fac	0.083525985
157	0xbaa8966c	-0.0012862212
158	0x3d369c2b	0.044582527
159	0x3c990219	0.018677758
160	0xbdf3ac7f	-0.118981354
161	0x3bfa8204	0.0076448936
162	0x3d9d65c9	0.076854296
163	0xbdc8d472	-0.09806146
164	0xbdb3cab5	-0.08778898
165	0x3d7491e5	0.05970945
166	0xbc6681b9	-0.014069014
167	0xbbcee1b3	-0.0063135265
168	0xbdbeba1f	-0.093128435
169	0xbc28a042	-0.010292115
170	0xbd65dc6f	-0.056118425
171	0x3cb92271	0.02259943
172	0xbdf16beb	-0.11788162
173	0x3d600ebe	0.05470156
174	0x3dcf9a4d	0.101368524
175	0xbcf41d53	-0.02979914
176	0xbc9d3e5a	-0.01919477
177	0x3df02f4e	0.11727773
178	0x3d9e8c04	0.077415496
179	0xbd1bee4c	-0.038069054
180	0x3d98a974	0.074541956
181	0xbd959a88	-0.07304865
182	0x3d2e2757	0.042517986
183	0x3d98faed	0.07469735
184	0x3c390c53	0.011294442
185	0xbbd6ff42	-0.006561191
186	0xbc2db0df	-0.010601251
187	0xbdef8dae	-0.11696945
188	0x3df5f9f9	0.12010569
189	0x3e00ace0	0.12565947
190	0x3d95ab24	0.07308033
191	0x3dca193a	0.09868093
192	0xbd61a2fe	-0.055087082
193	0x3d655a1d	0.05599414
194	0x3d9d5da9	0.0768388
195	0x3ddf30c0	0.1089797
196	0xbd98d928	-0.07463294
197	0x3d6d1b18	0.057887167
198	0xbdb85358	-0.090002716
199	0xbdf0fe85	-0.11767296
200	0xbcf21145	-0.02954925
201	0xbde4e8c5	-0.1117721
202	0xbda200be	-0.07910298
203	0xbcfef0ea	-0.031120736
204	0xbc3df2c7	-0.011593527
205	0x3c058c01	0.008151055
206	0xbd23ab31	-0.039958183
207	0xbcbb77f7	-0.022884352
208	0x3db6d639	0.089275785
209	0x3c0e30cd	0.008678627
210	0x3dd06456	0.101753876
211	0x3dc1e738	0.094679296
212	0xbcde40cf	-0.027130513
213	0xbdc30e8c	-0.09524259
214	0x3d9994df	0.07499098
215	0xbd8306a7	-0.06397753
216	0x3ce76d82	0.02825046
217	0x3d50342b	0.050831
218	0xbd730979	-0.059335206
219	0x3dc0d033	0.09414711
220	0xbd6c1386	-0.057635807
221	0xbd032268	-0.032015234
222	0x3da04a11	0.07826627
223	0xbdf60f00	-0.1201458
224	0xbdb07afa	-0.08617206
225	0x3ca17bdf	0.019712387
226	0x3d5e9d2a	0.054349102
227	0xbd7563ad	-0.05990951
228	0xbdb3f424	-0.087868005
229	0x3cfed7fc	0.031108849
230	0x3d76c4f4	0.060246423
231	0x3cd2871d	0.025699193
232	0xba8e64b1	-0.0010863749
233	0x3df69aa1	0.12041212
234	0xbd59ed2b	-0.053204697
235	0xbd90bfe5	-0.07067851
236	0xbd3b4c69	-0.045727167
237	0x3dee22b9	0.116277166
238	0x3ccca3ee	0.024980512
239	0x3de46964	0.11152914
240	0x3ded4a0f	0.11586391
241	0x3e00ea25	0.12589319
242	0xbde9ce04	-0.114162475
243	0x3cc512f6	0.024056893
244	0x3c883c45	0.016630301
245	0xbd1e32af	-0.038622554
246	0x3d298580	0.04138708
247	0xbdb2e850	-0.08735716
248	0xbb808f05	-0.0039232993
249	0x3d2caeff	0.042159077
250	0xbd853906	-0.06505017
251	0xbdd6bda2	-0.10485388
252	0xbb27fa4c	-0.0025631366
253	0x3dc8328a	0.097752646
254	0x3d8c224a	0.068424776
255	0x3d6db5df	0.058034774
