models/policy_net_barrier_2inst (3).pth (torch, 877214 bytes, 12 tensors)

lstm.weight_ih_l0 f4 [512, 5]
00000000: ad0c 84bc 4635 c03d 622d 64bd 37b1 f23c
00000010: 9212 85bd 865b 243d ac95 6cbd 87bd 2d3d
00000020: 8b35 42bd e131 9dbd 733d a4bd e002 2b3b
00000030: 58dc d9b9 9d41 a6bd 333d a13c c86a a13d
00000040: 615d 95bd 2de5 22bc cce7 cebd 34dd cf3c
00000050: a024 073d 549a d53c e848 b53b c13c c23c
00000060: c3a6 353d 640d be3d 4d54 c23d 3cea cabd
00000070: 3f7a 9abd 6bd6 a83d 1181 813d d660 843d
00000080: 5ff0 933d eb0c 99bc baac 8ebd 5d9b 30bd
00000090: c206 99ba e7c0 afbc f06a 1fbc 7c28 6e3c
000000a0: a18c bdbd 6464 6c3c 601d 40bc aa08 78bc
000000b0: 56ef 043d c8ef c63d b348 c0bd 84e2 94bd
000000c0: 157e 1b3c 2a91 1ebc fc85 c73d 1c50 b33c
000000d0: 8237 b93d a7c9 ddbb 9431 33bc 2b0d c6bd
000000e0: 9e63 3f3d 2ebb e13d 61d7 453d 11e3 963d
000000f0: be73 8d3d 56be e93c f578 89bd 5e92 563d
00000100: 4553 b13d ee4a d8bd ef1a af3d c059 c8bd
00000110: 9e5e 6d3c 2512 4dbd c96d 683c 6cf4 d3bd
00000120: e206 9a3d e112 03bd 5333 7539 2710 9c3d
00000130: c4a3 8bbd 1623 6ebd c77e 94bd ac12 a5bd
00000140: da78 a5bd 9727 b6bc cf0d 073d 4329 62bd
00000150: 2679 98bd 9c0b 7d3d 86a3 dc3c 61fa 5f3d
00000160: 0d50 993d 6e8f a8bc 9484 b4bd bb0f 9ebd
00000170: 51a0 863c ae59 8a3c 759b c83d 0053 ccbd
00000180: f07c df3c cea6 b03c ce56 dc3d 538b adbd
00000190: e2bd b23d d8cb d23d 7501 85bd 97e3 acb9
000001a0: b90f fabc c917 febc ac36 fcbc f04e bfbd
000001b0: c023 a0bd de66 69bd eea2 7dbd 5583 e33d
000001c0: a53d 053d ebed b33d d76d 8f3d 1fc8 8b3d
000001d0: 3fd1 0b3d aade bbbd eeaf 37bd 89dd 253d
000001e0: 2881 573c 8547 833b 0401 a2bb 3912 ca3c
000001f0: 21fd b1bd 630a 033c feb8 12bd dc25 94bd
00000200: cf2f f03b 882d 883d 0a72 413d 6483 4e3c
00000210: af49 113b 77a7 b53d f516 d6bd 4390 d43d
00000220: 8633 1fbd ee44 c33d d6a5 24bd e285 9abd
00000230: 7065 9cbd 9446 c5bc 2b0c 2bbd 2513 c93d
00000240: 7b34 c7bb 257c 9fbd 2663 993d 6441 04bd
00000250: 38ce 173d f98b 913d 3725 0cbd ba18 98bd
00000260: 5723 61bd 0570 50bd 7347 84bc 3e19 a6bd
00000270: 06e5 8d3d 02d7 303d d562 36bd 1368 6abd
00000280: c9b7 ad3d 2b9e babc 869e 033d 6f42 043d
00000290: f57f 40bd b1d2 4cbd e67e 073d 6ccb c63d
000002a0: ad01 8fbd 4a35 a53d 33dc 273d 418a 533d
000002b0: dbf9 0b3d 86e1 d6bd f85e 24bd ec1a f73d
000002c0: e301 7b3c a48f 60bd fc6a 80bd a21e f03d
000002d0: 940d 3dbd 0bb6 bb3d db7f 013d dda0 703d
000002e0: fa6b 6dbd d341 0bbd b503 cebd ee92 1e3d
000002f0: b5ad 5dbd d261 913c 088e 46bd 5e8d d53d
00000300: 4b23 d2bc 72ae 883d d420 8e3d 1b21 703d
00000310: 9341 913c 3c99 8e3d 0b59 8cbb 1940 ae3d
00000320: 2082 2abd 0d0c ac3d 92fd a7bd 213a d8bc
00000330: 2b9e c83c 22a7 b0bc 84d3 a1bc 8818 e3bb
00000340: c280 9fbc 273f c03d 3440 583d ea6e d63d
00000350: 9d1a a33d 1942 d5bb 9ff0 c5bd eb28 2c3d
00000360: b3be 97bd a3e6 473d bed4 623d 8ffb 26bc
00000370: fdcb 163d 7e7f 8cbc afbf b13d 6fb8 e53c
00000380: 529c 54bd 6122 98bd 09cc c73d 1598 88bd
00000390: bc98 f6bc e7c9 abbc 2dc7 7bbd 5141 bc3c
000003a0: 4a27 d33b b5d4 c0bd 97d7 623b f0b8 bcbd
000003b0: ff7c 6cbc 5184 81bd aaac 203b 95fa ebbc
000003c0: c2ef c63d 212f 9abd 8a4c 11bd f0e3 633d
000003d0: f262 d93d d0e7 cf3d 068d a8bd a602 4ebd
000003e0: fc11 b13d 3b8c aabd 58ed b7bd 9a1d 9bbd
000003f0: 6f12 86bd 521b c23d 8cbb 323d b27e b33d
-0.016119326 0.09385161 -0.055707343 0.029625518 -0.06497683 0.040126346 -0.057759926 0.042417075
-0.047414344 -0.07675529 -0.08019533 0.0026094243 -0.00041553634 -0.081179835 0.019682502 0.07881695
-0.07293201 -0.009942335 -0.101028055 0.025374033 0.032993913 0.026074566 0.0055323727 0.02371061
0.04434849 0.09279898 0.09488735 -0.09907958 -0.07542848 0.08244022 0.063234456 0.064637825
0.072235815 -0.018682918 -0.06966539 -0.043116916 -0.0011674988 -0.021454288 -0.009730086 0.014536019
-0.092553385 0.014428232 -0.011725754 -0.015138784 0.03245481 0.097137034 -0.09388866 -0.07269767
0.0094905095 -0.0096781645 0.09742352 0.021888785 0.090437904 -0.0067684236 -0.010937113 -0.0967048
0.04672586 0.1102203 0.048301104 0.07367528 0.06906842 0.028533142 -0.06712524 0.05238568
0.086584605 -0.10561167 0.08550059 -0.097827435 0.0144878905 -0.050066132 0.014186331 -0.10349354
0.07520844 -0.032000426 0.0002338414 0.07620268 -0.06818345 -0.05813893 -0.07250743 -0.08060202
-0.08079691 -0.022235675 0.032972153 -0.05521513 -0.07444982 0.06177865 0.026933443 0.05468214
0.074859716 -0.020576205 -0.0881435 -0.07717844 0.016433867 0.016888466 0.09795276 -0.099767685
0.027281255 0.021563914 0.10758744 -0.084738396 0.087276235 0.10292786 -0.064944185 -0.00032975964
-0.030525075 -0.031017201 -0.030787788 -0.09341228 -0.07819319 -0.056982867 -0.06192296 0.11109034
0.032529492 0.087856136 0.07003372 0.068252794 0.0341351 -0.09173329 -0.044845514 0.040494476
0.013153352 0.0040063285 -0.0049439687 0.024666892 -0.08690859 0.007998082 -0.035820954 -0.072337836
0.007329918 0.066493094 0.047227897 0.012604568 0.0022169163 0.08869832 -0.104535975 0.10379078
-0.038867496 0.09534632 -0.040197216 -0.07545067 -0.07636535 -0.024081506 -0.04175965 0.09818105
-0.006079254 -0.077873506 0.07489614 -0.032288924 0.0370619 0.07106776 -0.03421518 -0.07426591
-0.054965343 -0.05088808 -0.01614735 -0.08110283 0.069284484 0.043173797 -0.044527847 -0.05722816
0.0848232 -0.022780498 0.0321336 0.03228992 -0.04699703 -0.05000562 0.033080004 0.097067684
-0.069827415 0.08066805 0.040981483 0.05164552 0.034173828 -0.10492234 -0.04012963 0.12065682
0.015320274 -0.054824486 -0.06270406 0.11724593 -0.046155527 0.09165581 0.031616073 0.05874716
-0.057964303 -0.03399832 -0.10059301 0.03871434 -0.054120738 0.01774684 -0.048475295 0.10427354
-0.025651595 0.06673898 0.06939855 0.05862532 0.017731464 0.06962821 -0.0042830757 0.085083194
-0.041628003 0.08400736 -0.082026616 -0.026394906 0.024489483 -0.02156407 -0.019754179 -0.0069304146
-0.019470576 0.09387045 0.052795604 0.10470374 0.079640605 -0.0065081236 -0.096650355 0.04203121
-0.0740942 0.048803937 0.055378668 -0.010191812 0.036815632 -0.017150637 0.08679139 0.028042046
-0.05190689 -0.07428432 0.097557135 -0.06669632 -0.030102126 -0.020970298 -0.061469246 0.022980364
0.0064438926 -0.09415571 0.0034613365 -0.092149615 -0.014434098 -0.063240655 0.0024516978 -0.02880601
0.09713699 -0.075285204 -0.035473384 0.0556373 0.106145754 0.101516366 -0.08230023 -0.050295494
0.08646008 -0.08327528 -0.089808166 -0.075740054 -0.06546485 0.09477867 0.04363589 0.087643996

lstm.weight_hh_l0 f4 [512, 128]
00000000: e6ed be3d d279 9a3d 1473 58bd 96d2 21bd
00000010: 4e33 9d3d 1dd8 0cbd 2efe 93bd ef9f 823d
00000020: 5602 303d daf8 943d b8bb 42bd aea7 c93d
00000030: 563f c3bd cf78 b0bd a4ef 503d b6bd 0dbd
00000040: 3ce1 8abd 9d55 283d e531 66bd c43d 9d37
00000050: b5c0 a5bd 4a44 5dbc 9e44 583d f0a0 58bc
00000060: bbe7 e8bc 162d cfbd 51fa ebbb eac5 1d3d
00000070: cc23 b7bd a4a5 ac3d 8308 883d 0a4f bfbc
00000080: 060c 77bc b8f9 9b3d c908 913c 3840 a7bd
00000090: 3363 8a3d 63e8 40bd f85d 20bd 7e38 343d
000000a0: 8903 cdbc 5d18 9cbd 36de 95bd fbe5 193c
000000b0: 9880 9cbd 615a cabc 33af 7e3c 21c4 7c3d
000000c0: d8e2 1e3d 2e77 e0bb 0ca3 013d 72c0 0bbd
000000d0: c675 fb3c 0667 5abd 32b7 bdbd 3187 cdbd
000000e0: c45b 0ebb 520a c73c 7b10 4abd 2122 c33d
000000f0: cd75 28bc 48a6 b7bd 562e bbbc cd27 2f3d
00000100: f748 103d 8c2c c1bd c744 ab3d 40e0 ba3b
00000110: 1dd1 76bd 1375 10bd b6bf afbd 04c6 82bd
00000120: 425a 2bba 67fc 5fbc 3ca6 5b3c 43f0 b1bc
00000130: ce2e 31bd 4966 d13c 9b83 973d 614e fbbc
00000140: 185e 61bd 9b4a 553b ac57 923d 1366 b73d
00000150: 9144 10ba 4b32 4bbd 6a00 bdbd 33d8 553d
00000160: 130d 163d 2fdf 9bbc 54b8 c2bd 0be1 5e3d
00000170: 270c 82bc b470 bdbd fc21 c63d 0a83 ba3d
00000180: d12b a33d 9dc1 c2bd 31a8 f83c b330 8abd
00000190: 34e0 ad3d 88d4 353d b0a3 0dbc 122b 8f3d
000001a0: 5a1a 98bd 9c42 bbba 0420 8cbc 5665 adbd
000001b0: b278 543c 493d a33d 34cd 463d e5f1 953d
000001c0: fdbf 6b3d 3d28 523d 4818 adbd d7fc 5f3d
000001d0: 5f32 53bd 4123 e53b bc45 85bd 193c a73d
000001e0: e313 5bbc b030 a0bd d7d0 aebd 6040 88bd
000001f0: 4ec2 ccbd f640 c53d 2a39 bb3c 30b3 193d
00000200: 11da 86bc be33 b4bd 2541 77bc 0641 b03c
00000210: 8931 13bc d516 2a3d 6602 7abd b4f4 71bd
00000220: e6d0 88bc d6ee 22bd ac84 58bd b449 973d
00000230: dad5 c13d 123d 233c 433a 4abb 8d2e ac3d
00000240: f70d b13d 8649 70bd d665 723c 7f02 1f3d
00000250: 0799 6a3d 3966 4dbd 4375 453b 9ad9 f83c
00000260: 1993 b5bc 7bcc c73d 9914 b73d 1361 883d
00000270: dc2d a1bc 533e 253d 64d6 65bc e8b6 59bd
00000280: e30d 9ebd d7fe 203c db9f 703d f4d9 9f3c
00000290: 8641 d53b 1b22 02bd 9c90 7d3d c60d 8cbd
000002a0: e148 c43d fcb4 923d abd1 0c3d 475a 7e3b
000002b0: 5921 35bd 1781 1abd a42b 87bd 5625 aa3d
000002c0: ea5e 7b3d ec00 0fbb e4db cc3c 6c32 b23d
000002d0: 5a65 13bd 62ca 353c d9dc 97bd 08ed 0b3d
000002e0: 1b50 6c3d bef6 e2bc 5422 053d a37f 763d
000002f0: c161 a93d 19e6 863c ce8a 7dbd acf9 e13b
00000300: 1c24 1c3d a240 ff3c 34bc 383c 68b0 b7bd
00000310: e42d 77bd 8dec bd3d 4ad1 413d 6912 d2bc
00000320: 1665 edbc b8c2 4dbc eabe 2bbd 89ba 7ebd
00000330: c50c 0e3d beb1 3cbd 84ba afbd c46d 5cbc
00000340: 51c1 b23c 84af a0bd 3568 aebd 1ed4 35bd
00000350: 7914 9f3d 5507 93bd 064d 9c3d b0b5 9abd
00000360: 99cc b63d 9b8e 063d 7b95 c3bd cc5a 9338
00000370: 1cda 953d 2cfe 903c 03e6 d63c 7138 a33d
00000380: 7f90 61bd be84 8abc 2ea3 953b 8ce0 b83b
00000390: 0068 a93d 89db a03d 7c5b e7bc 6d6a bf3d
000003a0: 8434 ab3c a337 b8bd 94e1 2dbb f14b 7fbd
000003b0: 74cf 84bd 5a31 a33d bf25 bdbd 4cb8 04bd
000003c0: 1a92 a33d ce35 383d bbd8 b83d 49d3 643d
000003d0: 590d b1bd a1f3 3b3b 993c 8cbd e25e a5bd
000003e0: 75f1 e4bc 0733 633d 5b1e 2bbd 3939 b8b9
000003f0: 430f 85bd db72 9ebd 4ac2 103b 47c5 bebc
0.09322719 0.07542767 -0.052844122 -0.03950747 0.07675801 -0.03438579 -0.07226215 0.06378161
0.042970978 0.07274027 -0.047542304 0.098464355 -0.09533565 -0.086167924 0.05100979 -0.03460475
-0.06781241 0.041097272 -0.056199927 1.874462e-05 -0.080933966 -0.013505051 0.052799813 -0.013221964
-0.02843081 -0.10116021 -0.007201471 0.038518824 -0.089423746 0.08430031 0.066422485 -0.023353118
-0.01507855 0.076159894 0.017704384 -0.08166546 0.06757202 -0.04709662 -0.039152116 0.043999188
-0.0250261 -0.076218344 -0.07317774 0.0093932105 -0.07641715 -0.0247013 0.0155447 0.06171048
0.038790554 -0.006850145 0.031649634 -0.034119077 0.030695807 -0.053320907 -0.09263457 -0.10035551
-0.0021722177 0.024296913 -0.049332123 0.09527994 -0.010281992 -0.089672625 -0.022849243 0.042762566
0.035225835 -0.09432325 0.083627276 0.005703002 -0.06025802 -0.0352679 -0.08581488 -0.06385425
-0.0006536582 -0.013671017 0.013406333 -0.021721011 -0.043257527 0.025561469 0.073981486 -0.030677022
-0.055021375 0.003254569 0.07145628 0.08955016 -0.0005503381 -0.04960851 -0.092285946 0.052208137
0.036633562 -0.01902732 -0.09507814 0.054413836 -0.015874935 -0.09250012 0.09674451 0.09107025
0.07967342 -0.09509585 0.030353637 -0.0674757 0.08490029 0.04439214 -0.008644983 0.06990637
-0.07426901 -0.0014286819 -0.01710511 -0.08466594 0.012968229 0.079706736 0.04853554 0.07321528
0.05755614 0.051307905 -0.08451897 0.054684486 -0.05156171 0.006992728 -0.065074414 0.081657596
-0.013371441 -0.078217864 -0.08535927 -0.066529036 -0.09997998 0.09631531 0.022854406 0.037524402
-0.016461404 -0.087989315 -0.015091215 0.02151538 -0.008983978 0.04152568 -0.061037444 -0.059071258
-0.016701173 -0.039778553 -0.0528609 0.07387105 0.09464617 0.009963291 -0.003085748 0.08407316
0.08645242 -0.058663867 0.014794787 0.03882074 0.057274844 -0.050146315 0.0030129708 0.030377198
-0.022164868 0.097557984 0.089394756 0.066591404 -0.019675188 0.04034264 -0.0140281655 -0.05315295
-0.077174924 0.009826384 0.0587462 0.019513108 0.006508055 -0.031770807 0.06190549 -0.068385646
0.09584213 0.07163426 0.034379642 0.0038811134 -0.044221256 -0.037720766 -0.06600121 0.083079025
0.061369814 -0.0021820618 0.025007196 0.087010235 -0.03598533 0.011095615 -0.0741517 0.034161597
0.057693582 -0.027705546 0.03250344 0.060180318 0.08270598 0.016467141 -0.061899953 0.0068962183
0.038120374 0.031158749 0.01127534 -0.08969194 -0.0603465 0.09273634 0.047318734 -0.025643544
-0.028978866 -0.012558632 -0.041930117 -0.062189613 0.034680147 -0.046067946 -0.08580497 -0.013453905
0.021820696 -0.07845977 -0.0851597 -0.044391744 0.07767577 -0.07179133 0.076318786 -0.075541854
0.08925743 0.032850843 -0.095499955 7.0264185e-05 0.07316992 0.017699324 0.026232725 0.0796975
-0.055069443 -0.016909 0.0045665717 0.0056420024 0.082717896 0.07854373 -0.028241865 0.09346471
0.020899065 -0.08994987 -0.002653216 -0.062328283 -0.06484881 0.079683974 -0.09235715 -0.03240232
0.07986851 0.044973187 0.09025713 0.05586556 -0.08645124 0.002867915 -0.068474956 -0.08074738
-0.027947167 0.055468585 -0.041776996 -0.0003513785 -0.064970516 -0.07736751 0.0022088462 -0.023287429

lstm.bias_ih_l0 f4 [512]
00000000: 298d cdba ca9d d339 4155 e13a 7f23 e53a
00000010: 8d4a a13a 693b 833b 7372 193b ff17 c03b
00000020: 77cd 213c 3b08 993b 1f93 0c3c 3231 0539
00000030: b0a2 d13b 1eee 40bb e5d7 48ba 04cc 053b
00000040: c2b6 953b a708 89b9 feeb 583b b576 b53b
00000050: 1947 0a3b ca52 ae3b 68ef 893b 5a1d c4ba
00000060: f56e 89bb 3fa5 e83b 71f2 113b 30c8 eb3b
00000070: 0dc5 31bb 8ff5 8c3a cd0d d83b d533 8e39
00000080: bb5d 5f3b d69d 023b 3855 c73b f662 54bb
00000090: df74 263b 698e 903b d34a 9c3b 8a55 f53a
000000a0: 77e0 053c 4d3e bd3b 4bca 933b 18fb 4a3b
000000b0: c7ce 2b3a 0ce6 833b c5db 823b 937d f83b
000000c0: 7295 e03b c484 383a 2675 b639 42b1 633a
000000d0: cc92 663b 7a31 c13a 626e 1fbb 6604 cc3a
000000e0: 3075 9abb 4dee 4f3a a451 213c 2cf1 233b
000000f0: 57c9 ceba 3194 803b 7870 f1b9 24d9 c8ba
00000100: 904c 1d3b 2263 c13b 84de 343a b439 033c
00000110: 58eb 0abb 64f5 3a3b ae5f 573b c7e1 b23b
00000120: 87f2 12ba 1659 bd3a 35ea bf3b 0e00 0abb
00000130: bdc0 693b 5873 a43a 15e6 1cbb 99b9 9a3b
00000140: c260 dc3b 3bc8 b93a d732 9f3b 66e1 403b
00000150: 7ee4 413b 0af4 e8ba 5bfa a23b 24ce 993b
00000160: 98cd bebb 3bc7 aa3b 14c7 bcbb ca03 df3b
00000170: aeda a63b fbdc 3d3b 8c18 483c b9c6 513b
00000180: 5754 303b 9c40 f03b e53e 393b fe1d 7038
00000190: 4386 903b 1d30 3e3b 6441 be3b b940 5e3b
000001a0: 7b70 21ba 5445 873b 781a 3bb9 1855 bf3b
000001b0: 8d88 0f3c 1408 063c 5a9a 363b 974c de3b
000001c0: 3602 bf3b 6d90 4e3b 3718 a0ba 4f2b 013c
000001d0: c882 6238 80e2 763b b5f9 4f39 7c2a 913b
000001e0: 8c75 053a 9bd7 073c 8154 0d3c e825 113c
000001f0: f693 323b aa0b 8f3a 5b28 023c b68f d43a
00000200: 8d13 c8b9 b411 1d3b 09b4 093b 5c9e 7b3a
00000210: 4bdf bd3a e36b c43b 6d59 de3a 9aa1 ba3b
00000220: 5a41 2a3c 5681 b03b fdb3 1c3c 18be bb3a
00000230: 9dbd 0d3c 267a 80bb f4c1 9739 0b09 573b
00000240: e7f7 873b 3a60 9cb9 0b2e 543b a0fe a43b
00000250: ea2a c33a 948e a33b d2fd a43b 1627 d139
00000260: 1b13 55bb 5fb0 e03b 3dd8 173b c365 df3b
00000270: 9f7f 44bb 523b fd3a f8bd e53b 034d ceba
00000280: ff13 a33b 2b1d 043b c231 9d3b c769 433b
00000290: 23a9 3c3a 8dd1 ab3b ceba 5d3b 1e15 4e3a
000002a0: 31ba 043c 0fa6 b13b a837 ca3b d841 3c3b
000002b0: 64cc 15ba 31ef 363b 7bce 833b 84bf e93b
000002c0: 84b6 023c a7ef 5b3a 83ef a93a 5fb9 2f3b
000002d0: 9551 813b a33e 583b fc41 beb5 ae83 d439
000002e0: 6606 6bbb cf82 cd3a 7912 1c3c 073e 323b
000002f0: 18d6 0639 23ab 703b f27b 25ba 7654 3bbb
00000300: a298 3d3b cfa8 cc3b e041 cd39 013a 063c
00000310: b414 eb38 4dda 063b 56ba 743b bee5 923b
00000320: 0bdb 443a 791b d0b7 e1b4 f33b 8361 1dbb
00000330: c607 b93a cd15 ba39 e288 15b9 fd96 6a3b
00000340: 4f25 c83b 60db 12b9 7c42 783b 8924 033b
00000350: 801b 3c3b 27a1 9cba 007c 883b cc45 863b
00000360: ef24 a0bb 3980 833b 5ae1 bcbb af61 ee3b
00000370: bfb7 bd3b 19ae a73a 5d25 4d3c 92d9 4e3b
00000380: 3c1f 553b 0c06 ee3b 3370 473b 815a 103a
00000390: 640e f13b fb06 663b 13df bc3b 51ca 293b
000003a0: f631 acb9 e17d db3b b43d 93b9 277e c43b
000003b0: 1582 1b3c bcfe 0f3c cf4d 043b 9788 d53b
000003c0: a213 c73b a530 7a3b a08b 9e36 171e 1a3c
000003d0: 7506 163a 8eda 5e3b 04f0 9c3a 1694 6c3b
000003e0: d9c9 5c3a ff29 ff3b afaf 073c f043 083c
000003f0: 524c 553b 8c50 c139 74b3 e83b c58e 523a
-0.0015682328 0.00040362618 0.0017191545 0.0017481892 0.0012305543 0.004004885 0.0023414164 0.0058622356
0.009875647 0.0046701706 0.008579998 0.00012702195 0.0063975677 -0.0029438804 -0.00076615653 0.0020415792
0.0045689056 -0.00026137123 0.0033099647 0.0055378326 0.0021099506 0.005319928 0.0042094477 -0.0014962361
-0.0041941353 0.007099777 0.002226975 0.007195495 -0.0027125508 0.0010754335 0.006593442 0.00027122968
0.0034082967 0.0019930503 0.006083157 -0.0032407618 0.002539925 0.004411508 0.004769662 0.0018717509
0.008171192 0.005775249 0.004510199 0.0030972417 0.00065539445 0.0040252265 0.0039934837 0.007583329
0.006853753 0.00070388266 0.00034801028 0.0008685776 0.0035182713 0.0014739477 -0.0024327268 0.0015565276
-0.004713677 0.0007931933 0.009846125 0.0025015576 -0.0015776557 0.003923916 -0.00046050898 -0.0015323502
0.0024001934 0.00590171 0.00068996125 0.008009363 -0.0021197405 0.0028527612 0.0032863426 0.0054590437
-0.00056055974 0.0014446105 0.005856777 -0.0021057162 0.003566786 0.0012546582 -0.002394085 0.004721832
0.0067254016 0.0014174053 0.0048583555 0.0029431223 0.0029585655 -0.0017772925 0.0049736924 0.0046937633
-0.0058228485 0.0052117384 -0.0057610366 0.0068058716 0.0050919866 0.0028970826 0.012212884 0.0032009317
0.002690574 0.007331921 0.0028266248 5.724839e-05 0.0044105365 0.0029020377 0.005806135 0.003391309
-0.00061584235 0.0041281376 -0.0001784357 0.0058390014 0.008760584 0.008180637 0.0027862997 0.0067840326
0.005829121 0.003151919 -0.0012214248 0.007883861 5.40044e-05 0.0037671626 0.00019834081 0.0044301134
0.0005091063 0.00829115 0.008626104 0.008859135 0.0027248836 0.001091351 0.007944192 0.0016217146
-0.0003816154 0.002396685 0.002101185 0.00095984875 0.0014486102 0.0059943064 0.0016963907 0.005695534
0.010391558 0.005386512 0.009564397 0.001432362 0.008651164 -0.003920811 0.0002894547 0.0032811787
0.0041494253 -0.00029826333 0.0032376077 0.0050352365 0.0014890109 0.004991362 0.0050351406 0.00039892708
-0.0032512608 0.0068569626 0.002316966 0.006817551 -0.0029983295 0.0019320047 0.0070111714 -0.0015739504
0.004976749 0.0020158987 0.0047971914 0.0029817687 0.0007196834 0.0052434863 0.0033833268 0.0007861423
0.008101032 0.005421407 0.0061711855 0.002872577 -0.00057143555 0.0027913565 0.004022417 0.007133426
0.007978085 0.0008389898 0.0012965057 0.002681337 0.003946493 0.0032996319 -1.4175307e-06 0.000405339
-0.0035861968 0.0015679243 0.009525889 0.0027197616 0.00012858992 0.00367231 -0.000631272 -0.0028584278
0.0028930088 0.0062457095 0.00039149728 0.00819254 0.000112095295 0.0020576895 0.003734251 0.004482954
0.00075094466 -2.4808325e-05 0.007437334 -0.002401442 0.0014116697 0.00035492927 -0.0001426074 0.0035795562
0.006107963 -0.00014005369 0.0037881425 0.002001079 0.0028702915 -0.0011949883 0.0041651726 0.004097676
-0.0048872153 0.004013088 -0.0057641687 0.0072748284 0.0057897265 0.0012792974 0.012521115 0.0031562787
0.0032519838 0.0072639044 0.0030431866 0.000550665 0.007356452 0.0035099376 0.005763897 0.0025907943
-0.0003284362 0.0066983555 -0.00028083997 0.005996484 0.009491463 0.008788761 0.002018798 0.006516527
0.0060753385 0.0038175967 4.7250214e-06 0.009406588 0.0005723008 0.003400478 0.0011973386 0.0036099008
0.00084224116 0.0077869887 0.008281632 0.008316979 0.003254671 0.0003687184 0.0071014706 0.00080321386

lstm.bias_hh_l0 f4 [512]
00000000: 298d cdba ca9d d339 4155 e13a 7f23 e53a
00000010: 8d4a a13a 693b 833b 7372 193b ff17 c03b
00000020: 77cd 213c 3b08 993b 1f93 0c3c 3231 0539
00000030: b0a2 d13b 1eee 40bb e5d7 48ba 04cc 053b
00000040: c2b6 953b a708 89b9 feeb 583b b576 b53b
00000050: 1947 0a3b ca52 ae3b 68ef 893b 5a1d c4ba
00000060: f56e 89bb 3fa5 e83b 71f2 113b 30c8 eb3b
00000070: 0dc5 31bb 8ff5 8c3a cd0d d83b d533 8e39
00000080: bb5d 5f3b d69d 023b 3855 c73b f662 54bb
00000090: df74 263b 698e 903b d34a 9c3b 8a55 f53a
000000a0: 77e0 053c 4d3e bd3b 4bca 933b 18fb 4a3b
000000b0: c7ce 2b3a 0ce6 833b c5db 823b 937d f83b
000000c0: 7295 e03b c484 383a 2675 b639 42b1 633a
000000d0: cc92 663b 7a31 c13a 626e 1fbb 6604 cc3a
000000e0: 3075 9abb 4dee 4f3a a451 213c 2cf1 233b
000000f0: 57c9 ceba 3194 803b 7870 f1b9 24d9 c8ba
00000100: 904c 1d3b 2263 c13b 84de 343a b439 033c
00000110: 58eb 0abb 64f5 3a3b ae5f 573b c7e1 b23b
00000120: 87f2 12ba 1659 bd3a 35ea bf3b 0e00 0abb
00000130: bdc0 693b 5873 a43a 15e6 1cbb 99b9 9a3b
00000140: c260 dc3b 3bc8 b93a d732 9f3b 66e1 403b
00000150: 7ee4 413b 0af4 e8ba 5bfa a23b 24ce 993b
00000160: 98cd bebb 3bc7 aa3b 14c7 bcbb ca03 df3b
00000170: aeda a63b fbdc 3d3b 8c18 483c b9c6 513b
00000180: 5754 303b 9c40 f03b e53e 393b fe1d 7038
00000190: 4386 903b 1d30 3e3b 6441 be3b b940 5e3b
000001a0: 7b70 21ba 5445 873b 781a 3bb9 1855 bf3b
000001b0: 8d88 0f3c 1408 063c 5a9a 363b 974c de3b
000001c0: 3602 bf3b 6d90 4e3b 3718 a0ba 4f2b 013c
000001d0: c882 6238 80e2 763b b5f9 4f39 7c2a 913b
000001e0: 8c75 053a 9bd7 073c 8154 0d3c e825 113c
000001f0: f693 323b aa0b 8f3a 5b28 023c b68f d43a
00000200: 8d13 c8b9 b411 1d3b 09b4 093b 5c9e 7b3a
00000210: 4bdf bd3a e36b c43b 6d59 de3a 9aa1 ba3b
00000220: 5a41 2a3c 5681 b03b fdb3 1c3c 18be bb3a
00000230: 9dbd 0d3c 267a 80bb f4c1 9739 0b09 573b
00000240: e7f7 873b 3a60 9cb9 0b2e 543b a0fe a43b
00000250: ea2a c33a 948e a33b d2fd a43b 1627 d139
00000260: 1b13 55bb 5fb0 e03b 3dd8 173b c365 df3b
00000270: 9f7f 44bb 523b fd3a f8bd e53b 034d ceba
00000280: ff13 a33b 2b1d 043b c231 9d3b c769 433b
00000290: 23a9 3c3a 8dd1 ab3b ceba 5d3b 1e15 4e3a
000002a0: 31ba 043c 0fa6 b13b a837 ca3b d841 3c3b
000002b0: 64cc 15ba 31ef 363b 7bce 833b 84bf e93b
000002c0: 84b6 023c a7ef 5b3a 83ef a93a 5fb9 2f3b
000002d0: 9551 813b a33e 583b fc41 beb5 ae83 d439
000002e0: 6606 6bbb cf82 cd3a 7912 1c3c 073e 323b
000002f0: 18d6 0639 23ab 703b f27b 25ba 7654 3bbb
00000300: a298 3d3b cfa8 cc3b e041 cd39 013a 063c
00000310: b414 eb38 4dda 063b 56ba 743b bee5 923b
00000320: 0bdb 443a 791b d0b7 e1b4 f33b 8361 1dbb
00000330: c607 b93a cd15 ba39 e288 15b9 fd96 6a3b
00000340: 4f25 c83b 60db 12b9 7c42 783b 8924 033b
00000350: 801b 3c3b 27a1 9cba 007c 883b cc45 863b
00000360: ef24 a0bb 3980 833b 5ae1 bcbb af61 ee3b
00000370: bfb7 bd3b 19ae a73a 5d25 4d3c 92d9 4e3b
00000380: 3c1f 553b 0c06 ee3b 3370 473b 815a 103a
00000390: 640e f13b fb06 663b 13df bc3b 51ca 293b
000003a0: f631 acb9 e17d db3b b43d 93b9 277e c43b
000003b0: 1582 1b3c bcfe 0f3c cf4d 043b 9788 d53b
000003c0: a213 c73b a530 7a3b a08b 9e36 171e 1a3c
000003d0: 7506 163a 8eda 5e3b 04f0 9c3a 1694 6c3b
000003e0: d9c9 5c3a ff29 ff3b afaf 073c f043 083c
000003f0: 524c 553b 8c50 c139 74b3 e83b c58e 523a
-0.0015682328 0.00040362618 0.0017191545 0.0017481892 0.0012305543 0.004004885 0.0023414164 0.0058622356
0.009875647 0.0046701706 0.008579998 0.00012702195 0.0063975677 -0.0029438804 -0.00076615653 0.0020415792
0.0045689056 -0.00026137123 0.0033099647 0.0055378326 0.0021099506 0.005319928 0.0042094477 -0.0014962361
-0.0041941353 0.007099777 0.002226975 0.007195495 -0.0027125508 0.0010754335 0.006593442 0.00027122968
0.0034082967 0.0019930503 0.006083157 -0.0032407618 0.002539925 0.004411508 0.004769662 0.0018717509
0.008171192 0.005775249 0.004510199 0.0030972417 0.00065539445 0.0040252265 0.0039934837 0.007583329
0.006853753 0.00070388266 0.00034801028 0.0008685776 0.0035182713 0.0014739477 -0.0024327268 0.0015565276
-0.004713677 0.0007931933 0.009846125 0.0025015576 -0.0015776557 0.003923916 -0.00046050898 -0.0015323502
0.0024001934 0.00590171 0.00068996125 0.008009363 -0.0021197405 0.0028527612 0.0032863426 0.0054590437
-0.00056055974 0.0014446105 0.005856777 -0.0021057162 0.003566786 0.0012546582 -0.002394085 0.004721832
0.0067254016 0.0014174053 0.0048583555 0.0029431223 0.0029585655 -0.0017772925 0.0049736924 0.0046937633
-0.0058228485 0.0052117384 -0.0057610366 0.0068058716 0.0050919866 0.0028970826 0.012212884 0.0032009317
0.002690574 0.007331921 0.0028266248 5.724839e-05 0.0044105365 0.0029020377 0.005806135 0.003391309
-0.00061584235 0.0041281376 -0.0001784357 0.0058390014 0.008760584 0.008180637 0.0027862997 0.0067840326
0.005829121 0.003151919 -0.0012214248 0.007883861 5.40044e-05 0.0037671626 0.00019834081 0.0044301134
0.0005091063 0.00829115 0.008626104 0.008859135 0.0027248836 0.001091351 0.007944192 0.0016217146
-0.0003816154 0.002396685 0.002101185 0.00095984875 0.0014486102 0.0059943064 0.0016963907 0.005695534
0.010391558 0.005386512 0.009564397 0.001432362 0.008651164 -0.003920811 0.0002894547 0.0032811787
0.0041494253 -0.00029826333 0.0032376077 0.0050352365 0.0014890109 0.004991362 0.0050351406 0.00039892708
-0.0032512608 0.0068569626 0.002316966 0.006817551 -0.0029983295 0.0019320047 0.0070111714 -0.0015739504
0.004976749 0.0020158987 0.0047971914 0.0029817687 0.0007196834 0.0052434863 0.0033833268 0.0007861423
0.008101032 0.005421407 0.0061711855 0.002872577 -0.00057143555 0.0027913565 0.004022417 0.007133426
0.007978085 0.0008389898 0.0012965057 0.002681337 0.003946493 0.0032996319 -1.4175307e-06 0.000405339
-0.0035861968 0.0015679243 0.009525889 0.0027197616 0.00012858992 0.00367231 -0.000631272 -0.0028584278
0.0028930088 0.0062457095 0.00039149728 0.00819254 0.000112095295 0.0020576895 0.003734251 0.004482954
0.00075094466 -2.4808325e-05 0.007437334 -0.002401442 0.0014116697 0.00035492927 -0.0001426074 0.0035795562
0.006107963 -0.00014005369 0.0037881425 0.002001079 0.0028702915 -0.0011949883 0.0041651726 0.004097676
-0.0048872153 0.004013088 -0.0057641687 0.0072748284 0.0057897265 0.0012792974 0.012521115 0.0031562787
0.0032519838 0.0072639044 0.0030431866 0.000550665 0.007356452 0.0035099376 0.005763897 0.0025907943
-0.0003284362 0.0066983555 -0.00028083997 0.005996484 0.009491463 0.008788761 0.002018798 0.006516527
0.0060753385 0.0038175967 4.7250214e-06 0.009406588 0.0005723008 0.003400478 0.0011973386 0.0036099008
0.00084224116 0.0077869887 0.008281632 0.008316979 0.003254671 0.0003687184 0.0071014706 0.00080321386

lstm.weight_ih_l1 f4 [512, 128]
00000000: a7f1 cabd f420 f93c 3cc9 333d c4c0 2bbd
00000010: 0fce c4bb bef2 3e3d 5712 d73c f69a 1fbd
00000020: d1d5 de3c b667 0fbc ab09 d23c 8c6d 953d
00000030: 9b50 c8bc 45ca a03d 43ee 9dbd ced6 9fbc
00000040: 7c0b 613d 40ed 873d 9a95 84bd 0d40 193d
00000050: cc12 483d 0d85 26bd 8566 773d 6bfb 2b3d
00000060: 5d23 423c 3f9c 153c 371d 193d 40fd cb3d
00000070: 8350 80bb 620b a6bd 1b63 313d 3a4d 383d
00000080: 6632 133d 80b4 b3bd 9fed a0bd 85fd 77bd
00000090: 2b43 9bbd d025 7f3d c9e2 bfbd 4781 723c
000000a0: 9239 99bd 77d5 ba3c aa53 dbbc 3611 5dbd
000000b0: 4efd a93d 088d 9e3d 13d3 3b3d 7a86 a23c
000000c0: 5af4 c33d 5616 08bd c10a 2abd 7d12 b23d
000000d0: 7c89 c4bc 326f c63d 0ec7 863d c723 92bd
000000e0: c718 0dbd c645 883d d566 c73d a54e 8e3c
000000f0: 1dca 1ebd 4151 133c 0f6f 0c3d 4b1d 67bd
00000100: a9a5 673d a6d8 593b 7bf3 393d 37d1 8fbd
00000110: 8e04 3bbd 8fcc 31bd 0e95 fabb c1f9 243b
00000120: 9a85 8f3d a7bc 413d 0358 63bd b272 8fbd
00000130: bf47 8fbd 8c1f 6d3c 5d6a 99bd a036 d4bb
00000140: 6b97 af3d 0a75 33bc 0b59 51bd 2b08 2d3c
00000150: 6fa6 1ebd 38df 9e3d 8965 8cbd aec0 3dbc
00000160: a130 72bc f7aa 7dbc 5b1c 323d ac6e cfbc
00000170: 7612 afbc 9e7e c63d ee17 10bd e8f2 99bd
00000180: fa95 8fbb 59a2 aa3d b4c1 b13d 536e fabc
00000190: e958 a93b 1cd4 703c 53f8 d0bc 764a 243d
000001a0: c1c1 0c3d cde8 103d bfb0 df3b fd9e 743c
000001b0: ef67 9e3c dd4b 11bc 79fd 993d 8f45 8abd
000001c0: c76f bbbd 8d48 0a3d 4fc6 c1bc a12e 933d
000001d0: b70c 9a3d 8052 723d b894 bdb9 af41 4dbc
000001e0: 5ec8 6c3d da42 48bd 0bf3 1e3d ffa3 c23d
000001f0: 4c4f 15bc eaec b23d b240 643b e028 853d
00000200: 9dda a7bd 8d1e a1bd 2e85 8dbc 8d82 253d
00000210: 63d7 45bd 56ef a53c 4dea bd3d a30a 79bd
00000220: 0fb9 fa3c 9c13 d63b 52a8 833d 7f9d c6bd
00000230: 7098 523a cb98 743d ff77 243d 854a 58bc
00000240: 1844 3dbc 95c3 d43c e549 173d bfd0 1c3d
00000250: 4ad2 413c f8f6 603c 553b 1dbd b61b 013d
00000260: 00c9 133d 4495 8a3d f2a2 c93b ad06 97bd
00000270: 57c4 cb3c caeb f83c a5ff ac3d 9aee 95bd
00000280: 92d1 9a3d 4ccc 00bd dac1 a3bd 6eb9 bf3c
00000290: acfd bc3d a611 c4bd 142d 8dbd 554c ac3d
000002a0: 559b 9dbd 714c 3dbd baf1 c5bc 8bcb 393d
000002b0: a091 32bd 9576 af3c 0b0c b6bd 86ef 563b
000002c0: 7cfc 933c 7af6 33bd a405 45bd 36ac 2d3d
000002d0: 8c4d ae3d f8fd f8bb 1e86 4c3d a22b 88bc
000002e0: f94d 32bd 92f6 98bc 899c d93b 96dc 9ebd
000002f0: 0b68 2bbb 07a4 23bd fc42 c43c 9b70 5fbd
00000300: 5b6d bc3d 36db 423d e975 20bd 9acc 933d
00000310: d79b afbc 8ac0 a8bd 5e73 60bc 1c99 823d
00000320: a527 b13d 292e 6bbd eeaa f8bc 343e bdbc
00000330: b987 973d d68f 523d f32e 91bd 32dd 8d3d
00000340: 6393 9e3d 7f59 2a3c d5af acbd e07c 54bd
00000350: 74bf aa3c e215 a7ba a585 b93d acf9 d3bc
00000360: 6a8b 6f3d d2da 5a3d 2d50 eb3c b819 083d
00000370: 1e9a cdbc c340 853c 5af6 123d 1f5a 18bc
00000380: edee e33c 7546 e63c 11f3 cb3d bb47 023d
00000390: d2dd 853d 7b71 2ebb eb3c 91bd 49e5 8d3d
000003a0: 9b2a 80bb ee23 cb3c b710 0c3d d19e c8bc
000003b0: a326 88bd c537 473d c35f 0abd e92c 7d3c
000003c0: 74d8 dc3c 0ff8 dbbb b5d4 6c3c ab55 97bc
000003d0: c2a7 873d bbd3 a6bd bcc0 4c3d 4ae1 caba
000003e0: 34e7 25bd 6603 893d 1987 1bbc 3969 803d
000003f0: 52cc 72bd cbc7 243c 5df1 953c 3985 073d
-0.09909373 0.030411221 0.043893084 -0.041931883 -0.0060060094 0.046618216 0.026253862 -0.03896614
0.027201565 -0.008752754 0.025639376 0.07296285 -0.024452498 0.0785108 -0.077114604 -0.019511607
0.054942593 0.06637049 -0.06473847 0.0374146 0.04884605 -0.04065423 0.060400505 0.041987818
0.011849252 0.00913149 0.037381377 0.09960413 -0.0039158477 -0.0810764 0.043307405 0.044995524
0.035936736 -0.08774662 -0.078578226 -0.06054451 -0.07581171 0.06229192 -0.09369428 0.01480133
-0.07481684 0.022806866 -0.026773293 -0.05397149 0.08300267 0.07741743 0.045855593 0.019839514
0.09568091 -0.033224426 -0.041514162 0.086949326 -0.023991339 0.096891776 0.065809354 -0.0713573
-0.034447458 0.06653933 0.097364105 0.017371485 -0.03876697 0.00899154 0.0342856 -0.05642442
0.05655447 0.0033240705 0.045398217 -0.070223264 -0.04565864 -0.043407973 -0.0076471632 0.002517328
0.07007904 0.047299054 -0.055503856 -0.07004298 -0.06996106 0.014472853 -0.0749099 -0.0064762384
0.085738026 -0.010953197 -0.05111031 0.010561029 -0.038732942 0.07757419 -0.06855304 -0.011581583
-0.014782102 -0.015482656 0.043484073 -0.025321327 -0.021371108 0.09692119 -0.03517907 -0.07517034
-0.0043818923 0.083317466 0.08679524 -0.030570185 0.0051680696 0.014699008 -0.025509035 0.040110074
0.034364466 0.035378266 0.0068264897 0.014930484 0.019336669 -0.008868185 0.07519049 -0.067515485
-0.09152179 0.033760596 -0.023654131 0.07186628 0.075219564 0.05916071 -0.00036159693 -0.012527867
0.057808273 -0.04889188 0.038806003 0.09503936 -0.009113144 0.08736594 0.00348286 0.06501937
-0.08195994 -0.07867155 -0.01727542 0.040407706 -0.048301112 0.020255726 0.09273205 -0.06080116
0.030605821 0.0065330993 0.06428589 -0.09698009 0.0008033579 0.059716027 0.0401535 -0.013201361
-0.011551879 0.025972167 0.036935706 0.038285013 0.011829922 0.013730757 -0.03838666 0.031520568
0.03608036 0.067667514 0.006153458 -0.0737432 0.024873896 0.03038587 0.08447198 -0.073209
0.075595036 -0.031444833 -0.079959586 0.02340385 0.092280716 -0.09573679 -0.068933636 0.08412997
-0.07695643 -0.04621548 -0.024163116 0.04536013 -0.04359591 0.021418849 -0.08889016 0.0032796576
0.01806473 -0.04393623 -0.048101082 0.04240056 0.08510885 -0.007598635 0.04993259 -0.016622368
-0.04353139 -0.018672261 0.006640975 -0.07756917 -0.0026154544 -0.03995135 0.023957722 -0.05455075
0.092005454 0.047572337 -0.039174948 0.07216759 -0.021436615 -0.08239849 -0.013699381 0.063768595
0.0865014 -0.05741707 -0.030354943 -0.02310095 0.07398934 0.051406704 -0.07089033 0.06926955
0.077429555 0.010397314 -0.08431975 -0.051876903 0.020843245 -0.001274761 0.09058694 -0.025875889
0.058482565 0.05343134 0.028724754 0.033227652 -0.025097903 0.016266232 0.03587947 -0.00929883
0.02782389 0.028109768 0.099584706 0.03180669 0.065364495 -0.0026617933 -0.07091697 0.06928498
-0.003911329 0.024797406 0.034195628 -0.024489792 -0.06647994 0.04863717 -0.03378273 0.015452602
0.026958682 -0.0067129205 0.01445501 -0.018473467 0.06623794 -0.08145853 0.049988493 -0.0015478518
-0.040503696 0.06690101 -0.009492659 0.0627007 -0.059276886 0.0100574 0.018303568 0.033086035

lstm.weight_hh_l1 f4 [512, 128]
00000000: 73b5 353b c5b2 983d ce5c 7c3d d209 803d
00000010: ea41 6dbd 2807 37bc a0dd 33bd 8360 a2bd
00000020: c04e 863d 5a12 93bd e789 173c d4a6 03bd
00000030: 5518 a63d 67db 8e3d db05 453c bce5 7abd
00000040: 77f4 3ebc 1f5c b5bd bf85 eabc 8562 b33c
00000050: 450e 01bd ddfc 13bc ea01 9dbc c95b 43bd
00000060: e558 4e3d fbca cfbd 1739 643d 8f36 93bd
00000070: 1d03 3a3c 99e2 903d 3f6d f9bb d644 84bd
00000080: 1109 113d e93a 4e3d e6d4 3b3d fc11 7ebd
00000090: 1ca3 c6bb 83fd 1fbd 1770 b0bd d50f 17bd
000000a0: 8914 b1bd d53d 5fbd 36d1 85bd f139 53bd
000000b0: 2f79 873d df0e 1cbd 8fc2 9ebd 0809 33bd
000000c0: 4635 10bd f65c 03bd 2499 e23c aa04 da3c
000000d0: 493f 373d d291 b93d 9513 1ebd 648f 803d
000000e0: 7ff3 4dbc d95f b23d 6a15 67bc 71b3 4bbd
000000f0: a23d 1fbd 12c1 c13d 9129 ac3c 0f57 c53d
00000100: f954 cebc 93fe 913d 6946 a93c eddb 8a3d
00000110: 12ee 9fbd 5e93 a8bd 926d 0b3d 47a4 673d
00000120: 769e c03b c2a4 ed3a 137d 36bd 509a 8a3d
00000130: 0d6c 6c3d d667 833c 2c8f 1e3d 939e 8dbd
00000140: d029 71bd 2105 93bd 611e a7bc 56bc 8e3d
00000150: b0e3 39bd d2bf ff3b 35c7 283d 7012 983d
00000160: 0296 babc 39fc 86bd 2f59 af3c 9655 a8bd
00000170: 80df 553d 3d9a a03d 30d9 33bd 70df 8bbd
00000180: 347e 4cbd d071 a63d aefa b23d 8191 30bd
00000190: e186 983d db64 44bd bae7 dcbc 3450 3cbd
000001a0: a361 9fbd 15b6 3d3d cf5d 423d 22c2 c03d
000001b0: a7cd a83d 7ae3 c93d d3c0 043d 26b0 8ebd
000001c0: 96d6 92bd 5be4 953d 7ddc 94bc 1e13 bbbd
000001d0: 6ebc b53a 2fb0 38bd ab5c 3cbc b4dc 4dbc
000001e0: a743 fbbc 78c4 95bc 6557 c73d a759 babd
000001f0: 6829 f83c 74e5 c43d fd1f 903d 2a49 c3bd
00000200: 8e68 8cbd 1de2 2fbc 5c69 2bbc 4473 70bc
00000210: b474 b8bc 3da5 93bd 97af 05bd e155 f43b
00000220: 889b 603d 7e77 a73d 7ab4 ce3d 9b83 18bd
00000230: eaab 5b3d 9d9a 16bd 00ba 0a3c 39fc c63d
00000240: 1213 383d 6fbe 9c3d 9bec 393d 0a50 30bc
00000250: 0b22 973d d139 48bb ac6f 6e3d 5770 93bd
00000260: 9c73 0c3c b62b 92bd 8d35 14bc 57e7 a23d
00000270: 2feb 6b3d 7222 493d e8b9 afbd 17ea a7bd
00000280: cab8 aabd c5d2 83bd 9dbd e03c d637 b63c
00000290: 7cee b83d cd61 333d 4850 b2bd 1f37 8fbd
000002a0: fbbf a53d 2206 35bd d38c 36bd 3c7b fdbc
000002b0: ebc0 8b3d 4369 8a3d 63ee 43bd 104a bfbc
000002c0: c019 0a3d e4e5 523c 0792 813d d6d4 5b3d
000002d0: e2c4 7a3a dafb bfbc 01e9 17bc af7a 53bd
000002e0: 9ee9 f9ba 0b90 313d a66e 423d 2424 bc3d
000002f0: 57d6 a53d 94f4 653d ddb3 b03d 5b28 dcbc
00000300: 8ca9 1ebc 1ef9 033d 8481 9d3d 78f9 09bd
00000310: 5e81 a63d a239 4a3d 4028 d33c bd4f 46bd
00000320: c8e0 c83d b6bc 02bd 8530 36bd f565 9cbd
00000330: 2341 abbd cbd7 6ebc 3241 50bb 6a56 b63d
00000340: 2aee 89bd 3656 e4bc b643 243d 4294 a9bd
00000350: 3372 4a3d c00e bd3c ef22 163d 2ab3 613d
00000360: e539 34bc dc53 ccbb f6f5 9aba 69c9 81bc
00000370: 902e e13c fb8a 5f3d 57be d23b 30a4 6fbd
00000380: 5dc6 c13d d02d 1f3d 345f 4dbd 3e96 e63c
00000390: fe49 a33d 6328 5f3d 68fd c7bb dd21 383d
000003a0: 5e2e b93c a7c6 3dbc d82e fc3c a730 0e3b
000003b0: 599a c6bd c275 77bd 6799 4ebd 144d 663d
000003c0: 9cbb b03d a888 18bd 0a5f 96bd 3116 babd
000003d0: 87d6 20bd 9079 413d 24bb 87bd a1fb 083d
000003e0: f5fb dc3c abca c13c 602c b2bc 7e75 9fbd
000003f0: 263c a63d 5d02 1b3d a8a8 9cbd abf7 c4bc
0.002772656 0.074559726 0.061611943 0.06251873 -0.05792419 -0.01117114 -0.04391253 -0.079285644
0.06557989 -0.07181235 0.009249187 -0.03214152 0.0811011 0.069754414 0.012025322 -0.061254248
-0.011654965 -0.08855461 -0.028628228 0.021897564 -0.03150775 -0.009032455 -0.019165952 -0.047694955
0.050377745 -0.10146137 0.055718508 -0.071881406 0.011353281 0.0707447 -0.0076119 -0.06458442
0.035409037 0.05034915 0.045857333 -0.06202887 -0.0060619246 -0.039060127 -0.086151294 -0.036880333
-0.08646495 -0.054502327 -0.065340444 -0.05156893 0.06614911 -0.03810012 -0.07751953 -0.043709785
-0.035207056 -0.032071076 0.027660914 0.026613552 0.044738088 0.09061016 -0.038592894 0.062773496
-0.012570261 0.08709688 -0.014104227 -0.049731676 -0.038877137 0.09460653 0.021015914 0.09635746
-0.025187002 0.07128634 0.020663457 0.06780229 -0.0780908 -0.08231233 0.03404004 0.05655315
0.005878265 0.0018130767 -0.044552874 0.06767714 0.057720233 0.016040724 0.038710758 -0.06915011
-0.058877766 -0.07178713 -0.020400228 0.06969516 -0.045383155 0.007804849 0.041205604 0.07425392
-0.022776607 -0.065910764 0.02140483 -0.08219449 0.0522151 0.078419186 -0.043908298 -0.06829727
-0.049925044 0.08127177 0.087392196 -0.043107513 0.07447601 -0.047947746 -0.026965965 -0.045974925
-0.077822946 0.046316225 0.047452744 0.09412028 0.0824235 0.09857841 0.032410454 -0.069671914
-0.07169835 0.07318946 -0.018171543 -0.09134506 0.001386536 -0.045089897 -0.011496703 -0.012564827
-0.030671908 -0.01828216 0.09733466 -0.09099131 0.030293182 0.09614077 0.07037351 -0.09535439
-0.0685588 -0.010735062 -0.010462131 -0.014675919 -0.022516586 -0.07209251 -0.03263816 0.0074565266
0.054835826 0.08177088 0.10093017 -0.037234884 0.053630747 -0.036768544 0.008467197 0.097160764
0.044940062 0.0765351 0.04539166 -0.01076127 0.0737954 -0.003055204 0.058211967 -0.071991615
0.008572485 -0.071372434 -0.009045971 0.07954281 0.057597335 0.049105115 -0.08580381 -0.08198946
-0.08336027 -0.064366855 0.027434165 0.022243422 0.09029862 0.043794442 -0.08706719 -0.069929354
0.08093258 -0.0441953 -0.044567894 -0.030942552 0.068239056 0.06758358 -0.047834765 -0.023350745
0.033715963 0.012872193 0.06326681 0.053669773 0.0009566081 -0.023435522 -0.009271861 -0.051630672
-0.0019066816 0.04335026 0.047468804 0.09186581 0.08097523 0.05614145 0.08628056 -0.026874712
-0.009683978 0.03222 0.07690719 -0.033685178 0.081301436 0.04937137 0.025776029 -0.048415888
0.098084986 -0.03191825 -0.044479866 -0.07636634 -0.08362033 -0.014577816 -0.003177714 0.08903201
-0.06734879 -0.02787314 0.040103637 -0.08280231 0.049425315 0.023078322 0.03665441 0.055102505
-0.011000131 -0.0062355828 -0.001182257 -0.01584311 0.027488023 0.0545759 0.0064313817 -0.05850619
0.09461663 0.03886205 -0.05013962 0.028147813 0.07973097 0.054481875 -0.0061032064 0.04495417
0.022605117 -0.011583007 0.030784056 0.002169648 -0.09697408 -0.060415037 -0.050439265 0.05622585
0.08629534 -0.0372397 -0.07342346 -0.09086264 -0.03926709 0.04723507 -0.06627491 0.033443097
0.026975611 0.02365621 -0.021749675 -0.07786082 0.08116941 0.03784405 -0.07649356 -0.024043879

lstm.bias_ih_l1 f4 [512]
00000000: 9dd3 293b f798 1d3b 5218 75bb f251 2e3b
00000010: 82bb 813b 4eed 583b 8e4c 213b 6b5b 0f3b
00000020: becd 9eb7 ac18 1abb 8862 ad3b fd53 b63a
00000030: bb85 d13b b4ed b73b ea12 023b baa3 2a3b
00000040: 92da 593b 9f8f 2d3b 6c55 a73a 26ef b33b
00000050: 251b 953b 6ca3 2b3b c534 ee3b db22 173c
00000060: 596a 8238 c7d1 b63b 6f6f 09ba 7417 0c3c
00000070: 6062 c63b 3182 043c 29e7 02bb 24c8 053b
00000080: a377 e6ba c2ab bc3b 9ef3 853b c26f 22bb
00000090: 448f a1ba 4ddc 73ba cf14 ce3b d5e6 643b
000000a0: 014e 4f3b 50ed 023b 25b3 ab3b 1ed7 b3b7
000000b0: f9b4 74ba 58c1 3d3b 3e9a 663b aedc 3e3b
000000c0: 8991 11bb 59d6 613b ad3d 29bb 2dfd 13bb
000000d0: 2d86 43ba 267f 0b3b 78d6 e43b 86b3 093b
000000e0: ecce cb3b d66f 533a 058b a73b 2fad 2539
000000f0: 76bd 913b 1e78 823b faf8 b53a 79fb 9bbb
00000100: 3601 273b 8b82 a8ba 0467 fe3b 5abd 4ebb
00000110: 76a8 843a bab4 a6ba 8996 193b a38b f3b8
00000120: 7237 0c3b 9fa0 ab3b 55e3 ce3b 1972 633b
00000130: 5c55 113b 8053 55ba 0a83 123b 938f b5ba
00000140: ffa2 573b affb 653b 97b0 6e3b ff50 643a
00000150: 066b 963a eb49 b43a 88e2 253b 86bf 073a
00000160: 21ea 3d3b 5c3f 06bb a479 383b 18de 9e3b
00000170: a6b7 a03b a105 80bb 230e f9ba 70cd 203b
00000180: 7849 2b3b 39e2 c53b ae63 4c3b 159c 13b9
00000190: a81e 0aba 698d 613b 5a27 693b 8ad6 6f3a
000001a0: e1bf ca3a e6e9 0b3b e0c8 6838 e521 383b
000001b0: 5c3b 293b 5e95 caba 9ebd a03b 98c5 e63b
000001c0: f3da 2cbb 8cde 9739 f6f4 22b7 7392 5639
000001d0: 48f9 a33b 4657 b139 a2cf ab3b a414 a83b
000001e0: 56f9 913b 16ff 113b 187b 1f3b d8be ae3b
000001f0: aaf6 6e3b c5c3 623a a04f d23b 40ac ca3b
00000200: 407a 1a3b 05bf 273b 21f5 37bb f84f 0f3b
00000210: 3dd5 453b 03c2 503b 02b9 2f39 b86e 5d3b
00000220: 4985 9f39 ad37 b5ba 9222 c93b 002c 2b38
00000230: 9951 ef3b 640d d63b c6da e33a 5021 513b
00000240: 35b9 333b a65c fb3a 5659 853a 2acd bb3b
00000250: 779b a93b bbbd 123b 9c70 d93b 4eb0 3d3c
00000260: 487f 9ab8 80e6 d53b 09e3 9aba bb54 083c
00000270: 432b 023c 4d4a 0e3c dde0 8aba 6959 ea39
00000280: ce67 80ba b737 9d3b 863a a13b d511 4dbb
00000290: af9d 93ba 101e b9ba 0c58 c33b c6a4 803b
000002a0: e0fa 193b f68e 243b 1244 be3b 9c84 d8b9
000002b0: 6df3 67b9 9e81 373b 6866 4e3b 0ca2 5b3b
000002c0: 15e7 02bb b0c6 573b ec08 10bb 777a 19bb
000002d0: 683d a3ba 9dbf d13a 4538 ef3b 3823 c239
000002e0: a2ff bf3b 1356 993a 5e24 bc3b bad6 a13a
000002f0: 5f7c 863b a951 933b 32ad 933a 1c77 8ebb
00000300: f33b 053b 9c9f adb9 c0e4 fb3b e0d5 fcba
00000310: b8e5 d13a c7fe 95b9 74ad d63a d72b 90ba
00000320: 002f 543b 3c85 803b 8026 df3b e8ce 2a3b
00000330: 1c5e 2f3b 3cf2 45ba fb71 ff3a e85e eeba
00000340: e2e0 763b 3d5d 533b 5ef1 803b d2f3 cd3a
00000350: 5c62 953a ae5d d23a fdce 1a3b 7728 f338
00000360: 0299 213b 6d99 fcba 94d1 f23a b69c 813b
00000370: e2bb a73b c89b 80bb 4089 0abb d350 043b
00000380: 8b57 bc3b 1e1f 9e3b bfe3 5f3b afd7 f838
00000390: ded9 3d3a ba6e 953b faf6 803b 79bf 573a
000003a0: 51c7 3d3a da77 e83a 3269 ce39 2326 b73a
000003b0: dbb4 323b 1407 2db9 d8a8 a03b 7170 db3b
000003c0: 052d 1dbb a7df 5239 a8f2 9839 b837 d939
000003d0: ec5d 7b3b fe4e f937 30b1 963b 8122 c53b
000003e0: e344 483b d104 c93a e81f c43a 9f08 ad3b
000003f0: 4411 663b c06b 8b39 6519 d53b 13a4 f03b
0.0025913485 0.0024047473 -0.003739853 0.0026599136 0.0039591203 0.003310043 0.002461228 0.0021874558
-1.8930874e-05 -0.002351324 0.005291287 0.0013910529 0.0063941157 0.005613053 0.00198477 0.002603753
0.003324185 0.002648331 0.0012766547 0.005491155 0.004550355 0.0026189936 0.007269474 0.009224619
6.218692e-05 0.0055792066 -0.000524274 0.008550514 0.0060542077 0.008087681 -0.0019974208 0.0020413483
-0.0017583262 0.00575778 0.0040878793 -0.002478585 -0.0012326022 -0.0009302542 0.0062891017 0.0034927626
0.0031632187 0.0019977875 0.0052398616 -2.1438635e-05 -0.00093348284 0.0028954353 0.003518715 0.0029123235
-0.002221199 0.0034460037 -0.0025824115 -0.0022581324 -0.00074586534 0.0021285503 0.0069835745 0.0021011545
0.0062197354 0.0008065676 0.005113008 0.00015800142 0.0044476343 0.0039816042 0.0013883405 -0.0047602025
0.00254829 -0.0012856288 0.0077637453 -0.0031545968 0.0010121006 -0.0012718656 0.0023435673 -0.00011613152
0.0021395353 0.0052376534 0.006313721 0.0034705459 0.0022176122 -0.00081377476 0.0022355937 -0.0013851993
0.003290355 0.0035092642 0.0036421174 0.0008709579 0.0011475987 0.001375494 0.0025312025 0.00051783805
0.0028978663 -0.0020484542 0.0028148675 0.004848253 0.004904705 -0.003906921 -0.0019001405 0.0024536513
0.002613632 0.0060389307 0.0031187343 -0.00014077158 -0.00052688504 0.0034416562 0.0035576434 0.0009149095
0.0015468561 0.002134913 5.550019e-05 0.0028096375 0.0025822734 -0.0015455892 0.0049054166 0.007042598
-0.002637562 0.00028966775 -9.712987e-06 0.00020463187 0.005004082 0.00033825095 0.0052432576 0.0051294137
0.004454772 0.0022277287 0.0024334844 0.005332809 0.0036462941 0.0008650388 0.0064181834 0.0061850846
0.0023571402 0.0025596034 -0.0028069692 0.0021867733 0.0030186914 0.0031853921 0.00016758221 0.0033787917
0.00030426148 -0.0013825797 0.0061381543 4.0810555e-05 0.0073034284 0.006532358 0.0017383925 0.0031910725
0.0027423624 0.0019177392 0.0010173719 0.0057312446 0.0051760036 0.002239092 0.0066357385 0.011577679
-7.367e-05 0.006527722 -0.0011816929 0.008320983 0.007944885 0.008684707 -0.0010595579 0.00044698574
-0.0009796561 0.0047979015 0.0049203066 -0.0031291146 -0.0011262203 -0.0014123339 0.0059614237 0.0039258925
0.002349548 0.0025109625 0.0058064545 -0.00041297532 -0.0002212056 0.0028000842 0.0031494144 0.0033513336
-0.0019974161 0.0032924823 -0.0021977974 -0.0023418942 -0.0012454214 0.001600254 0.007300409 0.00037028803
0.005859331 0.0011698626 0.00574164 0.0012347319 0.0041041817 0.0044958186 0.0011266826 -0.004347695
0.0020329922 -0.0003311605 0.0076871812 -0.0019289814 0.0016013896 -0.00028609319 0.0016378597 -0.0010999393
0.0032376647 0.003922133 0.0068100095 0.0026063267 0.0026758974 -0.00075510493 0.0019488925 -0.0018186243
0.0037670662 0.003225162 0.003935023 0.0015712923 0.0011397111 0.0016049647 0.002362191 0.0001159468
0.002465785 -0.0019271799 0.0018525594 0.003955449 0.005118833 -0.0039248206 -0.0021138936 0.0020189777
0.0057477406 0.004825487 0.0034162847 0.00011865736 0.00072422426 0.004560319 0.003935692 0.0008230131
0.0007239478 0.0017735914 0.00039369758 0.0013973158 0.0027268443 -0.00016501202 0.0049029402 0.0066967537
-0.0023983133 0.00020110478 0.00029172492 0.0004143098 0.0038355542 2.9719897e-05 0.004598759 0.006016076
0.0030558638 0.0015336518 0.0014963122 0.0052805687 0.0035105506 0.00026592426 0.0065032714 0.007343778
