models/policy_net_barrier_1inst (4).pth (torch, 876098 bytes, 11 tensors)

lstm.weight_ih_l0 f4 [512, 5]
0	0xbd8e8054	-0.069580704
1	0x3d02e5aa	0.031957306
2	0xbd4e840e	-0.050418906
3	0xbd25087d	-0.0402913
4	0xbd356a3a	-0.04429076
5	0xbd44433e	-0.04791569
6	0xbdc0f65b	-0.094219886
7	0x3d60c888	0.05487874
8	0x3d07c7ab	0.033149403
9	0xbd3d3a06	-0.046197914
10	0x3b7df3e6	0.003875011
11	0x3c17f873	0.0092755435
12	0xbd1a9bac	-0.037746117
13	0xbd2b4a6e	-0.04181903
14	0x3e0001a1	0.12500621
15	0x3e01609e	0.12634513
16	0x3d3f4724	0.046698704
17	0xbceb9ae8	-0.028760388
18	0x3d25a115	0.040436823
19	0xbdc6e06b	-0.09710773
20	0x3cf356f2	0.029704545
21	0xbd89576b	-0.06706127
22	0xbdae232e	-0.08502804
23	0x3d20b888	0.039238483
24	0xbb7aaaba	-0.0038248734
25	0x3db0c96f	0.086321704
26	0x3dc6a49a	0.09699364
27	0x3d8b08cd	0.06788788
28	0x3d90f32a	0.0707763
29	0x3d6557af	0.055991825
30	0x3dca97e2	0.098922506
31	0x3d3da1bd	0.046296824
32	0xbca5eeef	-0.020255534
33	0x3d3040c1	0.043030504
34	0xbd50356e	-0.050832205
35	0xbcd8c62a	-0.02646168
36	0x3dccbac4	0.0999656
37	0xbdbf3d42	-0.09337856
38	0xbdaae529	-0.0834449
39	0x3df54093	0.11975207
40	0x3d807c4d	0.062737085
41	0x3d891ccc	0.06694946
42	0xbca17969	-0.019711213
43	0x3ba1a587	0.0049330625
44	0x3d713e86	0.058897518
45	0x3a63ff0f	0.00086973695
46	0xbbe20c65	-0.00689845
47	0xbcbf60b9	-0.02336155
48	0xbd82220b	-0.063541494
49	0x3d93d848	0.07218987
50	0x3d4f574d	0.050620366
51	0xbd9153df	-0.07096075
52	0x3da5ff4a	0.08105333
53	0x3da60ced	0.08107934
54	0x3d817613	0.06321349
55	0x3da0d685	0.07853416
56	0x3df1ae40	0.11800814
57	0xbd9a0a03	-0.07521441
58	0x3a99828e	0.0011711882
59	0x3d9a0b13	0.075216435
60	0xbcb86579	-0.022509323
61	0xbd6c4dc3	-0.057691347
62	0xbd7bf163	-0.0615095
63	0xbd1c5c8a	-0.03817419
64	0x3c7dfd51	0.01550229
65	0xbd59585c	-0.05306278
66	0xbb95af99	-0.004568052
67	0xbda2ad4e	-0.079432115
68	0xbdaa1dff	-0.083065026
69	0x3da31a3e	0.0796399
70	0xbda2cb01	-0.07948876
71	0x3bc94742	0.006142528
72	0x3dc60dc4	0.09670594
73	0xbd7f208f	-0.06228691
74	0x3d66ac49	0.056316648
75	0x3c81738c	0.015802167
76	0x3d5e1bb2	0.05422563
77	0x3dcdaaa6	0.10042314
78	0xbd8d131b	-0.0688841
79	0x3c3af7ad	0.01141159
80	0xbcd92ff9	-0.026512133
81	0x3d367166	0.04454174
82	0xbd647da2	-0.055783875
83	0x3d801db0	0.062556624
84	0x3d335088	0.043777972
85	0xbc94e7e6	-0.018176984
86	0xbd97ada6	-0.07406168
87	0xbd850e83	-0.064969085
88	0xbc96c189	-0.018402832
89	0x393af38e	0.00017829073
90	0xbb686f57	-0.0035466754
91	0xbc91eb6f	-0.017812459
92	0xbd3c56f8	-0.045981377
93	0xbd01dcd2	-0.03170473
94	0x3dc0df5e	0.09417604
95	0xbd89d527	-0.06730109
96	0x3dcb54ae	0.09928261
97	0x3c8cd070	0.017189234
98	0xbd09e1c4	-0.033662573
99	0xbdac655f	-0.084177725
100	0xbd2ac6ee	-0.04169362
101	0x3d7df6fd	0.062003125
102	0x3cc6681f	0.02421957
103	0xbd785a88	-0.060633212
104	0x3d144dab	0.036206882
105	0xbdba452a	-0.09095223
106	0xbd1aeb72	-0.037822194
107	0x3de47a8f	0.11156189
108	0xbca3c985	-0.019993553
109	0x3d86e93c	0.06587455
110	0xbd5b558b	-0.053548377
111	0xbd4da997	-0.05021056
112	0xbb997158	-0.004682701
113	0xbda171dd	-0.07883046
114	0x3dd22d34	0.10262528
115	0x3bb800dd	0.0056153373
116	0x3d458078	0.04821822
117	0x3d84af7d	0.06478784
118	0x3dad2dec	0.084560245
119	0x3d7ee536	0.06223031
120	0xbcc9423a	-0.024567712
121	0x3d6055f0	0.054769456
122	0x3dd1cd37	0.1024422
123	0xbc1d3cde	-0.009597031
124	0xbc0187da	-0.007905925
125	0x3de42155	0.1113917
126	0x3db69053	0.089142464
127	0x3d9cc09f	0.07653927
128	0xbd08f3a1	-0.033435468
129	0xbb8b9cd8	-0.0042606406
130	0x3de98756	0.114027664
131	0xbd24dada	-0.040247776
132	0x3d4e669f	0.050390836
133	0xbd52ef88	-0.051497966
134	0x3d2649b5	0.040597636
135	0xbd0d4205	-0.03448679
136	0x3d55e1a5	0.052217145
137	0xbcd3fafe	-0.025876518
138	0xbd7de0ed	-0.061982084
139	0xbd84c951	-0.064837106
140	0x3afa4e9a	0.0019096911
141	0x3cba0e26	0.022711825
142	0xbd8e14c1	-0.06937552
143	0x3d0e18c0	0.034691572
144	0x3dac1790	0.08402932
145	0xbd7176bb	-0.05895112
146	0xbbdac672	-0.0066764886
147	0xbdba4fd1	-0.09097255
148	0x3cee55b9	0.02909361
149	0x3d33abef	0.04386514
150	0x3d231c42	0.03982187
151	0x3abd93ba	0.0014463582
152	0x3d04e707	0.032446887
153	0x3d42c173	0.04754777
154	0x3da9497f	0.082659714
155	0x3db8f0e6	0.09030323
156	0xbdbca4f9	-0.092111535
157	0xbd985711	-0.074384816
158	0x3daf8acc	0.08571395
159	0x3d6f0054	0.058349922
160	0x3d9e820d	0.07739649
161	0x3d9fcdd1	0.07802928
162	0x3b34cf95	0.002758955
163	0xbd6b2228	-0.05740562
164	0xbd3ef95b	-0.046624523
165	0xbc66e2fb	-0.014092202
166	0xbc957346	-0.018243443
167	0xbbff7d5b	-0.007796926
168	0x3c9f37e6	0.019435834
169	0xbdd3b2cc	-0.10336837
170	0x3cb65a67	0.022259904
171	0xbc34bc4f	-0.011031224
172	0xbc05974e	-0.00815375
173	0x3d1cfeae	0.03832882
174	0x3dc92229	0.09820969
175	0xbda7c471	-0.08191765
176	0xbd99afce	-0.07504235
177	0x3c5bea57	0.01342257
178	0xbbece358	-0.00722925
179	0x3dcb673d	0.099318005
180	0x3cdc68f0	0.026905507
181	0x3daedb2a	0.08537896
182	0xbc647daf	-0.013945981
183	0xbcaec18a	-0.021332521
184	0xbdc38a36	-0.09547846
185	0x3d80d662	0.0629089
186	0x3dc8deac	0.09808096
187	0x3d2c5a04	0.042078033
188	0x3d861d19	0.06548519
189	0x3d81c3a4	0.063361436
190	0x3c4b76c9	0.012418457
191	0xbd86f2cb	-0.06589278
192	0x3d5c1b01	0.05373669
193	0x3db2c5d2	0.087291375
194	0xbdc9ddcc	-0.098567575
195	0x3db5e280	0.08881092
196	0xbdbb49a2	-0.09144904
197	0x3cd7ddd4	0.026350893
198	0xbd2f4ecc	-0.042799756
199	0x3c97123e	0.018441316
200	0xbdbb043c	-0.09131667
201	0x3dcff046	0.101532504
202	0xbc6ecda9	-0.0145754
203	0x3c66f608	0.014096744
204	0x3d9af71b	0.07566663
205	0xbd67ffa5	-0.056640286
206	0xbd791ced	-0.0608186
207	0xbd8b23a9	-0.06793911
208	0xbda5c0c7	-0.0809341
209	0xbdc495be	-0.095988736
210	0xbd2c5c2e	-0.042080097
211	0x3d169004	0.036758438
212	0xbd6dd8b8	-0.058068007
213	0xbd8f3980	-0.06993389
214	0x3d8729d0	0.06599772
215	0x3d31118f	0.043229636
216	0x3d984e12	0.07436766
217	0x3dbea6bf	0.09309148
218	0xbc383dd2	-0.011245208
219	0xbdbc9350	-0.09207785
220	0xbdb54794	-0.08851543
221	0x3cb73aec	0.022366963
222	0x3cd567df	0.026050506
223	0x3dcd3089	0.10019023
224	0xbdc8a1d8	-0.09796494
225	0x3d12bb7a	0.035823323
226	0x3c6272ac	0.013821285
227	0x3de1d40d	0.110267736
228	0xbda8c7cc	-0.08241233
229	0x3da1d2ea	0.07901557
230	0x3ded0e1f	0.11574959
231	0xbd5d5ac2	-0.05404163
232	0x3c2bc489	0.010483869
233	0xbce044ea	-0.02737661
234	0xbd1fd949	-0.03902558
235	0xbd00e6d4	-0.031470135
236	0xbdc4722a	-0.095920876
237	0xbd9fbbdd	-0.07799504
238	0xbd742438	-0.059604853
239	0xbd8a7578	-0.06760687
240	0x3e0359b8	0.12827194
241	0x3d17ebe1	0.037090186
242	0x3dcf1f29	0.10113365
243	0x3da03ed8	0.078244865
244	0x3da52f11	0.08065618
245	0x3d0cee41	0.034406904
246	0xbdbf6a0d	-0.093463995
247	0xbd37141f	-0.044696923
248	0x3d39c3ea	0.045352854
249	0x3caab74b	0.020839354
250	0xbb95ab33	-0.0045675277
251	0x3cbf67ea	0.02336498
252	0x3d366a93	0.04453523
253	0xbd8d044a	-0.06885584
254	0x3b8eafc7	0.0043544504
255	0xbd163c68	-0.0366787

lstm.weight_hh_l0 f4 [512, 128]
0	0x3d8397f8	0.0642547
1	0xbd86604f	-0.06561338
2	0x3d3ad116	0.045609556
3	0x3d87fb44	0.06639722
4	0xbcb4aea3	-0.02205593
5	0x3b93f754	0.004515568
6	0x3cefa348	0.029252663
7	0x3d924f52	0.071440354
8	0xbd89e28c	-0.067326635
9	0xbdb26a3a	-0.08711667
10	0x3d558faf	0.05213898
11	0x3dc1f38a	0.094702795
12	0xbcc6c97e	-0.024266
13	0xbc993511	-0.018702062
14	0x3cad8a0e	0.021183994
15	0x3d024454	0.031803444
16	0xbd9fc748	-0.07801682
17	0xbc029e12	-0.007972257
18	0x3d1262d9	0.0357388
19	0x3d9686d5	0.07349936
20	0xbbe4a180	-0.00697726
21	0x3c47321e	0.012157945
22	0xbd99c372	-0.07507981
23	0x3d8f4c57	0.069969825
24	0xbd1b7170	-0.03794998
25	0xbd528aed	-0.05140202
26	0xbd82f1f4	-0.06393805
27	0x3c5a4b99	0.013323688
28	0xbd885c9a	-0.06658287
29	0x3af5dd24	0.0018757922
30	0xbda7524e	-0.08169995
31	0xbd28865a	-0.041143753
32	0xbd5e2d51	-0.054242436
33	0xbcdc6ff2	-0.026908848
34	0x3d87ecd8	0.06636971
35	0xbd476a56	-0.048685394
36	0x3c148ed5	0.009067257
37	0x3d58684d	0.052833844
38	0xbc11c226	-0.008896386
39	0x3d86dfcb	0.06585654
40	0xbca4476e	-0.020053592
41	0xbda74c46	-0.08168845
42	0xbcfe176b	-0.031017026
43	0xbda04ce7	-0.07827168
44	0xbd615c96	-0.055019937
45	0x3cba08f1	0.022709342
46	0xbca24a8b	-0.019810935
47	0x3ce96f56	0.028495472
48	0xbd3cde43	-0.046110403
49	0x3c747707	0.014920956
50	0x3db6443b	0.08899733
51	0xbd9a5c48	-0.075371325
52	0x3dca42a4	0.09875992
53	0xbd9f1929	-0.07768471
54	0xbd0c4ea4	-0.034254685
55	0x3da79ebd	0.08184574
56	0x3dccad3c	0.09993979
57	0x3cce4fec	0.025184594
58	0x3d4875f2	0.048940606
59	0xbcbb5908	-0.022869602
60	0xbd319ba0	-0.043361306
61	0xbc9e56be	-0.019328471
62	0x3dadfb39	0.084951825
63	0x3dd207b8	0.102553785
64	0xbd8eca3b	-0.06972166
65	0x3c8a20d2	0.016861353
66	0xbc83c06b	-0.016082963
67	0x3da855d7	0.08219498
68	0x3da67126	0.0812705
69	0xbce42489	-0.027849453
70	0x3d8b87be	0.06813
71	0xbd87fa0d	-0.0663949
72	0x3d358303	0.044314396
73	0x3d454642	0.048162706
74	0xbd2af8df	-0.04174125
75	0x3d1c7d71	0.038205568
76	0xbd01f628	-0.031728894
77	0xbc8b5d6b	-0.017012319
78	0xbcda40ab	-0.026642164
79	0xbd71e804	-0.059059158
80	0xbd495c30	-0.049160182
81	0x3d12bb1c	0.035822973
82	0x3d5bd5c3	0.053670656
83	0x3dc7bd97	0.09752958
84	0x3da933a6	0.08261804
85	0x3daee9f3	0.08540716
86	0xbdb80765	-0.089857854
87	0xbc25149e	-0.010075716
88	0x3d2566d7	0.04038128
89	0xbc20e5d0	-0.009820417
90	0x3db6b64b	0.089214884
91	0x3d9f3b39	0.07774968
92	0xbcfd95ff	-0.030955313
93	0xbcf60d16	-0.030035537
94	0x3c5066b9	0.0127198035
95	0x3c99fd39	0.018797504
96	0x3d17b2da	0.0370358
97	0x3db4a510	0.08820546
98	0x3c972433	0.018449878
99	0xbd947da9	-0.0725053
100	0x3d971ab1	0.07378138
101	0x3d995ef8	0.07488817
102	0xbdae1274	-0.084996134
103	0xbd4598ba	-0.048241355
104	0xbd955e5a	-0.07293387
105	0xbda9d1f9	-0.08292002
106	0xbd284ccb	-0.04108886
107	0xbda1c41d	-0.07898734
108	0xbce2ddef	-0.027693717
109	0xbd80704a	-0.062714174
110	0x3adaa19f	0.0016680247
111	0xbc84940e	-0.01618388
112	0xbc27adf8	-0.0102343485
113	0xbcd5e232	-0.026108835
114	0xbdad6952	-0.08467354
115	0xbd5bcb35	-0.05366059
116	0xbd5523dd	-0.052036155
117	0x3d8ea30c	0.069646925
118	0xbd21a608	-0.03946498
119	0x3d434375	0.047671754
120	0x3d10cffb	0.035354596
121	0xbd2babfc	-0.041912064
122	0xbda8ac7f	-0.08236026
123	0xbd84de0c	-0.064876646
124	0xbd9138a6	-0.07090883
125	0x3d898ad9	0.06715936
126	0x3db749f8	0.08949655
127	0x3d8278dc	0.06370708
128	0x3d582140	0.052766085
129	0x3dcc926d	0.09988866
130	0x3dac71a9	0.084201165
131	0xbd27a40d	-0.040927935
132	0xbd223a37	-0.0396063
133	0x3da8132f	0.08206784
134	0xbd357f58	-0.044310898
135	0xbdb614da	-0.08890696
136	0x3d9ae5cb	0.07563361
137	0x3d370abb	0.044687968
138	0x3d844331	0.06458128
139	0xbd38c035	-0.045105178
140	0x3dcf98c4	0.101365596
141	0xbdc75b71	-0.09734238
142	0xbd96f125	-0.073702134
143	0x3d3e442c	0.046451733
144	0xbcd6c082	-0.026214842
145	0xbd949cbe	-0.07256459
146	0x3d574655	0.05255731
147	0xbd32083f	-0.043464895
148	0xbc24314a	-0.010021517
149	0xbdaa2744	-0.083082706
150	0xbb37d24e	-0.0028048935
151	0x3d497adb	0.04918943
152	0xbbdd3a87	-0.006751362
153	0xbca55594	-0.020182408
154	0xbdc6f4f9	-0.097146936
155	0xbbf19e12	-0.00737358
156	0x3d3bfa68	0.045893103
157	0xbdad3776	-0.08457844
158	0x3da91562	0.082560316
159	0x3da2d75b	0.07951232
160	0xbced312f	-0.028954117
161	0xbc241254	-0.010014135
162	0x3d8ee599	0.06977386
163	0x3c2287cb	0.009920071
164	0xbda0dc4a	-0.07854517
165	0x3d97464c	0.07386455
166	0xbd2fff44	-0.04296805
167	0xbd30ea3e	-0.04319214
168	0x3d709ab9	0.058741305
169	0xbcee2c56	-0.029073875
170	0xbda2a1ff	-0.079410546
171	0xbd95a38d	-0.073065855
172	0x3cc3c873	0.023899293
173	0xbd97092c	-0.07374796
174	0xbcf24082	-0.029571775
175	0x3c9446d4	0.01810018
176	0x3d8c3bb9	0.06847329
177	0x3cd987e6	0.02655406
178	0xbbafb5fe	-0.0053622713
179	0x3d377a29	0.044794235
180	0xbc963d5e	-0.018339809
181	0x3d10af41	0.035323385
182	0xbd541c95	-0.05178507
183	0xbdc67782	-0.09690763
184	0xbdc055fc	-0.093914
185	0x3b6a97c0	0.0035796016
186	0x3d0bf070	0.034164846
187	0xbd2f80af	-0.04284733
188	0x3daec842	0.0853429
189	0xbca6d8d6	-0.020367067
190	0xbda8262e	-0.08210407
191	0xbc992fbb	-0.018699517
192	0x3d0ab37b	0.033862572
193	0x3d1d635d	0.03842484
194	0xbda5ad74	-0.08089724
195	0x3db669f9	0.089069314
196	0x3b8d1903	0.00430596
197	0xbd8783c6	-0.06616931
198	0xbd27e037	-0.040985312
199	0xbd857425	-0.065162934
200	0xbd82c886	-0.06385903
201	0x3b382fdc	0.0028104698
202	0xbc39be02	-0.011336805
203	0x3b8d8f83	0.0043200864
204	0xbc8b6d91	-0.017020019
205	0xbd1e5e8f	-0.038664397
206	0x3ce8e8a2	0.02843124
207	0x3dace236	0.08441584
208	0xbd078738	-0.03308794
209	0xbd697fe7	-0.057006743
210	0x3bc344b4	0.005959118
211	0x3d9952bb	0.07486483
212	0x3db02655	0.08601061
213	0x3c30089b	0.010744239
214	0xbd4a0dc2	-0.049329527
215	0xbdbf395e	-0.09337114
216	0x3d1797df	0.03701007
217	0x3d2a5dec	0.041593477
218	0xbc55d014	-0.013050098
219	0xbdb30201	-0.087406166
220	0x3d500651	0.050787274
221	0xbc7201ac	-0.014770906
222	0xbdc0f9ba	-0.094226316
223	0x3dd274ec	0.10276207
224	0x3dc55156	0.09634654
225	0x3d872a37	0.06599849
226	0xbdb51ea7	-0.08843737
227	0x3cde3ea8	0.027129486
228	0xbd9caa5d	-0.07649682
229	0x3db0b246	0.08627753
230	0x3d2b66ab	0.04184596
231	0xbc8e024e	-0.017335083
232	0x3daaf271	0.08347023
233	0xbda2f02b	-0.07955965
234	0xbc803940	-0.015652299
235	0xbccc00bf	-0.0249027
236	0xbdb18246	-0.08667426
237	0x3c81ed16	0.015860122
238	0x3d9cfff9	0.076660104
239	0x3d16b96e	0.036797933
240	0x3d77baa9	0.060480747
241	0x3d7949d3	0.06086142
242	0x3d73a383	0.05948211
243	0xbdb0146f	-0.085976474
244	0x3d568e0c	0.05238156
245	0xbd5f7f15	-0.054564554
246	0x3bf378c6	0.007430169
247	0xbda0ecf2	-0.07857694
248	0x3db25239	0.08707089
249	0xbcb2e1b9	-0.021836149
250	0xbd8e9219	-0.0696146
251	0xbd91cc16	-0.071190044
252	0xbd604038	-0.054748744
253	0xbdbae575	-0.09125797
254	0x3da85f38	0.082212865
255	0x3be353fd	0.0069375024

lstm.bias_ih_l0 f4 [512]
0	0x3b27f313	0.0025627061
1	0x3c0003b7	0.007813386
2	0x3ca3405d	0.019928152
3	0x3bf737c0	0.0075444877
4	0x3c614903	0.0137503175
5	0x3cb39fba	0.02192675
6	0x3c88712c	0.016655527
7	0x3c993cc1	0.018705728
8	0x3b5d646f	0.0033781787
9	0x3b958bf3	0.0045638024
10	0x3c61486e	0.013750179
11	0x3c66f605	0.014096742
12	0xba812d3d	-0.0009855401
13	0x3c926a87	0.017873062
14	0x3c6701ef	0.014099582
15	0x3c283768	0.010267116
16	0x3c6f07f0	0.014589295
17	0x3bcd9c89	0.006274764
18	0x3bf3a442	0.0074353525
19	0x3c0e1d2b	0.008673946
20	0x3c26ba03	0.010176185
21	0x3ae5bd62	0.0017527754
22	0x3bcbda65	0.006221103
23	0x3c7f1a93	0.015570301
24	0x3b882629	0.0041549397
25	0x3bbad436	0.005701567
26	0x3bccf1e4	0.0062544215
27	0x3c80fabc	0.01574456
28	0x3c8c326a	0.017113883
29	0x3bff28ba	0.0077868374
30	0xbb006da2	-0.0019596596
31	0x3c633875	0.013868441
32	0x3c2e4e8c	0.010638844
33	0x3bc597b1	0.006030046
34	0x3c5561a0	0.013023764
35	0x3b7b0c9d	0.0038307079
36	0x3c4a667d	0.012353537
37	0xbb96257f	-0.0045821066
38	0x3bfaea7b	0.007657347
39	0x3c129f77	0.008949152
40	0x3c8e62ab	0.017381033
41	0xbb2bba16	-0.0026203445
42	0x3c193ab7	0.009352378
43	0x3c5908d8	0.013246737
44	0x3c480ad8	0.012209617
45	0xbb3c0c06	-0.002869369
46	0x3c8d2d2b	0.017233452
47	0x3b949090	0.0045338348
48	0x3c593b2c	0.013258737
49	0x3ab55d24	0.0013836962
50	0x3cacec2c	0.02110871
51	0x3c2d36db	0.010572161
52	0x3c8ef07f	0.017448662
53	0x3b922b04	0.0044606943
54	0x3cba8345	0.022767672
55	0x3c7006e1	0.014650078
56	0x3c7437d8	0.014905892
57	0x3c6f8c99	0.014620923
58	0x3c769b7f	0.015051722
59	0x3ba35bab	0.004985293
60	0x3bfa9f5c	0.0076483916
61	0x3c8b45f7	0.017001135
62	0x3c1c8e2c	0.009555381
63	0x3c7c5e27	0.015403307
64	0x3b7c8fd7	0.0038537884
65	0xbb0cb195	-0.0021468152
66	0x3b69b12e	0.0035658586
67	0x3b8c34a1	0.004278735
68	0x3bf2234d	0.007389462
69	0x3b85ad00	0.004079461
70	0x3c71b2fc	0.014752146
71	0x3c22f7e7	0.0099468
72	0x3c03aec6	0.008037275
73	0x3cc5929b	0.024117758
74	0x3c74c177	0.014938704
75	0x3c934711	0.017978223
76	0x3bb2016a	0.0054322975
77	0x3c238a54	0.00998171
78	0x3c9edf31	0.019393535
79	0x3c3759c7	0.011190838
80	0x3c77a1f9	0.015114301
81	0xb8a6088c	-7.917089e-05
82	0x3c6ff99d	0.014646915
83	0x3c33e0b4	0.010978866
84	0x3b943f63	0.004524158
85	0x3bf975ad	0.007612905
86	0x3c3682e8	0.011139609
87	0x3c4c2e71	0.012462244
88	0x3c463516	0.012097618
89	0x3c0451e2	0.008076163
90	0x3bfb8326	0.007675546
91	0x3c838697	0.016055388
92	0x3c52b0f6	0.012859574
93	0x3c36aa11	0.011148945
94	0x3b8f7ad7	0.0043786573
95	0x3b81bb6c	0.00395911
96	0x3c6b079e	0.014345078
97	0x3c0ef766	0.008725977
98	0x3c97acb6	0.018514972
99	0x3c2272d4	0.0099150725
100	0x3c6b2194	0.014351267
101	0x3c53eaae	0.01293437
102	0x3b694b1a	0.0035597743
103	0x3c356f64	0.011073921
104	0x3c241d65	0.010016774
105	0xbc006692	-0.007836955
106	0x3bbf8786	0.005845013
107	0x3bf224e4	0.0073896516
108	0x3c02fe63	0.007995221
109	0x3c27de82	0.010245921
110	0x3b8927fd	0.004185675
111	0x3b662a03	0.0035120256
112	0x3c4011db	0.011723007
113	0x3bcf9113	0.006334433
114	0x3cb43d7b	0.022001972
115	0x3c02b129	0.007976809
116	0x3c52a306	0.012856251
117	0x3c538002	0.012908937
118	0x3c312e9d	0.010814336
119	0x3ca3710f	0.019951371
120	0x3b6197d9	0.0034422784
121	0x3b4dd0bf	0.003140494
122	0x3bb4555a	0.0055033388
123	0x3c415760	0.011800617
124	0x3a8c4349	0.0010701205
125	0x3bcf41c8	0.0063249804
126	0x3c5dca9a	0.0135370735
127	0x3b593d9f	0.0033148301
128	0x3bd1533e	0.006388097
129	0x3bb2f176	0.0054609133
130	0x3c570ad1	0.013125137
131	0x3b2a67ee	0.0026001888
132	0x3c72aca1	0.014811666
133	0x3cc2cac7	0.023778332
134	0x3c889507	0.016672624
135	0x3c8fdec0	0.01756227
136	0x3ade5f18	0.0016965596
137	0x3be5b984	0.0070106406
138	0x3c664969	0.014055588
139	0x3bf27e7f	0.0074003334
140	0x3b6d2368	0.0036184434
141	0x3c69e832	0.014276551
142	0x3ac2d191	0.0014863481
143	0x3c3456c1	0.011007012
144	0x3bda6048	0.0066643097
145	0x3bbcd464	0.0057626236
146	0x3c10e437	0.008843473
147	0x3c4cc74a	0.012498686
148	0x3aa0d32d	0.0012269967
149	0xba9c92a1	-0.0011945554
150	0xb9022ed1	-0.00012415207
151	0x3c8cbd40	0.017180085
152	0x3b3c739c	0.0028755432
153	0x3ba0137d	0.0048851357
154	0x3c40cc1e	0.011767415
155	0x3c6500ad	0.013977212
156	0x3c2ae7f2	0.010431277
157	0x3b8488d4	0.0040446315
158	0x3bff1fc0	0.0077857673
159	0x3bc95529	0.006144185
160	0x3c492300	0.012276411
161	0x3b96a06b	0.00459676
162	0x3b82f9d9	0.0039970693
163	0x3b210b6c	0.0024573458
164	0x3c11fcdf	0.008910387
165	0xbb24698d	-0.0025087327
166	0x3b70bb72	0.003673282
167	0x3c4b790f	0.012418999
168	0x3af0f25c	0.0018382776
169	0x3b859b2b	0.0040773354
170	0x3c2b25cb	0.010446022
171	0x3c5369f0	0.012903675
172	0x3b8eb0f1	0.004354589
173	0xbb98432b	-0.004646679
174	0x3c6f2ed8	0.014598571
175	0xba126f15	-0.00055860105
176	0x3c7aa657	0.015298448
177	0xbaf1e3a2	-0.0018454681
178	0x3c8f544f	0.017496256
179	0x3c46d7ed	0.012136442
180	0x3c6dba70	0.014509782
181	0x3b8c2f74	0.004278118
182	0x3cce5dae	0.025191154
183	0x3b47b885	0.0030474972
184	0x3c642106	0.013923889
185	0x3c1dba56	0.0096269455
186	0x3b6db92d	0.0036273703
187	0x3ba66f75	0.0050792047
188	0x3b3e85b1	0.0029071386
189	0x3c963a4a	0.018338341
190	0x3bdbb5ef	0.006705038
191	0x3c7c4ace	0.015398694
192	0xbb84ae46	-0.0040490953
193	0xbb9a6094	-0.00471122
194	0x3a35ed83	0.0006939994
195	0x3be311b5	0.006929601
196	0x396b6644	0.00022449443
197	0xba6702d5	-0.00088123727
198	0x3c4b6c7f	0.012416004
199	0x3c209ea3	0.009803447
200	0x3bee1047	0.007265124
201	0x3ca1b370	0.019738883
202	0x3caee412	0.021348987
203	0x3c83354c	0.016016625
204	0x3c13149a	0.00897708
205	0x3bd94206	0.006630185
206	0x3c824e37	0.015906436
207	0x3bff2b45	0.0077871406
208	0x3c81826f	0.015809266
209	0xbbf75219	-0.0075476286
210	0x3c0c9515	0.008580466
211	0x3c495979	0.012289398
212	0x3bbec535	0.0058218488
213	0x3bb943c1	0.005653829
214	0x3c348069	0.0110169435
215	0x3be55483	0.0069986
216	0x3bdbe046	0.006710085
217	0x3bf6887d	0.007523595
218	0x3c014785	0.007890587
219	0x3c59ea14	0.0133004375
220	0x3bdb797e	0.0066978326
221	0x3c2decca	0.010615537
222	0x3bb85982	0.0056259045
223	0x3bd15e50	0.0063894168
224	0x3c43923c	0.01193672
225	0x3b6e7944	0.0036388198
226	0x3cab1b1e	0.020886954
227	0x3c552764	0.01300988
228	0x3c051aa7	0.00812403
229	0x3bc9d685	0.006159606
230	0xbb0554b2	-0.0020344672
231	0x3c0f5411	0.00874807
232	0x3c032a24	0.008005653
233	0xbbb6e7e9	-0.005581845
234	0x3bc1704b	0.005903279
235	0x389e6036	7.551948e-05
236	0x3a364501	0.00069530314
237	0x3aa87f5b	0.0012855338
238	0x3a54909f	0.00081087084
239	0x3b954f0b	0.004556542
240	0x3c556d4a	0.013026545
241	0x3c2b47e8	0.0104541555
242	0x3c94b9c8	0.018154994
243	0x3c0ceb0c	0.008600961
244	0x3c5e309b	0.013561393
245	0x3c2f490b	0.010698567
246	0x3c16311e	0.009166984
247	0x3c6d3dd1	0.01448007
248	0x3b35877a	0.0027699159
249	0x3b80e49a	0.0039335014
250	0xbb0ff3fd	-0.0021965497
251	0x3c51cc8d	0.012805116
252	0x3c19331f	0.009350567
253	0x3b75d9b5	0.0037513797
254	0x3a7a8da7	0.0009557851
255	0x3a8bcb28	0.0010665404

lstm.bias_hh_l0 f4 [512]
0	0x3b27f313	0.0025627061
1	0x3c0003b7	0.007813386
2	0x3ca3405d	0.019928152
3	0x3bf737c0	0.0075444877
4	0x3c614903	0.0137503175
5	0x3cb39fba	0.02192675
6	0x3c88712c	0.016655527
7	0x3c993cc1	0.018705728
8	0x3b5d646f	0.0033781787
9	0x3b958bf3	0.0045638024
10	0x3c61486e	0.013750179
11	0x3c66f605	0.014096742
12	0xba812d3d	-0.0009855401
13	0x3c926a87	0.017873062
14	0x3c6701ef	0.014099582
15	0x3c283768	0.010267116
16	0x3c6f07f0	0.014589295
17	0x3bcd9c89	0.006274764
18	0x3bf3a442	0.0074353525
19	0x3c0e1d2b	0.008673946
20	0x3c26ba03	0.010176185
21	0x3ae5bd62	0.0017527754
22	0x3bcbda65	0.006221103
23	0x3c7f1a93	0.015570301
24	0x3b882629	0.0041549397
25	0x3bbad436	0.005701567
26	0x3bccf1e4	0.0062544215
27	0x3c80fabc	0.01574456
28	0x3c8c326a	0.017113883
29	0x3bff28ba	0.0077868374
30	0xbb006da2	-0.0019596596
31	0x3c633875	0.013868441
32	0x3c2e4e8c	0.010638844
33	0x3bc597b1	0.006030046
34	0x3c5561a0	0.013023764
35	0x3b7b0c9d	0.0038307079
36	0x3c4a667d	0.012353537
37	0xbb96257f	-0.0045821066
38	0x3bfaea7b	0.007657347
39	0x3c129f77	0.008949152
40	0x3c8e62ab	0.017381033
41	0xbb2bba16	-0.0026203445
42	0x3c193ab7	0.009352378
43	0x3c5908d8	0.013246737
44	0x3c480ad8	0.012209617
45	0xbb3c0c06	-0.002869369
46	0x3c8d2d2b	0.017233452
47	0x3b949090	0.0045338348
48	0x3c593b2c	0.013258737
49	0x3ab55d24	0.0013836962
50	0x3cacec2c	0.02110871
51	0x3c2d36db	0.010572161
52	0x3c8ef07f	0.017448662
53	0x3b922b04	0.0044606943
54	0x3cba8345	0.022767672
55	0x3c7006e1	0.014650078
56	0x3c7437d8	0.014905892
57	0x3c6f8c99	0.014620923
58	0x3c769b7f	0.015051722
59	0x3ba35bab	0.004985293
60	0x3bfa9f5c	0.0076483916
61	0x3c8b45f7	0.017001135
62	0x3c1c8e2c	0.009555381
63	0x3c7c5e27	0.015403307
64	0x3b7c8fd7	0.0038537884
65	0xbb0cb195	-0.0021468152
66	0x3b69b12e	0.0035658586
67	0x3b8c34a1	0.004278735
68	0x3bf2234d	0.007389462
69	0x3b85ad00	0.004079461
70	0x3c71b2fc	0.014752146
71	0x3c22f7e7	0.0099468
72	0x3c03aec6	0.008037275
73	0x3cc5929b	0.024117758
74	0x3c74c177	0.014938704
75	0x3c934711	0.017978223
76	0x3bb2016a	0.0054322975
77	0x3c238a54	0.00998171
78	0x3c9edf31	0.019393535
79	0x3c3759c7	0.011190838
80	0x3c77a1f9	0.015114301
81	0xb8a6088c	-7.917089e-05
82	0x3c6ff99d	0.014646915
83	0x3c33e0b4	0.010978866
84	0x3b943f63	0.004524158
85	0x3bf975ad	0.007612905
86	0x3c3682e8	0.011139609
87	0x3c4c2e71	0.012462244
88	0x3c463516	0.012097618
89	0x3c0451e2	0.008076163
90	0x3bfb8326	0.007675546
91	0x3c838697	0.016055388
92	0x3c52b0f6	0.012859574
93	0x3c36aa11	0.011148945
94	0x3b8f7ad7	0.0043786573
95	0x3b81bb6c	0.00395911
96	0x3c6b079e	0.014345078
97	0x3c0ef766	0.008725977
98	0x3c97acb6	0.018514972
99	0x3c2272d4	0.0099150725
100	0x3c6b2194	0.014351267
101	0x3c53eaae	0.01293437
102	0x3b694b1a	0.0035597743
103	0x3c356f64	0.011073921
104	0x3c241d65	0.010016774
105	0xbc006692	-0.007836955
106	0x3bbf8786	0.005845013
107	0x3bf224e4	0.0073896516
108	0x3c02fe63	0.007995221
109	0x3c27de82	0.010245921
110	0x3b8927fd	0.004185675
111	0x3b662a03	0.0035120256
112	0x3c4011db	0.011723007
113	0x3bcf9113	0.006334433
114	0x3cb43d7b	0.022001972
115	0x3c02b129	0.007976809
116	0x3c52a306	0.012856251
117	0x3c538002	0.012908937
118	0x3c312e9d	0.010814336
119	0x3ca3710f	0.019951371
120	0x3b6197d9	0.0034422784
121	0x3b4dd0bf	0.003140494
122	0x3bb4555a	0.0055033388
123	0x3c415760	0.011800617
124	0x3a8c4349	0.0010701205
125	0x3bcf41c8	0.0063249804
126	0x3c5dca9a	0.0135370735
127	0x3b593d9f	0.0033148301
128	0x3bd1533e	0.006388097
129	0x3bb2f176	0.0054609133
130	0x3c570ad1	0.013125137
131	0x3b2a67ee	0.0026001888
132	0x3c72aca1	0.014811666
133	0x3cc2cac7	0.023778332
134	0x3c889507	0.016672624
135	0x3c8fdec0	0.01756227
136	0x3ade5f18	0.0016965596
137	0x3be5b984	0.0070106406
138	0x3c664969	0.014055588
139	0x3bf27e7f	0.0074003334
140	0x3b6d2368	0.0036184434
141	0x3c69e832	0.014276551
142	0x3ac2d191	0.0014863481
143	0x3c3456c1	0.011007012
144	0x3bda6048	0.0066643097
145	0x3bbcd464	0.0057626236
146	0x3c10e437	0.008843473
147	0x3c4cc74a	0.012498686
148	0x3aa0d32d	0.0012269967
149	0xba9c92a1	-0.0011945554
150	0xb9022ed1	-0.00012415207
151	0x3c8cbd40	0.017180085
152	0x3b3c739c	0.0028755432
153	0x3ba0137d	0.0048851357
154	0x3c40cc1e	0.011767415
155	0x3c6500ad	0.013977212
156	0x3c2ae7f2	0.010431277
157	0x3b8488d4	0.0040446315
158	0x3bff1fc0	0.0077857673
159	0x3bc95529	0.006144185
160	0x3c492300	0.012276411
161	0x3b96a06b	0.00459676
162	0x3b82f9d9	0.0039970693
163	0x3b210b6c	0.0024573458
164	0x3c11fcdf	0.008910387
165	0xbb24698d	-0.0025087327
166	0x3b70bb72	0.003673282
167	0x3c4b790f	0.012418999
168	0x3af0f25c	0.0018382776
169	0x3b859b2b	0.0040773354
170	0x3c2b25cb	0.010446022
171	0x3c5369f0	0.012903675
172	0x3b8eb0f1	0.004354589
173	0xbb98432b	-0.004646679
174	0x3c6f2ed8	0.014598571
175	0xba126f15	-0.00055860105
176	0x3c7aa657	0.015298448
177	0xbaf1e3a2	-0.0018454681
178	0x3c8f544f	0.017496256
179	0x3c46d7ed	0.012136442
180	0x3c6dba70	0.014509782
181	0x3b8c2f74	0.004278118
182	0x3cce5dae	0.025191154
183	0x3b47b885	0.0030474972
184	0x3c642106	0.013923889
185	0x3c1dba56	0.0096269455
186	0x3b6db92d	0.0036273703
187	0x3ba66f75	0.0050792047
188	0x3b3e85b1	0.0029071386
189	0x3c963a4a	0.018338341
190	0x3bdbb5ef	0.006705038
191	0x3c7c4ace	0.015398694
192	0xbb84ae46	-0.0040490953
193	0xbb9a6094	-0.00471122
194	0x3a35ed83	0.0006939994
195	0x3be311b5	0.006929601
196	0x396b6644	0.00022449443
197	0xba6702d5	-0.00088123727
198	0x3c4b6c7f	0.012416004
199	0x3c209ea3	0.009803447
200	0x3bee1047	0.007265124
201	0x3ca1b370	0.019738883
202	0x3caee412	0.021348987
203	0x3c83354c	0.016016625
204	0x3c13149a	0.00897708
205	0x3bd94206	0.006630185
206	0x3c824e37	0.015906436
207	0x3bff2b45	0.0077871406
208	0x3c81826f	0.015809266
209	0xbbf75219	-0.0075476286
210	0x3c0c9515	0.008580466
211	0x3c495979	0.012289398
212	0x3bbec535	0.0058218488
213	0x3bb943c1	0.005653829
214	0x3c348069	0.0110169435
215	0x3be55483	0.0069986
216	0x3bdbe046	0.006710085
217	0x3bf6887d	0.007523595
218	0x3c014785	0.007890587
219	0x3c59ea14	0.0133004375
220	0x3bdb797e	0.0066978326
221	0x3c2decca	0.010615537
222	0x3bb85982	0.0056259045
223	0x3bd15e50	0.0063894168
224	0x3c43923c	0.01193672
225	0x3b6e7944	0.0036388198
226	0x3cab1b1e	0.020886954
227	0x3c552764	0.01300988
228	0x3c051aa7	0.00812403
229	0x3bc9d685	0.006159606
230	0xbb0554b2	-0.0020344672
231	0x3c0f5411	0.00874807
232	0x3c032a24	0.008005653
233	0xbbb6e7e9	-0.005581845
234	0x3bc1704b	0.005903279
235	0x389e6036	7.551948e-05
236	0x3a364501	0.00069530314
237	0x3aa87f5b	0.0012855338
238	0x3a54909f	0.00081087084
239	0x3b954f0b	0.004556542
240	0x3c556d4a	0.013026545
241	0x3c2b47e8	0.0104541555
242	0x3c94b9c8	0.018154994
243	0x3c0ceb0c	0.008600961
244	0x3c5e309b	0.013561393
245	0x3c2f490b	0.010698567
246	0x3c16311e	0.009166984
247	0x3c6d3dd1	0.01448007
248	0x3b35877a	0.0027699159
249	0x3b80e49a	0.0039335014
250	0xbb0ff3fd	-0.0021965497
251	0x3c51cc8d	0.012805116
252	0x3c19331f	0.009350567
253	0x3b75d9b5	0.0037513797
254	0x3a7a8da7	0.0009557851
255	0x3a8bcb28	0.0010665404

lstm.weight_ih_l1 f4 [512, 128]
0	0xb9bda888	-0.00036174455
1	0xbc6689cb	-0.014070938
2	0xbd2ff6a5	-0.042959828
3	0xbd5188e4	-0.05115594
4	0x3d0bb9ca	0.03411273
5	0x3d183b64	0.037166014
6	0xbd106ede	-0.03526198
7	0xbda74329	-0.08167107
8	0x3c4fa9fc	0.012674805
9	0xbd7955c2	-0.0608728
10	0xbd6f803a	-0.058471896
11	0x3c4c1db9	0.012458258
12	0x3d09d568	0.033650786
13	0x3a55de65	0.00081584445
14	0xbd53e9e5	-0.05173673
15	0xbaae2808	-0.0013287077
16	0x3d96a59f	0.073558085
17	0xbd3e339c	-0.046435937
18	0x3cc9791d	0.024593884
19	0x3d9b621b	0.075870715
20	0x3da45406	0.08023839
21	0xbd4079c4	-0.046991125
22	0xbbcb0de0	-0.0061967224
23	0xbd1b3d95	-0.037900526
24	0x3d83d622	0.06437327
25	0xbcc7419b	-0.024323275
26	0x3d9ff84b	0.0781103
27	0x3d754f24	0.059889928
28	0xbd549c1b	-0.051906686
29	0x3da369ac	0.0797914
30	0xbc65cfc7	-0.014026589
31	0xbdb77375	-0.089575686
32	0x3d95e2e5	0.07318667
33	0x3b874d95	0.0041291215
34	0xbdb049ea	-0.08607848
35	0x3da1b33f	0.078955166
36	0x3daec2e0	0.08533263
37	0x3c2aefbe	0.010433136
38	0x3da3675c	0.079786986
39	0x3dab1613	0.0835382
40	0x3c33394d	0.010938955
41	0xbd3c7693	-0.04601152
42	0xbd720751	-0.05908901
43	0x3cfdced0	0.030982405
44	0xbc52a740	-0.012857258
45	0xba657a49	-0.00087538786
46	0xbb49afc4	-0.003077493
47	0xbdaae0db	-0.08343669
48	0xb905a51d	-0.00012745378
49	0x3cd5f5da	0.026118208
50	0x3cdd98c3	0.027050382
51	0xbcb79849	-0.022411482
52	0xbd3d827d	-0.04626702
53	0xbca727d2	-0.02040473
54	0x3dc21f44	0.0947862
55	0x3d9c6a10	0.07637417
56	0x3cf966c2	0.030444507
57	0x3d0281ab	0.031861942
58	0xbda21b39	-0.079153486
59	0xbd315af0	-0.043299615
60	0xbd3abbd7	-0.045589294
61	0x3b600fe8	0.0034189168
62	0xbd8f781a	-0.070053294
63	0x3c0b1543	0.008488956
64	0xbdcd22a4	-0.10016373
65	0x3cbffad6	0.023435038
66	0x3d842df3	0.064540766
67	0xbd0ea8c2	-0.03482891
68	0x3d9ea336	0.07745974
69	0x3d836f18	0.06417674
70	0x3b08060f	0.0020755564
71	0x3d24ad94	0.0402046
72	0xbb6781c1	-0.0035325142
73	0xbd07b9c7	-0.033136155
74	0x3d7126ad	0.058874775
75	0x3c8888b0	0.01666674
76	0x3d8991ee	0.06717287
77	0xbd11ce39	-0.03559706
78	0xbb390db6	-0.0028236932
79	0xbcc997c0	-0.024608493
80	0x3caec072	0.021332
81	0xbcabf6c1	-0.020991685
82	0xbd93fffb	-0.07226559
83	0x3ce5b3b6	0.028039794
84	0xbd827610	-0.06370175
85	0xbc1971da	-0.009365523
86	0xbbfbe6e5	-0.007687437
87	0x3d8318f1	0.064012416
88	0xbd217924	-0.03942217
89	0xbd6e74d9	-0.058216903
90	0xbce5189c	-0.027965836
91	0xbd9c0da8	-0.07619792
92	0xbd1d7723	-0.038443696
93	0x3d5864a5	0.052830357
94	0x3c82a76a	0.01594897
95	0xbd9145c2	-0.07093383
96	0x3d0070bb	0.03135751
97	0xbca32756	-0.019916218
98	0xbd351417	-0.044208612
99	0x3db4c555	0.088267006
100	0xbd11cc16	-0.035595022
101	0xbd002bc7	-0.03129175
102	0x3dc3d86b	0.09562763
103	0x3d91b4ad	0.07114539
104	0xbd899cf7	-0.06719392
105	0xbd9e2bed	-0.07723222
106	0xbda3d40b	-0.07999428
107	0x3db29f81	0.08721829
108	0x3d3b2363	0.045688044
109	0x3dd38335	0.1032776
110	0xbca99dfd	-0.020705217
111	0xbd078973	-0.033090066
112	0x3d62d952	0.055383034
113	0x3d340461	0.04394949
114	0x3d05a3f1	0.03262705
115	0xbda4ee5e	-0.080532774
116	0x3d24a3c7	0.040195253
117	0xbcb55722	-0.022136275
118	0xbb3f92ab	-0.0029231708
119	0x3d0c98fc	0.034325585
120	0xbda6e5c0	-0.0814929
121	0x3ce3c2b9	0.027802812
122	0xbc17ae03	-0.009257796
123	0x3be8dfc2	0.007106752
124	0x3dd283d3	0.1027905
125	0x3d547c7c	0.05187653
126	0xbc98d7d7	-0.018657608
127	0x3d3c516f	0.0459761
128	0x3d9c358e	0.07627402
129	0xbdb63874	-0.08897486
130	0x3d1145e0	0.03546703
131	0x3d496e5a	0.049177505
132	0xbcbde525	-0.023180554
133	0xbca776e9	-0.020442443
134	0x3d35acec	0.044354364
135	0x3cc81376	0.024423342
136	0xbd0f0a1b	-0.034921747
137	0x3d0e6bec	0.03477089
138	0xbb21d5d6	-0.0024694107
139	0x3cd9846c	0.026552401
140	0x3da665ae	0.081248626
141	0xbd0963b9	-0.03354237
142	0x3da51777	0.08061116
143	0xbda641e4	-0.081180364
144	0xbc302fb4	-0.010753561
145	0x3d697885	0.056999702
146	0x3d8ab70d	0.067731954
147	0xbd871735	-0.06596223
148	0x3d1171cc	0.035508916
149	0x3d6d333d	0.057910193
150	0xbd22e154	-0.03976567
151	0x3d9f56d5	0.07780234
152	0x3d5bc7eb	0.053657454
153	0x3c67b0f0	0.014141306
154	0x3bee0ad8	0.0072644763
155	0x3c7c0041	0.01538092
156	0x3db6d5d3	0.089275025
157	0xbba6a4ee	-0.005085579
158	0xbd94a6b6	-0.0725836
159	0x3d3349b8	0.043771476
160	0x3d207d27	0.039181855
161	0x3ce1a654	0.027545132
162	0xbdb4ee64	-0.08834532
163	0xbda2e78a	-0.07954319
164	0xbd3e9a90	-0.04653412
165	0xbd971cac	-0.073785156
166	0x3d9402e9	0.072271176
167	0xbdbcf974	-0.09227267
168	0x3cb2d9af	0.021832315
169	0xbdb3d1ce	-0.087802514
170	0x3c76ad2e	0.015055938
171	0xbd1c383e	-0.038139574
172	0xbd523277	-0.05131766
173	0x3d998cf5	0.074975885
174	0x3dab7dd6	0.08373611
175	0x3d650d76	0.05592104
176	0x3cc5495b	0.02408283
177	0x3db21fd5	0.08697478
178	0xbccce6f2	-0.025012467
179	0xbd0e7dba	-0.03478787
180	0x3da6462d	0.08118854
181	0xbc467f67	-0.012115336
182	0x3dd6455d	0.10462449
183	0x3d63e86a	0.05564157
184	0xbdb7732f	-0.089575164
185	0xbcb8a2dc	-0.022538595
186	0x3d88659a	0.06660004
187	0x3dc7d5d5	0.09757582
188	0x3c637374	0.013882507
189	0xbd64cacc	-0.055857465
190	0x3ad32665	0.0016109465
191	0x3cb25507	0.02176906
192	0xbd6f05c9	-0.058355127
193	0x3d7a0d85	0.06104805
194	0x3bb0c10a	0.005394106
195	0x3d390eef	0.045180257
196	0xbd7663ff	-0.060153957
197	0xbd42fcd7	-0.047604408
198	0xbd4a502b	-0.04939286
199	0xbbecb3e6	-0.007223594
200	0x3c4ca4dd	0.012490478
201	0x3d9fc4e9	0.078012295
202	0x3d208b28	0.03919521
203	0xbd482825	-0.04886641
204	0xbd89ad8d	-0.06722555
205	0xbd9f8b94	-0.07790294
206	0x3cbafbc8	0.022825137
207	0xbd97383f	-0.07383775
208	0xbc504691	-0.012712137
209	0x3da1e61c	0.07905218
210	0x393d3fbf	0.00018048192
211	0xbd1e4fa6	-0.038650177
212	0x3b8eb33a	0.0043548616
213	0xbd16be6c	-0.036802694
214	0x3db5f8b5	0.08885328
215	0xbd804715	-0.06263558
216	0xbcb0ef16	-0.02159838
217	0xbbf6a92e	-0.007527492
218	0xbc494808	-0.01228524
219	0x3d04ca70	0.032419622
220	0xbd18f8ef	-0.037346777
221	0xbbae8782	-0.0053262124
222	0x3db30dfd	0.087429024
223	0xbc9225c5	-0.017840276
224	0xbda78184	-0.08179
225	0xbbb08a90	-0.0053876117
226	0x3d99db44	0.07512525
227	0x3dbba3cc	0.09162101
228	0xbd136935	-0.035989005
229	0xbb9be122	-0.0047570625
230	0x3ce1efe0	0.027580202
231	0xbc9719cb	-0.018444916
232	0x3d244a7c	0.040110096
233	0x3ce889b0	0.028385967
234	0x3cf82d48	0.03029503
235	0x39e19d05	0.00043032333
236	0x3b9b1898	0.0047331564
237	0x3ceaff26	0.028686117
238	0xbbee19ab	-0.0072662435
239	0x3db42f89	0.08798129
240	0xbd8d9526	-0.069132134
241	0xbdba732c	-0.091039985
242	0x3ce3c248	0.027802601
243	0xbcde35d0	-0.02712527
244	0x3da5c774	0.08094683
245	0x3d8d947b	0.06913086
246	0x3d489c39	0.04897711
247	0xbaf60994	-0.0018771165
248	0x3907d34d	0.00012953319
249	0x3d21d1ae	0.039506607
250	0xbd45d6cd	-0.048300553
251	0x3d29142c	0.041279003
252	0x3dc1debe	0.09466313
253	0xbc204864	-0.009782884
254	0x3da1f029	0.07907135
255	0x3be06698	0.0068481676

lstm.weight_hh_l1 f4 [512, 128]
0	0xbcfc8cbb	-0.030828824
1	0x3d422e1d	0.04740726
2	0xbc81aa9c	-0.015828423
3	0xbdd4b504	-0.103860885
4	0xbd9bf6de	-0.076154456
5	0x3bf4e5b2	0.007473671
6	0x3c2ddf55	0.010612329
7	0xbd844fa5	-0.064605035
8	0xbcb40918	-0.021976992
9	0x3cafc9fe	0.021458622
10	0xbdd37055	-0.1032416
11	0xbd64f2db	-0.055895668
12	0x3d4c72a7	0.04991403
13	0xbd736fda	-0.05943284
14	0x3d196307	0.037447955
15	0xbd8f5353	-0.06998315
16	0xbd005045	-0.03132655
17	0x3d709565	0.058736224
18	0x3d5b7dca	0.05358676
19	0xbcb4ab32	-0.022054289
20	0x3a0302b8	0.00049976585
21	0xbc9f54b9	-0.019449579
22	0x3a305a89	0.0006727358
23	0x3d439d55	0.047757465
24	0xbd1c38b9	-0.038140032
25	0x3dc75ac2	0.097341076
26	0x3a0c7a6c	0.00053588185
27	0xbd6119bd	-0.054956187
28	0x3dbb2432	0.09137763
29	0x3d677caa	0.056515373
30	0x3a942889	0.0011303584
31	0x3d96a75c	0.0735614
32	0x3d263ef6	0.040587388
33	0xbcfb50cd	-0.030678177
34	0xbd13886f	-0.036018785
35	0x3cb5da5a	0.022198845
36	0xbdcc1d36	-0.09966509
37	0xbd631b5d	-0.055446018
38	0xbdbdfcd4	-0.09276739
39	0x3cdb9dbb	0.02680861
40	0xbdaac8ec	-0.08339104
41	0xbbea6e38	-0.0071542524
42	0x3dbe66af	0.09296929
43	0x3cb41d5a	0.021986652
44	0xbd38b6ca	-0.045096196
45	0xbbc5a7d9	-0.006031972
46	0xbd1a26d3	-0.037634682
47	0xbc93dd06	-0.018049728
48	0xbc8ec6e6	-0.017428827
49	0xbd8a3d56	-0.0674998
50	0x3d9f1e40	0.077694416
51	0x3d8a3f5c	0.06750366
52	0x3dac56ae	0.0841497
53	0xbccba87b	-0.024860611
54	0xbd510e06	-0.051038764
55	0xbd6945aa	-0.056951202
56	0x3db1030b	0.086431585
57	0xbd7ee538	-0.06223032
58	0x3b355211	0.0027667324
59	0x3c2846b8	0.010270767
60	0x3ba0628a	0.0048945593
61	0xbc702091	-0.014656202
62	0x3d7f63bb	0.06235097
63	0xbcc89316	-0.024484199
64	0x3bc6f7b7	0.0060720104
65	0xbd4abe25	-0.049497742
66	0xba378288	-0.00070003467
67	0x3bc045d0	0.0058676973
68	0xbda8a43e	-0.08234452
69	0xbd2643e7	-0.0405921
70	0xbd84cd4f	-0.06484472
71	0x3d2b096b	0.04175703
72	0xbd853414	-0.06504074
73	0xbc7e6b2d	-0.015528482
74	0x3dd2ed98	0.10299224
75	0xbc94c01e	-0.018158015
76	0x3db109fc	0.086444825
77	0x3d67a6ca	0.056555547
78	0x3d5288a6	0.05139985
79	0xbd9b4ed2	-0.07583393
80	0xbb594516	-0.003315275
81	0x3dc2aff6	0.09506218
82	0x3dd366ff	0.10322379
83	0x3c7f168a	0.015569339
84	0x3d8034d7	0.062600784
85	0x3bc404ea	0.005982031
86	0x3d915af8	0.07097429
87	0xbd912d24	-0.07088688
88	0x3d9f038d	0.07764349
89	0x3d06b53b	0.03288768
90	0x3c12f093	0.00896849
91	0xbd80542e	-0.06266056
92	0xbdce315a	-0.10068007
93	0xbca7f85a	-0.020504165
94	0x3db8d2a1	0.09024549
95	0x3da02e62	0.07821347
96	0xbd9f1494	-0.07767597
97	0xbd363a52	-0.044489212
98	0xbdc6214d	-0.0967432
99	0x3cfc912d	0.030830944
100	0x3ca2e503	0.019884592
101	0x3a507e67	0.0007953406
102	0xbd7a1dca	-0.061063565
103	0xbd0e4e3e	-0.034742586
104	0xbd8b7a0e	-0.068103895
105	0xbd9d96ed	-0.076948024
106	0xbd41aa81	-0.047281746
107	0xbda57734	-0.08079377
108	0x3d9657c7	0.07340961
109	0x3daa5d84	0.08318618
110	0x3dc115c7	0.09427982
111	0xbd003bf4	-0.031307176
112	0xbba70302	-0.005096794
113	0xbd2eb70d	-0.04265504
114	0xbc3181a9	-0.010834136
115	0x3dc8db69	0.09807474
116	0xbb48389e	-0.0030551325
117	0x3d5d6915	0.054055292
118	0x3c16e1c0	0.009209096
119	0x3d6e232e	0.05813902
120	0xbbb60f45	-0.0055560195
121	0xbce8e89f	-0.028431235
122	0xbbdd977b	-0.0067624426
123	0xbbf89215	-0.0075857737
124	0x3d178b13	0.036997866
125	0x3d4dc812	0.05023963
126	0xbce94030	-0.02847299
127	0xbd97f3ac	-0.074195236
128	0xbd3d8113	-0.046265673
129	0x3b4900e7	0.0030670704
130	0x3d825f45	0.063658275
131	0x3d48b71a	0.049002744
132	0x3d8a9645	0.06766943
133	0xbd71d4e8	-0.059040934
134	0x3b221120	0.0024729446
135	0xbd26c72d	-0.040717293
136	0xbd9a2199	-0.075259395
137	0x3d785db5	0.06063624
138	0xbd9b00b8	-0.075684965
139	0xbbc270ff	-0.0059338803
140	0xbd0fb7c4	-0.035087362
141	0x3da5e704	0.08100703
142	0x3d897bfd	0.06713102
143	0x3c8f58a7	0.017498327
144	0xbd8007ab	-0.062514625
145	0xbc285360	-0.010273784
146	0xbdc2a1e5	-0.09503535
147	0xbcf696b8	-0.030101165
148	0x3d036ccb	0.032086175
149	0xbd024907	-0.031807926
150	0xba9b5f13	-0.0011853896
151	0xbc9f90d7	-0.019478245
152	0xbd280df7	-0.041028943
153	0x3d53d1bc	0.05171369
154	0xbdba7ada	-0.09105463
155	0x3d2d8e23	0.04237188
156	0xbd839232	-0.06424369
157	0x3cb1012c	0.021607004
158	0x3d936da7	0.07198649
159	0xbbcf6963	-0.0063297017
160	0xbd931dcb	-0.07183417
161	0x3d0cb758	0.034354538
162	0x3d688d75	0.05677553
163	0x3d44b581	0.048024658
164	0xbd7ce360	-0.06174028
165	0xbaa70e6e	-0.0012745389
166	0xbd255c78	-0.04037139
167	0xbdb1aebc	-0.08675906
168	0xbcc2135e	-0.023690876
169	0xbda2982f	-0.07939183
170	0xbd4eea89	-0.05051664
171	0xbd7ad5b4	-0.06123896
172	0xbd34d5f0	-0.04414934
173	0x3d9851a3	0.07437446
174	0xbce71b55	-0.028211275
175	0xbd9cc2ca	-0.076543406
176	0xbd1a806a	-0.03772012
177	0xbceaaebc	-0.028647773
178	0xbd0afefa	-0.03393457
179	0x3ca0d5fa	0.019633282
180	0x3ce3ce23	0.027808255
181	0x3d38cc92	0.04511697
182	0x3dc568aa	0.09639104
183	0xbd0d1ed8	-0.034453243
184	0x3d585324	0.052813664
185	0xbc62fd97	-0.013854406
186	0x3da6eb9d	0.081504084
187	0xbc72855e	-0.014802305
188	0xbd54b4b3	-0.05193014
189	0xbd19eded	-0.03758042
190	0x3dc525ab	0.09626325
191	0x3c80b2c8	0.01571025
192	0x3dc26f13	0.09493842
193	0xbccafe62	-0.024779502
194	0x3d9f00d8	0.07763833
195	0x3ccec34a	0.025239605
196	0x3d91fcd9	0.07128305
197	0xbda81315	-0.082067646
198	0xbdaa5410	-0.08316815
199	0x3d01c5ac	0.031682655
200	0x3d6ac874	0.057320073
201	0x39803113	0.00024450626
202	0x3c326d65	0.0108903395
203	0xbd3c66fc	-0.04599665
204	0x3d799e3d	0.060941923
205	0x3d73c1ba	0.059510924
206	0x3c3966cd	0.0113160135
207	0x3d176623	0.03696264
208	0xbd8802d7	-0.06641167
209	0xbd3947b3	-0.045234393
210	0xbd8d3c41	-0.06896258
211	0xbca576ca	-0.020198245
212	0x3d84c47b	0.06482788
213	0xbd0d7d83	-0.034543525
214	0xbb037e00	-0.0020064116
215	0x3d5e20fe	0.054230683
216	0x3db0d05c	0.086334914
217	0xbd06bec2	-0.032896765
218	0xbd95246c	-0.072823375
219	0x3c79a657	0.015237412
220	0xbdbc93b9	-0.09207863
221	0x3d2c0645	0.041998167
222	0x3d96ae68	0.07357484
223	0xbd46b0d2	-0.048508473
224	0xbd8f87a7	-0.070082955
225	0xbd408ac2	-0.04700733
226	0x3d90c4f7	0.07068818
227	0x3dbf8c6a	0.09352954
228	0xbd225de4	-0.039640322
229	0x3d9c6cd3	0.07637944
230	0xbd4ad5d0	-0.049520314
231	0xbcc01a2e	-0.023449983
232	0xbd508aec	-0.050913736
233	0xbd9fff34	-0.07812348
234	0x3d3b0bb4	0.045665458
235	0x3d465179	0.048417542
236	0x3da8d9c9	0.08244664
237	0x3da91852	0.08256592
238	0x3dc3956c	0.09549984
239	0x3cc6e249	0.024277823
240	0xbd771b86	-0.060328983
241	0xbd6e4271	-0.058168832
242	0x3d8b7924	0.06810215
243	0xbc58c45c	-0.0132304095
244	0xbdb3fd93	-0.087886
245	0xbb776279	-0.0037747903
246	0xbd13ac24	-0.036052838
247	0xbc939f8a	-0.01802041
248	0xbc3ecaf0	-0.011645064
249	0xbd1f6284	-0.03891231
250	0xbc73f79c	-0.014890578
251	0x3db8463c	0.08997771
252	0xbdb8119c	-0.08987734
253	0x3cc183a8	0.023622349
254	0x3db84bb1	0.08998812
255	0x3d8ee708	0.069776595

lstm.bias_ih_l1 f4 [512]
0	0x3bc7618a	0.0060846256
1	0x3c0bcd61	0.008532853
2	0x3c4ec6ac	0.012620609
3	0x3bde2682	0.006779493
4	0x3a930387	0.0011216261
5	0x3c66ac31	0.01407914
6	0x3c0b4462	0.00850019
7	0xba46f725	-0.0007589928
8	0x3bb26a40	0.005444795
9	0x3b99aa3e	0.004689484
10	0x3c4fd638	0.012685351
11	0x3c0f3709	0.008741149
12	0x3bd682fd	0.0065463767
13	0x3c5ba295	0.013405462
14	0x3bbc8600	0.0057532787
15	0x3bb5031d	0.005524053
16	0x3bb7dd8b	0.005611127
17	0x3c16e317	0.009209416
18	0x3abe0946	0.0014498613
19	0x3b96dc64	0.0046039093
20	0x3c8a3c3b	0.016874423
21	0x3bcfe79e	0.0063447496
22	0x3be704e0	0.0070501417
23	0x3c042a5f	0.008066743
24	0x3bb91fce	0.0056495434
25	0x3bdabc08	0.006675247
26	0x3c745c08	0.01491452
27	0x3c1af75c	0.009458389
28	0x3ba0e681	0.0049102907
29	0x3be178fe	0.0068808785
30	0x3be66bf1	0.0070319106
31	0x3bc617bb	0.0060453094
32	0x3c0b48b2	0.008501219
33	0xbb692b4f	-0.0035578792
34	0x3b89490e	0.004189617
35	0x3b9ea724	0.004841702
36	0x3c6a2525	0.0142910825
37	0x3cac5a08	0.021039024
38	0x3c01a3e3	0.007912609
39	0x3b82b8b8	0.0039893053
40	0x3c4f138f	0.0126389405
41	0x3bb4e4e4	0.00552045
42	0x3b3bea8a	0.0028673732
43	0x3bfe8453	0.007767239
44	0x3ba2344e	0.004950083
45	0x3a46a16b	0.0007577154
46	0x3c83e6d2	0.016101275
47	0x3c709f5d	0.014686433
48	0xba859995	-0.0010192866
49	0x3bb74400	0.005592823
50	0xbb3caaa9	-0.0028788245
51	0x3c851bf3	0.016248679
52	0x3c13c34f	0.009018733
53	0x3c3bfd32	0.011473941
54	0x3c3855b7	0.011250905
55	0x3ba8ef4f	0.005155481
56	0x3b5deca0	0.0033862963
57	0x3a92ae99	0.001119095
58	0x3b823bc2	0.003974409
59	0x3c53b210	0.012920871
60	0x3c3e7dda	0.011626685
61	0x3c23b3ea	0.009991625
62	0x3c6ac166	0.014328336
63	0x3c78ac4d	0.015177798
64	0x3bc8f9e6	0.006133306
65	0x3b9d7b2d	0.0048059435
66	0x3c0751c3	0.00825924
67	0xba274867	-0.0006381333
68	0x3c100e38	0.0087924525
69	0x3c738326	0.014862811
70	0x3b846f7e	0.004041611
71	0x3c089a20	0.0083375275
72	0x3c25876d	0.010103089
73	0x3ba66884	0.005078377
74	0x3c42e605	0.011895661
75	0x3a12087e	0.00055707234
76	0x3c50886f	0.012727841
77	0x3b198182	0.002342314
78	0x3c16b464	0.009198282
79	0x3c2f032d	0.0106819095
80	0x3b160219	0.0022889434
81	0x3c7669f5	0.015039911
82	0x3bd0d45b	0.006372971
83	0xbace8e16	-0.0015758898
84	0x3bd713da	0.006563646
85	0xb980d92b	-0.00024575865
86	0x3bbfd0be	0.0058537414
87	0x3bd65201	0.0065405373
88	0x3b4a3721	0.0030855613
89	0x3c218c78	0.0098601505
90	0xbc163667	-0.009168244
91	0x3b3165bb	0.0027068693
92	0x3bdd99d9	0.006762725
93	0x3c4ba401	0.012429238
94	0x3be0747d	0.006849824
95	0x3c9e4e7e	0.019324537
96	0x3c4baca6	0.012431299
97	0x3c02020d	0.007935059
98	0x3c296ab1	0.010340379
99	0x3b3086d5	0.0026935835
100	0x3c0f8b7b	0.008761282
101	0x3be9d84a	0.0071363794
102	0x3b66c523	0.0035212717
103	0x3b1a4f3c	0.0023545763
104	0x3aaeaca3	0.0013326596
105	0x3b9ab357	0.004721086
106	0x3b2e9b71	0.0026642943
107	0x3c162a95	0.009165426
108	0x3c80a446	0.015703332
109	0x3c001614	0.007817764
110	0x3bafe9b3	0.0053684353
111	0x3bf9f4de	0.0076280674
112	0x3c6f9838	0.014623694
113	0x3b20a49e	0.0024512182
114	0x3be61dad	0.0070225806
115	0xb98a9769	-0.0002643422
116	0x3be2a5c5	0.006916734
117	0x3c4e5e4e	0.012595726
118	0x3bb734b2	0.0055909986
119	0x3bba6b1f	0.0056890394
120	0x3c33e38f	0.010979547
121	0x3c13bd3e	0.009017287
122	0x3c7f58de	0.015585152
123	0x3c820819	0.015873002
124	0x3c73242c	0.014840167
125	0x3bc2ad07	0.0059410366
126	0x3c663746	0.014051264
127	0x3c7ac9cb	0.0153069
128	0x3b86271c	0.0040940177
129	0x39975988	0.0002886767
130	0x3c79bc51	0.015242652
131	0x398d9c12	0.00027009897
132	0xbb0fb41c	-0.0021927422
133	0x3be28e49	0.0069139344
134	0x3bdf2b11	0.006810554
135	0x3a84f61b	0.0010144146
136	0x3b41e48f	0.0029585694
137	0x3b8a9213	0.004228839
138	0x3c41afbf	0.011821686
139	0x39c87c7e	0.00038239727
140	0xbb8310d7	-0.00399981
141	0x3bed4f34	0.0072421078
142	0x3bc1d407	0.005915168
143	0x3af08b10	0.0018351991
144	0x3b96b613	0.0045993417
145	0x3adc5cbe	0.0016812307
146	0x3a5a870a	0.00083361624
147	0xbacf56e4	-0.0015818742
148	0x3c73f251	0.014889316
149	0x3b412aef	0.0029475053
150	0x3ac6a73c	0.0015156041
151	0x3b28c09c	0.002574957
152	0x3ac2a836	0.0014851156
153	0x3badce34	0.0053041223
154	0x3b6eb7b2	0.003642541
155	0x3c2ff15d	0.010738698
156	0x3b81d44b	0.003962075
157	0x3ad9e924	0.0016625267
158	0x3b861bb7	0.0040926593
159	0x3b598bd9	0.0033194928
160	0x3a1632ec	0.0005729634
161	0xbbad6aa2	-0.0052922526
162	0x3b5ecfd7	0.0033998394
163	0x3b9045b1	0.004402839
164	0x3c476709	0.012170562
165	0x3c8f250c	0.01747372
166	0x39885def	0.00026009927
167	0x39907906	0.0002755599
168	0x3c484d67	0.012225485
169	0x3bf2d043	0.0074100806
170	0x3b8b0ec8	0.0042437054
171	0x3b5dc540	0.0033839494
172	0x3bbb2ba1	0.005711988
173	0x3b096086	0.0020962073
174	0x3c8183e1	0.015809955
175	0x3bf99964	0.0076171625
176	0x3b5a9a92	0.0033356291
177	0x3bf7260f	0.0075423787
178	0xba99d174	-0.0011735396
179	0x3c28a9a4	0.010294352
180	0x3b69604a	0.0035610371
181	0x3b1ab9e6	0.002360934
182	0x3bf1b7c8	0.0073766448
183	0x3a836bea	0.0010026668
184	0x399349f5	0.00028093127
185	0x3a8bf33c	0.0010677348
186	0x3b894a3d	0.004189758
187	0x3c15d90a	0.009145984
188	0x3c29d5b5	0.010365893
189	0x3b188030	0.0023269765
190	0x3c656654	0.014001448
191	0x3c22ce7a	0.009936923
192	0xba36c9bf	-0.00069728115
193	0x3b1472f5	0.0022651528
194	0x3aabaaec	0.0013097203
195	0xbb1b6728	-0.002371261
196	0x3b1c5b8d	0.002385828
197	0x3c3ddb44	0.0115879215
198	0x3bb19268	0.0054190643
199	0x3c193906	0.009351974
200	0x3bc76c88	0.006085936
201	0xb8fedaad	-0.00012152395
202	0x3c3df941	0.011595071
203	0xbb4b6551	-0.003103573
204	0x3bdfda22	0.0068314234
205	0x395181ad	0.00019980101
206	0x3c27ea89	0.010248789
207	0x3c0cd263	0.008595082
208	0xbb289052	-0.0025720787
209	0x3c7686d0	0.01504679
210	0x3b1459a2	0.0022636433
211	0xbafd927d	-0.0019346025
212	0x3c1e699d	0.009668735
213	0x3b38ea0b	0.0028215672
214	0xba5dee27	-0.00084659684
215	0x3ac3994e	0.0014923008
216	0x3ad4a1bb	0.0016222516
217	0x3c07bf00	0.008285284
218	0xbc0fe509	-0.008782634
219	0x3b08e6dd	0.0020889558
220	0x3bc779c2	0.0060875127
221	0x3c415b0b	0.0118014915
222	0xb9fa8267	-0.00047780873
223	0x3c9c25eb	0.01906105
224	0x3b9c5e49	0.004771982
225	0x3b017944	0.0019756118
226	0x3ba78c49	0.005113159
227	0x3b141861	0.0022597539
228	0x3bee7364	0.007276939
229	0x3b85426f	0.0040667574
230	0x3b762623	0.0037559352
231	0xbb0999d1	-0.0020996223
232	0x3a86bcf0	0.0010279696
233	0xbabe1857	-0.0014503103
234	0xba9e20ca	-0.0012064215
235	0x39eb44bb	0.000448739
236	0x3beb1dcd	0.0071751834
237	0xbb9cf855	-0.0047903457
238	0xb9faa38e	-0.00047805574
239	0xbb178e94	-0.0023125755
240	0x3c65dd75	0.01402985
241	0x3b3f9eb7	0.0029238889
242	0x3b21aea4	0.0024670744
243	0xbba724db	-0.005100829
244	0x3bc3afef	0.0059719007
245	0x3c4e8d42	0.012606921
246	0x3b24f03b	0.0025167603
247	0xbaf61b2a	-0.0018776406
248	0xbab5a878	-0.0013859412
249	0x3c3c5c9f	0.011496692
250	0x3beed685	0.0072887563
251	0x3b0ab6fd	0.0021166198
252	0x3c147f9b	0.009063627
253	0x3be7efda	0.007078153
254	0x3ae3d8b5	0.0017383309
255	0x3c6e01fc	0.01452684
