models/policy_net_barrier_1inst (3).pth (torch, 876098 bytes, 11 tensors)

lstm.weight_ih_l0 f4 [512, 5]
00000000: b9a6 8fbd e427 023d 9534 52bd c253 27bd
00000010: 1358 38bd 4f97 45bd 186a c1bd 0c38 5e3d
00000020: 37ce 073d 074a 3dbd 48e6 5d3b a723 0e3c
00000030: 32e6 1cbd f035 2dbd 85fc fe3d 4c1e 013e
00000040: 39d3 3f3d 0a07 ecbc 12b6 253d 57d9 c6bd
00000050: f484 f03c 0a6e 89bd ea8d aebd bee1 1e3d
00000060: 9628 90bb 0c0c b03d 1506 c63d f074 8a3d
00000070: 440d 903d ce9b 633d 494c ca3d f96e 3e3d
00000080: 9118 b0bc 3b41 313d 7d49 4fbd 6e9e ddbc
00000090: a1bf ca3d bacf bfbd f6ed abbd ee2b f43d
000000a0: 3a34 803d 4458 883d 156d a4bc 7a89 983b
000000b0: 9e57 703d 074a 9f3a c07d e4bb d96c c0bc
000000c0: 29ca 81bd fc48 943d bb8d 4f3d 9d6b 92bd
000000d0: 8274 a53d f54a a63d 5fc1 813d bb2b a03d
000000e0: 96df f03d 953b 9abd 31da 573a 6844 993d
000000f0: add8 b3bc 8dcc 6bbd 8caf 7bbd 4166 1bbd
00000100: d719 813c 96d7 5bbd e397 b4bb fe01 a4bd
00000110: 9e4e abbd b5d2 a13d 2953 a3bd ff4a c23b
00000120: 7bf6 c43d 1924 7fbd 1aed 663d 50ae 773c
00000130: 82a2 5d3d 9bdb cc3d a2c4 8cbd bbbd 3c3c
00000140: 1817 dfbc 6e2f 333d 46a9 66bd d359 803d
00000150: 7fe5 333d eb18 96bc 88ac 97bd 65ad 84bd
00000160: 6eb0 95bc 1c51 a539 7d29 6ebb ac37 92bc
00000170: e453 3cbd 2993 01bd 980a c13d 4211 8bbd
00000180: b0e0 ca3d 8693 8d3c dd49 0abd 18ac acbd
00000190: fbcc 2abd e525 7d3d 8fae c43c 22dc 77bd
000001a0: 47f4 143d dd4b babd 360a 1abd f072 e43d
000001b0: 4e0c a3bc c62e 873d 3c2d 5cbd 6ae4 4dbd
000001c0: 01f7 a5bb 0e4f a1bd fd4d d23d a0a1 b53b
000001d0: 98da 443d 990d 843d 3f65 ad3d df9b 7f3d
000001e0: 6c39 cebc 1e24 613d 0c50 d03d 6047 1cbc
000001f0: 1199 01bc de10 e43d f601 b63d 741b 9c3d
00000200: 623a 0abd 125d 95bb 27b0 e93d 323d 22bd
00000210: c3d3 4e3d 33a7 51bd 429f 273d 5710 0ebd
00000220: 3504 543d eeee d7bc bd38 80bd c6fd 85bd
00000230: 278b b73a dc26 b33c 0458 8dbd 6d9c 0e3d
00000240: 9a6c ac3d 091f 72bd 2ecf debb 1db8 babd
00000250: d456 f03c 07d7 343d f9ca 223d 419b e83a
00000260: 43d2 033d 0737 423d 7b15 a93d 8850 b63d
00000270: 2ef8 bdbd 0d89 98bd 67b7 b03d 3016 713d
00000280: d550 9f3d 31b2 a03d 9f5d 373b bbf4 67bd
00000290: 3409 3cbd f47e 6bbc d5c9 97bc 51cf 11bc
000002a0: 9823 9d3c 0500 d4bd 7e23 b53c 34f0 3bbc
000002b0: b628 0dbc e2ea 1b3d 8faa c83d 18e7 a7bd
000002c0: bb99 99bd 5a4f 593c 544e f1bb 621a cb3d
000002d0: 9d40 db3c 329d ae3d 0e84 67bc c066 aebc
000002e0: 8a77 c3bd f72a 803d 34bd c83d 2957 2c3d
000002f0: 90cf 853d 2c71 813d 38ff 493c b6b0 88bd
00000300: 9adc 5b3d 5abe b13d 0cd2 cabd 9936 bb3d
00000310: 6ba1 babd 8ea3 d83c 5254 2ebd baaa 993c
00000320: 5a89 bbbd 2ab0 cd3d 6381 73bc 2354 633c
00000330: c594 9a3d 2be7 67bd d93b 7dbd c544 8dbd
00000340: 6e39 a7bd 4d94 c5bd 160b 2dbd 7fe2 143d
00000350: 09d3 6ebd 6e68 8fbd 3cfd 863d 2520 303d
00000360: a8bc 973d 910c be3d b5a8 38bc 1c8b bcbd
00000370: b746 b6bd ddc6 b33c ec68 cf3c 280f cd3d
00000380: 6fbf c8bd 82c3 113d f593 603c 75ef e03d
00000390: 8fb2 a9bd c0c7 a03d 08ec ec3d 2454 5ebd
000003a0: a8a1 1f3c 1313 e4bc 6ca9 21bd 8bfd 01bd
000003b0: 51b8 c4bd 861b a0bd 3fc6 74bd 4ac7 8abd
000003c0: 963b 033e e64c 173d 7df9 cd3d 835c 9f3d
000003d0: 0378 a43d b4c3 0b3d 0a67 bfbd 7a26 38bd
000003e0: 2f3f 393d b062 a93c 5b4e 94bb c25c ba3c
000003f0: cc8e 353d 3e72 8cbd b86e 9a3b b30c 16bd
-0.07014222 0.031776324 -0.051319677 -0.040851362 -0.04500587 -0.048240002 -0.09444064 0.05425267
0.033155646 -0.046213176 0.0033859182 0.008675492 -0.03830547 -0.042287767 0.12450508 0.12609214
0.046832297 -0.02881195 0.04045684 -0.09709423 0.029360272 -0.067104414 -0.08523162 0.038789503
-0.0043993695 0.08596048 0.09669129 0.06760585 0.0703378 0.05556851 0.098778315 0.04649255
-0.02149609 0.0432751 -0.050607193 -0.027053084 0.098998316 -0.093657926 -0.08394997 0.119224414
0.062599614 0.0665746 -0.020071546 0.0046550604 0.05867731 0.0012152799 -0.0069729984 -0.023489403
-0.06337387 0.07240483 0.050672274 -0.07149432 0.08078863 0.08119766 0.06335711 0.07820841
0.11761396 -0.075308956 0.0008234112 0.074837506 -0.021953905 -0.05756812 -0.06144671 -0.037939314
0.015759392 -0.053672396 -0.0055112704 -0.080081925 -0.083646044 0.07901517 -0.07974846 0.0059293504
0.09617325 -0.062290285 0.05637846 0.015117243 0.054110058 0.10002824 -0.06873442 0.011519845
-0.027232692 0.043746404 -0.056313775 0.062671326 0.043920036 -0.018322429 -0.074059546 -0.06478385
-0.018272605 0.00031531684 -0.0036340647 -0.017848812 -0.04597844 -0.031634483 0.09425849 -0.06790401
0.09906137 0.017282259 -0.033761848 -0.08431262 -0.04169939 0.061803717 0.024009017 -0.06051267
0.036365774 -0.09096501 -0.037607394 0.11154735 -0.019903328 0.06600718 -0.053754076 -0.05026666
-0.0050648456 -0.078764066 0.10268781 0.005542949 0.04806003 0.06447906 0.08466577 0.06240451
-0.025173865 0.054966085 0.10171518 -0.0095385015 -0.007910029 0.1113603 0.08887093 0.07622424
-0.033747084 -0.004558214 0.114105515 -0.03960914 0.05049492 -0.051184844 0.040923364 -0.03468355
0.051761825 -0.026359048 -0.06260822 -0.06542544 0.0014003263 0.021869116 -0.06901553 0.034817148
0.084191516 -0.05911163 -0.0067996 -0.09117148 0.029338278 0.04415038 0.03974435 0.0017746465
0.032182943 0.04741576 0.0825605 0.08902079 -0.09275852 -0.07448015 0.08628731 0.05885905
0.07779089 0.07846487 0.0027979387 -0.056629878 -0.045907214 -0.01437353 -0.018528858 -0.008899526
0.019182011 -0.10351566 0.02211165 -0.011470843 -0.008615663 0.0380658 0.097981565 -0.081983745
-0.07500025 0.013263548 -0.007364074 0.099171415 0.026764208 0.085260764 -0.014130605 -0.02128923
-0.09544285 0.06258195 0.09801713 0.04207531 0.0653373 0.06320414 0.012328915 -0.0667433
0.05367718 0.08678885 -0.099033445 0.09141273 -0.09112819 0.026445176 -0.042560883 0.018758167
-0.09157057 0.10043366 -0.014862391 0.01387504 0.07547907 -0.056616943 -0.061824653 -0.06897882
-0.08165251 -0.09647427 -0.0422469 0.036348816 -0.058306728 -0.0700234 0.065912694 0.042999405
0.0740903 0.092797406 -0.011270692 -0.092062205 -0.089002065 0.021945411 0.025318585 0.100126565
-0.09802138 0.03558684 0.013707151 0.10983173 -0.082860105 0.07850599 0.11568457 -0.05427946
0.009743132 -0.027841127 -0.039468214 -0.031735938 -0.09605468 -0.0781775 -0.059759375 -0.067762926
0.12815699 0.03693857 0.10057352 0.07781317 0.08030703 0.034122184 -0.09345825 -0.04495857
0.045226272 0.02067694 -0.0045259423 0.022749308 0.044325635 -0.068577275 0.0047129057 -0.036633205

lstm.weight_hh_l0 f4 [512, 128]
00000000: 15e9 833d 5c55 86bd a217 3a3d 47fb 863d
00000010: 366a c5bc 20b5 b53b 1766 f23c 7a6a 923d
00000020: e8b3 8abd 501f b3bd 8f00 533d 251b c03d
00000030: ca99 c8bc a72e 97bc 427c aa3c 0a94 023d
00000040: e056 a0bd 06bb e8bb 8ad9 0f3d 1380 983d
00000050: 7cde d4bb a356 3e3c 878c 9abd 26b9 8e3d
00000060: 6a8c 1bbd cbfb 53bd 9b6b 84bd c694 6d3c
00000070: 632f 87bd 2f81 d43a a127 a8bd cf4c 29bd
00000080: 4bde 5abd 2934 dfbc 8899 893d 580b 47bd
00000090: 9b47 123c 98a3 553d d66d 15bc e0a1 893d
000000a0: 1db6 a6bc 74bd a7bd 294d fcbc 94fd 9ebd
000000b0: db68 62bd ffd3 c13c a83e a5bc c53c e83c
000000c0: 4f79 3fbd b402 793c ec25 b53d 5961 9abd
000000d0: 773a c93d df1d 9fbd c307 0dbd adf6 a83d
000000e0: d7a1 d03d 8dc6 cd3c 740c 463d f801 c2bc
000000f0: 126d 31bd 58a5 9bbc 4fa7 b03d edfb d23d
00000100: 52e7 8dbd 7c2e 8a3c fbb8 85bc c943 a73d
00000110: 9204 a53d 5d6f dfbc 1fe1 8b3d 286f 87bd
00000120: 4343 343d b021 443d 46ee 25bd a5e8 1d3d
00000130: 4655 06bd ea76 80bc 4108 debc 8bf1 73bd
00000140: 7374 47bd adb4 133d 8c90 5b3d 302d c83d
00000150: 07bf a93d 84be ad3d 7f98 b8bd 2221 35bc
00000160: e43c 273d 0f1f 22bc 2534 b53d af65 9f3d
00000170: 2628 fabc f45f f7bc 701e 553c 355e 983c
00000180: 5a20 1c3d 9968 b53d e73d 9c3c eb9c 95bd
00000190: e095 983d 7f02 9a3d 5b5e afbd 3f3a 43bd
000001a0: 19ab 95bd 7070 a9bd c755 27bd e347 a1bd
000001b0: 1795 e0bc 5e5d 81bd 4dfb 9e3a 93cd 87bc
000001c0: 1828 24bc 3e14 debc a784 acbd f502 5abd
000001d0: 2bad 57bd a7ae 8f3d 38e7 1fbd 96bc 453d
000001e0: 3856 103d 5a20 2cbd 5352 aabd d49c 85bd
000001f0: b468 91bd 70b4 883d 52c0 b73d f124 833d
00000200: 6013 583d b58c cc3d 969b ac3d bbb0 27bd
00000210: 0cd0 24bd 8859 a93d 0399 37bd 574c b5bd
00000220: 6d34 9a3d d3c1 373d 5082 833d df5f 3abd
00000230: 55cb cf3d 1858 c7bd fbbf 96bd 3d2e 3f3d
00000240: 0eb8 d8bc 41d6 93bd 706b 573d 64a4 31bd
00000250: adbd 23bc ad25 aabd 4208 37bb 14f6 493d
00000260: 4486 d9bb 9a31 a5bc 0c8e c7bd 03bd edbb
00000270: d4b0 3b3d 2fea acbd ab00 a93d 17dc a23d
00000280: 4885 ecbc ee55 29bc ffed 8f3d e7bf 1e3c
00000290: 1b9a a0bd 9adb 963d 9fe3 30bd a596 2ebd
000002a0: a3fc 6e3d 4c82 ecbc a261 a2bd 0073 95bd
000002b0: 1503 c03c 9087 96bd 56ba edbc a9ef 933c
000002c0: 16e5 8b3d 14fe d93c 7232 b1bb 9fd1 363d
000002d0: afb4 96bc edd5 0f3d fe32 52bd 53ca c5bd
000002e0: 74b5 bfbd 7156 603b ad8b 0c3d 9e85 30bd
000002f0: 4500 af3d ed1b acbc 9327 a7bd 946c 94bc
00000300: c3f3 0a3d 935a 1c3d b166 a5bd 6c36 b63d
00000310: ad82 8d3b 8a45 87bd d73c 27bd 35a5 84bd
00000320: d78f 82bd 1380 3a3b 6dd9 2ebc 71b6 853b
00000330: b8c7 8fbc 182b 1cbd a837 e63c ae03 ad3d
00000340: d9c6 08bd 7a25 69bd a294 ba3b 3e03 9a3d
00000350: 6f21 b03d 06b7 2e3c 3b39 49bd f432 bfbd
00000360: af0f 193d cb5a 2a3d be2a 5dbc 8abd b2bd
00000370: 9e43 503d 198a 6dbc 722e c1bd 9880 d23d
00000380: e201 c63d 3ce1 863d e817 b4bd 6ab7 da3c
00000390: 9be7 9cbd aca9 b03d e4fe 2a3d af21 8ebc
000003a0: b1e2 aa3d 8b3e a3bd 3b66 82bc 2796 cbbc
000003b0: 313d b1bd 3535 813c e11f 9d3d 54f2 133d
000003c0: a88d 763d 352c 773d 4c6b 723d 2e7a b0bd
000003d0: 8646 573d af38 5fbd f762 f13b cd14 a0bd
000003e0: 280d b23d 7f6a b4bc 1454 8fbd 4798 91bd
000003f0: 43c8 5fbd cdef babd 01c6 a83d 708f e33b
0.06440941 -0.0655925 0.045432694 0.06590896 -0.024098497 0.0055452734 0.029589696 0.07149215
-0.06772596 -0.08746207 0.051514205 0.093801774 -0.024487395 -0.018454863 0.020811204 0.031879462
-0.0782907 -0.007102373 0.03511957 0.07446303 -0.0064962488 0.0116173355 -0.07546335 0.06968908
-0.037975706 -0.0517538 -0.064658366 0.014500802 -0.06600835 0.0016212816 -0.082106836 -0.041333016
-0.05343465 -0.027246552 0.06718737 -0.048594803 0.008928205 0.05215797 -0.009120425 0.06720328
-0.02035051 -0.08190432 -0.030798512 -0.0776321 -0.05527578 0.023660658 -0.020171478 0.02834929
-0.04674655 0.015198398 0.08845124 -0.07538099 0.098256044 -0.07769369 -0.03443123 0.08250175
0.101871185 0.02511909 0.04835172 -0.02368258 -0.04331691 -0.01899974 0.086256616 0.10301957
-0.069288865 0.016867869 -0.016323557 0.08167226 0.08057512 -0.027274782 0.06830048 -0.06612998
0.04400946 0.04788369 -0.04051044 0.038551945 -0.032796167 -0.015681703 -0.027103545 -0.059556525
-0.04869504 0.036060978 0.053604648 0.09774244 0.08288389 0.084836036 -0.09013461 -0.011055263
0.040829554 -0.0098951 0.088478364 0.077830665 -0.030536722 -0.030197121 0.013007745 0.018599609
0.03811679 0.08857841 0.019072486 -0.0730532 0.074504614 0.07520007 -0.08562919 -0.04766297
-0.07308025 -0.08273399 -0.040853288 -0.078750394 -0.027414842 -0.063166365 0.0012129337 -0.016577518
-0.010019325 -0.027109262 -0.08423739 -0.053225476 -0.05265538 0.07015734 -0.039038867 0.048275553
0.035238475 -0.04202304 -0.08316483 -0.06524053 -0.07100049 0.06675041 0.08972229 0.064035304
0.052752852 0.09987775 0.08428113 -0.040940028 -0.04023747 0.0826903 -0.044823658 -0.08852451
0.07529531 0.04486258 0.064213395 -0.045501586 0.101462044 -0.097335994 -0.07360836 0.046674956
-0.026454952 -0.072186 0.052592695 -0.043369666 -0.009993953 -0.08307967 -0.0027928506 0.049306944
-0.00663832 -0.020165253 -0.0974389 -0.007255198 0.045822933 -0.084431045 0.082520805 0.07952135
-0.028872147 -0.010335429 0.07027816 0.009689308 -0.07841893 0.073661044 -0.043185826 -0.042624135
0.058346402 -0.028870724 -0.07928778 -0.07297325 0.02343897 -0.07350075 -0.029019516 0.018058615
0.06830804 0.026610412 -0.005407625 0.044633504 -0.018396704 0.035116125 -0.05131816 -0.09657731
-0.09360781 0.003423121 0.034312893 -0.043096177 0.08544973 -0.02100941 -0.08161845 -0.01811818
0.033923876 0.038172316 -0.080762275 0.08897099 0.0043185563 -0.066050604 -0.040829506 -0.06476823
-0.063750915 0.0028457686 -0.0106719555 0.0040805866 -0.017551288 -0.038127035 0.02810271 0.084479675
-0.03339276 -0.056920506 0.005693988 0.0752015 0.08600127 0.010663753 -0.049126845 -0.093358904
0.037368473 0.041590493 -0.01349896 -0.08727558 0.050845735 -0.014498257 -0.09432687 0.102784336
0.09668328 0.06585929 -0.08793622 0.026698787 -0.07661363 0.08626112 0.04174699 -0.017350046
0.08344019 -0.079709135 -0.015917888 -0.024851872 -0.086542495 0.015772441 0.07672096 0.036119774
0.060193688 0.060344893 0.059184358 -0.08617054 0.05255749 -0.054497417 0.007366534 -0.078164674
0.086939156 -0.022023438 -0.069984585 -0.07109123 -0.054634344 -0.091277696 0.08240891 0.0069445893

lstm.bias_ih_l0 f4 [512]
00000000: 8c2b 223b d240 f93b c2ba 9e3c 1733 fc3b
00000010: 2ef6 603c d57a b13c 9bde 893c efee 913c
00000020: af6d 433b 416e 913b f9d2 583c 64c5 613c
00000030: d239 6bba 9abc 8b3c 4325 613c 664f 263c
00000040: 0f09 623c 8e6e cc3b 6301 f23b f50c 0b3c
00000050: 88e0 223c a51d f83a 303c ca3b ae66 7a3c
00000060: 684e 8e3b f57b b23b a830 e03b 4ae2 7a3c
00000070: 60b1 853c f0bc f93b 88d4 ddba 1662 583c
00000080: 8714 343c dca1 bb3b fd85 4c3c ca6b 7c3b
00000090: 051d 483c 5be0 97bb cee3 df3b dc66 133c
000000a0: a754 853c de33 77bb b876 133c 2a27 533c
000000b0: 0493 413c 359e 43bb 6520 8b3c e35c 903b
000000c0: 8a77 563c 9860 b63a 99e1 a73c 9ce9 253c
000000d0: 921f 8f3c b5d5 883b 0067 b53c 8410 693c
000000e0: 935d 6a3c dea0 683c fe27 723c 4fde a83b
000000f0: 4aef ed3b 17ed 893c 2152 213c 6efe 743c
00000100: e15a 6c3b 30dd 4dbb 8cb6 673b 95d1 9d3b
00000110: cb18 ec3b e6c1 793b e716 6d3c 1d65 233c
00000120: 2c47 fb3b 487e bb3c a18c 6b3c 36c7 943c
00000130: 6040 a93b b878 263c 4ef3 963c be7f 3b3c
00000140: c8e1 763c 86d3 91b9 1351 5b3c 3434 313c
00000150: 83c6 8a3b addf f03b f6cb 3b3c f5fb 4a3c
00000160: d59a 463c 3407 013c c9d8 ef3b e1ca 7b3c
00000170: 4474 4c3c dc39 333c da65 8c3b 78c6 353b
00000180: d00a 6d3c fca4 0a3c 3eb8 9a3c fbe9 203c
00000190: 3557 683c 245f 4b3c e6dc 603b 95fc 363c
000001a0: 61b7 1f3c 32c8 fabb 7a58 ba3b 1eb3 ec3b
000001b0: b026 f13b 3d39 1c3c ae94 8a3b 1277 0f3b
000001c0: 38c0 3f3c bc9c cc3b eca5 ae3c 87ab de3b
000001d0: 9a2e 4e3c fc74 453c 227c 293c 009b 9f3c
000001e0: a08a 4e3b faf7 4a3b c296 ac3b a76d 323c
000001f0: e697 9b3a b68e bb3b 3da3 583c ccd0 2e3b
00000200: fd98 ce3b 20ee b13b 7688 5d3c fdbc 403b
00000210: f163 743c 2fa8 be3c 8ede 8b3c eead 893c
00000220: 27aa 903a 91a2 e43b 8379 603c a288 ea3b
00000230: 96ea 693b 8693 633c e69a ec3a d818 333c
00000240: e81c d63b 65b0 bd3b ca48 0f3c 3c43 473c
00000250: 9fee b23a 9a59 7dba 642d b238 58dd 863c
00000260: ec67 633b 93a8 9c3b 75fc 463c 2eb1 5f3c
00000270: fdc1 223c bb14 7c3b 7771 fc3b d915 c73b
00000280: ac75 4c3c 615d 8f3b c69d 6c3b fdb5 203b
00000290: caac 113c 3dad 3abb f53e 483b ada7 4e3c
000002a0: 69dd ae3a ac57 103b 1b17 263c 9674 473c
000002b0: dacd 913b 4116 95bb 142b 713c f8c0 19ba
000002c0: b1d9 723c 801b e4ba 14fb 8c3c b10b 403c
000002d0: f416 6c3c 9057 853b 6a62 c83c 0774 513b
000002e0: 7e1f 5a3c 81bd 1e3c a97e 8a3b aa24 ae3b
000002f0: aa3a 333b e43d 953c b876 ed3b 7647 723c
00000300: e83d 86bb 450d b8bb 0fe7 463a df78 ef3b
00000310: c2d0 1e3a 71a5 a9ba a424 453c a0da 213c
00000320: e66d e43b 30d5 9a3c 07d8 a93c 25cc 843c
00000330: 14d2 083c fafb e13b 8869 773c 3ba1 083c
00000340: 6dc3 803c 8812 f4bb 3c61 f63b a1b7 463c
00000350: 9735 b93b 5c6c bd3b 7849 373c 7178 eb3b
00000360: 1c54 d13b cc55 f43b 9e8a f03b 1a1a 533c
00000370: ef7a d53b cc3a 273c 4142 b33b e251 a63b
00000380: d06c 473c 6770 813b f9d8 af3c ec50 513c
00000390: 32f5 063c 7679 c63b 7de1 03bb 25a3 0c3c
000003a0: 9d08 013c 1170 adbb 7bf8 c03b c31f 8039
000003b0: 8205 e039 04a7 a43a dae7 533a deb5 363b
000003c0: 8483 543c 02e5 273c abc9 8f3c 54e6 e63b
000003d0: 5864 5b3c 9f0a 283c 403d 0e3c 19d2 6a3c
000003e0: a866 413b 28a2 833b 8710 1abb 6902 443c
000003f0: ec2e 193c 1c4c 4e3b 5e0f 243a 6231 8739
0.0024745194 0.007606604 0.019376162 0.00769652 0.013730569 0.021665016 0.01682978 0.017814128
0.0029820015 0.004438192 0.013233894 0.013779972 -0.00089731545 0.017057706 0.013741794 0.010150766
0.013796105 0.006238765 0.007385419 0.008486976 0.009941228 0.0018929733 0.0061717257 0.01528327
0.004342843 0.0054469057 0.006841738 0.015312741 0.01631993 0.0076214 -0.0016924301 0.013206979
0.010991222 0.0057260823 0.012483117 0.0038516396 0.01221395 -0.0046348996 0.0068325764 0.008996692
0.016275717 -0.0037720124 0.009000473 0.012887755 0.011814836 -0.0029848937 0.01698322 0.004405604
0.013090024 0.0013914285 0.020493316 0.010126498 0.017471109 0.0041758665 0.02214384 0.014225129
0.014304536 0.01419851 0.014780043 0.0051534544 0.0072611915 0.016836686 0.009846241 0.014953239
0.003606491 -0.0031412356 0.003535661 0.004816244 0.007205104 0.0038109957 0.014470792 0.009972838
0.0076683965 0.022887364 0.01437679 0.018161397 0.005165145 0.0101606175 0.018426564 0.01144403
0.015068479 -0.00027814152 0.013386029 0.010815669 0.00423509 0.007350883 0.011462202 0.012389173
0.012121876 0.0078752525 0.007319544 0.015368194 0.012478892 0.010939088 0.0042846026 0.0027736705
0.01446791 0.008462187 0.018886682 0.00982141 0.014180948 0.01241282 0.0034311353 0.011168619
0.009748311 -0.0076532597 0.0056868168 0.007223501 0.0073593482 0.009535131 0.00422915 0.002189104
0.011703543 0.00624427 0.021319352 0.00679535 0.012584353 0.012051817 0.010344537 0.01948309
0.0031515732 0.003097056 0.005266995 0.010890401 0.0011870831 0.0057237996 0.013222513 0.0026674746
0.0063048587 0.005429998 0.013521304 0.002940952 0.014916406 0.023273556 0.017073896 0.016806569
0.0011037037 0.0069773872 0.013700846 0.007157401 0.0035692803 0.013890153 0.0018051534 0.010931216
0.0065342076 0.00578885 0.008745382 0.012162026 0.0013651437 -0.0009664536 8.496156e-05 0.016462967
0.0034699393 0.004780838 0.012145151 0.013653083 0.009933946 0.0038464505 0.0077039558 0.0060756025
0.012479227 0.0043751453 0.0036104782 0.0024522536 0.008891294 -0.0028484606 0.0030555103 0.012613219
0.0013341132 0.0022024913 0.010137345 0.012173792 0.0044495882 -0.004549772 0.014719743 -0.00058652414
0.0148224095 -0.0017403215 0.017209567 0.011721537 0.014409769 0.004069276 0.02446099 0.0031960027
0.013313172 0.009688736 0.004226525 0.0053144293 0.00273482 0.018217988 0.0072468184 0.014787545
-0.0040967353 -0.005616816 0.0007587531 0.00730811 0.0006058329 -0.0012942982 0.012032662 0.009878784
0.0069711087 0.018900484 0.020732893 0.016210625 0.008350868 0.006896493 0.015100844 0.008339222
0.015718186 -0.007448498 0.0075189155 0.0121287415 0.0056521404 0.0057807397 0.01118695 0.0071859886
0.0063882004 0.007456517 0.007340743 0.012884641 0.006514899 0.010206889 0.0054705446 0.005075679
0.012171939 0.003950167 0.021465765 0.012775641 0.00823717 0.0060569597 -0.0020123415 0.008583819
0.007875589 -0.0052929004 0.005888996 0.00024437727 0.00042728713 0.0012561982 0.000808356 0.0027879397
0.012970809 0.010247471 0.017552217 0.0070465 0.013390623 0.0102564385 0.008681595 0.014332318
0.002951065 0.0040171333 -0.0023508386 0.011963465 0.009349566 0.003147847 0.00062583934 0.00025786

lstm.bias_hh_l0 f4 [512]
00000000: 8c2b 223b d240 f93b c2ba 9e3c 1733 fc3b
00000010: 2ef6 603c d57a b13c 9bde 893c efee 913c
00000020: af6d 433b 416e 913b f9d2 583c 64c5 613c
00000030: d239 6bba 9abc 8b3c 4325 613c 664f 263c
00000040: 0f09 623c 8e6e cc3b 6301 f23b f50c 0b3c
00000050: 88e0 223c a51d f83a 303c ca3b ae66 7a3c
00000060: 684e 8e3b f57b b23b a830 e03b 4ae2 7a3c
00000070: 60b1 853c f0bc f93b 88d4 ddba 1662 583c
00000080: 8714 343c dca1 bb3b fd85 4c3c ca6b 7c3b
00000090: 051d 483c 5be0 97bb cee3 df3b dc66 133c
000000a0: a754 853c de33 77bb b876 133c 2a27 533c
000000b0: 0493 413c 359e 43bb 6520 8b3c e35c 903b
000000c0: 8a77 563c 9860 b63a 99e1 a73c 9ce9 253c
000000d0: 921f 8f3c b5d5 883b 0067 b53c 8410 693c
000000e0: 935d 6a3c dea0 683c fe27 723c 4fde a83b
000000f0: 4aef ed3b 17ed 893c 2152 213c 6efe 743c
00000100: e15a 6c3b 30dd 4dbb 8cb6 673b 95d1 9d3b
00000110: cb18 ec3b e6c1 793b e716 6d3c 1d65 233c
00000120: 2c47 fb3b 487e bb3c a18c 6b3c 36c7 943c
00000130: 6040 a93b b878 263c 4ef3 963c be7f 3b3c
00000140: c8e1 763c 86d3 91b9 1351 5b3c 3434 313c
00000150: 83c6 8a3b addf f03b f6cb 3b3c f5fb 4a3c
00000160: d59a 463c 3407 013c c9d8 ef3b e1ca 7b3c
00000170: 4474 4c3c dc39 333c da65 8c3b 78c6 353b
00000180: d00a 6d3c fca4 0a3c 3eb8 9a3c fbe9 203c
00000190: 3557 683c 245f 4b3c e6dc 603b 95fc 363c
000001a0: 61b7 1f3c 32c8 fabb 7a58 ba3b 1eb3 ec3b
000001b0: b026 f13b 3d39 1c3c ae94 8a3b 1277 0f3b
000001c0: 38c0 3f3c bc9c cc3b eca5 ae3c 87ab de3b
000001d0: 9a2e 4e3c fc74 453c 227c 293c 009b 9f3c
000001e0: a08a 4e3b faf7 4a3b c296 ac3b a76d 323c
000001f0: e697 9b3a b68e bb3b 3da3 583c ccd0 2e3b
00000200: fd98 ce3b 20ee b13b 7688 5d3c fdbc 403b
00000210: f163 743c 2fa8 be3c 8ede 8b3c eead 893c
00000220: 27aa 903a 91a2 e43b 8379 603c a288 ea3b
00000230: 96ea 693b 8693 633c e69a ec3a d818 333c
00000240: e81c d63b 65b0 bd3b ca48 0f3c 3c43 473c
00000250: 9fee b23a 9a59 7dba 642d b238 58dd 863c
00000260: ec67 633b 93a8 9c3b 75fc 463c 2eb1 5f3c
00000270: fdc1 223c bb14 7c3b 7771 fc3b d915 c73b
00000280: ac75 4c3c 615d 8f3b c69d 6c3b fdb5 203b
00000290: caac 113c 3dad 3abb f53e 483b ada7 4e3c
000002a0: 69dd ae3a ac57 103b 1b17 263c 9674 473c
000002b0: dacd 913b 4116 95bb 142b 713c f8c0 19ba
000002c0: b1d9 723c 801b e4ba 14fb 8c3c b10b 403c
000002d0: f416 6c3c 9057 853b 6a62 c83c 0774 513b
000002e0: 7e1f 5a3c 81bd 1e3c a97e 8a3b aa24 ae3b
000002f0: aa3a 333b e43d 953c b876 ed3b 7647 723c
00000300: e83d 86bb 450d b8bb 0fe7 463a df78 ef3b
00000310: c2d0 1e3a 71a5 a9ba a424 453c a0da 213c
00000320: e66d e43b 30d5 9a3c 07d8 a93c 25cc 843c
00000330: 14d2 083c fafb e13b 8869 773c 3ba1 083c
00000340: 6dc3 803c 8812 f4bb 3c61 f63b a1b7 463c
00000350: 9735 b93b 5c6c bd3b 7849 373c 7178 eb3b
00000360: 1c54 d13b cc55 f43b 9e8a f03b 1a1a 533c
00000370: ef7a d53b cc3a 273c 4142 b33b e251 a63b
00000380: d06c 473c 6770 813b f9d8 af3c ec50 513c
00000390: 32f5 063c 7679 c63b 7de1 03bb 25a3 0c3c
000003a0: 9d08 013c 1170 adbb 7bf8 c03b c31f 8039
000003b0: 8205 e039 04a7 a43a dae7 533a deb5 363b
000003c0: 8483 543c 02e5 273c abc9 8f3c 54e6 e63b
000003d0: 5864 5b3c 9f0a 283c 403d 0e3c 19d2 6a3c
000003e0: a866 413b 28a2 833b 8710 1abb 6902 443c
000003f0: ec2e 193c 1c4c 4e3b 5e0f 243a 6231 8739
0.0024745194 0.007606604 0.019376162 0.00769652 0.013730569 0.021665016 0.01682978 0.017814128
0.0029820015 0.004438192 0.013233894 0.013779972 -0.00089731545 0.017057706 0.013741794 0.010150766
0.013796105 0.006238765 0.007385419 0.008486976 0.009941228 0.0018929733 0.0061717257 0.01528327
0.004342843 0.0054469057 0.006841738 0.015312741 0.01631993 0.0076214 -0.0016924301 0.013206979
0.010991222 0.0057260823 0.012483117 0.0038516396 0.01221395 -0.0046348996 0.0068325764 0.008996692
0.016275717 -0.0037720124 0.009000473 0.012887755 0.011814836 -0.0029848937 0.01698322 0.004405604
0.013090024 0.0013914285 0.020493316 0.010126498 0.017471109 0.0041758665 0.02214384 0.014225129
0.014304536 0.01419851 0.014780043 0.0051534544 0.0072611915 0.016836686 0.009846241 0.014953239
0.003606491 -0.0031412356 0.003535661 0.004816244 0.007205104 0.0038109957 0.014470792 0.009972838
0.0076683965 0.022887364 0.01437679 0.018161397 0.005165145 0.0101606175 0.018426564 0.01144403
0.015068479 -0.00027814152 0.013386029 0.010815669 0.00423509 0.007350883 0.011462202 0.012389173
0.012121876 0.0078752525 0.007319544 0.015368194 0.012478892 0.010939088 0.0042846026 0.0027736705
0.01446791 0.008462187 0.018886682 0.00982141 0.014180948 0.01241282 0.0034311353 0.011168619
0.009748311 -0.0076532597 0.0056868168 0.007223501 0.0073593482 0.009535131 0.00422915 0.002189104
0.011703543 0.00624427 0.021319352 0.00679535 0.012584353 0.012051817 0.010344537 0.01948309
0.0031515732 0.003097056 0.005266995 0.010890401 0.0011870831 0.0057237996 0.013222513 0.0026674746
0.0063048587 0.005429998 0.013521304 0.002940952 0.014916406 0.023273556 0.017073896 0.016806569
0.0011037037 0.0069773872 0.013700846 0.007157401 0.0035692803 0.013890153 0.0018051534 0.010931216
0.0065342076 0.00578885 0.008745382 0.012162026 0.0013651437 -0.0009664536 8.496156e-05 0.016462967
0.0034699393 0.004780838 0.012145151 0.013653083 0.009933946 0.0038464505 0.0077039558 0.0060756025
0.012479227 0.0043751453 0.0036104782 0.0024522536 0.008891294 -0.0028484606 0.0030555103 0.012613219
0.0013341132 0.0022024913 0.010137345 0.012173792 0.0044495882 -0.004549772 0.014719743 -0.00058652414
0.0148224095 -0.0017403215 0.017209567 0.011721537 0.014409769 0.004069276 0.02446099 0.0031960027
0.013313172 0.009688736 0.004226525 0.0053144293 0.00273482 0.018217988 0.0072468184 0.014787545
-0.0040967353 -0.005616816 0.0007587531 0.00730811 0.0006058329 -0.0012942982 0.012032662 0.009878784
0.0069711087 0.018900484 0.020732893 0.016210625 0.008350868 0.006896493 0.015100844 0.008339222
0.015718186 -0.007448498 0.0075189155 0.0121287415 0.0056521404 0.0057807397 0.01118695 0.0071859886
0.0063882004 0.007456517 0.007340743 0.012884641 0.006514899 0.010206889 0.0054705446 0.005075679
0.012171939 0.003950167 0.021465765 0.012775641 0.00823717 0.0060569597 -0.0020123415 0.008583819
0.007875589 -0.0052929004 0.005888996 0.00024437727 0.00042728713 0.0012561982 0.000808356 0.0027879397
0.012970809 0.010247471 0.017552217 0.0070465 0.013390623 0.0102564385 0.008681595 0.014332318
0.002951065 0.0040171333 -0.0023508386 0.011963465 0.009349566 0.003147847 0.00062583934 0.00025786

lstm.weight_ih_l1 f4 [512, 128]
00000000: 7971 1db9 d592 6fbc bcbe 30bd 3144 51bd
00000010: aa1e 093d bcb8 173d 7173 11bd 1870 a5bd
00000020: 9e02 523c 5eb0 79bd f59e 6dbd ca3c 523c
00000030: 8f68 093d e12e 8d3a d312 54bd 7e2b 2bba
00000040: f3c2 953d 614d 3fbd 3463 c93c a5e4 9a3d
00000050: 4342 a43d ffdf 3fbd 14e8 cabb 9468 1bbd
00000060: b8fd 823d 8e57 c7bc 9e28 a03d 443a 753d
00000070: 8c18 54bd b32d a33d e7e3 64bc d2da b7bd
00000080: d384 953d 3829 893b 15a5 b0bd f40a a23d
00000090: 3565 ae3d 5748 2e3c 3fb8 a23d 309b aa3d
000000a0: b6e5 2e3c a038 3bbd d773 70bd ae6c fd3c
000000b0: de36 5fbc 5aea 9bba a944 49bb c15f abbd
000000c0: ebc5 5f38 4878 d63c a040 dd3c c345 bcbc
000000d0: 9318 3ebd 2a72 adbc 4f9b c13d 779f 9c3d
000000e0: a872 f83c bb8f 003d e5d6 a1bd 7837 30bd
000000f0: 0b72 3bbd adaa 663b 3df7 8fbd 4c81 103c
00000100: 3445 cdbd c986 bb3c 22f5 833d b268 0ebd
00000110: 4f3d 9f3d f8ea 823d b570 273b bf33 223d
00000120: b3c9 6fbb c192 08bd 039e 703d 943b 883c
00000130: 91d0 893d 6725 14bd 2abd 4bbb 92e2 cabc
00000140: 1b8a b03c 2a1f aabc 2e2b 95bd a1f0 e13c
00000150: 72fc 81bd 7ddb 16bc 1747 fabb 8f91 833d
00000160: be13 23bd a3f7 6fbd 256a e3bc 132c 9cbd
00000170: 66c4 1cbd 72ed 573d 8a10 833c 7cb6 91bd
00000180: e0df fe3c 9c37 a3bc 44b2 34bd c6fa b43d
00000190: 8775 12bd 8c40 ffbc dd05 c43d 5fea 913d
000001a0: d23d 8abd 1693 9dbd 0fd1 a3bd 54fb b23d
000001b0: 95d5 3b3d 6d68 d33d b1d5 a8bc 1b17 07bd
000001c0: 2042 633d b134 353d c032 063d 3ba4 a4bd
000001d0: cc49 253d 8d20 b5bc 9e38 39bb 1c02 0d3d
000001e0: 4cbe a7bd 0522 e73c e3f5 12bc 5218 e43b
000001f0: 5117 d23d a95c 543d 50c0 95bc c273 3c3d
00000200: d9cb 9b3d 9586 b5bd dcd4 113d ea80 493d
00000210: 4471 c7bc 04a1 a7bc 7df5 343d 421e c53c
00000220: 134e 0fbd da52 0f3d 3251 33bb 970a d93c
00000230: e0a9 a63d 4620 0abd e238 a53d b1ba a6bd
00000240: d179 2ebc 938b 693d 667a 8a3d 3150 87bd
00000250: 733d 113d 5e48 6d3d 17b9 22bd ba5c 9f3d
00000260: 7aeb 5c3d fcdd 683c c89a ef3b 3a25 803c
00000270: 6a7e b63d eb3d a2bb b897 94bd bcc8 333d
00000280: be4e 203d f50a e03c d3c1 b4bd 8544 a3bd
00000290: 94d2 3dbd e139 97bd c932 943d c0e1 bcbd
000002a0: 77ed b23c f499 b3bd 5186 723c 637b 1cbd
000002b0: ac7d 52bd 42ad 993d f9be aa3d 0aab 653d
000002c0: aec0 c53c 74f6 b13d 1aa6 cbbc aa70 0dbd
000002d0: 2e69 a63d a4ba 40bc 0060 d63d 4529 643d
000002e0: 5bf5 b6bd 99b9 b6bc 9a67 883d 01e7 c73d
000002f0: 0c58 673c cc55 63bd f2f5 d13a 9fe6 b83c
00000300: ff13 6fbd 2597 7a3d 05ee b53b 7e37 393d
00000310: bf3e 76bd 78fd 42bd acc5 4abd 3fb8 d4bb
00000320: 90a5 4e3c 8bb0 9f3d cdc5 203d 5c72 46bd
00000330: e6d3 89bd 7b5d 9fbd b873 bc3c 3215 97bd
00000340: c619 54bc 01da a13d 4390 ca39 3a26 1cbd
00000350: 777c 8b3b b39b 16bd 9831 b63d 0a62 80bd
00000360: d270 aebc dfb9 f0bb 6e59 4bbc 2686 063d
00000370: 4f81 19bd 5cba abbb 28be b23d a80c 91bc
00000380: 5643 a7bd 0af0 acbb b1f6 993d b5b9 bb3d
00000390: 74e2 12bd 2db0 9fbb fdea e13c 28eb 97bc
000003a0: a031 253d 229a e73c 1961 f73c f951 9d39
000003b0: 22dd 983b a399 eb3c ad89 ebbb 63dc b33d
000003c0: 06fd 8dbd f55b babd 2459 e63c cc38 debc
000003d0: 7a2f a63d 4973 8d3d 770b 483d 3ea3 e5ba
000003e0: 8448 093a 1f14 213d 241a 46bd 5aa5 293d
000003f0: c31d c23d 9c12 1fbc 44f4 a13d 9de3 de3b
-0.00015014959 -0.01462241 -0.04315065 -0.051090423 0.03347651 0.03704141 -0.035510484 -0.08078021
0.012818007 -0.060959212 -0.05801292 0.012831876 0.03354698 0.0010771417 -0.051775765 -0.0006529613
0.07312574 -0.046704654 0.024583437 0.07563142 0.08020451 -0.04684448 -0.0061922166 -0.03794153
0.06396049 -0.024333742 0.07820247 0.05987002 -0.051781222 0.07967701 -0.013970352 -0.089772835
0.07300725 0.004185822 -0.08625237 0.079122454 0.085153975 0.010637364 0.079452984 0.08330381
0.010674885 -0.0457083 -0.058704223 0.030935612 -0.013623921 -0.0011895404 -0.003071109 -0.08367873
5.335167e-05 0.026180401 0.027008355 -0.022982484 -0.046410155 -0.021172602 0.09453451 0.07647603
0.03032811 0.031387072 -0.07902316 -0.04302165 -0.045763057 0.0035196946 -0.07029579 0.008819889
-0.10022965 0.022891419 0.0644324 -0.034767814 0.077753656 0.06392473 0.0025549356 0.03960013
-0.0036588728 -0.03334308 0.05874444 0.016629972 0.06729234 -0.036168482 -0.0031088092 -0.02476624
0.021550229 -0.020766813 -0.072836265 0.027580561 -0.06346978 -0.0092076035 -0.007637869 0.064242475
-0.03981375 -0.058585774 -0.027760575 -0.07625594 -0.038273238 0.05271668 0.015999097 -0.07114884
0.031112611 -0.019923978 -0.04411532 0.08836894 -0.035756614 -0.031158708 0.09571431 0.07124781
-0.067500725 -0.0769407 -0.07998859 0.08739343 0.045857985 0.10322652 -0.020609709 -0.03298102
0.055482984 0.044239704 0.032763243 -0.08039137 0.04035358 -0.022110248 -0.0028262506 0.03442584
-0.08190593 0.028214464 -0.008969757 0.006960907 0.102583535 0.05184618 -0.018280178 0.046008833
0.0760724 -0.0886356 0.03560339 0.049195208 -0.024346001 -0.02046252 0.04417943 0.02406228
-0.034986567 0.034991123 -0.0027361629 0.026494307 0.0813787 -0.033722185 0.0806749 -0.08141077
-0.0106491605 0.057017874 0.06761627 -0.06607092 0.035458993 0.057930343 -0.039727297 0.07781358
0.053935505 0.014213081 0.0073121525 0.015642751 0.0891083 -0.004951229 -0.072555006 0.043892607
0.039137594 0.027348975 -0.088260315 -0.079720534 -0.0463434 -0.073840864 0.07236249 -0.09222746
0.021841748 -0.087695986 0.014802531 -0.03820361 -0.05138938 0.075037494 0.083372064 0.05607132
0.024139728 0.08689585 -0.024859477 -0.034531273 0.0812553 -0.011763249 0.10467529 0.05570342
-0.089335166 -0.022305297 0.066603854 0.097608574 0.014120113 -0.055501744 0.0016018732 0.022570906
-0.05836868 0.0611793 0.005552056 0.045218937 -0.060118433 -0.047605008 -0.04950492 -0.0064916904
0.012612715 0.07797345 0.039251138 -0.048448905 -0.067298695 -0.07781502 0.023004398 -0.073770896
-0.012945598 0.07902909 0.00038635926 -0.038122393 0.0042567807 -0.03676958 0.08896178 -0.062686995
-0.021294031 -0.0073463763 -0.012411458 0.032842778 -0.037476834 -0.0052407216 0.08727676 -0.01770623
-0.0816714 -0.0052776383 0.07517756 0.0916628 -0.035860494 -0.0048732967 0.027577871 -0.018544748
0.04033053 0.028271738 0.030197667 0.00030006448 0.004665033 0.028759783 -0.007188043 0.0878227
-0.06933026 -0.09099571 0.028118677 -0.027126692 0.08114524 0.069067545 0.04883906 -0.0017519963
0.0005236941 0.03932583 -0.048364773 0.041417457 0.09478333 -0.009709027 0.07907918 0.006802036

lstm.weight_hh_l1 f4 [512, 128]
00000000: 45b9 fbbc e452 423d 4f98 80bc 45a4 d4bd
00000010: 01bf 9cbd 9b5b f83b b855 2e3c 8ca8 84bd
00000020: 01d0 b4bc ce8a af3c ec7c d3bd a7af 63bd
00000030: 091a 4b3d eb09 74bd 9afe 183d 26f1 8ebd
00000040: ac22 00bd 97eb 6f3d 2d90 5b3d a673 b5bc
00000050: ada2 c137 3230 a2bc 7eeb 503a 9e61 443d
00000060: f19f 1dbd 486f c73d 6045 a239 048f 61bd
00000070: 46e7 ba3d ac7a 673d 5c7d 7c3a e7bd 963d
00000080: ebc8 273d 60e8 fbbc 5244 12bd 872e b33c
00000090: 4624 cbbd 5eb5 63bd 4ab3 bebd 7c9e da3c
000000a0: f826 acbd d8dd e8bb 9b6d bf3d 81a8 b23c
000000b0: e6e5 3abd b46d c3bb 7886 1abd a2b2 98bc
000000c0: 5ca9 8dbc a016 8abd edc3 9e3d 4ca9 8a3d
000000d0: 66b8 ac3d 97e7 cfbc 21ca 4fbd 9db5 6abd
000000e0: c6e3 b13d 2351 7fbd 9d18 0e3b a515 283c
000000f0: 9f86 a03b 4510 6cbc da83 7e3d 3bef c6bc
00000100: 063e c53b 69f3 4bbd c325 86ba deff bf3b
00000110: 0cf5 a7bd 2767 26bd a05a 84bd d025 293d
00000120: 91a5 84bd 2345 7ebc ef68 d33d 8bba 95bc
00000130: 0201 af3d 62d8 683d 5ebd 4f3d 2bd8 9bbd
00000140: 192f 2bbb a005 c23d 4177 d33d 2124 803c
00000150: 2b4d 813d 573c bd3b 5b68 923d 132e 91bd
00000160: 8019 9f3d d1c0 043d 743e 163c f398 7fbd
00000170: 6277 cebd fdd6 9ebc 0fea b83d 6a85 a03d
00000180: 17af 9fbd 7d77 36bd 1310 c7bd a93a fd3c
00000190: dd66 a13c 9086 3a3a e28f 79bd ee69 0dbd
000001a0: 396c 8bbd 0a10 9dbd 23f9 42bd 4ead a5bd
000001b0: ac6d 963d 9364 aa3d c542 c13d 598b febc
000001c0: 150f 9dbb 7e54 2fbd 6868 2cbc c89d c83d
000001d0: 20a1 73bb 42ab 5d3d a427 183c 83ab 6e3d
000001e0: 0e91 b6bb c684 eabc c781 ddbb d337 fbbb
000001f0: 0c1f 183d 036c 4e3d d3a8 e9bc 4e17 98bd
00000200: 2746 3dbd a74e 523b 543c 823d 237b 483d
00000210: 495e 893d 6baa 71bd 5e49 103b cef4 25bd
00000220: fd3e 9abd 75e3 773d 4086 9bbd e1df c3bb
00000230: 3857 0fbd 63d1 a53d b09c 893d a4dd 8c3c
00000240: 0415 7fbd c3c8 27bc 069c c2bd 2a21 f6bc
00000250: 7d01 fc3c 08c4 02bd e790 8bba 8bf1 9fbc
00000260: cdec 28bd df01 543d 6a1c babd 3bbd 2e3d
00000270: 3557 83bd 7ed7 b13c 3ff8 923d 4564 d0bb
00000280: 5d0d 93bd 8c98 0b3d 0992 6e3d 40a4 473d
00000290: 0527 7cbd c672 dbba 2048 26bd bc94 b1bd
000002a0: a800 c7bc 163b a3bd c4eb 4dbd 5e68 7abd
000002b0: da87 34bd 75ca 983d 2ead e6bc 33df 9cbd
000002c0: 223c 1abd 1689 edbc e92e 0abd 32d4 9f3c
000002d0: 496e e33c 00e8 3a3d 931f c63d 27a6 0cbd
000002e0: 2493 583d 331e 66bc 184e a83d 8347 7dbc
000002f0: 7c16 54bd 2b61 1abd cc6f c53d 339a 833c
00000300: c2a3 c23d 2679 ccbc 68c8 9e3d c86c cc3c
00000310: 8529 923d 0ea8 a7bd 1d74 aabd 111b 053d
00000320: e7bd 6b3d 4d80 2f38 d615 303c 524b 3dbd
00000330: 5810 793d 8378 733d ccf0 423c 1cf3 183d
00000340: 50d0 87bd 7028 3bbd bc86 8cbd 9cd9 a5bc
00000350: 5157 833d 5d6d 0ebd d782 1dbb 880e 5f3d
00000360: 02c0 b13d af19 07bd 16d9 94bd 16a8 773c
00000370: 1d21 bcbd 08af 323d c97f 963d 0aa7 47bd
00000380: ea8e 8fbd 4058 41bd 13d9 903d 018f bf3d
00000390: 6567 21bd 32f4 9b3d 9e3d 4bbd fe0b bfbc
000003a0: 1b6c 50bd a50c a0bd 1a9a 3b3d 2e19 473d
000003b0: 19a3 a93d e907 aa3d 9193 c33d ef27 c53c
000003c0: d7ac 76bd 4535 70bd 3e83 8a3d 8c58 56bc
000003d0: 9e58 b4bd e354 81bb d8a4 13bd eb88 94bc
000003e0: 3ebc 3ebc ea35 1cbd 0a88 78bc 5ab8 b73d
000003f0: babb b6bd 2a1b c43c 62f0 b83d 6a33 8f3d
-0.030727992 0.047442332 -0.015697626 -0.103828944 -0.076536186 0.0075792796 0.010640554 -0.0647746
-0.02207184 0.021428492 -0.10326561 -0.055587437 0.049585376 -0.05957977 0.037352182 -0.06979589
-0.031283066 0.058574285 0.053604294 -0.022149872 2.3083145e-05 -0.019798372 0.00079696614 0.047944658
-0.03848261 0.09738022 0.00030950736 -0.05506803 0.09126143 0.056513473 0.0009631717 0.0736044
0.040963095 -0.030750453 -0.035709687 0.021872772 -0.09919028 -0.055592887 -0.093115404 0.0266869
-0.0840587 -0.007106524 0.093470775 0.021808865 -0.045629404 -0.0059640054 -0.037725896 -0.018639866
-0.01729267 -0.067425966 0.077522136 0.06770572 0.08433609 -0.025378985 -0.050729875 -0.057302106
0.086860225 -0.062333237 0.002168215 0.010259067 0.0048988606 -0.014408176 0.062137462 -0.024283996
0.0060193567 -0.04979268 -0.0010234643 0.005859359 -0.08201036 -0.040625717 -0.06462598 0.041295826
-0.06476892 -0.015519413 0.10322749 -0.018277427 0.08545114 0.056846984 0.050717704 -0.0760959
-0.0026120602 0.09473729 0.1032548 0.015642228 0.06313547 0.0057750153 0.071488105 -0.07088866
0.077685356 0.032410447 0.009170163 -0.062401723 -0.10081364 -0.019389624 0.09029018 0.07837947
-0.077970676 -0.044547547 -0.09719863 0.03091176 0.01970237 0.0007115388 -0.060928233 -0.03452485
-0.06807751 -0.07669075 -0.047600877 -0.08089696 0.07345137 0.08319964 0.094365634 -0.031072306
-0.0047930577 -0.042805187 -0.010522939 0.097957194 -0.0037174895 0.054118402 0.009286795 0.058269035
-0.005571491 -0.028627764 -0.0067598554 -0.007666567 0.037138984 0.050395977 -0.028522884 -0.0742632
-0.04620948 0.0032090337 0.06359163 0.048945557 0.067074366 -0.059000414 0.0022016387 -0.040516667
-0.07531545 0.060519654 -0.075939655 -0.005977616 -0.034995288 0.08096578 0.06719339 0.01719553
-0.0622759 -0.010240736 -0.09502415 -0.03004511 0.030762428 -0.03192523 -0.0010648043 -0.019524356
-0.041241456 0.051759597 -0.09087451 0.042660933 -0.06413118 0.0217092 0.071762554 -0.0063596093
-0.07180283 0.034081027 0.05824474 0.048740625 -0.06156065 -0.0016742579 -0.040596128 -0.08670947
-0.024292305 -0.07970254 -0.05027367 -0.06113469 -0.04407487 0.074604906 -0.02815875 -0.07659759
-0.037655003 -0.028996032 -0.033736143 0.019510362 0.027762549 0.04563141 0.09673991 -0.034338143
0.0528747 -0.014045286 0.0821802 -0.015458944 -0.051779255 -0.037690323 0.09640464 0.016064739
0.095038906 -0.024960112 0.07753068 0.024954215 0.071368255 -0.08186351 -0.08322928 0.032496516
0.057554152 4.184274e-05 0.010747394 -0.04621441 0.060806602 0.0594411 0.011898231 0.037341222
-0.06631529 -0.04569286 -0.06861636 -0.020245366 0.06413139 -0.034772266 -0.0024034285 0.054457217
0.08679201 -0.03298348 -0.07267968 0.015115758 -0.09186003 0.043623954 0.07348592 -0.048743285
-0.070096806 -0.047203302 0.070726536 0.09353448 -0.039405245 0.07614936 -0.04961931 -0.023321148
-0.050884347 -0.07814912 0.04580126 0.048607998 0.082830615 0.0830229 0.095496304 0.024066893
-0.060223427 -0.05864455 0.06763314 -0.013082635 -0.08805965 -0.003946887 -0.03604588 -0.018131694
-0.01164156 -0.038137354 -0.015169153 0.08970709 -0.08922525 0.023938734 0.090302244 0.06992228

lstm.bias_ih_l1 f4 [512]
00000000: 9412 ba3b 74b1 0a3c 69b7 413c 0ce8 e33b
00000010: 86bf c93a 34df 643c d55c 0a3c 6346 28ba
00000020: 3667 b33b 9190 973b 2261 4d3c 0412 f33b
00000030: c580 b63b 1866 563c ebae b83b 76a7 bf3b
00000040: baef dc3b 6fcf 173c 4175 9b3a 9138 9b3b
00000050: b8f4 843c 7439 d23b fb77 e93b 9340 023c
00000060: 930e bd3b 0acd d43b 483d 693c e473 273c
00000070: 057e 8e3b 4fb4 d23b 4c0e db3b 0f60 ba3b
00000080: 3567 053c fedb 3dbb a5e9 843b 5ec7 a53b
00000090: 3563 673c ee79 a23c 27c2 f63b 1f7c 723b
000000a0: 62d1 493c ac7f a83b b7fb 353b 8adf fc3b
000000b0: 8118 503b 0428 a53a 72ca 813c 890f 613c
000000c0: 2795 e2ba c093 b33b 4682 3cbb 0864 833c
000000d0: 4253 0f3c 6181 323c 6c20 413c 88d7 9b3b
000000e0: fad3 523b 0ac1 983a 34b8 953b 00cb 3a3c
000000f0: f7e9 373c 2611 213c b045 543c 315c 713c
00000100: 5977 d23b 2ef8 b93b a7bb 023c 2123 b8ba
00000110: 1cd2 0b3c 2af7 733c 9b63 823b a96a 083c
00000120: 3f38 233c 5beb c13b 4922 443c ab85 153a
00000130: 4fb8 443c ba19 433b ae8e 0f3c 004e 1d3c
00000140: af1c be3a a7f7 7d3c 84cf c83b 54cd e3ba
00000150: d93c d13b 9fdf 33ba 6136 8e3b 8a8e fd3b
00000160: d46c 123b 7501 243c 5f83 16bc 997d 163b
00000170: d0bc d33b 0a6f 453c aebc d43b aaef 9e3c
00000180: 8dea 473c 3c20 fe3b 2d1f 273c ce54 383b
00000190: 079f 1a3c e76e ef3b 1acc 793b de0b 043b
000001a0: e72c ae3a e442 713b 35e1 2d3b 2f57 143c
000001b0: c8fa 713c 2d81 033c 09bd b53b 2eae f63b
000001c0: 382e 623c d82a 143b 76b1 003c 4a59 00ba
000001d0: 37a6 f13b ef85 3e3c c29b b03b b523 b73b
000001e0: a775 2c3c 2e45 123c 0900 7d3c b453 7b3c
000001f0: 1a3a 6e3c 1c59 d03b 00ff 5b3c 3726 793c
00000200: b574 7a3b 6e23 ad39 7fdb 673c 4685 133a
00000210: 6b5c daba 926d e33b 2720 e13b 34f9 943a
00000220: 53ef 443b 23e8 8a3b 7abc 403c 3534 f5b9
00000230: a918 c1bb 63a8 ed3b effe c13b da32 073b
00000240: ad61 c43b aa61 e93a e8ba 4b3a a4b8 d4ba
00000250: 60f4 663c b947 4d3b a471 de3a 237e 273b
00000260: f4cb e43a b489 a73b 4ca1 6b3b 1253 393c
00000270: fee7 533b ea73 cf3a 083a 7c3b a40f 493b
00000280: 6504 153a 286e a1bb 8928 4a3b 491a 963b
00000290: 21e5 453c 1e19 883c 857f 3639 2c1c 9836
000002a0: f192 453c bce9 e53b 5058 8c3b a625 603b
000002b0: 081f 903b 2793 383b 75b6 7e3c 3d36 d63b
000002c0: 9ec7 3e3b 15c8 fd3b 89e6 8eba 4e4c 2c3c
000002d0: 96e8 6a3b 5fea 1d3b 4658 f03b 0f45 753a
000002e0: 866d e0b8 8299 9f3a d634 a03b f72c f93b
000002f0: f1fc 233c d57a 113b 6b2e 433c 7330 223c
00000300: d2e2 ccb9 2cec 733b 98f7 a63a 7fc6 34bb
00000310: 9f0e 153b 3671 413c 2406 ac3b 4de1 163c
00000320: d603 d03b 08d5 393a c952 403c 50e3 35bb
00000330: ed3b d53b f415 023a 3df1 213c 28ac 003c
00000340: 9899 2ebb 1237 813c 642e ea3a 2da1 0dbb
00000350: 06ef 1f3c 2d85 183b a979 c8ba d554 263b
00000360: 7fa6 493a 9833 133c af22 0dbc ac49 da3a
00000370: 59e1 b93b c4f3 3a3c fd29 6439 c9b9 993c
00000380: da5e 943b 0090 f33a 225b a63b 4bc5 1b3b
00000390: 1fba 043c 9604 8b3b a322 883b f5c2 15bb
000003a0: 5603 583a 60a2 15bb b5b4 8dba 2dec 033a
000003b0: cb3e e43b 4b27 86bb 056c 5ab9 f8ef 1dbb
000003c0: b3f7 523c f20e 373b 8901 6e3b 4f6f adbb
000003d0: d787 da3b a9f6 403c abeb 173b ab80 efba
000003e0: 7e39 adba 76dc 3b3c 44ca 023c d5bd 2f3b
000003f0: 249c 183c 4fc0 ee3b 2b88 4a3b 9450 6d3c
0.005678484 0.00846516 0.011823514 0.0069551524 0.0015392161 0.013969231 0.008444984 -0.000641918
0.00547495 0.004625388 0.012535365 0.007417919 0.0055695497 0.0130858645 0.005636086 0.0058488203
0.006742445 0.009265765 0.0011860506 0.004736968 0.016229972 0.0064155404 0.0071248985 0.007949966
0.0057695596 0.006494169 0.014235802 0.010220502 0.004348519 0.006430186 0.006685054 0.0056877206
0.008142282 -0.0028970237 0.004056173 0.005059167 0.014122774 0.019833531 0.007530469 0.0037000251
0.012317987 0.005142173 0.0027768442 0.0077170776 0.0031752887 0.0012600427 0.015843604 0.013736614
-0.0017286883 0.0054802597 -0.0028764172 0.01603891 0.008747878 0.010895104 0.011787515 0.004755918
0.0032169805 0.001165421 0.004569078 0.011400938 0.011225215 0.009830749 0.012956068 0.014731453
0.0064229188 0.0056753373 0.00797931 -0.0014048555 0.008533981 0.0148904715 0.003979159 0.008326211
0.009962141 0.005917949 0.011971065 0.0005703817 0.012006833 0.0029769973 0.008762045 0.009601116
0.0014504398 0.015500939 0.0061282534 -0.0017379918 0.0063854274 -0.000686163 0.0043399786 0.0077379392
0.0022342699 0.010010113 -0.009186595 0.0022963046 0.006461717 0.0120504 0.006492219 0.01940139
0.012201917 0.0077553075 0.010200304 0.002812672 0.009437329 0.0073069218 0.0038116039 0.0020148675
0.0013288528 0.0036813552 0.002653194 0.009053989 0.014769264 0.008026403 0.0055462164 0.007528088
0.013804965 0.0022608545 0.00785481 -0.00048961176 0.0073745507 0.011628612 0.0053896615 0.0055889734
0.010526097 0.008927627 0.015441903 0.015339781 0.01454022 0.006358279 0.013427496 0.015206865
0.0038216535 0.00033023529 0.014151453 0.0005627464 -0.0016659623 0.006940552 0.006870288 0.0011365772
0.0030049875 0.0042390986 0.011763686 -0.0004676894 -0.0058928323 0.0072527393 0.005920283 0.0020629675
0.005993089 0.0017805595 0.00077716867 -0.0016229344 0.0140963495 0.0031323268 0.0016971123 0.002555736
0.0017455802 0.005112851 0.0035954295 0.011311309 0.0032334323 0.0015827392 0.0038486738 0.0030679489
0.0005684554 -0.0049264617 0.0030846915 0.00458077 0.012078554 0.01661354 0.00017404377 4.5332326e-06
0.012058959 0.0070163887 0.0042829886 0.0034202128 0.0043982305 0.0028163882 0.015546431 0.0065372274
0.002911068 0.007744799 -0.0010902445 0.010516239 0.0035844198 0.0024095995 0.0073347418 0.0009356299
-0.00010701553 0.0012176486 0.004889111 0.007604237 0.010009036 0.0022198458 0.011912922 0.0098992465
-0.00039078906 0.0037219627 0.0012738584 -0.0027584133 0.002274431 0.011806777 0.0052497555 0.009208989
0.0063481135 0.0007088934 0.0117384875 -0.0027753897 0.006507388 0.0004962378 0.009884176 0.007853545
-0.0026641842 0.01577333 0.0017866609 -0.002161096 0.0097615775 0.0023272738 -0.0015295047 0.0025380154
0.00076923514 0.008984469 -0.008614226 0.0016654036 0.0056726155 0.011410657 0.00021759416 0.018765347
0.0045279087 0.0018582344 0.005076782 0.0023768719 0.008101015 0.00424249 0.0041545196 -0.00228518
0.0008240243 -0.0022832379 -0.0010811301 0.00050324464 0.0069654933 -0.0040940396 -0.0002083034 -0.0024099331
0.012876439 0.0027932492 0.0036316833 -0.00529281 0.0066690254 0.011777558 0.002318124 -0.0018272599
-0.0013215987 0.011466136 0.007982794 0.002681603 0.009314571 0.0072861086 0.0030903916 0.014484543
