models/policy_net_barrier_3inst (2).pth (torch, 878330 bytes, 13 tensors)

lstm.weight_ih_l0 f4 [512, 5]
000000 df 01 7d 3d 66 c6 2b 3d 63 25 8b 3c ce c9 ca 3b
       0.061769363 0.041937254 0.0169856 0.006188608
000010 e6 21 be 3d ed 5e f2 bd c0 1d d8 3d bd 9c 51 bd
       0.09283809 -0.11834512 0.10552549 -0.051174868
000020 d1 03 c1 3d 8f f8 4a bd ad 5e 97 bd 35 12 9b bd
       0.09424556 -0.04955345 -0.07391105 -0.07571832
000030 95 ce 48 bc 7f ab 22 bd 97 b8 d8 3d 61 8b 9b bc
       -0.012256284 -0.039714333 0.10582083 -0.01898736
000040 22 9a a5 bd df 56 8c 3d e1 cb 0e bd bc 2b ed 3c
       -0.08086039 0.06852507 -0.034862403 0.028951518
000050 99 41 85 3d 6b 2e 4a bd 56 84 b3 bd d8 ab 82 bd
       0.065066524 -0.049360674 -0.087654755 -0.06380433
000060 70 0a 6e bd e4 28 05 bd f9 14 a9 bd 5e e5 99 3d
       -0.058115423 -0.0325097 -0.08255953 0.075144514
000070 d9 7a 44 3d 8d 31 1c bd 06 78 6c bd 9d 9f b9 3d
       0.04796872 -0.038133193 -0.05773165 0.09063647
000080 14 a3 67 bc dc 72 39 3d 25 25 41 3d 2a 6d 0c bd
       -0.014138002 0.045275554 0.047154564 -0.034283794
000090 2d 28 6c bd 06 9a fd 3c c1 21 c0 3d 49 23 91 bd
       -0.057655502 0.030957233 0.09381438 -0.07086808
0000a0 b3 9a cb 3d eb 22 f9 3c 3a fb 33 3d d4 f7 ed 3c
       0.09941616 0.030412158 0.04394076 0.029048838
0000b0 69 00 db bd 35 cd 35 bd 0c 90 dc 3d 5b 39 c0 3c
       -0.106934376 -0.044385154 0.10769662 0.02346485
0000c0 9a 86 89 bd 84 7d 92 bd 83 21 f9 3d d7 ad 3b bd
       -0.06715126 -0.071528465 0.12164595 -0.045820083
0000d0 7b 47 c6 3d d5 d6 d9 3c 5e e0 6b 3d 90 0c 9b bd
       0.096816026 0.026591698 0.05758702 -0.075707555
0000e0 6f 27 4f bd 96 fc d7 bd 93 9d 0f 3d 31 4f 64 bd
       -0.050574716 -0.10546224 0.035062384 -0.055739585
0000f0 05 eb ea 3c e7 bd 5e bd 04 5e d6 3d 5e 22 e1 bc
       0.02867652 -0.054380324 0.10467151 -0.027482208
000100 d3 3c 89 3d b0 07 97 3d c9 60 77 3d ab fb ab 3c
       0.067010544 0.07374513 0.060395036 0.020994028
000110 34 aa 94 3d 12 87 1d 39 89 43 9a 3d 1d 5f 44 bd
       0.07259026 0.00015023004 0.075324126 -0.04794227
000120 3d 50 9c 3d 37 44 a1 bd d6 5e b7 bc ce 5e 17 3d
       0.07632492 -0.07874339 -0.022384088 0.036955647
000130 71 fb d4 bc d5 2d e6 bc bc b4 21 bc 85 f8 c2 bc
       -0.025998803 -0.028098026 -0.009869751 -0.023800144
000140 77 79 d0 3d 64 e1 18 3d 63 0a cd 3d 18 8e 93 3d
       0.101794176 0.037324324 0.10011747 0.072048366
000150 02 69 2b bc 65 17 c0 bd 06 8d fb 3c 24 1b 96 bd
       -0.0104620475 -0.09379462 0.030706894 -0.073293954
000160 c9 19 43 3d 0f ef 63 3d 1d d6 68 3a 6c 12 d9 3c
       0.047632013 0.055647906 0.0008882003 0.026498042
000170 4f 17 5d bc ff 67 b7 3d f3 47 0e 3d 97 c9 80 bd
       -0.013494327 0.089553826 0.034736585 -0.0628845
000180 84 a3 a7 bd ae ef cd 3d ea f1 85 bd 3c 6a dc bc
       -0.08185485 0.10055481 -0.06540282 -0.026906125
000190 83 af fb bc f0 d5 93 bd ef c6 a8 3c 65 01 01 3b
       -0.030723339 -0.0721854 0.020602671 0.001968467
0001a0 6f 58 c6 bd 8d 78 79 3c 23 8c 94 bd 18 8a 9c bc
       -0.09684836 0.015226495 -0.072532915 -0.019108817
0001b0 09 68 62 bd 82 91 9a 3b 7f 6a 3b bd f6 4b c8 3d
       -0.055274997 0.004717053 -0.04575586 0.097801134
0001c0 0b b9 ab bd 38 eb 1a bd 49 4c 2f 3d ff fc db 3d
       -0.083849035 -0.03782198 0.04279736 0.107416146
0001d0 65 98 bd 3d f5 84 a1 bd ee 5c 26 bd 88 03 ca 3d
       0.092575826 -0.07886688 -0.04061597 0.09863955
0001e0 57 73 85 bd 74 60 ad bd a3 60 90 bd 20 c0 8b bd
       -0.0651614 -0.084656626 -0.07049682 -0.06823754
0001f0 e7 6e c2 3d 5b 10 35 3d e8 fe 9c 3d 2f 04 47 bd
       0.09493809 0.04420505 0.07665807 -0.048587974
000200 f1 69 76 3d d7 c3 ab bd 6a 3a fd 3c a9 33 c7 3d
       0.060159627 -0.08386963 0.030911643 0.0972665
000210 bb 6d d0 3d 70 4f d4 bd 36 14 d8 bd 4f 0d 7c bd
       0.101771794 -0.10366714 -0.1055073 -0.06153613
000220 b5 cf b5 3a ee 42 ad 3c bb 0d 7d 3c 18 38 c8 bd
       0.0013871106 0.021150079 0.015445168 -0.09776324
000230 83 64 7b bc 7b 15 ec 3c e6 42 89 bd e1 03 02 3d
       -0.015343788 0.028818836 -0.06702213 0.03174198
000240 80 19 37 bd 44 4a df 3d 1e 22 6f 3d 51 14 5e bc
       -0.044702053 0.10902837 0.058382146 -0.0135546485
000250 dc e0 6d 3d f2 3b d5 3d 84 94 57 bd ce 5e c1 bd
       0.05807577 0.10411824 -0.05263187 -0.09441911
000260 a2 d9 8d bd 4a 24 af bd fc c0 9d bd 38 54 2b bd
       -0.06926276 -0.085518435 -0.077028245 -0.041828364
000270 7b 1b 1b 3c c0 f8 11 3d 45 f9 6c 3b e4 93 0b bc
       0.009467001 0.035637617 0.0036159318 -0.008519147
000280 dc 96 96 bd 37 65 cf 3d d7 c6 9e bd 3c 3b 8c bd
       -0.07352993 0.10126727 -0.077527694 -0.068472356
000290 df cc 71 bd 35 78 41 3c 07 1f 78 bd b0 0f 3e 3d
       -0.05903327 0.011808445 -0.060576465 0.04640168
0002a0 b2 cd 87 bd 33 c6 39 bd 26 c6 94 3c 34 50 d6 3d
       -0.0663103 -0.045355033 0.01816089 0.10464516
0002b0 2d 05 6a bd 65 e7 85 3d 20 94 cf bd b3 f9 4a 3d
       -0.057133842 0.06538276 -0.101356745 0.049554538
0002c0 62 b7 d5 3c b5 ec a4 3d 04 47 56 bb 0e 93 9b 3d
       0.02608842 0.08052961 -0.0032696137 0.07596408
0002d0 d8 6a 08 bd cb e3 3a 3d a8 ae 2c bc 3f a5 83 3c
       -0.03330502 0.045627397 -0.010539688 0.016070006
0002e0 c6 a1 86 bd 96 33 f8 3d 8e e4 39 bd f0 ee da 3c
       -0.065738246 0.12119214 -0.045383982 0.026725262
0002f0 00 7d 6d bd 0d e7 b7 3d 6a 2e 94 3c 50 59 fa 3c
       -0.057980537 0.08979616 0.018088538 0.030560166
000300 b6 1a 12 3d 99 c3 a4 bd 0e 74 b0 bc 20 cf 80 3d
       0.035670005 -0.0804512 -0.021539714 0.06289506
000310 bc 8a a2 3d e2 ab d6 3c 7c a5 50 bd bf 4d e4 bc
       0.07936618 0.026205007 -0.05093907 -0.027869103
000320 d4 a8 72 3d 15 cd 90 bc 27 75 56 3c 73 2e 86 3d
       0.05924304 -0.017675916 0.013089455 0.06551828
000330 70 dd 8e bb c6 b8 08 ba fe b2 f5 bc 29 81 8b bd
       -0.0043598935 -0.00052155217 -0.029992577 -0.06811745
000340 96 8e ce 3d 0a e5 c5 3d 11 b2 e0 3c 45 7f aa bd
       0.1008579 0.09662826 0.027428659 -0.08325056
000350 59 9f c2 3d 21 04 bb bd 3c 0f 2f 3d 7c aa ac 3d
       0.095030494 -0.09131647 0.042739138 0.08430955
000360 eb 18 e5 bc 39 fc 34 bd 1c 2d 94 bd 35 05 ce 3c
       -0.027965983 -0.04418585 -0.072351664 0.025148967
000370 94 97 85 bc 23 7b 48 bd fc 1e 93 bd 87 9a 8a 3d
       -0.01630763 -0.048945557 -0.07183644 0.06767755
000380 48 10 79 3c 66 c9 bd 3c 4d 11 42 3d 09 14 a7 3d
       0.015201636 0.023167323 0.04737978 0.08158118
000390 55 e5 fe bc 27 5b 20 3d a2 16 cd bd 32 73 07 3d
       -0.031115213 0.03914943 -0.100140825 0.033068843
0003a0 7c 4f 2b bd 42 3e 1a 3c 14 72 42 3d 97 be 8e bd
       -0.04182385 0.0094142575 0.047472075 -0.06969946
0003b0 6b ee c5 3d 19 49 3a bd 0e 22 82 3d 01 a0 b7 3c
       0.09664615 -0.045479868 0.06354152 0.022415163
0003c0 f4 25 9e bd 3f c9 84 3d 94 79 cd 3d a9 2d 2b 3d
       -0.07722083 0.06483697 0.10032955 0.04179159
0003d0 9d ea 99 bd 7f b8 9e bd 07 89 d5 bd 8b d0 ea bc
       -0.07515452 -0.077500336 -0.104265265 -0.028663894
0003e0 9e 50 a2 3c 60 7d 86 3d 5e ee cf bd 2c 1f 0f bd
       0.019813832 0.06566882 -0.10152887 -0.034941837
0003f0 eb c8 23 3d 11 a6 d7 bc e4 9b 79 3d 0b c1 6f bd
       0.039986532 -0.026324304 0.060939685 -0.05853371

lstm.weight_hh_l0 f4 [512, 128]
000000 cd 4b 99 bd 53 f0 2c bc 3c 7b d0 3c b8 cb 33 bc
       -0.07485161 -0.010555345 0.025449388 -0.010973863
000010 99 f8 3e 3d 34 31 8a bd bd 97 60 bd 29 45 bd bc
       0.0466238 -0.06747666 -0.05483221 -0.023104267
000020 e7 96 1c bd 13 da 7e bd 23 5f 87 3d 01 62 ca 3d
       -0.03822985 -0.06221969 0.06609943 0.09881974
000030 bb b6 85 3c bf f5 a3 3a d9 14 b3 3d aa 42 ad 3d
       0.016322484 0.0012509151 0.08744211 0.08459981
000040 1e 87 94 bd 82 42 af 3c be 2e 20 3d 38 fb 59 3d
       -0.07252334 0.021394018 0.039107077 0.053218096
000050 dc ba 37 bd 35 d8 67 3a c6 42 cf 3c 1b 49 ca bc
       -0.044855937 0.0008844168 0.025300395 -0.024693063
000060 be ff c3 3d 6b cd bd 3d a1 f9 90 3d 35 cb d8 bc
       0.09570263 0.09267696 0.07078863 -0.026464084
000070 1d b2 2b 3d 7b 65 d0 bb c9 23 71 bd 27 23 aa bd
       0.04191791 -0.0063597537 -0.058872018 -0.08307486
000080 65 24 80 3c d1 72 84 3d 03 9b 7e 3c 4c 66 21 3b
       0.015642354 0.06467212 0.015539887 0.0024627624
000090 e9 d6 15 bd bc 4e 69 3d e1 e6 8d bd ca 07 cf 3d
       -0.036581907 0.056959853 -0.06928802 0.101089075
0000a0 3e f6 87 3d 32 92 1b 3d 95 d6 62 ba 65 9c 48 bd
       0.06638764 0.03798122 -0.0008653191 -0.048977274
0000b0 ed 14 34 bd 66 0e 7e bd fa ed a0 3d a0 5f 76 3d
       -0.04396527 -0.06202545 0.078578904 0.06014979
0000c0 89 41 60 3b 41 a7 f1 3c be fd 8b 3d df 5e f2 bc
       0.003421875 0.029498698 0.06835507 -0.029586254
0000d0 e5 75 bb 3b cc 91 95 bd 7d 49 24 3d 64 64 65 3d
       0.005720841 -0.07303199 0.040109146 0.056003943
0000e0 69 28 08 bd 8a f7 e8 3c 7a 7f 8c 3d a3 a9 92 3d
       -0.033241663 0.028438348 0.06860252 0.07161262
0000f0 91 b4 b8 3c 46 35 84 bd e0 34 4c 3a 8d 1f 26 3d
       0.022547038 -0.064554736 0.00077898614 0.040557433
000100 56 53 13 3d af 6c b3 3b bd bd cb bd c9 57 69 bd
       0.035968147 0.0054756026 -0.09948299 -0.056968484
000110 b3 f6 cb 3d cc 41 1d 3d 0c 1d 95 bc a5 c1 c7 bc
       0.099591635 0.038392827 -0.018202327 -0.02438433
000120 79 10 0e bc de df 13 bd 61 17 67 bd 7f 94 2d 3d
       -0.00867092 -0.03610217 -0.05641878 0.042377945
000130 22 de 3c bd 87 5c a3 bd e0 5a a8 bc f3 80 e8 3c
       -0.04611028 -0.079766326 -0.020551145 0.0283818
000140 64 3c 8e bd c7 1c 9e bd 97 bb 4a bd b8 cb 8f 3d
       -0.06945112 -0.077203326 -0.049495306 0.07021278
000150 c9 37 84 bd 41 84 8f 3d f2 84 a7 bd 4e 48 aa 3d
       -0.06455953 0.07007647 -0.08179654 0.08314572
000160 52 d3 15 3d 05 f9 b4 bd 73 cc 63 3b 32 84 9f 3d
       0.036578484 -0.08836559 0.0034759312 0.07788886
000170 39 73 5d 3c a3 d1 1e 3d e5 c1 b3 3d 6a 65 41 bd
       0.013516241 0.038774144 0.08777217 -0.047215857
000180 a4 08 97 bc 5b 54 24 bc 21 2f 3b bb 1d 3f a0 3d
       -0.018436737 -0.010029878 -0.0028562027 0.07824538
000190 9d aa b0 3d 06 52 ee bc b0 7b c7 3d 47 d8 07 3d
       0.08626292 -0.029091846 0.097403884 0.033165243
0001a0 aa 29 ab bd 6a 6f 3d bc ae 67 6c bd 66 1c 83 bd
       -0.08357556 -0.011562208 -0.057716064 -0.06401901
0001b0 ad 34 b9 3d 0d 3a b6 bd ba 29 19 bd 5e 86 94 3d
       0.0904325 -0.08897791 -0.03739331 0.07252191
0001c0 7c c2 25 3d a5 16 b5 3d 25 34 4e 3d 54 17 a6 bd
       0.040468678 0.0884221 0.050342698 -0.08109918
0001d0 ef e4 0d 3c 79 95 94 bd 8e 06 99 bd 1d 61 0e bd
       0.008660539 -0.07255072 -0.07471953 -0.034760583
0001e0 fd 88 6d 3d 55 d8 42 bd b7 e1 ae 3b d3 bf 95 bd
       0.05799197 -0.04756959 0.005336966 -0.07311978
0001f0 7f d3 9c bd 6f de 0d 3b f2 d7 99 bc a4 4d 93 3c
       -0.07657527 0.0021647473 -0.018779729 0.017981358
000200 56 dc 52 3d df 64 7e bd 57 e9 2a 3c 32 05 11 bd
       0.05147966 -0.062107917 0.010431609 -0.035405345
000210 d1 59 86 3d 81 5c 75 3d 3a dc 8d 3d 16 93 c5 bb
       0.065601 0.05990267 0.069267705 -0.006029497
000220 a5 40 0b 3d a5 2c 79 bd 42 74 8b 3b 99 40 4f 3b
       0.033997197 -0.060833592 0.0042558024 0.0031624197
000230 ca e1 09 3d 73 62 bf bc fa 45 c2 bd f2 b0 a9 3d
       0.033662595 -0.023362374 -0.09486003 0.08285703
000240 60 90 77 bd 02 9b 5c bd 80 4f ac bc 64 8f bc bd
       -0.06044042 -0.053858764 -0.021034002 -0.09207037
000250 a6 4e 7d 3d f9 0c c2 3d ff 53 ae bc ac 19 c5 3d
       0.061842583 0.094751306 -0.021280287 0.09624037
000260 c6 05 27 3c c2 9b c2 bc fa 72 62 bb a9 d0 bb 3d
       0.010194248 -0.023755912 -0.0034553395 0.09170658
000270 7c d4 3b 3a 77 4a 72 bb 5a 2f 53 3d 93 19 97 3d
       0.00071651465 -0.0036970654 0.05155883 0.07377925
000280 bf c6 64 bd 16 4c dd bc db 4b fe bc b7 75 bb 3d
       -0.0558536 -0.02701382 -0.03104203 0.09153312
000290 e1 0c 53 3d 82 a3 a3 3d fc 70 94 3d b8 4f ac 3d
       0.051525954 0.07990171 0.072481126 0.08413643
0002a0 03 e6 d5 3c 9b ad 95 bd 52 44 ab bd 81 45 dc 3c
       0.026110655 -0.07308503 -0.083626404 0.02688861
0002b0 5a 6f a3 bd c9 a8 b0 3d 00 68 a8 3d c2 16 68 3d
       -0.07980223 0.08625943 0.082229614 0.05666233
0002c0 aa 14 44 3c 43 89 c2 3c 4c 13 84 ba 9f 1f b0 3b
       0.011967817 0.023747092 -0.0010076552 0.0053748633
0002d0 76 7e 99 3d 60 04 7c bd f2 86 25 bd 9d 9e ad 3c
       0.07494824 -0.06152761 -0.040411897 0.021193797
0002e0 a8 00 2a 3d 84 c2 b0 3d ca c2 95 3d b3 c9 86 3c
       0.041504532 0.08630851 0.07312544 0.0164536
0002f0 a6 8d 41 3d 66 23 7f 3d eb 16 91 3d 3b 7d 2e bc
       0.047254227 0.062289618 0.070844494 -0.010649974
000300 16 83 21 bc 8d 08 5c bd f5 82 90 3d f7 2f 84 bb
       -0.0098579135 -0.053719092 0.07056228 -0.004034038
000310 65 d7 a0 3c 70 70 06 bd 64 3a 47 bd cc 8d a0 ba
       0.019633958 -0.032822073 -0.04863967 -0.001224929
000320 4c 69 0a bd bf 30 88 bd 94 cd 3b bd 60 45 1d 3d
       -0.033791825 -0.066499226 -0.04585035 0.03839624
000330 44 fb 42 bd ea 5f 41 3d c4 92 79 3d af cd 58 bd
       -0.047602907 0.04721061 0.060930982 -0.05293053
000340 b0 cf cd 3c af 39 db bc 19 a5 ac bd b6 5b c3 3d
       0.025123447 -0.026760904 -0.084299274 0.09538977
000350 82 29 4f bd dd fb 2e bd e3 1d 3a bd 6e d1 f2 3c
       -0.050576694 -0.042720664 -0.04543866 0.02964088
000360 5c a5 8e bd b9 41 ae bc 37 ae 49 3d 94 ea 65 3d
       -0.069651335 -0.021271573 0.04923841 0.056131914
000370 e4 5c a1 3c e7 0d 7d 3d 01 11 1c 3d fe b5 f0 bc
       0.019697614 0.061780836 0.038102154 -0.029383656
000380 1c 33 40 3d 59 a5 69 bd 6d 7f 61 3d 39 83 ba bc
       0.04692374 -0.057042453 0.055053163 -0.02276765
000390 77 d1 b9 3d 03 8d 4a bc de 10 85 3c a4 60 47 3d
       0.090731554 -0.012362721 0.016243394 0.048676148
0003a0 1f b3 b2 bd c7 a5 52 bd eb e0 7a bd ba ef c0 3d
       -0.08725571 -0.05142763 -0.061249655 0.09420724
0003b0 e5 45 b1 bd f7 56 fc 3c 0b 8f 68 3d 5a 83 db ba
       -0.086559094 0.030803187 0.05677704 -0.001674752
0003c0 1c 96 8d 3d bf fe 98 3d 32 99 e6 3c 2f 64 ab bd
       0.06913397 0.07470464 0.028149221 -0.08368718
0003d0 0f c3 b7 bd 70 d6 65 3c 2a 85 a9 3c 87 31 c6 3b
       -0.08972751 0.014028177 0.02069338 0.0060483846
0003e0 98 b1 26 3d 06 86 70 3d e7 8f a0 ba 77 e3 a7 3d
       0.04069671 0.058721565 -0.0012249917 0.08197682
0003f0 6e 49 16 bd ae bc df 3c fa c9 df 3c 5a 04 af bd
       -0.03669112 0.02731165 0.02731799 -0.08545752

lstm.bias_ih_l0 f4 [512]
000000 fd cb 98 3b 6e 58 74 39 b4 2f d3 3a d2 36 fb ba
       0.004662989 0.00023302596 0.0016112239 -0.0019166118
000010 bb bd 18 bb af b7 c3 3b 7c a2 2d 3c 73 5b 36 ba
       -0.0023306448 0.0059728245 0.010597821 -0.0006956376
000020 fd 48 ae 3a 08 90 c7 3a bc 27 97 3b be 9c e3 ba
       0.0013296899 0.001522542 0.004612891 -0.0017365438
000030 65 b1 bf 3b e5 a2 0b 3b b1 1c 73 3a dc 3f 4e 39
       0.0058500045 0.002130681 0.00092739897 0.0001966948
000040 94 46 13 b9 da 61 22 3a 05 83 4a 3b 38 c9 d3 3b
       -0.00014045305 0.00061943906 0.0030900848 0.006463196
000050 56 8f 3e ba 18 24 52 3c a7 41 0f bb cb cf 9e 3b
       -0.00072692835 0.012825988 -0.00218592 0.004846548
000060 f3 d8 c9 3a c6 a2 93 3a f9 38 08 ba 01 63 9e ba
       0.0015399739 0.001126372 -0.0005196478 -0.0012083949
000070 54 26 9b 3a c4 82 2e 3c 45 dd 18 3c f7 b3 97 3b
       0.0011836984 0.010651294 0.0093300985 0.004629608
000080 89 5e 03 3b 82 e1 7b 3b 68 ee b9 ba a0 ca ba 3b
       0.002004536 0.0038433974 -0.001418543 0.0057004243
000090 1e 96 77 3b bd 76 a6 3b e7 be 2f 3b 2a 66 cf 39
       0.0037778686 0.0050800727 0.0026816668 0.00039558235
0000a0 39 90 fe 3b 40 b4 cc 3b 48 1b df 3a c0 dc 83 3b
       0.0077686575 0.0062470734 0.001702168 0.004024118
0000b0 79 c8 91 3b 3f 65 b0 3a a8 22 8a 3b 60 79 43 3c
       0.004448947 0.0013457908 0.004215557 0.0119307935
0000c0 5d 02 1e 3b fd 5e 05 3b 5a d1 ae 3b 12 9d 5e b9
       0.0024110295 0.0020350807 0.0053350152 -0.00021230083
0000d0 72 a2 d0 3b 26 cd 63 3b 54 3c 42 3b aa e0 8d 3c
       0.0063670212 0.003475973 0.002963801 0.017319042
0000e0 b9 a3 07 3b 0e 47 1e 3b a5 43 61 3a e7 9b 07 3c
       0.0020696952 0.0024151239 0.00085931487 0.008276916
0000f0 46 b9 86 3b f3 d7 c5 3a c4 c1 8f 3b 51 a8 41 3b
       0.004111442 0.0015094265 0.0043871123 0.0029549787
000100 10 f2 6f 3b 90 9e 39 3b 1b a7 44 3c 80 18 46 3b
       0.0036612786 0.002832327 0.012002732 0.0030227005
000110 02 0d 88 3b f8 8c 45 bb 8c 48 59 3b e1 b5 ad 3b
       0.0041519413 -0.0030143838 0.0033154814 0.0053012227
000120 76 03 c1 3b 02 3e cf 3a 8a 76 e2 ba 0c 29 34 ba
       0.005890305 0.0015811326 -0.0017277759 -0.00068725715
000130 59 bf 8e 3b 57 74 e2 3a fa cd 90 3b c8 cb 07 3b
       0.0043563065 0.0017277104 0.0044190856 0.0020720828
000140 7c 81 61 3b ad b4 c2 ba 62 7d 54 3b 9d f1 05 ba
       0.0034409454 -0.0014854871 0.0032423367 -0.00051095505
000150 32 6f df b9 ed c5 29 3a 2c 59 cc 3b 04 fa 7c 3b
       -0.00042616721 0.00064763316 0.006236216 0.003860117
000160 21 da ca 3b 82 ef aa b7 ed d1 d9 3a ca 14 65 bb
       0.006190554 -2.0377109e-05 0.0016618349 -0.0034955018
000170 3c ed 8d 3b ee 0f 8c 3b c8 c3 e4 b9 e6 43 45 3b
       0.004331259 0.00427436 -0.00043633417 0.0030100285
000180 12 c6 8a 39 49 5f 05 3c 17 8c 04 3c d6 06 65 ba
       0.00026468985 0.0081403935 0.008090041 -0.00087366754
000190 f9 5f 65 3b 19 74 33 3b 70 b4 48 3b 83 34 31 3b
       0.003499983 0.0027382432 0.0030625127 0.0027039356
0001a0 0b d9 97 3a 4f 17 e4 3b e6 c9 be 3a 31 55 27 3b
       0.001158507 0.0069607864 0.001455602 0.0025532956
0001b0 fe 2d b1 ba 4c cc 1f 3c 2f ce 8b ba 25 b8 d9 3b
       -0.0013517735 0.009753298 -0.0010666306 0.006644266
0001c0 09 e9 a7 b9 18 35 aa 3b 6e 00 d1 3a 87 3d 1a 3b
       -0.00032026347 0.0051943175 0.0015945563 0.0023535208
0001d0 3d ac 1b ba e2 80 0f b6 11 ce ce 3b 9a bd 2f ba
       -0.0005938446 -2.138368e-06 0.006311186 -0.0006703973
0001e0 58 a2 91 ba 75 9a 87 3b ef 47 60 3b e1 13 20 3b
       -0.0011111004 0.0041382858 0.0034222563 0.0024425911
0001f0 c2 ed cf 39 6c 2c a6 ba 95 c9 45 3b dd db c3 ba
       0.0003965926 -0.0012678034 0.0030179967 -0.0014942844
000200 cd 05 80 3b a6 2c 08 3b bf 0d 2b 3a b6 f8 8e ba
       0.0039069415 0.0020778566 0.00065251807 -0.0010907862
000210 fb 58 e1 ba 98 60 ae 3b c5 76 2a 3c e8 37 d2 ba
       -0.0017192656 0.0053215735 0.010404293 -0.001603839
000220 cf 2c 44 3b 4d 2d 9b 3a ce 6d d2 3b 30 ac 96 b9
       0.0029933935 0.0011839062 0.006421781 -0.0002873852
000230 d3 92 f6 39 fd d9 1a 3b a2 c8 79 39 21 0e a4 b9
       0.0004703017 0.0023628466 0.00023821232 -0.00031291044
000240 6d f8 e5 b9 94 e5 29 39 d8 81 92 3a 04 50 e4 3b
       -0.00043863375 0.0001620262 0.0011177612 0.0069675464
000250 5d b2 ac 3a 11 2d 5c 3c 73 e5 bf 3a 90 7a 4c 3b
       0.0013175715 0.013438479 0.0014640525 0.0031200983
000260 9e 8e af 39 23 d3 1a 3a 25 e3 51 3a 42 d8 2e bb
       0.0003348486 0.00059060956 0.00080065645 -0.0026679193
000270 13 f0 b0 38 40 6f 0c 3c 1b b4 05 3c 2e d3 67 3b
       8.437051e-05 0.008571446 0.008160616 0.0035373676
000280 14 97 48 3b f7 27 94 3b 07 a7 4d b8 00 0b 9b 3b
       0.0030607628 0.0045213657 -4.9031365e-05 0.004731536
000290 e6 76 84 3b 87 50 3a 3b 82 f8 15 3b ef ec 60 ba
       0.004042494 0.0028429346 0.0022883718 -0.0008580228
0002a0 a0 05 e7 3b 69 b8 b2 3b ed 93 45 3b 01 c9 8b 3b
       0.007050231 0.0054541123 0.0030147985 0.004265905
0002b0 02 ed 95 3b 01 c7 70 ba 78 37 98 3b 89 4c 20 3c
       0.0045753727 -0.00091849273 0.0046452843 0.009783872
0002c0 b6 0f 1d 3b 1e d9 5a 3b 25 2e a9 3b 7a d1 c2 39
       0.0023965663 0.0033393572 0.0051629716 0.00037158636
0002d0 f9 d2 e6 3b a7 c6 03 3b 2d b9 8c 3a 7d 9f 99 3c
       0.007044193 0.002010742 0.0010736339 0.018752808
0002e0 d9 30 85 3b d3 74 f6 3a d2 42 88 3a 0e 73 01 3c
       0.004064661 0.0018803127 0.001039589 0.007900966
0002f0 c7 92 70 3b 24 21 9c 3a b2 3b 54 3b ee 28 47 ba
       0.003670858 0.0011911732 0.0032384214 -0.00075973466
000300 d4 81 1f 3b 5e f0 69 3b 48 63 33 3c 1a 03 dc 3a
       0.0024338858 0.0035696249 0.010948963 0.0016785592
000310 65 d7 80 3b 5b 19 a0 bb 8a 3f 39 3b 35 14 64 3b
       0.003931927 -0.004885835 0.0028266632 0.0034802083
000320 c8 7d a2 3b 86 f3 58 ba 9c fe b7 b9 c0 42 44 3a
       0.004958842 -0.0008276034 -0.0003509418 0.0007486753
000330 64 a0 94 3b 09 49 29 3b c8 0b be 3b f3 76 08 3a
       0.0045357216 0.0025830886 0.0057997443 0.0005205713
000340 88 c3 21 3b b5 31 3c ba 98 d9 4e 3b 03 40 26 3a
       0.0024683196 -0.0007179038 0.0031562801 0.0006341936
000350 a8 0f ac ba dc af 15 bb 9d a5 00 3c 04 e9 51 3b
       -0.0013127225 -0.0022840416 0.007851985 0.0032029757
000360 5a 5a fc 3a 4d 4b 5d 3a 54 5c 1b 3a 32 14 81 bb
       0.0019253001 0.00084417016 0.0005926539 -0.003939175
000370 29 6b 8e 3b 10 0f 8d 3b b2 70 af 3a 72 59 05 3b
       0.0043462706 0.004304774 0.0013385026 0.0020347503
000380 26 c2 1c ba 36 d2 16 3c 1f 3f cb 3b d7 33 b6 ba
       -0.0005979858 0.009205392 0.006202593 -0.0013900948
000390 32 40 73 3b 43 64 6f 3b 29 28 2c 3b 36 ec 03 3b
       0.003711712 0.0036528267 0.0026269055 0.0020129806
0003a0 2b 4a cb 39 00 78 e2 3b c7 7a 05 3b 8b 78 88 3a
       0.00038774437 0.006911278 0.002036737 0.0010411901
0003b0 ec 6f ab b9 ff fb 36 3c a2 15 1a bb 57 92 02 3c
       -0.0003269905 0.011168479 -0.002351143 0.00796946
0003c0 e0 5a 22 3b 1c f1 e1 3b b6 a5 57 3b cc 1a c2 3a
       0.0024773404 0.0068951976 0.0032905168 0.0014809011
0003d0 74 ab 0a bb 3f 7d 04 3a b6 4b b2 3b 59 fd de ba
       -0.0021159323 0.00050540635 0.0054411544 -0.0017012759
0003e0 78 2c c8 38 6a 42 5e 3b 24 6f 02 3b 9c 1e 8a 3b
       9.545026e-05 0.0033914098 0.001990267 0.0042150747
0003f0 dc 85 e8 38 f4 b4 1c bb e7 46 fd 3a 66 b6 27 bb
       0.00011087555 -0.0023911567 0.0019323499 -0.0025590896

lstm.bias_hh_l0 f4 [512]
000000 fd cb 98 3b 6e 58 74 39 b4 2f d3 3a d2 36 fb ba
       0.004662989 0.00023302596 0.0016112239 -0.0019166118
000010 bb bd 18 bb af b7 c3 3b 7c a2 2d 3c 73 5b 36 ba
       -0.0023306448 0.0059728245 0.010597821 -0.0006956376
000020 fd 48 ae 3a 08 90 c7 3a bc 27 97 3b be 9c e3 ba
       0.0013296899 0.001522542 0.004612891 -0.0017365438
000030 65 b1 bf 3b e5 a2 0b 3b b1 1c 73 3a dc 3f 4e 39
       0.0058500045 0.002130681 0.00092739897 0.0001966948
000040 94 46 13 b9 da 61 22 3a 05 83 4a 3b 38 c9 d3 3b
       -0.00014045305 0.00061943906 0.0030900848 0.006463196
000050 56 8f 3e ba 18 24 52 3c a7 41 0f bb cb cf 9e 3b
       -0.00072692835 0.012825988 -0.00218592 0.004846548
000060 f3 d8 c9 3a c6 a2 93 3a f9 38 08 ba 01 63 9e ba
       0.0015399739 0.001126372 -0.0005196478 -0.0012083949
000070 54 26 9b 3a c4 82 2e 3c 45 dd 18 3c f7 b3 97 3b
       0.0011836984 0.010651294 0.0093300985 0.004629608
000080 89 5e 03 3b 82 e1 7b 3b 68 ee b9 ba a0 ca ba 3b
       0.002004536 0.0038433974 -0.001418543 0.0057004243
000090 1e 96 77 3b bd 76 a6 3b e7 be 2f 3b 2a 66 cf 39
       0.0037778686 0.0050800727 0.0026816668 0.00039558235
0000a0 39 90 fe 3b 40 b4 cc 3b 48 1b df 3a c0 dc 83 3b
       0.0077686575 0.0062470734 0.001702168 0.004024118
0000b0 79 c8 91 3b 3f 65 b0 3a a8 22 8a 3b 60 79 43 3c
       0.004448947 0.0013457908 0.004215557 0.0119307935
0000c0 5d 02 1e 3b fd 5e 05 3b 5a d1 ae 3b 12 9d 5e b9
       0.0024110295 0.0020350807 0.0053350152 -0.00021230083
0000d0 72 a2 d0 3b 26 cd 63 3b 54 3c 42 3b aa e0 8d 3c
       0.0063670212 0.003475973 0.002963801 0.017319042
0000e0 b9 a3 07 3b 0e 47 1e 3b a5 43 61 3a e7 9b 07 3c
       0.0020696952 0.0024151239 0.00085931487 0.008276916
0000f0 46 b9 86 3b f3 d7 c5 3a c4 c1 8f 3b 51 a8 41 3b
       0.004111442 0.0015094265 0.0043871123 0.0029549787
000100 10 f2 6f 3b 90 9e 39 3b 1b a7 44 3c 80 18 46 3b
       0.0036612786 0.002832327 0.012002732 0.0030227005
000110 02 0d 88 3b f8 8c 45 bb 8c 48 59 3b e1 b5 ad 3b
       0.0041519413 -0.0030143838 0.0033154814 0.0053012227
000120 76 03 c1 3b 02 3e cf 3a 8a 76 e2 ba 0c 29 34 ba
       0.005890305 0.0015811326 -0.0017277759 -0.00068725715
000130 59 bf 8e 3b 57 74 e2 3a fa cd 90 3b c8 cb 07 3b
       0.0043563065 0.0017277104 0.0044190856 0.0020720828
000140 7c 81 61 3b ad b4 c2 ba 62 7d 54 3b 9d f1 05 ba
       0.0034409454 -0.0014854871 0.0032423367 -0.00051095505
000150 32 6f df b9 ed c5 29 3a 2c 59 cc 3b 04 fa 7c 3b
       -0.00042616721 0.00064763316 0.006236216 0.003860117
000160 21 da ca 3b 82 ef aa b7 ed d1 d9 3a ca 14 65 bb
       0.006190554 -2.0377109e-05 0.0016618349 -0.0034955018
000170 3c ed 8d 3b ee 0f 8c 3b c8 c3 e4 b9 e6 43 45 3b
       0.004331259 0.00427436 -0.00043633417 0.0030100285
000180 12 c6 8a 39 49 5f 05 3c 17 8c 04 3c d6 06 65 ba
       0.00026468985 0.0081403935 0.008090041 -0.00087366754
000190 f9 5f 65 3b 19 74 33 3b 70 b4 48 3b 83 34 31 3b
       0.003499983 0.0027382432 0.0030625127 0.0027039356
0001a0 0b d9 97 3a 4f 17 e4 3b e6 c9 be 3a 31 55 27 3b
       0.001158507 0.0069607864 0.001455602 0.0025532956
0001b0 fe 2d b1 ba 4c cc 1f 3c 2f ce 8b ba 25 b8 d9 3b
       -0.0013517735 0.009753298 -0.0010666306 0.006644266
0001c0 09 e9 a7 b9 18 35 aa 3b 6e 00 d1 3a 87 3d 1a 3b
       -0.00032026347 0.0051943175 0.0015945563 0.0023535208
0001d0 3d ac 1b ba e2 80 0f b6 11 ce ce 3b 9a bd 2f ba
       -0.0005938446 -2.138368e-06 0.006311186 -0.0006703973
0001e0 58 a2 91 ba 75 9a 87 3b ef 47 60 3b e1 13 20 3b
       -0.0011111004 0.0041382858 0.0034222563 0.0024425911
0001f0 c2 ed cf 39 6c 2c a6 ba 95 c9 45 3b dd db c3 ba
       0.0003965926 -0.0012678034 0.0030179967 -0.0014942844
000200 cd 05 80 3b a6 2c 08 3b bf 0d 2b 3a b6 f8 8e ba
       0.0039069415 0.0020778566 0.00065251807 -0.0010907862
000210 fb 58 e1 ba 98 60 ae 3b c5 76 2a 3c e8 37 d2 ba
       -0.0017192656 0.0053215735 0.010404293 -0.001603839
000220 cf 2c 44 3b 4d 2d 9b 3a ce 6d d2 3b 30 ac 96 b9
       0.0029933935 0.0011839062 0.006421781 -0.0002873852
000230 d3 92 f6 39 fd d9 1a 3b a2 c8 79 39 21 0e a4 b9
       0.0004703017 0.0023628466 0.00023821232 -0.00031291044
000240 6d f8 e5 b9 94 e5 29 39 d8 81 92 3a 04 50 e4 3b
       -0.00043863375 0.0001620262 0.0011177612 0.0069675464
000250 5d b2 ac 3a 11 2d 5c 3c 73 e5 bf 3a 90 7a 4c 3b
       0.0013175715 0.013438479 0.0014640525 0.0031200983
000260 9e 8e af 39 23 d3 1a 3a 25 e3 51 3a 42 d8 2e bb
       0.0003348486 0.00059060956 0.00080065645 -0.0026679193
000270 13 f0 b0 38 40 6f 0c 3c 1b b4 05 3c 2e d3 67 3b
       8.437051e-05 0.008571446 0.008160616 0.0035373676
000280 14 97 48 3b f7 27 94 3b 07 a7 4d b8 00 0b 9b 3b
       0.0030607628 0.0045213657 -4.9031365e-05 0.004731536
000290 e6 76 84 3b 87 50 3a 3b 82 f8 15 3b ef ec 60 ba
       0.004042494 0.0028429346 0.0022883718 -0.0008580228
0002a0 a0 05 e7 3b 69 b8 b2 3b ed 93 45 3b 01 c9 8b 3b
       0.007050231 0.0054541123 0.0030147985 0.004265905
0002b0 02 ed 95 3b 01 c7 70 ba 78 37 98 3b 89 4c 20 3c
       0.0045753727 -0.00091849273 0.0046452843 0.009783872
0002c0 b6 0f 1d 3b 1e d9 5a 3b 25 2e a9 3b 7a d1 c2 39
       0.0023965663 0.0033393572 0.0051629716 0.00037158636
0002d0 f9 d2 e6 3b a7 c6 03 3b 2d b9 8c 3a 7d 9f 99 3c
       0.007044193 0.002010742 0.0010736339 0.018752808
0002e0 d9 30 85 3b d3 74 f6 3a d2 42 88 3a 0e 73 01 3c
       0.004064661 0.0018803127 0.001039589 0.007900966
0002f0 c7 92 70 3b 24 21 9c 3a b2 3b 54 3b ee 28 47 ba
       0.003670858 0.0011911732 0.0032384214 -0.00075973466
000300 d4 81 1f 3b 5e f0 69 3b 48 63 33 3c 1a 03 dc 3a
       0.0024338858 0.0035696249 0.010948963 0.0016785592
000310 65 d7 80 3b 5b 19 a0 bb 8a 3f 39 3b 35 14 64 3b
       0.003931927 -0.004885835 0.0028266632 0.0034802083
000320 c8 7d a2 3b 86 f3 58 ba 9c fe b7 b9 c0 42 44 3a
       0.004958842 -0.0008276034 -0.0003509418 0.0007486753
000330 64 a0 94 3b 09 49 29 3b c8 0b be 3b f3 76 08 3a
       0.0045357216 0.0025830886 0.0057997443 0.0005205713
000340 88 c3 21 3b b5 31 3c ba 98 d9 4e 3b 03 40 26 3a
       0.0024683196 -0.0007179038 0.0031562801 0.0006341936
000350 a8 0f ac ba dc af 15 bb 9d a5 00 3c 04 e9 51 3b
       -0.0013127225 -0.0022840416 0.007851985 0.0032029757
000360 5a 5a fc 3a 4d 4b 5d 3a 54 5c 1b 3a 32 14 81 bb
       0.0019253001 0.00084417016 0.0005926539 -0.003939175
000370 29 6b 8e 3b 10 0f 8d 3b b2 70 af 3a 72 59 05 3b
       0.0043462706 0.004304774 0.0013385026 0.0020347503
000380 26 c2 1c ba 36 d2 16 3c 1f 3f cb 3b d7 33 b6 ba
       -0.0005979858 0.009205392 0.006202593 -0.0013900948
000390 32 40 73 3b 43 64 6f 3b 29 28 2c 3b 36 ec 03 3b
       0.003711712 0.0036528267 0.0026269055 0.0020129806
0003a0 2b 4a cb 39 00 78 e2 3b c7 7a 05 3b 8b 78 88 3a
       0.00038774437 0.006911278 0.002036737 0.0010411901
0003b0 ec 6f ab b9 ff fb 36 3c a2 15 1a bb 57 92 02 3c
       -0.0003269905 0.011168479 -0.002351143 0.00796946
0003c0 e0 5a 22 3b 1c f1 e1 3b b6 a5 57 3b cc 1a c2 3a
       0.0024773404 0.0068951976 0.0032905168 0.0014809011
0003d0 74 ab 0a bb 3f 7d 04 3a b6 4b b2 3b 59 fd de ba
       -0.0021159323 0.00050540635 0.0054411544 -0.0017012759
0003e0 78 2c c8 38 6a 42 5e 3b 24 6f 02 3b 9c 1e 8a 3b
       9.545026e-05 0.0033914098 0.001990267 0.0042150747
0003f0 dc 85 e8 38 f4 b4 1c bb e7 46 fd 3a 66 b6 27 bb
       0.00011087555 -0.0023911567 0.0019323499 -0.0025590896

lstm.weight_ih_l1 f4 [512, 128]
000000 b1 c1 8f bd 06 29 87 bc f1 95 3d 3d fd 4b 63 bd
       -0.070193656 -0.016499054 0.046285573 -0.05549239
000010 13 c1 df 3c 87 6d ba 3d 1e 71 8b bd 62 9a e3 3c
       0.027313745 0.09102922 -0.06808685 0.027783576
000020 8a 14 a6 3b 00 33 69 3d cf 79 d1 bd 16 03 61 3b
       0.0050683664 0.056933403 -0.10228311 0.0034334115
000030 1a 5b 77 3d 6a b6 3f 3d 0b b1 86 bb b9 55 06 bc
       0.060389616 0.046804823 -0.0041104606 -0.008199149
000040 67 a2 5e 3c ce e7 21 3d bb c5 34 3d 6d 5f 5a 3c
       0.013588524 0.039527707 0.044133883 0.013328415
000050 ac ce 69 3c 6c 92 12 bd 9f 90 fb 3c 62 97 ee 3c
       0.014270466 -0.03578417 0.03070861 0.02912492
000060 cf 3f 8c 3d 45 22 9c 3b c0 62 a3 bd ba a4 93 3c
       0.06848108 0.0047648274 -0.079778194 0.018022884
000070 fe 07 16 3d 29 e2 b1 3d 4f e9 91 bd b8 57 83 3d
       0.036628716 0.08685715 -0.07124578 0.064132154
000080 36 85 a4 bc 24 29 94 bd 7a 17 b9 3c 4a 0e ac 3d
       -0.020083051 -0.072344095 0.022594202 0.08401163
000090 05 ed c2 bd 6a 84 94 bd 3d b3 a1 3d f6 49 9e bd
       -0.09517864 -0.072518185 0.07895515 -0.07728951
0000a0 8b cd 5c bd eb e2 d6 bc 65 90 17 3d ca 79 5d bd
       -0.05390696 -0.02623125 0.03700294 -0.054071225
0000b0 d7 03 a3 3c 4d ae a4 bd 3d c5 6f bb c4 c8 79 3c
       0.019899292 -0.08041058 -0.003658607 0.01524562
0000c0 f5 da 09 bd 1d 02 4a bd 15 85 c6 3c 2b 12 c9 3d
       -0.03365608 -0.04931842 0.02423338 0.098179184
0000d0 89 9a 9d bc cf ba 5f 3d 49 02 84 bc 47 8e 11 bd
       -0.019238727 0.054621514 -0.01611437 -0.035536077
0000e0 65 c7 ee bc ea 43 86 3b f3 31 86 bd 41 68 13 bc
       -0.029147813 0.0040974515 -0.06552496 -0.008997024
0000f0 20 51 2c bd bd a3 c7 3c 85 2e 67 bd 9b 4c c1 3d
       -0.042069554 0.024370069 -0.05644085 0.094384395
000100 4e 6e 46 3d 58 a3 42 bd 3f e6 9a 3d d9 3e 61 bc
       0.04844504 -0.047519058 0.07563447 -0.013747894
000110 33 b0 9f bd 7a 1a 8f bc 1c e9 99 3d 89 67 c2 3d
       -0.07797279 -0.01746868 0.07515165 0.09492404
000120 28 6b 62 bd cd e6 b2 bc e4 d7 b5 bc c6 e7 9c 3d
       -0.055277973 -0.02183857 -0.022197671 0.07661395
000130 7d f8 6c 3d 81 5c 89 bd 56 2a 6c 3d ab 9b a4 3d
       0.057854164 -0.06707097 0.057657562 0.08037504
000140 a0 d6 b7 3c 28 0d 9a bd 5b 41 68 bd 90 37 3b 3c
       0.022441208 -0.075220406 -0.056702953 0.011426821
000150 46 6e 45 3c db ca b7 3d cf 50 e6 bc fc 1e 6a 3d
       0.012050217 0.089742385 -0.028114704 0.057158455
000160 25 f0 59 3d 9e b2 08 3d c3 58 01 3d f1 d0 71 bc
       0.053207535 0.033373468 0.03157879 -0.014759288
000170 0d 38 fa 3b ef b7 3d 3d d8 ff 00 bc bf 8f d2 3c
       0.0076360763 0.04631799 -0.007873498 0.02570331
000180 dd 62 e6 3c b0 92 b3 3d 86 9c ce 3c 7f 43 7c 3d
       0.028123314 0.08768213 0.02522112 0.061587807
000190 20 50 25 3c d9 14 8b bd 93 ed 8f 3d 5c cd b7 39
       0.010089904 -0.06791086 0.070277356 0.00035057485
0001a0 a6 b1 d4 3c 92 c4 d5 3c a5 36 ca bc bd c7 87 bd
       0.025963616 0.026094709 -0.02468426 -0.06629894
0001b0 37 04 34 3d 7e 5e be bc b0 55 7d 3c f5 18 86 3c
       0.043949332 -0.023238417 0.015462324 0.016369322
0001c0 1f ea 5d bc 99 80 25 3c d5 11 b4 bc 3e 9d 8a 3d
       -0.013544588 0.010101461 -0.02198116 0.06768273
0001d0 02 4d a1 bd 45 24 50 3d e8 5d f0 3b 98 5c 42 bd
       -0.07876016 0.05081584 0.0073354132 -0.047451586
0001e0 d4 8b 85 3d 81 ef 99 bc 45 a6 81 3d be 37 8f bd
       0.06520811 -0.018790962 0.063305415 -0.06993054
0001f0 86 19 76 3c 0b 04 b1 3c 4d 07 1e 3d 77 39 af 3d
       0.015020734 0.021608373 0.03858118 0.085558824
000200 2f 22 50 3c e2 1f b3 bd 9e ca bb 3d e6 6f 58 3c
       0.0127034625 -0.087463155 0.091695055 0.013210272
000210 a8 75 1f bd 35 4f 2c bd af 29 93 bb 10 40 26 3d
       -0.038930565 -0.042067725 -0.004491053 0.04058844
000220 c9 b4 9e 39 92 be 96 3d 8e 39 a0 3d 95 d6 6f bd
       0.00030270804 0.07360567 0.07823478 -0.05855425
000230 10 ce b6 bd 81 32 85 3d 13 d8 1c bd 24 c6 3d bd
       -0.08926022 0.065037735 -0.038292002 -0.04633154
000240 af c3 67 ba 28 ba 9e 3d 80 84 80 bd 79 67 85 3d
       -0.000884111 0.0775035 -0.06275272 0.065138765
000250 39 64 88 3d 55 88 a7 3d d5 2f 91 3d b1 b4 b0 bd
       0.06659741 0.081803 0.07089201 -0.08628214
000260 78 38 c6 bd 3c 4f 42 3d 11 e8 f5 3c a5 28 79 bc
       -0.09678739 0.047438845 0.030017884 -0.015207444
000270 52 18 35 bd 30 a4 e6 3b 2c 0f 05 bd d1 2d a3 bc
       -0.044212647 0.0070386156 -0.032485172 -0.019919308
000280 b7 c3 0a bd 8f bb 4d 3d 7c 63 81 3d 39 0f a9 3d
       -0.033878054 0.050227698 0.06317803 0.082548566
000290 44 55 68 bd 81 7a 0e bd dc bd 59 bd ff ea ad bd
       -0.05672194 -0.034784798 -0.05315958 -0.084920876
0002a0 7f db 9d 3d eb 73 6f bd 92 ba 4e bc a7 dc 36 3d
       0.07707881 -0.058460157 -0.012617724 0.044644024
0002b0 3f 03 a9 bd 49 16 bf bd b2 2a 67 bd 01 98 88 bc
       -0.08252572 -0.093304224 -0.0564372 -0.016674044
0002c0 9f 74 39 3c b3 c3 a2 bc ac ce 9a bc 4a c7 6e bc
       0.011319309 -0.019868707 -0.018897377 -0.014573881
0002d0 62 ef 70 3d 30 35 9e bd 31 f9 77 3c ee 86 6f bc
       0.058822043 -0.077249885 0.015135095 -0.014619572
0002e0 1d 9c 99 bd 1d 7b 97 bd ab 63 e1 3c 13 0f b8 bd
       -0.07500479 -0.07396529 0.027513346 -0.0898725
0002f0 27 06 48 bc b3 9c 27 bc 64 d7 ab 3d ed 51 aa 3d
       -0.012208498 -0.010230231 0.08390692 0.08316407
000300 de a4 40 bd 72 e7 82 3d c0 4d ae 3d 0d 40 c9 3c
       -0.04703223 0.06391801 0.085109234 0.024566675
000310 fe be 31 3c 66 07 42 bd 7b 04 bf 3c 00 f5 72 bd
       0.010848759 -0.047370337 0.023317566 -0.05931568
000320 d1 17 8d 3d db 71 a9 3d 71 50 dd bc 8a c5 8b 3d
       0.06889308 0.08273669 -0.027015897 0.06824787
000330 84 6b 89 bc 8a 66 ae 3d de e7 20 3d d6 dd a4 3d
       -0.0167749 0.085156515 0.039283626 0.08050124
000340 71 4a bd bd 5c 7d c6 bd d8 62 a0 3d aa 83 91 bd
       -0.09242714 -0.09691879 0.07831353 -0.07105191
000350 62 1c ae 3d 52 51 4b bd ca 37 e0 3c d8 60 ff bc
       0.08501507 -0.0496381 0.027370352 -0.031174108
000360 86 12 a1 bc 18 34 1d bd 46 34 8b bd b1 98 c7 3c
       -0.019662153 -0.03837976 -0.0679708 0.024364801
000370 46 af 07 3d 22 20 b1 3d a8 30 3b bd 49 6c 4a bd
       0.03312614 0.08648707 -0.0457007 -0.049419675
000380 12 a9 b7 bd 70 92 8e bd 76 b4 9a bd 99 60 80 3d
       -0.089677945 -0.069615245 -0.075539514 0.062684245
000390 d0 36 30 3d 76 36 40 3d df 53 3f bd 58 44 80 3d
       0.043021023 0.046926938 -0.046710845 0.062630355
0003a0 7c 03 a1 3d c9 bc 06 bd a6 e6 29 3c 78 03 73 3d
       0.07861993 -0.032894883 0.010369932 0.05932948
0003b0 a7 82 25 bd 12 c9 b9 3a 2c e6 8b 3d 4a 69 8a bd
       -0.040407803 0.0014174304 0.06831011 -0.067583635
0003c0 da 67 18 bd 64 18 cc 3d 06 d8 05 bd d0 17 52 bd
       -0.037208416 0.0996559 -0.03267672 -0.05129224
0003d0 ff ff 27 bd 91 23 65 bc 20 57 87 3d 52 70 9d bc
       -0.04101562 -0.0139855305 0.06608415 -0.019218598
0003e0 53 eb db 3c 4f 7c 8b bd 83 e5 19 3d bc a4 df bc
       0.02684561 -0.06810819 0.037572395 -0.027300231
0003f0 87 8f 38 bd b0 f5 bd 3d ab c3 b0 3d 93 28 01 3d
       -0.045058753 0.09275377 0.08631071 0.031532835

lstm.weight_hh_l1 f4 [512, 128]
000000 ef cb 31 bc fc 93 95 bc 90 b7 5d bc fd f3 93 bc
       -0.010851844 -0.018259041 -0.013532534 -0.018060679
000010 5f 6b 95 bd c3 7d 03 bd 8a 0d a8 3c a5 53 5b 3d
       -0.0729587 -0.032102358 0.020514268 0.053546567
000020 35 20 ac 3d 4b dc b7 3d a4 44 10 bd 16 c4 48 3d
       0.084045805 0.089775644 -0.03522171 0.049015127
000030 ec b3 d0 bc a2 5d 3e 3c 98 40 ac 3d f5 f3 2b 3d
       -0.025476418 0.0116190035 0.08410758 0.041980702
000040 9f e4 9a 3d 78 84 37 3d 39 6a ac bc 9b 97 9a 3d
       0.07563137 0.044804066 -0.021046745 0.07548448
000050 79 5f 5d bb c1 54 59 3d 13 6e 78 bd 28 ee ad 3b
       -0.003377883 0.053059343 -0.06065185 0.0053079315
000060 42 d7 89 bd a3 78 33 bc f2 10 9c 3d 6d 5f 73 3d
       -0.0673051 -0.010954055 0.076204196 0.059417177
000070 3b 2c 24 3d aa 7a bf bd 0b bb ab bd 32 84 af bd
       0.040081244 -0.09349568 -0.08385285 -0.08570136
000080 e1 bb 8f bd 30 97 c7 3c fe cd b2 3c 80 28 b3 3d
       -0.07018257 0.024364084 0.02182674 0.08747959
000090 11 05 2f 3d 65 80 a8 bd 27 0c 84 bd 39 9c 96 3d
       0.04272944 -0.08227614 -0.064476304 0.07354016
0000a0 64 9c 4e bd 43 0c 19 bd df b4 02 bd e4 a1 8c 3d
       -0.050442114 -0.03736521 -0.031910773 0.06866816
0000b0 a2 84 8b 3d 06 a2 49 bd 72 30 89 bc 37 fb c5 3c
       0.06812407 -0.049226783 -0.016746733 0.02416764
0000c0 65 37 65 3b 43 35 7e 3d 16 cf 4a 3d 26 c7 25 ba
       0.0034975645 0.062062513 0.0495139 -0.0006323926
0000d0 a9 c9 c2 bc 03 2c 6d bc cb 42 87 bd 33 37 e7 3b
       -0.0237778 -0.014475825 -0.066045366 0.007056141
0000e0 ce 8c 17 3d a7 f2 3b 3d 8f da 9d 3d 2e bf a0 3d
       0.036999516 0.04588571 0.07707702 0.07848965
0000f0 83 5c 3c 3d 79 ac b8 3d c3 5a f7 bc 63 6b 1e bc
       0.045986664 0.090172715 -0.030194646 -0.009669158
000100 80 c8 0b 3d 6b a9 b9 3d 7d 30 13 bd 08 21 9d 3d
       0.03412676 0.09065517 -0.035934914 0.07672316
000110 41 4b 60 3d 15 00 0e 3d 2a 68 6a bd ec fe c8 3d
       0.054759268 0.034668047 -0.057228245 0.098142475
000120 73 ea ef bc 13 54 12 bd 8f bb 9b bd f9 09 ae bd
       -0.029286599 -0.03572471 -0.07604133 -0.08497996
000130 f8 d6 9e bc 33 33 02 3c 03 75 c5 3d 87 97 9f bd
       -0.019389614 0.007946777 0.09641459 -0.077925734
000140 6c 27 f0 bc 81 d2 46 3d f6 5d be bd e9 6e 57 3d
       -0.029315673 0.048540596 -0.092952654 0.052596007
000150 05 99 bf 3c 38 d0 38 3d df 78 61 3d e9 b6 38 bc
       0.023388395 0.045120448 0.055046912 -0.011274078
000160 bb 8c 0e 3b 66 d0 52 ba 6b 43 65 bc 19 ec 1a 3d
       0.0021751362 -0.0008041918 -0.0139931245 0.037822817
000170 9b 1c 56 3d 57 2c ae 3b 84 05 51 bd bf 49 c6 3d
       0.052273374 0.0053153443 -0.05103065 0.09682035
000180 5b 51 24 3d f7 3f 5c bd 9c 42 f9 3c 2c 78 a5 3d
       0.04011665 -0.05377194 0.03042727 0.080795616
000190 48 b3 62 3d a1 96 c3 3a 37 23 08 3d 4a 12 f6 3c
       0.055346757 0.001492221 0.03323671 0.030038018
0001a0 c5 07 6d bc c2 e1 db 3c dd 10 2e 3b 6c f2 c3 bd
       -0.014467184 0.026841048 0.0026560344 -0.09567723
0001b0 a2 54 8a bd 96 a9 75 bd a9 13 64 3d 7c 4f bd 3d
       -0.06754424 -0.059976183 0.055682812 0.09243676
0001c0 9c 4c 31 bd fd 85 9a bd eb 52 ae bd 8e d9 e9 bc
       -0.04328595 -0.075450875 -0.08511909 -0.028546121
0001d0 0e 32 59 3d c9 27 8a bd 75 8b 18 3d a4 06 e5 3c
       0.05302625 -0.0674587 0.03724237 0.027957268
0001e0 b3 79 b7 3c f5 33 da bc 62 cc 9e bd d6 ae 8e 3d
       0.022396898 -0.026636103 -0.07753827 0.06966941
0001f0 1a 6e 15 3d a0 98 a9 bd 41 e7 d7 bc 56 29 a4 bd
       0.036481954 -0.08281064 -0.026355388 -0.08015697
000200 53 79 08 3d cc fc d1 3c a5 55 5d 3d b6 ec 50 bd
       0.03331883 0.025633238 0.054036755 -0.051006995
000210 ca dd 87 3d b4 9e d7 3c 14 8e f3 3b cf 45 a8 3d
       0.066341 0.026320793 0.0074327085 0.0821644
000220 c7 51 f3 bc 41 37 d6 bc f3 77 40 3b bd 84 ad 3d
       -0.02970208 -0.026149394 0.002936837 0.084725834
000230 11 7c 41 3d 6e 70 9e 3d df 12 aa bb 72 28 a0 bd
       0.04723746 0.07736288 -0.005190238 -0.07820214
000240 18 65 a8 3d b4 44 3f bd 33 9c fe bb 62 21 6b 3d
       0.08222407 -0.04669638 -0.0077700852 0.057404883
000250 a9 71 59 bd b1 40 7c 3d 51 18 b0 3c 1b e8 67 3d
       -0.05308691 0.061585132 0.02149597 0.056617837
000260 1b 88 c8 3d 39 49 84 bc ef 36 32 3c a2 3c b9 3d
       0.09791585 -0.016148197 0.010877355 0.09044768
000270 05 ec be bd 42 53 95 bd 49 02 8e bc 43 47 0d 3d
       -0.09322361 -0.07291271 -0.017335074 0.03449179
000280 14 f4 2d 3d e2 ee 24 bd e2 89 af 3d f8 5d 51 3d
       0.0424691 -0.04026688 0.08571221 0.051115006
000290 8f bb 8c 3c a2 f0 2c 3c 58 8e 2e bc 71 af 78 bd
       0.017179279 0.010555418 -0.010654055 -0.06071419
0002a0 6f d2 be 3d 09 24 9c 3d 2a cd f1 bc 81 66 05 3d
       0.09317481 0.07624061 -0.029516775 0.03256846
0002b0 4f 88 a2 3d 21 a6 70 3d c1 fa a0 bc 8f 05 8f bd
       0.07936155 0.058752183 -0.019650819 -0.06983482
0002c0 df d7 8e 3b ba c2 37 3d 26 34 ea bc 34 3a 9e bd
       0.00435923 0.04486344 -0.02858932 -0.07725945
0002d0 2a f9 72 3d b2 60 bc 3d ea c3 c1 ba b1 d5 88 bd
       0.059319653 0.09198131 -0.0014783118 -0.066813834
0002e0 77 f0 b1 3d c0 ed c5 3d 51 de a1 3d 47 2f f6 3b
       0.08688443 0.09664488 0.079037316 0.00751296
0002f0 99 b5 94 bd f2 65 13 3a 58 e6 b4 3d 18 9d d1 bb
       -0.072611995 0.0005622796 0.08832997 -0.006396901
000300 dd a1 78 bd 8d f6 5b 3d 8b 1a ab bd e8 1d 9b 3d
       -0.06070124 0.053701926 -0.08354672 0.075740635
000310 94 79 a5 3d 96 d8 1a 3d 94 05 76 3d a3 20 42 bc
       0.0807983 0.03780421 0.060063913 -0.0118486015
000320 df e5 a1 bd 03 ce ba 3c 7a e8 c7 3c 36 e5 96 3d
       -0.079051726 0.022803312 0.024402846 0.07367937
000330 20 bc bb bd 97 18 96 bc ec e0 bf 3c d0 b1 88 3d
       -0.09166741 -0.018322272 0.02342268 0.0667454
000340 b9 13 95 bd 5b df 3b 3d 32 1b 2d 3d f6 40 68 3d
       -0.072791524 0.045867305 0.042262264 0.056702577
000350 dc 28 18 3b cd 4c a9 3a 33 0a 15 3c 16 a8 98 bd
       0.0023217713 0.0012916565 0.00909667 -0.07453935
000360 fe cb 92 3a e5 e8 9c bc de 65 dc 3c 75 36 06 3d
       0.001119971 -0.019154022 0.026904043 0.032766778
000370 c0 6d 19 3c 56 d1 b7 bc 45 01 85 3d a7 17 96 3d
       0.009364545 -0.022438686 0.06494383 0.0732873
000380 c5 2e 93 3d a6 91 ab 3d 91 e6 bc bd 5f 68 67 3d
       0.07186655 0.083773896 -0.092236646 0.05649602
000390 f8 f1 8f 3d 7e 5a 47 bd 4b 23 82 bd 88 b1 9b 3d
       0.07028574 -0.048670284 -0.06354388 0.07602221
0003a0 9f 72 49 bd 8f 98 1f bd 72 cf 1e 3d c9 cc 2b bd
       -0.049181577 -0.03896385 0.038772054 -0.041943345
0003b0 f9 31 88 3d db e2 29 bd 51 2e 50 3d 2d e6 8f 3d
       0.066501565 -0.04147611 0.05082542 0.070263244
0003c0 78 77 c5 3d e2 26 55 3c 78 6c ac 3d 4d a9 6e 3d
       0.096419275 0.013009759 0.08419126 0.058266927
0003d0 d0 87 eb 3b f4 73 59 3d de 97 f6 3a 16 f8 14 bd
       0.007187821 0.053089097 0.001881357 -0.036369406
0003e0 48 78 83 3d 9f 1e ac 3c 4f 94 34 bd 5b 87 b6 3c
       0.06419426 0.021010695 -0.04408675 0.02228134
0003f0 a3 c2 b5 3d 28 73 0d bd 2b 75 08 bb 43 e2 85 bd
       0.08875015 -0.03453365 -0.002082179 -0.065372966
