models/policy_net_barrier_2inst (4).pth (torch, 877214 bytes, 12 tensors)

lstm.weight_ih_l0 f4 [512, 5]
0	0xbc82263d	-0.015887374
1	0x3dc03515	0.093851246
2	0xbd65337f	-0.055957314
3	0x3cf0b8e6	0.029385041
4	0xbd857ac3	-0.065175556
5	0x3d2b9a70	0.04189533
6	0xbd6ad511	-0.057332102
7	0x3d2da0a6	0.042389534
8	0xbd427d70	-0.047482908
9	0xbd9d33d0	-0.07675898
10	0xbda2cfe0	-0.07949805
11	0x3b3b0501	0.0028536918
12	0xb98d1c68	-0.0002691478
13	0xbda6226e	-0.08112036
14	0x3ca20b20	0.019780695
15	0x3da15158	0.07876843
16	0xbd94d2ac	-0.07266745
17	0xbc1b58bb	-0.009481604
18	0xbdcd9a6a	-0.10039218
19	0x3cd4bc3a	0.02596866
20	0x3cfd13e0	0.030893266
21	0x3cd659aa	0.026165802
22	0x3bc6b046	0.006063494
23	0x3cc8466c	0.024447642
24	0x3d387207	0.04503062
25	0x3dbdcfcd	0.092681505
26	0x3dc22137	0.094789915
27	0xbdcb0b27	-0.099142365
28	0xbd9aa97c	-0.07551858
29	0x3da8ba1b	0.08238622
30	0x3d81245c	0.06305763
31	0x3d84a3a2	0.06476523
32	0x3d946408	0.07245642
33	0xbc988892	-0.01861981
34	0xbd8e92dc	-0.06961605
35	0xbd2a2515	-0.04153927
36	0xba61a7db	-0.0008608081
37	0xbcae116d	-0.021248544
38	0xbc1cea81	-0.009577394
39	0x3c719d8d	0.014747036
40	0xbdbd5d28	-0.09246284
41	0x3c70839d	0.014679817
42	0xbc3db902	-0.011579754
43	0xbc733076	-0.014843097
44	0x3d062b11	0.032755915
45	0x3dca31ef	0.09872805
46	0xbdbe53ee	-0.09293352
47	0xbd942f88	-0.07235628
48	0x3c2696ae	0.010167761
49	0xbc12ab58	-0.008951984
50	0x3dc96493	0.09833636
51	0x3cba3070	0.022728175
52	0x3dbb638b	0.09149846
53	0xbbcf7b0d	-0.0063318075
54	0xbc2d535a	-0.010578955
55	0xbdc5517a	-0.09634681
56	0x3d40c76a	0.047065176
57	0x3de0f909	0.10985
58	0x3d45417b	0.04815815
59	0x3d9690a4	0.07351807
60	0x3d904962	0.07045247
61	0x3cf382cc	0.029725455
62	0xbd87205f	-0.06597971
63	0x3d589113	0.05287273
64	0x3db23f80	0.08703518
65	0xbdd92550	-0.1060282
66	0x3daf3cea	0.0855654
67	0xbdc8b6d9	-0.098005004
68	0x3c6f7f92	0.0146178175
69	0xbd4cb191	-0.049974028
70	0x3c6c2644	0.01441342
71	0xbdd39ea1	-0.103329904
72	0x3d9c0c85	0.076195754
73	0xbd012a25	-0.031534333
74	0x3a313e6b	0.0006761315
75	0x3d9de6ec	0.077100605
76	0xbd8ba77c	-0.068190545
77	0xbd6efd78	-0.058347195
78	0xbd950044	-0.07275441
79	0xbda5769d	-0.08079264
80	0xbda326b9	-0.0796637
81	0xbcb22962	-0.021748248
82	0x3d08e1ae	0.03341835
83	0xbd61021c	-0.054933652
84	0xbd97cbe0	-0.07411933
85	0x3d804c54	0.062645584
86	0x3cddd2ac	0.027077995
87	0x3d60c6e9	0.054877196
88	0x3d98fa1c	0.074695796
89	0xbca96c4f	-0.020681528
90	0xbdb34388	-0.08753115
91	0xbd9d8e1d	-0.076931216
92	0x3c8b7750	0.017024666
93	0x3c8e89a2	0.017399613
94	0x3dc9bddb	0.09850665
95	0xbdcd7dff	-0.100337975
96	0x3ce31708	0.027720943
97	0x3cb2aedf	0.0218119
98	0x3ddc99b3	0.10771503
99	0xbdad79f9	-0.0847053
100	0x3db49871	0.088181384
101	0x3dd30b96	0.10304944
102	0xbd8478a6	-0.06468324
103	0xb983908a	-0.00025093957
104	0xbcf9260a	-0.030413646
105	0xbcfd2d4c	-0.030905388
106	0xbcfb4c31	-0.03067598
107	0xbdbeb717	-0.09312265
108	0xbd9fb70d	-0.07798586
109	0xbd688069	-0.056763086
110	0xbd7b42c5	-0.061342973
111	0x3de438fd	0.11143682
112	0x3d068f94	0.03285177
113	0x3db4c0b7	0.0882582
114	0x3d904ced	0.070459224
115	0x3d8e2fb6	0.06942694
116	0x3d0def60	0.034652114
117	0xbdba847c	-0.09107301
118	0xbd3751e2	-0.044755824
119	0x3d265331	0.04060668
120	0x3c5ad894	0.0133573
121	0x3b86eae5	0.004117357
122	0xbbaf9e3b	-0.0053594387
123	0x3cc75652	0.024333153
124	0xbdb2a2d0	-0.0872246
125	0x3c174294	0.009232182
126	0xbd0d4f31	-0.03449935
127	0xbd916ed7	-0.07101219
128	0x3c0c75c5	0.008573
129	0x3d8acfd7	0.067779236
130	0x3d4467a5	0.047950406
131	0x3c540276	0.01294004
132	0x3b2c9078	0.0026331227
133	0x3db61354	0.08890405
134	0xbdd5a4ca	-0.10431822
135	0x3dd53386	0.10410218
136	0xbd1b70a6	-0.037949227
137	0x3dc49eb7	0.09600585
138	0xbd1d1ada	-0.038355686
139	0xbd96a03b	-0.0735478
140	0xbd986aec	-0.07442269
141	0xbcbd897e	-0.02313685
142	0xbd25e897	-0.040505018
143	0x3dcbd37f	0.09952449
144	0xbb9796ca	-0.0046261298
145	0xbda1a9f9	-0.07893748
146	0x3d999087	0.074982695
147	0xbd03ac08	-0.032146484
148	0x3d189084	0.037247196
149	0x3d91cd85	0.07119278
150	0xbd0a85c9	-0.033818994
151	0xbd979861	-0.07402111
152	0xbd60ac03	-0.054851543
153	0xbd506a10	-0.0508824
154	0xbc8424eb	-0.016130885
155	0xbda577b7	-0.080794744
156	0x3d8e27f9	0.06941218
157	0x3d318b13	0.043345522
158	0xbd3672d1	-0.04454309
159	0xbd6a6c4a	-0.05723218
160	0x3db12fda	0.08651705
161	0xbcb38152	-0.02191225
162	0x3d05b746	0.032645486
163	0x3d0543e2	0.03253544
164	0xbd3f2f37	-0.046675887
165	0xbd4abc8b	-0.049496215
166	0x3d08a5b3	0.033361148
167	0x3dc73ac8	0.097280085
168	0xbd8e89b2	-0.06959857
169	0x3da5b663	0.08091428
170	0x3d266a34	0.040628627
171	0x3d54c6cf	0.05194741
172	0x3d0acf75	0.033889253
173	0xbdd76c75	-0.105187334
174	0xbd254fa5	-0.040359158
175	0x3df59af6	0.11992447
176	0x3c80b2d7	0.015710277
177	0xbd6292d6	-0.055315815
178	0xbd80d460	-0.06290507
179	0x3defaf08	0.117033064
180	0xbd3c09a0	-0.045907617
181	0x3dbbe3e8	0.09174329
182	0x3d01bfcb	0.03167705
183	0x3d6fc374	0.058536008
184	0xbd6e58e9	-0.05819026
185	0xbd09a69d	-0.03360616
186	0xbdcdc3f5	-0.100471415
187	0x3d1e8487	0.038700607
188	0xbd5e2eeb	-0.054243963
189	0x3c90a84e	0.017658379
190	0xbd4483f7	-0.047977414
191	0x3dd5dbfa	0.10442348
192	0xbcce8fce	-0.025215056
193	0x3d89238f	0.066962354
194	0x3d8e944a	0.06961878
195	0x3d6d1ec4	0.05789067
196	0x3c93c983	0.018040424
197	0x3d8f13ff	0.06986236
198	0xbb851339	-0.0040611294
199	0x3dae9863	0.08525159
200	0xbd27abfc	-0.0409355
201	0x3daba471	0.08380974
202	0xbda89dae	-0.082332
203	0xbcd8b86b	-0.026455125
204	0x3cc87148	0.02446808
205	0xbcafdefb	-0.02146863
206	0xbca01773	-0.019542431
207	0xbbea0773	-0.0071420013
208	0xbc9f6600	-0.019457817
209	0x3dc05ab7	0.093923025
210	0x3d5a5a22	0.053308614
211	0x3dd67328	0.10471183
212	0x3da33593	0.07969203
213	0xbbd79565	-0.0065790885
214	0xbdc5ff90	-0.09667885
215	0x3d2ef534	0.042714313
216	0xbd979dc7	-0.074031405
217	0x3d4812b9	0.04884598
218	0x3d625508	0.055256873
219	0xbc28690d	-0.010278952
220	0x3d16b569	0.0367941
221	0xbc8cb2ac	-0.017175041
222	0x3db16b2b	0.08663019
223	0x3ce33e1b	0.027739575
224	0xbd55c663	-0.05219115
225	0xbd97e59c	-0.074168414
226	0x3dc7e5bf	0.097606175
227	0xbd884baa	-0.06655057
228	0xbcf667dd	-0.030078823
229	0xbcab76c9	-0.020930665
230	0xbd7bf4a5	-0.061512608
231	0x3cbdb77e	0.023158785
232	0x3bdeacba	0.006795493
233	0xbdc03ecd	-0.09386978
234	0x3b7314d2	0.0037091267
235	0xbdbf357b	-0.093363725
236	0xbc5f2542	-0.013619723
237	0xbd8127f9	-0.06306452
238	0x3b3ed9ac	0.0029121442
239	0xbce894a4	-0.02839119
240	0x3dc51e08	0.09624869
241	0xbd9956ff	-0.07487296
242	0xbd145d4b	-0.036221784
243	0x3d5f3812	0.054496832
244	0x3dd7179e	0.105025515
245	0x3dd2c102	0.102907196
246	0xbda884d4	-0.0822846
247	0xbd4ea43a	-0.050449587
248	0x3db0af1a	0.08627148
249	0xbdaac7cf	-0.08338892
250	0xbdb8544c	-0.09000453
251	0xbd9a1383	-0.07523253
252	0xbd850e51	-0.06496871
253	0x3dc2ff82	0.095213905
254	0x3d344836	0.04401418
255	0x3db74321	0.08948351

lstm.weight_hh_l0 f4 [512, 128]
0	0x3dbf02f5	0.09326736
1	0x3d9bdadf	0.07610106
2	0xbd593174	-0.053025678
3	0xbd212d58	-0.039349884
4	0x3d9cc4de	0.07654737
5	0xbd0be7f9	-0.034156773
6	0xbd937eed	-0.072019435
7	0x3d823fcf	0.06359827
8	0x3d31457e	0.043279164
9	0x3d949901	0.07255746
10	0xbd421686	-0.04738476
11	0x3dca4cd7	0.09877937
12	0xbdc3d115	-0.095613636
13	0xbdb0d357	-0.0863406
14	0x3d4f677e	0.050635807
15	0xbd0d1761	-0.034446124
16	0xbd8aa93b	-0.067705594
17	0x3d2691ff	0.040666576
18	0xbd67560f	-0.056478556
19	0x39a41115	0.00031293245
20	0xbda55307	-0.08072477
21	0xbc610834	-0.013734866
22	0x3d59c769	0.053168688
23	0xbc55e302	-0.013054611
24	0xbce85846	-0.028362405
25	0xbdce8918	-0.10084742
26	0xbbed9db1	-0.0072514643
27	0x3d1f2ef9	0.038863156
28	0xbdb6b82e	-0.08921848
29	0x3dad1592	0.0845138
30	0x3d8756fe	0.06608389
31	0xbcbe1491	-0.023203166
32	0xbc7a8730	-0.01529102
33	0x3d9c88dd	0.07643292
34	0x3c91733f	0.017755149
35	0xbda6c149	-0.08142335
36	0x3d8a381d	0.06748984
37	0xbd4035f3	-0.04692645
38	0xbd1f86bf	-0.038946863
39	0x3d339306	0.043841384
40	0xbcce3aa9	-0.025174456
41	0xbd9c8316	-0.0764219
42	0xbd9654bf	-0.07340383
43	0x3c16422f	0.009171053
44	0xbd9cb6f3	-0.07652082
45	0xbcc89646	-0.024485718
46	0x3c81a7aa	0.015827019
47	0x3d7d4297	0.061831083
48	0x3d20302c	0.03910844
49	0xbbde3623	-0.006781356
50	0x3d00b4e9	0.03142253
51	0xbd0b4b61	-0.034007434
52	0x3cfcc669	0.030856328
53	0xbd5a8280	-0.05334711
54	0xbdbe0598	-0.09278411
55	0xbdcdc767	-0.100477986
56	0xbb03df18	-0.0020121988
57	0x3cc5919e	0.024117287
58	0xbd498137	-0.049195495
59	0x3dc2a74f	0.09504568
60	0xbc282952	-0.010263758
61	0xbdb85db0	-0.090022445
62	0xbcb964af	-0.022631017
63	0x3d2f13b0	0.042743385
64	0x3d11044d	0.035404492
65	0xbdc1bf07	-0.09460264
66	0x3daaea1e	0.083454356
67	0x3bc2bdf6	0.0059430553
68	0xbd7659c8	-0.060144216
69	0xbd112c3f	-0.035442587
70	0xbdafc3a0	-0.085822344
71	0xbd823869	-0.06358416
72	0xba1e75e1	-0.0006044787
73	0xbc625a7f	-0.013815521
74	0x3c6079ea	0.013700942
75	0xbcb23608	-0.02175428
76	0xbd31c7c1	-0.04340339
77	0x3cd23b8c	0.02566316
78	0x3d9709f9	0.07374949
79	0xbcfcd4a8	-0.030863121
80	0xbd6297ed	-0.05532067
81	0x3b63aefc	0.003474175
82	0x3d92bd44	0.07165006
83	0x3db6ddd5	0.0892903
84	0xba35099c	-0.0006906034
85	0xbd4a7e0e	-0.04943662
86	0xbdbcd875	-0.092209734
87	0x3d56ca33	0.052438926
88	0x3d16c740	0.036811113
89	0xbc97c30e	-0.018525627
90	0xbdc31275	-0.09525005
91	0x3d5e31cb	0.054246705
92	0xbc80a330	-0.015702814
93	0xbdbdc92d	-0.09266887
94	0x3dc5f801	0.096664436
95	0x3dba0f28	0.09084922
96	0x3da252cc	0.079259485
97	0xbdc2e37b	-0.09516045
98	0x3cfe0181	0.031006576
99	0xbd892fe1	-0.06698585
100	0x3dad210d	0.084535696
101	0x3d36cd00	0.044629097
102	0xbc0e40aa	-0.008682409
103	0x3d8e8314	0.06958595
104	0xbd98825a	-0.074467376
105	0xba6bf50d	-0.0009001054
106	0xbc8c4628	-0.017123297
107	0xbdade4ab	-0.084908806
108	0x3c51a35c	0.012795296
109	0x3da3c478	0.07996458
110	0x3d4751f9	0.04866216
111	0x3d963d28	0.073358834
112	0x3d6b2652	0.057409592
113	0x3d514d2d	0.05109899
114	0xbdad6ad9	-0.08467645
115	0x3d615e88	0.055021793
116	0xbd52f95d	-0.051507343
117	0x3bd70235	0.0065615424
118	0xbd849d8f	-0.064753644
119	0x3da7a7c9	0.08186299
120	0xbc5c5cdd	-0.013449875
121	0xbda0f77d	-0.07859705
122	0xbdaf5e61	-0.08562923
123	0xbd88e69d	-0.06684611
124	0xbdcd4a81	-0.10023976
125	0x3dc5c43d	0.0965657
126	0x3cbe2646	0.02321161
127	0x3d19c0f5	0.037537534
128	0xbc8a0e22	-0.016852442
129	0xbdb50946	-0.088396594
130	0xbc763c70	-0.015029058
131	0x3cb06327	0.021531655
132	0xbc157438	-0.009121947
133	0x3d29b114	0.04142864
134	0xbd79f471	-0.061024133
135	0xbd71e334	-0.05905457
136	0xbc882d04	-0.016623028
137	0xbd26f689	-0.040762458
138	0xbd51e466	-0.05124321
139	0x3d9770fa	0.073945954
140	0x3dc1f744	0.0947099
141	0x3c23c965	0.009996747
142	0xbb5b6063	-0.00334742
143	0x3dac2fc5	0.08407549
144	0x3db01ee7	0.08599644
145	0xbd7026be	-0.058630697
146	0x3c715b4d	0.01473124
147	0x3d1f3abf	0.038874384
148	0x3d695471	0.056965295
149	0xbd4d4869	-0.050117884
150	0x3b4c41c2	0.0031167124
151	0x3cf76d6d	0.030203545
152	0xbcb746c7	-0.022372616
153	0x3dcc66ab	0.0998052
154	0x3db84435	0.089973845
155	0x3d89fd7f	0.06737804
156	0xbc96e35a	-0.018418957
157	0x3d25b788	0.040458232
158	0xbc678d2a	-0.014132777
159	0xbd59d2b8	-0.053179473
160	0xbd9d6637	-0.076855116
161	0x3c208be6	0.009798979
162	0x3d706b87	0.058696296
163	0x3c9fdde4	0.019514985
164	0x3bd459e4	0.0064804424
165	0xbd032588	-0.032018214
166	0x3d7d6442	0.06186319
167	0xbd8c0d48	-0.06838471
168	0x3dc49474	0.09598628
169	0x3d92e071	0.07171715
170	0x3d0c8090	0.034302294
171	0x3b814e7c	0.0039461236
172	0xbd3475a7	-0.044057515
173	0xbd1a886f	-0.03772777
174	0xbd871350	-0.065954804
175	0x3daa995a	0.08330031
176	0x3d7a5215	0.061113436
177	0xbb168d92	-0.0022972566
178	0x3cc23331	0.02370605
179	0x3db5bdc2	0.08874084
180	0xbd141e6e	-0.036161833
181	0x3c42ed0a	0.011897335
182	0xbd976a58	-0.0739333
183	0x3d0c2e22	0.034223683
184	0x3d6b1b3e	0.057399027
185	0xbcdff043	-0.027336245
186	0x3d0f5ec5	0.03500249
187	0x3d730bd3	0.05933745
188	0x3daaf8ba	0.08348222
189	0x3c85aea8	0.016318634
190	0xbd7e2d23	-0.062054764
191	0x3bcf11ea	0.006319274
192	0x3d1d3d4a	0.038388528
193	0x3cff6b94	0.031179227
194	0x3c3d024b	0.011536191
195	0xbdb7b1d1	-0.08969463
196	0xbd76ca75	-0.06025167
197	0x3dbe00cd	0.092774965
198	0x3d44f55b	0.04808555
199	0xbcd245a6	-0.025667977
200	0xbcf03d26	-0.029326033
201	0xbc4a7996	-0.01235809
202	0xbd2acca9	-0.041699085
203	0xbd7c9ed0	-0.061674893
204	0x3d0d58b0	0.034508407
205	0xbd392167	-0.04519787
206	0xbdafc902	-0.08583261
207	0xbc5ab5e0	-0.013349026
208	0x3cb181a7	0.021668268
209	0xbda228f4	-0.079179674
210	0xbdaf13d5	-0.085487045
211	0xbd35bea9	-0.04437128
212	0x3da06314	0.07831398
213	0xbd9391e0	-0.07205558
214	0x3d9c3c63	0.07628705
215	0xbd9b0a90	-0.07570374
216	0x3db62896	0.0889446
217	0x3d07265e	0.032995574
218	0xbdc43d00	-0.09581947
219	0x39618da9	0.00021510445
220	0x3d95458d	0.072886564
221	0x3c912677	0.017718537
222	0x3cc63feb	0.0242004
223	0x3da2d293	0.0795032
224	0xbd5fc3f9	-0.054630253
225	0xbc8507b5	-0.016239027
226	0x3b916291	0.004436799
227	0x3bb8d457	0.0056405473
228	0x3da8c02e	0.0823978
229	0x3da04058	0.078247726
230	0xbcf2a696	-0.02962045
231	0x3dbf6b1b	0.093466006
232	0x3ca5a64b	0.020220896
233	0xbdb7c57b	-0.08973213
234	0xbb14e85b	-0.0022721502
235	0xbd7f5fc7	-0.0623472
236	0xbd874f93	-0.066069745
237	0x3da298bc	0.07939288
238	0xbdbd1dc1	-0.09234191
239	0xbd05418b	-0.03253321
240	0x3da3e515	0.08002678
241	0x3d383b32	0.044978328
242	0x3db83461	0.089943655
243	0x3d64d6db	0.055868965
244	0xbdaff028	-0.08590728
245	0x3b3accdf	0.002850346
246	0xbd8ca421	-0.068672426
247	0xbda5722b	-0.080784164
248	0xbcdc5fdd	-0.02690118
249	0x3d625ec8	0.05526617
250	0xbd2b4996	-0.041818224
251	0xb9e103df	-0.00042918228
252	0xbd84ba95	-0.064809
253	0xbd9dcb63	-0.077048086
254	0x3b1ec0a9	0.002422372
255	0xbcc1769b	-0.023616126

lstm.bias_ih_l0 f4 [512]
0	0xbad71d74	-0.0016411976
1	0x3a513e0d	0.00079819636
2	0x3afebc91	0.0019434859
3	0x3b038bbc	0.0020072302
4	0x3ab8665c	0.0014068591
5	0x3b7e8dc8	0.0038841832
6	0x3b2376af	0.0024942567
7	0x3bc677eb	0.006056776
8	0x3c2606d5	0.010133465
9	0x3bbaaebc	0.0056970995
10	0x3c19e9e6	0.009394145
11	0x39c9e310	0.00038506882
12	0x3bff4838	0.0077905916
13	0xbb39dc39	-0.0028360023
14	0xba2666af	-0.00063476985
15	0x3b00f8b0	0.001967948
16	0x3ba46060	0.0050163716
17	0xb91d6181	-0.0001500901
18	0x3b6368c3	0.0034699894
19	0x3bc71940	0.006076008
20	0x3b10b724	0.0022081817
21	0x3bb288ef	0.0054484527
22	0x3b943629	0.004523058
23	0xba84d6f0	-0.0010134857
24	0xbb86a1ea	-0.004108657
25	0x3c094df8	0.008380406
26	0x3b26dea5	0.0025462296
27	0x3c0450b4	0.008075882
28	0xbaf24e0e	-0.0018486397
29	0x3a9d0e6b	0.0011982446
30	0x3bdffa73	0.006835276
31	0x39cd8e20	0.00039206538
32	0x3b898732	0.0041970247
33	0x3b16c14a	0.0023003393
34	0x3bcdfe1b	0.0062863952
35	0xbb3b46ab	-0.0028576057
36	0x3b2c3f90	0.0026283003
37	0x3b93124a	0.004488264
38	0x3ba1e5b5	0.0049407133
39	0x3b14e7d8	0.0022721197
40	0x3c02304c	0.007946085
41	0x3bc3dd0f	0.00597728
42	0x3b9305e4	0.004486786
43	0x3b4dcbe3	0.0031402044
44	0x3a220efc	0.00061820424
45	0x3b857324	0.0040725637
46	0x3b8b18f6	0.004244919
47	0x3c0b3e0d	0.008498681
48	0x3bed0e5d	0.0072343783
49	0x3a25288b	0.0006300292
50	0x3a5a03cc	0.0008316606
51	0x3acadc5e	0.0015477051
52	0x3b692e11	0.0035580436
53	0x3b152a3a	0.0022760765
54	0xbb24e396	-0.0025160066
55	0x3ac48a78	0.001499488
56	0xbb9a9ae5	-0.004718172
57	0x3a7a23ef	0.00095420977
58	0x3c2f2952	0.010691004
59	0x3b3f30a2	0.0029173275
60	0xbad87647	-0.0016514742
61	0x3b8fa464	0.0043836106
62	0xb94027dc	-0.00018325396
63	0xbac6191c	-0.0015113684
64	0x3b27537a	0.0025531934
65	0x3bc37479	0.0059648124
66	0x3a899bd9	0.0010498717
67	0x3c06b7ac	0.008222502
68	0xbaffc7bc	-0.0019514482
69	0x3b49c9d8	0.0030790474
70	0x3b84a541	0.00404802
71	0x3bc244ba	0.005928603
72	0xba0a303f	-0.00052714715
73	0x3ad381e8	0.0016136738
74	0x3bc1decc	0.005916452
75	0xbb16369c	-0.0022920733
76	0x3b60b370	0.003428664
77	0x3acbca54	0.0015547969
78	0xbb1632af	-0.0022918393
79	0x3ba4544c	0.005014932
80	0x3beb2a8a	0.007176702
81	0x3b163e18	0.0022925194
82	0x3bb0cd04	0.0053955335
83	0x3b4bfc88	0.0031125862
84	0x3b50edaa	0.003187994
85	0xbab3949f	-0.0013700909
86	0x3bb0ea5d	0.005399032
87	0x3badfe08	0.005309824
88	0xbbc3518a	-0.005960648
89	0x3bdba6e1	0.006703243
90	0xbbb90003	-0.0056457534
91	0x3be2681d	0.006909384
92	0x3ba94b05	0.0051664137
93	0x3b3b6840	0.0028596073
94	0x3c4a4b0c	0.012346994
95	0x3b64bf36	0.003490401
96	0x3b410fcf	0.0029458886
97	0x3bf19836	0.0073728813
98	0x3b8709e2	0.004121051
99	0x39f33abf	0.0004639234
100	0x3b935c99	0.0044971225
101	0x3b7e8ad2	0.0038840068
102	0x3bd82b72	0.006596976
103	0x3b85284c	0.0040636417
104	0xb8acda1b	-8.2422244e-05
105	0x3b90ed20	0.0044227988
106	0x39b55f39	0.00034593957
107	0x3bc017ac	0.005862197
108	0x3c20ce95	0.009814878
109	0x3c09534c	0.008381676
110	0x3b402a4e	0.002932209
111	0x3bdc27aa	0.0067185955
112	0x3bc30839	0.005951908
113	0x3b418b33	0.0029532432
114	0xbab7bf64	-0.0014018831
115	0x3c0cf114	0.008602399
116	0x390e7561	0.00013585902
117	0x3b83bc91	0.0040202816
118	0x3a5bf8bd	0.0008391252
119	0x3b9429b0	0.004521571
120	0x3a30f4be	0.00067503366
121	0x3c0cd696	0.008596083
122	0x3c1162bf	0.008873641
123	0x3c1d2b34	0.00959282
124	0x3b3dfe22	0.0028990586
125	0x3aedf25f	0.0018153897
126	0x3c0e0571	0.0086682895
127	0x3aec95f1	0.0018050057
128	0xb9d07217	-0.00039757855
129	0x3b4a6ca0	0.00308875
130	0x3b1720f1	0.0023060406
131	0x3a906f3b	0.0011019477
132	0x3af3688f	0.001857059
133	0x3bc2003b	0.0059204376
134	0x3af4a6c0	0.0018665418
135	0x3bc1e539	0.005917218
136	0x3c2f2090	0.010688916
137	0x3bd8de78	0.006618317
138	0x3c2ba690	0.010476723
139	0x3af03477	0.0018326183
140	0x3c265abc	0.010153469
141	0xbb7ff98a	-0.003905865
142	0x39e430d5	0.00043523932
143	0x3b58654b	0.003301936
144	0x3b95b06f	0.0045681517
145	0xb9a079c0	-0.0003060829
146	0x3b5bd474	0.003354338
147	0x3bbfddd7	0.005855303
148	0x3ac77bf1	0.0015219433
149	0x3ba6bd65	0.0050884956
150	0x3bb01e84	0.0053747315
151	0x3a994e2e	0.0011696273
152	0xbb44831c	-0.0029985374
153	0x3c0a7f21	0.008453161
154	0x3b27f815	0.0025630046
155	0x3bfc817e	0.0077058664
156	0xbb08ebfd	-0.0020892613
157	0x3b12f4c8	0.0022423733
158	0x3bee5ae5	0.007274019
159	0xbac65e50	-0.0015134308
160	0x3bbdb9a7	0.0057899537
161	0x3b19704a	0.0023412877
162	0x3ba26de2	0.0049569467
163	0x3b31ddb5	0.0027140204
164	0x3a459123	0.00075365807
165	0x3bb111f3	0.005403751
166	0x3b63382c	0.0034670932
167	0x3a825d76	0.0009946066
168	0x3c019906	0.007910019
169	0x3bb4bdc1	0.0055157845
170	0x3bc8ba89	0.0061257523
171	0x3b3d69d2	0.0028902185
172	0xba04c0f1	-0.0005064151
173	0x3b34fc4c	0.00276162
174	0x3b8ef29d	0.004362418
175	0x3c04f821	0.008115799
176	0x3c09c6b6	0.008409193
177	0x3a3bfbfe	0.00071710336
178	0x3b03cf68	0.0020112637
179	0x3b6f17e1	0.0036482739
180	0x3b812c6d	0.0039420635
181	0x3b771d49	0.0037706664
182	0x3902acac	0.00012462091
183	0x39bbcc10	0.00035819458
184	0xbb64bb16	-0.003490155
185	0x3aee5dec	0.001818595
186	0x3c2eb954	0.010664303
187	0x3b4cc790	0.0031246878
188	0x38efed3a	0.00011440595
189	0x3b87d51f	0.004145279
190	0xb9ad0307	-0.00032999387
191	0xbb3fafb3	-0.0029249012
192	0x3b4a7ea9	0.003089825
193	0x3bce3bef	0.0062937657
194	0x3a4e73ad	0.00078755134
195	0x3c096b06	0.008387333
196	0x3a1200ae	0.0005569559
197	0x3b143079	0.00226119
198	0x3b96e4b4	0.0046049003
199	0x3b9faf9b	0.0048732287
200	0x3a567c44	0.0008181969
201	0x38850097	6.342044e-05
202	0x3bf62c02	0.0075125704
203	0xbb28ee1b	-0.0025776688
204	0x3aa57aa3	0.001262505
205	0x39a74ac8	0.00031908439
206	0x3905fc86	0.0001277794
207	0x3b7c1536	0.003846479
208	0x3bd76483	0.006573261
209	0x3a30a74e	0.00067387975
210	0x3b8ecc60	0.0043578595
211	0x3b05e017	0.0020427757
212	0x3b502fb3	0.0031766712
213	0xba2c62e5	-0.0006576016
214	0x3b9401c9	0.0045168144
215	0x3b95b283	0.0045683994
216	0xbba39884	-0.0049925465
217	0x3bc38a33	0.0059674024
218	0xbbb3351d	-0.005468978
219	0x3bef8b85	0.007310333
220	0x3bc31a9d	0.0059541003
221	0x3a9507cd	0.0011370123
222	0x3c4c1b11	0.012457625
223	0x3b5bce93	0.0033539876
224	0x3b59e52f	0.0033248176
225	0x3bf2cc21	0.007409588
226	0x3b923a26	0.0044624982
227	0x3a9f4204	0.0012150411
228	0x3beaf7fa	0.0071706744
229	0x3b922608	0.0044601
230	0x3bdaba72	0.006675058
231	0x3b58b8a7	0.0033069046
232	0x398b1f73	0.00026535577
233	0x3be787b9	0.00706574
234	0x394b5613	0.00019391654
235	0x3bc30ad8	0.0059522204
236	0x3c2f8051	0.010711745
237	0x3c1321a8	0.008980192
238	0x3b05ba50	0.002040524
239	0x3bcfc753	0.0063409
240	0x3bc3344a	0.005957161
241	0x3b6c41d5	0.003604998
242	0x38bbaf1a	8.94947e-05
243	0x3c286f55	0.01028045
244	0x3a27b3f9	0.00063973624
245	0x3b729c20	0.0037019327
246	0x3afd63a2	0.0019332061
247	0x3b6e696d	0.0036378757
248	0x3a9d15a2	0.0011984596
249	0x3c0693d3	0.008213955
250	0x3c0a9db6	0.008460453
251	0x3c1471e5	0.009060358
252	0x3b6ad0fb	0.0035830128
253	0x3a9ee6cd	0.0012123227
254	0x3c0526b4	0.008126903
255	0x3a6c36e2	0.0009010864

lstm.bias_hh_l0 f4 [512]
0	0xbad71d74	-0.0016411976
1	0x3a513e0d	0.00079819636
2	0x3afebc91	0.0019434859
3	0x3b038bbc	0.0020072302
4	0x3ab8665c	0.0014068591
5	0x3b7e8dc8	0.0038841832
6	0x3b2376af	0.0024942567
7	0x3bc677eb	0.006056776
8	0x3c2606d5	0.010133465
9	0x3bbaaebc	0.0056970995
10	0x3c19e9e6	0.009394145
11	0x39c9e310	0.00038506882
12	0x3bff4838	0.0077905916
13	0xbb39dc39	-0.0028360023
14	0xba2666af	-0.00063476985
15	0x3b00f8b0	0.001967948
16	0x3ba46060	0.0050163716
17	0xb91d6181	-0.0001500901
18	0x3b6368c3	0.0034699894
19	0x3bc71940	0.006076008
20	0x3b10b724	0.0022081817
21	0x3bb288ef	0.0054484527
22	0x3b943629	0.004523058
23	0xba84d6f0	-0.0010134857
24	0xbb86a1ea	-0.004108657
25	0x3c094df8	0.008380406
26	0x3b26dea5	0.0025462296
27	0x3c0450b4	0.008075882
28	0xbaf24e0e	-0.0018486397
29	0x3a9d0e6b	0.0011982446
30	0x3bdffa73	0.006835276
31	0x39cd8e20	0.00039206538
32	0x3b898732	0.0041970247
33	0x3b16c14a	0.0023003393
34	0x3bcdfe1b	0.0062863952
35	0xbb3b46ab	-0.0028576057
36	0x3b2c3f90	0.0026283003
37	0x3b93124a	0.004488264
38	0x3ba1e5b5	0.0049407133
39	0x3b14e7d8	0.0022721197
40	0x3c02304c	0.007946085
41	0x3bc3dd0f	0.00597728
42	0x3b9305e4	0.004486786
43	0x3b4dcbe3	0.0031402044
44	0x3a220efc	0.00061820424
45	0x3b857324	0.0040725637
46	0x3b8b18f6	0.004244919
47	0x3c0b3e0d	0.008498681
48	0x3bed0e5d	0.0072343783
49	0x3a25288b	0.0006300292
50	0x3a5a03cc	0.0008316606
51	0x3acadc5e	0.0015477051
52	0x3b692e11	0.0035580436
53	0x3b152a3a	0.0022760765
54	0xbb24e396	-0.0025160066
55	0x3ac48a78	0.001499488
56	0xbb9a9ae5	-0.004718172
57	0x3a7a23ef	0.00095420977
58	0x3c2f2952	0.010691004
59	0x3b3f30a2	0.0029173275
60	0xbad87647	-0.0016514742
61	0x3b8fa464	0.0043836106
62	0xb94027dc	-0.00018325396
63	0xbac6191c	-0.0015113684
64	0x3b27537a	0.0025531934
65	0x3bc37479	0.0059648124
66	0x3a899bd9	0.0010498717
67	0x3c06b7ac	0.008222502
68	0xbaffc7bc	-0.0019514482
69	0x3b49c9d8	0.0030790474
70	0x3b84a541	0.00404802
71	0x3bc244ba	0.005928603
72	0xba0a303f	-0.00052714715
73	0x3ad381e8	0.0016136738
74	0x3bc1decc	0.005916452
75	0xbb16369c	-0.0022920733
76	0x3b60b370	0.003428664
77	0x3acbca54	0.0015547969
78	0xbb1632af	-0.0022918393
79	0x3ba4544c	0.005014932
80	0x3beb2a8a	0.007176702
81	0x3b163e18	0.0022925194
82	0x3bb0cd04	0.0053955335
83	0x3b4bfc88	0.0031125862
84	0x3b50edaa	0.003187994
85	0xbab3949f	-0.0013700909
86	0x3bb0ea5d	0.005399032
87	0x3badfe08	0.005309824
88	0xbbc3518a	-0.005960648
89	0x3bdba6e1	0.006703243
90	0xbbb90003	-0.0056457534
91	0x3be2681d	0.006909384
92	0x3ba94b05	0.0051664137
93	0x3b3b6840	0.0028596073
94	0x3c4a4b0c	0.012346994
95	0x3b64bf36	0.003490401
96	0x3b410fcf	0.0029458886
97	0x3bf19836	0.0073728813
98	0x3b8709e2	0.004121051
99	0x39f33abf	0.0004639234
100	0x3b935c99	0.0044971225
101	0x3b7e8ad2	0.0038840068
102	0x3bd82b72	0.006596976
103	0x3b85284c	0.0040636417
104	0xb8acda1b	-8.2422244e-05
105	0x3b90ed20	0.0044227988
106	0x39b55f39	0.00034593957
107	0x3bc017ac	0.005862197
108	0x3c20ce95	0.009814878
109	0x3c09534c	0.008381676
110	0x3b402a4e	0.002932209
111	0x3bdc27aa	0.0067185955
112	0x3bc30839	0.005951908
113	0x3b418b33	0.0029532432
114	0xbab7bf64	-0.0014018831
115	0x3c0cf114	0.008602399
116	0x390e7561	0.00013585902
117	0x3b83bc91	0.0040202816
118	0x3a5bf8bd	0.0008391252
119	0x3b9429b0	0.004521571
120	0x3a30f4be	0.00067503366
121	0x3c0cd696	0.008596083
122	0x3c1162bf	0.008873641
123	0x3c1d2b34	0.00959282
124	0x3b3dfe22	0.0028990586
125	0x3aedf25f	0.0018153897
126	0x3c0e0571	0.0086682895
127	0x3aec95f1	0.0018050057
128	0xb9d07217	-0.00039757855
129	0x3b4a6ca0	0.00308875
130	0x3b1720f1	0.0023060406
131	0x3a906f3b	0.0011019477
132	0x3af3688f	0.001857059
133	0x3bc2003b	0.0059204376
134	0x3af4a6c0	0.0018665418
135	0x3bc1e539	0.005917218
136	0x3c2f2090	0.010688916
137	0x3bd8de78	0.006618317
138	0x3c2ba690	0.010476723
139	0x3af03477	0.0018326183
140	0x3c265abc	0.010153469
141	0xbb7ff98a	-0.003905865
142	0x39e430d5	0.00043523932
143	0x3b58654b	0.003301936
144	0x3b95b06f	0.0045681517
145	0xb9a079c0	-0.0003060829
146	0x3b5bd474	0.003354338
147	0x3bbfddd7	0.005855303
148	0x3ac77bf1	0.0015219433
149	0x3ba6bd65	0.0050884956
150	0x3bb01e84	0.0053747315
151	0x3a994e2e	0.0011696273
152	0xbb44831c	-0.0029985374
153	0x3c0a7f21	0.008453161
154	0x3b27f815	0.0025630046
155	0x3bfc817e	0.0077058664
156	0xbb08ebfd	-0.0020892613
157	0x3b12f4c8	0.0022423733
158	0x3bee5ae5	0.007274019
159	0xbac65e50	-0.0015134308
160	0x3bbdb9a7	0.0057899537
161	0x3b19704a	0.0023412877
162	0x3ba26de2	0.0049569467
163	0x3b31ddb5	0.0027140204
164	0x3a459123	0.00075365807
165	0x3bb111f3	0.005403751
166	0x3b63382c	0.0034670932
167	0x3a825d76	0.0009946066
168	0x3c019906	0.007910019
169	0x3bb4bdc1	0.0055157845
170	0x3bc8ba89	0.0061257523
171	0x3b3d69d2	0.0028902185
172	0xba04c0f1	-0.0005064151
173	0x3b34fc4c	0.00276162
174	0x3b8ef29d	0.004362418
175	0x3c04f821	0.008115799
176	0x3c09c6b6	0.008409193
177	0x3a3bfbfe	0.00071710336
178	0x3b03cf68	0.0020112637
179	0x3b6f17e1	0.0036482739
180	0x3b812c6d	0.0039420635
181	0x3b771d49	0.0037706664
182	0x3902acac	0.00012462091
183	0x39bbcc10	0.00035819458
184	0xbb64bb16	-0.003490155
185	0x3aee5dec	0.001818595
186	0x3c2eb954	0.010664303
187	0x3b4cc790	0.0031246878
188	0x38efed3a	0.00011440595
189	0x3b87d51f	0.004145279
190	0xb9ad0307	-0.00032999387
191	0xbb3fafb3	-0.0029249012
192	0x3b4a7ea9	0.003089825
193	0x3bce3bef	0.0062937657
194	0x3a4e73ad	0.00078755134
195	0x3c096b06	0.008387333
196	0x3a1200ae	0.0005569559
197	0x3b143079	0.00226119
198	0x3b96e4b4	0.0046049003
199	0x3b9faf9b	0.0048732287
200	0x3a567c44	0.0008181969
201	0x38850097	6.342044e-05
202	0x3bf62c02	0.0075125704
203	0xbb28ee1b	-0.0025776688
204	0x3aa57aa3	0.001262505
205	0x39a74ac8	0.00031908439
206	0x3905fc86	0.0001277794
207	0x3b7c1536	0.003846479
208	0x3bd76483	0.006573261
209	0x3a30a74e	0.00067387975
210	0x3b8ecc60	0.0043578595
211	0x3b05e017	0.0020427757
212	0x3b502fb3	0.0031766712
213	0xba2c62e5	-0.0006576016
214	0x3b9401c9	0.0045168144
215	0x3b95b283	0.0045683994
216	0xbba39884	-0.0049925465
217	0x3bc38a33	0.0059674024
218	0xbbb3351d	-0.005468978
219	0x3bef8b85	0.007310333
220	0x3bc31a9d	0.0059541003
221	0x3a9507cd	0.0011370123
222	0x3c4c1b11	0.012457625
223	0x3b5bce93	0.0033539876
224	0x3b59e52f	0.0033248176
225	0x3bf2cc21	0.007409588
226	0x3b923a26	0.0044624982
227	0x3a9f4204	0.0012150411
228	0x3beaf7fa	0.0071706744
229	0x3b922608	0.0044601
230	0x3bdaba72	0.006675058
231	0x3b58b8a7	0.0033069046
232	0x398b1f73	0.00026535577
233	0x3be787b9	0.00706574
234	0x394b5613	0.00019391654
235	0x3bc30ad8	0.0059522204
236	0x3c2f8051	0.010711745
237	0x3c1321a8	0.008980192
238	0x3b05ba50	0.002040524
239	0x3bcfc753	0.0063409
240	0x3bc3344a	0.005957161
241	0x3b6c41d5	0.003604998
242	0x38bbaf1a	8.94947e-05
243	0x3c286f55	0.01028045
244	0x3a27b3f9	0.00063973624
245	0x3b729c20	0.0037019327
246	0x3afd63a2	0.0019332061
247	0x3b6e696d	0.0036378757
248	0x3a9d15a2	0.0011984596
249	0x3c0693d3	0.008213955
250	0x3c0a9db6	0.008460453
251	0x3c1471e5	0.009060358
252	0x3b6ad0fb	0.0035830128
253	0x3a9ee6cd	0.0012123227
254	0x3c0526b4	0.008126903
255	0x3a6c36e2	0.0009010864

lstm.weight_ih_l1 f4 [512, 128]
0	0xbdcb3eb9	-0.09924073
1	0x3cf5971e	0.029979285
2	0x3d3472c6	0.04405477
3	0xbd2c040c	-0.041996047
4	0xbbc357ac	-0.005961379
5	0x3d3e258c	0.046422526
6	0x3cd67ed6	0.026183527
7	0xbd1e63a1	-0.038669232
8	0x3cde2fe0	0.027122438
9	0xbc153436	-0.009106686
10	0x3cd677d7	0.026180191
11	0x3d955472	0.07291497
12	0xbcc6cae4	-0.024266668
13	0x3da10f76	0.07864277
14	0xbd9dcaf9	-0.077047296
15	0xbca0b864	-0.019619174
16	0x3d5f8913	0.054574084
17	0x3d886b86	0.066611335
18	0xbd845c11	-0.06462873
19	0x3d1971e7	0.03746214
20	0x3d46f383	0.048572075
21	0xbd25e67f	-0.04050302
22	0x3d769c85	0.060207862
23	0x3d2b6ef6	0.041853867
24	0x3c419422	0.011815103
25	0x3c1bedf8	0.009517185
26	0x3d1b1f02	0.03787137
27	0x3dcd1bfd	0.10015104
28	0xbb693417	-0.0035584026
29	0xbda60a07	-0.08107381
30	0x3d31e778	0.043433636
31	0x3d37cec3	0.044874918
32	0x3d1466a5	0.036230702
33	0xbdb4390d	-0.08799944
34	0xbda12868	-0.07869035
35	0xbd78c747	-0.06073692
36	0xbd9b21c3	-0.07574799
37	0x3d7e4a3c	0.062082514
38	0xbdc02760	-0.0938251
39	0x3c717cc1	0.014739216
40	0xbd98e284	-0.074650794
41	0x3cbc33cf	0.022973923
42	0xbcd92158	-0.026505157
43	0xbd5c5687	-0.053793456
44	0x3daa5234	0.0831646
45	0x3d9e32c5	0.07724527
46	0x3d3b600f	0.045745905
47	0x3ca45e95	0.020064631
48	0x3dc44913	0.0958425
49	0xbd08eb42	-0.033427484
50	0xbd2b9ed0	-0.041899502
51	0x3db3c0ba	0.08776994
52	0xbcc6e639	-0.0242797
53	0x3dc7032f	0.09717404
54	0x3d870f44	0.065947086
55	0xbd91d082	-0.07119848
56	0xbd0de5c2	-0.034642942
57	0x3d88dd4b	0.06682833
58	0x3dc89e83	0.09795859
59	0x3c8b7107	0.01702167
60	0xbd1e5ed8	-0.03866467
61	0x3c19cd3c	0.009387311
62	0x3d0ba398	0.034091562
63	0xbd67c6d4	-0.0565861
64	0x3d681d8a	0.056668796
65	0x3b691de4	0.0035570795
66	0x3d3a9641	0.04555345
67	0xbd9039b9	-0.0704226
68	0xbd3b4723	-0.045722138
69	0xbd31a3e6	-0.043369196
70	0xbbeb0a18	-0.007172834
71	0x3b130b78	0.0022437256
72	0x3d8f25d7	0.06989639
73	0x3d424294	0.047426775
74	0xbd6407d5	-0.05567153
75	0xbd8f5504	-0.06998637
76	0xbd8f4c78	-0.06997007
77	0x3c6c60b4	0.014427353
78	0xbd994500	-0.07483864
79	0xbbcbaa49	-0.006215368
80	0x3dafc40c	0.08582315
81	0xbc3aa7ad	-0.011392516
82	0xbd52b85d	-0.051445354
83	0x3c2eb7f0	0.010663971
84	0xbd1d615e	-0.038422935
85	0x3d9e282c	0.07722506
86	0xbd8c97e7	-0.068649106
87	0xbc416fa5	-0.011806403
88	0xbc7498c1	-0.0149289975
89	0xbc7986aa	-0.01522986
90	0x3d31e82d	0.04343431
91	0xbccd1638	-0.025035009
92	0xbcb0ff89	-0.021606224
93	0x3dc6bed1	0.09704364
94	0xbd1191c3	-0.0355394
95	0xbd99c30e	-0.07507907
96	0xbb830745	-0.0039986693
97	0x3dab52e3	0.08365419
98	0x3db34c4f	0.08754789
99	0xbcf8aca0	-0.030355752
100	0x3bb66e2e	0.0055673337
101	0x3c68a75f	0.014200061
102	0xbcd4848d	-0.025942111
103	0x3d255e95	0.040373404
104	0x3d0bad68	0.03410092
105	0x3d0e6c0a	0.034771003
106	0x3be48f02	0.0069750557
107	0x3c78802a	0.015167275
108	0x3c9bdb39	0.019025432
109	0xbc14872d	-0.009065432
110	0x3d999e9d	0.07500956
111	0xbd8aad61	-0.06771351
112	0xbdbaf872	-0.091294184
113	0x3d0acdeb	0.033887785
114	0xbcc2c4dd	-0.023775512
115	0x3d92f5d7	0.071757965
116	0x3d9a48de	0.075334296
117	0x3d730857	0.059334125
118	0xba2e33b4	-0.00066452776
119	0xbc4ff6d8	-0.0126931295
120	0x3d6b626b	0.057466906
121	0xbd471beb	-0.04861061
122	0x3d20098f	0.039071616
123	0x3dc37613	0.09544005
124	0xbc10a353	-0.008828002
125	0x3db350cf	0.087556474
126	0x3b42b580	0.0029710233
127	0x3d851394	0.06497875
128	0xbda8150a	-0.08207138
129	0xbda14043	-0.07873585
130	0xbc8c67b2	-0.01713929
131	0x3d256095	0.04037531
132	0xbd45f37a	-0.0483279
133	0x3ca4b9f8	0.020108208
134	0x3dbdf41b	0.09275075
135	0xbd779979	-0.060449097
136	0x3cfb55b7	0.03068052
137	0x3bc6e4dd	0.006069763
138	0x3d851fc7	0.06500202
139	0xbdc65067	-0.09683304
140	0x3a72425f	0.00092414574
141	0x3d750faf	0.05982941
142	0x3d23161c	0.039816007
143	0xbc595c56	-0.0132666435
144	0xbc446be6	-0.011988616
145	0x3cd47afb	0.025937548
146	0x3d173f7b	0.036925774
147	0x3d1da6f1	0.038489286
148	0x3c3d4568	0.011552192
149	0x3c627fb7	0.013824395
150	0xbd1d501d	-0.03840648
151	0x3d009b6b	0.031398218
152	0x3d134dfe	0.03596305
153	0x3d8bb510	0.06821644
154	0x3be167d6	0.0068788333
155	0xbd953f8f	-0.072875135
156	0x3cd110d2	0.025520716
157	0x3cf9fd3b	0.030516258
158	0x3dacdd6e	0.08440672
159	0xbd962343	-0.073309444
160	0x3d9b8e44	0.075954944
161	0xbd0187f7	-0.031623807
162	0xbda3fadb	-0.08006831
163	0x3cbeae14	0.023276366
164	0x3dbd1f4d	0.09234486
165	0xbdc48227	-0.09595137
166	0xbd8d52c9	-0.06900556
167	0x3dac0743	0.083998226
168	0xbd9d46ed	-0.07679544
169	0xbd3cd8c2	-0.046105154
170	0xbcc3e8aa	-0.023914654
171	0x3d3a379b	0.045463186
172	0xbd31d4d5	-0.043415863
173	0x3cae8244	0.02130235
174	0xbdb60810	-0.088882565
175	0x3b65baa7	0.003505388
176	0x3c98f2a3	0.018670386
177	0xbd35119a	-0.04420624
178	0xbd476882	-0.04868365
179	0x3d31308d	0.043259192
180	0x3dada1fc	0.08478162
181	0xbbe898e7	-0.0070983055
182	0x3d4d1c4e	0.05007582
183	0xbc86bcce	-0.016447451
184	0xbd334572	-0.0437674
185	0xbc96547a	-0.018350828
186	0x3bf06177	0.0073358375
187	0xbd9ff0f4	-0.0780963
188	0xbb1930ab	-0.0023374956
189	0xbd22110e	-0.039567046
190	0x3cc2ccc6	0.023779284
191	0xbd608993	-0.0548187
192	0x3dbce7bc	0.09223887
193	0x3d4384d9	0.047734115
194	0xbd1fed21	-0.039044503
195	0x3d93785a	0.072006896
196	0xbcb016e1	-0.021495285
197	0xbda8d772	-0.08244218
198	0xbc558e45	-0.013034408
199	0x3d8214df	0.06351637
200	0x3db09eb5	0.08624021
201	0xbd6a42f6	-0.057192765
202	0xbcf90cc3	-0.030401593
203	0xbcbc07f6	-0.022953015
204	0x3d976335	0.07391969
205	0x3d532dcb	0.051557343
206	0xbd91391d	-0.070909716
207	0x3d8e83d5	0.06958739
208	0x3d9e74e7	0.07737141
209	0x3c22f2ef	0.009945615
210	0xbdad6613	-0.08466735
211	0xbd548c9a	-0.0518919
212	0x3cadbbf9	0.021207796
213	0xbae06487	-0.0017119803
214	0x3db93420	0.09043145
215	0xbcd57268	-0.02605553
216	0x3d6f525b	0.05842815
217	0x3d5c0bd0	0.053722203
218	0x3ce9d367	0.028543187
219	0x3d097a7a	0.03356407
220	0xbccf9cb8	-0.025343284
221	0x3c85e54c	0.016344689
222	0x3d11b863	0.035576236
223	0xbc184dba	-0.009295875
224	0x3ce438e6	0.027859163
225	0x3ce97c79	0.028501736
226	0x3dce5a37	0.10075801
227	0x3d040c50	0.032238305
228	0x3d86493b	0.06556936
229	0xbb542d0a	-0.0032375478
230	0xbd9298bc	-0.07158038
231	0x3d8e45cc	0.069469064
232	0xbb928c35	-0.0044722804
233	0x3cc8744e	0.02446952
234	0x3d0cd483	0.034382354
235	0xbcc6e580	-0.024279356
236	0xbd8974ac	-0.067117065
237	0x3d49e80c	0.049293563
238	0xbd0b4fe5	-0.03401174
239	0x3c79da18	0.0152497515
240	0x3cdef7e8	0.02721782
241	0xbbda5cc5	-0.006663891
242	0x3c695142	0.014240565
243	0xbc970337	-0.01843415
244	0x3d881a80	0.066456795
245	0xbda70470	-0.08155143
246	0x3d4b9440	0.04970193
247	0xbadaffc2	-0.0016708302
248	0xbd248217	-0.040163126
249	0x3d896920	0.06709504
250	0xbc184004	-0.009292606
251	0x3d815bd9	0.06316347
252	0xbd71cf1f	-0.059035417
253	0x3c2a62cc	0.010399532
254	0x3c9235a3	0.017847842
255	0x3d073e0b	0.033018153

lstm.weight_hh_l1 f4 [512, 128]
0	0x3b2ac1f0	0.0026055537
1	0x3d9955a3	0.07487037
2	0x3d7fc2a7	0.062441494
3	0x3d7f385f	0.06230962
4	0xbd6c9a7a	-0.057764508
5	0xbc3b7369	-0.01144109
6	0xbd3386e7	-0.043829825
7	0xbda31083	-0.07962134
8	0x3d87474e	0.06605397
9	0xbd935d4d	-0.0719553
10	0x3c0ae3a9	0.00847713
11	0xbd03ab9d	-0.032146085
12	0x3da5b47f	0.080910675
13	0x3d8f101b	0.06985494
14	0x3c3e8fc8	0.01163096
15	0xbd77884f	-0.06043273
16	0xbc3f804a	-0.011688301
17	0xbdb5fa37	-0.08885615
18	0xbcec0231	-0.028809639
19	0x3cb705ca	0.022341628
20	0xbd02c90b	-0.03193001
21	0xbc17c335	-0.00926285
22	0xbc9b71b7	-0.018975122
23	0xbd45dae0	-0.04830444
24	0x3d4dda0b	0.05025677
25	0xbdd16aac	-0.10225424
26	0x3d647b90	0.0557819
27	0xbd93a4b0	-0.07209146
28	0x3c34cabb	0.011034663
29	0x3d92024e	0.07129346
30	0xbbf4f360	-0.0074753016
31	0xbd836472	-0.06415643
32	0x3d100a51	0.03516609
33	0x3d4e3dcd	0.050351907
34	0x3d3b4493	0.045719694
35	0xbd7eaece	-0.062178425
36	0xbbc5cf24	-0.006036656
37	0xbd1f7c93	-0.038937163
38	0xbdb055db	-0.08610126
39	0xbd197404	-0.037464157
40	0xbdb0c385	-0.086310424
41	0xbd5d7be4	-0.05407323
42	0xbd87274f	-0.065992944
43	0xbd53f4f2	-0.05174727
44	0x3d868ae7	0.06569462
45	0xbd1d0a88	-0.03834012
46	0xbd9f5d6e	-0.07781492
47	0xbd33580c	-0.04378514
48	0xbd0f438e	-0.034976535
49	0xbd0171ab	-0.031602543
50	0x3ce591d0	0.02802363
51	0x3cd84348	0.02639927
52	0x3d36d074	0.04463239
53	0x3dba29fb	0.090900384
54	0xbd1f2b98	-0.038859934
55	0x3d819a5c	0.0632827
56	0xbc544b81	-0.012957455
57	0x3db32d62	0.087488905
58	0xbc6107cd	-0.01373477
59	0xbd4a1274	-0.049334005
60	0xbd1df8ab	-0.038567226
61	0x3dc2b2f7	0.09506791
62	0x3cae5a1c	0.021283202
63	0x3dc62ffb	0.0967712
64	0xbccfec0d	-0.025381112
65	0x3d934e69	0.0719269
66	0x3cabbc45	0.020963797
67	0x3d8a1dba	0.06743951
68	0xbd9f5311	-0.077795155
69	0xbda8c009	-0.08239753
70	0x3d0a4b3d	0.03376316
71	0x3d68609d	0.056732763
72	0x3bd24352	0.0064167166
73	0x3affdd52	0.0019520915
74	0xbd38b417	-0.045093622
75	0x3d8afe6b	0.067868076
76	0x3d6bb222	0.057542928
77	0x3c8768ec	0.016529523
78	0x3d1d31bc	0.03837751
79	0xbd8db7e4	-0.0691984
80	0xbd6e0dd8	-0.05811867
81	0xbd9263bb	-0.07147928
82	0xbcaa044a	-0.020753998
83	0x3d8eff68	0.069823086
84	0xbd3a8927	-0.045540955
85	0x3c0360e3	0.008018705
86	0x3d27329b	0.040819746
87	0x3d97c757	0.07411068
88	0xbcb957cc	-0.022624873
89	0xbd8746ed	-0.06605325
90	0x3cb0adde	0.021567281
91	0xbda7e04b	-0.08197077
92	0x3d549536	0.05190011
93	0x3da0e93c	0.07856986
94	0xbd34bc8b	-0.04412512
95	0xbd8c5af6	-0.06853287
96	0xbd4c0591	-0.049809996
97	0x3da6d0c7	0.0814529
98	0x3db34525	0.08753423
99	0xbd3157a7	-0.043296482
100	0x3d9915d4	0.074748665
101	0xbd43b5ae	-0.047780685
102	0xbce1e2b1	-0.027573915
103	0xbd3c7613	-0.04601104
104	0xbda00f31	-0.078153975
105	0x3d3e4bc4	0.046458974
106	0x3d438e86	0.047743343
107	0x3dc14d42	0.09438564
108	0x3da84108	0.08215529
109	0x3dca5c72	0.09880914
110	0x3d0625aa	0.032750763
111	0xbd8f3331	-0.06992186
112	0xbd9334a8	-0.07187778
113	0x3d96234d	0.07330952
114	0xbc947b5f	-0.018125234
115	0xbdbb8394	-0.09155956
116	0x3a9912d3	0.0011678584
117	0xbd3aba7e	-0.04558801
118	0xbc3900d7	-0.011291704
119	0xbc50054d	-0.012696576
120	0xbcfa87e9	-0.030582385
121	0xbc966b91	-0.018361839
122	0x3dc7d438	0.097572744
123	0xbdbb12f8	-0.091344774
124	0x3cf9c8f2	0.030491326
125	0x3dc590ae	0.09646736
126	0x3d91c3fb	0.071174584
127	0xbdc3ec08	-0.09566504
128	0xbd8c6f0b	-0.06857117
129	0xbc2d5f96	-0.0105818715
130	0xbc13a10c	-0.009010565
131	0xbc71f915	-0.014768858
132	0xbcb8b70f	-0.022548227
133	0xbd93e0bd	-0.072206
134	0xbd055556	-0.032552086
135	0x3be68a2b	0.007035514
136	0x3d608672	0.054815717
137	0x3da721a3	0.081607126
138	0x3dceac5b	0.10091468
139	0xbd18d727	-0.03731456
140	0x3d5be56b	0.053685587
141	0xbd17d981	-0.037072662
142	0x3c053f62	0.008132787
143	0x3dc890c2	0.09793235
144	0x3d372ebd	0.044722307
145	0x3d9c03a1	0.0761788
146	0x3d3a01fb	0.045412045
147	0xbc28dad6	-0.010306081
148	0x3d965794	0.07340923
149	0xbb50c8af	-0.0031857898
150	0x3d6e9d9c	0.058255777
151	0xbd945b69	-0.072439976
152	0x3c07749c	0.008267548
153	0xbd93a78b	-0.07209691
154	0xbc1b62e7	-0.009484029
155	0x3da34101	0.07971383
156	0x3d6b66f0	0.057471216
157	0x3d4ace16	0.049512945
158	0xbdaf9379	-0.0857305
159	0xbda6e81b	-0.08149739
160	0xbdaac5ca	-0.083385065
161	0xbd83bca2	-0.06432463
162	0x3ce04769	0.027377801
163	0x3cb51654	0.022105373
164	0x3db9b39a	0.090674594
165	0x3d34a768	0.044104964
166	0xbdb2f749	-0.08738572
167	0xbd90f1a9	-0.07077343
168	0x3da5d82f	0.080978744
169	0xbd32f5ed	-0.043691564
170	0xbd3a1ec5	-0.0454395
171	0xbcfe68d0	-0.031055838
172	0x3d8af3fb	0.06784817
173	0x3d8a2d12	0.06746878
174	0xbd44b107	-0.04802039
175	0xbcc02459	-0.023454832
176	0x3d0ab209	0.033861194
177	0x3c5f5406	0.013630873
178	0x3d8220e1	0.063539274
179	0x3d5bec65	0.05369224
180	0x3a42e039	0.00074339245
181	0xbcbdec5c	-0.023183994
182	0xbc17a787	-0.00925625
183	0xbd4f53b8	-0.05061695
184	0xbb27279e	-0.0025505791
185	0x3d332e19	0.043745134
186	0x3d430bc3	0.04761864
187	0x3dbcf61f	0.092266314
188	0x3da67a67	0.08128815
189	0x3d67d990	0.05660397
190	0x3db0daa5	0.08635453
191	0xbcdab3f6	-0.02669714
192	0xbc20b3cd	-0.009808493
193	0x3d06f827	0.0329515
194	0x3d9e3be3	0.07726266
195	0xbd0baae7	-0.034098532
196	0x3da6f847	0.08152824
197	0x3d4a1150	0.049332917
198	0x3cd11b0c	0.025525592
199	0xbd454a56	-0.048166595
200	0x3dca0911	0.098650105
201	0xbd01da84	-0.031702533
202	0xbd398610	-0.045293868
203	0xbd9c4100	-0.07629585
204	0xbdab6180	-0.08368206
205	0xbc6680e6	-0.014068818
206	0xbb5fd555	-0.0034154255
207	0x3db66095	0.0890514
208	0xbd882916	-0.066484615
209	0xbce251d5	-0.027626911
210	0x3d23535f	0.03987443
211	0xbda8ed19	-0.08248348
212	0x3d48c1e6	0.04901304
213	0x3cbe03c0	0.023195148
214	0x3d14ecfc	0.03635882
215	0x3d6147c7	0.055000093
216	0xbc3474cd	-0.011014176
217	0xbbd0e24d	-0.0063746334
218	0xba8a151e	-0.0010534858
219	0xbc81d466	-0.01584835
220	0x3cde9aa0	0.02717334
221	0x3d5ff2af	0.0546748
222	0x3bd3a572	0.0064589316
223	0xbd705c23	-0.05868162
224	0x3dc1a9bb	0.09456202
225	0x3d1f3799	0.03887138
226	0xbd4c5847	-0.049888875
227	0x3ce57fa1	0.02801496
228	0x3da39a2b	0.079883896
229	0x3d5ff28d	0.054674674
230	0xbbde9913	-0.00679315
231	0x3d38e3b7	0.04513904
232	0x3cb613c2	0.022226218
233	0xbc3f6389	-0.011681446
234	0x3cffc184	0.031220205
235	0x3b1e2bdf	0.0024135036
236	0xbdc7088c	-0.09718427
237	0xbd773757	-0.06035551
238	0xbd4dd395	-0.05025061
239	0x3d661757	0.056174602
240	0x3db06093	0.0861217
241	0xbd18a461	-0.03726614
242	0xbd95ca58	-0.07313985
243	0xbdba32f8	-0.09091753
244	0xbd2162fd	-0.039401043
245	0x3d3f61d6	0.046724163
246	0xbd87b2f3	-0.06625929
247	0x3d0938bb	0.033501368
248	0x3cdebc59	0.02718942
249	0x3cc25f64	0.023727126
250	0xbcb067ef	-0.021533934
251	0xbd9fcc06	-0.07802586
252	0x3da69733	0.08134308
253	0x3d1c3580	0.03813696
254	0xbd9abc47	-0.07555442
255	0xbcc5baed	-0.024136985

lstm.bias_ih_l1 f4 [512]
0	0x3b304554	0.0026896792
1	0x3b2629b0	0.0025354438
2	0xbb5fa94c	-0.0034128008
3	0x3b24fbfa	0.0025174604
4	0x3b8b4889	0.00425059
5	0x3b60e3f1	0.0034315551
6	0x3b1c731c	0.0023872321
7	0x3b2011b5	0.0024424617
8	0x39c7ae82	0.00038086256
9	0xbb15b9dc	-0.0022846377
10	0x3ba5a91d	0.0050555603
11	0x3aaac74a	0.0013029363
12	0x3becd04d	0.00722698
13	0x3bbbb2bf	0.0057280953
14	0x3b0830d5	0.002078106
15	0x3b784236	0.0037881262
16	0x3b6accc3	0.0035827614
17	0x3b24711c	0.0025091833
18	0x3ab7d312	0.0014024696
19	0x3bb7ab81	0.0056051617
20	0x3b990143	0.00466934
21	0x3b2cea1e	0.0026384662
22	0x3bf92fbb	0.007604567
23	0x3c227204	0.009914879
24	0x39bca778	0.00035982928
25	0x3bc6d317	0.0060676443
26	0xb9dbe7c7	-0.00041943623
27	0x3c0f4f37	0.008746914
28	0x3bc2d26c	0.0059454944
29	0x3c0845ed	0.008317453
30	0xbaffb4e9	-0.0019508871
31	0x3b152d16	0.002276247
32	0xbac3a10f	-0.0014925319
33	0x3bc184b2	0.005905711
34	0x3b8b7dff	0.0042569633
35	0xbb23b982	-0.0024982397
36	0xbaa2e763	-0.0012428578
37	0xba731d6e	-0.00092741
38	0x3bd619ac	0.006533822
39	0x3b81b4e3	0.003958331
40	0x3b4b3126	0.0031004637
41	0x3b131b4c	0.002244669
42	0x3bbdbf8a	0.0057906555
43	0xb9073186	-0.00012893052
44	0xba1c436e	-0.00059609755
45	0x3b421fa3	0.0029620908
46	0x3b6b4af0	0.003590282
47	0x3b5416dc	0.0032362258
48	0xbb1035ca	-0.0022004717
49	0x3b77dfa4	0.003782251
50	0xbb26fcb6	-0.0025480217
51	0xbb218791	-0.0024647454
52	0xba5a1b90	-0.0008320147
53	0x3b15010a	0.0022736215
54	0x3be38158	0.006942909
55	0x3b413dd1	0.0029486308
56	0x3bd9f8cb	0.006651973
57	0x3a840971	0.0010073615
58	0x3bb583a1	0.005539373
59	0x39e2a7f2	0.00043231208
60	0x3b997c55	0.004684011
61	0x3b8aa3ae	0.004230938
62	0x3acc92c2	0.0015607702
63	0xbbb0b9cb	-0.005393242
64	0x3b234936	0.0024915463
65	0xba917ffe	-0.0011100767
66	0x3c02882c	0.007967036
67	0xbb5759f5	-0.0032860015
68	0x3aac4da5	0.0013145698
69	0xba8fce6f	-0.0010971556
70	0x3b17a73a	0.0023140446
71	0xb8f3a061	-0.00011617016
72	0x3b2ae6fd	0.002607762
73	0x3ba3b65d	0.0049961046
74	0x3bcd34d3	0.0062624007
75	0x3b6a4f9b	0.0035753015
76	0x3b142dad	0.0022610233
77	0xb99d4656	-0.00029997778
78	0x3b1f18b6	0.0024276203
79	0xbaa5d3a6	-0.0012651577
80	0x3b881578	0.00415295
81	0x3b65c43b	0.003505959
82	0x3b6c1a0d	0.003602627
83	0x3a874f01	0.0010323228
84	0x3aa856fd	0.0012843307
85	0x3ac41771	0.0014960599
86	0x3b2c2e82	0.0026272838
87	0x39f1bad1	0.0004610629
88	0x3b417a8a	0.0029522502
89	0xbb08955f	-0.0020840985
90	0x3b38792c	0.0028148396
91	0x3bac9bfb	0.0052676178
92	0x3ba1e1dd	0.004940255
93	0xbb851640	-0.0040614903
94	0xbaecfb30	-0.0018080231
95	0x3b2c495b	0.002628884
96	0x3b24c3d4	0.0025141137
97	0x3bc82096	0.0061074
98	0x3b73c528	0.0037196372
99	0x39985d55	0.00029061237
100	0xb978172a	-0.00023659752
101	0x3b7131ac	0.0036803288
102	0x3b803db1	0.003913604
103	0x3a96c82b	0.0011503747
104	0x3ae1677e	0.0017196981
105	0x3b091ebe	0.0020922865
106	0x3921fe55	0.00015448903
107	0x3b337d93	0.002738808
108	0x3b330453	0.002731581
109	0xbae6b581	-0.00176017
110	0x3baefd3c	0.0053402465
111	0x3bef50d3	0.007303336
112	0xbb2fff94	-0.0026855217
113	0x39f0589d	0.0004584239
114	0x39a12684	0.0003073701
115	0x396126d5	0.00021472138
116	0x3ba7b1fd	0.0051176534
117	0x39d4bd5a	0.0004057687
118	0x3bb88547	0.0056311223
119	0x3bac8a2d	0.0052654953
120	0x3b92b2bc	0.004476873
121	0x3b07a725	0.002069899
122	0x3b223913	0.0024753257
123	0x3bb83a6d	0.0056221993
124	0x3b75bd3e	0.003749683
125	0x3a6355a3	0.00086721237
126	0x3bd84ac7	0.006600711
127	0x3bd9887f	0.006638586
128	0x3b266322	0.0025388678
129	0x3b325245	0.002720968
130	0xbb195a1a	-0.0023399652
131	0x3b0297fa	0.001992701
132	0x3b59923f	0.0033198742
133	0x3b587ad8	0.0033032205
134	0xb834cd12	-4.310633e-05
135	0x3b6cf515	0.0036156822
136	0x3a45f9dc	0.00075521856
137	0xbaa09353	-0.0012250937
138	0x3bbd4fd4	0.0057773385
139	0xb8e65263	-0.000109826
140	0x3c0bc874	0.0085316785
141	0x3bd872d3	0.006605485
142	0x3afc4b2d	0.0019248478
143	0x3b936de9	0.0044991863
144	0x3b3bf448	0.0028679539
145	0x3afc8b59	0.0019267603
146	0x3a94ede2	0.0011362399
147	0x3bbf6378	0.005840715
148	0x3bad00aa	0.00527962
149	0x3b126d7b	0.0022343087
150	0x3bdcb0ac	0.006734928
151	0x3c461272	0.012089359
152	0x38dbbfc4	0.00010478453
153	0x3be85eda	0.0070913853
154	0xba8aea4e	-0.0010598393
155	0x3c0b7e0d	0.00851394
156	0x3bf77b11	0.0075525125
157	0x3c115e32	0.008872556
158	0xba63353a	-0.0008667294
159	0x3a2809fb	0.00064101786
160	0xba0e39db	-0.0005425491
161	0x3ba6485a	0.005074543
162	0x3ba62d31	0.005071305
163	0xbb4aa06b	-0.003091837
164	0xba91cf1d	-0.0011124347
165	0xbab59f69	-0.0013856712
166	0x3bd07bb0	0.006362401
167	0x3b90ccd5	0.004418949
168	0x3b14c747	0.0022701786
169	0x3b37b5a3	0.0028031848
170	0x3bcc4aa3	0.0062344833
171	0xba159e97	-0.00057075307
172	0x398b2a2f	0.00026543575
173	0x3b3f8f1b	0.0029229585
174	0x3b476e02	0.003043056
175	0x3b6bde45	0.0035990637
176	0xbb00e903	-0.0019670136
177	0x3b61b766	0.003444159
178	0xbb0fcc06	-0.0021941676
179	0xbb1ee19c	-0.002424336
180	0xbaab90e8	-0.001308945
181	0x3ae7e279	0.0017691395
182	0x3bf6a511	0.0075270017
183	0x3a94fe57	0.0011367303
184	0x3bd47137	0.006483223
185	0x3abc5c3d	0.0014370751
186	0x3bca6a16	0.006177197
187	0x3ac16737	0.0014755492
188	0x3b8b5da2	0.0042531053
189	0x3ba112a8	0.004915554
190	0x3aa13196	0.0012298103
191	0xbb9e7731	-0.004835986
192	0x3af64b85	0.0018790817
193	0x37eadbbc	2.7997296e-05
194	0x3bf2f634	0.0074146036
195	0xbaf78711	-0.0018884857
196	0x3af7301e	0.0018858945
197	0xb696d902	-4.4956114e-06
198	0x3ad02831	0.0015881119
199	0xba91cd81	-0.0011123867
200	0x3b6edf4f	0.003644902
201	0x3b6e0f32	0.0036324975
202	0x3be0b12e	0.006857059
203	0x3b340686	0.0027469709
204	0x3b39b267	0.0028335096
205	0xb944bf33	-0.00018763244
206	0x3b004004	0.0019569406
207	0xbae3baa3	-0.0017374348
208	0x3b9ecba9	0.0048460555
209	0x3b518550	0.003197033
210	0x3b7f21e1	0.0038930106
211	0x3ade06f4	0.0016939328
212	0x3aadb90c	0.0013254001
213	0x3ae6ac26	0.0017598912
214	0x3b23aa9e	0.0024973522
215	0x38a72ffe	7.97212e-05
216	0x3b219cdb	0.0024660144
217	0xbb0073be	-0.0019600238
218	0x3aed4387	0.001810179
219	0x3b8c0bc6	0.0042738644
220	0x3ba76b5a	0.005109233
221	0xbb873714	-0.004126439
222	0xbb078633	-0.0020679354
223	0x3b120301	0.0022279622
224	0x3bb2dc8f	0.0054584215
225	0x3b9cd5a6	0.004786211
226	0x3b8d6d00	0.0043159723
227	0x3a2b91d3	0.0006544862
228	0x3a950404	0.0011368995
229	0x3b9f464d	0.0048606754
230	0x3b8d9d13	0.004321703
231	0x3a8e1f1e	0.0010843014
232	0x3a6db622	0.00090679724
233	0x3add7f55	0.001689891
234	0x39e7d847	0.00044220893
235	0x3aac02db	0.001312341
236	0x3b3c40a5	0.0028725055
237	0xb8c3a317	-9.3287024e-05
238	0x3bb14303	0.0054095997
239	0x3be2f415	0.0069260695
240	0xbb1daf29	-0.0024060702
241	0x39b41299	0.00034346132
242	0x3a436f21	0.0007455219
243	0x3a0a4b54	0.0005275507
244	0x3b7eebeb	0.0038897942
245	0x38c0ddad	9.196564e-05
246	0x3ba3831f	0.004989996
247	0x3bca9d3c	0.0061832946
248	0x3b41a1a2	0.0029545804
249	0x3aa5deb6	0.0012654874
250	0x3ac28a5d	0.0014842261
251	0x3bb65398	0.0055641644
252	0x3b69dd48	0.0035684872
253	0x39b51ee8	0.00034546037
254	0x3bdb6b5b	0.0066961474
255	0x3c020bf5	0.007937421
